SLIC_GAT/hh_n_0/best3.pt (torch, 580781 bytes, 30 tensors)

GAT_layers.0.GAT_heads.0.f.weight f4 [32, 124]
000000 8f d3 41 be 7e 0f 7a bd a9 cb 83 3d 3a b3 32 3d
       -0.1892836 -0.06104993 0.064353295 0.043627955
000010 a9 82 2a be 30 85 f8 3d a3 60 37 3d ab 73 ed bc
       -0.16651405 0.121347785 0.044769894 -0.028985819
000020 a5 f4 c8 bd 7d b8 4d 3d 97 0e ef bd 99 18 81 bd
       -0.09812287 0.05022477 -0.11672705 -0.0630352
000030 cf 9e 16 bd 6c 0d 0a be 0b 87 21 3e fa 46 8f 3d
       -0.036772545 -0.13481683 0.15774171 0.069959596
000040 79 34 d6 bd ac 38 10 3e d9 f1 d6 bd d6 3e 40 3e
       -0.10459227 0.14084119 -0.104953475 0.1877397
000050 00 e7 43 3e 04 57 89 bd ca 78 a0 3d 02 99 93 3d
       0.19131088 -0.0670605 0.07835539 0.07206918
000060 d3 c6 26 3d 06 60 07 3d a3 4a 08 be 4d 1e 33 be
       0.040716957 0.03305056 -0.13309722 -0.17492028
000070 f8 32 10 3e dd bd 1c 3e 2a 3f 1e 3e 54 8e 17 3e
       0.14081943 0.15306802 0.15453783 0.14800388
000080 75 fb 44 be 4c 02 91 3d 54 09 e7 bd 9f f3 d3 3d
       -0.19236548 0.07080516 -0.11281076 0.103492014
000090 f4 7d 23 3d 05 58 ca 3d cd 8f 06 bd 48 61 81 3d
       0.03991504 0.0988007 -0.032851983 0.06317383
0000a0 2d 2f 41 3e 9b 23 92 bd 0d 03 bb bd 26 3d cc bb
       0.18865652 -0.071356975 -0.09131441 -0.0062328754
0000b0 0b 74 7d bc bb 70 21 3d c0 fc 0f be 7d f2 0c 3e
       -0.015469561 0.03941415 -0.1406126 0.13764377
0000c0 79 0d 98 3d ad 11 08 3e 79 2e 83 bd ae 7e f8 bd
       0.07424445 0.13287993 -0.06405348 -0.12133537
0000d0 50 00 45 3e ad 64 5c 3d be 16 17 be ab 04 b6 bd
       0.192384 0.05380695 -0.14754769 -0.08887609
0000e0 15 bd db bd 9c 1d 01 be 4b 43 87 bc 23 ce 3a bc
       -0.10729424 -0.12608951 -0.01651158 -0.011401686
0000f0 a7 06 da bc 92 36 b9 bd de 86 dd bd cf 68 ed bd
       -0.0266145 -0.090436116 -0.108167395 -0.11592256
000100 0d 48 9a 3d 09 d4 13 be b3 4e 83 3d f9 24 b8 3c
       0.07533274 -0.14436354 0.06411495 0.022478567
000110 7c 70 1c be 81 ac f9 bc 9b f3 d0 bd eb e4 54 bd
       -0.15277284 -0.030477764 -0.10202714 -0.051976126
000120 58 d6 8e 3c 93 51 3d 3e d5 af 65 bd c6 4d 78 3d
       0.017436191 0.1848815 -0.05607589 0.060621046
000130 c1 32 08 bd 34 d8 47 bd 8e 69 3c 3e a5 03 8c bd
       -0.033251528 -0.04879017 0.18399641 -0.06836633
000140 6c 9f 18 3e c2 d8 2d 3e 7c 12 5d 3d 0f 3c 2d 3d
       0.14904565 0.16977218 0.053972706 0.042293604
000150 8c 17 21 3e 26 f3 0e 3d 7b 34 2c bd 19 21 3a 3e
       0.15731639 0.034899853 -0.042042237 0.18176688
000160 0c 3f 2a be e0 f2 97 3d 55 a4 0e 3e 46 65 c6 bc
       -0.16625613 0.074193716 0.13929875 -0.024218213
000170 e0 de 0d be 9b c7 3d bd bc 09 24 bd e3 f8 13 3d
       -0.13854551 -0.046332937 -0.040048346 0.03612603
000180 06 10 2e be 15 4b f4 3b eb fc fd 3d 67 ed a4 3c
       -0.169983 0.0074552395 0.12401756 0.020132734
000190 19 95 13 be 22 de 26 be 1b 2c 00 3e 0a 5e 4a 3a
       -0.14412345 -0.16295674 0.12516825 0.00077197014
0001a0 31 4b 41 be 5d a3 28 3e 8e ee 16 3e e1 28 03 3e
       -0.1887634 0.16468568 0.14739439 0.12808563
0001b0 24 b3 be 3d 39 a4 82 3d fa 31 23 3e cf 3e 42 be
       0.09311512 0.06378979 0.15937033 -0.18969272
0001c0 c1 24 50 bb e8 d9 40 bd 71 7d 48 be b1 f7 e1 3d
       -0.0031760188 -0.04708281 -0.19579102 0.110335715
0001d0 e5 f8 e9 bd 5f 41 12 be 0c 56 15 be ff d7 28 3c
       -0.11424426 -0.1428275 -0.14583606 0.010305404
0001e0 40 43 ef 3d d3 cb df bd c5 f9 05 3e aa 20 0c be
       0.11682749 -0.10927548 0.13083561 -0.13684335
0001f0 4c ae 29 3e 63 24 c9 3d 2f f1 0a 3e 94 86 ac 3d
       0.16570395 0.09821393 0.13568567 0.08424106
000200 a5 50 3a 3d 99 ee 58 3b c4 ba 14 3e 34 92 28 be
       0.045487065 0.00331012 0.1452437 -0.16462022
000210 c2 b0 e6 bd 62 a2 fa 3d 2a 4d 15 3e 55 e8 36 3e
       -0.112641826 0.12238003 0.14580217 0.17862065
000220 10 04 38 be dd 6f 96 bd 04 c8 09 3e 5f 26 14 be
       -0.179703 -0.07345555 0.13455206 -0.14467762
000230 4d a1 00 3e 57 bb 90 bc 4a 26 28 bd 0b 2c a6 bc
       0.12561531 -0.017667456 -0.04105214 -0.020284673
000240 10 28 e8 bc 24 4d 45 be 12 75 1e be a2 95 df bd
       -0.028339416 -0.19267708 -0.15474346 -0.10917212
000250 5e b6 c1 3d b6 ab 97 3d 5b 0d 3f 3e 75 d2 b7 3a
       0.09458612 0.07405798 0.18657438 0.0014024513
000260 36 12 12 be d7 64 af bc 3a 74 ec 3b 25 c4 46 be
       -0.1426476 -0.021410389 0.0072160037 -0.1941076
000270 17 f2 b6 3d d4 5c 00 bb 01 b3 bb bb 99 64 35 3d
       0.08932894 -0.001958658 -0.005728126 0.04428539
000280 0e a1 9b 3d d6 a7 bb 3d 43 49 ca 3d c8 20 09 3e
       0.07599078 0.091628715 0.09877255 0.13391411
000290 c3 f8 84 bd d3 40 50 3d e4 14 c8 3d 74 21 7d 3d
       -0.0649276 0.05084307 0.097696096 0.06179948
0002a0 b3 36 09 3e d0 b8 cc 3d 49 45 b3 3d a7 47 c9 3c
       0.13399772 0.09996188 0.087534495 0.0245703
0002b0 63 c1 f8 bd e8 23 38 be eb 56 42 3e 2d 2f c5 bd
       -0.121462606 -0.17982447 0.18978469 -0.09628139
0002c0 85 6f de bd c6 37 67 bb a5 a9 d4 bc 86 53 36 be
       -0.108611144 -0.0035281046 -0.025959799 -0.17805299
0002d0 f6 24 4d 3c 03 58 d7 3d db 6f f7 bd c9 da 47 3e
       0.012521019 0.10514834 -0.120818816 0.19517054
0002e0 d3 e7 fd 3d 60 83 f8 bd 21 e4 3b 3d e4 1f d8 bd
       0.123977326 -0.12134433 0.045871858 -0.10552958
0002f0 d4 73 fc 3d c7 8e cb 3d fe e8 3d 3e d1 bd 82 3c
       0.1232678 0.09939342 0.1854591 0.015959652
000300 f8 d3 1d bd a2 ad 1e 3e 70 87 31 be 22 0f 00 3e
       -0.038532227 0.15495923 -0.17336822 0.12505773
000310 f3 0d ca bd 2f 79 1d be d9 89 11 3c 48 f4 ef 3d
       -0.09865942 -0.15378259 0.008882963 0.11716515
000320 a1 b0 ec 3c ae 5c a9 bd e7 a2 ba bd e0 94 23 3c
       0.028892817 -0.0826963 -0.091131024 0.009984225
000330 6c 26 08 3d d4 aa 15 3e 5a d1 f5 3b 5c 96 9a bd
       0.033239767 0.14615947 0.0075017633 -0.0754821
000340 bd a5 0c be 61 e6 cb 3d cc 36 36 be 32 cc fa bd
       -0.13735099 0.09956051 -0.17794341 -0.122459784
000350 8b 2f 90 3d 81 d4 34 3e 69 69 53 3d 05 8f b0 bd
       0.07040318 0.17659189 0.0516142 -0.08621029
000360 37 b3 ee 3d bd 34 94 bd 2a b8 40 be ef fc 22 be
       0.11655276 -0.072366215 -0.18820253 -0.15916799
000370 e6 8f fa 3c 01 5f 64 bb c4 e3 bc bd 81 79 4c bd
       0.030586194 -0.0034846666 -0.0922313 -0.049920563
000380 04 2a 29 be 8c 93 bf 3c dd e7 83 bd 23 69 8f bb
       -0.16519934 0.023385786 -0.06440709 -0.004376547
000390 3a 45 f5 bd cf 1d 11 be a2 f4 3c 3e e5 b2 a6 bd
       -0.119760945 -0.14171527 0.18452695 -0.0813959
0003a0 cc 34 83 3d 1d 4d 3a 3d 68 d3 44 be bc b5 99 3d
       0.064065546 0.045483697 -0.1922127 0.07505366
0003b0 4a c2 3a 3e 07 fa f1 3c ec 25 ad 3c e4 d2 2e be
       0.18238178 0.029538168 0.021136247 -0.17072636
0003c0 e7 85 b0 3d 56 56 ce 3d 4a 29 9b 3d cc 9a 0f be
       0.0861929 0.10075061 0.07576235 -0.14023894
0003d0 15 07 d3 bc 9f 0e 17 3e bd 5a eb 3d 7f 3d 65 bd
       -0.025760213 0.14751671 0.11491916 -0.05596685
0003e0 ef 84 3a 3e 11 94 29 be 10 9a 95 3d fe 76 90 bb
       0.18214773 -0.16560389 0.07304776 -0.004408716
0003f0 46 67 ea 3d 7e 57 2d bd 34 eb 22 be 09 0d 0b be
       0.11445479 -0.042319767 -0.15910035 -0.13579191

GAT_layers.0.GAT_heads.0.f.bias f4 [32]
000000 3d cc 0a 3d af a4 1f 3d 79 3a a2 bd ea e0 ce 3c
       0.033886183 0.038975414 -0.07921309 0.025253732
000010 01 7b 36 bc 1b d9 f8 bc 09 0a 67 bd e9 a6 22 bd
       -0.011137725 -0.030376961 -0.056406055 -0.03970996
000020 b0 16 59 bd 98 75 04 3d be b6 80 bd dc 2c 2e 3c
       -0.053000152 0.03233871 -0.06284855 0.0106308125
000030 0c e9 42 bd 80 6f db bc 53 cd 89 3d 53 fd 31 3c
       -0.047585532 -0.026786566 0.067286156 0.01086362
000040 ad 28 89 3d 0e 93 37 3d 6a 33 2e 3c 3e 22 e3 3c
       0.066972114 0.044817977 0.010632375 0.027726289
000050 f4 c1 13 bb bc 07 c7 3c e4 63 81 bc 77 1e b9 3c
       -0.0022546025 0.02429568 -0.015794702 0.022597535
000060 1f 62 de bc 30 bb f0 3b 15 f7 e5 bc 47 c9 7b 3d
       -0.027146397 0.0073465332 -0.02807192 0.06147125
000070 45 c8 8c 3d bd 1e 7c bd 38 49 4d bd e9 d1 0d bd
       0.06874136 -0.06155275 -0.050118655 -0.034624014

GAT_layers.0.GAT_heads.0.w.weight f4 [1, 124]
000000 cd 27 c2 3d a6 99 54 be 57 5c 58 3e 1c a1 b8 3d
       0.09480248 -0.20761737 0.21128975 0.09015104
000010 be 71 fb bc 03 a0 c2 bd 68 ff c6 3d aa fa 48 bd
       -0.030693885 -0.09503176 0.097166836 -0.049067177
000020 2c ca 4d 3d c5 3d 07 3e a7 a7 13 be 51 9d 13 3e
       0.050241634 0.13207157 -0.14419423 0.1441548
000030 17 71 93 3d 0b b5 53 bd e0 a6 f7 3d 7e a0 5c 3e
       0.071993046 -0.051686328 0.12092376 0.21545598
000040 56 43 48 3e ca 63 7b bd ae d9 1e 3d f3 be ef bd
       0.19556937 -0.061374463 0.038781814 -0.117063425
000050 07 fd 43 be 7f b1 b0 bd 79 8d 03 3e f6 b8 13 be
       -0.19139491 -0.08627605 0.12846936 -0.14426026
000060 77 77 10 bd be 1e 0f be 93 af e2 bb ef 8c 34 3e
       -0.03527018 -0.13976571 -0.0069179027 0.17631887
000070 f4 96 25 3e 6a 70 57 be ef 1e b4 3d ce 3b 15 3d
       0.16170865 -0.21038976 0.087949626 0.036433987
000080 6d 2b ff bd 1b da 13 be b3 69 c6 3d 3f 67 39 bd
       -0.12459455 -0.1443867 0.09688129 -0.04526448
000090 6f 5d cf 3c 57 e1 48 3c a8 dd 8f bd ce df 35 3e
       0.025313107 0.012260756 -0.070246994 0.17761156
0000a0 f3 ea ef bd 3c 5e 12 3e 18 d2 09 3b 8e cf 05 3c
       -0.11714735 0.1429376 0.0021029767 0.008167161
0000b0 b5 43 52 bd 4b 5a 32 be 5d 97 f8 bd 20 59 a1 bc
       -0.0513341 -0.17417257 -0.12138245 -0.019695818
0000c0 c7 3f 29 3c 06 59 9f bd d1 a5 f2 bd 1c db bf 3d
       0.010330147 -0.07780652 -0.11848033 0.09367964
0000d0 57 f4 87 bd a8 2f 36 be 8f b2 ce 3c 1d 40 41 3e
       -0.06638401 -0.17791617 0.025231628 0.18872114
0000e0 37 af 46 be 5b 28 3e bd 18 06 af bd 61 c5 11 be
       -0.19402777 -0.046425205 -0.08546084 -0.1423545
0000f0 54 3e 20 3d 10 a7 95 3d 6c 26 d7 3d aa d3 2d be
       0.03912194 0.07307255 0.10505375 -0.16975275
000100 bc b0 74 3d eb f3 d0 bd 08 cb 8d 3c f7 be 0a bc
       0.05973886 -0.10202774 0.017308727 -0.008468381
000110 e5 b8 bc bc 53 b0 86 bc ff 76 4c 3b ba f6 c5 bc
       -0.023037383 -0.0164415 0.0031198857 -0.0241655
000120 93 5a e5 3d 32 b6 9f 3d 4f dc 94 3d 7b 80 b1 3d
       0.11198916 0.07798423 0.07268583 0.08667084
000130 03 fc ee bd 8f db 4b bd 87 73 ed 3d c9 0b 5f 3e
       -0.11669161 -0.049769934 0.11594301 0.2178184
000140 e2 9c 56 3e 36 3c 1d be 59 af 4e 3e 99 4d 8b bc
       0.20958284 -0.15355 0.20184077 -0.017004775
000150 a7 28 0b 3e df 4f 2e be 3b 36 10 bd 69 c7 4f bd
       0.13589726 -0.17022656 -0.03520797 -0.05072728
000160 c0 2f 42 be 61 9e 35 3d 4e 0e 4c 3e b8 e7 e1 3d
       -0.18963528 0.044340495 0.19927332 0.11030525
000170 8c 24 01 be bc aa 65 bd 14 d5 ca bd 33 7b 6f 3d
       -0.12611598 -0.056071028 -0.09903923 0.0584671
000180 cc 2e e7 bd 86 db f5 3c 94 51 b9 bd 9f 3d c7 bd
       -0.11288223 0.030011903 -0.09048763 -0.0972855
000190 f1 e8 80 bd 97 cf b6 bd a5 93 1b 3c cd dc 14 3e
       -0.0629443 -0.08926313 0.00949565 0.14537354
0001a0 32 f6 32 3d 32 46 3a 3e fa 52 36 be c0 16 07 3e
       0.04369182 0.1819084 -0.1780509 0.13192272
0001b0 43 a9 cc 3d 7e b0 28 be f8 80 81 3d 4b 2b b1 bd
       0.099932216 -0.16473576 0.06323427 -0.086508356
0001c0 be 4d ca bc 50 10 19 be 56 e2 c3 bd 99 f2 b4 bd
       -0.024695273 -0.14947629 -0.095646545 -0.08835334
0001d0 e1 32 f4 3d fe 65 24 3e 5e 45 d2 bd 8b b0 d9 3d
       0.11923767 0.16054532 -0.10267137 0.10629376
0001e0 c4 25 5d be 84 d9 8f 3d bc 8e a6 bb c5 57 f4 3d
       -0.21596438 0.0702391 -0.005082933 0.11930803

GAT_layers.0.GAT_heads.1.f.weight f4 [32, 124]
000000 22 84 ce bd 3e 94 8c 3d df 71 e3 3d 68 6a 0d be
       -0.10083796 0.068642125 0.111057036 -0.13810122
000010 0f 63 fe 3b f9 85 35 3e 18 f1 32 bd e5 e0 3a bd
       0.0077632735 0.17726888 -0.043686956 -0.045624632
000020 0a fe 37 3d 7c 87 c1 bd a7 4c 85 bd a2 a7 16 3e
       0.044920005 -0.0944967 -0.06508761 0.14712384
000030 bd a2 12 3e 51 c0 c5 bd 7b bd e0 bd 00 10 de bc
       0.14319892 -0.09655822 -0.109736405 -0.027107239
000040 c3 02 27 be 39 28 ed bd 6b 66 45 3a 58 82 22 3e
       -0.16309647 -0.115799375 0.0007530215 0.15870035
000050 4e 51 31 bd fd ba de bd 84 54 fd bd 1d 46 46 3c
       -0.04329043 -0.10875509 -0.12369636 0.012101677
000060 67 3f b5 bd c1 47 48 bb 8d 0f 93 bd 9d 33 40 3c
       -0.08849984 -0.0030560347 -0.071807005 0.011731056
000070 f0 6b a6 bd fd ff 74 bd 21 4a ab 3d 7a db 83 3d
       -0.08126056 -0.059814442 0.08363748 0.06438346
000080 04 98 29 3e cc 44 38 be a3 4a e9 bd 5a f1 bc bd
       0.16561896 -0.17994994 -0.11391189 -0.09225722
000090 40 51 ed 3b 4b 07 04 be 9f 24 da 3d 6e c7 12 3e
       0.007242352 -0.12893407 0.10651516 0.14333889
0000a0 83 ed cf bd ea c7 d3 bd 65 6f 75 3c db 09 45 3b
       -0.10152724 -0.10340865 0.014980172 0.0030065689
0000b0 cb c2 25 be a5 e1 0e bd 28 9e 48 3d 2c 8c 3c 3e
       -0.16187589 -0.03488316 0.048978955 0.18412846
0000c0 d8 c6 3e be 2e 34 44 be 60 c4 0e 3d b4 ef 20 3d
       -0.1863054 -0.1916053 0.034855247 0.0392911
0000d0 e2 48 09 be 15 74 b0 bd 32 17 8e 3d c1 72 0d 3e
       -0.13406709 -0.08615891 0.06938018 0.13813306
0000e0 53 d6 a4 bd 5b 59 44 3e cc c9 2c 3d b0 e9 84 3d
       -0.080486916 0.19174711 0.042184636 0.06489885
0000f0 65 30 19 be 9c 1c 72 3d b6 5f 14 3e b2 0b 05 be
       -0.14959867 0.059109315 0.14489636 -0.12992743
000100 58 7f 12 be 51 96 dd bd a1 9f 3c 3c 1b 99 db bd
       -0.1430639 -0.10819686 0.011512668 -0.10722562
000110 0d 66 81 3d 89 de 90 bd 0c c8 d4 3d 1f 03 37 3e
       0.06318293 -0.07073695 0.103897184 0.17872284
000120 f7 2b ba 3b 7e 32 1e be 0c 94 9e 3c c3 56 3a 3e
       0.0056815105 -0.15448949 0.019357704 0.1819716
000130 f4 ac 3b be f1 30 20 be 37 fe 2d 3e c2 9e 15 3e
       -0.18327695 -0.1564367 0.16991507 0.14611343
000140 a6 38 06 be e3 76 3a be 9c 65 49 be 30 83 26 be
       -0.13107547 -0.18209414 -0.19667667 -0.16260982
000150 68 c0 06 3e 71 87 fe bd 29 e8 b4 3d db 76 26 be
       0.13159335 -0.12428177 0.088333435 -0.16256277
000160 21 bd 48 3d b1 c4 0d 3e 0c 1b 71 bd 8a a9 ef 3d
       0.049008492 0.13844563 -0.058863685 0.11702259
000170 ce 16 2c 3e 27 13 fb bc 07 f5 6d bd 7a 20 13 3b
       0.16805574 -0.030648781 -0.058095004 0.0022449777
000180 5c 52 fd bd 91 cb 3e 3e a5 c1 c6 bc c2 96 0b 3e
       -0.123692244 0.18632342 -0.024262259 0.13631728
000190 11 01 56 bd 29 7b 28 bd 0e 4b cd bc 67 02 4f bc
       -0.05224711 -0.04113308 -0.025060203 -0.01263485
0001a0 2c 3f 28 3d 06 4b f7 3d d2 23 2d be 90 9d 25 3e
       0.04107587 0.120748565 -0.16908196 0.16173387
0001b0 fd 9c 29 be 4d fa 55 bd 95 ca 05 3e f9 fb cc 3d
       -0.16563793 -0.05224066 0.1306556 0.100089975
0001c0 af a5 26 3d b5 0b 1d 3d 3d 37 2e 3d e7 fc 0d be
       0.040685352 0.038341243 0.042533148 -0.13866006
0001d0 ff f3 b7 3d c7 99 10 be 17 41 c8 bb 94 a5 17 bd
       0.089820854 -0.14121161 -0.006111275 -0.037023142
0001e0 33 15 3f be 2c 52 c0 bc 13 52 04 3e 82 81 2e 3c
       -0.1866043 -0.023476683 0.12921934 0.010650994
0001f0 ee 41 11 be 26 2f 20 be c3 b7 14 3e fb 38 19 3e
       -0.14185306 -0.15642986 0.14523225 0.14963143
000200 26 1b 5f 3d fe 32 8e 3d 00 57 4e bd d8 f5 a8 3d
       0.05446925 0.0694332 -0.05037594 0.08250016
000210 aa fc a9 bd ce 41 30 3e bd 4c 1a be 1a e0 35 bd
       -0.08300145 0.17212602 -0.15068336 -0.044403173
000220 ee 02 e9 bc ec 95 78 bc 0a 36 e4 bd 95 5a fa 3d
       -0.02844378 -0.015172463 -0.1114312 0.122243084
000230 ff b3 36 3e d9 29 48 be 1c c0 db 3b 11 73 13 3e
       0.178421 -0.19547214 0.006706251 0.14399363
000240 e8 d7 c9 bd 6a b0 92 3d b2 60 28 be 55 50 f7 3d
       -0.09855634 0.071625546 -0.16443136 0.12075869
000250 03 5a 96 3d 5e a2 5a 3c 72 f6 02 bb 02 6b 4a 3d
       0.07341387 0.013344375 -0.0019983319 0.049418457
000260 9e 9b 62 3d 66 0b d8 bd 9d cd 16 3e a0 19 99 3d
       0.05532419 -0.10549049 0.14726873 0.07475591
000270 1a 2f 7c 3d e6 67 4b 3d 18 fd 33 3d a3 c9 96 bc
       0.061568357 0.049659632 0.04394254 -0.018406695
000280 22 73 0e be 3b a7 d7 3c 40 45 f7 3d 5a 9a 5f bd
       -0.13911107 0.026324859 0.12073755 -0.05459056
000290 2e c8 dc 3c a4 f9 7c 3d 98 78 9b bc cf 01 ce 3d
       0.026950922 0.061761513 -0.018978402 0.10058939
0002a0 f6 60 d7 bd de 55 d2 bd 5b fd fc bd 59 91 02 3e
       -0.10516541 -0.10270284 -0.12353011 0.12750758
0002b0 d3 f4 36 bd 5d f1 3e be 7a 88 71 3d 8a 3e 91 3c
       -0.044667076 -0.1864676 0.058968045 0.017730016
0002c0 97 4e 81 bd fa 2c 80 3b 84 3a 8e bd 8d ae eb bd
       -0.06313818 0.0039116116 -0.06944755 -0.11507902
0002d0 ed 08 f1 3d d3 bc a4 bd b9 10 06 3e 70 04 28 3e
       0.117692806 -0.08043828 0.13092317 0.16407943
0002e0 d5 c6 b8 bd 92 d0 07 3d 94 3a 2b bd d3 a9 95 bd
       -0.09022299 0.033157893 -0.04180391 -0.07307782
0002f0 21 23 c3 3d 7c 11 d5 bd 4f 96 4c bd b7 71 2a be
       0.09528185 -0.104037255 -0.049948033 -0.16644941
000300 89 d3 fa bd 6f 67 20 3e b3 a7 f9 3d 06 81 f1 3b
       -0.122473784 0.15664457 0.12190189 0.007370117
000310 99 e9 e4 3d db 1c 08 3e 16 b3 9b bd a2 f3 72 bd
       0.11177368 0.13292257 -0.07602517 -0.059314378
000320 b8 25 80 3c 74 8d 29 bd 2d 31 04 3e dd 37 0f be
       0.015642986 -0.041394666 0.12909384 -0.13986154
000330 13 1a c8 3c 82 6c 08 be 61 01 8f 3d f7 c4 1c be
       0.024426496 -0.13322642 0.06982685 -0.15309511
000340 f8 b8 d0 3d 0b 74 93 3d b7 3a 3b be 39 1c 7b 3c
       0.1019153 0.07199868 -0.18284117 0.015326553
000350 c1 2f 4a 3b 36 e7 20 3e e8 a4 13 3e c0 69 2b be
       0.0030851217 0.157132 0.14418375 -0.16739559
000360 70 82 c9 3d 70 11 47 bd 1a ae 3a be 65 d6 35 be
       0.09839332 -0.048600614 -0.18230477 -0.17757566
000370 c6 3e 3a 3e 54 f2 35 be a4 ce df bc aa ca 3c be
       0.18188009 -0.17768222 -0.027320214 -0.18436685
000380 1b 7d 72 bd d2 d7 a2 bb 0e a6 1c 3e c1 5c 29 3e
       -0.05920134 -0.0049695754 0.1529772 0.16539289
000390 03 3c 9f 3d 6f d9 41 be 81 ea 28 3d b5 03 83 bd
       0.07775118 -0.189306 0.041239265 -0.063971914
0003a0 d0 24 fd bb 73 70 dd 3d 3c 4d 5b 3d 7f d8 b1 3d
       -0.0077253357 0.108124636 0.053540453 0.086838715
0003b0 15 b1 be bd 8a 70 1a be 7b 73 3a be 8a b4 c1 bd
       -0.093111195 -0.15081993 -0.18208115 -0.09458263
0003c0 49 c9 ce 3d 49 40 1a 3e 39 bf bd 3c 14 7a ce bd
       0.10096986 0.15063585 0.023162471 -0.10081878
0003d0 e6 42 1e 3d b4 e1 15 bd 31 fa 07 be ae d3 3a be
       0.038638018 -0.0365922 -0.13279034 -0.18244812
0003e0 c0 f0 0e be 10 01 12 bd 20 98 f5 bd c2 1f b2 3d
       -0.13959026 -0.035645545 -0.11991906 0.086974636
0003f0 37 c2 1c 3d 41 9d 03 3e 4d c3 0a 3d ec ae e4 bc
       0.038271155 0.12852956 0.03387766 -0.02791544

GAT_layers.0.GAT_heads.1.f.bias f4 [32]
000000 4e 16 8b 3d 07 4d 89 bc 92 ba 0a 3c 5a 3c 93 bd
       0.06791364 -0.016760362 0.008467333 -0.071892455
000010 df 50 3a 3d 04 45 34 bd 87 9b c2 3c 95 b2 ab bc
       0.04548728 -0.04401113 0.023755802 -0.020959178
000020 d9 da 73 bc 40 90 18 bd a0 19 2e 3d 77 d6 06 bc
       -0.01488372 -0.037246943 0.042504907 -0.008229843
000030 6e 8d 6e 3d 8f e4 ac bd 7f f9 15 bd 89 63 10 3c
       0.058240347 -0.084420316 -0.03661489 0.0088127935
000040 2b 8e ad bd 0b 4a a8 3b a4 25 8e 3d a0 6c b7 bd
       -0.08474382 0.0051357797 0.06940773 -0.089562654
000050 f7 d7 05 3c 46 28 e7 3c 0c 50 49 3d 7e 8b 2f bd
       0.008169166 0.028217446 0.049148604 -0.04285764
000060 12 35 0f bd ce 1e aa 3d 16 0b 4d bc e9 e8 2c bd
       -0.03496272 0.08306657 -0.01251485 -0.042214308
000070 81 fe 87 bd 08 f0 cb 3b b3 2c e0 bc db 9f 96 3b
       -0.0664034 0.0062236823 -0.027365064 0.004596693

GAT_layers.0.GAT_heads.1.w.weight f4 [1, 124]
000000 f6 f4 38 be ad f3 74 39 1d a9 f0 3d 12 9d c3 bd
       -0.18062195 0.0002336043 0.11751006 -0.09551443
000010 1b fe 70 3d 75 de b6 bd 51 22 d3 3c 82 01 a0 bd
       0.058836084 -0.08929149 0.0257732 -0.078127876
000020 8f 19 e0 bd 92 ce a3 3d e7 a5 31 3d c6 86 7b 3d
       -0.10942375 0.079983845 0.043371107 0.061407827
000030 33 7d ba bc d0 94 b6 bd 02 8c a4 bd 11 b6 44 be
       -0.022764778 -0.089151025 -0.08034517 -0.19210078
000040 dc 1d 2e be 12 e1 4e 3e 99 97 16 3e 7c d0 0e 3d
       -0.17003578 0.20203045 0.14706267 0.034866795
000050 ac aa db 3d d6 60 dd bc 1b 70 db 3d d1 a8 fd 3d
       0.107259125 -0.027023714 0.10714742 0.12385715
000060 77 99 07 3e 98 22 42 3d 0c 8e 24 be 28 7c 42 be
       0.13242136 0.047396272 -0.16069812 -0.18992674
000070 48 ad c8 3d 65 fd ec bc 5a 17 b3 3d fb 13 23 3e
       0.09798676 -0.028929422 0.08744688 0.1592559
000080 f8 f9 42 be 27 bd 0f be e1 c9 ba bc ca 47 23 be
       -0.19040668 -0.14037 -0.022801341 -0.15945354
000090 86 40 d6 bd 94 b7 24 3e cb 1c 4b be 31 bc 19 be
       -0.104615256 0.16085654 -0.19835202 -0.15013196
0000a0 3c 5a 4c 3e 1e 04 83 3c 71 e3 86 3d 3b b8 0d be
       0.19956297 0.015993174 0.0658635 -0.1383981
0000b0 69 7d c6 bd 42 8d 10 3e e5 d0 ed 3d b1 c4 e3 3d
       -0.09691889 0.14116386 0.11612109 0.111215
0000c0 33 fa 27 be 85 5b 95 3c 11 b7 45 be 72 f9 f1 bd
       -0.16404037 0.018232116 -0.19308116 -0.11815156
0000d0 a8 f2 f2 3c f8 9c 4f be 1e 23 9f bd a7 70 43 3d
       0.029656723 -0.20274723 -0.0777037 0.047714856
0000e0 4f 39 09 3e 3a d9 5b bb cd 18 06 3e 9d a6 10 3d
       0.13400768 -0.0033546225 0.13095398 0.035315145
0000f0 c4 70 43 be 59 37 d6 bd ec de 0d be f2 a7 1e be
       -0.19085985 -0.104597755 -0.13854569 -0.15493754
000100 5f 69 cb bd 63 9d 1b be 10 af a8 3d 65 ff f6 3d
       -0.09932207 -0.15196757 0.082365155 0.120604314
000110 ad 6f e2 bd 29 4e 59 be fd d6 8d 3d 64 98 09 bd
       -0.11056457 -0.21221222 0.069257714 -0.033592597
000120 04 cf 92 bd f5 d4 34 bd 8a 29 62 3e b7 ec b9 bd
       -0.07168391 -0.044148404 0.22086158 -0.09078353
000130 25 cd ba 3d 44 27 bc 3c ba 83 ce bd cc 6c 95 bc
       0.091211595 0.022967942 -0.100837186 -0.018240355
000140 c4 86 a5 3d 62 b9 2c be 13 c4 85 bc 9d 6e 5f 3d
       0.08082345 -0.16867593 -0.016328847 0.05454885
000150 d7 e4 03 3e 2d 56 33 3e dd dc cd 3c 55 1c 00 3e
       0.12880264 0.17513342 0.02512973 0.12510808
000160 f0 3e 36 be b6 f0 09 be 79 74 04 be 11 42 45 3e
       -0.17797446 -0.1347073 -0.12935056 0.19263484
000170 26 1a 06 3d b7 26 19 3c ce 1b f1 3d 13 cc 31 3e
       0.03273978 0.009347609 0.117728814 0.17363004
000180 7a be 32 be 67 c1 5c be 1b 3b 10 3e 75 d6 28 bd
       -0.17455474 -0.21558152 0.14085047 -0.041220147
000190 6a 17 2b be 4b 74 a1 bd a1 ee 95 bd 6c 19 48 3e
       -0.1670815 -0.07883509 -0.073209055 0.19540948
0001a0 de 45 fc 3d 7c 68 ca bd 15 db e8 bd 1b 1e 6b bc
       0.123180136 -0.0988321 -0.113699116 -0.014350439
0001b0 e4 ca c2 3d 3e 6e 07 be 84 c5 00 bc 80 f5 2b be
       0.095113546 -0.13225648 -0.007859591 -0.1679287
0001c0 01 4c 5c 3d 57 6e 5e 3d fe ea 32 be a1 c2 34 3e
       0.05378342 0.054304447 -0.17472455 0.1765237
0001d0 b5 dd 82 3d ba 4b bf 3d d1 2b ea 3d ae 42 43 3e
       0.063899435 0.093406156 0.114341386 0.19068405
0001e0 ec 2d ff 39 b9 55 75 bd de a8 f2 3d 92 ed 83 bd
       0.00048671605 -0.059896205 0.11848615 -0.06441797

GAT_layers.1.GAT_heads.0.f.weight f4 [64, 128]
000000 ce 79 9f bd b8 3e ff bc f2 6f 28 bd b2 96 8e 3d
       -0.07786904 -0.031157836 -0.041122384 0.069623366
000010 3d 9a 26 be f7 3b dc 3c 4e 78 02 be 1e 6b a2 3d
       -0.16269775 0.026884062 -0.12741205 0.07930587
000020 ca e2 12 3c eb 01 f5 3d 97 54 ac 3d 55 99 ce 3c
       0.008965204 0.119632564 0.08414572 0.025219599
000030 23 08 cf 3d cb 7f ed bd 60 7c 22 bd a0 76 ea bd
       0.10108974 -0.1159664 -0.039669394 -0.11448407
000040 a5 18 9f 3c f1 a2 2f 3e 61 44 13 3e 69 21 ca bd
       0.019420931 0.17152001 0.14381553 -0.09869654
000050 61 30 02 be bb af aa bd 0d 9a e3 3d 7b 16 af 3c
       -0.12713768 -0.08334299 0.11113367 0.021373024
000060 ee fe ea bd e0 88 f1 bd 0c f6 90 3d 51 84 f6 3d
       -0.11474405 -0.11793685 0.0707818 0.12036956
000070 6e d0 ec bd 6b 93 83 bd 4b 64 0f be bc 6b cc bc
       -0.11563192 -0.06424602 -0.14003102 -0.024953716
000080 c1 14 6a bd 0b f3 2d 3e 2c d8 04 3e 3e ff 98 bd
       -0.0571487 0.16987245 0.12973088 -0.074705586
000090 7e 89 94 3c 3c d5 27 be 9b ca b1 3d 38 1b 64 bd
       0.018131968 -0.16389936 0.08681222 -0.05569002
0000a0 0e 06 0d 3e 02 f5 18 3c 53 84 36 3d 9e 42 27 be
       0.13771841 0.009335758 0.044559788 -0.16334006
0000b0 bc 6b 21 3e bd 7f 91 3c 1a 9e 31 3e 2b 59 16 be
       0.15763754 0.017761106 0.17345467 -0.14682452
0000c0 60 39 dc 3d 4f 4f 35 bd 8e ce 11 3e b5 0d 17 3e
       0.10753131 -0.044265088 0.1423895 0.14751323
0000d0 94 f7 44 3d 7c 23 22 be c2 0d 12 be ee ab b4 3d
       0.04808767 -0.15833849 -0.1426306 0.088218555
0000e0 a8 47 a9 bc 70 bb 0e 3e 1b b8 86 3d 3d 84 1a be
       -0.020664051 0.13938689 0.06578084 -0.15089507
0000f0 f6 45 2e 3e 6e 28 2f 3e 72 d5 1b be 59 5a 04 3e
       0.17018875 0.17105266 -0.15218142 0.1292509
000100 4d 3a ff 3c 20 c3 40 3c 4a d8 ae 3d e6 ff 65 bd
       0.03115573 0.011765271 0.085373476 -0.056152247
000110 58 00 8f 3d 67 75 a4 bc d5 07 06 be 38 1f 68 bc
       0.069824874 -0.020075513 -0.13088925 -0.014167599
000120 eb 1c 97 bd 22 32 20 3e 9a 84 af bd fc 68 2c 3d
       -0.073785625 0.15644124 -0.085702136 0.04209231
000130 04 e5 01 3e 2a 16 82 3d 13 e8 87 3d a5 ea f5 3d
       0.12685019 0.06351884 0.066360615 0.120076455
000140 57 8a 84 bd 34 d5 0c 3e 29 6d 15 3e a7 1c bf 3d
       -0.06471699 0.13753206 0.14592423 0.09331637
000150 ad 61 23 3d a5 b9 fb bc 46 ac 6b 3d b6 d5 7f 3d
       0.039888073 -0.03072817 0.05753734 0.06245967
000160 2d e5 12 bc cc 28 f7 3b e7 2a 97 bd f8 a7 c2 bd
       -0.008965773 0.007542705 -0.0738123 -0.09504694
000170 15 b9 18 3c 7e 32 8b bd ee 7a 05 be 27 b6 f1 3d
       0.009321471 -0.0679674 -0.13035175 0.11802321
000180 2c fe 24 be 56 3f 34 3e a4 e4 2c bd c7 dc 37 3c
       -0.16112584 0.17602286 -0.042210236 0.011222071
000190 2d 9c 37 be 52 e3 cc 3d b7 2e 02 3e e0 18 c5 3d
       -0.1793067 0.100042954 0.12713133 0.09623885
0001a0 59 87 81 3c e7 a5 85 bd d4 36 1b bd 62 b1 d1 bd
       0.01581161 -0.06525784 -0.037894085 -0.10238911
0001b0 d7 b8 18 3e df fc 2c 3d 2c 1f d6 3d 3b e5 cf 3d
       0.14914261 0.042233344 0.10455164 0.10151144
0001c0 9e 6e 1c bd e2 bb c6 bd d8 7f f0 3a 57 88 81 3d
       -0.03819143 -0.097038046 0.0018348647 0.06324833
0001d0 a0 e4 36 3e d2 b2 0e be d1 db 2e 3e 5a ea 26 3d
       0.17860651 -0.13935402 0.17076041 0.04075084
0001e0 91 7d 72 3d c3 6b d8 3d eb 00 a7 3d a4 ac 23 3e
       0.05920178 0.10567429 0.08154472 0.15983826
0001f0 bd af 8b bd 83 b1 62 3d 3f f8 27 3e 9d b4 83 bd
       -0.06820629 0.05534507 0.16403292 -0.064309336
000200 b4 a7 05 3e 21 05 27 be 59 c6 88 3d 8c 3c bd bc
       0.13052255 -0.1631055 0.06678457 -0.02310016
000210 c4 50 e7 3d 7b ed bf bd e9 dc 51 bc 2c a2 56 3c
       0.11294702 -0.09371468 -0.012809017 0.013100188
000220 7f f0 c7 3c 0b 92 c1 b9 ca a1 33 be 75 53 f5 bd
       0.02440667 -0.0003692064 -0.17542186 -0.11978809
000230 af 86 8f ba 4c ed 94 3d c3 a3 22 be e1 f9 5a bd
       -0.0010950173 0.07271823 -0.15882783 -0.05346096
000240 e8 6f 21 be 3e ca 1e be ed ec 13 3c ae e5 17 be
       -0.15765345 -0.15506837 0.0090286555 -0.1483371
000250 74 90 9f 3c d7 24 18 3e 81 40 0a be b8 85 2a 3e
       0.01947806 0.14857803 -0.13501169 0.16652572
000260 80 63 94 bc e3 6b 1a 3e 96 59 9f bd 43 ef c5 3d
       -0.018113852 0.15080218 -0.07780759 0.09664776
000270 20 25 c3 3d 51 6e 44 3d 13 4d 28 3d a9 3a 36 3d
       0.095285654 0.04795677 0.04108913 0.044489536
000280 ea 55 78 ba 54 cb 54 bc 54 83 28 be 62 96 0f be
       -0.00094732514 -0.01298793 -0.16456348 -0.1402221
000290 57 88 2c 3e 63 74 39 3d 48 79 11 bc c3 62 ee bc
       0.16848885 0.04527701 -0.008879013 -0.029099828
0002a0 3b 8f ef ba ba 1d 1f 3d f1 16 b6 3d 73 83 31 be
       -0.0018276939 0.03884671 0.088910945 -0.173353
0002b0 7a 29 5f 3d f5 26 30 3e 0c b4 1b be 00 ef ea 3d
       0.054482915 0.17202361 -0.15205401 0.11471367
0002c0 29 be 0c 3c 2e b9 27 3e 38 38 2c be 03 7a 24 3e
       0.00859026 0.16379234 -0.16818321 0.16062169
0002d0 50 ed 04 3d 99 ef c1 bd 3d e0 ff 3d cd 97 19 3e
       0.03245288 -0.09469528 0.12493942 0.14999314
0002e0 dd 0a fc bd e2 55 18 be 5c 39 2b 3e d3 a1 7f bd
       -0.123067595 -0.14876512 0.167211 -0.062410187
0002f0 28 f6 6a bd b9 3e e5 3c 4e fa ca 3d 89 e1 f5 3d
       -0.05736366 0.02798401 0.09911023 0.12005908
000300 33 3a 3e bd 83 22 2a 3e 61 16 f5 bc a1 87 a5 3c
       -0.04644222 0.16614728 -0.029917898 0.020206274
000310 74 ba d1 3d 71 5c 85 3c 2d f4 d2 3c db 43 d3 bc
       0.10240641 0.016279431 0.025751198 -0.025789192
000320 6a fe 08 3e b3 d7 33 be dc f8 13 3d ee 71 31 3d
       0.13378301 -0.17562751 0.036126003 0.043321542
000330 f4 14 c5 bd 19 c3 09 be 42 13 aa 3c e1 7e 33 be
       -0.09623137 -0.1345333 0.020761136 -0.17528869
000340 42 4e 19 be 45 b8 30 be c9 3e 98 bd 65 3d 2b bd
       -0.14971259 -0.17257793 -0.0743385 -0.041806597
000350 8b 40 98 bd f3 a9 14 3e 7d 7e e0 3d f8 d6 92 3d
       -0.074341856 0.14517955 0.10961626 0.07169908
000360 0f b3 1e 3e 66 aa 28 3e 6f a5 1b 3e 77 bd 08 3e
       0.15497993 0.16471252 0.15199827 0.13353525
000370 79 84 00 3e 5a 98 fa bc 68 81 45 bd bb f3 5b bd
       0.12550534 -0.030590225 -0.048219115 -0.053699236
000380 eb e1 89 3d 8c 27 4b 3d 1f c9 1e 3e c5 36 12 be
       0.067325436 0.04959826 0.15506409 -0.14278705
000390 23 4b 83 3d 2f 88 ba bd 69 92 b2 bd 31 c5 05 be
       0.064108156 -0.09108006 -0.08719332 -0.13063504
0003a0 9e 7a 0e 3e 06 ad 02 be 7c 73 87 bd 37 3d 9c bd
       0.13913962 -0.12761316 -0.06613824 -0.07628863
0003b0 83 37 02 3e 4c ef 9e 3d df 9a d8 3c 51 11 c9 3d
       0.12716489 0.07760486 0.026441036 0.09817756
0003c0 67 8b 0f 3e c1 aa 22 3e 9e 66 f3 3d ee 59 41 3d
       0.14018022 0.1588545 0.11884807 0.047204904
0003d0 dc 17 19 3e 76 2d 92 bd 5b 62 10 be ba b2 c5 bc
       0.14950508 -0.07137577 -0.1410002 -0.024133075
0003e0 5c aa eb 3d 34 c4 a0 bc 05 91 d7 bd 3a 93 05 3d
       0.11507103 -0.019624807 -0.10525707 0.03261111
0003f0 53 4d 05 be 48 98 05 3e 52 38 f7 3d 20 40 22 bb
       -0.13017778 0.13046372 0.12071289 -0.002475746

GAT_layers.1.GAT_heads.0.f.bias f4 [64]
000000 e0 cc 8c 3d 8c 39 53 3d 7e 28 33 3d 1d d5 af 3d
       0.06875014 0.051568553 0.04373979 0.0858557
000010 5c b9 57 bd c9 09 0a bc 94 63 84 3d b5 7a 40 3d
       -0.052667007 -0.0084251845 0.064643055 0.046992023
000020 db 50 ad bd b1 f5 1f bd c8 cc 94 bd 34 fc ad 3d
       -0.084626876 -0.03905267 -0.072656214 0.084953696
000030 71 55 b5 bd df bb 5b 3d 0b 6e 86 3d 6a 2d 9b 3d
       -0.08854187 0.053645965 0.06563958 0.075770214
000040 62 e6 b5 3c 39 a2 bc bc 32 65 8a 3c e1 2c 01 3d
       0.022204582 -0.023026573 0.016893957 0.03153694
000050 88 c5 79 bc 5a 18 35 3d 9f 0f a4 3d 83 59 9e 3d
       -0.015244849 0.044212677 0.08010792 0.07731917
000060 31 1c 87 bd 1e 14 08 bd 13 b1 76 3d fd 88 35 3d
       -0.06597174 -0.03322231 0.060227465 0.044320095
000070 d4 96 63 3d 3e 24 ac 3d aa 02 c8 3c de b7 b0 bb
       0.055563763 0.0840535 0.024415333 -0.0053930124
000080 ed db 8a bd 2d 82 7c bd 22 db 9f bd 88 44 85 3d
       -0.06780229 -0.061647583 -0.07805468 0.06507212
000090 85 39 8d bc 31 95 ab 3d 53 ff c3 bc 74 0f ea 3c
       -0.017239342 0.083780654 -0.023925459 0.028571822
0000a0 13 50 56 bd 51 68 22 bc 5d 1a 67 39 c7 67 a4 bd
       -0.05232246 -0.009912566 0.00022039698 -0.080276065
0000b0 04 06 53 3d e7 b3 05 3d 26 90 4c 3d f2 e2 a8 bd
       0.05151941 0.03264227 0.04994216 -0.082464114
0000c0 62 0a 38 3d 7e 08 40 3d c6 58 29 bd 77 b2 b1 bd
       0.044931777 0.0468831 -0.041344427 -0.086766176
0000d0 fe 5a 83 bd f6 ee 9f bc 08 60 1c 3d 4f 92 f8 3c
       -0.0641384 -0.019523125 0.03817752 0.030343203
0000e0 5c 10 5a bd 35 8b 17 3d d2 2d 43 3d 46 02 c1 bd
       -0.053238258 0.036997993 0.04765112 -0.09424262
0000f0 83 26 86 bd b1 d5 41 3d be 33 b5 3b f7 17 c9 3c
       -0.06550314 0.047322933 0.00552985 0.02454756

GAT_layers.1.GAT_heads.0.w.weight f4 [1, 128]
000000 65 ea 88 3d 0a 76 0d be ab 07 87 3d 7f 6b c5 bc
       0.06685332 -0.1381456 0.065932594 -0.02409911
000010 08 6a ea bd 96 2c ce 3c e8 87 ab 3d f0 31 c7 bd
       -0.11446005 0.025167745 0.083755314 -0.09726322
000020 2f bc da 3d 6a ee 33 bd 80 aa f0 bd e6 a8 67 bd
       0.106804244 -0.04392854 -0.1175127 -0.05655756
000030 12 05 10 be 10 90 e3 3d 0c 12 b1 3d 8a 48 0e 3d
       -0.14064434 0.11111462 0.0864602 0.034737147
000040 03 a8 88 3d 18 0a 41 3e 77 89 c1 bd 55 a2 23 3e
       0.06672671 0.18851507 -0.094500475 0.15979894
000050 be da 57 bd 08 66 3e 3e ea 54 03 bd 51 2b 48 3e
       -0.052698843 0.1859361 -0.032063402 0.19547774
000060 88 b5 f1 bd 96 53 6d bd fe ed 26 3e 4f dc e0 3a
       -0.118022025 -0.057941042 0.16301724 0.0017155501
000070 78 1c 53 be ab 87 01 be c5 31 3d be f6 58 e9 3b
       -0.20616329 -0.1264941 -0.18476017 0.0071212007
000080 50 ac 63 bc f7 1b 56 3d d7 6d 1a 3d bf 94 3b be
       -0.013896063 0.052272763 0.037702408 -0.18318461
000090 a8 11 15 3e 95 a5 a4 bd 10 d6 cd 3d fc 42 44 bd
       0.14557517 -0.08039395 0.10050595 -0.047915444
0000a0 a9 53 cd bd 1b 8d 4c bc d6 b0 10 3e 64 ae 50 3e
       -0.100257225 -0.012484814 0.14129958 0.20379025
0000b0 85 5d 27 bd 0d 21 b8 bc 5b db 53 bd f7 28 fb 3c
       -0.04086067 -0.022476697 -0.051722866 0.030659182
0000c0 58 64 14 bc 8d 1b 3c be 18 8c 2c 3e 48 64 3d be
       -0.009057127 -0.18369885 0.16850317 -0.18495286
0000d0 43 b8 31 bd 7e 2b c4 3c 04 a7 5c be 40 84 31 be
       -0.043388616 0.02394652 -0.21548086 -0.17335606
0000e0 24 2a 38 be de 6a 2f 3e 83 bf 9e 3d e2 6a f5 3c
       -0.17984825 0.1713061 0.07751372 0.029958192
0000f0 a1 b2 e9 3d 3a 32 bc 3d 19 95 1e 3d 4e 0d 88 3d
       0.11411024 0.091892675 0.03871641 0.06643163
000100 6b 6e 2c 3e a1 1f 7c bc 55 9d cc 3d 7a 1f 70 3c
       0.16838996 -0.0153884 0.09990946 0.014655942
000110 d2 ba c5 3d 38 e0 2a 3e 3b e5 54 3e 4d b8 ca 3d
       0.09654774 0.16687095 0.2079057 0.09898434
000120 06 69 2a be 61 35 22 3d 22 d2 9b 3d 93 71 e8 3d
       -0.16641626 0.039601687 0.07608439 0.113497876
000130 6e d7 27 3e a9 68 3a be f6 85 bc 3c c9 9c 6e 3c
       0.16390774 -0.18203987 0.023013096 0.014563748
000140 aa a9 55 3e 46 c7 1d 3d b0 fc bb 3d 00 4c df 3d
       0.20865503 0.03852012 0.09179056 0.10903168
000150 54 fd 4d bd ca 29 2c be 2b 18 40 bd b7 d7 2a be
       -0.05029042 -0.16812816 -0.04689805 -0.16683851
000160 84 f9 5a 3a 1f 62 0b 3e e0 b8 30 be 99 64 70 bb
       0.0008353221 0.13611649 -0.17258024 -0.0036681055
000170 a0 02 10 3e ac 6c 3e be 87 45 cd 3d 0a d2 5c 3c
       0.14063501 -0.18596143 0.10023027 0.013477812
000180 7a d0 dd 3d fc e5 81 bd 19 c0 36 be b4 a0 f0 bd
       0.108307794 -0.06342694 -0.17846717 -0.11749402
000190 d3 93 85 bd 4a 49 f8 bd e0 bd 41 be 24 f1 03 be
       -0.06522336 -0.12123354 -0.18920088 -0.12884957
0001a0 a0 b8 41 3e 8e 00 00 be 7e 6c 86 bd d0 53 34 3e
       0.18918085 -0.12500212 -0.06563662 0.17610097
0001b0 1a 7f 7a bd 27 06 06 be ed 6c aa bb 3f d9 5a bd
       -0.06115637 -0.13088284 -0.0052009732 -0.05342984
0001c0 73 be 00 3d 3c 5d 5e 3e 0a fa 12 be 79 fd 93 bd
       0.031431627 0.21715254 -0.14353195 -0.072260804
0001d0 8e ad 30 bc 8c b2 d9 bc 96 86 2d be 94 1b e3 3d
       -0.010783566 -0.026574396 -0.16945872 0.110892445
0001e0 00 da f5 bd e0 09 af bd d2 70 2e 3e b6 73 d1 3d
       -0.12004471 -0.085468054 0.17035225 0.10227148
0001f0 42 e7 46 3e 71 d4 2f be 94 e9 e8 3d 0f 13 a0 bd
       0.19424155 -0.17170884 0.113726765 -0.07816135

GAT_layers.1.GAT_heads.1.f.weight f4 [64, 128]
000000 29 09 50 bc 26 ae b9 3c ec a6 34 3e 4a 8a 4d bc
       -0.012697496 0.022666048 0.176418 -0.012545178
000010 fe bb c0 bd 1f a7 00 be 0c 51 31 3e 8a c7 5d 3b
       -0.09410857 -0.12563752 0.17316073 0.0033840858
000020 6b db cb bd de e1 26 be 11 af c1 3d a1 3a d1 3c
       -0.0995396 -0.16297099 0.094572194 0.025540652
000030 80 c1 be bd 79 6b 38 3d 80 a5 01 3c 61 d5 1f be
       -0.09314251 0.04502437 0.007912993 -0.15608741
000040 43 18 ad ba b2 89 6a bd ca bc 27 3e 88 91 e7 bd
       -0.0013206083 -0.057260223 0.16380611 -0.11307055
000050 36 b1 d8 bd f2 40 15 be 14 d4 5b bd f6 dd 81 3d
       -0.10580675 -0.14575556 -0.05366905 0.06341164
000060 f0 10 a6 bd 92 f5 25 3d f9 d1 22 3e ab f9 f3 bd
       -0.08108699 0.040517397 0.1590041 -0.11912855
000070 5f 43 a7 3d aa 76 17 3e d6 c7 82 bd c0 a5 36 bd
       0.08167147 0.1479136 -0.06385772 -0.044591665
000080 4d de 30 be 01 6a 5a bd 93 e8 eb ba 01 dc a3 bc
       -0.17272301 -0.05332375 -0.001799839 -0.020002367
000090 f3 1a 27 3e d9 fd 1c 3d 3b 76 dd bd 3c f6 5e 3d
       0.16318874 0.038328025 -0.10813566 0.054434046
0000a0 db da da 3d d8 7a fb bc cb 91 06 3e 8f cc e2 bd
       0.106862746 -0.030698225 0.13141553 -0.11074173
0000b0 da 7c aa bd 19 ce 05 be 7d 50 1c 3e 20 33 e9 3c
       -0.08324595 -0.13066901 0.15265079 0.028466761
0000c0 f1 09 b5 3c c6 9a 38 ba 0f be ac bc 08 0c 0e 3e
       0.022099467 -0.0007042106 -0.02108672 0.13871777
0000d0 15 9d a5 bd e6 9a fd 3d 7d 63 9a bd 89 7b 03 3e
       -0.08086602 0.1238306 -0.07538507 0.12840094
0000e0 ab 8e f2 bd 27 31 9c bd c6 99 09 be e3 22 be bc
       -0.11843618 -0.076265626 -0.13437566 -0.023209995
0000f0 ee 68 c3 bc c2 13 9b bd 50 3c 1b be e8 15 a7 3d
       -0.023853745 -0.07572128 -0.15159726 0.08158475
000100 16 29 81 3d bf 34 7c bd 0c 82 0b 3e f3 4e c2 3d
       0.06306665 -0.06157374 0.13623828 0.094877146
000110 bd 2f da 3d 94 97 1b 3e fc 1c 04 be 19 af d5 bd
       0.106536366 0.15194541 -0.12901682 -0.10433788
000120 9e cc d3 bd 4d 97 b0 3d 4a a3 31 3e 24 08 0d be
       -0.10341762 0.08622608 0.17347446 -0.13772637
000130 46 1c c8 bd 7d 17 8a 3d 96 97 80 3d a8 e3 a5 bd
       -0.09771018 0.06742761 0.06278913 -0.081000626
000140 c7 02 0d 3e 74 7c 0c be 30 f1 ea 3d 37 17 dc bd
       0.1377059 -0.1371935 0.11471784 -0.107466154
000150 f2 13 04 3e e1 c0 5c 3d 28 89 ad 3d 0c f0 3e bd
       0.12898234 0.05389488 0.08473426 -0.046615645
000160 aa a4 92 3d 4c 8f 9e 3c e3 3e 23 be 8b 86 2e be
       0.071603134 0.019355439 -0.15941958 -0.17043512
000170 7a d5 58 3d 1a 8c f5 3d 8d b3 37 3d 00 04 1d be
       0.052937962 0.11989613 0.044848967 -0.15333557
000180 a0 6f 37 3d b0 ca 2a be 48 a7 55 3d 6a 02 e2 3d
       0.04478419 -0.16678882 0.052161485 0.11035617
000190 ae cd ca 3c f3 88 11 3d 1e 04 16 3c 38 9e 49 3d
       0.024756279 0.035530996 0.009156255 0.049223155
0001a0 d5 76 0b 3e 1d 8a 55 bd b7 d6 02 3e 77 0c 5a bd
       0.1361955 -0.05213367 0.1277722 -0.053234544
0001b0 30 b4 e4 3d ac 55 fc bd cb fb 1b 3e 6c 36 89 3d
       0.111671805 -0.12321028 0.1523277 0.06699833
0001c0 e2 2a 08 be f7 2c 9a 3d d6 e4 0b be 1a a3 bd bd
       -0.13297608 0.075281076 -0.13661513 -0.09259625
0001d0 43 25 bc 3d ae d1 7c bd 80 8d 2d 3e 24 da 1d be
       0.091867946 -0.061723404 0.16948509 -0.15415245
0001e0 31 66 c3 3d 53 1f 2e 3e c5 09 6f 3d a9 73 fc 3d
       0.09540976 0.17004137 0.058358926 0.12326748
0001f0 c8 3f 19 3e a6 1f 20 3e 2f 6c 07 3e ed 2b 27 be
       0.14965737 0.15637073 0.13224863 -0.1632535
000200 30 01 11 be ce a7 1a be 4e b2 30 be 19 f9 c4 3d
       -0.14160609 -0.15103075 -0.17255518 0.09617824
000210 8a c8 66 bb a3 27 11 be 2b 7f b9 bd db 75 ac 3d
       -0.0035214745 -0.14175276 -0.090574585 0.08420917
000220 df 28 03 be 24 24 4c bd 55 fe 1e be 15 c7 72 bd
       -0.1280856 -0.049839154 -0.15526707 -0.05927189
000230 b5 b4 46 3d d0 18 03 be 4c a8 4d 3d 7b 8f 5e bc
       0.04851218 -0.12802434 0.05020933 -0.013584013
000240 1f e0 99 bd ea f6 e3 bd 58 4a 66 3d 12 16 e0 bd
       -0.07513451 -0.111310795 0.056223243 -0.109417096
000250 dc 7c 4c bd 90 b7 16 be 67 98 cc 3d dc 55 18 3e
       -0.049923763 -0.14718461 0.09990006 0.14876503
000260 21 b3 d5 bc 3b 28 a8 bd 3d 68 0d 3e 98 70 22 3b
       -0.026086392 -0.08210798 0.13809295 0.002478635
000270 aa 97 37 3d 9e 39 f4 3d 5b 96 b6 3d ba 15 12 bc
       0.044822372 0.11925052 0.08915397 -0.008916313
000280 9f e8 ed 3d 60 e8 d6 3d 0b 96 84 bd 2a 68 35 bd
       0.116166346 0.10493541 -0.06473931 -0.04428879
000290 82 c5 86 bb 10 10 34 be d7 09 02 3e af 7d fd bd
       -0.0041129002 -0.17584252 0.12699066 -0.12377488
0002a0 df 5f 2a bd 28 b2 22 be 8f b3 14 be 19 5b 19 3e
       -0.041595336 -0.15888274 -0.14521621 0.14976157
0002b0 f1 f9 f2 3d f4 aa d7 bd c5 a1 d3 bd 00 7d 1d 3e
       0.11864079 -0.105306536 -0.103335895 0.15379715
0002c0 e2 1a 69 3d 21 e1 45 bc 52 49 c5 3c 66 09 a5 bd
       0.056910403 -0.012077601 0.024082813 -0.08058433
0002d0 0c ec ba 3d e8 88 b0 bd d0 98 0b 3e ec 23 9f 3d
       0.091270536 -0.08619863 0.13632512 0.077705234
0002e0 64 e2 90 bd 30 b8 f9 bd b2 12 f8 3d 5c da ec 3d
       -0.070744306 -0.12193334 0.12112941 0.11565086
0002f0 0c e5 0b be 9e e4 00 3e dd fa ab bd 00 7d 32 3e
       -0.13661593 0.1258721 -0.08397458 0.17430496
000300 52 72 26 bd a2 ae 25 be 9f e4 c7 3d 1e 73 ae 3d
       -0.040636368 -0.16179898 0.09760403 0.085180506
000310 e8 2f 0e be e1 e9 a1 3d 4e 1f 05 3e 9e de 11 be
       -0.13885462 0.07905937 0.13000223 -0.14245078
000320 31 2e 5d 3c ff c5 38 3d 9c bd 29 bd 28 66 7c bd
       0.013499782 0.0451107 -0.04144059 -0.06162086
000330 28 08 b0 3d db 87 00 be 77 6f 40 bd 4b 01 b5 3d
       0.08595306 -0.12551825 -0.0469813 0.08838137
000340 35 93 ec 3c 59 18 2b 3e 49 68 2e be 67 04 49 b9
       0.028878788 0.16708507 -0.17031969 -0.00019170494
000350 6a 63 8d 3d 78 11 04 be 80 99 6d 3d 9f 0e dc bc
       0.06903727 -0.12897289 0.058007717 -0.02686244
000360 4a 83 19 be 0f 55 17 3e fe 89 ea bd 4f 41 e1 bc
       -0.14991489 0.14778541 -0.11452101 -0.027496962
000370 43 97 23 bd 91 93 91 bd 96 e5 18 3d 26 3e dd bd
       -0.039939176 -0.07108224 0.037328325 -0.108028695
000380 56 83 69 bd d5 c1 94 3d 5f 4b ee 3d d4 88 e9 bd
       -0.057010017 0.07263533 0.1163547 -0.11403051
000390 96 d9 36 3d fd e1 80 3d 9e 07 f5 3d 70 ab 16 be
       0.0446411 0.06293104 0.119643435 -0.14713836
0003a0 d1 2f 30 3e 21 56 dc bd cf b1 31 be f8 fd e6 bd
       0.1720574 -0.10758615 -0.17352985 -0.112789094
0003b0 e4 0a 25 3d 79 38 21 3e 02 16 2e be c2 77 bf bb
       0.04029359 0.15744199 -0.17000583 -0.0058431337
0003c0 d9 ce 2c be f2 71 d4 3d 02 45 ca 3d 32 df fc 3d
       -0.16875781 0.10373296 0.098764434 0.123472586
0003d0 e7 b0 9b 3d af 75 71 bd b5 df 83 bc 64 d9 74 3c
       0.07602101 -0.058950122 -0.016097883 0.014944408
0003e0 9b 7e cc 3d 34 c0 5a 3c 35 69 82 bd 4e bb 9e 3d
       0.099850856 0.013351489 -0.06367723 0.07750569
0003f0 c2 52 f3 bc 17 6f be 3d 4d cb fd 3d a9 16 59 3d
       -0.029702548 0.092985325 0.12392292 0.053000126

GAT_layers.1.GAT_heads.1.f.bias f4 [64]
000000 d6 2c 8b 3d c8 80 9f bd e3 ab 05 3c 6f 72 a9 bd
       0.06795661 -0.07788235 0.008158657 -0.082737796
000010 97 16 30 bd d5 5e 9e 3d a8 a8 90 bd c6 fb a6 bd
       -0.042990293 0.077329315 -0.070634186 -0.08153491
000020 7b 4f 84 bd 42 21 b4 bb 2c c9 33 3d 8b 43 e4 bb
       -0.06460472 -0.0054971287 0.043893024 -0.0069660596
000030 10 32 7c bd 0c 39 80 3d b7 70 9c bd a6 72 83 3d
       -0.06157118 0.06260881 -0.07638686 0.06418352
000040 7a 7c 85 3d 94 9d b0 bc e9 56 64 3d ca d2 64 3d
       0.06517883 -0.021559514 0.055746946 0.055865087
000050 ce fa 09 bd bb 7d 5a bd 56 a6 00 3c 43 5b ac bd
       -0.03368645 -0.053342562 0.007852158 -0.08415844
000060 50 46 88 3d 10 9c 7c 3d a9 d4 aa bd 0d 28 01 bd
       0.06654036 0.06167227 -0.08341343 -0.031532336
000070 95 f6 39 3d a1 21 94 3d ee 0d 38 3d 7c d8 a4 bb
       0.045401175 0.07232977 0.04493516 -0.0050306898
000080 9e a0 8c 3b 1a 71 95 3d bd 30 15 bc 4f 4b 49 bd
       0.004291608 0.07296963 -0.009105858 -0.049144085
000090 47 21 8a 3d f1 77 7e 3d 33 16 24 3d 8f be 4d 3d
       0.067446284 0.062126104 0.040060233 0.05023056
0000a0 b5 99 86 bd 80 09 e7 bc 03 bf 81 bd 1e ee 8b bd
       -0.06572286 -0.028202772 -0.06335261 -0.068325266
0000b0 cb e2 f9 bc 14 e0 29 3d a1 2c 10 3d 74 44 0f bd
       -0.030503651 0.041473463 0.03519881 -0.03497739
0000c0 6a be 61 3c fc 65 a1 bd f8 3e 9d 3d db c5 5b 3d
       0.013778308 -0.0788078 0.07678026 0.053655487
0000d0 84 66 7b bd 1c 83 d9 bc e5 c3 61 3d 52 dd ef 3c
       -0.061377063 -0.026551776 0.05511846 0.029280338
0000e0 7b 74 e7 3c 6a 88 de bc ad 40 88 3d 2c ec c2 3b
       0.028253784 -0.027164657 0.06652961 0.005948564
0000f0 83 21 01 3d 4d 60 f1 bb ce 6e 99 3d a5 7d 9d 3d
       0.0315261 -0.0073662163 0.074918374 0.076899804

GAT_layers.1.GAT_heads.1.w.weight f4 [1, 128]
000000 e8 33 0b 3e 43 74 fa bd 86 a1 52 3e a3 0a 45 be
       0.1359402 -0.122292064 0.20569429 -0.19242339
000010 6d 75 5c be f2 0b b4 bd b4 88 0d 3d fe 3e 7b 3d
       -0.2152917 -0.08791341 0.0345542 0.06133937
000020 9e d8 a6 bc bf 63 4d 3e de 5a 06 be bf 14 04 bd
       -0.020366963 0.20057581 -0.131206 -0.032246348
000030 8e 37 3e bd 8e 16 23 3e f7 ad 70 3b 2c fb 0e 3e
       -0.0464397 0.15926573 0.0036724785 0.13963002
000040 95 c9 84 3d b2 78 2d 3d f8 6a 63 3d 41 ed ae 3d
       0.06483761 0.042351432 0.055521935 0.08541346
000050 f0 19 ed bd db 05 67 3c d6 08 69 3d aa 6f 39 3e
       -0.11577213 0.014100517 0.056893192 0.18109003
000060 86 a7 4b be e4 7d 03 bd 13 c8 da bd d8 ec 56 3e
       -0.19888124 -0.03210248 -0.106826924 0.20988786
000070 2f 58 33 be 15 aa 3f 3e 50 1b fd 3c 5f c1 a6 bc
       -0.17514108 0.18717225 0.030896813 -0.020355878
000080 f2 af 2f bd de 70 6f 3d e5 15 29 be 99 cf 34 3d
       -0.042892404 0.058457248 -0.16512258 0.044143293
000090 75 9d 13 3e 35 29 09 be fa d6 d3 bd 4c 0d 4c be
       0.14415534 -0.13394625 -0.10343738 -0.19926947
0000a0 4b 4b a2 3d 2c e6 4e 3e fe 64 55 be 68 d7 18 3e
       0.07924517 0.20204991 -0.20839307 0.14925921
0000b0 0e 56 4f be a8 41 1f be fd 14 14 be b9 b6 51 3e
       -0.20247671 -0.1555239 -0.14461131 0.2047986
0000c0 54 3d 16 3e 28 fa 9a 3d 24 68 84 bd af d9 33 bd
       0.14671832 0.07567245 -0.06465176 -0.04390877
0000d0 8e 9e 25 3c 64 55 fe 3d d2 3d a6 bc e6 5d 2f be
       0.010108603 0.12418631 -0.02029315 -0.17125663
0000e0 e3 24 2b bb 67 57 1c be 53 fd a8 bc 7f 1d 09 be
       -0.0026114515 -0.15267716 -0.020628607 -0.13390158
0000f0 47 9c 13 be fc b8 02 bd 96 06 ec 3d 1d 88 52 be
       -0.14415084 -0.031914696 0.11524694 -0.20559736
000100 65 cc 38 3a dc 7b 9a bd 80 25 e5 3d 21 3e 15 3e
       0.00070495 -0.075431556 0.11188793 0.14574482
000110 f4 0b 51 bd 2c a4 4f be bc f1 0b 3e e7 9e 8a 3d
       -0.05103679 -0.2027747 0.13666433 0.067685895
000120 ce 2f 14 be 16 93 36 be 8d 05 5a be 54 a1 47 3e
       -0.14471361 -0.17829546 -0.2129118 0.19495136
000130 ef 27 4e 3e 48 e3 35 3c e6 22 66 3d f7 f1 cd 3d
       0.20132421 0.011101551 0.056185625 0.10055917
000140 0e 50 3a 3e 19 fb de 3d 77 60 2b be 32 89 db 3c
       0.18194601 0.10887737 -0.16736017 0.026798818
000150 fd 4b ef 3d ba 00 c5 bd 9f b1 49 3e f6 e6 85 3d
       0.116844155 -0.09619279 0.19696663 0.06538193
000160 b4 f9 99 3d b1 dd b1 bc 45 da 0e 3e a6 3e 47 be
       0.0751833 -0.021712156 0.1395045 -0.19457492
000170 a3 15 36 be 53 f2 db 3d ce 13 8e 3d e2 62 19 3e
       -0.17781691 0.10739579 0.06937371 0.14979127
000180 f3 8a 0a be e4 b4 94 bd 21 38 23 be 95 27 96 3b
       -0.13529567 -0.07261065 -0.1593938 0.0045823553
000190 48 d6 b4 3c 9d 3a 19 3e 23 b2 44 3e e6 bb 04 be
       0.022074834 0.14963765 0.19208579 -0.12962303
0001a0 4a 20 2d be d0 53 1a 3e 2d fb 77 3d 95 0d 93 bd
       -0.16906849 0.15071034 0.060542274 -0.07180325
0001b0 40 89 3c 3d bd 48 72 bd 72 17 03 be fb 27 27 3e
       0.04602933 -0.0591514 -0.12801912 0.16323845
0001c0 a2 88 00 bd 21 a2 3e 3e e3 c7 9e bd a1 6a 19 3e
       -0.031380303 0.18616535 -0.07752969 0.14982082
0001d0 b0 f7 4e bd 92 ff 16 bd f5 87 0f 3e 9d ef 0d 3e
       -0.050529182 -0.036864825 0.14016707 0.13860936
0001e0 9e 79 00 be 15 1f 9d 3d 31 7a 86 3d 26 b1 41 bd
       -0.12546393 0.07671944 0.06566275 -0.047288083
0001f0 24 57 30 3e ec de 29 be 0b e3 23 be 94 f2 55 3e
       0.17220742 -0.16588944 -0.16004579 0.20893317
