SLIC_GAT/hh_n_0/best1.pt (torch, 580781 bytes, 30 tensors)

GAT_layers.0.GAT_heads.0.f.weight f4 [32, 124]
00000000: 8484 6a3d e16f 1cbd 4b0e 703d 26a5 25bd
00000010: 8254 62bc 6683 bd3d fd35 11bd 82b1 be3c
00000020: 30c8 f23d e16e 0e3e f72c db3b b743 72bd
00000030: c7ea 133e 5666 babc d5a9 6a3c 901c 87bd
00000040: 4e3f 413d 4517 293e f899 0b3e 9b18 3ebe
00000050: fd72 3a3e eb31 9b3d 2309 413e 1a84 163e
00000060: 45f9 f6bd 3fce ae3c c7b2 70bd 01dd 1b3e
00000070: 73db d23b 72c5 28be b8c3 dfbd 1e10 3a3e
00000080: 6714 babd df07 fe3c daf4 2ebe 8d33 dabc
00000090: c661 12bd 4f69 e83d cc88 a73d c04b 583d
000000a0: ccf4 193e 51d1 9c3d 85a1 03be 3c4a 48be
000000b0: fa07 25be 3b11 f7bd 6f76 33be 96ed 65bd
000000c0: c096 febd c113 023e 32ca 58bd bee5 c3bd
000000d0: 8788 e1bd 64ac 223e 2fb9 37be d957 af3d
000000e0: f3ed 9cbb 0dcc 413e 1275 10be 193d dabc
000000f0: 74d7 263d fa7a bd3c 23d8 e6bd fe47 92bc
00000100: 82f5 3fbe 2e12 e5bd d885 2c3c b76d 36bd
00000110: 7738 bcbd fb27 2abe e006 d5bd a336 f93d
00000120: d7bc 883d e73c 453d c193 92bd 7b19 d83c
00000130: a71c c63d eea6 ed3c 5283 dbbd 962d bebc
00000140: 301f 853d d57f f5bd 07b4 8ebd 83c3 26be
00000150: ae0c b33d 161b 4dbe 8197 483d dd8f 22bd
00000160: 6fe7 223d 3a50 283e 5e55 02be 56d6 0cbe
00000170: 86a0 00be 51c4 95bd d774 2b3d 24c7 9abd
00000180: 5cd3 a83b 403a 383e bea0 eebd d4f7 923d
00000190: 2866 5e3d e7ee d5bd c887 19be a10a 133c
000001a0: f927 b0bc fdf7 04be 48a7 3f3e 3862 d6bc
000001b0: cf97 2fbe 18a6 5abd 035e 0dbe 6e0a df3d
000001c0: a020 353e 8a9a af3d 347b dfbd 21e9 2dbe
000001d0: 7f9a 403e a31f 2c3c acdc 18be 0a37 01be
000001e0: 1d6b 2bbd d494 353d c199 bfbd 1e9a f53d
000001f0: 8bfa ecbd e697 18bd 3cd6 34be 6b45 6fbc
00000200: bc48 86bd f9b2 823d eb20 633d c040 b03d
00000210: 9685 7f3c b8c9 15be 6264 45bd 709f 26be
00000220: 4207 03bc 938f 413e bb84 d03c 09a4 0cbe
00000230: 243d 623d e122 a0bd 8bf2 60bc 1de0 4ebc
00000240: 2156 903d 7545 c0bc 81a6 19bc 72fb 48bd
00000250: f02e 1bbe 94c4 013e 023a f63b 0902 88bd
00000260: 260f 423e 1928 3f3e b3bd 0d3e b76a 8bbd
00000270: 359a afbc 2696 143e e888 273e bb0a 04be
00000280: 7e42 3abe 42d7 d5bd 3d0a 1ebe 7903 c1bd
00000290: 8d69 573d a20d 0bbe d916 323e be2b 3cbe
000002a0: f4c0 32bd b583 42be 431d 1ebe 1875 3e3e
000002b0: db3e c63c 0af9 343e cb4f c03d 9dcd 0bbe
000002c0: eea3 1c3e 1f19 243d e9e7 3abe cf16 e03d
000002d0: f790 c7bd 0b36 243e d43d de3d 5f44 9f3d
000002e0: 3a76 2abe d0d7 373e 33a8 37bd d4bb 22be
000002f0: 7fe4 e43d 43b7 383d 62cb 79bd 8a80 893c
00000300: 7220 b83b 63cf 83bd 9593 1c3e 7d2b d6bd
00000310: 0701 373e bb87 d3ba fdda 1ebe 914c 15be
00000320: 7f05 2cbe 5c55 0c3e 3238 30be 3d61 133e
00000330: f369 3c3e 7112 0d3e fce8 04be 9235 153e
00000340: 1d80 d6bd 53fb 3cbe fe50 db3d d68b 423e
00000350: 394e 2b3d 18fe e93c 6f53 ecbd c761 f13d
00000360: 5647 4f3d 5fb2 6b3d 6203 b53d 65c0 ad3d
00000370: fd4c 313e d929 f3bd 44c1 a2ba d89f 19be
00000380: 347b a7bd a507 e1bd 1454 debd a613 0abe
00000390: bd11 073e 8a03 dabd 73cc 2ebe 23c2 a0bd
000003a0: 6886 03be 5c9a 783d 84b5 233e d447 093d
000003b0: cf32 783d b0f6 0a3e a81a f1bc 27ea f5bd
000003c0: 3b73 0fbd 00b2 2a3e 5ea6 9cbd da52 353e
000003d0: 1136 9abd 42de b53d fb0e c33c 9629 bf3d
000003e0: fc5a 3a3e 30c4 9ebd f776 4ebc 4184 86bd
000003f0: 15f3 143d 810e 933c e1bb ee3d c319 1e3c
0.057255283 -0.038192634 0.05860738 -0.0404407 -0.013814094 0.09253578 -0.035451878 0.023278002
0.11854589 0.13909484 0.00668871 -0.05914661 0.14445029 -0.022753876 0.014322718 -0.06597245
0.047179513 0.16512783 0.13632953 -0.18564074 0.18207927 0.075778805 0.18851142 0.1469883
-0.12059263 0.02133858 -0.058764245 0.15221025 0.006434852 -0.1648157 -0.10926002 0.1817021
-0.09085923 0.031009613 -0.17085591 -0.02663591 -0.035737775 0.11348211 0.08180389 0.052806616
0.15034789 0.076571114 -0.12854584 -0.19559568 -0.16116324 -0.12063833 -0.17525648 -0.056134783
-0.12431097 0.12702848 -0.052927203 -0.09565304 -0.11012369 0.15886074 -0.17941736 0.085616775
-0.004789108 0.18925495 -0.14107159 -0.026640462 0.040732816 0.023129929 -0.112716936 -0.017856594
-0.18745998 -0.11185108 0.010529958 -0.044538226 -0.09190457 -0.16616814 -0.10401702 0.12168624
0.06676643 0.048153784 -0.07157088 0.026379338 0.09673434 0.029010262 -0.10718407 -0.023215096
0.06500089 -0.11987273 -0.06967931 -0.1628552 0.08742653 -0.20029864 0.04897261 -0.03968798
0.039771494 0.16436854 -0.12727877 -0.13753638 -0.12561235 -0.07312835 0.041859474 -0.07557514
0.005152149 0.1799097 -0.11651753 0.07176176 0.054296643 -0.10445958 -0.14993203 0.008974702
-0.021503435 -0.12985225 0.18716156 -0.026169881 -0.17147754 -0.053381056 -0.13805394 0.10890661
0.17688227 0.08574398 -0.10912171 -0.16983463 0.18808936 0.01050559 -0.1492793 -0.12618652
-0.041850198 0.044331387 -0.09355498 0.11992286 -0.11571225 -0.037254237 -0.17659849 -0.014603953
-0.06556842 0.063817926 0.055451315 0.086061 0.015595814 -0.14627731 -0.048191436 -0.16271758
-0.007997336 0.18902425 0.025453916 -0.1373445 0.05523409 -0.078191526 -0.013729702 -0.012626675
0.07047678 -0.02347062 -0.0093780765 -0.049067922 -0.15154624 0.12672645 0.0075142393 -0.06641013
0.18951091 0.1866764 0.13841896 -0.068074636 -0.021435836 0.14510402 0.1636082 -0.12894718
-0.18189427 -0.10441448 -0.15433593 -0.094244905 0.052590895 -0.1357942 0.17391528 -0.18376061
-0.043641046 -0.18995555 -0.1544085 0.18599355 0.024199894 0.17673126 0.09390219 -0.13652654
0.15296909 0.04006302 -0.18252529 0.109418504 -0.09744447 0.16036241 0.108516365 0.077767126
-0.16646662 0.1795342 -0.04483814 -0.15891963 0.11176395 0.045096647 -0.060984977 0.016784925
0.005619102 -0.0643604 0.15290673 -0.104575135 0.17871486 -0.0016138473 -0.15513225 -0.14579989
-0.16798972 0.13704437 -0.17208937 0.14392562 0.18399791 0.13776566 -0.12979501 0.14571217
-0.104736544 -0.18455248 0.107088074 0.18998656 0.041822646 0.028563544 -0.11539351 0.11786228
0.05060514 0.057543155 0.08838536 0.08483962 0.17314525 -0.11873216 -0.0012417217 -0.15002382
-0.08177796 -0.10987786 -0.108558804 -0.13484058 0.1319036 -0.10645206 -0.17070179 -0.07849529
-0.1284424 0.060694084 0.15987211 0.033515766 0.06059533 0.13570666 -0.029431656 -0.12007552
-0.035022 0.16669464 -0.076489195 0.17707387 -0.075298436 0.08880283 0.023810854 0.09334104
0.1819877 -0.077522635 -0.012601606 -0.06568194 0.036364634 0.017951252 0.11656929 0.009649697

GAT_layers.0.GAT_heads.0.f.bias f4 [32]
00000000: 544e fe3b f6a4 23bd 9a13 acbd 5742 57bd
00000010: b387 52bd 043f 89bb 3695 b33c 096e bdbd
00000020: 4421 bc3c 29cc 97bd 705d c73b 7e97 4dbd
00000030: d86f 7a3b 8f23 ac3d 8ca7 ef3a 8346 84bd
00000040: a32d 2cbc ffb3 683c 7b36 9b3d 599b 49bd
00000050: 7cee 85bb 37ed c6bc bd48 11bd 1fdf 3c3d
00000060: d9ad 07bc 44e8 21bc a60d 9cbd 541c 1fbd
00000070: d208 71bd 4673 64bd 800f a93d 2bf4 58bd
0.0077608023 -0.03995224 -0.08402176 -0.0525535 -0.051398944 -0.0041884203 0.021921735 -0.09249503
0.022965081 -0.07411987 0.0060841367 -0.050193302 0.0038213637 0.0840522 0.0018284186 -0.064587615
-0.0105089275 0.014203071 0.07578751 -0.049220417 -0.0040872674 -0.024283035 -0.03546976 0.046111222
-0.008281195 -0.009882037 -0.07619791 -0.038845375 -0.058846302 -0.055773996 0.082549095 -0.05296723

GAT_layers.0.GAT_heads.0.w.weight f4 [1, 124]
00000000: d680 0c3d e8a7 4cbe abb0 803d 48a4 463e
00000010: e733 183b 6497 553c bca0 313d b908 08bc
00000020: 511b 323e d540 eebd 3313 91bd 2eea d3bc
00000030: 0629 28bd 257f 113e a2f0 023d 2c6c 9cbd
00000040: c3dd 383e 1361 003d 56cc b0bd 75ac 17be
00000050: 2fa2 26bd 3fce 423c 9129 63be f00b a9bc
00000060: 87a9 58be 850c afbd 1138 f9bd 29c7 45be
00000070: 761d 2fbe e317 823c 3833 5ebe a0e8 0b3e
00000080: d84f 343e 6c0d ab3d c860 20be 10d3 253e
00000090: 2814 15be 6da2 27be c2dc 8d3d 7682 b9bd
000000a0: 0e5d d03d 130d 08be eca6 a2bd fa6a 2fbd
000000b0: f055 35be 4e9b 4e3e f892 d6bd 8b09 0dbd
000000c0: fbc4 20be a25d 07be 8968 09be 1493 013e
000000d0: 4eff 973d 15d9 a23d 1502 52be cfb3 56be
000000e0: 0fe3 f03d 0658 00be 34dc 503e e8f2 27bd
000000f0: a97a 123d 83d9 c4bd a5a5 4ebe 9c31 25be
00000100: adad 3a3e 5783 ddbd ef0b 603e 915b f63d
00000110: f5c5 253e 027e ddbd 2351 c1bc 8c17 e5bd
00000120: 38b6 1b3e 36dc ce3c b270 2c3e 5766 c4bd
00000130: b1f9 2a3e bd5c 403e 2a1c 883d edb9 afbd
00000140: 0758 5cbe 5f29 00be 9e77 5abd ed89 953b
00000150: 81d6 6e3b f468 18be 302f 36be ec53 afbd
00000160: 1fa2 843d 0636 3c3e e320 68bd 42cb 58bd
00000170: 19fe 3a3e 09e7 053c b0bd 4fbe c29a 193e
00000180: 0d81 423e ea84 7f3d cf67 24be 8d51 b23c
00000190: 25f6 0bbd 1121 593e bb1d 2e3e 3927 483c
000001a0: c24f 3cbe b3ac b33d 4a85 423d 07a3 2cbe
000001b0: 6f78 c53c df19 a23c a51f efbd afea a2bd
000001c0: cf28 3d3d 5de5 1ebe e081 e33d c26a 02be
000001d0: c75e 793d 2f34 d6bd 3f0e 2ebd 0f7f c7bd
000001e0: 28ba 96bd cc46 55be 1a43 073e 92fa d6bb
0.034302555 -0.19985926 0.06283697 0.19398606 0.0023224296 0.013036583 0.04336618 -0.008302861
0.17393233 -0.116334595 -0.0708374 -0.025868502 -0.041054748 0.14208658 0.031967767 -0.0763782
0.18053345 0.031342577 -0.08632724 -0.14811881 -0.040682014 0.011889993 -0.22183825 -0.020635575
-0.2115842 -0.0854731 -0.12168897 -0.19314255 -0.17101082 0.01588053 -0.21699226 0.13662958
0.17608583 0.083521694 -0.15661919 0.16193795 -0.1455847 -0.16370554 0.06926872 -0.090580866
0.10173999 -0.13286237 -0.07941994 -0.04282663 -0.17708564 0.20176432 -0.10477251 -0.03443293
-0.15700142 -0.13219312 -0.13418783 0.12653762 0.074217424 0.07951561 -0.20508607 -0.20967029
0.11762058 -0.12533578 0.20396501 -0.041003138 0.03576151 -0.096117996 -0.20180376 -0.16132206
0.18230315 -0.10816067 0.21879552 0.12029184 0.16188796 -0.1081505 -0.02359826 -0.11186132
0.1520623 0.02525149 0.16839865 -0.09589832 0.16696812 0.18785377 0.06645997 -0.085803844
-0.21517955 -0.12515782 -0.053336732 0.004563561 0.0036443772 -0.14883786 -0.17791438 -0.08560929
0.06476235 0.18379983 -0.05667199 -0.052928217 0.18260993 0.008172759 -0.20287204 0.15000442
0.18994541 0.062382616 -0.16055225 0.021767402 -0.03417029 0.2120402 0.17003529 0.012216383
-0.183898 0.08773174 0.047490396 -0.16859065 0.024105279 0.019787727 -0.116759576 -0.079549186
0.046181496 -0.15517183 0.11108756 -0.12736037 0.060881402 -0.10459172 -0.042494055 -0.097410314
-0.07359725 -0.20827788 0.13209191 -0.006560632

GAT_layers.0.GAT_heads.1.f.weight f4 [32, 124]
00000000: 79ba 083d 1e9d 073e 6768 f0bd f1ea 9d3d
00000010: 7519 ab3d a22e 47be ae1c 343e dc77 84bc
00000020: d5f6 373e 0f8e 8b3d 8f99 cabd 2341 a53d
00000030: 55d0 0a3e 3b4f 9b3b ac95 b9bb 422d 133e
00000040: 2d0c 403e 636b a43d 0326 20be c003 6d3d
00000050: 129a 32be befa 09bd 907a ea3c b5a6 92bd
00000060: 4407 933d 11b8 2b3e 83b5 2bbd a8a2 f4bd
00000070: 45f7 a13d ddab a73d 7aaa ebbd b947 bc3d
00000080: 5a32 fa3d fbd7 e83c 76e1 2ebd 0ed4 de3d
00000090: e36f 1e3e 584e 2cbc 9993 24be eb7e 3f3e
000000a0: 0416 fdbd f400 663d 7518 47be 028d 2e3e
000000b0: 7b66 a3bd ac2f 78bd cc69 27bd ad3b 0d3c
000000c0: d5c9 e73d ee47 91bd 4d16 05bd a870 133e
000000d0: ccd8 263e 2fab 8cbb a5b4 93bd 422c febd
000000e0: 3ac4 6b3d 8e3a 1b3d 303d 1cbe 0089 0cbe
000000f0: e157 dfbd 853a c13d 4753 68bd ca22 663c
00000100: 203a 5ebd 77f3 babd 2811 c6bc 74c2 fc3d
00000110: b051 bc3d cc89 16bc a05e 3cbe 8cf1 dabd
00000120: c74e 2e3d f690 2b3e e49e d73d 8f00 42be
00000130: ec05 2b3e aa5f 3c3d 3c27 e5bd d585 233e
00000140: abed b63d 58f9 3a3e feef 3b3e dcc5 d1bd
00000150: 2e61 87bc 437d ac3d c18f 77bc 0af7 09be
00000160: fd1f a1bd 82d5 e93d 0d29 89bc 47ac 41bc
00000170: 8d0b 03be 0a97 f83d c77e 0cbe 311c fa3d
00000180: 7eb9 883d a442 083e a4e7 c1bc 41e9 f53d
00000190: 15ea 6fbd 82c0 1ebe 47bf 133e 2405 353e
000001a0: 43ee 383e 4dee 66bd ef3d b43d 7aa4 193e
000001b0: d6de 343e 00fb 533c 92e8 b83d c7c5 37be
000001c0: ff99 073e 8ec1 143e 8804 eebc e5c3 f5bb
000001d0: 2d97 b5bc 4e8b cebd ffe2 143e 0652 f73d
000001e0: 5e00 243e db84 21bd 722b 43be 4ad0 763d
000001f0: 1cbd f33d 3675 903d 3aa5 253e ca3a 9fbd
00000200: ee34 3abe e635 763d 43a3 2c3e 7846 a7bd
00000210: 9d66 973c 251f 323e f389 473d 98fa b4bd
00000220: 56a4 a63c e478 3a3e c8eb b03d 1c6a 263e
00000230: 0317 e9bd cf24 41bd 6440 e03d dbb3 d8bd
00000240: e771 0e3d d5fd 35bc 6e96 b83c 1e3d 9fbd
00000250: 0733 003e dbfe 80bd f42d 063e 9918 f53d
00000260: 6db5 e5bc bd5f 67bd 025e 3ebe d9e6 eb3d
00000270: 76cd 3fbe c52c 46be 0fce cf3d 905f aebd
00000280: 9b5a 8e3d 3ae8 323e 2026 7bbd 1677 993d
00000290: d9b2 b73d 8062 7fbd dca4 be3d 71f8 a83d
000002a0: dc1c 37be 79b5 113e bb90 05be 253c c5bd
000002b0: 902a 7ebd 1d34 b4bc bbaf 30be 1109 13be
000002c0: aa88 a43d 71de 06bc ac07 b33c 9b85 9bbd
000002d0: 65bf ffba f05b d13c c813 00be bed3 0bbe
000002e0: 98b8 14bd 0cd9 f13d 6ccf d03d e384 5bbd
000002f0: a9be cbbd a03c 1e3d 41f1 eebc d4ea 69bd
00000300: 8cb5 debd 87e2 d03b e573 9ebd cf53 b93d
00000310: fb36 b4bd a9e0 3d3b ea61 953d 4d78 873d
00000320: 33fc 40be 731f 1fbe dedb 7d3d 8099 c13d
00000330: 4f0f 023e e5b9 d6bd 5e26 903d d2aa ee3d
00000340: c149 173e 695f 1e3e c003 143e 6dcf 08be
00000350: 7c9b f33d cb21 f4bd cda9 d1bc 1e54 8dbd
00000360: e13e e7bd bd96 61bd 3fed 33be 4c4c 06bd
00000370: 20ea f63c fd35 f9bd a8d5 64bc 62fd 10be
00000380: 496e f4bc 4a98 b8bd 6d0c afbd 0392 3c3d
00000390: 52bb fdbd a02c 12bc 62cb 90bd 1c8d 2a3e
000003a0: 9632 043b 9d3b 3ebe b470 113e 4ddc 433e
000003b0: 30a3 6fbd 2e81 65bd 2be6 35be 3447 1dbe
000003c0: 895d 3cbd 9dc7 563d 615d 533c 5ad2 013d
000003d0: a338 c7bd 0820 d93d 2007 a6bd ceac 6ebd
000003e0: 19f6 c9bc 016f ff3c 0cd5 eabd 4a79 1e3e
000003f0: 066f 86bd e6cc bd3d 354e e13d 8a0c ab3d
0.03338096 0.13243529 -0.11738663 0.07710827 0.08354465 -0.19451383 0.17589065 -0.016170435
0.17965253 0.06814205 -0.0989257 0.080690645 0.13556035 0.0047396696 -0.005663594 0.14372733
0.18754645 0.08028295 -0.156395 0.057864904 -0.17441586 -0.033686392 0.028622895 -0.07160703
0.0717912 0.16769435 -0.04192115 -0.11945087 0.07908491 0.08187077 -0.11507125 0.091933675
0.12216635 0.0284233 -0.042695485 0.1088029 0.15472369 -0.0105167255 -0.16071929 0.18700759
-0.12357715 0.056153253 -0.19442923 0.17045978 -0.07978531 -0.06059234 -0.04087238 0.008620185
0.11317793 -0.070937976 -0.03249197 0.14398444 0.16293639 -0.0042928676 -0.072121896 -0.12410785
0.057560183 0.03789764 -0.15257716 -0.13724136 -0.109054334 0.0943499 -0.056720044 0.01404638
-0.05425465 -0.091284685 -0.024178103 0.123417765 0.09195268 -0.009188127 -0.18395472 -0.10690603
0.042555597 0.16754517 0.10528353 -0.18945526 0.16701478 0.04598967 -0.11189124 0.15969022
0.0893205 0.1825918 0.18353269 -0.10242817 -0.016525831 0.08422329 -0.015109957 -0.13473144
-0.078674294 0.114176765 -0.016743207 -0.011820859 -0.12797375 0.121381834 -0.13720237 0.12212408
0.06676005 0.13306671 -0.023670025 0.1200738 -0.058572847 -0.15503123 0.14428435 0.17677742
0.1805964 -0.056379605 0.088008754 0.15004149 0.1766313 0.012938261 0.09028734 -0.1794654
0.13242339 0.1452696 -0.029054895 -0.007500159 -0.022166813 -0.10085164 0.14539717 0.120761916
0.16015765 -0.03943334 -0.19059542 0.060257234 0.11901304 0.07053606 0.1617631 -0.07774885
-0.18184254 0.060109995 0.16859154 -0.08167738 0.018481547 0.17394693 0.048715543 -0.088368595
0.020342033 0.18210179 0.08638722 0.16251415 -0.11381342 -0.047154244 0.109497815 -0.1058118
0.034776594 -0.011107882 0.022532668 -0.07775329 0.12519465 -0.0629861 0.13103467 0.11967582
-0.028040612 -0.056487788 -0.18590549 0.1151864 -0.18730721 -0.19353016 0.101467244 -0.08514321
0.06950875 0.174714 -0.061315656 0.07493417 0.08969659 -0.062349796 0.09308788 0.082505114
-0.17882103 0.14229383 -0.13043492 -0.09630612 -0.06205231 -0.021997506 -0.17254536 -0.14358927
0.08033879 -0.008231745 0.021854244 -0.075938426 -0.0019511996 0.025556535 -0.12507546 -0.13654992
-0.036308855 0.118089765 0.101958126 -0.053593528 -0.09948475 0.038632035 -0.029167773 -0.057108715
-0.10874471 0.0063746604 -0.07736949 0.09049188 -0.08799549 0.002897302 0.07294066 0.066147424
-0.18846206 -0.1553934 0.06197726 0.09453106 0.12701152 -0.10484675 0.07038568 0.11653675
0.14774229 0.15466084 0.14454556 -0.13360377 0.11894891 -0.11920508 -0.025593663 -0.0690081
-0.1129129 -0.055075396 -0.17570971 -0.032787606 0.030140936 -0.121685006 -0.013966955 -0.14159158
-0.029837744 -0.09013422 -0.08547292 0.046037685 -0.12389244 -0.008921772 -0.07070042 0.16655391
0.0020171753 -0.18577428 0.14203149 0.19127007 -0.058505237 -0.0560314 -0.17763583 -0.15359193
-0.04598764 0.05243646 0.012900681 0.031694748 -0.097275995 0.106018126 -0.08106828 -0.05827027
-0.024653481 0.03118086 -0.11466417 0.15475956 -0.06564145 0.09267597 0.11001245 0.08352001

GAT_layers.0.GAT_heads.1.f.bias f4 [32]
00000000: 5ffa 43bd e792 3abd 6896 343c 1c12 19bd
00000010: a57e a13d 921c 9fbd 41ad f33c b502 cc3a
00000020: e4c8 fcbc 162c 763d af8e 1a3d 5770 663d
00000030: 588c 5fbd 8366 88bd 6f52 b53d f794 9fbd
00000040: 65e0 a63d 3520 9b3d daa1 41bc eeae 75bc
00000050: 6244 79bd df01 aa3d bd96 d8bc cfa1 023d
00000060: 3364 b1bb 970b 983b cfaf 84bd 40fa 0abd
00000070: 8ce6 97bc c37f d13c 5050 e03c 4f8a 47bd
-0.047846194 -0.045550253 0.011022188 -0.037370786 0.07885484 -0.07769121 0.0297457 0.0015564772
-0.03085751 0.060100637 0.03773373 0.05625948 -0.0545772 -0.066601776 0.088536136 -0.07792085
0.081482686 0.075745024 -0.011818374 -0.01499532 -0.06085623 0.08301138 -0.026439065 0.031892594
-0.005413556 0.0046400535 -0.06478845 -0.033930063 -0.01854255 0.025573617 0.027382046 -0.048715886

GAT_layers.0.GAT_heads.1.w.weight f4 [1, 124]
00000000: be80 50be c4b8 ab3d ef1c 8bbc ce6b 49be
00000010: 7244 d3bd c313 383e 843a 203e 0162 0d3e
00000020: 5ba6 e73c a093 3fbc 5957 1c3e 8297 5dbd
00000030: ecff 353d 04cc 2c3e 4fbb 4b3e 7a35 1a3e
00000040: 35e6 ddbd 8da6 9fbd 876d 0d3e 787e 013e
00000050: 3cb0 5abe 4ff2 663d 6860 fdbc 968d 7a3d
00000060: 9082 033c 6cc0 363e 44ee 02be 12b8 1ebe
00000070: ac0e 083e 2f1d c2bd 4308 693d e2b8 5ebd
00000080: 3b3f c03d 0e3b e2bc a4c9 21bd 70f2 823d
00000090: 5165 893c d7e6 9a3c a52e b9bd c4a5 adbc
000000a0: 808d a83d de42 31be 39f5 c83d c829 89bd
000000b0: 2b57 babd b3c0 ee3d 36aa 2f3d 38dd 803d
000000c0: 7e42 533e 13a7 cdbd be9b 31be 7d6a 353d
000000d0: b22c 41be e80f 84bc c957 9bbd c9ed ed3d
000000e0: 9e0a a73d 3e1b 9f3d 5f04 5fbe 8c95 183e
000000f0: 3030 0f3e 741b acbd cee3 33be 5d65 22be
00000100: 1296 133d 48e5 cabd ca5b fc3d 408c 19bd
00000110: 4a89 8dbd 0c58 55bd 930a dcbc df80 3c3e
00000120: e827 39be 7b69 643c e413 5cbd 132d 5a3d
00000130: 4e52 13be 1549 23be 6c52 b13d 2dc9 db3b
00000140: b0f5 df3d 8f09 9fbd aee2 57be 58fc 4cbd
00000150: 4193 38bd 5436 1bbe e206 03be f7cb 273e
00000160: d6be 323e 7ddf 0a3d 41a1 f83d 3e57 e5bc
00000170: 02f2 e73d 9a5a 15be 52ff b43c eb87 0dbe
00000180: 3620 a4bd f2f1 51be 870c 60be b7da dcbd
00000190: 2300 f33a 1450 86bd 4354 80bd 8f67 53be
000001a0: 3051 d6bd dfa7 05bd 6c98 0ebe 518c ea3d
000001b0: c280 4dbe e88a 55be 4fc7 8c3d da97 323d
000001c0: 42cc 5f3e faea 2c3e ed17 623d 8786 c1bd
000001d0: 57f1 a2bd e009 523e f914 50be c028 07be
000001e0: 7c76 c4bd fd34 1abe 5fc8 00be 3f43 24bd
-0.20361611 0.083848506 -0.01698157 -0.1967003 -0.10315789 0.17976288 0.15647322 0.13806917
0.028277567 -0.011692911 0.15267695 -0.054099567 0.04443352 0.16874701 0.19895671 0.15059462
-0.10834924 -0.07795439 0.13811313 0.126459 -0.2135629 0.056383427 -0.03092976 0.061170183
0.008026734 0.1784684 -0.12786204 -0.15499905 0.13286847 -0.094782226 0.056892645 -0.054375537
0.0938706 -0.02761605 -0.03949894 0.063938975 0.016771944 0.018908901 -0.090421 -0.021197207
0.08230114 -0.17310664 0.098123975 -0.06697422 -0.09098657 0.11657848 0.042886935 0.06292194
0.20630834 -0.100416325 -0.17344567 0.04429101 -0.18864706 -0.016120866 -0.07585103 0.116176195
0.08156322 0.07768868 -0.21779011 0.14900798 0.13983226 -0.08403674 -0.1756737 -0.1585898
0.03603179 -0.09907013 0.12322195 -0.03748727 -0.069109514 -0.05208592 -0.02686051 0.18408535
-0.1808163 0.013941164 -0.053729907 0.053265642 -0.14386865 -0.15945847 0.08658299 0.0067073316
0.10935533 -0.07765495 -0.21082565 -0.05004534 -0.045062307 -0.15157443 -0.12795594 0.163864
0.1745561 0.03390454 0.12140132 -0.027995702 0.11325456 -0.14585343 0.022094402 -0.1382138
-0.08013956 -0.20502451 -0.21879779 -0.10783904 0.001853947 -0.065582424 -0.06266072 -0.20644973
-0.10464704 -0.032630797 -0.13925332 0.114525445 -0.20068648 -0.2085377 0.068739526 0.04360185
0.21855262 0.16886511 0.0551986 -0.09449487 -0.07956188 0.2051158 -0.203205 -0.13199139
-0.095929116 -0.15059276 -0.12576436 -0.040103193

GAT_layers.1.GAT_heads.0.f.weight f4 [64, 128]
00000000: e0fa e93b 5807 2fbe aa78 33be 07da 04be
00000010: 3f4f 10be 2ecb 19bd 6b97 15be 844e a03d
00000020: f06f 84bd 0a0a ea3b ce81 ea3c efca 8abd
00000030: ad3b 843d 8f12 01be 94e4 8b3d 4310 86bd
00000040: cb12 c43d 53c3 103e a548 18bd 006b f13d
00000050: 293f 323e e0b0 fe3d b5d3 223e ae2b fb3d
00000060: 117b 2a3d b446 b53c d917 1bbe 68ef 813d
00000070: 1f2d efbc 8226 7239 75a2 e33d 5c37 02be
00000080: e6ca 293e 0fd0 a8bd 27f1 983d 287a c83d
00000090: 505a 05be 5a0e 97bc 6634 d5bd e238 8cbd
000000a0: e605 d3bd 0fb2 273e a9f1 86bd cfb4 f6bd
000000b0: 14cd 47bd 6765 a7bd 2cb9 c93c 4803 023e
000000c0: 6db9 1abe bd4f 30be 6010 b73d b204 adbd
000000d0: 8910 133e 8ece 10be bd2f bebd 6a78 5dbd
000000e0: 1c9d 293e 195b 2ebe b830 243e c031 33bd
000000f0: 9299 e83d 19cf dcbd fcba 433d e8ff b3bd
00000100: 3443 e5bd 2e23 c63c 5bd2 043d b6f0 7bbd
00000110: d187 ff3d 2ea5 873d 6ffb de3d cb43 9dbc
00000120: 2071 1dbe 0029 25be 1f52 973c 6cce c4bd
00000130: 881b b23d 02eb 123e 3e15 e73d 150b aa3d
00000140: 16e8 8d3d e413 80bd 5fdc 1b3d acb7 023d
00000150: 6aec 0dbd b385 eb3d 4848 3c3d 026a 70bd
00000160: e0c9 26be 2798 4bbd fe2a ebbc b008 6b3c
00000170: 2415 413c 4175 71bd 66ef c23c 6acf 0ebe
00000180: 7cad debd b8d5 e4bc 5a5b edbd b855 b0bd
00000190: d455 6f3c e7c9 0ebd 80f1 2c3e 74ba fdbd
000001a0: 10d2 663d e894 2dbe 4bcc c0bd 2382 f7bd
000001b0: ff8d 4e3d 349c 6f3d 6573 65bd c75f 4d3c
000001c0: 5f03 1bbe 8f0d 1a3e d349 5bbc 6016 33bc
000001d0: ea2b 94bd 922f 213e 7228 77bc 8b8d a0bd
000001e0: 09f8 0d3e 0986 a5bd b2c1 dcbc 0c19 223d
000001f0: 9a3f 133e 6daf 09be d9b3 d0bc 2a94 c1bd
00000200: d53d 053e 716b a73d 26e5 043e 5596 27be
00000210: 45a2 b3bd e01c ccbc 30b2 ea3d f7c7 22be
00000220: 37c8 773d 1509 4a3d d9cc 283e 71a0 33bb
00000230: efab 813c 18c6 23bd 199a 05be a0c8 c8bc
00000240: 5f20 053a 0763 05be 9bf7 b1bd f2a8 2a3c
00000250: eb83 dcbc cd17 e93d 403c 593d 1aaf fb3d
00000260: 5e5c db3d c463 febd ca50 12be 318b 023e
00000270: 9275 ecbd d11f c23b 5959 103c 93f9 833d
00000280: 472f a53d 42df 363e d0b4 2a3d 5b95 81bd
00000290: 33a6 92bc 3adb d9bd 00c5 f3bc 0660 203e
000002a0: 068f d0bc 8cde 8a3d 694a 83bc 3707 a9bd
000002b0: 22f2 163e 6614 d53d 2022 733d 70e9 393d
000002c0: d244 b53c 0b2e 6bbd 4a1a c13d 0a02 08be
000002d0: 10e1 6a3d b8d6 41bd 6799 efbd 1439 323e
000002e0: 0a03 353e 61b0 00be c3dd 5cbd aaf3 b53d
000002f0: beae b13d ba56 fd3c e502 0ebe 7313 49bd
00000300: 4f17 c3bd 2a4f 023e e4d4 cd3d fb0f 2d3d
00000310: bad9 c8bc 8ab5 c63d 9217 183e 9b26 663d
00000320: 39b2 d13d 3208 463c a036 173e d644 05be
00000330: 548b 09be 7f73 873d 5b82 e1bd 06d9 f8ba
00000340: 4520 c1bd adbc bbbc 4fb5 263e 1f38 d13d
00000350: f333 0bbd 737b a23d 1bd6 e2bd bba0 b03d
00000360: 973a 25bd 9d24 c7bd 6482 263d 50c4 e3bd
00000370: f8ad c33a 5559 a4bd ce87 d0bd 9d77 f8bc
00000380: 9372 003d 7b55 283e 37e2 003e f577 263e
00000390: 6721 d83d 1079 2a3c c3b1 29be 3895 153e
000003a0: b8d7 193e 86be b3bd aea9 27be 9fba 143d
000003b0: 65df dcbc e3b0 a3bd 83de c1bc 2f86 183d
000003c0: a10b 233e 6c6a 963d ed23 683d 1d2b 363d
000003d0: 8c56 283e 6771 2b3e 29fb 5abc d9dd 4f3d
000003e0: 9234 d2bd 2717 54bd 4f75 8cbc a6a8 34bd
000003f0: 4514 2abe 12f0 1abd 50c4 f03d ab64 b2bc
0.0071405023 -0.17092645 -0.17526498 -0.12973796 -0.1409273 -0.037547283 -0.14608543 0.07827476
-0.06466663 0.00714231 0.028626349 -0.06776988 0.06456695 -0.12604736 0.06830707 -0.065460704
0.09573897 0.1413701 -0.037178654 0.11787987 0.17406906 0.1243608 0.15901072 0.122641906
0.04162127 0.02212844 -0.15145816 0.06344491 -0.02919632 0.00023093264 0.111149706 -0.1271643
0.16581306 -0.08242809 0.07467871 0.097889245 -0.13022733 -0.01843946 -0.10410385 -0.06846787
-0.103038594 0.16376518 -0.06589062 -0.12046205 -0.048779562 -0.08173638 0.02462443 0.12696564
-0.15109797 -0.17217918 0.0893867 -0.08448161 0.14361776 -0.14141294 -0.09286449 -0.054069914
0.16563839 -0.17026938 0.1603421 -0.043748617 0.11357416 -0.10781688 0.047785744 -0.087890446
-0.111944586 0.024186697 0.032427173 -0.061508857 0.12477077 0.066233024 0.10887801 -0.019197365
-0.15375185 -0.16128922 0.018471776 -0.09609684 0.086966574 0.14347461 0.112833485 0.08302895
0.069290325 -0.06253794 0.03805196 0.031913444 -0.03464929 0.115001105 0.04596737 -0.058694847
-0.16287947 -0.04970565 -0.028707024 0.014345333 0.0117848255 -0.058949713 0.023795795 -0.1394631
-0.10872933 -0.02793394 -0.115896896 -0.086100996 0.014607865 -0.034860518 0.16889 -0.12389079
0.056352675 -0.16951334 -0.09413966 -0.120853685 0.050428387 0.058498576 -0.056018252 0.012535042
-0.15138005 0.15044235 -0.0133843 -0.010930628 -0.072349384 0.15740803 -0.0150853265 -0.07839497
0.13864149 -0.08082206 -0.02694783 0.039574668 0.14379731 -0.13445826 -0.025476383 -0.09452088
0.13011868 0.0817479 0.12978038 -0.16365941 -0.08771185 -0.024916112 0.11459768 -0.15896593
0.060493674 0.049325068 0.16484393 -0.0027408863 0.015829055 -0.03998384 -0.13047065 -0.024509728
0.0005078371 -0.13026057 -0.08689805 0.010416256 -0.026918372 0.11381493 0.053035975 0.12289257
0.10710977 -0.124213725 -0.14288631 0.1274841 -0.11545862 0.005924203 0.008810365 0.06444087
0.08065658 0.17858604 0.041676342 -0.063273154 -0.017901516 -0.10637517 -0.029757023 0.1566163
-0.025458824 0.06780729 -0.016026692 -0.08253329 0.14740804 0.10404281 0.059358716 0.04538864
0.022127543 -0.057416957 0.09428842 -0.13282028 0.057343543 -0.047323912 -0.11699181 0.17404586
0.1767694 -0.12567283 -0.053922426 0.08884366 0.086759076 0.030925144 -0.13868292 -0.049090814
-0.0952593 0.12725511 0.10050371 0.04225157 -0.024517883 0.097025946 0.14852741 0.05618916
0.102390714 0.012086915 0.14766932 -0.1301454 -0.13432056 0.06613826 -0.110111915 -0.0018985576
-0.09429983 -0.022917116 0.16280101 0.102157824 -0.03398509 0.07933702 -0.110759936 0.08624407
-0.04033908 -0.0972378 0.040651694 -0.11121428 0.0014929166 -0.08024851 -0.10182153 -0.030330474
0.031359266 0.16438858 0.12586294 0.16256697 0.10553246 0.01040484 -0.16571717 0.14607704
0.15023696 -0.08776574 -0.16373321 0.03631079 -0.026961992 -0.07992723 -0.023665672 0.037237342
0.15922405 0.07344517 0.056674886 0.04447471 0.16439265 0.16742478 -0.013365545 0.05074868
-0.10263933 -0.051779892 -0.01714578 -0.04410615 -0.16609295 -0.037826605 0.11756194 -0.021776518

GAT_layers.1.GAT_heads.0.f.bias f4 [64]
00000000: d69c 6dbd 7e42 9ebc 5fb2 a03d 98ec 85bd
00000010: 5ba3 233d b251 3f3c edc5 803c 84a1 afbd
00000020: be66 95bb 1289 64bd ee9f 8f3d f88d 1c3c
00000030: a1d8 6dbd 4fbc 8bbc 7282 843d 47df 7bbd
00000040: 5dc0 303d 2690 993d ef78 59bc b52c afbd
00000050: 6a80 8abd 4cc0 213c 74bd bdbd 3df1 943d
00000060: 33e9 46bd dccb b6bc e950 13bd 4823 4e3d
00000070: 24d0 12bd 75da adbc d0ef 9a3d 2aa5 8fbd
00000080: 490d 8bbc 5f03 143d a70f 583d 8674 673d
00000090: 3658 6abd 1dc6 23bd 2404 93bd 9c67 863b
000000a0: e14c bdbc 6045 423d 8d2c 5cbd 2d21 c6bc
000000b0: 83ed 053d f956 af3d 464c 643d 0406 ad3c
000000c0: c306 02bd b8fb a2bd 2a7d 8abd 4c19 e2bc
000000d0: d4ae 80bc 0b70 1c3d d01c 1cbd 9e55 a73d
000000e0: ec52 b2bd fc3a c53c 670d acbd 655c 963d
000000f0: 373d efbb 85fa adbb 70df d13c 3904 593d
-0.0580109 -0.019318815 0.078465216 -0.06539267 0.03995071 0.0116771925 0.015719378 -0.085757285
-0.004559367 -0.055794783 0.07012926 0.009555332 -0.05806792 -0.017057566 0.06470193 -0.06149223
0.043152202 0.07498197 -0.013273462 -0.08553449 -0.06762774 0.009872507 -0.09264651 0.07272575
-0.04856224 -0.022314005 -0.035965834 0.050326616 -0.03584303 -0.021222332 0.07565272 -0.070139244
-0.016974108 0.036136027 0.052749302 0.05650761 -0.05721303 -0.039983857 -0.07178524 0.0041017067
-0.023107948 0.047429442 -0.053753424 -0.024185741 0.032697212 0.085615106 0.055736803 0.021121033
-0.03174473 -0.07958168 -0.067621544 -0.027599953 -0.015708365 0.03819279 -0.038113415 0.08170627
-0.08707222 0.024075978 -0.08400994 0.073418416 -0.0073009985 -0.0053094053 0.025619239 0.052982543

GAT_layers.1.GAT_heads.0.w.weight f4 [1, 128]
00000000: 6eaa fb3d a90c 893d a5a2 25be f497 1f3e
00000010: 0136 083e 157c 28be 7251 16bd 2651 ed3d
00000020: 6476 9cbc 900c dd3d 40af 83bd 2dca adbd
00000030: 326b 0cbd 1dea 92bc c1d1 68bb b7fb 873d
00000040: 885e 19bc efdd 0b3e b855 8cbd 3a78 003e
00000050: 9c02 46be 6b75 8c3d 2157 d8bd 4101 3d3e
00000060: 0ecc 1c3d 05df 3f3d 510d 2dbe ecf2 0cbe
00000070: 73da 0dbd 2766 d63d 9977 6d3c 0576 43bd
00000080: 5839 393e dd5d 37bc cb60 133e 338a 1f3e
00000090: fa4f 193d 2650 13be 3d06 d33d c9b4 a93d
000000a0: 2bac 36be ee8d 3cbd 0526 b33d 8e42 da3d
000000b0: fed8 26bc 70ce 18be ae23 f93d 731f f3bd
000000c0: 1224 2e3e a698 b1bd 10f4 053d 86f7 e2bd
000000d0: 0645 543d 3a81 3abd d649 e93c 0576 023e
000000e0: d14f eb3d 1584 9abc bdf4 c83d e19b dfbd
000000f0: 1cd6 26be 9861 96bc 88ab f63d f709 df3d
00000100: cda4 ccbd e7ba d2bd e85f 523e 8873 e13d
00000110: 3abe 11be 54cb 5dbe f2b2 433e c953 eebd
00000120: 6f5c 463e 6682 423e a012 823d 8530 473e
00000130: 9cc8 8d3d 5ff2 1a3e 6ca4 a2bc adac d33b
00000140: e2bc f8bd 27de 34be b0cd 06bd 6760 58bd
00000150: 474e 1e3d 8059 e4bd c851 f1bd 3db0 efbb
00000160: 0ca1 433e 2c52 fcbd 7d9b ecbd 9b60 103e
00000170: 1652 673d 87cf 21be 2988 9abc a8e6 423e
00000180: b849 733d ee00 9ebc 24ce 1e3d 3c01 88bd
00000190: 6249 00be fb8f 423e 05f2 493e 1adb 8fbc
000001a0: f928 b33d 6c71 8f3d 8ec8 cabc 3017 9dbc
000001b0: 0c5f 0f3e f05e cfbc 23eb 8d3d 2dfc 59bc
000001c0: c9e1 8cbd 9753 563e 8653 413e 3a9d b93d
000001d0: 7a6b 073e ca19 433d ad0e 2bbc 4395 46be
000001e0: cff1 6cbd 4995 823d 24de 2dbe f502 063e
000001f0: be97 133e 2ce3 f13d c00c 10be 9d92 1f3c
0.12288366 0.06691868 -0.16175325 0.1558531 0.13301851 -0.16453584 -0.036698766 0.115877435
-0.019099422 0.10793412 -0.06429911 -0.084858276 -0.034281917 -0.0179339 -0.0035525414 0.06639808
-0.009360917 0.1365888 -0.06852287 0.12545863 -0.19336933 0.06858333 -0.105634935 0.1845751
0.03828054 0.046843547 -0.16899611 -0.13764542 -0.034632158 0.10468703 0.014493846 -0.047719974
0.18088281 -0.011191812 0.14392392 0.15580063 0.037429787 -0.14386043 0.10303924 0.08286435
-0.17839114 -0.046033792 0.08747486 0.106572255 -0.010183571 -0.149225 0.121650085 -0.11871233
0.17005947 -0.086716935 0.03270346 -0.110823676 0.05182364 -0.045533396 0.02847759 0.12740333
0.11489833 -0.01886181 0.09812305 -0.109184034 -0.16292614 -0.018357083 0.12044436 0.108905725
-0.09992371 -0.10289555 0.20544398 0.11008364 -0.14232722 -0.21659595 0.19111231 -0.116370745
0.19371198 0.18995056 0.06351209 0.19452102 0.06923029 0.1513152 -0.019853793 0.0064597935
-0.121454015 -0.1766287 -0.032911003 -0.05282631 0.03864887 -0.11149883 -0.11783177 -0.0073147104
0.19104403 -0.123203605 -0.115530945 0.14099352 0.056474768 -0.15801822 -0.018863754 0.19033301
0.059396476 -0.019287553 0.03877081 -0.066408604 -0.12527993 0.19000237 0.1972123 -0.01756053
0.08748049 0.070040554 -0.024753835 -0.019176096 0.14001101 -0.025313824 0.069296144 -0.013304752
-0.068790026 0.20930324 0.18879518 0.09063192 0.13224593 0.047632016 -0.010440511 -0.19392876
-0.057847794 0.0637613 -0.16979271 0.13087066 0.14413354 0.11810908 -0.14067364 0.009739545

GAT_layers.1.GAT_heads.1.f.weight f4 [64, 128]
00000000: 6ea4 37bd dde3 253e c2f6 af3d e49e 423b
00000010: 2388 4fbd 06f2 0d3e 5890 133e f281 173e
00000020: e230 05be 03b6 ea3d 1023 4dbd e4d8 f83d
00000030: 0e52 1e3e 1143 39bd b649 3638 8b82 ef3c
00000040: 7b7c 023e 58b2 0fbe 932a cb3d 173b 25be
00000050: 1858 1c3e f36c 723d a9aa 723d 109c 0fbe
00000060: c798 533d 9a66 56bd 93e8 12be 6a1f 043d
00000070: 45eb 1ebe c54b 093e edfb c43d 20b1 e6bd
00000080: ecc3 ab3d 62a6 423d 82fc 563d f65b a9bd
00000090: 3aad cfbd acf4 f5bc 94de 26be 3a23 e7bc
000000a0: a4b8 2b3e 5b7d 71bd 669a 883d abfe 34be
000000b0: d94a 22be 67cb 1ebe 7026 c6bd 56c4 a83d
000000c0: ac7c 5a3d c3a6 f7bd 1439 24be e1b8 2bbb
000000d0: 8edc ff3d a78c c63c 46f5 a7bd 08db 6c3d
000000e0: b725 fd3c 1f9d d1bc 9612 9d3d 62d6 d9bd
000000f0: 804b 1ebe 3708 34be 5c5b 81bd d87d 173d
00000100: 1bfd f7bd 3f2b f73d 5683 a63d f463 013e
00000110: 37ca a1bd 1986 81bc 4feb 2fba 9ac7 ae3c
00000120: 808a f13c ec8d 433c cab2 fb3d 9723 c83d
00000130: 0dc7 833c d05f ecbd ede8 95bd 5712 1dbe
00000140: 0aa3 ec3d 1ca5 2ebe 765c f4bd e092 bebc
00000150: 3db5 0cbe f193 833d 7ab1 2e3e 54ee 6f3c
00000160: 274a 79bb 72c2 31be 5b56 8e3d 2fc0 c53d
00000170: 67d0 863a 7499 2c3e 2c5d 8f3d c68c 0abe
00000180: 2054 683d 8cba 5f3c b5c5 0cbe 461c d03d
00000190: 7b7e 24be 253c 9bbd 3adc babd 7ca6 8e3d
000001a0: c9de 1b3e aa2e e5bd b391 d63d 73b8 a2bd
000001b0: 845a c7bd 241d 543c 2bb5 9c3d 9ddd 84bd
000001c0: d3cc 913d b579 08be e819 2fbd d30d b6bd
000001d0: 4661 af3d c585 a0bd 913a 44bd 7297 7fbd
000001e0: 667c 693d 5637 f4bd 0043 2bbe 1ae7 12be
000001f0: 068b afbd 4e33 22be ea0b 7a3c 642d 083e
00000200: cffc d2bd 6db6 26bd ada1 91bc bc43 22bc
00000210: f45c 89bb 785d 0cbe 5624 da3c 3a3f 2d3e
00000220: 7f0d 10be 3fa1 c13b dd5c 39be 5707 06be
00000230: a7f5 a1bc b5fd 133e 47eb 1cbe e738 59bd
00000240: cf61 b2bd 94fd 03be 8d3e 2d3e b3eb 29be
00000250: d9e9 303e e963 e33d 7ff3 103e c3ae bcbd
00000260: 9102 93bd 0d31 9a3c 387e dcbd ac2f 98bd
00000270: 0248 ffbd b5b0 d73d 5cef d6bc 9d36 e33d
00000280: 13f7 e4ba bfed dc3d 3e7c 50bd 6d09 75bd
00000290: df59 56bc dc4f d1bd 10e1 343e dfe9 2b3e
000002a0: 3e86 28bd 390f eb3d b667 83bd d839 d6bd
000002b0: 7669 2e3e b428 ddbd 7cd4 1e3c f1c9 ecbd
000002c0: b584 b0bd 564a a7bd 2e6a 1b3d 420d 6a3c
000002d0: ab9c d03d bca2 fdbd 9c86 9b3d 301e af3c
000002e0: 07a4 2e3e 268e 293e 51e8 1ebd e7da f23d
000002f0: c4c5 833d 1c51 2c3e 34ff da3c 02a7 833b
00000300: 1928 883d 5de0 163e 4217 33be 24de e33d
00000310: 4516 ce3c 11b3 c5bd 1048 163d 26bb 35be
00000320: b5c6 1a3e ba8f ff3c c5fc 223e 1eec d2bd
00000330: d276 2e3e 86c6 603d 0653 2b3e ffb7 21be
00000340: 6bf4 20be 13c1 c53d f8c3 ddbc e43a 26be
00000350: 2075 4e3d b5b7 0ebe 2957 ea3d 444f 0f3e
00000360: 54d8 1ebe 178d 9f3d 86e7 adbd db6e 1cbe
00000370: e26d 7c3c 574c efbd 5272 8d3c 84af 183e
00000380: e363 893d a8ef 33bd 048d 2abb 0d01 a3bd
00000390: d41c 30be 35df 243e 744f 003e 8dc2 a9bd
000003a0: 919f 1f3e 12e7 c53d e0f4 cf3d 55ac 85bd
000003b0: 0460 17bd de15 ecbd ee76 203d d3e3 d03d
000003c0: 5586 31be c2bd 91bd 8569 6f3d 0846 713d
000003d0: 66da 083d 4b2e a63d ad10 953d f160 423d
000003e0: 2156 29bd 9b92 d93d d856 88bd b700 babd
000003f0: 337a b0bc 68d9 8c3d d1b9 ac3d 9d80 013c
-0.044834547 0.16200204 0.08591987 0.0029696757 -0.05066694 0.13861856 0.14410532 0.14795664
-0.13006929 0.11460497 -0.050082266 0.121507436 0.15460989 -0.045229975 4.346083e-05 0.029237052
0.12742798 -0.14032876 0.0992023 -0.16135822 0.1526798 0.059185933 0.059244785 -0.14024377
0.05165937 -0.052343942 -0.14346533 0.03225652 -0.15519436 0.1340781 0.096183635 -0.11264253
0.083869785 0.047521956 0.052486904 -0.08269493 -0.10140462 -0.030023895 -0.16295844 -0.02821504
0.16769654 -0.05895744 0.06670074 -0.17675273 -0.15848865 -0.1550728 -0.096753 0.08240573
0.053341553 -0.12092354 -0.16037399 -0.0026202726 0.12493239 0.02423699 -0.08201079 0.057826072
0.030901773 -0.025587616 0.076695606 -0.106365934 -0.15458488 -0.17581259 -0.063162535 0.03698525
-0.12108823 0.120687954 0.08130519 0.12635785 -0.078998975 -0.015811013 -0.0006710784 0.021335412
0.029484987 0.011935692 0.12289961 0.09772413 0.016086126 -0.11541712 -0.07319818 -0.15339027
0.11554535 -0.17055172 -0.11931698 -0.023263395 -0.13741012 0.06424702 0.1705989 0.014644224
-0.0038038583 -0.17359331 0.06950065 0.09655797 0.0010285497 0.16855413 0.07000193 -0.13530263
0.056720853 0.013655316 -0.13747294 0.10161643 -0.16063873 -0.07579831 -0.09124036 0.06965348
0.15221705 -0.11190541 0.10477009 -0.07945337 -0.09734061 0.012946401 0.076517425 -0.06487582
0.07119145 -0.13327678 -0.042749316 -0.088893555 0.08563475 -0.078380145 -0.047907416 -0.06240029
0.0570034 -0.11924617 -0.16724777 -0.14345971 -0.085714385 -0.15839884 0.01526163 0.13298565
-0.10302126 -0.04070132 -0.017777288 -0.009903844 -0.004191989 -0.1370753 0.026628654 0.1691865
-0.14067648 0.0059091146 -0.18101831 -0.13088737 -0.019770456 0.1445225 -0.15324126 -0.053032782
-0.08710062 -0.12889701 0.16918392 -0.16593818 0.17276706 0.11103041 0.14155386 -0.09213021
-0.07178224 0.018822217 -0.10766262 -0.07430968 -0.12464906 0.10531751 -0.026237182 0.11094401
-0.0017468653 0.10787534 -0.050899737 -0.059823442 -0.01308295 -0.1022031 0.1766398 0.16788433
-0.04114365 0.11477513 -0.06416266 -0.104602516 0.17032418 -0.10798779 0.009694215 -0.11561955
-0.08619062 -0.08168475 0.037943058 0.0142853875 0.10186132 -0.12384555 0.07594034 0.0213767
0.17054759 0.16558132 -0.038795773 0.118581586 0.06434205 0.16827816 0.026733018 0.0040177116
0.06648273 0.14734025 -0.17489341 0.11126354 0.025157103 -0.09653295 0.036689818 -0.17747173
0.15114863 0.031196464 0.15916736 -0.10298942 0.17037514 0.054876827 0.1673089 -0.15792845
-0.15718238 0.096559666 -0.027070984 -0.16233402 0.050404668 -0.13937266 0.11442406 0.13995081
-0.1551221 0.077905826 -0.08491425 -0.15276663 0.0154070575 -0.116844825 0.017266426 0.14910704
0.06708505 -0.043929726 -0.0026023993 -0.07959185 -0.17198497 0.16100772 0.12530309 -0.08289061
0.15588214 0.09663214 0.10154128 -0.0652701 -0.036956802 -0.11527608 0.03917592 0.10199704
-0.173364 -0.071162716 0.05845024 0.058904678 0.033411406 0.081142984 0.07278571 0.04745573
-0.041341905 0.10623666 -0.06657189 -0.090821676 -0.021542644 0.068774045 0.08433879 0.007904199

GAT_layers.1.GAT_heads.1.f.bias f4 [64]
00000000: 6c40 99bd 1cfe 72bd bd78 b0bd ab63 16bc
00000010: 6e9f 8e3d ad1f e53a 67c2 023d f5ab 843d
00000020: 6aef 99bd f14b 7a3d e38d 963c 55a0 d0bc
00000030: 7381 a5bd 20cb 65bd d55d d2bc e3ee 393d
00000040: 9dfb 1a3d 8635 57bb 4c8a 993d 9c4e a33d
00000050: 5604 613d d335 af3d 6442 84bd e811 15bd
00000060: 2478 773d 02b5 c53b c80c a9bc 50b4 9ebd
00000070: 1e8e 8d3d 1e94 593d c8a9 b43d 5952 883c
00000080: acb3 0bbd 1688 12bb 29a7 793d 7587 5c3d
00000090: 3a7a 693d a63e 9fbd 71d9 75bd e220 a2bd
000000a0: d7a3 10bd ddf8 fc3c dda8 aabd 2d92 4ebd
000000b0: ca66 723d b936 783c 58cf 66bd d08e 743d
000000c0: b21a 973d b1b5 9bbd 23d7 003d ae42 753d
000000d0: bb85 17bd 9543 a33d f1e7 263d 8be4 513d
000000e0: 42f5 e03c 6633 87bd 689b a7bd 7c00 08bd
000000f0: 21ff ca3b 1299 8ebd 11dc b8bd 23ac 9e3d
-0.074829906 -0.05932437 -0.08616779 -0.009179036 0.069640025 0.0017480754 0.031923678 0.06478111
-0.07516368 0.06110758 0.018378204 -0.025467077 -0.08081331 -0.05610192 -0.025679508 0.045393836
0.037837613 -0.00328383 0.07497081 0.07973978 0.054935776 0.08555188 -0.064579755 -0.03639403
0.06041731 0.0060335407 -0.020635977 -0.07749236 0.06911872 0.05311977 0.08821446 0.016640829
-0.034106895 -0.0022358946 0.060950432 0.05384012 0.05700133 -0.07775621 -0.06002182 -0.07916428
-0.0353125 0.030880386 -0.08332989 -0.050432373 0.05918006 0.015149766 -0.056350082 0.05970651
0.073781386 -0.07603014 0.03145517 0.059878044 -0.03699277 0.079718746 0.04074854 0.051243346
0.027460698 -0.066016 -0.08183938 -0.033203587 0.0061949645 -0.069627896 -0.09026349 0.07747676

GAT_layers.1.GAT_heads.1.w.weight f4 [1, 128]
00000000: eebc 4c3e 1ac1 9ebd 5bdf 77bd 0682 80bd
00000010: 0bcc dabd 7917 9abd fbca 053e 9f47 3f3e
00000020: 542d dd3d 0113 db3d 9f95 803c 07ff b8bd
00000030: e117 fdbd 1a47 c73d faf4 5dbe 6866 cf3d
00000040: b443 abbd 12c1 033d 08f9 94bd d27d d13d
00000050: 131b 25be e447 fe3b 510b 0abc be15 2bbe
00000060: bc16 21be 0c12 493e c24a 04be f218 3bbe
00000070: 4094 5dbe 886f 413d ca44 2dbe 5ab2 e13d
00000080: d86a 343e 6821 17bc 78d1 373d 4720 f8bd
00000090: 186e 343e 98d1 12be 4900 a73d 03df 8abc
000000a0: ab06 243e f42a 1cbd fa4c 59be 01d0 b2bd
000000b0: 1d8c 6b3d cd67 5abe 7e36 3f3d 7a86 01be
000000c0: 5c50 353e 142f 3fbe 230b f0bd e935 fbbd
000000d0: 9395 1dbe a2ca 563d 0de3 983d d375 dfbc
000000e0: 3454 bfbc b1fa e5bc 86df a53c c274 2e3e
000000f0: 5b32 eebc ec50 dfbd c498 05be 615f fb3d
00000100: 2230 083e a446 473e a3f4 25be 6164 86bd
00000110: 1a75 343e aa92 403e 2e2b 373e c974 4fbe
00000120: fbe3 413e d8c8 c13c 23c4 36be 66b7 1ebe
00000130: eb94 dc3a 1d35 01bd a17a 273e f2ee 123e
00000140: 42d8 c73d 44b7 493e 8274 453e 2374 fb3d
00000150: 82fd 483e 2ea1 cdbd 9230 2a3d ff6f eebd
00000160: ceb6 85bd 98aa 0abd 274a 513e bb92 40be
00000170: 4ce2 293d 300e 1abe 6f19 28be 3147 583e
00000180: b2d2 c03c 6c04 313e aa1c 2f3e 154b 4e3d
00000190: ed89 0b3d b366 943d dd63 e9bd 6756 14be
000001a0: d0df e2bd 3158 dbbc ac2e f83d 2917 e83d
000001b0: 53ed 9a3c e644 0e3e 781a 08bd 7b6e 57be
000001c0: 6aed 8cbb 7395 d9bd d4db 8d3d 5d99 103e
000001d0: fa68 0c3d 4e4c 1cbe dda0 f2bc 61cb 523e
000001e0: 5087 dbbc dc18 82bd 0fd8 2a3d 8ca2 49be
000001f0: 1595 06bd a505 eebd 3ae2 14be ccdd 44be
0.19993946 -0.07751675 -0.060515743 -0.062748 -0.10683449 -0.07524008 0.13065712 0.18679665
0.10799661 0.10696984 0.015696345 -0.090330176 -0.1235807 0.097303584 -0.21675482 0.10126954
-0.08362523 0.032166548 -0.072740614 0.102290764 -0.16123609 0.007760035 -0.00842555 -0.16707513
-0.15731329 0.1963579 -0.12919143 -0.18271235 -0.21638584 0.047225505 -0.16920772 0.11020346
0.17618883 -0.009224273 0.0448775 -0.121155314 0.17620122 -0.14337766 0.08154351 -0.016952043
0.16018169 -0.0381269 -0.2122077 -0.0873108 0.05750667 -0.2132866 0.046682827 -0.12648955
0.17706436 -0.18670303 -0.11720874 -0.12266142 -0.1538909 0.05243934 0.074651815 -0.027277863
-0.02335558 -0.02807364 0.020248186 0.17036727 -0.029076746 -0.109041065 -0.13046557 0.122740515
0.13299611 0.19460541 -0.16206603 -0.065621145 0.17622796 0.18805948 0.17887565 -0.20259394
0.18934624 0.02365534 -0.17848258 -0.15499648 0.0016829049 -0.031544793 0.16355373 0.14348963
0.09758045 0.19698817 0.19282725 0.12278011 0.19627956 -0.10040508 0.041550227 -0.11642455
-0.06529008 -0.033854097 0.20438443 -0.18805973 0.04147558 -0.15044475 -0.16415952 0.21120907
0.023537967 0.17286843 0.17100778 0.050364573 0.034067083 0.07246151 -0.113960005 -0.14486085
-0.11077845 -0.026775451 0.12118277 0.113325424 0.018911993 0.1389347 -0.033228368 -0.21038239
-0.004300763 -0.10624208 0.069266945 0.14121003 0.0342798 -0.15263483 -0.029617721 0.20585395
-0.02679792 -0.06352398 0.041709956 -0.19690913 -0.03285702 -0.1162217 -0.14539424 -0.19225234

GAT_layers.1.GAT_heads.2.f.weight f4 [64, 128]
00000000: 21f3 dd39 9877 cfbd da14 003d 5db1 f3bc
00000010: 4150 6cbc 259d 10bd c12e 1c3e 4371 f3bd
00000020: 578a cebd 82e3 d1bd a3e3 97bd fddb fbbd
00000030: 0634 813d e7c0 ba3c 79d6 0f3c 507a b83d
00000040: e2ac 30bd 706b e5bd ba82 dbbd d3b7 233e
00000050: 59ff cd3d ee3a 1abd e4bd 34be 66f4 f5bc
00000060: afe8 fabd ec24 4bbd 48d7 85bd aa70 c53d
00000070: e11e 093e ad0d c73d 8f0c 59bd 371c 133e
00000080: 64c9 6bbd 249d 8dbd 49a0 233e aedc 39bd
00000090: 623a 023e 5fd9 abbd ac42 12bd 4a70 ef3d
000000a0: 69fe 8ebd 7464 00bd 334c 8dbd c1ad 0a3c
000000b0: 229f 82bd bb26 283e 91f3 50bc 4f41 46bc
000000c0: e320 99bd 9732 53bc 9361 1bbe 236b 05be
000000d0: a185 06be 9ba4 213e 75e1 09be fcc2 c03b
000000e0: a3ce 193e cf8f fb3d ceda f83d 71aa 01bd
000000f0: 6c8d 023e f4f3 99bd 4f73 82bc dedb 23be
00000100: 3a70 38bd 3fc3 a6bd 5a73 a73d 9389 913c
00000110: 7a2c a1bd 1bec f0bd 483c aebd 5071 3ebd
00000120: 80e0 11be 25ba 2fbe 2e7f 343e ccd7 6d3d
00000130: 7c63 2a3e 14db 293e 00f9 fa3c e9a4 dabc
00000140: aa53 9a3d 4c28 bfbd 6a74 c7bd c776 4d3d
00000150: d39d 253e 16ad 9a3d d1e0 debd f013 55bd
00000160: 891e 3abc 5786 8dbd 154a c7bd ac13 00be
00000170: 66d9 2dbe 1a6f d2bd cad6 a1bd d954 13be
00000180: b7e5 b73d 7afc 53bd eadf 31be f015 e4bd
00000190: af03 253e 5879 12be a5db dfbd ac25 29be
000001a0: 0b1e f6bb bf44 80bd acbf 893c 16b3 ccbd
000001b0: d910 073e 9b21 1a3e 14a4 a93d e784 3e3b
000001c0: 340e 2f3d 1528 b63b f349 ebbd 24c5 813d
000001d0: 6554 0dbe cae7 343e 6fc5 90bd 0829 863d
000001e0: d195 83bc 293b 21be f643 e13c 25c9 92bd
000001f0: fbac 063d 97ed fcbd 4aba 1cbe 1d5e 74bd
00000200: 65df bfbc 0c99 a0bc b911 203c c5cf df3d
00000210: 297a 27bd 2929 c7bd 4136 24be 27c1 00be
00000220: 25eb 7fbd 098a 94bc 7deb a4bc 2ae0 893d
00000230: 07a6 0f3e 7482 95bb 33f7 253e b7a4 1b3d
00000240: 3fbd fbbd 3618 15bd b123 86bd 0fe5 673c
00000250: 450d ddbd 1fa6 a5bc 7e87 de3d 25b0 1e3e
00000260: 3840 efbd 1fc5 2ebe b0be bd3d 1df6 25be
00000270: 0b9f ee3d 7194 1a3e d935 a93d df21 123e
00000280: 1fe2 e4bc 017c 303e b683 04be 0acc 0dbe
00000290: 831c 96bd 5f6d ff3b 028f b4bd a744 293d
000002a0: cb81 fb3d e1cf 0b3c a864 4c3c 44e5 e8bd
000002b0: 2dcd 45bd a801 323e f026 9e3d 048c 2ebe
000002c0: d628 67bd 52c1 1bbe 879a 8a3d c8f2 85bd
000002d0: 17be 1fbe 4ee6 80bd 01d3 46bd 5d57 f23b
000002e0: 7a3f b2bd 48c8 25be 4d0b b73d 786b 22bd
000002f0: 1557 313a 7021 38bd 42e0 33be b7d9 1d3d
00000300: 6aa1 2bbe fbaa 50bc 7dd1 f7bd 1f52 96bc
00000310: 4527 163e 99bb 583d 220a 153e 9a6b 14be
00000320: 18ec 183e b7c9 fc3d 8308 08be 6a35 0e3d
00000330: 8ba7 293e fd75 0b3e f87b 0a3d 6389 2a3e
00000340: 1b23 d1bb 02ff ba3d 3c82 0abe ea87 efbd
00000350: 5ac7 00bd f3d3 c73c 6047 563d a648 2fbe
00000360: 3dd3 df3d 99bb 2f3e f4fa 2abe 4d0c c13d
00000370: db80 83bd cb8a 243d 1a82 103e c211 bb3d
00000380: 8566 343e ae79 363d 2975 933c e453 32be
00000390: e991 aebd 651e 2cbd 28b5 45bd bffb c3bc
000003a0: 641e a73c cf4a bcbd 625d 603d 981a bbbd
000003b0: adde 2d3e 127a c93d 3870 d93d ece8 7dbd
000003c0: c612 9b3d 8b31 8dbd 5a88 7abd 8658 b23d
000003d0: 6589 223d 9d78 5c3d 207f bd3d 85e4 29be
000003e0: 43ff d3bd c056 3c3d 9107 07be c62f b3bd
000003f0: 3093 9ebd 07e2 d13d 75c4 9f3d ccd1 243e
0.0004233355 -0.101302326 0.031269886 -0.02974766 -0.014423431 -0.035306115 0.1525221 -0.11886837
-0.1008498 -0.10248472 -0.07416465 -0.12297819 0.06308751 0.022797061 0.008779162 0.09007704
-0.043133624 -0.11202133 -0.107182935 0.15988092 0.10058469 -0.037653856 -0.17650563 -0.030023765
-0.12251412 -0.04959576 -0.06535202 0.096406296 0.13390686 0.09719405 -0.052990492 0.14366232
-0.057565108 -0.06914738 0.15979113 -0.045376472 0.12717584 -0.083910696 -0.035708115 0.11691339
-0.06982119 -0.0313458 -0.068992995 0.008464278 -0.063780084 0.16421025 -0.012753383 -0.012100532
-0.07476976 -0.0128904795 -0.1517394 -0.1302915 -0.13136913 0.15785448 -0.13464911 0.005882619
0.15020232 0.12283289 0.12151109 -0.031656686 0.1274926 -0.075172335 -0.015924124 -0.16001841
-0.045028903 -0.08142709 0.081762984 0.017765796 -0.07869811 -0.117637835 -0.085075915 -0.046494782
-0.14245796 -0.17160852 0.1762664 0.058067128 0.16639513 0.16587478 0.03063631 -0.026689963
0.07535489 -0.09333858 -0.09739001 0.050162103 0.16173486 0.07552545 -0.10882724 -0.052020967
-0.011359819 -0.06910389 -0.09730927 -0.12507504 -0.16977462 -0.10275097 -0.07902296 -0.14387836
0.089793615 -0.051754452 -0.17370573 -0.11136997 0.16114686 -0.14304101 -0.10930566 -0.16518277
-0.0075109056 -0.06263112 0.01681503 -0.099950954 0.1319002 0.15051882 0.082832485 0.0029070915
0.042738155 0.0055589774 -0.11488714 0.0633643 -0.13801725 0.17666546 -0.070689075 0.06550795
-0.016062649 -0.15745224 0.027498227 -0.071672715 0.03287981 -0.12350004 -0.15305439 -0.059660066
-0.023421953 -0.019604228 0.00976985 0.10928301 -0.040887985 -0.097246476 -0.16036321 -0.12573682
-0.06248011 -0.018132227 -0.02013182 0.06732209 0.14028178 -0.0045626704 0.1620758 0.03799888
-0.12291955 -0.036400042 -0.06549776 0.014153733 -0.107935466 -0.020220814 0.10865687 0.15496881
-0.11682171 -0.17067383 0.092648864 -0.16207166 0.11651429 0.15095688 0.08262224 0.14270733
-0.027939854 0.17234804 -0.12940869 -0.13847366 -0.07329657 0.0077950205 -0.08816339 0.041325238
0.122806154 0.008533449 0.01247517 -0.11371854 -0.048291374 0.17383444 0.077222705 -0.17045599
-0.05643543 -0.15210465 0.06767755 -0.065404475 -0.15599857 -0.06293927 -0.048541073 0.0073956684
-0.087035134 -0.16189682 0.08937702 -0.03965327 0.00067649904 -0.044953763 -0.17566016 0.038537707
-0.16760793 -0.012736077 -0.121005036 -0.018349705 0.14663418 0.052913282 0.14554647 -0.14494172
0.14933813 0.123431616 -0.13284497 0.03471891 0.16567819 0.13619228 0.033809632 0.16653971
-0.0063823587 0.0913067 -0.13526243 -0.116958454 -0.031440116 0.024393057 0.052314162 -0.17117557
0.109289624 0.17161407 -0.16697294 0.09426174 -0.064210616 0.040171426 0.1411213 0.091342464
0.17617233 0.044549637 0.018000202 -0.17414814 -0.08523924 -0.042021174 -0.048268467 -0.023923753
0.020400234 -0.09193956 0.054776557 -0.09135932 0.16979475 0.09837736 0.10617107 -0.06198971
0.0757194 -0.06894215 -0.06116519 0.08708291 0.03968181 0.053825963 0.09252763 -0.1659108
-0.10351422 0.04598117 -0.1318648 -0.087493464 -0.077429175 0.102481894 0.07801143 0.16095656

GAT_layers.1.GAT_heads.2.f.bias f4 [64]
00000000: 9995 8a3c 3178 983c 8843 8fbc a36b e5bc
00000010: acc9 533d 95ed 86bc d59f 713d 3ff3 b23d
00000020: d952 80bc ebb7 a33d 66d9 b53b 51bf 68bd
00000030: 85fc c03d def9 033d e97b f23c c7f6 d0bc
00000040: 39be b1bd b492 9a3d 8812 6fbc 62e9 a13d
00000050: ce09 293d 530e a43d 26d5 96bd d741 843d
00000060: da12 42bd b4f3 0b3d c558 36bd 75f1 5e3d
00000070: 7a9a 763d fb11 48bd 7c79 18bd 378e 513d
00000080: 75f6 9c3d 0e6c a4bd 0814 50bc 4bc2 ccbc
00000090: 717f acbd 9eb3 d2bb ebc5 123d cbc9 a2bd
000000a0: 3637 793b 4eb6 123d f66b c9bc 5e07 f5bc
000000b0: a40d 5fbc a4e6 3d3d 2cce edbc a11b 6abd
000000c0: 04e4 1b3d d65d 303d 1c12 cdbb 8ccc b43d
000000d0: 0366 f33b 92ec b63d b387 7dbd b3a0 47bb
000000e0: 21b3 863b be87 ad3d fb0c 30bb b7e2 97ba
000000f0: 3505 8dbc 5fe1 8ebc c9bd c7bc 8e7f a5bd
0.016917037 0.018612 -0.017488256 -0.028005427 0.051706 -0.01647071 0.05899032 0.08737802
-0.015664505 0.07994064 0.0055495976 -0.05682308 0.09423164 0.032220714 0.0296001 -0.025508298
-0.0867886 0.07547513 -0.014591821 0.07905842 0.041269116 0.08010545 -0.073648736 0.064578705
-0.04738126 0.03416796 -0.04451825 0.05442949 0.060205914 -0.048845273 -0.03722523 0.051161017
0.076641954 -0.08028422 -0.012700088 -0.02499499 -0.08422745 -0.0064301034 0.03583328 -0.07948645
0.0038027293 0.03581839 -0.024587613 -0.02991074 -0.013614092 0.046362534 -0.029028974 -0.057155255
0.03805925 0.04305824 -0.0062582623 0.08828077 0.007427932 0.08931841 -0.06189699 -0.0030460774
0.0041107093 0.084731564 -0.0026863206 -0.0011587952 -0.017214397 -0.01744145 -0.024382489 -0.0808097
