SLIC_GAT/hh_n_0/best0.pt (torch, 580781 bytes, 30 tensors)

GAT_layers.0.GAT_heads.0.f.weight f4 [32, 124]
000000 34 c5 48 3e 18 c9 76 3c 56 13 d6 bd ab e8 fc 3d
       0.19606477 0.015062593 -0.10452907 0.123490654
000010 4b b3 e4 3d df df a9 bb fe d2 06 be 6e 7a ad 3d
       0.1116701 -0.005184158 -0.13166425 0.08470617
000020 5d cc a8 bd 3a ef c2 bd 7c 6e 5d bd 05 0a 58 3d
       -0.08242104 -0.09518285 -0.054060444 0.05274393
000030 ed 32 08 be 6e 64 3e be 41 03 da bd 63 d5 d8 ba
       -0.13300677 -0.18592998 -0.10645152 -0.0016543086
000040 22 b5 09 be eb a7 3e 3e 19 df 06 be f9 30 ef 3d
       -0.13448003 0.18618743 -0.13171043 0.11679263
000050 e7 c8 f6 3d 45 5d 9d 3b 6f 1d 3f 3c 30 3e ef ba
       0.12050038 0.0048023784 0.011664732 -0.0018252786
000060 83 0b cc bd a0 a7 e6 bd 5b c4 09 be 61 3d a1 bc
       -0.09963133 -0.11262441 -0.1345381 -0.019682588
000070 f2 54 ed 3d a3 b3 d7 bd ef 38 cb bc 3b e5 38 bc
       0.11588468 -0.1053231 -0.024807421 -0.011285122
000080 1f 25 c4 bd 98 a0 96 3d 66 e3 21 3e 30 29 41 3d
       -0.09577393 0.073548496 0.15809402 0.04715842
000090 80 4d 34 bd 41 2c 83 bd cb 8b a1 bc 46 83 c7 3d
       -0.044019222 -0.06404925 -0.019719979 0.09741835
0000a0 f4 de a7 3d f8 6d b4 bd 31 e4 d1 bc e0 d1 3e be
       0.08196822 -0.088100374 -0.025621505 -0.18634748
0000b0 de 57 4b 3d 53 6b 28 bd 2b cd f6 3c a8 03 cb 3d
       0.049644344 -0.041117977 0.030127129 0.09912807
0000c0 ff 03 d9 bd 70 67 62 bd d9 17 39 3e 54 36 94 3c
       -0.10596465 -0.055274427 0.18075503 0.018092312
0000d0 f5 ed 94 3d 2b 38 27 3e 95 73 56 3d 01 28 66 bd
       0.07271949 0.1633002 0.05235632 -0.056190494
0000e0 17 9b 8d bd f5 7d 12 3d 16 19 11 be 73 89 2c be
       -0.06914347 0.035764653 -0.14169726 -0.16849308
0000f0 72 38 91 3d 62 90 39 3e 90 df 3e 3e 92 fc 28 3e
       0.07090844 0.18121484 0.1863997 0.16502598
000100 f4 d5 33 3e 39 24 56 3d fd ea 32 be 3f 06 b9 3d
       0.17562085 0.05228064 -0.17472453 0.090343945
000110 8f a4 44 3e 87 dc a7 bd 4d c3 9d 3d f2 bf 92 bc
       0.19203399 -0.08196359 0.07703266 -0.017913792
000120 93 72 fd 3d bc ab 49 bd 5b 5a 2c bd c9 c0 41 be
       0.12375369 -0.049236044 -0.042078357 -0.18921198
000130 ec a1 66 bd e1 03 0f 3e c0 8a 53 bc f3 29 ed bd
       -0.056306764 0.13966323 -0.012911499 -0.11580267
000140 95 6b 84 3d c6 b8 24 3e 49 01 a1 bc 59 92 ba bc
       0.06465832 0.1608611 -0.019653933 -0.022774862
000150 40 03 f6 bd 6c c9 18 be 17 eb e7 3c 2d 2d f4 3d
       -0.12012339 -0.14920586 0.028310342 0.11922679
000160 7c a1 3e be 1d a6 bf bc 16 dc 85 bd 0c ee c7 3d
       -0.18616289 -0.023394639 -0.06536119 0.09762201
000170 01 31 c4 bd 5e 5f f3 3c ef 11 7c 3d f3 83 02 be
       -0.09579659 0.02970856 0.06154054 -0.12745647
000180 34 b4 dd bd 85 a0 4b 3e 07 aa 81 bc 78 22 20 be
       -0.10825387 0.19885452 -0.015828146 -0.15638149
000190 96 18 28 39 f5 bd 5c bd 11 78 04 3e 12 eb 82 3b
       0.00016030887 -0.053892095 0.12936427 0.0039953077
0001a0 62 bf eb 3d 42 a2 94 3d ab eb eb 3d 4c f8 b0 3c
       0.11511113 0.07257511 0.115195595 0.021602772
0001b0 25 b1 0e be 5a 66 04 be dc 8a 32 be ba d0 fb 3d
       -0.13934763 -0.12929669 -0.17435783 0.12295671
0001c0 61 91 f7 bd 8e ef dc bd 92 ea 7e 3d 09 06 3d be
       -0.12088276 -0.10787879 0.062235422 -0.18459333
0001d0 9c 2a cf 3d 4f 45 d0 bd 12 79 3f be 89 a8 25 be
       0.10115549 -0.101694696 -0.18698528 -0.16177572
0001e0 c8 e7 fd 3c 62 9a a6 3d 5c 16 51 3d 48 f5 e0 bd
       0.030994311 0.08134915 0.051046714 -0.10984284
0001f0 53 46 09 be 20 c6 2a 3e 86 8a 1a be fa 27 e1 bc
       -0.13405733 0.16677141 -0.15091905 -0.027484883
000200 75 7c 0c 3e 3e e2 49 3e d2 80 15 bd ac df 2c 3e
       0.13719352 0.19715211 -0.036499806 0.16882199
000210 92 47 22 3d 27 24 9d bd 2b 47 92 3d 94 1b 06 be
       0.039619036 -0.07672911 0.071424805 -0.13096458
000220 d1 31 43 be b5 25 01 3e 69 d5 bd bd d7 e9 a6 3c
       -0.19061972 0.1261204 -0.092692204 0.020375175
000230 c6 44 a6 3d 85 6e 2d 3e 1f 42 95 bd 91 e7 a3 3d
       0.08118586 0.16936691 -0.07288002 0.08003152
000240 d8 e0 1d be b6 dd 97 3d 6b c1 31 3e fc f0 28 3e
       -0.15417802 0.07415335 0.1735894 0.16498178
000250 bd 23 22 3d f3 de 07 3e 42 69 86 3b 9b e5 45 be
       0.039584864 0.13268642 0.004101903 -0.19325869
000260 1c 47 3c be 4c 63 0f 3e 72 a1 c4 3d e6 51 8e 3d
       -0.18386501 0.14002723 0.09601106 0.06949215
000270 3a 16 28 3e c5 76 3a 3e 2a 63 01 be e8 10 f5 3c
       0.16414729 0.1820937 -0.12635484 0.029915288
000280 4d bb 84 3d 7d db c2 3d c4 f0 25 be 42 bc df bc
       0.06481037 0.0951452 -0.16205126 -0.027311448
000290 84 b8 26 be 7b 99 c9 bc 1a 37 05 3e 0c 2d 2c be
       -0.16281325 -0.024609318 0.13009301 -0.16814059
0002a0 a2 5c 85 3c d7 ee 8d 3d 30 aa ed bd 3e 42 e3 ba
       0.016279522 0.06930321 -0.11604726 -0.0017338467
0002b0 72 09 21 bd b2 4c a6 3d fa f6 b8 bd 9a 12 14 be
       -0.03931565 0.08120097 -0.09031482 -0.14460221
0002c0 f8 24 76 bd b2 e5 e6 bd 67 69 02 3d 6d e5 29 3e
       -0.06009385 -0.1127428 0.0318388 0.16591425
0002d0 31 72 95 3d 4d d5 0c bd 33 f1 1b bd 55 99 31 3e
       0.07297171 -0.034383107 -0.038071822 0.17343648
0002e0 c5 5d 86 bc 58 90 29 be 38 c6 23 3e d7 65 64 3d
       -0.016402135 -0.16558969 0.15993583 0.055761185
0002f0 53 e1 03 be 10 3d 37 be 32 2b 42 bc bc 40 c3 bd
       -0.12878923 -0.17894387 -0.011851119 -0.095338315
000300 5f a3 a5 bd e6 c4 8f bc 8e df 40 3e 5a ef e6 3b
       -0.08087801 -0.017549943 0.1883528 0.007047576
000310 9c 9c 1b be c4 81 fa 3d 49 1a 1d 3e 74 e4 ff 3d
       -0.1519646 0.12231782 0.15342058 0.12494746
000320 77 fc 33 be ae 77 0e be dd 6f 5f 3d aa 9f a2 3d
       -0.17576776 -0.13912842 0.05455004 0.0794061
000330 3b 6f f1 bd a3 7f c4 bd ce 9a 5f 3d b6 88 35 3e
       -0.11788794 -0.09594657 0.054590993 0.17727932
000340 3a 74 0d bd 27 29 b3 3d a7 04 14 be 8b 84 ed 3d
       -0.03453467 0.087480836 -0.144549 0.11597546
000350 af 4d f7 3c e6 8c 2e 3e f3 2a 2e be 69 5f 31 be
       0.03018841 0.17045936 -0.17008571 -0.17321552
000360 88 c4 95 3d 18 20 13 be 98 07 10 be 5c a4 30 be
       0.07312876 -0.14367712 -0.14065397 -0.17250198
000370 35 ac 72 bd 30 fa 04 bd ca 5f 0b be bd 3a 1f bb
       -0.05924626 -0.03246516 -0.1361076 -0.0024296485
000380 fb 3c fa bd 13 cc 52 bd b3 bb bf bd 8a 2f b5 bd
       -0.12218662 -0.05146415 -0.09361973 -0.08846958
000390 ce fd 20 bc a3 6e 82 bc 7c dd 02 be f0 d8 0d 3d
       -0.009826137 -0.015921896 -0.12779802 0.034630716
0003a0 aa 74 5d bd 9a 79 64 3d 1a c3 95 3d 05 f8 dd bd
       -0.054066338 0.05578003 0.07312603 -0.108383216
0003b0 d7 f6 22 3e eb 35 12 be 1a 5e 45 bd 96 e6 dc 3d
       0.15914474 -0.1427838 -0.048185445 0.10786168
0003c0 4e 7c 31 be 47 78 0d be c0 11 28 3d 28 d8 4d 3c
       -0.17332575 -0.13815413 0.041032553 0.012563743
0003d0 e8 6f 59 3d cb 03 3b be a9 04 7c 3c 96 5c 28 3e
       0.053085238 -0.18263166 0.01538197 0.16441569
0003e0 90 ee 17 be 3b f7 aa 3d e4 cc 24 be 9c 14 3b 3d
       -0.14837098 0.08347937 -0.16093785 0.04567395
0003f0 52 fa 2e be 85 ef 9e 3d 96 d0 18 3e 06 dd 1f be
       -0.17087677 0.077605285 0.14923319 -0.15611658

GAT_layers.0.GAT_heads.0.f.bias f4 [32]
000000 18 ea 3f bd 7f de 82 3d 21 aa c8 3c 8c 91 94 3c
       -0.04685411 0.06390094 0.024495186 0.018135808
000010 94 ee 85 3d 60 0c a5 3d aa 0a 6e bd cf 4f 81 bd
       0.06539646 0.08059001 -0.05811564 -0.063140504
000020 f6 db 94 bc ed 95 77 bc 02 0c 2f 3d b7 c6 3d 3d
       -0.018171292 -0.015111429 0.04273606 0.046332087
000030 6a 3e a5 bd f9 45 38 3c 4e 4e aa bd 61 74 a6 bd
       -0.08068545 0.0112471515 -0.08315717 -0.08127666
000040 34 39 d9 bc 2f e7 9c bd c1 9b 36 3c 1a 13 ed bc
       -0.026516534 -0.07661282 0.011145533 -0.028939772
000050 b9 b7 84 bc cf 4e b7 bd 2f e1 a3 bd f8 c8 5c 3d
       -0.016200887 -0.089505784 -0.08001935 0.053902596
000060 51 22 79 bd e9 fb 30 bc 52 12 5a 3d bb 12 26 3a
       -0.060823742 -0.010802248 0.053240128 0.00063351885
000070 80 0b 33 3c 9f 99 55 ba 15 55 db 3c 26 93 bb bd
       0.010928035 -0.00081481965 0.026773969 -0.09158926

GAT_layers.0.GAT_heads.0.w.weight f4 [1, 124]
000000 62 fa 20 be fe e7 58 3c 3f 7e 2d 3d c5 21 eb 3d
       -0.15720513 0.013238905 0.042356726 0.114810504
000010 64 5b 0e 3e 93 ba 09 3e 4c 35 bc 3d cd b3 83 bd
       0.1390205 0.13450079 0.09189853 -0.06430779
000020 5d 47 ee bd 5d 56 17 be f4 6e 5e 3e c0 35 2c bd
       -0.11634705 -0.14779039 0.21722013 -0.042043447
000030 41 06 29 be 1a e6 3f bc 7f 44 cf bd 07 71 20 be
       -0.16506292 -0.011712575 -0.101204865 -0.15668117
000040 39 eb 9a bd b8 34 d2 bd 76 27 12 3d 5a 9e dd bd
       -0.075643964 -0.102639616 0.035682164 -0.10821219
000050 af a7 19 be 79 bf 2f bc 21 9d ca 3d 3f 74 27 be
       -0.15005372 -0.010726803 0.09893251 -0.16352938
000060 9f 46 d6 bd 70 48 98 bb 47 9a a4 bd 8b 60 8a 3d
       -0.10462689 -0.004647307 -0.080372386 0.06756695
000070 6c 0f 57 3e 93 e7 c0 bd c2 8d 84 bb 28 0a d3 bc
       0.21001977 -0.09419169 -0.004045219 -0.025761679
000080 db de 5b 3e 37 4b fd bd de 09 1f 3e 8c 7c e6 3d
       0.21471731 -0.12367862 0.15531108 0.11254224
000090 1c 6f 04 3e af 34 72 3d 55 77 7a 3d 82 c7 ce bd
       0.1293301 0.059132274 0.06114896 -0.10096647
0000a0 77 c6 2c 3e 0d 11 5a be 2d 02 1c be 1d ff 2b bd
       0.16872583 -0.21295567 -0.15235205 -0.04199134
0000b0 77 00 10 bc b6 bd 19 3e b7 2b 2a 3d f9 0f 5c 3e
       -0.008789173 0.15013775 0.041545596 0.21490468
0000c0 c7 a4 98 bd ee 3c 56 3e 96 1e 09 3e 0b 49 54 3d
       -0.07453304 0.2092168 0.13390574 0.05182747
0000d0 75 a4 be 3d 95 58 34 3d 34 31 bb 3c 98 68 25 be
       0.093087114 0.04402979 0.02285061 -0.1615318
0000e0 88 8b 57 bd 87 f7 8a bd 19 fa ae bd 9e d9 4f be
       -0.0526233 -0.06785493 -0.08543796 -0.20297858
0000f0 99 f6 ed bd 50 5d a0 bc 8b d9 4f 3e 30 ba 32 3d
       -0.116193004 -0.019575745 0.2029783 0.043634593
000100 e9 c2 66 3d 20 bb 23 3e 6d 21 58 3e 43 f7 10 be
       0.056338225 0.15989351 0.21106501 -0.14156823
000110 82 66 e5 3d 24 d9 4e 3e 3f 64 a4 3d 37 e7 29 bd
       0.112011924 0.2020002 0.08026933 -0.04148027
000120 c1 80 f2 bd e8 fb f9 bd 8f da 00 bd 24 aa 31 bc
       -0.11840964 -0.122062504 -0.031458434 -0.010843787
000130 4e 03 98 bc e9 8d 44 be e3 15 50 3e 3b 26 b1 3d
       -0.018556263 -0.1919476 0.20320849 0.0864987
000140 35 c6 6a bd 56 e8 d3 bd a4 1e d2 bc 03 71 3d be
       -0.05731793 -0.10347049 -0.025649376 -0.18500142
000150 8d 02 c3 3a 34 48 81 bb 1d ae 44 bb b3 95 1f 3e
       0.001487808 -0.003945375 -0.0030011006 0.1558445
000160 f6 44 af bd bc ec d0 bc c6 86 57 be 89 7e 3e bc
       -0.08558075 -0.025503509 -0.21047506 -0.011626848
000170 f9 7a 51 be 8f 25 1f 3d 07 b3 3b 3d 50 b5 b6 3d
       -0.20457067 0.038854178 0.04582503 0.08921301
000180 bd d8 45 be 35 2d 55 3e 9f 8f 10 be 8b fb 8b 3d
       -0.1932096 0.20818026 -0.14117287 0.068350874
000190 dd 5a 94 3d c9 c8 51 be 23 e9 fd bc 4b fd e9 bd
       0.07243893 -0.2048675 -0.030994957 -0.11425265
0001a0 55 18 d3 3d 36 b5 df bc 55 82 b8 bd f0 0c a1 bc
       0.10307375 -0.027308088 -0.09009234 -0.01965949
0001b0 89 6f 22 3c cf f8 2a 3e 61 9d b1 3d 03 4c 64 bd
       0.009914287 0.16696475 0.08672596 -0.055736553
0001c0 72 6a e1 bd 0a 03 f3 bd 06 bd 10 3e 34 b4 78 3d
       -0.11006631 -0.11865814 0.14134607 0.06071873
0001d0 b2 9c 05 3e 51 38 29 3d 0d 1b 33 be 79 a2 c7 bd
       0.13048056 0.041313473 -0.17490788 -0.09747786
0001e0 54 a3 53 3b 48 8c 16 bd f2 64 02 be d9 f3 95 bc
       0.0032293396 -0.036754876 -0.1273382 -0.018304752

GAT_layers.0.GAT_heads.1.f.weight f4 [32, 124]
000000 1e d7 6a bd 65 bf 16 3e e0 f8 1f bd 5d 2b 2c be
       -0.057334058 0.14721449 -0.039055705 -0.16813417
000010 bc 4b 09 bd 2f 19 b3 3d 87 99 d8 3d b6 47 fa 3c
       -0.03351949 0.08745038 0.10576158 0.030551773
000020 38 2e 0a be e3 d1 8e bd 85 87 ac 3d c6 ed e4 bc
       -0.13494194 -0.069736265 0.08424286 -0.02794541
000030 6e 93 49 be 81 fa e3 3d ff 00 2a 3d 7f 86 8b bd
       -0.19685146 0.11131764 0.041504856 -0.068127625
000040 39 52 93 bd 84 3a 06 3e d3 10 06 3e 34 50 4c 3c
       -0.07193417 0.1310826 0.13092355 0.012470294
000050 d0 5b 3b 3c 09 3e a0 3d 84 3c ac 3c 7f 58 ff bd
       0.011435464 0.07824332 0.02102495 -0.12468051
000060 94 d3 16 be be 79 1a be ed 03 04 3e e0 2d 8d 3d
       -0.14729148 -0.15085503 0.12892123 0.068935156
000070 d3 b5 14 be 23 60 a4 3d 72 9e ef 3c 85 32 90 bd
       -0.14522485 0.08026149 0.029250357 -0.07040886
000080 da be 0f bc 98 bc a8 bd e1 55 35 be f9 8d 18 3e
       -0.00877353 -0.082390964 -0.17708541 0.14897908
000090 63 03 ba bd f2 54 08 3e b7 c9 7c bd 00 57 70 3d
       -0.09082677 0.13313654 -0.061715808 0.05867672
0000a0 e3 b7 a2 3d ef 0a 01 3e 8f 1c 3b 3e 37 40 04 3d
       0.0794523 0.12601827 0.18272613 0.032287803
0000b0 63 05 02 be 9a 7e 3d bc 80 c6 d7 3d b7 1d 36 be
       -0.12697367 -0.011565829 0.10535908 -0.17784773
0000c0 5d 2b 3c bd f8 1f 29 3d 7d 79 2c 3c 20 d0 fc 3d
       -0.045939792 0.041290253 0.010527012 0.12344384
0000d0 44 4b 0b 3d 57 23 fe bd f4 5a 85 bd fd a4 fb 3d
       0.034007326 -0.12409084 -0.065114886 0.122873284
0000e0 8a 98 40 be 0c 7e c8 3d c6 95 1a 3e 12 bf 25 3d
       -0.18808189 0.097896665 0.15096197 0.040465422
0000f0 f4 93 20 3e bb 69 94 3d aa 21 ed 3d 28 ab 31 be
       0.1568144 0.07246729 0.115786865 -0.17350447
000100 f4 59 1a 3d 06 26 c0 3d b3 57 07 be 77 ae 3b 3e
       0.037683442 0.093822524 -0.13217048 0.18328272
000110 d9 17 1a be 68 99 36 3d 22 cb 0b 3c 79 10 0f 3e
       -0.1504816 0.044579893 0.008532317 0.13971128
000120 e3 f5 12 3e 70 57 6e bd f6 ee 5e bd c4 8a 45 bd
       0.14351611 -0.058188856 -0.05442711 -0.04822804
000130 6b 54 1c 3d 07 92 a3 3b d0 f1 a7 bc a1 31 b9 3b
       0.038166445 0.004991773 -0.020501047 0.005651668
000140 7b 60 2c 3e 94 6f 0c 3e f1 58 0d 3d d5 16 45 be
       0.1683368 0.13714439 0.03450865 -0.19246991
000150 d2 8b e5 3c 0b aa 1d 3e 26 f4 d0 3d 46 30 18 bd
       0.028020773 0.15396897 0.102028176 -0.037155412
000160 92 51 1e be f8 79 bd 3d 37 44 a2 bd bc a0 e9 bd
       -0.15460804 0.09251779 -0.07923167 -0.11407611
000170 00 87 17 be ed b9 36 3e 97 17 32 3e c6 dd 36 be
       -0.14797592 0.17844363 0.17391811 -0.17858037
000180 1a 71 93 3d c8 a0 8a bd a6 98 9e bd 6d 33 61 3d
       0.07199307 -0.06768948 -0.07743959 0.054980684
000190 46 b6 23 be 97 05 90 3d 71 b6 83 3c 69 92 17 bd
       -0.159875 0.07032316 0.016078206 -0.037004862
0001a0 ca 43 1b 3d 90 75 f8 bd b8 77 c3 3c 2a d6 68 3c
       0.037906446 -0.12131798 0.023860797 0.014211217
0001b0 91 21 33 3e cf a1 d4 bd b4 0f 4f bd 36 c6 31 3e
       0.17493273 -0.10382425 -0.050552085 0.17360768
0001c0 65 9e 38 3d e7 79 3d be fd 9a 33 be ea 40 12 be
       0.04507293 -0.18503533 -0.17539592 -0.14282575
0001d0 d9 61 3d bd bd 67 0d be 39 d9 7b bc b9 cd 81 bd
       -0.046235893 -0.13809104 -0.015371614 -0.063380666
0001e0 73 72 ed 3d ce 09 18 be 0b c0 99 bd ce 76 1d 3e
       0.11594095 -0.1484749 -0.075073324 0.15377352
0001f0 59 83 91 bd 3c fc f8 38 19 31 44 3d ce 6d b7 bd
       -0.07105131 0.00011872544 0.047898386 -0.089564905
000200 96 b9 06 be a9 6f 0d bd 9e 3f ef bd ac 31 82 bd
       -0.13156733 -0.034530316 -0.11682056 -0.063571304
000210 7d ee 05 be 5f 69 83 bd 8c 03 04 3e 61 e5 a4 3d
       -0.13079257 -0.06416582 0.12891978 0.08051563
000220 0f 65 a3 bd e2 d1 df bd 18 6f a8 bc 06 d9 6e 3c
       -0.0797826 -0.10928704 -0.020560786 0.01457811
000230 db 27 07 bd 31 86 0b 3d 95 90 8a bd 43 07 e8 bd
       -0.032996994 0.03406352 -0.06765858 -0.1132951
000240 8d d1 b2 bd 82 e3 e8 3b 95 d5 76 3c 8e 3b 2c 3e
       -0.08731375 0.007107199 0.01506557 0.16819593
000250 a4 7d 9e 3d 33 65 6b bc c8 77 18 be 27 6f 5e bd
       0.07738808 -0.0143673895 -0.14889443 -0.054305222
000260 94 7c 5a 3d b1 67 44 3e 78 69 f8 3d 7f 0b e9 39
       0.053341463 0.1918018 0.121294916 0.00044449788
000270 b6 d1 ee bd 2b 55 0a 3e 7d 54 9d bc c3 5d 7a 3d
       -0.11661093 0.13509052 -0.019205326 0.061124574
000280 8d 19 38 3d c9 85 d3 3d da 6d 82 bc ec b9 19 3e
       0.044946242 0.10328252 -0.015921522 0.1501233
000290 14 a3 2b be 24 98 fd 3d 92 cb 93 bd cc ae 2b be
       -0.16761428 0.12382534 -0.07216562 -0.16765898
0002a0 5f c3 37 3e 55 a1 7f bd bb 71 b6 bd 86 80 20 be
       0.17945622 -0.062409718 -0.08908411 -0.15674028
0002b0 50 b0 3e bd 70 6f a5 bd 22 99 f8 bd f2 ee 03 3e
       -0.046554863 -0.08077896 -0.12138583 0.12884119
0002c0 64 19 39 be 39 92 75 3c c0 78 e5 3d 83 5f 22 be
       -0.18076092 0.0149884755 0.11204672 -0.15856747
0002d0 39 4d c7 bd 88 a4 82 3d 02 f0 41 3c 72 0e 6f 3d
       -0.09731526 0.06379038 0.0118370075 0.058363385
0002e0 f4 c9 2c 3e 03 68 e8 bc 1f bc 91 bd db 63 9b 3d
       0.16873914 -0.02836991 -0.071159594 0.07587405
0002f0 d4 34 b0 3d 8e 00 2d 3e 88 3d 18 be ad 40 8c 3d
       0.08603826 0.16894743 -0.14867222 0.068482734
000300 9b bc 3d be d5 1c 14 be 76 44 90 bd 7e 21 1b be
       -0.18528979 -0.14464124 -0.07044308 -0.15149495
000310 69 a0 bb 3d 22 c3 39 be ea fa b3 3d ae 6d 01 3e
       0.09161455 -0.18140844 0.087880924 0.12639496
000320 b9 6a 0a 3e fd 26 ca bd f3 56 a5 3d 0b db 37 3e
       0.13517274 -0.09870718 0.08073225 0.17954652
000330 6f f1 89 3b 85 66 21 3e d5 83 06 be 9f c4 43 3e
       0.0042096893 0.15761764 -0.13136227 0.19117974
000340 e4 7d a1 bd c3 bb c5 bd f4 63 d6 bd 46 de 02 bd
       -0.0788534 -0.09654953 -0.10468283 -0.031950258
000350 9e 12 2f be b8 db 2a 3e 3f 6e a4 3d 5e 73 6c bc
       -0.17096946 0.16685379 0.0802884 -0.014431803
000360 d9 69 86 bd 0f 06 02 be ff d8 1d 3c 65 8e 2f 3e
       -0.065631576 -0.12697624 0.009634255 0.17144163
000370 55 68 83 3d a0 07 48 be 10 8c 46 be 5c dd 3f bd
       0.06416384 -0.19534159 -0.19389367 -0.046841964
000380 1f 48 c5 bd f7 2e 86 bd e3 03 8e bd 6f 39 b6 bd
       -0.09632897 -0.065519266 -0.06934335 -0.08897673
000390 57 f3 fc bc 41 65 00 be 73 ae 91 3d db 55 7b bd
       -0.030877752 -0.12538625 0.07113352 -0.061361175
0003a0 33 89 30 bd 3f 0d 19 3e bf aa 44 3e 0f 79 0c be
       -0.043099593 0.14946459 0.1920576 -0.13718055
0003b0 02 35 bf 3d 2e 63 eb 3d 25 93 06 be 71 55 1f 3e
       0.09336282 0.114935264 -0.13142069 0.15559937
0003c0 69 4a 29 be 8d 1f 21 3d 0b c9 06 3e 9a dc 33 3e
       -0.16532291 0.03933673 0.1316263 0.17564622
0003d0 cd f0 ca 3c d9 69 cb 3d a3 0d 5a 3d ad d0 29 be
       0.024773026 0.09932298 0.05323566 -0.1658351
0003e0 87 53 a0 3d c6 14 3d 3c 78 8b a7 bd a5 e2 f0 3d
       0.078284316 0.011540597 -0.081808984 0.11761979
0003f0 d6 9a 26 3e 28 f1 c0 3d 0a 9e 62 39 ba 5a ea bd
       0.16270003 0.09420997 0.00021611914 -0.11443086

GAT_layers.0.GAT_heads.1.f.bias f4 [32]
000000 cd e2 cb bc 2d 14 b2 3d 0e 8e 34 bc e1 a9 59 3d
       -0.02488842 0.086952545 -0.011020197 0.053140525
000010 87 a1 ed 3c d7 c9 6e bd 9b 85 39 bd e7 3c c8 3c
       0.029007686 -0.05829796 -0.04529343 0.024443103
000020 42 c1 4e 3d fb 7d 8e bd b5 78 1d bd 6c a3 95 3b
       0.050477274 -0.069576226 -0.038445193 0.0045666005
000030 be 57 4f bc 23 b3 4e 3b 61 5e f6 3c 6b c5 9b bd
       -0.012655197 0.003153988 0.0300743 -0.07606014
000040 cf c5 5d 3d b6 04 9d 3d f9 56 1b 3d be 11 3a bd
       0.054143723 0.07666914 0.03792474 -0.045427077
000050 c6 ed 99 bd a9 71 9f bc 66 11 60 bd 7f 02 ac 3d
       -0.07516055 -0.019463377 -0.054704092 0.083989136
000060 82 7f 55 3d b0 c7 50 3d 92 c7 94 3d e4 7d 62 bd
       0.052123554 0.050971687 0.072646275 -0.05529584
000070 08 e5 a5 bd 4a a3 37 3c 6a 10 c3 bd 7f ee 3c bd
       -0.08100325 0.011208365 -0.09524615 -0.046125885

GAT_layers.0.GAT_heads.1.w.weight f4 [1, 124]
000000 75 2e bb bd 94 d1 27 3e 61 38 93 3d 19 bb 5c 3d
       -0.0913972 0.16388541 0.07188488 0.053889368
000010 c0 33 f9 bd 8a 57 88 3d e4 50 4e 3d 35 b7 4f bd
       -0.12168074 0.06657322 0.050370112 -0.05071183
000020 be 29 26 bd fa e5 51 be 22 3c 95 bd 9b 90 03 be
       -0.040567152 -0.20497885 -0.0728686 -0.12848131
000030 49 85 fe 3c d5 79 d4 3d f7 bb 33 3e 64 49 14 be
       0.031069415 0.103748 0.17552172 -0.14481121
000040 2c a9 86 3d 3f 3d 3f be 19 50 30 bd 1a ea 00 3e
       0.06575236 -0.18675707 -0.043045137 0.12589303
000050 b5 66 f6 bd 7a 7c 4b 3e 1e e5 16 3e 95 d4 8b bd
       -0.120313086 0.19871703 0.14735839 -0.06827656
000060 5b f3 b6 bd 26 84 10 3e 91 65 e6 bd 3b 32 b0 3c
       -0.08933135 0.1411291 -0.11249841 0.021508327
000070 a2 25 33 3d 1c fb bd bd 36 4a 31 be 9f 3e 39 3e
       0.04373706 -0.09276411 -0.17313465 0.18090294
000080 8c 99 4b 3e 34 9d 05 3e 01 48 3f 3e bf 1b 76 bc
       0.19882792 0.1304825 0.18679811 -0.015021264
000090 99 03 e9 3d f0 4b 57 be 23 c4 46 be 23 5f 5f be
       0.11377639 -0.21025062 -0.19410758 -0.21813636
0000a0 3b 9b 3b 3e 97 30 25 3e 1a 93 92 3c 1c 70 2d 3e
       0.18320934 0.16131817 0.01789241 0.16937298
0000b0 44 7a c7 bd 8e 31 b5 3d 9e b9 8a 3c 07 be 52 be
       -0.09740117 0.088473424 0.016934212 -0.20580302
0000c0 ff fd bf bd 92 a3 6e 3d f9 a2 07 3e 93 8c 59 bd
       -0.09374618 0.05826146 0.13245763 -0.053112578
0000d0 66 5d be bd 00 94 11 be cf 93 2d 3d ed f2 51 be
       -0.09295158 -0.14216614 0.04237729 -0.20502825
0000e0 23 d4 d5 3d f5 41 78 bd 91 d7 30 be 46 3a 7c bd
       0.104408525 -0.060609777 -0.17269732 -0.06157901
0000f0 6b 0c 66 3e 0f 4c 49 be 51 c3 56 3d df e4 22 be
       0.22465675 -0.1965792 0.052432362 -0.1590762
000100 12 e6 38 3e 06 f1 54 3e fe 4a 7b 3d fa 60 46 3e
       0.18056515 0.20795068 0.061350815 0.19372931
000110 50 5c 52 3d fe 0b 39 3e d8 c0 f6 bd da ea 1c 3e
       0.051357567 0.18070981 -0.12048501 0.15323964
000120 c8 55 2d be 8c 63 d3 3d 4e e6 24 bc 1a 56 55 3e
       -0.16927254 0.103217214 -0.010064675 0.20833626
000130 8e 7c 18 3e ce bb a8 bd c6 53 cc 3d 2e 66 55 be
       0.14891264 -0.08238946 0.09976916 -0.2083976
000140 d0 9d 08 bc 59 9f 19 be 74 a4 5e be fa 9e 08 3e
       -0.008338407 -0.15002193 -0.21742421 0.13341895
000150 e5 98 e4 3d b8 d7 d5 3d 5a 44 9e bc 10 66 e9 bb
       0.11161975 0.10441536 -0.019319702 -0.0071227625
000160 05 7c 3e 3e 96 4d 2e be f3 92 5f bd 6d de f8 3d
       0.18601997 -0.17021784 -0.0545835 0.12151799
000170 16 bc b7 3d d3 bb 89 bd 89 0c d7 3d b9 16 1e 3e
       0.089714214 -0.06725278 0.10500438 0.15438356
000180 6f 2f 12 3e 3e d3 a9 3c d2 43 20 be 85 77 d4 bd
       0.14275907 0.020730611 -0.15650871 -0.10374359
000190 93 25 52 be 95 7d 2c 3d 0e b4 e8 3b 75 e7 18 3e
       -0.20522146 0.04211195 0.0071015423 0.14932044
0001a0 c6 88 47 be 0e 6b 6f bd d8 95 8b bd 02 fe 60 3d
       -0.19485769 -0.058451705 -0.0681569 0.05492974
0001b0 46 85 3b 3e 98 a2 60 bc 5e 85 11 3e 87 f3 e2 bc
       0.18312559 -0.01371064 0.14211032 -0.027704014
0001c0 4f 41 87 3d ec 8e 0f 3e 52 d1 49 be bd a9 4a be
       0.066042535 0.14019364 -0.19708756 -0.19791313
0001d0 24 68 6d 3d 0c 7a 5e bd ff c6 48 be b2 e8 5a 3e
       0.057960644 -0.05431561 -0.19607161 0.21377829
0001e0 02 3f f3 bc 35 56 5c 3e d4 64 22 3e 36 8d 95 3d
       -0.02969313 0.2151726 0.15858775 0.073023245

GAT_layers.1.GAT_heads.0.f.weight f4 [64, 128]
000000 c9 77 01 3e fd 44 32 be c2 08 90 3d 9f af c4 bd
       0.1264335 -0.1740913 0.070329204 -0.096038096
000010 fa f9 55 bb e1 5e b6 3c 18 1c 19 bd df 1a a9 3d
       -0.0032650218 0.022262039 -0.037380308 0.082570784
000020 cf 43 06 be f2 3c f1 3d 53 4e 25 3e 5b e2 20 be
       -0.13111804 0.117792025 0.1614316 -0.15711348
000030 7f dc 37 3d cd 57 f6 3d cb 45 06 3e 9c 8a 51 bd
       0.044888016 0.120284654 0.13112561 -0.05115758
000040 a0 8e e0 3d 09 a4 fe bd 8f a8 cd bd 47 30 84 bd
       0.109647036 -0.12433631 -0.100419156 -0.06454521
000050 b2 d8 a5 3d bd 74 5a 3d ce f1 30 be 66 2e b8 3d
       0.08097972 0.053333987 -0.17279741 0.08993225
000060 0d 71 d7 3d cb d5 19 3e b4 48 65 bc 31 ff b2 3d
       0.105196096 0.15022962 -0.013994385 0.0874008
000070 eb 59 06 be f8 b7 40 bd 64 d1 98 3c f5 33 cd bd
       -0.13120238 -0.047050446 0.018654533 -0.10019676
000080 be 37 b7 3d bf fe 29 be ce f6 af 3c f6 cb e8 3d
       0.08946179 -0.16601084 0.02147999 0.113670275
000090 8d 68 59 bd 21 f3 02 be 6c 34 c5 bd 3f 0a f1 bd
       -0.053078223 -0.12788059 -0.09629139 -0.117695324
0000a0 8c 08 fa bd 66 b4 20 3e 93 69 2b be a6 ae 0b be
       -0.122086614 0.15693817 -0.16739492 -0.13640842
0000b0 3f 63 ca 3d 7d 83 1f be 38 86 23 3e 87 24 f1 3d
       0.09882211 -0.15577503 0.15969169 0.11774545
0000c0 c3 6e ab bc 51 56 cd bd d4 8d d9 bd d2 2b 06 3e
       -0.020926839 -0.10026229 -0.10622755 0.13102654
0000d0 e5 1a ac bd 90 7f 35 3c 1a fc f5 3a 46 ae 6d 3d
       -0.08403567 0.011077777 0.0018767149 0.05802753
0000e0 f2 62 ee 3d 39 f7 e7 3d 1c 04 33 3e 04 c1 16 3e
       0.11639966 0.11326451 0.17482036 0.14722067
0000f0 ec bd 01 bd 3f 59 20 3e 5a 47 0c be 01 8c e8 bb
       -0.031675264 0.15659045 -0.13699093 -0.007096768
000100 62 e6 0e 3c 5a 1b 83 bd 8f c8 14 3e 34 b3 de bd
       0.00872192 -0.06401701 0.14529632 -0.10874024
000110 aa 9c b0 3d 1c f3 2a bc 8c 7a e8 3d 1c b2 81 3d
       0.08623631 -0.010433938 0.11351499 0.063328
000120 97 81 f7 bd 37 f7 75 bd 0e a4 34 bc 82 01 24 bd
       -0.12085264 -0.060050216 -0.011025442 -0.0400405
000130 4c f4 9f 3d 85 e1 13 3e 8e 52 20 3e bf 72 e0 3d
       0.07810268 0.14441498 0.15656492 0.10959386
000140 73 2b 34 3e 80 a3 d6 bd 09 a2 f2 bd 35 b6 fd 3b
       0.175947 -0.10480404 -0.11847312 0.007742668
000150 ff 2b f4 bd 60 e6 23 3c ea d0 bf 3d 23 d6 60 3c
       -0.11922454 0.010003656 0.09366019 0.013722929
000160 56 d5 15 3d 0a a2 86 3d 24 15 f9 bd d7 aa f9 3d
       0.036580406 0.06573875 -0.121622354 0.12190788
000170 61 13 db bd 0a e3 14 bc 3e e3 23 be 21 f6 2c be
       -0.106970556 -0.009087333 -0.16004655 -0.16890766
000180 e1 8e 2c be b1 ff ef 3c a8 b3 87 bd 1a 73 13 be
       -0.16851379 0.029296728 -0.066260636 -0.14399377
000190 60 85 14 3d 69 43 1f 3e 6f 5c 5c bd 9c cc cc bb
       0.03626001 0.15553059 -0.05379909 -0.0062499773
0001a0 f2 82 ca 3c b4 c7 cb b9 d1 54 17 bd bc 9c 31 3d
       0.024720643 -0.00038867968 -0.03694612 0.043362364
0001b0 ea 0d 94 bd c2 6d bf 3d 05 75 8c 3d 6e 4a b9 3d
       -0.072292164 0.093471065 0.06858257 0.090473995
0001c0 5f 46 ab 3d 85 26 ef 3d f6 71 df 3d 89 09 ee 3d
       0.083630316 0.11677269 0.10910408 0.116229124
0001d0 a4 e9 d9 bc 68 a5 cf 3d 8e 57 be 3d 9c e8 1e 3e
       -0.026600666 0.101389706 0.092940435 0.15518421
0001e0 d5 1d fd 3d e6 8a a3 bd 40 61 0b 3d 76 eb f1 bd
       0.12359206 -0.07985477 0.03402829 -0.11812489
0001f0 77 d9 6f 3d b5 f1 7a bd 1f 8e ce 3d c8 75 3f 3d
       0.058557 -0.061265666 0.10085701 0.046743184
000200 cf 07 0a be fe ef b9 3d a7 cd a4 3d 6a 3c d9 bd
       -0.13479541 0.09078978 0.080470376 -0.10607226
000210 40 86 ca 3d b6 c8 60 bc b6 b8 36 3d 85 ff 0a 3e
       0.098888874 -0.013719728 0.044609748 0.13574035
000220 4b 4f aa bc 04 d2 3c bd 24 81 50 bd f9 2d db 3d
       -0.020789763 -0.046098724 -0.050904408 0.10702128
000230 35 07 15 be 41 14 0e 3e fd 4c d0 bd 74 a1 08 be
       -0.1455353 0.13874914 -0.10170934 -0.1334284
000240 59 69 a7 bd c1 84 95 bd ce 8e 29 3e e6 ac 08 be
       -0.0817439 -0.073007114 0.16558382 -0.13347206
000250 5e c3 2e bd 6a e3 b3 bd c1 ec 73 3d 96 66 1d be
       -0.042666785 -0.0878361 0.059551958 -0.15371165
000260 8d ad a2 3d ff 56 d1 3d 0e 1c b2 bb 53 d8 1a be
       0.079432584 0.10221671 -0.0054354733 -0.15121584
000270 2a 00 af 3c f5 a8 22 be 1f 24 06 3e 13 b8 13 3d
       0.021362383 -0.15884764 0.13099717 0.03606422
000280 3c 0d 98 bc 23 b2 24 3e 3b fa c4 bd 47 71 f6 3d
       -0.018560998 0.16083579 -0.0961804 0.12033325
000290 14 fa 51 bc 02 55 90 bd 25 0d 1a 3d 77 3d 28 3e
       -0.012815971 -0.07047464 0.03761019 0.16429697
0002a0 af aa fc bb d2 03 1f bc 46 79 b6 bd 65 7f c3 3d
       -0.0077107768 -0.009705501 -0.0890985 0.09545783
0002b0 73 a2 1a be b2 62 c8 bd c8 6a a7 3c fb ad 20 bd
       -0.15101032 -0.0978445 0.02043666 -0.03922842
0002c0 4d 69 bc bc 90 bf 93 bd 6e 52 27 3e 81 9a 80 3d
       -0.02299943 -0.07214272 0.16340038 0.06279469
0002d0 d8 a7 9d bc 64 93 25 be 56 e2 03 3e 77 c7 0f 3e
       -0.019245073 -0.16169506 0.12879309 0.14040934
0002e0 47 7f 23 bc c1 f6 ab 3d fb 6b 69 3d 60 b1 e1 3d
       -0.009979076 0.08396674 0.056987744 0.1102016
0002f0 62 43 64 bd 95 57 a2 3b a6 27 28 3c d0 9f c4 3c
       -0.055728324 0.0049542882 0.010263359 0.024001986
000300 c6 c5 da 3d 5e b6 d8 3d d8 a2 f0 3d 31 91 3f 3d
       0.106822535 0.10581659 0.1174981 0.046769325
000310 54 26 b5 3d 97 4d db 3d 83 ff 9a bd da 43 d3 3d
       0.08845201 0.107081585 -0.07568266 0.10315676
000320 ed 0c 2f 3e ad 8e 06 be 6d e5 59 bd 0b ec 86 bd
       0.17094775 -0.13140364 -0.053197313 -0.065879904
000330 59 f0 22 3e 20 bd 1f 3e 1d 89 1d 3e 01 a4 04 3e
       0.15911998 0.15599489 0.15384336 0.12953188
000340 52 8b ce bd 57 2e 87 bc e4 f1 39 bc 16 23 45 3d
       -0.10085167 -0.016501589 -0.011349175 0.048129164
000350 be 4f d6 3c a8 85 ce bd 93 11 f0 3d 5b 65 e8 3d
       0.02616107 -0.10084087 0.11722102 0.11347457
000360 8a ea a8 bd 75 66 2a 3e ac 60 43 3c c9 a7 ce 3c
       -0.0824786 0.16640647 0.011924904 0.02522649
000370 43 d2 83 bd 6e 08 f7 bc 78 24 d5 3c 88 cf e6 3d
       -0.064365886 -0.030155387 0.026018366 0.11270052
000380 52 b9 06 be 4f bc 7a 3d 8f 6c 02 bd 25 9d 73 bd
       -0.13156632 0.06121474 -0.03184181 -0.059476037
000390 4b 0d 2d 3e 5e d9 2f 3e df fb 53 3d 20 4b 47 3d
       0.16899602 0.17172763 0.051753875 0.04865563
0003a0 c9 93 4c 3c f6 38 09 3d b4 ac aa bd bf a2 f8 bb
       0.012486407 0.033501588 -0.08333722 -0.00758776
0003b0 91 ed 7c 3d f7 c1 d5 bd be 3a 37 bd ac 95 2b bd
       0.06175 -0.104373865 -0.044733755 -0.041890785
0003c0 29 e9 08 be cb 83 16 be f0 42 27 3d 31 51 ea bc
       -0.13370194 -0.14698713 0.04083532 -0.028603168
0003d0 a9 3c 34 3c 4c df 0d bd 70 79 04 bd be ac ec bd
       0.011000791 -0.03463678 -0.032342374 -0.115563855
0003e0 29 0f 99 bd d9 77 43 bd 7b 9f b4 bd 84 b4 dc 3d
       -0.07473595 -0.047721718 -0.08819481 0.10776618
0003f0 16 bf 95 3d be 1a 0d 3e f5 60 e8 bd 64 7d 08 be
       0.073118374 0.13779733 -0.11346618 -0.13329083

GAT_layers.1.GAT_heads.0.f.bias f4 [64]
000000 67 19 38 bd b5 7b a9 3d a6 93 5e 3d 6a 10 ca 3b
       -0.0449461 0.08275548 0.054340027 0.0061665075
000010 ad 6a a8 bd ce 39 a9 bc e3 cc 68 3d c6 48 7a bd
       -0.08223472 -0.020657446 0.05683602 -0.06110456
000020 c2 fa 03 3c 59 af 76 3d 10 fd 9d 3d 7e 02 79 3d
       0.008055391 0.06022582 0.077142835 0.060793392
000030 d7 91 17 bd a3 5e 5c bd f3 49 d7 bc 89 d4 04 bb
       -0.037004318 -0.05380119 -0.026280379 -0.0020268282
000040 a0 80 30 3c 54 61 2e bd 2e 64 20 3d ac 99 80 bd
       0.010772854 -0.042573288 0.03915804 -0.062793106
000050 a9 e2 80 3b cb 0f 7c bd e5 07 4e bc 3f f6 38 3d
       0.00393327 -0.0615385 -0.012575124 0.045156714
000060 ad a5 51 3d 8c c0 9f 3d 65 5c a9 bd 8d 87 99 bd
       0.05118339 0.07800397 -0.08269576 -0.074965574
000070 d1 50 ee bc 26 ed 51 3d a0 87 28 39 98 01 44 bd
       -0.02909127 0.051251553 0.00016072253 -0.047853082
000080 23 7f e1 bc af 59 06 3d 3e 40 6f 3d ef 1c 4c bc
       -0.027526444 0.032800373 0.058410875 -0.01245807
000090 e0 f5 0e 3d bd 6b 5d 3d ab 4e 7c 3d 55 03 fd bc
       0.034902453 0.054057825 0.06159846 -0.030885378
0000a0 ba 82 87 3d 09 ad 9f bd 8d 5d 62 3d 04 21 1f 3d
       0.06616731 -0.07796676 0.055265 0.038849846
0000b0 a9 14 a6 3c a8 40 6d bc 84 31 27 bd 2f 58 19 3c
       0.020273523 -0.014480747 -0.040818706 0.0093594035
0000c0 fb 0a d3 bc 52 30 08 bd a5 76 81 bd c5 bf 28 bc
       -0.025762072 -0.033249207 -0.06321458 -0.010299628
0000d0 d1 1d a1 bc d3 5e 06 bd 9a 37 4b bd f3 08 f8 3c
       -0.019667538 -0.032805275 -0.049613573 0.030277705
0000e0 98 56 da bc 23 23 69 3d 64 9f 9f bd d5 99 69 bc
       -0.02665262 0.056918275 -0.07794073 -0.014257868
0000f0 7e 49 81 3d 94 83 26 3d e5 87 24 3d 2f 53 16 3b
       0.06312846 0.040652826 0.04016866 0.0022937765

GAT_layers.1.GAT_heads.0.w.weight f4 [1, 128]
000000 c5 f2 c6 bd 15 f4 10 3e d6 79 48 3e e1 11 b4 3c
       -0.09714273 0.1415561 0.19577727 0.021981182
000010 25 84 2e 3e 81 3e c2 bc 9a a3 1d be 22 d2 35 be
       0.17042597 -0.023711445 -0.1539444 -0.1775594
000020 c1 64 fb 3d d4 2d 64 3d 42 cb b6 bd 19 b8 d8 bd
       0.12275077 0.055707768 -0.08925487 -0.10581989
000030 96 46 71 bd fe cf 19 be 29 f1 cb bc b5 2e 1e 3e
       -0.058905207 -0.15020749 -0.024895268 0.15447505
000040 1b e3 58 bd ab 45 39 be 6d cf e8 bd e2 5b 5d 3d
       -0.05295096 -0.18092982 -0.11367688 0.054042704
000050 b8 49 8e bd 3b 29 a2 bc 64 9f d0 bd a4 fd 6a bd
       -0.069476545 -0.01979505 -0.10186651 -0.057370797
000060 4c 5a 4c be 87 15 45 3e 55 7b 82 bc 90 87 bf 3c
       -0.1995632 0.19246493 -0.01592795 0.02338007
000070 cc f3 0c be c3 8c f6 3c 7c ac 97 bd f3 80 34 be
       -0.13764876 0.030096417 -0.07405946 -0.17627315
000080 8f b0 5b be f1 63 97 bd ad 97 92 bd f5 54 b1 bc
       -0.2145407 -0.07392109 -0.07157836 -0.021646956
000090 a9 24 2f 3e 48 3d 69 bd 1b a9 95 3d d6 f1 27 be
       0.17103828 -0.056943208 0.07307645 -0.16400847
0000a0 d4 f2 1d be 5f ec e9 3d 39 59 54 bb 85 9e 0a be
       -0.15424663 0.11422037 -0.0032401814 -0.13537033
0000b0 cf de a8 3c a9 eb c7 3d 40 f9 ed 3d 34 05 13 3e
       0.020614056 0.097617455 0.11619806 0.14357454
0000c0 07 1d 1f be 95 e9 05 3e f1 ee 2d 3d f0 e9 03 3e
       -0.15538417 0.13077386 0.0424642 0.12882209
0000d0 3e 84 c5 3c 48 a6 b6 3b c5 16 bf bb a0 af 6f 3d
       0.02411091 0.0055740215 -0.0058315718 0.0585171
0000e0 50 67 c6 bc 83 d1 54 be 78 8e 2a be a0 17 b6 bd
       -0.024219185 -0.20783047 -0.1665591 -0.08891225
0000f0 a9 5d 43 3e 40 2f 47 be ea 66 76 3d 89 78 0d be
       0.19078697 -0.19451618 0.06015674 -0.13815512
000100 84 18 27 bc ae 3c 16 be 60 04 93 bd 9a b4 a3 bc
       -0.010198716 -0.14671585 -0.07178569 -0.019983578
000110 a3 4e c2 bd 73 95 31 3e d1 89 4e 3e e0 88 cc bc
       -0.09487655 0.17342167 0.2016976 -0.02496761
000120 8c 5c 09 3e f6 d6 51 be ab 43 3a be 2d 11 a7 3d
       0.1341421 -0.20492157 -0.18189876 0.08157573
000130 88 33 16 be 57 f0 20 3e 85 c1 ea 3d 0a ab 4a 3d
       -0.14668095 0.15716682 0.11462692 0.04947952
000140 37 ad 15 3e 70 91 5c 3e f8 e9 0f 3e 86 61 fa 3c
       0.14616857 0.21539855 0.14054096 0.03056408
000150 12 92 50 3d f5 ef ce 3c 13 76 51 be 59 93 9e 3d
       0.050920554 0.025260905 -0.20455198 0.07742948
000160 8c 56 70 3d 96 13 24 be b5 38 df 3d b9 b0 5b bc
       0.058676288 -0.16023096 0.10899488 -0.013408833
000170 be f9 03 3e 6e 97 4c be 63 4c a2 3d 4e 14 22 be
       0.12888238 -0.19979641 0.07924726 -0.15828058
000180 ea 34 8e 3d 4e bf 1f 3e cd 7b 5e 3e ec 0d 38 be
       0.06943686 0.1560032 0.21726914 -0.17974061
000190 7e e1 b5 3d cd 40 be bc da 9e 18 be 8c 70 3e 3e
       0.088809 -0.023224259 -0.14904347 0.1859762
0001a0 1e d3 c3 3d 8b eb 18 bd 30 d8 07 be bc ba 24 be
       0.09561752 -0.037334006 -0.13266063 -0.16086859
0001b0 51 83 94 bd 5a b2 56 be 62 c4 f9 bd 1f f8 2d be
       -0.07251609 -0.20966473 -0.1219566 -0.16989182
0001c0 2e 78 22 be 4a 8b 30 be 65 fb cd 3d af 3f 51 3e
       -0.15866157 -0.17240635 0.10057715 0.2043445
0001d0 90 87 4a 3e 9d 5e 59 be a0 d6 5b 3d d0 14 33 3e
       0.19778275 -0.21227498 0.05367148 0.17488408
0001e0 d2 e4 a8 bd 74 24 e2 bd d8 f7 5f bd 79 a5 06 3d
       -0.08246769 -0.11042109 -0.05467972 0.03287265
0001f0 21 38 86 3d 5c 58 fd bd 19 88 42 bd 92 e0 b5 3c
       0.065536745 -0.12370369 -0.047493074 0.02220181

GAT_layers.1.GAT_heads.1.f.weight f4 [64, 128]
000000 a1 02 ce 3c 0b 19 96 3d ff 7d 31 be c6 8e 06 be
       0.025147738 0.07328995 -0.1733322 -0.13140401
000010 c9 8b 89 3d 9d 9c 00 be 57 4e fb 3d fc 3a 51 3b
       0.06716115 -0.12559743 0.122708015 0.0031926027
000020 71 0f a9 3d 2d 64 ec 3d 59 1f 28 be 69 c2 22 be
       0.08254898 0.115425445 -0.16418208 -0.15894474
000030 0f c6 8a 3c 5a 90 65 3c cf 9c ad 3d 01 f6 d1 3d
       0.016940145 0.014011467 0.084771745 0.10252
000040 28 4b 21 be 75 fb 19 3d cd 71 15 be e8 e7 46 bc
       -0.15751326 0.037593324 -0.14594193 -0.012140252
000050 27 6c 81 bd df 7c 01 3e 6f 02 bd bc 21 fa 8d 3c
       -0.063194565 0.12645291 -0.02307245 0.017331185
000060 f7 33 9f bd fe e3 08 3d 95 a0 13 be 0b 6c af 3c
       -0.077735834 0.033420555 -0.14416726 0.021413824
000070 ec 01 91 3d 34 bd c4 bd f4 c0 7c 3c 01 ad 22 be
       0.07080445 -0.096064 0.015426863 -0.15886308
000080 e5 4c 08 3e ec 67 20 3e 23 7d 00 be 90 0b 25 be
       0.13310583 0.15664643 -0.12547736 -0.16117692
000090 98 f3 60 3d 49 e0 d7 3d f7 a6 ab 3c 9f 8a cd bd
       0.05491981 0.10540826 0.020953638 -0.100362055
0000a0 f4 77 dd bd 69 ad 4d 3d 5b 13 0c 3d 20 b3 90 bd
       -0.10813895 0.050214205 0.034198146 -0.070654154
0000b0 da 51 04 bc 79 dc 1e 3e 23 9a 30 3e 46 86 33 be
       -0.008076156 0.15513791 0.17246298 -0.1753169
0000c0 ea 9f 5a bd 92 66 23 3e ef 0a be 3d 00 75 2d be
       -0.053375162 0.15957096 0.09279429 -0.16939163
0000d0 5b 80 2d be e9 18 1b be bc e4 c0 bd 26 58 b2 3d
       -0.16943495 -0.15146221 -0.094186276 0.08708219
0000e0 f6 42 ed 3c a9 f2 61 bd 09 a5 5b bd 98 23 e4 3d
       0.028962594 -0.05516306 -0.053624187 0.111396015
0000f0 19 b6 e6 3d 70 66 22 3e 89 5b 30 be 6b 71 08 bd
       0.11265201 0.1585939 -0.17222418 -0.03331129
000100 d0 e6 31 be d2 78 8a bd d9 22 db 3c 57 5b b9 bd
       -0.17373204 -0.06761326 0.026750015 -0.09050625
000110 75 73 74 bd c5 f2 b7 bd 4b f0 f2 3d 92 ec dd bd
       -0.05968042 -0.089818515 0.118622385 -0.10836138
000120 04 b6 ce bd f9 c5 25 3e 3e c2 c8 bd 80 90 11 be
       -0.100933105 0.16188802 -0.09802674 -0.14215279
000130 93 64 0d bd 75 24 c2 bd a7 0a 82 bd 4d 3e 2f be
       -0.034519743 -0.0947961 -0.06349688 -0.1711361
000140 23 20 40 bc 48 7f 08 be 4f fb 24 bc dc d1 c5 3d
       -0.011726412 -0.13329804 -0.010069682 0.09659168
000150 12 e4 27 bd 08 51 15 be ad 80 1a 3e c6 9b 1e bd
       -0.04098899 -0.14581692 0.15088148 -0.038722776
000160 cc 52 2d 3e 01 0d a6 3c 57 85 e4 bd 9a fa 19 be
       0.16926116 0.020269873 -0.11158245 -0.15037003
000170 5c 4f 00 be 2a 2d af bd 43 3d 2c 3e d2 e6 1d bc
       -0.12530273 -0.08553536 0.16820244 -0.009637551
000180 70 fe 89 3c 72 17 8e bd 55 4f 21 be db f3 e5 3c
       0.016844958 -0.069380656 -0.15752919 0.02807038
000190 99 21 34 be 8d 1c f8 3d fc 2c 23 3d f9 d1 b8 bc
       -0.17590941 0.12114821 0.039837822 -0.02256106
0001a0 7e e6 9c 3d 93 3f 2a be 7a 7d 05 be e4 e9 18 be
       0.076611504 -0.16625814 -0.13036147 -0.14932972
0001b0 c2 a0 df 3d 1b 79 13 be 53 53 12 3e 93 cc 01 3c
       0.10919334 -0.14401667 0.14289598 0.007922309
0001c0 f6 8e 02 be a0 af 00 be d6 28 52 3d 6a b7 89 3d
       -0.12749848 -0.12566996 0.051308475 0.067244366
0001d0 7c 4f 91 bd 36 4d fc 3d 90 93 0d be d0 cc 2a 3e
       -0.070952386 0.12319414 -0.13825822 0.16679692
0001e0 94 8c cb 3d 0d cf 4e 3d 87 3a 31 be e5 20 8a bd
       0.099389225 0.050490428 -0.17307483 -0.067445554
0001f0 a9 c7 18 3e 5a 41 ec 3d 61 22 15 be 0b e9 18 be
       0.14919914 0.11535902 -0.14563896 -0.14932649
000200 fb 12 2d 3e 56 ab af 3d b5 28 09 be 95 75 b5 3d
       0.16901772 0.085776016 -0.13394435 0.088603176
000210 55 41 ed bc 05 67 25 bd 30 d0 e4 3c e8 cc 0a 3e
       -0.028961817 -0.04038145 0.027931303 0.13554728
000220 db d4 2b 3e 23 a2 86 bd e0 12 1f be bc 9f dd bd
       0.16780417 -0.06573894 -0.15534544 -0.108214825
000230 12 f9 91 bd 31 41 cb 39 27 d7 10 bd 7a 0b 06 3e
       -0.071275845 0.0003876775 -0.035361435 0.13090315
000240 f5 3b 38 be 53 1f 13 3e 35 e6 07 3e 0f 61 e8 bd
       -0.17991622 0.14367418 0.13271411 -0.113466375
000250 85 32 0a 3e e2 43 31 3d 76 6f 8f bd 4e 1a 0a be
       0.13495834 0.04327763 -0.07003681 -0.13486597
000260 cd 68 7a 3d f8 38 33 be 46 ed cb bd ec 79 29 3e
       0.061135102 -0.175022 -0.09957366 0.16550416
000270 0c ad 8a 3d 54 22 2a 3e 2c cd cc bd 0a a2 41 bc
       0.06771287 0.16614658 -0.10000071 -0.011818418
000280 24 b8 2b 3e 17 21 63 bd 61 2f 2b 3d 5a b5 29 3c
       0.16769463 -0.05545148 0.04179323 0.010358179
000290 db 49 f7 39 ee 57 21 3c 4d b0 41 bc d9 c2 0c 3d
       0.00047166538 0.009847624 -0.011821819 0.03436551
0002a0 10 a4 21 be fa 7f 04 3e 01 53 d5 bd d9 2a 02 be
       -0.15785241 0.12939444 -0.10416222 -0.12711658
0002b0 08 27 e8 3c 52 f1 5f bd 09 16 86 3d 36 4c 5a bc
       0.028338924 -0.0546735 0.065471716 -0.013323834
0002c0 f7 ab b3 3b 6b 6f f2 3d 09 62 8b bd 2a 57 27 be
       0.0054831463 0.118376575 -0.06805808 -0.16341844
0002d0 d9 a9 21 be f9 40 b7 bd 4d e8 31 be c2 30 17 be
       -0.15787448 -0.089479394 -0.17373772 -0.14764693
0002e0 d4 4f 2d 3e ff 6a 56 bd 38 e9 7f 3d 9d 77 e3 3c
       0.16924983 -0.052348133 0.062478274 0.027766997
0002f0 62 11 d9 3d 9a 96 e1 3c cc 50 77 bd 32 e3 bb 3c
       0.10599019 0.027537633 -0.06037979 0.022935484
000300 01 65 94 3b ea 40 94 bb 88 e9 c8 bd bc 7f b6 3a
       0.004528642 -0.00452434 -0.098101676 0.0013923566
000310 08 85 8e bd 47 fc 04 3e 1c 23 d7 bd 65 12 e0 bd
       -0.069589674 0.12986861 -0.105047435 -0.109410085
000320 32 ed 73 3d f6 56 c5 3d 29 25 21 be fd 3d 93 3c
       0.05955238 0.09635727 -0.15736832 0.017973894
000330 b5 f8 0c be 65 68 e1 bd 7a 5c e6 bd ad a1 00 bd
       -0.13766749 -0.1100624 -0.11248107 -0.031404186
000340 6c 7f da bd ff 0e 33 be 49 5f d4 bd fe 3b af bd
       -0.10668835 -0.1748619 -0.10369737 -0.085563645
000350 75 96 1b be 05 6a b0 bd 9e 24 c4 3d 90 e0 c8 bd
       -0.15194114 -0.086139716 0.09577297 -0.09808457
000360 5e dc 32 bd 0c 04 1a be 1b d5 e7 3c 2b 9f 1e 3e
       -0.04366719 -0.15040606 0.028299859 0.15490405
000370 c7 fe 8b 3d 39 6a 1b bb f6 09 e4 bd 94 1d a0 bd
       0.06835704 -0.0023714437 -0.111347124 -0.078181416
000380 40 90 12 3e 9c b0 03 bd b3 e9 24 be 74 50 aa bc
       0.1431284 -0.03215085 -0.16104774 -0.020790316
000390 1c ff b1 bd ec f0 36 3d 7c b7 01 be fb ab e1 3d
       -0.086912364 0.044663355 -0.1266765 0.11019131
0003a0 1b 60 01 3e 9e 54 7e 3d 77 7f e8 bd d9 2a b9 3b
       0.12634318 0.062092416 -0.11352437 0.00565086
0003b0 fb 7e 3f bd 7a e6 1e be e8 a1 c0 3d b1 f5 a4 3c
       -0.046751957 -0.15517607 0.09405881 0.020136686
0003c0 94 d5 07 3e 28 87 ce bd 2c 7f 82 bc 1f a8 e2 3b
       0.13265067 -0.10084373 -0.01592978 0.0069170143
0003d0 12 d7 ce bc 75 45 50 3d 2c ae ef bc e5 08 cc bd
       -0.025249038 0.05084749 -0.029257856 -0.09962634
0003e0 d1 a1 61 3d 4c 9d 03 be 6f 71 22 bd af a2 c5 3d
       0.05508596 -0.12852973 -0.03965896 0.0965017
0003f0 94 07 be 3d 36 ab 18 3e 64 59 e7 bd ae 14 a3 bb
       0.09278789 0.14909062 -0.11296347 -0.0049768304

GAT_layers.1.GAT_heads.1.f.bias f4 [64]
000000 9e 4b f6 ba 25 fd df bc ab ab bb 3c f1 56 ad 3d
       -0.0018790846 -0.027342388 0.022909006 0.084638484
000010 ad f8 9c bd c5 78 8a 3d ce 88 84 bd 86 b5 7b 3d
       -0.07664619 0.06761316 -0.06471406 0.06145241
000020 8e 32 56 3d a8 7d 3d 3d 8a 7b 80 3d a3 ff 1e 3d
       0.052294306 0.046262413 0.06273563 0.038818013
000030 d6 e8 b7 3c d5 13 b2 3d a5 40 bb bc 07 47 a8 bd
       0.022449892 0.08695189 -0.022857973 -0.082166724
000040 d0 c9 29 bb 45 f6 c1 bc 99 dd 28 bd 97 48 87 bd
       -0.0025907643 -0.023677 -0.041226957 -0.06605642
000050 31 20 2c 3d f2 01 69 3d 8a 2d 9d 3d ee 2f 9e bd
       0.042022888 0.05688662 0.076747015 -0.077239856
000060 7a 58 54 bd fa 4c 71 bd 7b b8 b3 bd 32 1e 34 bd
       -0.05184219 -0.0589113 -0.08775421 -0.04397411
000070 c8 75 6b bd 8f 40 d6 bc f6 f3 41 3d f9 b4 a4 3d
       -0.05748537 -0.02615383 0.0473518 0.0804233
000080 16 85 ab 3d 88 99 5b bb 0c 1b 88 3c 0a bd 4c 3d
       0.083749935 -0.003350826 0.01661446 0.04998497
000090 a5 b1 80 bd 98 aa f1 bc ec 24 0b bd 61 3f eb bc
       -0.06283883 -0.02950029 -0.03397076 -0.028716745
0000a0 e9 49 9e bd 2a 9e 2e 3d 3d e4 96 bc 02 05 b4 3d
       -0.07728941 0.042631306 -0.01841938 0.08790018
0000b0 77 78 23 bd ed 7b 65 bd 23 5a a8 3d 0f 23 34 3d
       -0.039909806 -0.056026388 0.08220317 0.043978747
0000c0 16 61 62 bd 59 a8 9d 3d 01 df 9e 3c 2e 3e aa 3d
       -0.05526837 0.076981254 0.019393446 0.08312641
0000d0 a6 9d e4 3c ee 95 a6 3d 14 94 18 3d 44 ad 66 3d
       0.027907204 0.081340656 0.037250593 0.056317583
0000e0 a6 41 a4 bd c9 c0 a2 bd 9a 05 bf bd 9e f5 a4 bc
       -0.08020334 -0.07946927 -0.0932724 -0.02013665
0000f0 0e 0a 85 3c c8 01 94 bc c5 d2 4f bd 8e c9 a0 3d
       0.016240146 -0.018067256 -0.050738115 0.078509435

GAT_layers.1.GAT_heads.1.w.weight f4 [1, 128]
000000 03 22 23 3e 6d 43 12 be 2b de 27 3e 1d 2c c5 3d
       0.15930943 -0.14283533 0.16393344 0.096275546
000010 1f 1e 55 3e cc 5a 52 3d c7 26 14 3c a6 16 57 be
       0.20812272 0.051356122 0.009042448 -0.21004733
000020 6a 03 15 bd e2 3a 49 3e 84 e6 16 bd 8d a2 fd bd
       -0.03638021 0.19651368 -0.03684093 -0.1238452
000030 7c a0 dc bd f6 d7 39 3e e4 b3 df bd a9 da c5 bc
       -0.107727975 0.18148789 -0.10922983 -0.024152117
000040 b3 ff 79 bd 4e 66 81 bd 0e 09 0c 3e a6 57 87 bd
       -0.06103487 -0.06318341 0.13675329 -0.066085145
000050 eb 5b 08 3e ad e7 30 3e 05 b6 15 be 81 aa 59 3e
       0.13316314 0.17275877 -0.14620216 0.21256448
000060 60 fc 2a 3c 50 f5 e7 3c 2e a5 06 bc 97 80 07 3e
       0.010436147 0.028315216 -0.008218093 0.13232647
000070 11 5a aa bd 3f 29 a6 bd 24 e0 10 be d9 45 35 bd
       -0.0831796 -0.08113336 -0.14148003 -0.044256065
000080 fc 56 32 3e b6 76 f5 3d 0b 66 0d be b2 eb ec 3d
       0.17415994 0.11985533 -0.13808458 0.11568393
000090 45 63 18 3e 27 2e 2e bd 57 ad 88 bd e6 25 69 3d
       0.14881618 -0.042524483 -0.06673687 0.05692091
0000a0 f7 ac 77 bb 17 94 10 3d 15 5f 08 3d aa 9a 45 3e
       -0.0037792304 0.03529748 0.033293802 0.19297281
0000b0 dd ed 93 3d 01 e7 32 3e 29 02 98 3c 9b e5 aa bd
       0.07223103 0.17470933 0.018555718 -0.08344575
0000c0 78 c9 e9 3d 95 9b 80 bd 99 14 fc 3d 23 1c 29 bd
       0.1141538 -0.06279675 0.12308616 -0.0412866
0000d0 00 29 79 bd dc 4c b8 bd cc 79 c8 bd e8 cd b8 bc
       -0.060830116 -0.08999035 -0.09788856 -0.022559121
0000e0 10 48 97 bd 7d ec cb 3d a2 c4 51 3e 16 53 10 be
       -0.07386792 0.09957216 0.20485166 -0.14094195
0000f0 dd 87 d9 bd 34 ec 85 3d 56 01 17 be af 5e 5d be
       -0.10621617 0.06539193 -0.14746603 -0.2161815
000100 f3 e2 1b 3e 81 2d c4 3d ac f8 9c bd 91 f8 f9 bd
       0.15223293 0.09578992 -0.07664618 -0.122056134
000110 a7 33 40 be d0 16 24 3e 1f a3 8b bd b4 d6 48 3e
       -0.18769704 0.16024327 -0.06818222 0.19613153
000120 00 27 1b bd c9 ab 21 3d f4 92 c3 bd 2c 69 ca 3d
       -0.03787899 0.039470468 -0.095495135 0.09883341
000130 a5 1a fa bd 98 1c 56 be 5d 13 36 3e 45 58 44 3e
       -0.12212113 -0.20909345 0.17780824 0.19174297
000140 3e a7 08 bc 08 f1 ce 3b 4e 35 8a 3d d2 5a 5a bd
       -0.008340655 0.0063153543 0.06748448 -0.05330927
000150 35 bf 5d be c6 07 b5 3d af f1 47 3d c1 56 33 3e
       -0.21654971 0.08839373 0.04881447 0.17513563
000160 39 d4 e0 3d 9e e4 54 be 00 b7 df 3c 5a 7b ed 3d
       0.10977978 -0.20790336 0.02730894 0.11595793
000170 10 54 31 bd 82 17 b9 bd 10 8c 42 be a8 3b 04 be
       -0.04329306 -0.09037687 -0.18998742 -0.12913382
000180 ec bd cb bd e2 23 00 3d 8a 47 fb bb cd cf 19 3e
       -0.09948334 0.03128422 -0.00766844 0.15020676
000190 71 e5 0f 3e 87 5c 51 be 63 05 4b 3e 0b ed 7e 3d
       0.14052369 -0.20445453 0.19826274 0.06223778
0001a0 31 45 63 bd 7a 73 22 be 5a 2e e6 3d f5 23 ce 3c
       -0.055485908 -0.15864363 0.112393096 0.02516363
0001b0 9a 5f d8 3d 90 bf 34 be 70 de 49 bb 26 01 49 bc
       0.105651096 -0.176512 -0.003080275 -0.01226834
0001c0 86 33 c3 3d 39 c9 49 be 89 87 d2 3d 48 47 56 3e
       0.09531312 -0.19705667 0.102797575 0.20925629
0001d0 e7 9a 92 3d ae 03 55 be d7 80 0e 3e 52 d3 f7 bd
       0.071584515 -0.20802185 0.13916336 -0.12100853
0001e0 db 4c 7e bd 87 07 8b 3d 40 f1 9c 3c db ab 2c 3e
       -0.062085014 0.06788545 0.019158006 0.16862433
0001f0 b7 4c 7c bd 50 11 62 bd e9 97 0c be fa 0e c8 bd
       -0.0615966 -0.05519229 -0.13729824 -0.097684816
