SLIC_GAT/hh_n_0/last4.pt (torch, 580781 bytes, 30 tensors)

GAT_layers.0.GAT_heads.0.f.weight f4 [32, 124]
0.105835274 0.081837445 -0.044659123 -0.055868078 -0.11803782 -0.005276188 -0.18940306 -0.19995658
-0.1792748 -0.001582462 0.014571816 0.09606704 -0.16697401 -0.025059756 0.0062863072 -0.20972764
-0.024970362 -0.055764023 0.052462466 0.0015433795 -0.18006879 -0.1765912 0.082841806 -0.048233848
0.0014661275 0.11117303 0.046466436 -0.21546894 0.08739966 0.0045791157 -0.030495903 0.16933358
0.034819223 0.12548512 0.13660587 0.0065476876 0.14137773 -0.07665231 -0.17431746 -0.11717132
-0.07936449 0.17062548 -0.12757407 -0.08557593 0.062674925 0.03406373 0.12656881 -0.026449
-0.11622395 -0.008044676 0.16700582 -0.15057817 0.14232828 -0.18366185 0.10727906 -0.18127099
0.027674869 0.07714661 -0.039634053 -0.18998927 0.12114891 -0.07408804 0.15163274 0.09407733
0.17248535 0.113608815 -0.049146406 -0.107933305 0.114172675 -0.15163745 -0.03275594 0.068229124
-0.028589208 -0.02229714 0.06293808 0.030823117 0.17454241 -0.20665893 -0.22008349 -0.083661795
0.003020386 0.09441675 0.022972304 0.15108357 0.09201921 0.07972275 0.11977159 -0.0068764025
-0.057359997 -0.1987385 -0.17559366 -0.2099255 -0.14422294 0.16874178 0.06704498 -0.18622966
0.06390015 -0.0977141 -0.056544334 -0.16336104 -0.12544823 -0.000283609 -0.14876832 0.028321438
0.122734316 0.050103854 0.010973572 -0.18549839 0.0035816655 -0.00019331984 0.11273251 -0.024938071
-0.086800136 -0.06399105 0.14039968 -0.123518765 -0.20298561 0.11196125 0.15951084 -0.16513118
0.167264 -0.110420264 0.17454569 0.15732002 -0.17453595 0.03101045 0.0995261 0.112680495
0.16325903 -0.06249968 0.1871372 0.18454248 -0.1935364 0.013913066 0.04328328 0.123424135
0.19506006 0.06298762 -0.13142051 0.14347367 -0.12157498 -0.18051642 0.1726611 0.08884219
-0.04988304 0.17466836 -0.15721303 0.04347237 -0.09275387 -0.11054617 -0.060279552 0.1039105
-0.16446842 0.1343388 0.12347786 -0.034015827 0.0038227015 -0.11723082 0.16459937 0.12725662
0.05040156 0.067987375 0.15397435 -0.049607545 0.15325807 0.08556026 -0.015086498 -0.12564847
0.12365512 0.04597096 0.16269486 -0.10925472 -0.11423278 -0.088403605 -0.100595705 -0.0035288527
-0.17831479 0.18252158 -0.063118234 0.080790624 0.19265494 -0.122557834 -0.09409729 -0.033868074
0.16521531 0.077366814 -0.17641158 0.06968798 0.050479155 0.044731203 -0.1903184 0.026345128
0.082378864 -0.18829344 -0.018358769 -0.09187994 -0.19201742 0.072901145 0.062397394 -0.027154716
-0.020977154 0.12533681 -0.18569472 -0.04198774 -0.09161401 -0.012505846 0.067658715 -0.13494258
-0.053155567 0.0024164629 0.091744184 -0.00016606008 0.132684 -0.10100766 -0.10066689 -0.09020204
0.06927656 -0.045670893 -0.08254493 -0.029677693 -0.07103565 0.035478994 -0.087458484 -0.038085785
0.15569118 -0.119716175 0.046382688 -0.08949018 -0.07372032 -0.08525358 0.15017872 -0.08231925
0.17081782 -0.033375222 -0.15151283 0.1825579 -0.08577369 0.13161857 0.14943777 0.042293068
-0.075244196 0.04257897 0.18332277 0.11191633 -0.099848725 -0.118459634 0.074218005 -0.080993906
0.033152737 0.12873404 -0.0977331 -0.11071306 -0.028504862 -0.13436179 0.119283006 -0.10531808
00000000: 2ac0 d83d 649a a73d 7cec 36bd edd5 64bd
00000010: d0bd f1bd dfe3 acbb e0f2 41be 6bc1 4cbe
00000020: d093 37be 9d6a cfba a0be 6e3c ccbe c43d
00000030: 3cfb 2abe 1e4a cdbc 5efd cd3b d8c2 56be
00000040: a58e ccbc d168 64bd e2e2 563d 394b ca3a
00000050: f463 38be 53d4 34be f7a8 a93d db90 45bd
00000060: 132b c03a b0ae e33d 9753 3e3d e4a3 5cbe
00000070: 98fe b23d 680c 963b 8bd2 f9bc c865 2d3e
00000080: 9a9e 0e3d 2c7f 003e 69e2 0b3e fc8d d63b
00000090: 53c5 103e e3fb 9cbd 4780 32be 84f7 efbd
000000a0: da89 a2bd 72b8 2e3e c7a2 02be 6f42 afbd
000000b0: b65b 803d 6986 0b3d 419b 013e 93ab d8bc
000000c0: d306 eebd d1cd 03bc 9303 2b3e 2a31 1abe
000000d0: 81be 113e da11 3cbe 20b5 db3d 1a9f 39be
000000e0: 68b6 e23c 0bff 9d3d 5157 22bd 8c8c 42be
000000f0: eb1c f83d 78bb 97bd 9d45 1b3e 9dab c03d
00000100: 00a0 303e bdab e83d be4d 49bd 230c ddbd
00000110: 5dd3 e93d d946 1bbe 182b 06bd b6bb 8b3d
00000120: ea33 eabc 7ea8 b6bc aee5 803d c380 fc3c
00000130: 3fbb 323e 669e 53be 915d 61be e056 abbd
00000140: abf1 453b 925d c13d 6a30 bc3c a7b5 1a3e
00000150: 9174 bc3d ae45 a33d cf4a f53d 7253 e1bb
00000160: 51f2 6abd 1b82 4bbe d3ce 33be b6f6 56be
00000170: 2eaf 13be a5ca 2c3e e14e 893d fdb2 3ebe
00000180: 15de 823d 541e c8bd 089b 67bd 1e48 27be
00000190: 8075 00be 5bb1 94b9 b956 18be 5c02 e83c
000001a0: 215c fb3d b339 4d3d 7fca 333c 4af3 3dbe
000001b0: 60ba 6a3b e6b5 4ab9 4de0 e63d ed4a ccbc
000001c0: 45c4 b1bd bd0d 83bd efc4 0f3e 68f7 fcbd
000001d0: 76db 4fbe f14b e53d cf56 233e 2618 29be
000001e0: 4147 2b3e 0524 e2bd 1bbc 323e 8018 213e
000001f0: 8db9 32be a109 fe3c 57d4 cb3d 08c5 e63d
00000200: 602d 273e aaff 7fbd e5a0 3f3e b4f8 3c3e
00000210: 682e 46be a1f3 633c cf49 313d cbc5 fc3d
00000220: d3bd 473e a7ff 803d 1993 06be c3ea 123e
00000230: 4efc f8bd 4cd9 38be 12ce 303e e5f2 b53d
00000240: 2952 4cbd 43dc 323e 74fc 20be 1510 323d
00000250: bef5 bdbd 0866 e2bd b1e7 76bd 07cf d43d
00000260: 696a 28be 1c90 093e f6e1 fc3d 2e54 0bbd
00000270: 4a86 7a3b b616 f0bd bd8c 283e 8f4f 023e
00000280: de71 4e3d f73c 8b3d 74ab 1d3e 4831 4bbd
00000290: afef 1c3e 383a af3d 5c2d 77bc fea9 00be
000002a0: e53e fd3d 0c4c 3c3d 7b99 263e f0c0 dfbd
000002b0: e0f2 e9bd f30c b5bd 1f05 cebd 5344 67bb
000002c0: 2798 36be f0e6 3a3e 2244 81bd 8e75 a53d
000002d0: 5647 453e 9aff fabd 14b6 c0bd 40b9 0abd
000002e0: 342e 293e 7e72 9e3d 3da5 34be 92b8 8e3d
000002f0: 3bc3 4e3d 1138 373d d4e2 42be bdd1 d73c
00000300: 40b6 a83d ffcf 40be 2165 96bc 8d2b bcbd
00000310: 37a0 44be 324d 953d 6994 7f3d 9173 debc
00000320: 48d8 abbc 4b58 003e c226 3ebe 56fb 2bbd
00000330: 20a0 bbbd 52e5 4cbc a790 8a3d 632e 0abe
00000340: a7b9 59bd 855d 1e3b 60e4 bb3d 6a20 2eb9
00000350: 51de 073e 1bdd cebd 712a cebd d9bb b8bd
00000360: dee0 8d3d 6711 3bbd 510d a9bd a21e f3bc
00000370: 247b 91bd 6c52 113d 6f1d b3bd d7ff 1bbd
00000380: 826d 1f3e c12d f5bd c6fb 3d3d a146 b7bd
00000390: aefa 96bd 6e99 aebd 73c8 193e ff96 a8bd
000003a0: deea 2e3e 75b4 08bd 2e26 1bbe 75f0 3a3e
000003b0: 1eaa afbd 05c7 063e 3706 193e 7f3b 2d3d
000003c0: a119 9abd 4967 2e3d f7b8 3b3e 6434 e53d
000003d0: 7d7d ccbd f79a f2bd 9cff 973d 22e0 a5bd
000003e0: 2acb 073d dbd2 033e 4b28 c8bd 87bd e2bd
000003f0: 0783 e9bc 2396 09be a64a f43d 01b1 d7bd

GAT_layers.0.GAT_heads.0.f.bias f4 [32]
0.068099156 0.026806632 -0.03133142 -0.06991758 -0.096523724 -0.088229656 -0.08473213 -0.01773789
-0.060476948 -0.0048202695 0.056316935 -0.06227286 0.011623666 0.024322266 -0.06380319 -0.04295012
-0.018817041 -0.046185452 -0.06544316 -0.009051689 -0.05284185 -0.013886646 -0.07861975 0.039501622
-0.059413273 -0.062354375 -0.051265523 -0.006187441 0.025519801 -0.09055951 0.058587484 -0.047900032
00000000: 9277 8b3d 9599 db3c 6055 00bd f330 8fbd
00000010: 3bae c5bd c0b1 b4bd 0a88 adbd 0d4f 91bc
00000020: adb6 77bd 5af3 9dbb 96ac 663d d411 7fbd
00000030: 3071 3e3c 7d3f c73c 3fab 82bd 77ec 2fbd
00000040: 3226 9abc f52c 3dbd 1007 86bd 894d 14bc
00000050: b270 58bd d184 63bc 6403 a1bd 74cc 213d
00000060: 555b 73bd 4d67 7fbd ccfb 51bd 04c0 cabb
00000070: e70e d13c 4477 b9bd 6ef9 6f3d d332 44bd

GAT_layers.0.GAT_heads.0.w.weight f4 [1, 124]
-0.20094502 0.1255553 0.11875927 -0.0342854 -0.07700751 -0.16807704 0.051346097 0.058437247
-0.1099078 0.18138185 -0.19973439 0.10161203 0.14437583 0.20272852 -0.025056237 -0.0077110995
-0.024586549 0.028305164 0.019221038 -0.20753676 -0.16459489 -0.21687232 -0.21837595 0.045073867
-0.20130491 0.037945498 -0.18122153 0.051549315 0.19283688 0.05667971 -0.067620955 0.0828361
0.13771923 0.038848877 -0.18620282 -0.022339081 -0.049017902 0.12109108 0.1170474 0.18962632
-0.14245325 -0.024742937 0.108252116 -0.09835456 0.17719606 -0.0807379 0.18653038 -0.20895709
0.051018145 -0.11740161 -0.0097422255 -0.15703268 0.20822158 0.10681116 0.016384104 0.03891767
-0.18446365 -0.022865573 -0.18793775 -0.16899341 -0.020029193 0.063528806 -0.16522844 0.1999999
-0.08134916 -0.11972147 -0.10922429 -0.027184667 0.1621001 -0.18063347 -0.034605328 -0.06303726
0.025404971 -0.17674698 0.04033159 0.097418465 -0.076185934 0.12486706 -0.1740226 -0.031648576
0.124019556 0.15924527 -0.18356052 0.07977216 0.047249548 0.17156781 -0.04853814 -0.21795848
0.21330208 0.20225118 0.047380794 0.1293061 -0.14461453 -0.21095785 0.08259173 0.03688704
0.14582735 -0.0939774 -0.07716423 0.18801497 -0.20336471 -0.007975536 -0.17478944 -0.006125246
-0.03891079 0.015493 0.10158112 -0.2039061 0.051989205 -0.052433908 0.10151499 -0.11009251
0.06832217 -0.08633835 -0.2035134 -0.17254162 -0.12280645 -0.044571422 0.06073795 -0.0629282
0.15905723 -0.1842344 -0.20312098 0.11906473
00000000: 88c4 4dbe 9291 003e 0f38 f33d d96e 0cbd
00000010: 1db6 9dbd 631c 2cbe 4950 523d e55b 6f3d
00000020: 5717 e1bd 2abc 393e 2c87 4cbe f819 d03d
00000030: 42d7 133e 1198 4f3e bd42 cdbc 64ad fcbb
00000040: bb69 c9bc 3be0 e73c 7075 9d3c 8484 54be
00000050: 908b 28be c713 5ebe f29d 5fbe 609f 383d
00000060: e022 4ebe bd6c 1b3d 2392 39be 6025 533d
00000070: 0877 453e fc28 683d db7c 8abd f9a5 a93d
00000080: 4506 0d3e 0020 1f3d f4ab 3ebe 7300 b7bc
00000090: ffc6 48bd 9afe f73d 8cb6 ef3d 672d 423e
000000a0: 44df 11be b3b1 cabc 49b3 dd3d 1e6e c9bd
000000b0: e272 353e ea59 a5bd d201 3f3e d9f8 55be
000000c0: 67f8 503d 4170 f0bd db9d 1fbc 2dcd 20be
000000d0: 0a38 553e cfbf da3d f537 863c 2268 1f3d
000000e0: 0ae4 3cbe 9550 bbbc c172 40be 9c0c 2dbe
000000f0: 4314 a4bc 641b 823d a531 29be c6cc 4c3e
00000100: 639a a6bd 8830 f5bd fcb0 dfbd 61b2 debc
00000110: 92fd 253e fbf7 38be 51be 0dbd ae19 81bd
00000120: 161e d03c 29fd 34be bd32 253d 5583 c73d
00000130: 5f07 9cbd 4dba ff3d fb32 32be f0a1 01bd
00000140: f7fd fd3d 3111 233e 4af7 3bbe 965f a33d
00000150: be88 413d 79af 2f3e eecf 46bd 8230 5fbe
00000160: dc6b 5a3e ef1a 4f3e 5d12 423d d168 043e
00000170: d515 14be 5605 58be da25 a93d dd16 173d
00000180: c453 153e 3977 c0bd 4808 9ebd ff86 403e
00000190: d73e 50be d3ab 02bc 01fc 32be 4ab6 c8bb
000001a0: ec60 1fbd 5ad6 7d3c c309 d03d c3cc 50be
000001b0: a2f2 543d f0c4 56bd 17e7 cf3d 2f78 e1bd
000001c0: 7eec 8b3d 29d2 b0bd d165 50be c0ae 30be
000001d0: f381 fbbd 8690 36bd 5bc8 783d 80e0 80bd
000001e0: e6df 223e f1a7 3cbe f2fe 4fbe 36d8 f33d

GAT_layers.0.GAT_heads.1.f.weight f4 [32, 124]
0.02038401 0.12853779 0.077022165 0.00612047 -0.16145785 0.07670748 -0.014348077 -0.03801717
0.047402613 0.044713996 0.13088837 0.0002574247 0.11743947 -0.11591912 0.10362813 0.119311236
0.053107593 -0.15000378 0.0043205544 0.04575244 0.044445094 -0.13821 0.07838765 0.07086276
0.0866085 -0.16893989 -0.16199341 -0.0849345 0.10029468 0.030539133 -0.0095874155 0.027972016
0.058518935 0.1087412 -0.07053231 -0.034626506 -0.021154273 0.13258216 0.0065174666 -0.12914887
0.16942137 -0.03416709 -0.1469403 -0.051586095 -0.054463334 -0.01936261 -0.09461279 0.16650416
-0.050942525 -0.07778843 -0.16198456 0.17004746 0.041772794 -0.104862675 0.14511797 0.120659
0.18724428 -0.17188756 -0.15257789 -0.09650592 0.037498623 -0.0009981607 -0.075730056 -0.047850434
0.04438545 0.091661654 0.08548798 0.056930367 -0.1842155 0.06829364 0.14896424 0.073091775
0.04958863 -0.08364285 -0.15349537 -0.11941665 -0.10918886 -0.09492682 0.15890788 0.17985462
0.038552918 -0.118427396 0.18902874 0.11729322 0.0068845847 0.0009165918 -0.15113305 0.18746726
0.080850706 -0.0990361 0.18215689 -0.14030929 0.18749286 -0.07090027 0.08643124 -0.1832362
-0.017892523 0.061982818 -0.193515 -0.12639207 0.080878526 0.12264261 0.17128646 0.1007948
-0.15113655 0.0409972 0.16377683 0.18503731 0.15784933 -0.1182474 -0.09096272 0.10012205
0.14253742 0.066533424 -0.07577661 -0.016731482 -0.05391634 -0.0012632302 0.18448316 0.067415245
0.18517421 0.16558751 -0.033094585 0.084004566 0.0986878 -0.007914144 -0.09761618 -0.0762176
-0.15441372 -0.0009550968 0.12935758 0.10993671 -0.09510602 -0.19439855 0.0708479 -0.03342107
0.1050246 -0.16068107 -0.16920337 -0.06908658 0.043173328 -0.0573798 -0.16462338 -0.08850988
0.019034067 0.04723861 0.039721113 0.034545828 -0.18935728 0.122359395 -0.053173076 -0.17151658
0.09237069 -0.12984395 -0.123468086 -0.11701739 -0.19059771 0.069876134 -0.11890493 0.020404138
-0.07967859 -0.16252343 -0.14687428 -0.17572565 0.06940096 0.009706624 0.089300744 0.07112271
-0.17363878 -0.09642021 0.0047125714 0.0142468 0.015481928 0.11528927 -0.06741324 -0.007861938
-0.015989905 -0.09434289 0.06736527 -0.008999648 -0.04152818 0.114500284 -0.051155575 -0.15678576
-0.0012684905 0.07684712 0.12322579 0.18510471 -0.07645088 -0.07796001 0.15781103 -0.13290595
-0.1941512 -0.10192697 0.037801754 -0.19087668 0.13795221 0.05174837 -0.14836018 -0.13027143
0.15739977 0.021274533 0.1944275 0.07298435 -0.0026665 -0.1636828 -0.15957132 -0.14474882
-0.14163753 -0.034875117 -0.16582042 0.08379703 -0.12238093 0.18694448 0.12757942 -0.13215226
0.056558713 0.1405973 0.049350515 -0.15709515 -0.10033386 -0.14552586 -0.13530506 0.1104876
0.014913659 -0.17419943 -0.18460627 0.0916095 0.12236907 0.18280911 -0.04347209 0.058583017
0.14420907 -0.1353685 -0.1508868 -0.13506006 0.0666791 -0.03194292 0.1285756 0.020232445
0.00075857405 0.020259306 -0.16110995 0.13349557 -0.03980406 0.13236545 0.18650602 -0.15603754
0.060219865 -0.14010383 -0.023120692 0.030662457 0.025956057 -0.13927864 0.1304248 -0.03792421
00000000: 5efc a63c 699f 033e ccbd 9d3d 398e c83b
00000010: 3555 25be d018 9d3d 3214 6bbc e4b7 1bbd
00000020: 3e29 423d 0626 373d 9a07 063e f5f6 8639
00000030: 1b84 f03d 0167 edbd fc3a d43d 7359 f43d
00000040: 5987 593d 979a 19be 7093 8d3b e966 3b3d
00000050: 0f0c 363d ec86 0dbe b489 a03d 7f20 913d
00000060: cc5f b13d 94fe 2cbe 9ae1 25be 24f2 adbd
00000070: 4c67 cd3d 342d fa3c 8914 1dbc 9225 e53c
00000080: 8db1 6f3d b5b3 de3d 3e73 90bd 86d4 0dbd
00000090: ba4b adbc 9ec3 073e 7990 d53b 9a3f 04be
000000a0: cc7c 2d3e caf2 0bbd 8577 16be f14b 53bd
000000b0: f214 5fbd 569e 9ebc 5ac4 c1bd 1180 2a3e
000000c0: 1ca9 50bd 8a4f 9fbd 48df 25be ec20 2e3e
000000d0: f319 2b3d 3ec2 d6bd ce99 143e 111c f73d
000000e0: f7bc 3f3e 4b03 30be 613d 1cbe e5a4 c5bd
000000f0: 2898 193d b7d4 82ba 5c18 9bbd d1fe 43bd
00000100: 85cd 353d 1bb9 bb3d 5214 af3d d12f 693d
00000110: fda2 3cbe 89dd 8b3d 158a 183e 24b1 953d
00000120: 731d 4b3d f14c abbd e42d 1dbe b790 f4bd
00000130: 699e dfbd fe68 c2bd bfb8 223e cf2b 383e
00000140: aae9 1d3d 108a f2bd c090 413e 6d37 f03d
00000150: 1598 e13b 6f47 703a 9fc2 1abe 6bf7 3f3e
00000160: 0e95 a53d 70d3 cabd 5687 3a3e 3dad 0fbe
00000170: 21fe 3f3e 2934 91bd dd02 b13d 45a2 3bbe
00000180: 5793 92bc b2e1 7d3d cc28 46be ec6c 01be
00000190: a4a3 a53d 0c2c fb3d b865 2f3e 816d ce3d
000001a0: 8ac3 1abe aeec 273d 1db5 273e 6c7a 3d3e
000001b0: 41a3 213e b12b f2bd aa4a babd ca0c cd3d
000001c0: 54f5 113e ad42 883d c430 9bbd 7610 89bc
000001d0: 61d7 5cbd f992 a5ba 27e9 3c3e 0111 8a3d
000001e0: 4f9e 3d3e c68f 293e 308e 07bd 960a ac3d
000001f0: d41c ca3d 53aa 01bc feea c7bd f917 9cbd
00000200: a11e 1ebe 765f 7aba 5076 043e 7f26 e13d
00000210: f2c6 c2bd 6a10 47be b418 913d 88e4 08bd
00000220: 2317 d73d 9489 24be a643 2dbe 447d 8dbd
00000230: 84d6 303d 1507 6bbd 0893 28be ab44 b5bd
00000240: 55ed 9b3c 467d 413d 9bb2 223d ed7f 0d3d
00000250: e0e6 41be 9097 fa3d 03cc 59bd 0ba2 2fbe
00000260: d82c bd3d d0f5 04be d6dc fcbd d0a6 efbd
00000270: 0c2c 43be 381b 8f3d 6e84 f3bd 9426 a73c
00000280: 872e a3bd 8b6c 26be 3666 16be 6df1 33be
00000290: 1722 8e3d 8808 1f3c 4fe3 b63d c9a8 913d
000002a0: 5dce 31be f677 c5bd ea6b 9a3b 696b 693c
000002b0: eaa7 7d3c c81c ec3d f40f 8abd 5ccf 00bc
000002c0: 43fd 82bc d836 c1bd cdf6 893d 4273 13bc
000002d0: 7419 2abd 207f ea3d 8288 51bd 728c 20be
000002e0: 7a43 a6ba 0662 9d3d ce5d fc3d 178c 3d3e
000002f0: 4792 9cbd 7fa9 9fbd 3799 213e 7f18 08be
00000300: 92cf 46be 16bf d0bd 03d6 1a3d 2d75 43be
00000310: 5843 0d3e 19f6 533d bbeb 17be e065 05be
00000320: 682d 213e ee47 ae3c 0118 473e d278 953d
00000330: 72c0 2ebb 779c 27be aa66 23be 0939 14be
00000340: 6e09 11be 36d9 0ebd d4cc 29be c79d ab3d
00000350: daa2 fabd 606e 3f3e 2ea4 023e ec52 07be
00000360: 1caa 673d bdf8 0f3e c423 4a3d 8ddd 20be
00000370: d77b cdbd bb04 15be 698d 0abe 5347 e23d
00000380: 6b58 743c 5661 32be 6d09 3dbe c39d bb3d
00000390: a39c fa3d 5032 3b3e ca0f 32bd bff4 6f3d
000003a0: 8bab 133e 0a9e 0abe 1282 1abe 2f4d 0abe
000003b0: 0d8f 883d 94d6 02bd 52a9 033e 83be a53c
000003c0: 0bdb 463a d8f6 a53c 02fa 24be 10b3 083e
000003d0: 9509 23bd cf8a 073e 6ffb 3e3e 4ec8 1fbe
000003e0: 1ba9 763d 6177 0fbe 9b67 bdbc d52f fb3c
000003f0: cca1 d43c 0f9f 0ebe 148e 053e 6b56 1bbd

GAT_layers.0.GAT_heads.1.f.bias f4 [32]
0.010931096 -0.017765751 -0.06824975 -0.023143308 0.019507399 0.05930972 0.009282489 0.0768458
-0.0012503696 -0.07212548 -0.00706406 -0.014404595 -0.07483094 0.047127537 -0.07968175 0.059948433
-0.04424841 -0.018063102 0.04251643 0.015896423 -0.0066495608 -0.017392116 0.039505634 0.01592811
-0.065707095 -0.02866105 -0.030469595 0.042369723 -0.0012237133 -0.040106084 -0.0070773344 -0.08111344
00000000: 5718 333c 7b89 91bc 86c6 8bbd 0997 bdbc
00000010: fbcd 9f3c c0ee 723d 9515 183c 5561 9d3d
00000020: 71e3 a3ba 86b6 93bd a179 e7bb 4001 6cbc
00000030: f740 99bd ce08 413d 2f30 a3bd 7d8c 753d
00000040: d23d 35bd 12f9 93bc b525 2e3d 3739 823c
00000050: 8fe4 d9bb e979 8ebc a9d0 213d ab7b 823c
00000060: 7191 86bd 94ca eabc 5f9b f9bc e08b 2d3d
00000070: 0165 a0ba 4746 24bd fce8 e7bb ce1e a6bd

GAT_layers.0.GAT_heads.1.w.weight f4 [1, 124]
-0.19354391 -0.09576839 -0.03648017 -0.07110994 0.101699874 0.0053816303 0.13330133 -0.07302352
0.05393524 0.14506736 0.19572297 -0.032698337 0.018498491 -0.072520964 0.029569259 0.15804453
-0.1518234 -0.11527674 0.21364348 -0.07363393 -0.08383742 0.1339118 -0.15792271 0.21609204
0.14997838 -0.14574629 -0.1452499 -0.13618788 0.1010028 0.010478267 0.0538308 0.1399657
-0.07993111 0.12785576 -0.20445637 -0.13562436 -0.012079684 0.03171789 -0.102204904 0.13137895
-0.023915954 -0.16978897 0.14305995 0.007689159 0.027804816 0.06166167 -0.20902978 -0.027682064
0.18569721 0.016716627 -0.106974214 0.15489045 0.20635872 0.07518912 0.007946912 -0.023830576
0.15065864 0.04627539 -0.022726826 0.16756381 -0.09232703 -0.045860328 -0.20763676 -0.10383722
-0.11276939 0.060808465 -0.19478957 -0.002670535 0.10307065 -0.094185755 0.19804297 0.12158188
0.08339648 -0.21124096 0.20600976 0.052169807 0.12149319 -0.035820913 -0.09030762 -0.06934435
-0.16479516 0.16742235 0.012478706 -0.21793126 0.17375365 -0.123506896 0.007741002 -0.1399666
0.20245431 -0.15480807 -0.16013671 0.15397389 -0.15500133 0.07728764 -0.19117312 -0.20904276
0.15176623 -0.09459535 0.17751916 0.01697028 -0.027305033 0.08600039 -0.07191366 0.19481565
0.11895321 0.20220317 0.094181366 0.09707794 0.16954777 -0.15346669 -0.020988293 0.11687468
0.035537068 0.17665327 0.1405428 0.16732953 -0.08883946 -0.10747 0.17510155 -0.20412265
0.05141619 0.10660739 -0.1571528 -0.10362533
00000000: 6030 46be 3822 c4bd 3b6c 15bd 17a2 91bd
00000010: 0648 d03d 6358 b03b 2580 083e 5b8d 95bd
00000020: 33eb 5c3d 8a8c 143e 9a6b 483e b1ee 05bd
00000030: 268a 973c df85 94bd 3b3b f23c 6dd6 213e
00000040: 9877 1bbe 3616 ecbd 5bc5 5a3e 63cd 96bd
00000050: f4b2 abbd 2d20 093e 7eb6 21be 3b47 5d3e
00000060: ef93 193e 843e 15be 64bc 14be d674 0bbe
00000070: 8eda ce3d 0aad 2b3c af7d 5c3d 2b53 0f3e
00000080: ecb2 a3bd 9fec 023e 035d 51be 1de1 0abe
00000090: dee9 45bc 9eea 013d ce50 d1bd 3488 063e
000000a0: 64eb c3bc 29dd 2dbe 4f7e 123e 57f5 fb3b
000000b0: edc6 e33c f390 7c3d e70b 56be 7fc5 e2bc
000000c0: 6927 3e3e 4ff1 883c 4c15 dbbd 9a9b 1e3e
000000d0: b34f 533e c1fc 993d c433 023c 5738 c3bc
000000e0: 4246 1a3e 438b 3d3d 9c2d babc d995 2b3e
000000f0: f415 bdbd 0ad8 3bbd bb9e 54be 9ca8 d4bd
00000100: a3f3 e6bd 4c12 793d eb76 47be 2404 2fbb
00000110: b416 d33d 76e4 c0bd c7cb 4a3e ecff f83d
00000120: c6cb aa3d 8d4f 58be 39f4 523e 02b0 553d
00000130: 6cd1 f83d f3b8 12bd 34f3 b8bd 6904 8ebd
00000140: 10c0 28be c470 2b3e 7d73 4c3c 5f29 5fbe
00000150: 7aec 313e 2ff1 fcbd 3ba8 fd3b 6853 0fbe
00000160: 2f50 4f3e 0286 1ebe e1fa 23be 55ab 1d3e
00000170: abb8 1ebe fb48 9e3d e3c2 43be 4e0f 56be
00000180: 9b68 1b3e 35bb c1bd 95c7 353e 4205 8b3c
00000190: ceae dfbc f920 b03d 7847 93bd c17d 473e
000001a0: be9d f33d 590e 4f3e 29e2 c03d cdd0 c63d
000001b0: ee9d 2d3e 5f26 1dbe a4ef abbc fe5b ef3d
000001c0: 518f 113d 98e4 343e 74ea 0f3e 6f58 2b3e
000001d0: 76f1 b5bd 3b19 dcbd d24d 333e 8705 51be
000001e0: c899 523d fa54 da3d aaec 20be 8439 d4bd

GAT_layers.1.GAT_heads.0.f.weight f4 [64, 128]
-0.032310456 0.10000086 0.021647649 0.10087404 0.12158264 -0.01724793 0.04282413 0.14997354
0.016518742 0.13867743 0.09146677 0.15216988 0.0015902427 -0.068764955 -0.1316664 0.010850576
0.08964369 0.044797245 0.08102074 0.018529877 -0.04753591 -0.006857643 -0.106978014 -0.17525007
0.0161037 0.04949624 -0.07969542 -0.13714415 -0.0642174 0.08383831 0.12400625 -0.168619
0.1253523 -0.10771289 -0.06568079 -0.06342352 -0.06741776 0.041648988 0.16740443 -0.1740091
0.1752314 0.15983722 0.14638287 -0.05085818 0.0022719891 -0.15011108 -0.16034842 0.0054064924
-0.11482038 -0.07945069 -0.036096353 -0.02634296 0.06791745 -0.0666612 -0.15485778 0.08859683
0.10233878 -0.12212169 0.15448509 -0.0024987601 0.13405184 0.11642247 0.03984502 -0.077622734
-0.029572567 -0.061357677 -0.066080086 0.04381698 0.167432 -0.00047246617 -0.1096682 -0.117724515
0.07796016 0.10169607 -0.10210447 -0.16573583 0.018259848 0.17416632 -0.064702995 -0.06649972
0.13816255 0.12900594 -0.0769189 -0.013248672 -0.09556981 -0.049445964 -0.08252237 0.06503792
-0.06827311 0.079568826 0.03601408 -0.02522217 -0.17670055 -0.17044216 0.050388686 -0.11153242
-0.14303209 -0.06588524 -0.01569359 -0.034447167 0.13960901 0.17008922 -0.0007901902 -0.09390229
0.16645664 -0.08716059 0.16567005 0.12422507 0.14893687 0.14872496 -0.14971751 0.09933422
-0.16959305 -0.021436919 -0.015150211 0.07701154 0.12209206 0.16562423 -0.08470197 -0.08981527
-0.15599386 0.10265636 0.076877914 0.035734143 -0.001967457 -0.048709787 0.06558045 -0.0047056745
-0.10044796 0.043469522 0.034118228 -0.0020533102 0.11072357 0.075829916 0.026244491 -0.11909747
0.056009263 -0.14037699 -0.08085266 0.042161413 -0.042921107 0.10102388 -0.053510964 0.13526852
0.049591094 0.15608138 0.043566268 -0.01936842 -0.025731599 0.045147203 -0.15054199 0.14368312
-0.08031208 0.07912267 -0.11887379 0.016600033 -0.042743396 0.13490723 -0.15189052 0.12583642
-0.12795419 -0.080896385 0.08893929 0.031239497 0.113781504 0.13922842 0.0019939463 -0.009227567
0.16167788 -0.10874923 0.014124736 -0.17458405 -0.16912413 0.12620473 -0.046326425 0.10500122
-0.024698116 0.03883577 0.016972914 0.14914982 0.03235759 -0.17477167 -0.074545406 -0.11593871
-0.024861624 0.0100268405 -0.09449319 -0.0025550895 0.1392777 0.15206328 0.03232031 -0.06697663
-0.00813255 -0.15153296 -0.09355045 0.1644142 0.16301039 0.06299595 0.08512017 0.065829836
-0.14543238 0.010392822 -0.071480066 -0.003357987 0.027276028 -0.0015727096 -0.1662194 -0.01378419
0.05335247 0.044256233 -0.13555975 -0.03361371 -0.14052016 0.07560984 -0.04750776 0.10551992
0.03295407 0.04806705 0.10603131 0.084792376 -0.09273744 -0.030938905 -0.14539766 -0.0221849
0.014082357 -0.07886893 -0.03569351 0.12823667 -0.0015757864 -0.14761859 0.008611064 -0.06396026
-0.05839669 -0.1263884 -0.06017807 0.019360745 0.025925117 -0.060902383 -0.10415527 -0.10267884
0.028558915 0.13654424 -0.032080304 -0.1514361 -0.11359774 0.17536916 0.022537079 -0.09061553
0.14912191 0.028583718 -0.010469319 -0.15363063 -0.07833299 0.01942938 -0.106867164 0.10033143
00000000: f857 04bd 40cd cc3d 6956 b13c 0c97 ce3d
00000010: 5200 f93d 884b 8dbc 5b68 2f3d aa92 193e
00000020: 5052 873c 7501 0e3e ee52 bb3d 6cd2 1b3e
00000030: b16f d03a a4d4 8cbd 8fd3 06be 9dc6 313c
00000040: 1c97 b73d 517d 373d 34ee a53d f8cb 973c
00000050: 04b5 42bd 14b6 e0bb 4a17 dbbd c174 33be
00000060: e8eb 833c 92bc 4a3d 5a37 a3bd 846f 0cbe
00000070: 6a84 83bd 6bb3 ab3d fdf6 fd3d 76aa 2cbe
00000080: 5a5c 003e 9398 dcbd a683 86bd 31e4 81bd
00000090: 5312 8abd 2198 2a3d 116c 2b3e 712f 32be
000000a0: dc6f 333e 5eac 233e 64e5 153e ab50 50bd
000000b0: a7e5 143b b8b6 19be 6032 24be f228 b13b
000000c0: f326 ebbd 0bb7 a2bd c5d9 13bd 31cd d7bc
000000d0: 4e18 8b3d ab85 88bd 0a93 1ebe 4172 b53d
000000e0: ff96 d13d f01a fabd 5731 1e3e 3dc2 23bb
000000f0: e344 093e e76e ee3d 8834 233d abf8 9ebd
00000100: 2b42 f2bc 3052 7bbd ff54 87bd 6f79 333d
00000110: 4b73 2b3e 56b5 f7b9 b999 e0bd 8d19 f1bd
00000120: 94a9 9f3d 0746 d03d 261c d1bd a7b6 29be
00000130: ad95 953c a858 323e 0183 84bd 0131 88bd
00000140: 7c7a 0d3e 221a 043e a887 9dbd f510 59bc
00000150: 1bba c3bd da87 4abd 7d01 a9bd 9a32 853d
00000160: c6d2 8bbd fbf4 a23d 8083 133d b99e cebc
00000170: fdf0 34be 6488 2ebe 5e64 4e3d 1c6b e4bd
00000180: 0177 12be d7ee 86bd d88f 80bc 7918 0dbd
00000190: aaf5 0e3e de2b 2e3e c424 4fba d84f c0bd
000001a0: 9c73 2a3e 4081 b2bd 69a5 293e b769 fe3d
000001b0: e882 183e 5b4b 183e 8c4f 19be bd6f cb3d
000001c0: cda9 2dbe 7a9c afbc 9738 78bc 3ab8 9d3d
000001d0: 670b fa3d 6699 293e 3a78 adbd 11f1 b7bd
000001e0: dbbc 1fbe 7f3d d23d 2b72 9d3d f75d 123d
000001f0: 73f0 00bb ea83 47bd 0b4f 863d 0f32 9abb
00000200: a9b7 cdbd 190d 323d 8ebf 0b3d d490 06bb
00000210: 0ac3 e23d b74c 9b3d b0fe d63c 60e9 f3bd
00000220: f869 653d fcbe 0fbe 1496 a5bd 72b1 2c3d
00000230: 0bce 2fbd 9ce5 ce3d 502e 5bbd d583 0a3e
00000240: 0820 4b3d ccd3 1f3e 8b72 323d 85aa 9ebc
00000250: 13cb d2bc 46ec 383d ae27 1abe ab21 133e
00000260: a97a a4bd 110b a23d 1a74 f3bd cbfc 873c
00000270: b313 2fbd 1f25 0a3e 3089 1bbe 43db 003e
00000280: 6c06 03be 01ad a5bd cd25 b63d f9e9 ff3c
00000290: 4706 e93d e591 0e3e deac 023b 392f 17bc
000002a0: e38e 253e ebb7 debd 706b 673c 29c6 32be
000002b0: e02e 2dbe d03b 013e c7c0 3dbd e10a d73d
000002c0: b453 cabc 4212 1f3d c80a 8b3c bbba 183e
000002d0: 6489 043d 58f7 32be 43ab 98bd 4671 edbd
000002e0: 9baa cbbc 9e47 243c a585 c1bd 4a73 27bb
000002f0: d09e 0e3e 7ab6 1b3e 4d62 043d 0b2b 89bd
00000300: 633e 05bc 752b 1bbe 6197 bfbd 325c 283e
00000310: 32ec 263e 0504 813d 7c53 ae3d cbd1 863d
00000320: 3aec 14be a846 2a3c 2464 92bd ac11 5cbb
00000330: fa71 df3c 6123 ceba 6b35 2abe 15d7 61bc
00000340: 1f88 5a3d 0646 353d 2dd0 0abe 88ae 09bd
00000350: 84e4 0fbe 55d9 9a3d 7f97 42bd d41a d83d
00000360: d9fa 063d f4e1 443d f226 d93d a0a7 ad3d
00000370: 20ed bdbd 9673 fdbc 20e3 14be 1bbd b5bc
00000380: b0b9 663c 0986 a1bd 5c33 12bd 7950 033e
00000390: 9e8a ceba 5429 17be 6c15 0d3c 99fd 82bd
000003a0: 5e31 6fbd f66b 01be 487d 76bd 6d9a 9e3c
000003b0: e960 d43c c774 79bd 5c4f d5bd 4949 d2bd
000003c0: 63f4 e93c 41d2 0b3e a366 03bd 1112 1bbe
000003d0: efa5 e8bd f993 333e ae9f b83c a394 b9bd
000003e0: 6ab3 183e 6728 ea3c 8287 2bbc 5951 1dbe
000003f0: 0c6d a0bd 5d2a 9f3c 2cdd dabd 917a cd3d

GAT_layers.1.GAT_heads.0.f.bias f4 [64]
0.040624335 -0.011822984 -0.009332009 -0.06585435 -0.03528945 -0.06768179 0.0093651395 -0.054384902
0.004167417 -0.02144535 -0.02614349 0.0600566 0.06984562 -0.03323909 -0.058235552 0.06243634
-0.027332827 0.0013537672 -0.01743337 -0.04674432 -0.033538796 -0.010164155 0.07139891 -0.08158466
-0.08469822 0.07638588 -0.08269469 0.04774084 0.0303259 -0.0826257 0.04849392 -0.06873354
0.04714221 0.04309786 0.040210716 0.068817414 -0.032589573 -0.020667823 -0.02046809 -0.08704566
0.06385105 -0.06009249 0.025649982 -0.04836315 0.014873655 0.0075245085 -0.054217808 -0.014505032
-0.072525255 -0.09629723 -0.036761966 0.044296317 -0.015599781 -0.12394516 -0.013015024 0.009138433
0.008225937 0.06801269 -0.045845192 0.04022569 0.06296561 0.032813817 -0.04234968 0.04813554
00000000: b465 263d 30b5 41bc 48e5 18bc a5de 86bd
00000010: ac8b 10bd c09c 8abd 3e70 193c b4c2 5ebd
00000020: d48e 883b 29ae afbc df2a d6bc e9fd 753d
00000030: 380b 8f3d b625 08bd 6788 6ebd 3fbd 7f3d
00000040: 18e9 dfbc e470 b13a 6dd0 8ebc f976 3fbd
00000050: fa5f 09bd 8e87 26bc 9739 923d dc15 a7bd
00000060: 4376 adbd 3370 9c3d d55b a9bd e68b 433d
00000070: 066e f83c aa37 a9bd 90a1 463d 2cc4 8cbd
00000080: 3118 413d 6287 303d feb3 243d 25f0 8c3d
00000090: a57c 05bd 914f a9bc b2ac a7bc ff44 b2bd
000000a0: 57c4 823d 8b23 76bd e91f d23c 7018 46bd
000000b0: a1b0 733c 2790 f63b 7e13 5ebd 84a6 6dbc
000000c0: 1f88 94bd 7b37 c5bd b793 16bd 0e70 353d
000000d0: 3996 7fbc f6d6 fdbd f83c 55bc 5eb9 153c
000000e0: 15c6 063c 3d4a 8b3d 2bc8 3bbd b1c3 243d
000000f0: 1df4 803d c867 063d dc76 2dbd c629 453d

GAT_layers.1.GAT_heads.0.w.weight f4 [1, 128]
0.03890059 -0.03390563 0.16420381 -0.16474994 0.20328403 0.1838629 -0.21429874 -0.14952068
0.01361401 -0.20694831 0.004293485 0.011819291 -0.15222651 0.15153563 -0.005549194 -0.14294761
-0.13529645 0.11443145 0.10422372 0.077451214 0.19366771 0.20032075 0.006918228 -0.16951007
0.076122776 0.12304025 0.19377121 0.13807403 -0.118036784 -0.20392425 0.058630288 0.18846756
-0.12927338 0.00014510349 0.21475269 0.20123346 0.038004983 -0.009829707 -0.04493758 0.16633466
-0.10777457 0.047467664 0.16708022 -0.1598477 0.08698407 0.2079628 -0.1035389 0.10710268
-0.044571325 -0.012648146 -0.055536874 -0.10238448 0.099215284 -0.040196933 0.08259271 -0.023398915
0.0064178733 0.08946291 0.18078698 0.16665944 0.055546694 0.10604194 -0.035153303 -0.04089476
0.18131696 0.12946932 -0.061711997 0.18824795 -0.044272583 -0.1193947 -0.039931383 -0.060135398
-0.13992687 -0.13597442 -0.12909265 0.019993868 -0.14273839 -0.0005463491 0.06639418 -0.07217814
-0.07944586 0.08913049 0.023511857 -0.13545153 0.040841363 -0.00036874902 -0.003191917 -0.07009736
-0.086727776 -0.084525384 0.08520172 -0.15564808 -0.16568123 -0.04147708 -0.10062902 -0.07747136
0.008050544 0.21119073 -0.11473303 -0.12170777 0.07046816 -0.08017804 0.17315225 -0.06037313
0.06212278 0.091356255 -0.042135853 0.054026168 -0.10090519 0.042005535 -0.16138095 0.103704624
0.13873713 0.09682154 0.108107224 0.018179046 -0.016863525 0.03133248 0.091562055 -0.09527752
-0.1059291 0.115121394 0.09006726 -0.15753995 -0.2011271 0.12256726 -0.13501687 0.08618901
00000000: 3a56 1f3d a1e0 0abd 0b25 283e 35b4 28be
00000010: b029 503e 8e46 3c3e 2171 5bbe f31b 19be
00000020: 4c0d 5f3c 42ea 53be 5db0 8c3b b3a5 413c
00000030: 44e1 1bbe 282c 1b3e 03d6 b5bb dc60 12be
00000040: 278b 0abe 095b ea3d 3f73 d53d be9e 9e3d
00000050: d450 463e e220 4d3e 4eb2 e23b 0c94 2dbe
00000060: 42e6 9b3d 87fc fb3d f66b 463e 4763 0d3e
00000070: 45bd f1bd 85d1 50be 5026 703d a4fd 403e
00000080: 3e60 04be ec26 1839 21e8 5b3e 2510 4e3e
00000090: 1dab 1b3d c80c 21bc 7810 38bd a253 2a3e
000000a0: eab8 dcbd 746d 423d 1417 2b3e 1eaf 23be
000000b0: b424 b23d 33f4 543e 340c d4bd a658 db3d
000000c0: 6c90 36bd 2b3a 4fbc a27a 63bd f4ae d1bd
000000d0: 6231 cb3d 8aa5 24bd 5e26 a93d 15af bfbc
000000e0: 064d d23b 5538 b73d 3920 393e c6a8 2a3e
000000f0: ee84 633d 842c d93d e9fc 0fbd 4481 27bd
00000100: 27ab 393e 9b93 043e b8c5 7cbd 12c4 403e
00000110: 2b57 35bd 3585 f4bd 178f 23bd 8950 76bd
00000120: fd48 0fbe e13c 0bbe dd30 04be 2eca a33c
00000130: 032a 12be de38 0fba acf9 873d 22d2 93bd
00000140: 83b4 a2bd 0c8a b63d f09b c03c ceb3 0abe
00000150: 4649 273d a854 c1b9 7b2f 51bb 348f 8fbd
00000160: 559e b1bd a51b adbd 3d7e ae3d 3662 1fbe
00000170: 57a8 29be dfe3 29bd 9616 cebd 4ea9 9ebd
00000180: 6ee6 033c 6242 583e 27f9 eabd ec41 f9bd
00000190: 9c51 903d 6234 a4bd d34e 313e d149 77bd
000001a0: 7574 7e3d fd18 bb3d a596 2cbd 8b4a 5d3d
000001b0: 61a7 cebd ff0d 2c3d 0c41 25be 1763 d43d
000001c0: 1b11 0e3e 5f4a c63d 5267 dd3d 39ec 943c
000001d0: 6025 8abc 7d56 003d e384 bb3d dc20 c3bd
000001e0: 5bf1 d8bd c4c4 eb3d 2f75 b83d 2752 21be
000001f0: 43f4 4dbe 8b04 fb3d dd41 0abe dd83 b03d

GAT_layers.1.GAT_heads.1.f.weight f4 [64, 128]
-0.16089936 -0.09943765 0.060149997 -0.021610038 0.019690784 -0.062431417 -0.14489837 0.0072414074
0.013363737 -0.14691219 0.056029726 0.10707003 -0.14706734 -0.11988344 -0.11435386 0.030711584
0.11520045 -0.08387112 -0.117444254 0.070108674 0.04570139 0.08842641 0.11577575 -0.03792399
0.13671318 0.08194506 0.02840077 0.12693758 0.079772815 0.122978754 0.0009255507 0.083131686
-0.17299 0.11707787 -0.034079056 -0.0323975 -0.03883752 -0.17479585 -0.11629529 -0.14131162
0.00080795505 -0.040674385 0.007406782 -0.17176186 0.14458288 -0.17157082 -0.061304275 0.10971541
0.15271184 0.07240436 -0.03858835 0.11083475 0.014466779 0.10085026 -0.026515678 -0.106202066
0.13422406 0.12921831 -0.0891495 0.15299453 0.008913025 -0.09038596 0.15993999 -0.13325122
0.090205505 0.042633876 -0.16575363 0.13955344 0.12776783 0.020821638 0.058076713 0.15290335
-0.026159178 -0.011724916 -0.12668978 -0.04193818 0.14994772 0.10141918 -0.021383097 0.11154037
-0.119291194 0.111668155 0.15554124 -0.030161612 -0.16400275 0.14069739 -0.13459754 -0.08039747
-0.1587189 0.10896526 0.02754092 -0.0472125 0.14499068 -0.058572717 0.15250355 -0.09926721
0.0104662 0.047866534 -0.11120469 -0.060503505 -0.124107756 0.03782787 -0.06426943 0.05803642
-0.0007276864 0.03055796 0.07585048 -0.013771461 -0.14909732 0.1647924 -0.16953428 0.16889349
-0.01685853 -0.0825124 0.017561201 0.14646283 -0.01014089 -0.12752895 -0.1653732 -0.1385072
-0.023288283 -0.13086458 -0.032119103 -0.1522297 0.014056711 -0.14090243 -0.14868559 0.019805478
-0.14320485 0.11830243 0.006856892 -0.07515116 0.06812893 0.15604687 -0.004253165 -0.03536308
-0.088930435 0.08061232 0.118861385 -0.12696658 0.150202 -0.13819563 -0.11947847 0.0062865606
0.09492724 -0.08970554 -0.07155932 -0.12968194 0.12064095 -0.049554642 -0.008916398 -0.067784734
0.11486605 0.121467724 0.061052997 -0.0779436 0.04073221 0.039609335 -0.15582119 0.019636428
-0.04737826 -0.06160942 0.14342612 0.11937945 -0.12823538 -0.12072284 0.16505684 -0.1030655
0.0111485785 0.07754042 -0.008711901 0.005421665 -0.033588763 0.12814192 -0.019309368 -0.16615593
-0.07816413 -0.05329513 0.057891794 -0.103527196 0.15928419 0.11226188 -0.14426444 -0.11452698
0.12394414 -0.117067255 0.04198391 0.08139313 0.1719895 -0.16158861 -0.16604812 0.03293106
-0.019694252 -0.15186921 0.099638686 -0.100126415 0.15410158 -0.0040484997 -0.028102655 0.09765142
0.017986167 -0.064121895 0.05202099 0.056425147 0.11059447 -0.09858472 0.021711022 0.032803968
0.15919659 0.051038146 -0.024929103 -0.09688391 -0.14781044 -0.144664 -0.028962133 0.117805056
0.06370073 -0.0700367 -0.05427911 -0.16637 0.00013588143 -0.052227553 -0.12511458 -0.16447602
0.14349449 -0.06034965 0.03658062 -0.12509364 -0.07641748 0.13825616 0.13848603 -0.068961576
-0.14498453 0.1069758 0.1739039 -0.12534808 -0.11162152 0.12513293 0.1387198 0.05044341
0.17135823 0.10759199 0.08152557 -0.065130554 -0.11031301 -0.047039486 0.11965336 -0.10975932
-0.014328389 -0.16604735 0.12810436 0.11869842 -0.04442676 -0.15159918 0.032712717 0.09509231
00000000: cdc2 24be f7a5 cbbd d85f 763d 8907 b1bc
00000010: 914e a13c 16b8 7fbd 3d60 14be 5449 ed3b
00000020: 93f3 5a3c 2670 16be 6d7f 653d 8847 db3d
00000030: d298 16be 7385 f5bd 5b32 eabd dc96 fb3c
00000040: 37ee eb3d 9fc4 abbd 9d86 f0bd 2395 8f3d
00000050: 6131 3b3d e818 b53d d61b ed3d 3056 1bbd
00000060: 8afe 0b3e d0d2 a73d bba8 e83c edfb 013e
00000070: ee5f a33d 49dc fb3d a8a0 723a f240 aa3d
00000080: 4a24 31be 86c6 ef3d 7b96 0bbd 3eb3 04bd
00000090: 1714 1fbd affd 32be 3a2c eebd feb3 10be
000000a0: f2cc 533a 2f9a 26bd 97b4 f23b 57e2 2fbe
000000b0: 890d 143e 43b0 2fbe 311a 7bbd 79b2 e03d
000000c0: 7e60 1c3e bd48 943d d10e 1ebd 54fd e23d
000000d0: 1206 6d3c 958a ce3d 6837 d9bc 7880 d9bd
000000e0: 0872 093e ce51 043e 0394 b6bd 99aa 1c3e
000000f0: f007 123c 461c b9bd 4fc7 233e 0273 08be
00000100: aabd b83d dca0 2e3d 52bb 29be 19e7 0e3e
00000110: 92d5 023e 2492 aa3c d9e1 6d3d b292 1c3e
00000120: c64b d6bc dd19 40bc f7ba 01be 5ec7 2bbd
00000130: e58b 193e dcb4 cf3d 9b2b afbc 476f e43d
00000140: f14e f4bd 46b2 e43d 3446 1f3e 7c15 f7bc
00000150: 56f0 27be fa12 103e f0d3 09be 6ea7 a4bd
00000160: 3587 22be 2e29 df3d 7f9d e13c e561 41bd
00000170: 7078 143e f2e9 6fbd e429 1c3e 9b4c cbbd
00000180: 6d7a 2b3c b30f 443d 49bf e3bd 86d2 77bd
00000190: 352c febd 66f1 1a3d b19f 83bd 99b7 6d3d
000001a0: 35c2 3eba b054 fa3c 7f57 9b3d b2a1 61bc
000001b0: f8ac 18be 57bf 283e 659a 2dbe 6af2 2c3e
000001c0: e61a 8abc 43fc a8bd 82dc 8f3c 5afa 153e
000001d0: fa25 26bc f396 02be 9857 29be d5d4 0dbe
000001e0: 12c7 bebc 5d01 06be 528f 03bd 1ae2 1bbe
000001f0: 1f4e 663c ba48 10be 0941 18be 193f a23c
00000200: 4ba4 12be 8b48 f23d c7af e03b dae8 99bd
00000210: 2e87 8b3d c0ca 1f3e 225e 8bbb e1d8 10bd
00000220: 2921 b6bd 1218 a53d 996d f33d 8703 02be
00000230: 8ece 193e 2883 0dbe 21b1 f4bd 7eff cd3b
00000240: 3669 c23d 8ab7 b7bd b18d 92bd 58cb 04be
00000250: 9a12 f73d cff9 4abd 1516 12bc b9d2 8abd
00000260: e43e eb3d 12c4 f83d b512 7a3d e5a0 9fbd
00000270: d1d6 263d 663d 223d 978f 1fbe 93dc a03c
00000280: b50f 42bd 295a 7cbd 4cde 123e 377d f43d
00000290: 2350 03be 893d f7bd a904 293e 0114 d3bd
000002a0: 87a8 363c 83cd 9e3d 5cbc 0ebc 39a8 b13b
000002b0: 5f94 09bd a337 033e ae2e 9ebc c824 2abe
000002c0: 8414 a0bd ff4b 5abd f21f 6d3d 1106 d4bd
000002d0: 651b 233e 8ee9 e53d 0fba 13be 1f8d eabd
000002e0: 6dd6 fd3d f5c0 efbd 52f7 2b3d 71b1 a63d
000002f0: 041e 303e 7c77 25be 8508 2abe b8e2 063d
00000300: d755 a1bc 9a83 1bbe 5e0f cc3d 140f cdbd
00000310: cecc 1d3e 47a9 84bb 8a37 e6bc 78fd c73d
00000320: ba57 933c 5752 83bd f613 553d 0e1e 673d
00000330: 5a7f e23d c9e6 c9bd 50db b13c 745d 063d
00000340: 6e04 233e 600d 513d 1e38 ccbc 126b c6bd
00000350: 9f5b 17be cd22 14be ff41 edbc c743 f13d
00000360: 8775 823d 676f 8fbd c653 5ebd e65c 2abe
00000370: 657b 0e39 8fec 55bd 091e 00be 676c 28be
00000380: 38f0 123e 3231 77bd 8fd5 153d 8c18 00be
00000390: c580 9cbd 0693 0d3e 48cf 0d3e ba3b 8dbd
000003a0: d376 14be 2116 db3d dd13 323e 3f5b 00be
000003b0: d399 e4bd d922 003e 900c 0e3e c09d 4e3d
000003c0: 8878 2f3e 3059 dc3d e1f6 a63d 2b63 85bd
000003d0: caeb e1bd 7aac 40bd d20c f53d 7fc9 e0bd
000003e0: 9fc1 6abc 5108 2abe ca2d 033e 2818 f33d
000003f0: d6f8 35bd d13c 1bbe c5fd 053d c2bf c23d

GAT_layers.1.GAT_heads.1.f.bias f4 [64]
-0.0071878224 -0.07500419 -0.033986617 -0.026263207 -0.062363025 -0.02937609 0.0104136625 0.0012011982
0.038495783 0.017450865 -0.06627586 -0.04315776 0.008907926 -0.06466344 -0.014126865 -0.004287936
0.039305966 -0.037847236 -0.040443767 -0.07132349 0.07744874 0.06756793 -0.050580252 -0.005966824
-0.06390167 -0.023636092 -0.038204588 -0.0074813324 0.003876762 0.022563728 0.0005567914 -0.007225592
-0.0315458 -0.090827174 -0.0023640587 0.08997419 0.008464983 -0.0067259152 0.061378885 0.06320726
0.051377945 -0.011105073 0.034270514 -0.06742561 0.039018244 0.015458221 -0.054213583 0.026381535
-0.021997273 -0.0012663206 0.03990277 -0.012864156 -0.02772528 -0.07213677 -0.016382616 -0.0145748
-0.10779913 -0.01122989 0.018639602 -0.0739202 0.04953011 0.03043543 -0.0038066506 0.0028615813
00000000: d387 ebbb cc9b 99bd 8d35 0bbd f025 d7bc
00000010: 5f70 7fbd 20a6 f0bc 119e 2a3c 8671 9d3a
00000020: c1ad 1d3d 1ef5 8e3c a3bb 87bd 31c6 30bd
00000030: 8df2 113c 446e 84bd 5e74 67bc d081 8cbb
00000040: 4bff 203d b405 1bbd 5da8 25bd 0d12 92bd
00000050: 729d 9e3d 0e61 8a3d 3d2d 4fbd 5985 c3bb
00000060: e1de 82bd 7aa0 c1bc 6a7c 1cbd f725 f5bb
00000070: 4611 7e3b 91d7 b83c a3f5 113a a9c4 ecbb
00000080: 2b36 01bd 9903 babd 53ee 1abb 6344 b83d
00000090: b6b0 0a3c 1165 dcbb 6d68 7b3d cf72 813d
000000a0: ae71 523d 0df2 35bc 3d5f 0c3d 7016 8abd
000000b0: 98d1 1f3d 7a44 7d3c 100f 5ebd 171e d83c
000000c0: a033 b4bc abfa a5ba 1671 233d 2ec4 52bc
000000d0: 2020 e3bc 71bc 93bd d634 86bc 24cb 6ebc
000000e0: cac5 dcbd 93fd 37bc 14b2 983c 7963 97bd
000000f0: 16e0 4a3d b953 f93c 0079 79bb 5e89 3b3b

GAT_layers.1.GAT_heads.1.w.weight f4 [1, 128]
-0.14900364 0.17032516 -0.085673176 -0.15831155 0.005338241 -0.17812404 0.08599816 0.014043956
-0.16841215 -0.19807826 -0.16456957 0.13410485 -0.19554892 -0.013468502 0.06104766 0.016530754
0.00021969224 0.048660763 -0.059076123 0.13714895 -0.09654167 0.109938465 0.052948404 0.0072661787
-0.07781054 0.03174812 0.10009681 0.120694675 0.11586062 -0.05237602 0.13966182 0.16896966
-0.03090869 0.04761503 -0.20052095 0.0693226 0.17297627 -0.14375605 0.08607854 0.12206238
0.14669454 0.11700031 -0.10134742 -0.007743061 -0.078062676 -0.04654421 -0.14068632 -0.12306064
-0.21248089 0.027684817 0.063040294 0.062634446 0.06551726 0.12015778 0.18673144 0.044092696
-0.21129033 -0.20766424 0.08892268 0.03896129 0.18582082 -0.024181303 0.026320577 -0.1410371
-0.10443192 -0.057899535 0.16888173 0.17187959 -0.13256727 -0.05803001 0.05178529 -0.12920228
-0.19239369 -0.01989481 -0.18547788 -0.10702602 0.18478355 -0.112388164 -0.099476494 0.11178888
-0.18725625 0.025022177 0.06185093 0.040538356 -0.02192104 0.1792765 0.16196926 -0.13196199
0.03283437 -0.20233965 0.10978131 0.053533368 -0.005677059 0.058242396 0.013384307 0.01332407
0.1727268 -0.09367002 -0.1925169 0.13231942 0.11221997 0.21421893 -0.091904655 -0.1369703
-0.07780828 -0.033385657 -0.18483186 0.07477658 0.024827918 -0.00084845955 -0.13008603 0.19161095
0.018324021 0.0936015 0.1942152 0.09241481 0.19136865 0.18657418 0.05580772 0.15952438
-0.12754858 0.10347054 -0.1648512 0.050608188 0.11632614 0.030543411 0.09163959 -0.06952221
00000000: 6994 18be b869 2e3e 6b75 afbd 6c1c 22be
00000010: 69ec ae3b 2666 36be ce1f b03d 9f18 663c
00000020: 3c74 2cbe 07d5 4abe ed84 28be c852 093e
00000030: fa3d 48be feaa 5cbc 1c0d 7a3d 816b 873c
00000040: 305d 6639 8250 473d cef9 71bd c670 0c3e
00000050: a4b7 c5bd 6b27 e13d 6de0 583d 2019 ee3b
00000060: 225b 9fbd 510a 023d 8eff cc3d c52e f73d
00000070: 5548 ed3d 3d88 56bd 8203 0f3e 6206 2d3e
00000080: 3934 fdbc fa07 433d 5d55 4dbe 02f9 8d3d
00000090: b120 313e c934 13be f249 b03d d7fb f93d
000000a0: 1837 163e dc9d ef3d 3c8f cfbd 81b9 fdbb
000000b0: 53df 9fbd 24a5 3ebd 1310 10be 3807 fcbd
000000c0: 9794 59be 45cb e23c 451b 813d 7d46 803d
000000d0: ea2d 863d 4815 f63d 8736 3f3e 8b9a 343d
000000e0: 7e5c 58be efa5 54be 181d b63d e095 1f3d
000000f0: d047 3e3e de17 c6bc 409e d73c 086c 10be
00000100: 67e0 d5bd 1028 6dbd 55ef 2c3e 3401 303e
00000110: b7bf 07be e0b0 6dbd d01c 543d 9a4d 04be
00000120: da02 45be 71fa a2bc eaed 3dbe 7530 dbbd
00000130: e637 3d3e c42b e6bd 55ba cbbd 91f1 e43d
00000140: 1ac0 3fbe 4ffb cc3c 6757 7d3d 8c0b 263d
00000150: c193 b3bc 4294 373e 45db 253e 0b21 07be
00000160: 557d 063d 2032 4fbe 06d5 e03d ce45 5b3d
00000170: 9f06 babb 948f 6e3d da49 5b3c 334d 5a3c
00000180: 4bdf 303e 11d6 bfbd 2623 45be be7e 073e
00000190: 95d3 e53d 355c 5b3e 8238 bcbd f141 0cbe
000001a0: f359 9fbd 66bf 08bd 9044 3dbe 7724 993d
000001b0: eb63 cb3c 286b 5eba 4635 05be a935 443e
000001c0: 421c 963c 25b2 bf3d 59e0 463e fa43 bd3d
000001d0: 25f6 433e 4d0d 3f3e a396 643d 5c5a 233e
000001e0: 189c 02be 5de8 d33d c1ce 28be 884a 4f3d
000001f0: 663c ee3d 2d36 fa3c 8aad bb3d a961 8ebd

GAT_layers.1.GAT_heads.2.f.weight f4 [64, 128]
0.06675051 -0.13310468 0.13877846 0.06877668 -0.0048279846 0.16088748 0.14620033 0.10672488
-0.17222485 -0.042868678 -0.16596548 0.15956487 -0.1416528 0.14093992 -0.054728083 0.017054047
0.014266708 0.12918472 0.05268044 0.048334025 0.047779016 0.16374649 0.024446288 -0.12970307
-0.10155057 -0.13861287 -0.15734354 -0.11574016 0.10672985 -0.100563325 -0.1658681 0.040477708
-0.112614945 0.12266969 0.027152875 -0.1460144 -0.08337974 -0.071007974 0.004226507 -0.058398377
0.10778264 0.092796125 0.038605753 -0.15187173 -0.16682519 -0.087938026 -0.07549659 -0.16685629
-0.062182512 -0.06473231 -0.08856578 -0.110223725 -0.02429399 0.056747485 0.14417244 0.13270284
0.093428686 -0.009880823 0.12788667 -0.11375407 0.14287792 -0.08427275 0.16355728 0.027603867
0.16698866 0.17285573 0.13922893 0.11973823 -0.0014921249 0.07056708 -0.09944462 0.03649367
0.12335301 0.03563282 0.14413773 -0.1708979 -0.17193604 -0.098757334 -0.141333 -0.025391158
0.11414673 0.10584549 0.0033716215 0.116545916 -0.13350941 0.022278339 0.06985661 -0.052084904
0.12111628 -0.016235704 0.104589574 -0.0035059645 -0.030472824 -0.10664004 -0.17003433 -0.06172389
0.07156303 0.074811816 0.107776426 0.17068341 0.1676886 -0.079964116 -0.1348333 -0.11732153
0.09369923 0.13010241 0.14212132 0.004145227 0.13350505 0.12990704 -0.06635574 -0.17383556
0.06416788 0.06465748 -0.06447901 0.07733034 0.029286748 -0.05619612 0.07486427 -0.06041074
-0.04395267 -0.04197371 -0.062294263 0.098503 0.13096227 -0.07600992 -0.17036559 -0.06292944
0.16661371 0.15321675 0.12765846 0.06532028 0.09903367 -0.06170246 -0.08006582 -0.029469728
-0.105824515 -0.054789133 0.17454445 -0.13130735 -0.15399235 0.1424079 -0.118594505 -0.1330302
-0.014205257 -0.0069997697 -0.13349277 -0.11849247 0.05899343 -0.0127172 -0.04390827 0.1703056
-0.008471053 0.058157634 -0.15635502 -0.16746959 -0.053114176 0.026911415 -0.047203016 -0.03756304
0.029264895 0.16154371 -0.13569066 0.067952625 0.1750418 0.16253422 -0.16721909 -0.09252999
0.14442995 -0.06638677 -0.08661963 0.023059616 -0.06741787 0.07970384 0.053965963 0.12698327
0.06669385 0.09039156 -0.042890046 0.1402497 -0.025962163 0.07592255 0.083227046 -0.14904782
-0.011823561 -0.06868971 -0.04216025 0.009320755 0.13959354 0.05454034 -0.04580037 -0.06166162
-0.114020646 -0.03199856 -0.14342079 0.018146768 -0.16013615 0.06876606 -0.04939737 0.15985109
-0.075098515 0.08102021 -0.0561262 -0.08481651 -0.06743079 0.16856413 -0.1605769 -0.1464749
-0.17280431 0.11842425 0.17075738 -0.13890444 -0.14006224 -0.10843931 -0.051641077 -0.16144985
0.113631524 -0.08626983 -0.14605404 -0.14471713 0.059373885 -0.088215694 0.025110481 -0.14106664
0.16843313 0.004057203 0.0032752736 0.069934584 0.08782586 0.1525003 0.1438814 0.1447607
0.007854465 0.11361351 -0.03583774 -0.066300556 -0.0005446637 -0.08946012 0.04432618 0.13213784
-0.06619321 -0.09666055 -0.03543079 0.17483121 -0.05730966 0.07872422 0.12131477 0.082966425
0.09306106 0.037014857 -0.15263264 0.1348701 -0.09281219 -0.016635023 0.046343725 -0.020950839
00000000: 7eb4 883d 984c 08be f11b 0e3e cada 8c3d
00000010: 1234 9ebb b0bf 243e 8ab5 153e 9392 da3d
00000020: b65b 30be 1197 2fbd dbf2 29be f964 233e
00000030: 6e0d 11be 8e52 103e 8e2a 60bd eeb4 8b3c
00000040: e9be 693c 0049 043e 72c7 573d e6f9 453d
00000050: eeb3 433d 29ad 273e 9543 c83c e2d0 04be
00000060: bff9 cfbd 88f0 0dbe aa1e 21be 2d09 edbd
00000070: 2e95 da3d 25f4 cdbd 54d9 29be f4cb 253d
00000080: aaa2 e6bd 3f3a fb3d b56f de3c cd84 15be
00000090: ffc2 aabd a16c 91bd 837e 8a3b 2333 6fbd
000000a0: 25bd dc3d e50b be3d 1121 1e3d 4384 1bbe
000000b0: 39d4 2abe da18 b4bd f59d 9abd 60dc 2abe
000000c0: 17b3 7ebd 6092 84bd fa61 b5bd fabc e1bd
000000d0: 3104 c7bc 0d70 683d f1a1 133e 41e3 073e
000000e0: 8a57 bf3d 2de3 21bc b9f4 023e e5f7 e8bd
000000f0: 974e 123e 3197 acbd 8f7b 273e 8121 e23c
00000100: 13ff 2a3e 1801 313e 0792 0e3e 5139 f53d
00000110: 6793 c3ba 7985 903d 9fa9 cbbd 637a 153d
00000120: 81a0 fc3d b8f3 113d d798 133e dcff 2ebe
00000130: 0010 30be 4941 cabd 99b9 10be 1e01 d0bc
00000140: c3c5 e93d 85c5 d83d 6cf6 5c3b a0af ee3d
00000150: b1b6 08be 1081 b63c fb10 8f3d fb56 55bd
00000160: d00b f83d bd00 85bc 0f33 d63d 53c4 65bb
00000170: 25a2 f9bc 1866 dabd 7b1d 2ebe 31d2 7cbd
00000180: a38f 923d f036 993d e3b9 dc3d a2c7 2e3e
00000190: 8fb6 2b3e 3ac4 a3bd be11 0abe 4546 f0bd
000001a0: 62e5 bf3d 9139 053e 4088 113e afd4 873b
000001b0: 8cb5 083e 5a06 053e 85e5 87bd f301 32be
000001c0: 736a 833d 246b 843d 920d 84bd 5f5f 9e3d
000001d0: c3ea ef3c e72d 66bd 7052 993d 4171 77bd
000001e0: b707 34bd a0ec 2bbd 4528 7fbd f1bb c93d
000001f0: f91a 063e 17ab 9bbd 5174 2ebe 26e1 80bd
00000200: c99c 2a3e dae4 1c3e e6b8 023e a4c6 853d
00000210: 2ad2 ca3d b8bb 7cbd 8cf9 a3bd 806a f1bc
00000220: 86ba d8bd 926a 60bd c8bb 323e 6f75 06be
00000230: 2cb0 1dbe 60d3 113e ade1 f2bd 1239 08be
00000240: 2bbd 68bc 535e e5bb 54b2 08be 2eac f2bd
00000250: 18a3 713d ce5b 50bc 28d9 33bd 9764 2e3e
00000260: 2cca 0abc b336 6e3d 881b 20be 267d 2bbe
00000270: 408e 59bd 5475 dc3c f357 41bd b4db 19bd
00000280: efbc ef3c b76b 253e 7ef2 0abe bf2a 8b3d
00000290: 283e 333e 5f6f 263e 7b3b 2bbe 5d80 bdbd
000002a0: 72e5 133e c9f5 87bd a265 b1bd 85e7 bc3c
000002b0: 6112 8abd c43b a33d 6a0b 5d3d e707 023e
000002c0: c996 883d 361f b93d 79ad 2fbd 9e9d 0f3e
000002d0: 9aae d4bc 487d 9b3d f172 aa3d fe9f 18be
000002e0: 9cb7 41bc 31ad 8cbd 3ab0 2cbd 14b6 183c
000002f0: 9cf1 0e3e b165 5f3d 2b99 3bbd e590 7cbd
00000300: a883 e9bd ec10 03bd e6dc 12be 88a8 943c
00000310: bbfa 23be 38d5 8c3d e654 4abd 01b0 233e
00000320: 40cd 99bd eded a53d 96e4 65bd 47b4 adbd
00000330: 2719 8abd 139c 2c3e 456e 24be 84fd 15be
00000340: 9df3 30be 6a88 f23d 06db 2e3e f73c 0ebe
00000350: 7a6c 0fbe 6e15 debd 9885 53bd 1c53 25be
00000360: a5b7 e83d 3dae b0bd 318f 15be ba30 14be
00000370: 0832 733d 6eaa b4bd 7fb4 cd3c c673 10be
00000380: bc79 2c3e 49f2 843b f9a5 563b dd39 8f3d
00000390: 0bde b33d 0a29 1c3e a555 133e 263c 143e
000003a0: 04b0 003c 33ae e83d 98ca 12bd 96c8 87bd
000003b0: c3c7 0eba de36 b7bd 5e8f 353d 244f 073e
000003c0: 4e90 87bd f7f5 c5bd e01f 11bd f406 333e
000003d0: 89bd 6abd 2a3a a13d e173 f83d 4dea a93d
000003e0: cc96 be3d e49c 173d bb4b 1cbe 631b 0a3e
000003f0: 5114 bebd 2c46 88bc ebd2 3d3d 18a1 abbc

GAT_layers.1.GAT_heads.2.f.bias f4 [64]
-0.076045424 -0.027125154 -0.020253822 0.05700656 -0.032170154 0.0013586457 -0.07281378 0.024018256
-0.038240995 0.071463406 0.08433037 -0.026199387 0.015059823 0.049025215 -0.021649348 -0.03215207
0.023696871 -0.0049769212 -0.013373311 -0.0064385915 0.00094268314 -0.06946408 -0.066727 -0.019702567
-0.06746743 -0.007921634 -0.039255157 0.0007558769 -0.05198707 -0.01883038 0.041419227 0.026433576
0.022543464 -0.004227845 -0.059271008 -0.01476755 0.004554458 -0.038264196 0.08306619 -0.05978805
0.010881188 -0.048423655 0.08184824 -0.026588647 -0.010849104 -0.014265854 -0.021321638 0.07186458
0.05078564 -0.069048904 -0.066047 0.029874803 -0.0037873676 0.035073984 -0.011844932 0.060349416
0.055448044 -0.0024943242 0.08607595 0.069733866 -0.0010007055 0.03639333 -0.000106083615 -0.029087145
00000000: b4bd 9bbd 9235 debc 58eb a5bc b67f 693d
00000010: dac4 03bd 9614 b23a 641f 95bd efc1 c43c
00000020: 97a2 1cbd 685b 923d 67b5 ac3d 19a0 d6bc
00000030: 7abd 763c aace 483d f959 b1bc e4b1 03bd
00000040: f11f c23c 7115 a3bb bb1b 5bbc d2fa d2bb
00000050: 651e 773a 2f43 8ebd 2aa8 88bd 4767 a1bc
00000060: 5d2c 8abd bec9 01bc 04ca 20bd 0a26 463a
00000070: 65f0 54bd 2b42 9abc 35a7 293d 3a8b d83c
00000080: 12ad b83c bc89 8abb 28c6 72bd 98f3 71bc
00000090: 903d 953b ebba 1cbd 9b1e aa3d 50e4 74bd
000000a0: 0347 323c e257 46bd 0da0 a73d 6fd0 d9bc
000000b0: 71c0 31bc 54bb 69bc b7aa aebc bd2d 933d
000000c0: 9a04 503d 8369 8dbd a643 87bd 01bc f43c
000000d0: 7c35 78bb bda9 0f3d 3f11 42bc f330 773d
000000e0: 7d1d 633d d177 23bb 9648 b03d a1d0 8e3d
000000f0: 1b2a 83ba 2c11 153d 3579 deb8 2a48 eebc
