SLIC_GAT/hh_n_0/last1.pt (torch, 580781 bytes, 30 tensors)

GAT_layers.0.GAT_heads.0.f.weight f4 [32, 124]
000000 0f 10 4c 3d f6 0c 3b bd a3 e6 47 3d 70 23 2e bd
       0.049820002 -0.045666657 0.048803937 -0.042514265
000010 8a 0a 85 bc d4 b7 b4 3d 39 dc 36 bd 5c 79 62 3c
       -0.016240377 0.08824125 -0.044643614 0.01382288
000020 8b 6f d7 3d 31 82 06 3e f7 65 af ba 07 1b 9e bd
       0.10519322 0.13135602 -0.0013381828 -0.07719999
000030 9a f1 04 3e fb 2e 1a bd 8c 38 b8 3b e7 84 8e bd
       0.12982789 -0.03764246 0.0056219753 -0.06958943
000040 68 3a 21 3d a1 0b 26 3e d9 21 f7 3d cb 87 4e be
       0.03936234 0.16215374 0.12067003 -0.20168988
000050 18 51 30 3e 78 6f 75 3d 1e f6 31 3e 3e 68 0d 3e
       0.17218435 0.059920758 0.17379043 0.13809296
000060 bd 70 0b be 38 31 39 3c 2a 2b 8a bd c5 47 16 3e
       -0.13617225 0.011303239 -0.06746514 0.14675815
000070 6a df b8 3a 16 d1 2b be c5 bd 01 be 36 b9 2e 3e
       0.0014104669 -0.16778979 -0.12670048 0.1706284
000080 58 58 ce bd 51 91 6a 3c 7b 41 39 be 21 89 11 bd
       -0.10075444 0.014316873 -0.18091385 -0.035531167
000090 c6 61 12 bd 4f 69 e8 3d cc 88 a7 3d c0 4b 58 3d
       -0.035737775 0.11348211 0.08180389 0.052806616
0000a0 cc f4 19 3e 51 d1 9c 3d 85 a1 03 be 3c 4a 48 be
       0.15034789 0.076571114 -0.12854584 -0.19559568
0000b0 fa 07 25 be 3b 11 f7 bd 6f 76 33 be 96 ed 65 bd
       -0.16116324 -0.12063833 -0.17525648 -0.056134783
0000c0 b7 a3 03 be 48 68 ff 3d 32 ca 58 bd 74 de e4 bd
       -0.12855421 0.12471062 -0.052927203 -0.11175242
0000d0 d1 86 00 be 8a 21 14 3e 80 69 48 be 13 bc 94 3d
       -0.12551428 0.14465919 -0.19571495 0.07262435
0000e0 97 92 9b bc 9b 04 3a 3e c5 89 1a be df 22 22 bd
       -0.018990798 0.1816582 -0.15091617 -0.039584037
0000f0 8f fa 06 3d 9e 65 4d 3c 2d 21 fa bd 81 49 dd bc
       0.032953795 0.012536434 -0.12213359 -0.027012588
000100 a8 d9 42 be ab 21 eb bd 15 73 00 3c d0 18 63 bd
       -0.19028342 -0.11481031 0.007839938 -0.055443585
000110 a4 ff d2 bd 26 16 36 be b0 2a ec bd e2 c7 e4 3d
       -0.10302666 -0.17781886 -0.115315795 0.11170937
000120 de ae 68 3d 50 66 47 3d 4a 6f a5 bd cb 50 6c 3c
       0.05680739 0.048681557 -0.08077867 0.014423559
000130 b0 7a b1 3d d2 fb c2 3c c5 e0 f1 bd cd 68 dc bc
       0.08665979 0.023801718 -0.118104495 -0.026905442
000140 4a 2a 4b 3d 86 7f 06 be 5b 42 a6 bd 25 88 30 be
       0.049600877 -0.13134584 -0.08118125 -0.17239435
000150 6f 73 9c 3d 15 a1 57 be 31 d6 18 3d b3 23 4d bd
       0.07639205 -0.21057542 0.037313644 -0.050082874
000160 e8 46 f3 3c 7d 1a 22 3e b8 21 0a be b8 9d 10 be
       0.029696897 0.15830417 -0.13489425 -0.14122665
000170 64 6e 10 be 79 98 ab bd 5c b0 f8 3c 56 1d b4 bd
       -0.1410461 -0.08378691 0.030357532 -0.08794658
000180 b3 70 a5 bb 41 b4 2d 3e be a0 ee bd d4 f7 92 3d
       -0.005048835 0.16963293 -0.11651753 0.07176176
000190 28 66 5e 3d e7 ee d5 bd c8 87 19 be a1 0a 13 3c
       0.054296643 -0.10445958 -0.14993203 0.008974702
0001a0 f9 27 b0 bc fd f7 04 be 48 a7 3f 3e 38 62 d6 bc
       -0.021503435 -0.12985225 0.18716156 -0.026169881
0001b0 cf 97 2f be 18 a6 5a bd 48 64 14 be 05 f8 d8 3d
       -0.17147754 -0.053381056 -0.1449138 0.10594181
0001c0 a0 20 35 3e 15 63 92 3d 6a 3b 00 be a8 8a 38 be
       0.17688227 0.07147805 -0.12522665 -0.18021643
0001d0 20 0a 36 3e 6f 7c 30 bb 33 7e 23 be 45 71 08 be
       0.177773 -0.0026929637 -0.1596611 -0.13324459
0001e0 ae 8b 4f bd 55 73 00 3d 66 b1 d1 bd b2 83 eb 3d
       -0.05067032 0.03135999 -0.10238914 0.11499728
0001f0 00 11 0c be 74 b3 6a bd bd 10 34 be a9 34 04 bd
       -0.1367836 -0.057300046 -0.1758451 -0.032276783
000200 5f 32 aa bd ee 99 79 3d fd fc 0e 3d 50 83 89 3d
       -0.08310389 0.060937814 0.034909237 0.06714499
000210 06 8e ed b8 10 8c 2b be d4 1a 8c bd 21 c5 3d be
       -0.000113274946 -0.16752648 -0.068410546 -0.1853223
000220 57 d0 fd bc 75 4e 25 3e 08 2b 79 3b bd ad 1f be
       -0.030983133 0.1614321 0.0038020033 -0.1559362
000230 81 3f 16 3d 00 be c3 bd 19 f3 11 bd bc 23 2b bd
       0.036681656 -0.09557724 -0.035632227 -0.041782126
000240 20 31 4a 3d 90 12 3f bd c5 f8 19 bd 40 93 91 bd
       0.049363256 -0.046648562 -0.03759076 -0.07108164
000250 a8 d7 30 be 46 ea d4 3d 9f a1 67 bc 19 ad a3 bd
       -0.17269766 0.103962466 -0.014137655 -0.07992
000260 21 be 2c 3e 81 5a 2d 3e 03 8d ec 3d 2c 36 b9 bd
       0.16869403 0.16929056 0.11550333 -0.090435356
000270 3d 48 2e bd fd 4d fc 3d 84 23 10 3e 97 95 1a be
       -0.04254936 0.123195626 0.14076048 -0.15096126
000280 7e 42 3a be 42 d7 d5 bd 3d 0a 1e be 79 03 c1 bd
       -0.18189427 -0.10441448 -0.15433593 -0.094244905
000290 8d 69 57 3d a2 0d 0b be d9 16 32 3e be 2b 3c be
       0.052590895 -0.1357942 0.17391528 -0.18376061
0002a0 f4 c0 32 bd b5 83 42 be 43 1d 1e be 18 75 3e 3e
       -0.043641046 -0.18995555 -0.1544085 0.18599355
0002b0 d8 6b c5 3b 17 0e 2b 3e cb 4f c0 3d f0 ce 25 be
       0.006024819 0.16704594 0.09390219 -0.16192222
0002c0 b6 b3 02 3e ec da 70 3c 3b ae 54 be a1 0f b0 3d
       0.12763867 0.014700633 -0.20769589 0.08596731
0002d0 28 82 fb bd 7f a2 0b 3e 41 6a ab 3d 05 06 70 3d
       -0.12280685 0.13636206 0.08369876 0.05859949
0002e0 8d 4d 3f be 55 31 21 3e b4 d4 8e bd 59 8a 3b be
       -0.18681927 0.15741475 -0.06974164 -0.18314494
0002f0 bb 52 d7 3d 71 f0 bd 3c c2 48 a8 bd ef 1a ad 3b
       0.105138265 0.02318594 -0.082170025 0.0052827518
000300 67 37 93 bc c9 70 b2 bd 2e 79 09 3e 9f 7f 04 be
       -0.017970754 -0.08712918 0.13425133 -0.12939309
000310 68 1c 1e 3e ed b3 10 bb b0 fe 2f be b5 be 2a be
       0.15440524 -0.00220799 -0.17187 -0.16674311
000320 9d 08 45 be 6d 1a ed 3d 16 a9 48 be 7c cf fb 3d
       -0.19241567 0.11577306 -0.19595751 0.12295434
000330 a4 3f 2f 3e 43 9d f4 3d 12 11 1d be ad a2 05 3e
       0.1711412 0.11944058 -0.15338543 0.13050337
000340 e3 a2 fd bd 99 0b 56 be d4 cd ba 3d 08 6b 2a 3e
       -0.12384584 -0.20902862 0.0912129 0.16642392
000350 2e 83 8e 3c 9b c8 2d 3c 18 ac 0b be c6 6e c6 3d
       0.017396536 0.01060691 -0.13639867 0.09689097
000360 17 f4 12 3d fe d9 14 3d 3d b3 84 3d 42 0c 8f 3d
       0.035877313 0.036340706 0.064794995 0.0698476
000370 9f d7 18 3e 32 a5 12 be 44 c1 a2 ba d8 9f 19 be
       0.14926003 -0.1432083 -0.0012417217 -0.15002382
000380 34 7b a7 bd a5 07 e1 bd 14 54 de bd a6 13 0a be
       -0.08177796 -0.10987786 -0.108558804 -0.13484058
000390 bd 11 07 3e 8a 03 da bd 73 cc 2e be 23 c2 a0 bd
       0.1319036 -0.10645206 -0.17070179 -0.07849529
0003a0 68 86 03 be 5c 9a 78 3d 5f 70 0d 3e 2d f6 92 3c
       -0.1284424 0.060694084 0.13812397 0.017939651
0003b0 cf 32 78 3d 30 21 f4 3d 73 f1 60 bd 50 4f 12 be
       0.06059533 0.119203925 -0.054917764 -0.14288068
0003c0 d4 4e 54 bd 6d a2 15 3e af 5a cb bd 39 83 1c 3e
       -0.05183299 0.14612742 -0.09929406 0.15284432
0003d0 a1 f3 c7 bd 92 6f 8f 3d b3 39 ce 3b f3 82 a7 3d
       -0.097632654 0.07003702 0.0062934994 0.081792735
0003e0 fc 5a 3a 3e 30 c4 9e bd f7 76 4e bc 41 84 86 bd
       0.1819877 -0.077522635 -0.012601606 -0.06568194
0003f0 15 f3 14 3d 81 0e 93 3c e1 bb ee 3d c3 19 1e 3c
       0.036364634 0.017951252 0.11656929 0.009649697

GAT_layers.0.GAT_heads.0.f.bias f4 [32]
000000 20 89 85 bb 88 50 6c bd 9a 13 ac bd a6 99 83 bd
       -0.0040751845 -0.057693988 -0.08402176 -0.064257905
000010 03 84 37 bd 6e 42 d6 ba a6 69 12 3d 7a d0 ce bd
       -0.04480363 -0.0016346702 0.035745285 -0.100983575
000020 97 7b 5e 3c 29 cc 97 bd 47 33 43 ba eb ff 64 bd
       0.013579271 -0.07411987 -0.00074463006 -0.055908125
000030 e8 05 06 3c 93 9d b1 3d 89 f0 83 3c 38 6d 84 bd
       0.008180119 0.08672633 0.016105907 -0.06466144
000040 60 c2 25 bc ee a8 21 3b 43 6f 8a 3d 59 9b 49 bd
       -0.010117143 0.002466734 0.06759503 -0.049220417
000050 e9 32 22 3a 84 7d b0 bc 8c b5 ad bc 61 2b 1e 3d
       0.0006187396 -0.021544226 -0.021204732 0.038615588
000060 42 88 13 bc 21 8d 44 bb 2b fe 99 bd 54 1c 1f bd
       -0.009004654 -0.0029991346 -0.07519182 -0.038845375
000070 dc a4 9c bd c9 9b 21 bd b4 f9 78 3d 2b f4 58 bd
       -0.07648632 -0.03945521 0.06078501 -0.05296723

GAT_layers.0.GAT_heads.0.w.weight f4 [1, 124]
000000 a0 4e 09 3d c2 41 4f be d6 23 5e 3d 8d 6a 48 3e
       0.03352225 -0.20239928 0.054233395 0.19571896
000010 87 d1 9e 39 27 eb c1 3b dc eb 2f 3d 18 13 b6 bb
       0.00030292218 0.005917925 0.042949542 -0.0055564754
000020 e0 70 28 3e 9f 35 ec bd 97 eb 92 bd 56 94 aa bb
       0.16449308 -0.11533665 -0.071738414 -0.0052056713
000030 f9 64 1d bd 99 ae 12 3e 3f f7 00 3d 82 cc 8a bd
       -0.038426373 0.14324416 0.031485792 -0.06777288
000040 c7 da 34 3e d3 98 07 3d 8c 99 b2 bd 90 bf 17 be
       0.17661582 0.03310473 -0.08720693 -0.14819169
000050 c9 3c 24 bd ab a9 46 3c 62 26 61 be 0e 9e a8 bc
       -0.04009703 0.012125413 -0.21987298 -0.020583179
000060 be 91 56 be 4c 81 ad bd be 34 fa bd 82 57 48 be
       -0.20954034 -0.08471927 -0.12217091 -0.19564632
000070 a8 bd 24 be 44 87 90 3c 76 1d 5c be a6 38 09 3e
       -0.16087973 0.017642625 -0.21495613 0.13400516
000080 26 e9 34 3e 39 72 ae 3d b9 0f 21 be d7 e0 25 3e
       0.17667064 0.0851788 -0.15728654 0.16199051
000090 28 14 15 be 6d a2 27 be c2 dc 8d 3d 76 82 b9 bd
       -0.1455847 -0.16370554 0.06926872 -0.090580866
0000a0 0e 5d d0 3d 13 0d 08 be ec a6 a2 bd fa 6a 2f bd
       0.10173999 -0.13286237 -0.07941994 -0.04282663
0000b0 f0 55 35 be 4e 9b 4e 3e f8 92 d6 bd 8b 09 0d bd
       -0.17708564 0.20176432 -0.10477251 -0.03443293
0000c0 f3 6e 19 be 67 4b 0c be 89 68 09 be 1c b1 00 3e
       -0.1498373 -0.13700639 -0.13418783 0.12567562
0000d0 2f 56 9e 3d b1 86 af 3d fd 5d 52 be 6e e0 4f be
       0.07731282 0.08570612 -0.20543666 -0.20300457
0000e0 ab 90 fd 3d 41 b4 06 be 44 28 5a 3e ac 98 2f bd
       0.12381109 -0.13154699 0.21304423 -0.04287021
0000f0 02 d1 40 3d 38 d8 b6 bd f5 c1 4f be cf 01 26 be
       0.047074325 -0.08927959 -0.20288832 -0.16211627
000100 ca a6 39 3e eb 99 c3 bd 4d 76 69 3e 4b 49 f0 3d
       0.18130031 -0.09550842 0.22799034 0.117327295
000110 c3 3e 19 3e b4 f3 f8 bd 61 dd 1b bd 6f c0 f7 bd
       0.14965348 -0.12155858 -0.03805292 -0.12097251
000120 7e 41 16 3e c5 4c 42 3c a9 58 32 3e 7d 0a be bd
       0.14673421 0.011859124 0.17416634 -0.09279344
000130 db b2 2a 3e f3 d9 46 3e 51 73 4a 3d fb 05 92 bd
       0.1666979 0.19419079 0.04942638 -0.07130047
000140 13 68 5d be db db ed bd 5b e7 90 bd 17 79 09 3c
       -0.21621732 -0.116142 -0.070753776 0.0083906865
000150 45 12 35 3c 95 66 22 be 2f 21 30 be 65 fd 9f bd
       0.011051719 -0.15859444 -0.17200159 -0.07812003
000160 95 14 84 3d c7 49 3c 3e 71 8f 2a bd 81 63 1d bd
       0.06449238 0.18387519 -0.041640703 -0.038424972
000170 73 64 3d 3e b7 1e c6 ba 70 93 61 be bc 1b 1f 3e
       0.1849535 -0.0015115355 -0.22028899 0.15537924
000180 23 f2 42 3e de 8e 57 3d cf 67 24 be 8d 51 b2 3c
       0.1903768 0.052626483 -0.16055225 0.021767402
000190 25 f6 0b bd 11 21 59 3e bb 1d 2e 3e 39 27 48 3c
       -0.03417029 0.2120402 0.17003529 0.012216383
0001a0 c2 4f 3c be b3 ac b3 3d 4a 85 42 3d 07 a3 2c be
       -0.183898 0.08773174 0.047490396 -0.16859065
0001b0 6f 78 c5 3c df 19 a2 3c 78 1e e8 bd ac 56 a8 bd
       0.024105279 0.019787727 -0.113339365 -0.08219656
0001c0 cf 28 3d 3d ed e1 1d be 30 70 d0 3d 44 ea 0f be
       0.046181496 -0.15418215 0.10177648 -0.14054209
0001d0 a2 7a 85 3d a5 bc db bd 08 0c 64 bd 5b f8 df bd
       0.06517531 -0.107293405 -0.055675536 -0.10936042
0001e0 26 c6 5f bd b7 fa 5f be f8 d5 06 3e c1 f6 42 b9
       -0.05463233 -0.21872984 0.1316756 -0.00018593205

GAT_layers.0.GAT_heads.1.f.weight f4 [32, 124]
000000 52 d6 8a 3c 71 d8 ec 3d db c7 03 be a6 e7 6e 3d
       0.016947899 0.115647204 -0.12869208 0.058326386
000010 03 2c 84 3d 7e cc 50 be 7b ce 24 3e 17 0a 01 bd
       0.06453707 -0.20390508 0.16094391 -0.031503763
000020 23 e0 35 3e cc a2 58 3d 68 05 eb bd 0c 2e 8d 3d
       0.17761283 0.05288963 -0.114756405 0.06893548
000030 2d 3c f3 3d cc 7f 39 bc 81 0e b6 bc 4a d7 fe 3d
       0.11876712 -0.011321973 -0.022223713 0.12443407
000040 9d a6 2d 3e e2 5a 7e 3d 56 fb 2e be a0 eb 32 3d
       0.16958089 0.06209839 -0.17088065 0.04368174
000050 7e f6 41 be 1d 33 4d bd 40 dd 51 3c 97 ee b2 bd
       -0.18941686 -0.050097574 0.012809098 -0.08736914
000060 ba 9c 62 3d f5 a3 1a 3e 1c 8a 6f bd 61 2b 0e be
       0.055325247 0.15101607 -0.05848132 -0.13883735
000070 5f 4c 7e 3d d8 6d 82 3d ad 8b 05 be 26 41 9d 3d
       0.062084552 0.06368607 -0.13041563 0.07678442
000080 74 79 db 3d c1 18 4a 3c b8 32 71 bd 2c 8c be 3d
       0.10716525 0.012335003 -0.05888626 0.093040794
000090 e3 6f 1e 3e 58 4e 2c bc 99 93 24 be eb 7e 3f 3e
       0.15472369 -0.0105167255 -0.16071929 0.18700759
0000a0 04 16 fd bd f4 00 66 3d 75 18 47 be 02 8d 2e 3e
       -0.12357715 0.056153253 -0.19442923 0.17045978
0000b0 7b 66 a3 bd ac 2f 78 bd cc 69 27 bd ad 3b 0d 3c
       -0.07978531 -0.06059234 -0.04087238 0.008620185
0000c0 72 e5 bf 3d a5 d3 b0 bd 4d 16 05 bd 28 f4 04 3e
       0.09369935 -0.08634118 -0.03249197 0.12983763
0000d0 c3 9e 17 3e f6 1d 91 bc 49 ba b4 bd b4 a4 0f be
       0.14806657 -0.017714482 -0.088245936 -0.14027673
0000e0 a5 ca 34 3d 3a fc ae 3c e7 03 2e be db 37 1e be
       0.04413857 0.021360505 -0.16993676 -0.15450995
0000f0 70 72 01 be 9d 3c 9c 3d f6 99 9a bd 0f 5d 8c bb
       -0.1264131 0.076287486 -0.07548897 -0.0042835544
000100 fd bc 64 bd e9 5e cf bd 51 86 12 bd f5 21 f1 3d
       -0.055844296 -0.101255246 -0.035772625 0.11774055
000110 0c f3 96 3d 3d 5f dd bc 8d 15 43 be 2d ea 00 be
       0.07370576 -0.027022952 -0.1905119 -0.12589331
000120 aa 96 c6 3c b8 84 1e 3e e7 37 bf 3d 03 49 4c be
       0.024241764 0.15480316 0.093368344 -0.19949727
000130 83 34 18 3e f0 f4 e9 3c ea 0d 03 be af f9 19 3e
       0.14863782 0.028559178 -0.12798277 0.15036653
000140 89 b7 9e 3d de 75 33 3e 22 19 2a 3e d5 2c e5 bd
       0.0774985 0.17525432 0.1661115 -0.11190192
000150 2e 0a c8 bc 02 03 86 3d b2 fc db bc e2 7e 1b be
       -0.024418917 0.065435424 -0.026853893 -0.1518512
000160 04 c3 c6 bd d4 e2 d0 3d e7 50 f5 bc ce 36 ad bc
       -0.09705165 0.10199514 -0.029945804 -0.021144297
000170 0d f6 0e be 2c 3e d6 3d a3 55 1e be 52 df e4 3d
       -0.13961048 0.10461077 -0.15462355 0.111754075
000180 c2 68 4b 3d 08 0b ea 3d a4 e7 c1 bc 41 e9 f5 3d
       0.04966045 0.11427885 -0.023670025 0.1200738
000190 15 ea 6f bd 82 c0 1e be 47 bf 13 3e 24 05 35 3e
       -0.058572847 -0.15503123 0.14428435 0.17677742
0001a0 43 ee 38 3e 4d ee 66 bd ef 3d b4 3d 7a a4 19 3e
       0.1805964 -0.056379605 0.088008754 0.15004149
0001b0 d6 de 34 3e 00 fb 53 3c c0 6e 95 3d d5 8a 47 be
       0.1766313 0.012938261 0.072965145 -0.19486554
0001c0 ff 99 07 3e b4 ef 08 3e 7a 78 26 bd ff 97 4f bc
       0.13242339 0.1337269 -0.04064224 -0.012670516
0001d0 49 ec fd bc 21 5f ef bd a1 97 0f 3e 70 e8 d5 3d
       -0.030996459 -0.11688066 0.14022686 0.104447246
0001e0 08 3d 10 3e d8 aa 66 bd 7e 93 57 be 11 fe 31 3d
       0.14085782 -0.056315273 -0.21052358 0.043455187
0001f0 05 2c 09 3e 87 25 b0 3d 2c cd 3d 3e d1 87 80 bd
       0.13395698 0.08600908 0.18535298 -0.06275905
000200 5e 9a 2a be 76 e5 a9 3d 25 c3 3b 3e 4b e8 87 bd
       -0.16660449 0.08295719 0.1833616 -0.06636103
000210 64 81 da 3c 12 8a 41 3e 68 b5 83 3d 5f f3 9b bd
       0.026673026 0.18900326 0.06431085 -0.07614779
000220 54 19 0e 3d d3 a4 47 3e 29 2e cf 3d 54 f8 33 3e
       0.034692124 0.19496469 0.10116226 0.17575198
000230 89 23 c7 bd 6f 6b 06 bd 35 9e fb 3d 3c ac c2 bd
       -0.09723575 -0.0328173 0.12286035 -0.09505507
000240 78 70 4a 3d 33 33 57 3b f2 48 0e 3d c1 bc 80 bd
       0.049423665 0.0032836914 0.034737535 -0.06286002
000250 b3 a5 0e 3e b7 28 46 bd 1a 4f 15 3e e9 c7 0b 3e
       0.13930397 -0.048378672 0.14580956 0.13650478
000260 50 9e 7e bc 5f a6 2c bd 90 fe 30 be d5 0a 05 3e
       -0.015540674 -0.04215085 -0.17284608 0.12992413
000270 dd cd 30 be 4d 0d 38 be e4 fe ed 3d 34 df 8f bd
       -0.1726603 -0.17973824 0.11620882 -0.070249945
000280 9b 5a 8e 3d 3a e8 32 3e 20 26 7b bd 16 77 99 3d
       0.06950875 0.174714 -0.061315656 0.07493417
000290 d9 b2 b7 3d 80 62 7f bd dc a4 be 3d 71 f8 a8 3d
       0.08969659 -0.062349796 0.09308788 0.082505114
0002a0 dc 1c 37 be 79 b5 11 3e bb 90 05 be 25 3c c5 bd
       -0.17882103 0.14229383 -0.13043492 -0.09630612
0002b0 a2 a6 48 bd 7f 85 c8 bb bb af 30 be 08 bd 05 be
       -0.04898704 -0.0061194296 -0.17254536 -0.13060391
0002c0 5f b3 bd 3d 56 07 bd 3b 5f 54 12 3d 62 28 80 bd
       0.09262728 0.005768697 0.035724994 -0.062577024
0002d0 44 6a 45 3c 5c 69 21 3d 3d 07 e3 bd 84 2f f7 bd
       0.0120492615 0.03940712 -0.11085365 -0.1206961
0002e0 17 12 ad bc aa 76 06 3e 73 9b ef 3d 7f 69 1b bd
       -0.02112679 0.13131204 0.116995715 -0.037942406
0002f0 98 ed 94 bd ea 33 5d 3d e2 90 49 bc c3 b9 18 bd
       -0.0727188 0.054004587 -0.012302609 -0.03728653
000300 2c bb c2 bd 71 48 a7 3c c0 c6 9a bd 05 e1 d6 3d
       -0.095083565 0.020420285 -0.0755744 0.10492138
000310 2d 55 95 bd 41 0d 73 3c 07 47 ad 3d 53 ad 9c 3d
       -0.072916366 0.014834703 0.08460813 0.076502465
000320 36 76 32 be f2 76 0c be 88 4f a1 3d be 41 e3 3d
       -0.17427906 -0.13717249 0.078764975 0.11096524
000330 51 2c 0c 3e 17 c9 c5 bd 06 c4 a9 3d f2 a5 02 3e
       0.1368878 -0.096574955 0.08289342 0.12758616
000340 3d 4a 21 3e 16 35 2c 3e 40 cb 20 3e a5 2f f6 bd
       0.15750976 0.16817126 0.15702534 -0.12020806
000350 b9 53 08 3e 1b a2 d0 bd 2e e6 08 bc cc 57 57 bd
       0.13313188 -0.10187169 -0.00835566 -0.052573964
000360 b7 61 d1 bd 75 d2 30 bd 65 1e 27 be be 74 a9 bc
       -0.10223716 -0.043169457 -0.16320188 -0.02068555
000370 79 96 2f 3d 9f 8a dd bd a8 d5 64 bc 62 fd 10 be
       0.04286811 -0.108174555 -0.013966955 -0.14159158
000380 49 6e f4 bc 4a 98 b8 bd 6d 0c af bd 03 92 3c 3d
       -0.029837744 -0.09013422 -0.08547292 0.046037685
000390 52 bb fd bd a0 2c 12 bc 62 cb 90 bd 1c 8d 2a 3e
       -0.12389244 -0.008921772 -0.07070042 0.16655391
0003a0 96 32 04 3b 9d 3b 3e be 08 33 24 3e 92 12 57 3e
       0.0020171753 -0.18577428 0.16035092 0.21003178
0003b0 30 a3 6f bd 5d f5 3d bd 7d 3f 2b be d6 9e 0f be
       -0.058505237 -0.046376575 -0.16723438 -0.14025435
0003c0 34 72 10 bd 5e 4b 86 3d bd f1 d6 3c a5 83 3a 3d
       -0.035265163 0.06557344 0.026238317 0.045535702
0003d0 2c ef ac bd 3d ad f9 3d da 73 89 bd 62 44 3d bd
       -0.08444056 0.12191246 -0.0671155 -0.046207793
0003e0 19 f6 c9 bc 01 6f ff 3c 0c d5 ea bd 4a 79 1e 3e
       -0.024653481 0.03118086 -0.11466417 0.15475956
0003f0 06 6f 86 bd e6 cc bd 3d 35 4e e1 3d 8a 0c ab 3d
       -0.06564145 0.09267597 0.11001245 0.08352001

GAT_layers.0.GAT_heads.1.f.bias f4 [32]
000000 92 17 84 bd f3 f5 fa bc 68 96 34 3c f0 5e 37 bd
       -0.06449808 -0.030634856 0.011022188 -0.044768274
000010 a5 7e a1 3d 1b 7e b6 bd 41 ad f3 3c b5 02 cc 3a
       0.07885484 -0.089107715 0.0297457 0.0015564772
000020 e4 c8 fc bc d7 ac 74 3d f6 aa b6 3c 5b 11 3b 3d
       -0.03085751 0.059735145 0.022298317 0.04567085
000030 58 8c 5f bd 3a a8 6c bd 94 d1 93 3d c7 e0 8d bd
       -0.0545772 -0.05777762 0.07217708 -0.069276385
000040 b0 df 96 3d ab 35 9e 3d da a1 41 bc f7 f1 aa bc
       0.07366884 0.0772508 -0.011818374 -0.020867331
000050 4b da 84 bd 85 20 b0 3d bd 96 d8 bc 16 c8 03 3d
       -0.064869486 0.085999526 -0.026439065 0.03217324
000060 c7 b6 d6 bb 2a ef 6b 3a cf af 84 bd 40 fa 0a bd
       -0.0065525505 0.0009000177 -0.06478845 -0.033930063
000070 8c e6 97 bc c3 7f d1 3c f7 06 0a 3d 4f 8a 47 bd
       -0.01854255 0.025573617 0.03369805 -0.048715886

GAT_layers.0.GAT_heads.1.w.weight f4 [1, 124]
000000 a8 5d 58 be ea 88 9a 3d 3d 87 9c bc fe 25 46 be
       -0.21129477 0.075456455 -0.019107455 -0.1935043
000010 5d 00 d7 bd 7d 63 39 3e 56 92 18 3e ba 72 03 3e
       -0.10498116 0.18104358 0.14899573 0.12836733
000020 5f a9 be 3c 4f f1 96 bc 01 10 15 3e f7 65 5c bd
       0.023274122 -0.018425612 0.14556886 -0.05380818
000030 c8 df 3a 3d 5c 23 2f 3e c3 b8 44 3e b1 e3 14 3e
       0.04562357 0.17103332 0.19211106 0.14539982
000040 f7 d2 d3 bd 6d 4c 96 bd e1 0b 10 3e a7 db 00 3e
       -0.10342973 -0.07338796 0.14067031 0.1258379
000050 93 75 62 be e5 75 73 3d fb 44 f4 bc b6 52 60 3d
       -0.22115164 0.059438605 -0.029818049 0.05476638
000060 ba 17 92 3c 1b c7 30 3e d0 f0 09 be cc 7d 1e be
       0.01783358 0.17263453 -0.13470769 -0.15477675
000070 71 ac 0d 3e 0f c3 b8 bd b0 a7 87 3d 51 b9 7e bd
       0.13835312 -0.090215795 0.06623781 -0.06218845
000080 97 b4 b0 3d 27 19 81 bc bd e4 39 bd 00 aa 6b 3d
       0.08628195 -0.015759064 -0.045384157 0.05753517
000090 51 65 89 3c d7 e6 9a 3c a5 2e b9 bd c4 a5 ad bc
       0.016771944 0.018908901 -0.090421 -0.021197207
0000a0 80 8d a8 3d de 42 31 be 39 f5 c8 3d c8 29 89 bd
       0.08230114 -0.17310664 0.098123975 -0.06697422
0000b0 2b 57 ba bd b3 c0 ee 3d 36 aa 2f 3d 38 dd 80 3d
       -0.09098657 0.11657848 0.042886935 0.06292194
0000c0 77 05 50 3e 70 f4 ca bd be 9b 31 be 18 59 37 3d
       0.20314585 -0.09909904 -0.17344567 0.0447627
0000d0 3e 1b 41 be 7f 65 81 bc bc 1b 92 bd ef 23 f2 3d
       -0.18858048 -0.015795467 -0.07134196 0.1182326
0000e0 44 b5 a7 3d a4 9a a8 3d 21 52 5b be 71 46 0e 3e
       0.081888705 0.0823262 -0.21418048 0.13894059
0000f0 c4 7f 10 3e 45 f7 9f bd 49 1e 37 be 43 ae 23 be
       0.14111239 -0.07810835 -0.17882647 -0.15984444
000100 2b 70 22 3d 8d 74 bd bd d6 c8 05 3e dc 89 fc bc
       0.039657753 -0.09250746 0.13064894 -0.030827455
000110 1c 60 a2 bd 4c 5b 7e bd d0 70 16 bd 00 ab 35 3e
       -0.07928488 -0.062098786 -0.03672868 0.17741013
000120 c0 87 3e be 4a e7 fb b9 c9 31 6f bd 40 42 37 3d
       -0.18606472 -0.00048046774 -0.05839709 0.044740915
000130 d5 ec 18 be c4 9e 1c be a1 b3 bf 3d 45 38 5c 3c
       -0.14934094 -0.1529494 0.09360433 0.01344115
000140 c2 2f cf 3d d1 42 b9 bd e8 66 62 be 9e e0 61 bd
       0.10116531 -0.09045947 -0.22109568 -0.055145852
000150 48 dc 62 bd b9 b2 23 be 41 9f 07 be 73 6a 1d 3e
       -0.055385858 -0.15986146 -0.13244344 0.15372638
000160 4f 24 2d 3e 19 88 28 3d c4 c0 01 3e 63 2d ae bc
       0.16908382 0.041145418 0.1267119 -0.021261876
000170 67 09 da 3d 0c c6 20 be c6 ba 41 3c ce c5 12 be
       0.106463246 -0.15700549 0.011824315 -0.14333269
000180 94 55 b6 bd 57 6e 5a be 87 0c 60 be b7 da dc bd
       -0.089030415 -0.21331154 -0.21879779 -0.10783904
000190 23 00 f3 3a 14 50 86 bd 43 54 80 bd 8f 67 53 be
       0.001853947 -0.065582424 -0.06266072 -0.20644973
0001a0 30 51 d6 bd df a7 05 bd 6c 98 0e be 51 8c ea 3d
       -0.10464704 -0.032630797 -0.13925332 0.114525445
0001b0 c2 80 4d be e8 8a 55 be 78 79 9c 3d 29 59 4f 3d
       -0.20068648 -0.2085377 0.07640356 0.05062214
0001c0 42 cc 5f 3e da 92 23 3e 77 c9 34 3d 31 a9 c5 bd
       0.21855262 0.15973988 0.044137444 -0.09651411
0001d0 4e a4 af bd 7b 93 4a 3e 3f 26 52 be 26 f1 02 be
       -0.085762605 0.19782822 -0.20522402 -0.12787303
0001e0 b6 3e bb bd 26 48 25 be 5c f6 f8 bd 1e e1 20 bd
       -0.091428205 -0.16140804 -0.12156364 -0.03927719

GAT_layers.1.GAT_heads.0.f.weight f4 [64, 128]
000000 ec da 90 3c b1 13 25 be aa 78 33 be 90 3d ff bd
       0.017682515 -0.16120793 -0.17526498 -0.12462914
000010 bc d9 0d be 4b 8f 19 bd 34 92 0a be aa 75 7c 3d
       -0.1385259 -0.03749017 -0.13532335 0.06163565
000020 b3 17 83 bd 0a 0a ea 3b 37 ad 1e 3d 5a 51 80 bd
       -0.06401005 0.00714231 0.03873941 -0.062655166
000030 c5 01 90 3d 4e 1c f7 bd 6c 39 9f 3d 07 6b 67 bd
       0.070315875 -0.120659456 0.07774624 -0.056498554
000040 b1 53 c4 3d ea e3 1a 3e b9 bb df bc 00 6b f1 3d
       0.09586275 0.15126005 -0.027311193 0.11787987
000050 cf bf 33 3e 50 b5 0c 3e f3 84 16 3e 80 2a 07 3e
       0.17553638 0.1374104 0.14699154 0.13199806
000060 62 d5 5c 3d 98 a2 e0 3c f1 b5 10 be 68 ef 81 3d
       0.053914435 0.02742128 -0.14131905 0.06344491
000070 e3 00 a8 bc eb 02 11 3c 3e 27 f0 3d 5c 37 02 be
       -0.020508235 0.008850793 0.11726235 -0.1271643
000080 2a 36 36 3e f3 8b c3 bd 27 f1 98 3d 36 d2 bb 3d
       0.177941 -0.095481776 0.07467871 0.09170954
000090 50 5a 05 be 2e fa a7 bc 66 34 d5 bd e2 38 8c bd
       -0.13022733 -0.020505037 -0.10410385 -0.06846787
0000a0 e6 05 d3 bd eb 67 29 3e 65 aa 80 bd f0 e1 07 be
       -0.103038594 0.16543548 -0.062825 -0.13269782
0000b0 14 cd 47 bd 36 9e a2 bd 48 ce ac 3c c6 fc 03 3e
       -0.048779562 -0.079403326 0.021094456 0.12889394
0000c0 aa 3b 25 be 7e 17 55 be 60 10 b7 3d 15 1e 9e bd
       -0.16136041 -0.20809743 0.0893867 -0.077205814
0000d0 5b 30 08 3e 20 13 16 be bd 2f be bd f5 b7 6c bd
       0.13299696 -0.14655733 -0.09286449 -0.057792623
0000e0 ca f7 28 3e 0c 2c 32 be b8 30 24 3e c0 31 33 bd
       0.16500774 -0.17399615 0.1603421 -0.043748617
0000f0 92 99 e8 3d 19 cf dc bd 21 3c af 3c e8 ff b3 bd
       0.11357416 -0.10781688 0.021390976 -0.087890446
000100 f8 04 e3 bd a7 0d c7 3c 5b d2 04 3d c7 ec 57 bd
       -0.11084932 0.024298502 0.032427173 -0.052716043
000110 ed ab 07 3e 7e 93 49 3d 37 1a cd 3d ef 05 3e bd
       0.13249178 0.049212925 0.10014766 -0.046392377
000120 77 23 23 be 00 29 25 be c4 be 95 3c 36 0a c4 bd
       -0.15931498 -0.16128922 0.01827944 -0.0957226
000130 87 5f b3 3d 80 6e 1d 3e 2b 1e e7 3d b0 53 a5 3d
       0.08758455 0.15374184 0.11285051 0.08072603
000140 d4 07 92 3d 14 40 82 bd cd 4b 1d 3d ac b7 02 3d
       0.07130399 -0.06359878 0.038402367 0.031913444
000150 bd 5f 08 bd ea a6 ec 3d ca 77 21 3d b0 8a 6f bd
       -0.03329443 0.11555274 0.03942088 -0.058481872
000160 94 85 0b be f2 29 4c bd fe fa dc bc b0 08 6b 3c
       -0.13625175 -0.04984469 -0.026975151 0.014345333
000170 25 b7 4a 3c c3 ce 72 bd db cc 93 3c 6a cf 0e be
       0.012372767 -0.059279215 0.018042019 -0.1394631
000180 bf 10 c8 bd dc aa 14 bd 5a 5b ed bd 2c d9 bb bd
       -0.09768819 -0.036295757 -0.115896896 -0.091722816
000190 d4 55 6f 3c 25 59 19 bd 80 f1 2c 3e 74 ba fd bd
       0.014607865 -0.03743853 0.16889 -0.12389079
0001a0 10 d2 66 3d 62 6f 2d be 3a 8d bb bd e8 f6 06 be
       0.056352675 -0.1693702 -0.09157796 -0.13180125
0001b0 ff 8d 4e 3d 85 31 79 3d 33 51 8b bd ad 21 4c 3c
       0.050428387 0.06083824 -0.06802597 0.012459201
0001c0 d3 99 22 be 28 89 f5 3d d3 49 5b bc 9e 87 9b bc
       -0.15878992 0.11989051 -0.0133843 -0.018985566
0001d0 c6 1f a7 bd 56 99 1c 3e 72 28 77 bc 56 3f ac bd
       -0.08160357 0.15292868 -0.0150853265 -0.08410518
0001e0 09 f8 0d 3e 74 e3 ad bd b2 c1 dc bc 0c 19 22 3d
       0.13864149 -0.08490649 -0.02694783 0.039574668
0001f0 9a 3f 13 3e 6d af 09 be c9 7c 35 bd 2a 94 c1 bd
       0.14379731 -0.13445826 -0.044308458 -0.09452088
000200 fd 6c 04 3e 07 36 a6 3d 26 e5 04 3e 08 09 2c be
       0.129322 0.08115774 0.12978038 -0.1680032
000210 d1 41 b5 bd 4d 95 9b bc 7f 43 e4 3d b1 6d 24 be
       -0.08850444 -0.01899209 0.11145686 -0.16057469
000220 78 b8 85 3d 15 09 4a 3d 49 d4 27 3e 29 99 ba bb
       0.06529325 0.049325068 0.16389574 -0.0056945276
000230 9a 12 66 3c 11 dd 1f bd e9 81 06 be b9 cc ca bc
       0.014042521 -0.039029185 -0.13135494 -0.024755822
000240 c3 ca 15 bc 5c 51 06 be 9c ff b2 bd f2 a8 2a 3c
       -0.00914258 -0.13116974 -0.0874016 0.010416256
000250 3f d8 1b bc de 07 e8 3d b1 67 58 3d c4 c7 fa 3d
       -0.009512006 0.113296255 0.052833263 0.122451335
000260 c5 c6 d1 3d a2 d6 fe bd f5 69 13 be 31 8b 02 3e
       0.102429904 -0.12443282 -0.14395888 0.1274841
000270 a8 c9 eb bd 69 af bb 3b 89 23 8a 3d 93 f9 83 3d
       -0.11513072 0.0057276976 0.06745059 0.06444087
000280 e2 71 95 3d 82 89 31 3e d0 b4 2a 3d d4 6e 8d bd
       0.07297112 0.17337611 0.041676342 -0.069059044
000290 33 a6 92 bc e4 16 e9 bd 00 c5 f3 bc 06 60 20 3e
       -0.017901516 -0.11381319 -0.029757023 0.1566163
0002a0 06 8f d0 bc 9e 63 86 3d 46 de b4 bc b1 98 a0 bd
       -0.025458824 0.06561969 -0.022078644 -0.078416236
0002b0 22 f2 16 3e e8 ef d1 3d e1 a9 57 3d 86 78 43 3d
       0.14740804 0.102508366 0.052652244 0.047722362
0002c0 91 7f 91 3c e6 6b 63 bd 4a 1a c1 3d 11 2e 0c be
       0.017761024 -0.05552282 0.09428842 -0.13689448
0002d0 93 8f 43 3d 8f a2 55 bd 67 99 ef bd 7b 46 2d 3e
       0.047744345 -0.05215698 -0.11699181 0.16921417
0002e0 0a 03 35 3e d1 8b 05 be c3 dd 5c bd aa f3 b5 3d
       0.1767694 -0.13041617 -0.053922426 0.08884366
0002f0 be ae b1 3d ba 56 fd 3c 1e 4d 11 be 73 13 49 bd
       0.086759076 0.030925144 -0.14189574 -0.049090814
000300 32 e7 cb bd 85 0a 01 3e e4 d4 cd 3d df b3 47 3d
       -0.099562064 0.12601669 0.10050371 0.048755523
000310 0b fb b7 bc cf 89 c5 3d c1 08 07 3e 40 b4 7a 3d
       -0.022458574 0.096454255 0.13186933 0.061207056
000320 7d 49 d4 3d 32 08 46 3c b5 31 14 3e 97 ef 00 be
       0.10365579 0.012086915 0.14472087 -0.12591396
000330 6a 55 05 be 19 d5 5d 3d 51 07 e5 bd 9e b4 28 bb
       -0.13020864 0.054158304 -0.11183036 -0.0025742422
000340 f7 6b b7 bd 7f 96 ce bc 80 a6 24 3e 1f 38 d1 3d
       -0.089561395 -0.025218247 0.1607914 0.102157824
000350 c3 20 00 bd dc 90 ae 3d cf 6c d8 bd 17 96 af 3d
       -0.031281244 0.085237235 -0.105676286 0.08573549
000360 3e 1a ca bd ff 80 c1 bd ad 3a 31 3d 50 c4 e3 bd
       -0.098682866 -0.09448432 0.04326885 -0.11121428
000370 5f 5d 55 3b 08 78 a4 bd 4a 0d c8 bd 9d 77 f8 bc
       0.0032556874 -0.08030707 -0.0976816 -0.030330474
000380 4c 28 c3 3c cf 23 23 3e 37 e2 00 3e 78 60 20 3e
       0.023822926 0.15931629 0.12586294 0.156618
000390 67 21 d8 3d 48 d9 61 3b c3 b1 29 be 38 95 15 3e
       0.10553246 0.0034461785 -0.16571717 0.14607704
0003a0 b8 d7 19 3e fd b1 b7 bd 4f 2b 2e be ee ca 1a 3d
       0.15023696 -0.089694954 -0.17008708 0.037791185
0003b0 65 df dc bc 06 93 53 3d e5 ca f6 bc 8b bc 23 3d
       -0.026961992 0.051653884 -0.030126045 0.03997473
0003c0 61 5a 1e 3e 4b 47 97 3d ed 23 68 3d 14 dd 38 3d
       0.15464164 0.07386645 0.056674886 0.04513271
0003d0 8d ca 23 3e a4 6b 26 3e 29 fb 5a bc 02 ab 3a 3d
       0.15995236 0.16251999 -0.013365545 0.045573242
0003e0 92 34 d2 bd f1 6b 66 bd 4f 75 8c bc a6 a8 34 bd
       -0.10263933 -0.056255285 -0.01714578 -0.04410615
0003f0 45 14 2a be 12 f0 1a bd f2 e7 e5 3d ab 64 b2 bc
       -0.16609295 -0.037826605 0.11225881 -0.021776518

GAT_layers.1.GAT_heads.0.f.bias f4 [64]
000000 d9 89 43 bd 9f 6b bd bc c0 fd 87 3d c3 84 96 bd
       -0.047738884 -0.023122607 0.06640196 -0.07349541
000010 92 06 67 3c ab 1c ff b9 54 d7 18 3c 4b 4b ae bd
       0.014100688 -0.0004865875 0.009328682 -0.08510455
000020 0a 04 5a bb d6 84 73 bd 72 b6 65 3d b7 29 95 3a
       -0.0033266568 -0.059452854 0.056082197 0.001138023
000030 eb 66 86 bd 4c bc 8b bc ca 78 23 3d b4 07 81 bd
       -0.06562599 -0.01705756 0.039910115 -0.063002974
000040 1d 68 24 3b 61 ae 4c 3d 1a a8 34 bc 2e 1e c1 bd
       0.002508647 0.04997099 -0.011026407 -0.094295844
000050 64 9d 9e bd 36 25 de b8 b5 62 c1 bd 18 29 4f 3d
       -0.07744864 -0.00010592716 -0.09442655 0.0505763
000060 5a 03 49 bd 85 32 91 bc 9c eb 24 bd 58 49 cd 3c
       -0.049075462 -0.017724285 -0.040263757 0.025059387
000070 24 d0 12 bd ad 01 db bc 94 6b 30 3d 2a a5 8f bd
       -0.03584303 -0.026734198 0.043071344 -0.070139244
000080 37 cc f6 bc 0c 76 1e 3b 2f a3 34 3d 78 73 06 3d
       -0.030126674 0.0024179248 0.044100937 0.032824963
000090 86 dc 7f bd 46 a5 e9 bc 8c 90 88 bd 71 13 12 bb
       -0.062466167 -0.028521191 -0.06668195 -0.002228942
0000a0 c7 8f e6 bc 70 2d 13 3d 8d 2c 5c bd d7 48 d9 bc
       -0.02814473 0.035932004 -0.053753424 -0.02652399
0000b0 87 65 9c 3c cb 38 73 3d 16 a8 cb 3c 31 e7 43 3c
       0.01909138 0.059380334 0.024860423 0.011956976
0000c0 f2 20 21 bd bb 42 93 bd 50 a8 8b bd 36 78 0b bd
       -0.03933806 -0.07190462 -0.068192124 -0.03405019
0000d0 b5 b1 09 bd 63 d9 cd 3c d0 1c 1c bd 4a 9d 88 3d
       -0.03361674 0.025128072 -0.038113415 0.066706255
0000e0 ec 52 b2 bd a9 86 56 3b 88 cb 9b bd 81 6f 07 3d
       -0.08707222 0.0032734072 -0.0760718 0.033065323
0000f0 d6 f4 3f bc 7b 2b f5 ba 23 e0 20 3c c5 f9 e5 3c
       -0.011716088 -0.0018704975 0.009819063 0.028073201

GAT_layers.1.GAT_heads.0.w.weight f4 [1, 128]
000000 47 14 f2 3d 7c a2 88 3d a5 a2 25 be bb 37 19 3e
       0.11820274 0.066716164 -0.16175325 0.14962666
000010 2a 36 07 3e a8 52 24 be 13 f3 cc bc 0e fa eb 3d
       0.13204256 -0.16047156 -0.02501825 0.115223035
000020 56 5b 99 bc 90 0c dd 3d f1 67 88 bd 18 5c b6 bd
       -0.01872031 0.10793412 -0.0666045 -0.08904284
000030 38 a8 06 bd bc 05 9b bc a7 b2 3d bb 74 23 89 3d
       -0.03287527 -0.018923633 -0.0028945596 0.06696215
000040 52 fe e1 bb 8e 28 0c 3e d7 ea 94 bd 3a 78 00 3e
       -0.0068967724 0.13687345 -0.07271355 0.12545863
000050 3b 4c 47 be 0a 8c 8d 3d a7 cc d8 bd fc 15 3d 3e
       -0.19462673 0.06911476 -0.10585909 0.18465418
000060 f9 18 23 3d af f1 42 3d c5 69 32 be ec f2 0c be
       0.039818738 0.04759377 -0.1742316 -0.13764542
000070 1c 8b 11 bd 45 71 d4 3d 8b 77 33 3c 05 76 43 bd
       -0.035533056 0.10373167 0.010953794 -0.047719974
000080 db af 3c 3e c3 1b 8d bc cb 60 13 3e 94 a1 16 3e
       0.18426459 -0.017225152 0.14392392 0.14710075
000090 fa 4f 19 3d b4 dd 1d be 3d 06 d3 3d c9 b4 a9 3d
       0.037429787 -0.15416604 0.10303924 0.08286435
0000a0 2b ac 36 be fb 5e 5a bd b2 39 ae 3d 9a 1b dc 3d
       -0.17839114 -0.053313237 0.08507098 0.10747452
0000b0 fe d8 26 bc de 23 1a be 22 fa ff 3d d1 54 fa bd
       -0.010183571 -0.15052745 0.12498881 -0.12223209
0000c0 f2 cf 26 3e 74 9a cd bd 10 f4 05 3d 4c d9 eb bd
       0.16290262 -0.10039225 0.03270346 -0.115160555
0000d0 ac b0 62 3d 9b da 4d bd d6 49 e9 3c 57 89 04 3e
       0.05534427 -0.050257307 0.02847759 0.12943016
0000e0 0e 0a e9 3d 40 15 a4 bc bd f4 c8 3d e1 9b df bd
       0.11378871 -0.020029664 0.09812305 -0.109184034
0000f0 1c d6 26 be 98 61 96 bc d7 59 ea 3d f7 09 df 3d
       -0.16292614 -0.018357083 0.11442917 0.108905725
000100 02 07 d2 bd 70 0f d8 bd e8 5f 52 3e 59 b8 de 3d
       -0.10255243 -0.105498195 0.20544398 0.10875005
000110 41 b8 0d be e3 f5 59 be 6a 88 4b 3e d2 95 f7 bd
       -0.13839819 -0.21285205 0.19876257 -0.12089123
000120 0f 16 4a 3e 66 82 42 3e c4 4a 79 3d cf 72 44 3e
       0.19734977 0.18995056 0.060862318 0.19184421
000130 63 e4 8a 3d 9c af 1e 3e f9 8b b5 bc 65 0d 62 3b
       0.067818426 0.15496677 -0.02216147 0.0034492847
000140 07 fd fb bd 68 d2 37 be af 6b 0d bd 67 60 58 bd
       -0.123041205 -0.17951357 -0.034526523 -0.05282631
000150 b1 2b 19 3d 7b c3 e3 bd 65 51 fb bd 3d 6f 1c bc
       0.037395183 -0.11121269 -0.12271384 -0.009548006
000160 90 a0 48 3e 25 9e ff bd d7 13 ed bd 9b 60 10 3e
       0.195925 -0.124813356 -0.1157605 0.14099352
000170 d1 0f 5c 3d 93 95 24 be 62 33 6c bc a8 e6 42 3e
       0.05372602 -0.16072683 -0.0144165475 0.19033301
000180 c4 24 82 3d 36 eb a6 bc 24 ce 1e 3d c7 ff 93 bd
       0.06354669 -0.02037583 0.03877081 -0.0722652
000190 62 49 00 be 2b 68 3c 3e 05 f2 49 3e 1a db 8f bc
       -0.12527993 0.18399112 0.1972123 -0.01756053
0001a0 f9 28 b3 3d 05 38 81 3d 2b 69 10 bd 1e 3b a6 bc
       0.08748049 0.06309513 -0.035256546 -0.020291861
0001b0 0c 5f 0f 3e d2 09 da bc 1a 5a 82 3d 8a c0 53 bc
       0.14001101 -0.02661601 0.06364842 -0.012924323
0001c0 1d 8f 9d bd 51 ef 4d 3e 86 53 41 3e 9a 2c ad 3d
       -0.07693312 0.20110823 0.18879518 0.08455773
0001d0 cf 9b 01 3e 4c e2 1f 3d ad 0e 2b bc 4a 8f 50 be
       0.12657093 0.039034173 -0.010440511 -0.2036716
0001e0 bb 80 71 bd 42 98 66 3d 24 de 2d be f5 02 06 3e
       -0.058960658 0.056297548 -0.16979271 0.13087066
0001f0 be 97 13 3e 2c e3 f1 3d c5 40 12 be 9d 92 1f 3c
       0.14413354 0.11810908 -0.1428252 0.009739545

GAT_layers.1.GAT_heads.1.f.weight f4 [64, 128]
000000 06 e9 29 bd cf 77 29 3e c2 f6 af 3d b1 ef ad 3b
       -0.041481994 0.1654961 0.08591987 0.0053081145
000010 23 88 4f bd 22 97 1b 3e 28 e1 21 3e 97 fc 19 3e
       -0.05066694 0.15194371 0.15808547 0.15037762
000020 e2 30 05 be 03 b6 ea 3d 46 42 3d bd 7a 03 fe 3d
       -0.13006929 0.11460497 -0.04620578 0.12403007
000030 b2 5b 21 3e 11 43 39 bd a2 21 89 3b 06 1c 06 3d
       0.15757635 -0.045229975 0.0041849175 0.03274157
000040 4f 27 05 3e 32 ca 0b be fa 6a d1 3d 17 3b 25 be
       0.13003276 -0.1365135 0.10225482 -0.16135822
000050 31 be 1e 3e 62 a5 7b 3d 43 31 83 3d c3 51 0c be
       0.1550224 0.06143702 0.0640588 -0.13703065
000060 3c 5b 73 3d b8 8f 4a bd 84 18 10 be 6a 1f 04 3d
       0.05941318 -0.049453467 -0.14071852 0.03225652
000070 ae 76 1b be 3d 0f 0d 3e ed fb c4 3d 20 b1 e6 bd
       -0.15181991 0.13775344 0.096183635 -0.11264253
000080 e3 43 a1 3d 59 6c f9 3c 82 fc 56 3d 90 f1 ad bd
       0.078742765 0.030447172 0.052486904 -0.0849334
000090 3a ad cf bd db 30 08 bd 94 de 26 be 3a 23 e7 bc
       -0.10140462 -0.033249717 -0.16295844 -0.02821504
0000a0 a4 b8 2b 3e ea 76 6d bd 3f 4f 87 3d 67 af 32 be
       0.16769654 -0.057974733 0.06606912 -0.17449723
0000b0 d9 4a 22 be 6b 61 1c be 1d 82 d8 bd 9b 1c ab 3d
       -0.15848865 -0.15271537 -0.10571692 0.083550654
0000c0 ac 1e 4d 3d 2b f5 09 be 14 39 24 be c0 25 ab b9
       0.05007808 -0.1347243 -0.16037399 -0.00032643788
0000d0 f7 c2 f7 3d 47 d1 b6 3c 46 f5 a7 bd be 86 6a 3d
       0.120977335 0.022316588 -0.08201079 0.057257406
0000e0 b7 25 fd 3c 42 5a dc bc 96 12 9d 3d 62 d6 d9 bd
       0.030901773 -0.026898507 0.076695606 -0.106365934
0000f0 80 4b 1e be 37 08 34 be a5 5a a4 bd d8 7d 17 3d
       -0.15458488 -0.17581259 -0.080251016 0.03698525
000100 af ce 01 be 2b 88 e6 3d 56 83 a6 3d 1d bb 03 3e
       -0.126765 0.11256441 0.08130519 0.12864347
000110 37 ca a1 bd 47 9c f5 bc e3 6e 86 bc b0 f6 f1 3b
       -0.078998975 -0.029981745 -0.016410297 0.007384144
000120 80 8a f1 3c ec 8d 43 3c 7d a9 e8 3d 5d a2 ba 3d
       0.029484987 0.011935692 0.11360452 0.091129996
000130 e1 87 ff 3b d0 5f ec bd b4 45 ad bd 80 12 27 be
       0.0077981804 -0.11541712 -0.084605604 -0.16315651
000140 94 aa e0 3d bc e7 37 be b9 12 00 be e0 92 be bc
       0.10970035 -0.17959493 -0.12507142 -0.023263395
000150 cd 4e 0a be 52 4f 80 3d 21 01 18 3e 07 33 d5 3b
       -0.13506623 0.06265129 0.1484418 0.006506327
000160 60 fe 1a ba 4c d1 39 be 41 38 81 3d 2f c0 c5 3d
       -0.00059125386 -0.18146247 0.06309558 0.09655797
000170 49 82 ed bb 5e f4 20 3e 2c 5d 8f 3d c6 8c 0a be
       -0.007248197 0.15718219 0.07000193 -0.13530263
000180 d1 b0 53 3d 9e 45 2f bc b5 c5 0c be d5 cc cb 3d
       0.051682297 -0.01069775 -0.13747294 0.09951178
000190 7b 7e 24 be 86 2c a1 bd 3a dc ba bd 7c a6 8e 3d
       -0.16063873 -0.0786982 -0.09124036 0.06965348
0001a0 c9 de 1b 3e 81 40 e4 bd bc a7 d5 3d 39 15 9e bd
       0.15221705 -0.11145116 0.104323834 -0.07718892
0001b0 84 5a c7 bd f6 81 2f 3c 0b 63 86 3d f4 d0 83 bd
       -0.09734061 0.010712137 0.0656186 -0.06436339
0001c0 f2 2d 8c 3d 09 74 16 be e8 19 2f bd 9b 90 b1 bd
       0.06844701 -0.14692701 -0.042749316 -0.086701594
0001d0 be 43 a7 3d 63 51 a4 bd 91 3a 44 bd 0a 1f 81 bd
       0.08167218 -0.08023336 -0.047907416 -0.06304748
0001e0 66 7c 69 3d b6 34 f6 bd 00 43 2b be 1a e7 12 be
       0.0570034 -0.120217726 -0.16724777 -0.14345971
0001f0 06 8b af bd 4e 33 22 be 9f 4a 2f bb 64 2d 08 3e
       -0.085714385 -0.15839884 -0.0026747358 0.13298565
000200 13 58 ec bd ed 1d 5b bd ad a1 91 bc 19 98 49 bc
       -0.11540236 -0.053495336 -0.017777288 -0.012304329
000210 ca c2 7e bb 44 5b 13 be c5 22 54 3c 67 83 27 3e
       -0.0038873428 -0.14390284 0.012947743 0.1635872
000220 0a 1a 11 be 3f a1 c1 3b 1e 6c 47 be 38 88 11 be
       -0.1417009 0.0059091146 -0.19474837 -0.1421212
000230 ab d1 fc bc 70 50 0f 3e 52 a0 2b be ee 9b 87 bd
       -0.030861696 0.13995528 -0.16760376 -0.06621538
000240 0e c8 c4 bd 49 9c 11 be 0d 71 21 3e b3 eb 29 be
       -0.0960847 -0.14219774 0.15765782 -0.16593818
000250 c0 83 2e 3e 36 3e d7 3d 8e 83 02 3e 53 46 d6 bd
       0.17042446 0.10509913 0.12745497 -0.10462632
000260 23 72 a5 bd ac 7b ff 3b 89 a0 f3 bd ac 2f 98 bd
       -0.080784105 0.0077967253 -0.11895854 -0.07430968
000270 88 5f 0c be ec 82 bb 3d b6 91 c5 bc 9d 36 e3 3d
       -0.13708317 0.09155831 -0.024117332 0.11094401
000280 7e 72 65 bc 01 63 bc 3d 3e 7c 50 bd 6d 02 94 bd
       -0.014004348 0.09198571 -0.050899737 -0.07227025
000290 df 59 56 bc 8a 53 ed bd 10 e1 34 3e df e9 2b 3e
       -0.01308295 -0.115881994 0.1766398 0.16788433
0002a0 3e 86 28 bd 6c 2e d9 3d c5 d1 9b bd 25 b0 da bd
       -0.04114365 0.106045574 -0.0760837 -0.10678128
0002b0 76 69 2e 3e be eb e1 bd 29 94 5a bb ce 59 04 be
       0.17032418 -0.110312924 -0.003335247 -0.12924883
0002c0 f3 13 c8 bd ce af af bd 2e 6a 1b 3d 8e b6 a3 3b
       -0.0976943 -0.08578454 0.037943058 0.0049961274
0002d0 ab 91 c9 3d 6c bb 0b be 9c 86 9b 3d 6e c2 11 3c
       0.09842237 -0.13645715 0.07594034 0.008896453
0002e0 67 ab 2e 3e 3d e2 1d 3e 51 e8 1e bd e7 da f2 3d
       0.17057572 0.15418334 -0.038795773 0.118581586
0002f0 c4 c5 83 3d 1c 51 2c 3e 6f 36 3c 3b 02 a7 83 3b
       0.06434205 0.16827816 0.0028718968 0.0040177116
000300 71 01 8d 3d c5 f6 16 3e 42 17 33 be 8c b6 eb 3d
       0.068850406 0.14742573 -0.17489341 0.115094274
000310 6e 2f b8 3c 00 55 cb bd bc 78 ac 3c e9 92 40 be
       0.022483554 -0.09928322 0.021053664 -0.18806042
000320 6e 8d 1d 3e ba 8f ff 3c 57 ec 22 3e 3a 1a d8 bd
       0.15385982 0.031196464 0.15910469 -0.10551877
000330 e7 72 2c 3e de 18 51 3d 29 c6 29 3e 65 0f 24 be
       0.16840707 0.051049106 0.16579498 -0.16021498
000340 5f bf 22 be da e9 c3 3d f5 08 cf bc e4 3a 26 be
       -0.15893315 0.09566088 -0.025272826 -0.16233402
000350 09 e2 44 3d 38 1c 19 be 4b 9b c7 3d 35 3e 0f 3e
       0.048067126 -0.14952171 0.09746417 0.13988574
000360 21 7b 2e be cc 00 9b 3d 89 be b2 bd db 6e 1c be
       -0.17039157 0.07568511 -0.08727748 -0.15276663
000370 b0 00 46 3c 28 9a f6 bd a8 5c 11 3c 84 af 18 3e
       0.012085125 -0.12041122 0.008872189 0.14910704
000380 3c 44 60 3d f9 1f 7e bd 04 8d 2a bb e6 34 bd bd
       0.054752573 -0.06204221 -0.0026023993 -0.09238605
000390 d4 1c 30 be 31 c5 16 3e 74 4f 00 3e 8d c2 a9 bd
       -0.17198497 0.1472366 0.12530309 -0.08289061
0003a0 91 9f 1f 3e 4b 77 b3 3d 79 df b6 3d 95 6b 8b bd
       0.15588214 0.08762988 0.08929343 -0.06807629
0003b0 04 60 17 bd db d2 ea bd 1d de c3 3c a4 9a b6 3d
       -0.036956802 -0.11465999 0.023909623 0.08916214
0003c0 2f 80 3d be 38 b9 99 bd 85 69 6f 3d a4 88 40 3d
       -0.1850593 -0.07506031 0.05845024 0.04700531
0003d0 fe 9b dc 3c 3a 24 8c 3d ad 10 95 3d 95 6f 0d 3d
       0.026929852 0.06842847 0.07278571 0.03453024
0003e0 21 56 29 bd 44 a0 c1 3d d8 56 88 bd b7 00 ba bd
       -0.041341905 0.09454396 -0.06657189 -0.090821676
0003f0 33 7a b0 bc 68 d9 8c 3d 37 24 7d 3d 9d 80 01 3c
       -0.021542644 0.068774045 0.061802115 0.007904199

GAT_layers.1.GAT_heads.1.f.bias f4 [64]
000000 b7 a4 ac bd 36 76 92 bd 42 b4 ca bd 33 5c 3b bc
       -0.08429854 -0.07151453 -0.09897663 -0.011435556
000010 fd ee 38 3d 42 3d b2 bb dd 09 65 3c db 4c d3 3c
       0.045149792 -0.0054394314 0.013979402 0.025793483
000020 ca 44 9c bd 2c 86 51 3d 1c 70 e1 b9 86 a6 92 bc
       -0.07630308 0.051153347 -0.00042998872 -0.01790167
000030 73 81 a5 bd e5 9b 5c bd ca fa bf bc 26 87 d3 3c
       -0.08081331 -0.05385961 -0.023435015 0.02582128
000040 bf 5c 95 3c cf 09 dc bb 8b c0 64 3d 49 ab 10 3d
       0.018232701 -0.0067150365 0.055847686 0.0353196
000050 67 1b fa 3c e0 4b 02 3d 37 28 8a bd 28 12 1b bd
       0.030530645 0.03181064 -0.067459516 -0.037859112
000060 e6 17 e3 3c 61 14 06 b9 f0 54 1d bd 66 58 ad bd
       0.027721357 -0.00012786828 -0.03841108 -0.08464126
000070 3d 1c 2e 3d 66 c9 13 3d f9 ab 15 3d 21 b6 df 3a
       0.0425074 0.03608074 0.03654096 0.0017067828
000080 47 0b 04 bd 03 f8 22 bc 40 b8 35 3d 05 b1 94 3c
       -0.032237317 -0.009946826 0.044365168 0.018150816
000090 11 86 a9 3c 71 9a 8f bd e6 57 2e bd c8 1f bb bd
       0.02069381 -0.07011879 -0.042564295 -0.09136921
0000a0 ce 62 42 bd 65 db 3d 3b de 57 a3 bd 27 b1 1a bd
       -0.04745751 0.002896988 -0.07975744 -0.037766602
0000b0 e5 9e f6 3c f2 ca a5 3b 16 a7 4a bd f1 9a ab 3c
       0.030105064 0.0050595934 -0.04947575 0.020947905
0000c0 9f 46 02 3d 2f 72 a5 bd e0 45 39 3c 26 7c 97 3c
       0.03180563 -0.080784194 0.011308163 0.018491816
0000d0 b4 dc 24 bd 3c e6 92 3d a7 08 11 3c ce 4c 8c 3c
       -0.04024954 0.0717282 0.008852161 0.017126467
0000e0 db 6e c7 3b ac a1 98 bd 68 9b a7 bd e7 a5 45 bd
       0.006086213 -0.074527115 -0.08183938 -0.04825392
0000f0 33 35 09 bb 12 99 8e bd 3d 42 cb bd 24 8f 2d 3d
       -0.002093625 -0.069627896 -0.09924743 0.042372838

GAT_layers.1.GAT_heads.1.w.weight f4 [1, 128]
000000 10 81 46 3e c5 92 ad bd 5b df 77 bd cd af 85 bd
       0.19385171 -0.0847526 -0.060515743 -0.06527672
000010 ed 90 f3 bd 48 30 8f bd a1 f8 da 3d a4 0a 35 3e
       -0.11892877 -0.06991631 0.106919535 0.1767984
000020 fd 69 d0 3d 01 13 db 3d 37 10 dd 3b c6 2d c6 bd
       0.10176466 0.10696984 0.0067463177 -0.09676699
000030 96 9e 05 be 1e 42 ba 3d ef 9a 68 be fa 78 bd 3d
       -0.13048777 0.09094642 -0.22715352 0.0925159
000040 e0 d9 b6 bd d2 8c c0 3c b8 24 a0 bd d2 7d d1 3d
       -0.08928275 0.023504648 -0.078195035 0.102290764
000050 35 81 27 be d0 b9 1e 3b c5 9b ce bc 58 77 32 be
       -0.16357882 0.002421964 -0.025220761 -0.17428339
000060 59 72 24 be e3 58 42 3e 4b 98 0a be f2 18 3b be
       -0.16059245 0.1897922 -0.13534658 -0.18271235
000070 5b f0 64 be dc 56 19 3d 37 3a 37 be 5a b2 e1 3d
       -0.22357313 0.03743635 -0.17893301 0.11020346
000080 a0 e3 34 3e 9a 57 e1 bb 78 d1 37 3d 9e 98 f9 bd
       0.17664957 -0.006876898 0.0448775 -0.121873125
000090 18 6e 34 3e 5e e4 14 be 49 00 a7 3d 03 df 8a bc
       0.17620122 -0.1454024 0.08154351 -0.016952043
0000a0 ab 06 24 3e 56 ce 21 bd 02 ca 5d be a6 04 bf bd
       0.16018169 -0.039503418 -0.21659091 -0.093270585
0000b0 1d 8c 6b 3d 28 ce 5c be 58 aa 39 3d 7d 78 03 be
       0.05750667 -0.21563017 0.045328468 -0.12838931
0000c0 31 ec 35 3e 6e 4e 36 be 23 0b f0 bd bd 14 00 be
       0.17765881 -0.17803356 -0.11720874 -0.12507911
0000d0 fd ad 19 be 7b 47 54 3d 0d e3 98 3d 85 c7 e8 bc
       -0.15007778 0.05182598 0.074651815 -0.02841545
0000e0 f2 54 bf bc f9 30 e3 bc 86 df a5 3c c2 74 2e 3e
       -0.023355935 -0.027733313 0.020248186 0.17036727
0000f0 5b 32 ee bc ec 50 df bd b4 55 f7 bd 61 5f fb 3d
       -0.029076746 -0.109041065 -0.120768934 0.122740515
000100 b1 96 0c 3e e4 9a 4b 3e a3 f4 25 be d7 0e 8e bd
       0.13729359 0.19883305 -0.16206603 -0.06936424
000110 00 1a 39 3e 5f e1 47 3e e3 b2 31 3e 6c 24 4f be
       0.18076324 0.19519566 0.17353396 -0.20228738
000120 09 b3 49 3e d8 c8 c1 3c 9b 07 32 be 7d b4 1a be
       0.19697203 0.02365534 -0.17385714 -0.15107913
000130 7a 9a ca bb 03 2d b7 bc e0 40 29 3e ce ce 18 3e
       -0.006182966 -0.02236033 0.16528654 0.1492264
000140 7c 14 ba 3d 65 fa 4e 3e 3c ef 49 3e 23 74 fb 3d
       0.09085938 0.20212705 0.19720167 0.12278011
000150 12 be 46 3e 3b e7 da bd a0 9f 44 3d e5 98 e7 bd
       0.19408444 -0.10688635 0.048003793 -0.11308459
000160 e6 ac 97 bd 49 30 0d bd 52 49 55 3e bb 92 40 be
       -0.07406025 -0.034469876 0.2082875 -0.18805973
000170 0b 63 3c 3d 9c 1c 15 be 89 c0 2a be 31 47 58 3e
       0.045992892 -0.14561695 -0.16675009 0.21120907
000180 99 e1 b7 3c 9c b6 2e 3e aa 1c 2f 3e cc 46 48 3d
       0.02244644 0.17061847 0.17100778 0.048895642
000190 ed 89 0b 3d 53 fc 8e 3d dd 63 e9 bd 67 56 14 be
       0.034067083 0.06981721 -0.113960005 -0.14486085
0001a0 d0 df e2 bd 9a e8 e9 bc aa f7 ec 3d d0 10 d6 3d
       -0.11077845 -0.028553296 0.11570676 0.104524255
0001b0 53 ed 9a 3c 60 7f 0b 3e 18 af 2f bd 36 4a 58 be
       0.018911993 0.13622808 -0.04289159 -0.21122059
0001c0 fb b1 9d bb c9 b1 c7 bd d4 db 8d 3d e0 b2 0b 3e
       -0.0048124767 -0.09750707 0.069266945 0.13642454
0001d0 6c 2d 34 3d 83 fe 1c be dd a0 f2 bc d5 ae 50 3e
       0.04398863 -0.15331464 -0.029617721 0.20379193
0001e0 4f 87 db bc 9b c5 83 bd 0f d8 2a 3d 8c a2 49 be
       -0.026797919 -0.064341746 0.041709956 -0.19690913
0001f0 15 95 06 bd a5 05 ee bd d2 ba 0b be cc dd 44 be
       -0.03285702 -0.1162217 -0.13645485 -0.19225234
