SLIC_GAT/hh_n_0/last0.pt (torch, 580781 bytes, 30 tensors)

GAT_layers.0.GAT_heads.0.f.weight f4 [32, 124]
000000 33 cd 4c 3e d0 46 9b 3c e4 3e d0 bd c2 e9 fc 3d
       0.20000152 0.018954664 -0.101682454 0.12349273
000010 d0 3c e5 3d 96 11 42 ba 3f a7 02 be 8d b9 b5 3d
       0.1119324 -0.0007403133 -0.12759112 0.08873282
000020 cc 54 a3 bd ae c4 ba bd 4f 50 4d bd a9 b4 63 3d
       -0.07975158 -0.09119545 -0.050125416 0.055592213
000030 e7 b4 1f be 98 d1 45 be ec 15 d1 bd 1d 8f 3f bb
       -0.15596353 -0.19318235 -0.102092594 -0.002922959
000040 39 60 07 be 7b 32 3f 3e aa 7d 15 be 82 fa e4 3d
       -0.132203 0.186716 -0.14598718 0.11180593
000050 52 fb ff 3d f2 0d 9b bc fc 4e af 3b 51 f6 28 3b
       0.124991074 -0.018927548 0.005349992 0.0025781582
000060 36 83 d9 bd 78 49 df bd bb 4d 05 be fa 39 b3 bc
       -0.106207296 -0.10902685 -0.13017933 -0.021878231
000070 d5 4d ed 3d 9b 9e d6 bd cf c2 01 bd 0f ec f5 bb
       0.11587111 -0.1047947 -0.031679925 -0.007504947
000080 c0 f2 ba bd ad a2 89 3d 46 9c 25 3e 81 32 53 3d
       -0.09128332 0.06720481 0.16172895 0.051561836
000090 80 4d 34 bd 41 2c 83 bd cb 8b a1 bc 46 83 c7 3d
       -0.044019222 -0.06404925 -0.019719979 0.09741835
0000a0 f4 de a7 3d f8 6d b4 bd 31 e4 d1 bc e0 d1 3e be
       0.08196822 -0.088100374 -0.025621505 -0.18634748
0000b0 de 57 4b 3d 53 6b 28 bd 2b cd f6 3c a8 03 cb 3d
       0.049644344 -0.041117977 0.030127129 0.09912807
0000c0 57 af da bd 2f 64 4d bd d9 17 39 3e 73 3d 4a 3c
       -0.10677975 -0.05014437 0.18075503 0.012343752
0000d0 04 4c 8a 3d 36 23 28 3e b7 e2 38 3d 73 c7 7b bd
       0.0675278 0.16419682 0.045138087 -0.061469506
0000e0 02 c5 8b bd ee 0b 24 3d a0 bb 0c be 9a 01 29 be
       -0.06824686 0.04005044 -0.13743448 -0.16504517
0000f0 56 a3 99 3d c9 33 3e 3e de c9 42 3e 99 d6 2c 3e
       0.07501857 0.18574442 0.19022319 0.16878738
000100 52 bf 36 3e fb ba 50 3d a0 40 34 be 85 e5 c2 3d
       0.1784642 0.05095957 -0.17602777 0.095164336
000110 2c cf 48 3e 4c ae 9f bd 11 3e a2 3d f8 39 66 bc
       0.1961028 -0.07796916 0.079219945 -0.014051907
000120 a4 9f 02 3e 2d ee 3d bd 77 d2 84 bd e4 e3 47 be
       0.1275621 -0.04636972 -0.064854555 -0.19520527
000130 0c 43 55 bd 9c 9b 0c 3e d4 32 34 bc 93 0f ef bd
       -0.052065894 0.13731235 -0.0109984465 -0.116728924
000140 4e c7 5c 3d cf 05 21 3e 33 2c 79 bc 76 a1 3d bd
       0.05390101 0.15724872 -0.015208292 -0.04629656
000150 51 69 00 be ad 67 14 be 22 b4 b6 3c 9a 53 fb 3d
       -0.12540175 -0.14492674 0.02230269 0.12271805
000160 ce 49 3a be 50 2a d8 bc e8 c7 87 bd 6c 08 c6 3d
       -0.18192217 -0.026387364 -0.06629926 0.09669575
000170 ea bf c8 bd 0c e5 08 3d c3 23 87 3d fe 65 08 be
       -0.0980223 0.03342156 0.06598618 -0.13320157
000180 e3 7e d6 bd 44 02 50 3e 07 aa 81 bc 78 22 20 be
       -0.104734205 0.20313364 -0.015828146 -0.15638149
000190 96 18 28 39 f5 bd 5c bd 11 78 04 3e 12 eb 82 3b
       0.00016030887 -0.053892095 0.12936427 0.0039953077
0001a0 62 bf eb 3d 42 a2 94 3d ab eb eb 3d 4c f8 b0 3c
       0.11511113 0.07257511 0.115195595 0.021602772
0001b0 25 b1 0e be 5a 66 04 be a7 3e 34 be f4 1b 03 3e
       -0.13934763 -0.12929669 -0.17602025 0.12803632
0001c0 61 91 f7 bd 54 b7 e2 bd 63 eb 6a 3d 77 72 3d be
       -0.12088276 -0.11070123 0.05735339 -0.18500696
0001d0 e7 d4 c0 3d cb f0 da bd 80 e5 3f be bd 54 21 be
       0.09415608 -0.10690459 -0.18739891 -0.15754981
0001e0 1e 3a 11 3d dd 95 ad 3d 82 52 61 3d d4 47 d7 bd
       0.035455815 0.0847585 0.055010326 -0.10511747
0001f0 30 7a 0f be 29 b6 24 3e 53 8c 1f be 56 b5 1d bd
       -0.14011455 0.16085114 -0.15580873 -0.038503014
000200 76 b2 01 3e 89 75 3d 3e 3e 93 2c bd de 31 27 3e
       0.12665734 0.18501867 -0.04213261 0.16327617
000210 d7 f8 11 3d f3 3e a9 bd 16 67 86 3d 06 6e 0a be
       0.035637703 -0.0826396 0.06562631 -0.13518533
000220 9b 90 49 be 12 e4 f8 3d 06 ce ca bd 8b 02 26 3c
       -0.19684069 0.12152876 -0.09902577 0.010132442
000230 4b cf 93 3d 84 6d 23 3e 1f 17 9b bd 7f e0 a0 3d
       0.07217272 0.15959746 -0.075727694 0.07855319
000240 a9 f0 23 be f1 33 8c 3d bb 20 2d 3e 7c 93 22 3e
       -0.16009773 0.068458445 0.16907017 0.15876573
000250 92 99 00 3d 3f d5 00 3e e9 41 12 bb 9f b5 51 be
       0.031396456 0.12581347 -0.0022317118 -0.20479439
000260 74 97 44 be 4b 62 05 3e 8c 74 b4 3d c2 38 81 3d
       -0.191984 0.13025777 0.08811292 0.06309654
000270 69 06 22 3e 8c 7b 32 3e 7f 54 08 be 14 25 c2 3c
       0.15822758 0.17429942 -0.13313483 0.02369932
000280 4d bb 84 3d 7d db c2 3d c4 f0 25 be 42 bc df bc
       0.06481037 0.0951452 -0.16205126 -0.027311448
000290 84 b8 26 be 7b 99 c9 bc 1a 37 05 3e 0c 2d 2c be
       -0.16281325 -0.024609318 0.13009301 -0.16814059
0002a0 a2 5c 85 3c d7 ee 8d 3d 30 aa ed bd 3e 42 e3 ba
       0.016279522 0.06930321 -0.11604726 -0.0017338467
0002b0 1b e6 48 bd 49 df 9a 3d fa f6 b8 bd 03 fd 1c be
       -0.04904757 0.075621195 -0.09031482 -0.15330891
0002c0 1e 66 63 bd ff e9 fb bd 62 35 c7 3c c8 da 2e 3e
       -0.05551731 -0.123004906 0.024317447 0.17075646
0002d0 e4 6d 80 3d d5 ca 2a bd e7 b0 32 bd 24 24 2c 3e
       0.0627096 -0.041697342 -0.04362574 0.16810662
0002e0 b4 7e b4 bc 1a b7 2e be 58 d8 1d 3e 70 fc 4c 3d
       -0.022033073 -0.17062035 0.1541456 0.05004543
0002f0 af 4a 09 be 05 5a 44 be 4a 29 c9 bc 31 55 de bd
       -0.13407396 -0.19174965 -0.024555821 -0.10856093
000300 b6 55 b0 bd e3 55 ba bc 11 01 3d 3e 0c d6 be 3a
       -0.08610098 -0.022746032 0.18457438 0.001455964
000310 d4 4e 21 be e8 3f f2 3d 2b 8e 17 3e 2e fd f6 3d
       -0.15752727 0.118285954 0.14800327 0.12060009
000320 bd 52 3a be 4b 77 19 be e3 27 3a 3d b9 b1 8c 3d
       -0.18195625 -0.14986913 0.045448195 0.068698354
000330 8f be f2 bd 30 79 c5 bd 5f 52 49 3d 3e 40 31 3e
       -0.118527524 -0.09642255 0.04915082 0.17309663
000340 19 5a 1e bd 0d ea a6 3d 58 82 1c be c8 6a df 3d
       -0.038660143 0.081501104 -0.15284097 0.10909039
000350 3f 9b c4 3c 9b 17 20 3e 5e 2d 37 be 52 56 3c be
       0.023999808 0.15634005 -0.178884 -0.18392304
000360 08 ce 88 3d 44 34 19 be b3 99 15 be f9 6d 38 be
       0.06679922 -0.14961344 -0.14609413 -0.18010701
000370 ca ff 86 bd 6c 78 1d bd ca 5f 0b be bd 3a 1f bb
       -0.06591757 -0.03844492 -0.1361076 -0.0024296485
000380 fb 3c fa bd 13 cc 52 bd b3 bb bf bd 8a 2f b5 bd
       -0.12218662 -0.05146415 -0.09361973 -0.08846958
000390 ce fd 20 bc a3 6e 82 bc 7c dd 02 be f0 d8 0d 3d
       -0.009826137 -0.015921896 -0.12779802 0.034630716
0003a0 aa 74 5d bd 9a 79 64 3d 15 e0 81 3d cd dc e9 bd
       -0.054066338 0.05578003 0.063415684 -0.114190675
0003b0 d7 f6 22 3e 09 14 19 be 40 4e 2f bd c3 87 c7 3d
       0.15914474 -0.14949049 -0.042799234 0.09742691
0003c0 00 dd 38 be 79 0f 08 be 1d a8 fa 3c 1a c6 ac 3b
       -0.18053055 -0.13287152 0.03059774 0.005272639
0003d0 02 c4 41 3d 68 75 40 be 8f e0 1c 3c 4d 0d 23 3e
       0.04730607 -0.18794787 0.009575023 0.15923043
0003e0 04 cd 08 be 16 b2 c9 3d b1 5a 18 be cf 63 6a 3d
       -0.13359457 0.0984842 -0.14878346 0.05722409
0003f0 05 a6 23 be ae 7c 92 3d 3a 7a 27 3e 72 9d 10 be
       -0.159813 0.07152687 0.1635522 -0.1412256

GAT_layers.0.GAT_heads.0.f.bias f4 [32]
000000 f1 85 30 bd 92 86 68 3d c3 e6 0c 3d be 58 d2 3c
       -0.043096486 0.05676896 0.03439976 0.025677081
000010 9e 1c 32 3d ac 65 85 3d 8d 5a 9c bd da 17 96 bd
       0.043484323 0.06513533 -0.07634459 -0.07328768
000020 a4 6f 89 bc 83 26 da bb 06 05 c9 3c ed bf 8d 3d
       -0.016776867 -0.006657423 0.024538528 0.069213726
000030 e4 69 04 bd e1 42 8f 3c 07 2e d9 bd 0f 57 ce bd
       -0.032327548 0.017487945 -0.10604482 -0.10075199
000040 e7 8f a3 bc c7 4b 82 bd 83 e7 26 3d 15 bf 43 bd
       -0.019966079 -0.0636211 0.04074813 -0.047789652
000050 4d 2a 4e 3b 9e 72 ac bd e4 9c c5 bd f8 c8 5c 3d
       0.0031458319 -0.08420299 -0.09649065 0.053902596
000060 e4 6a 1d bd db 58 03 bd 7b 08 47 3c bb 12 26 3a
       -0.038432017 -0.03206716 0.012148018 0.00063351885
000070 80 0b 33 3c 9d 42 2a bc 6c fb c5 3c ae 04 bb bd
       0.010928035 -0.010391858 0.024167739 -0.09131752

GAT_layers.0.GAT_heads.0.w.weight f4 [1, 124]
000000 7e 35 22 be 5e a7 b9 3b 00 58 2b 3d bb d6 ed 3d
       -0.15840718 0.0056657037 0.04183197 0.11613222
000010 40 48 1f 3e c2 df 32 3e 0c 97 88 3d 18 c0 c9 bd
       0.15554905 0.1746817 0.06669435 -0.09851092
000020 27 a7 16 be d5 f8 05 be 10 d6 56 3e c6 ad a6 bd
       -0.14712201 -0.13083203 0.20980096 -0.081386134
000030 f5 44 43 be be 29 be bc f9 84 c1 bd 7b 62 40 be
       -0.19069274 -0.023213264 -0.09449191 -0.18787567
000040 4f 4b c5 bd 23 c3 a5 bd 60 5a a1 3c 25 90 ea bd
       -0.096335046 -0.0809386 0.019696414 -0.11453275
000050 3c fe 30 be 32 b3 08 bd c3 ee b5 3d 6c 62 3f be
       -0.17284483 -0.03337402 0.08883431 -0.18689889
000060 84 8e 01 be b7 be 0a bd c1 da 96 bd 6a f9 02 3d
       -0.12652022 -0.033873286 -0.07365943 0.03197614
000070 26 61 61 3e fe 75 94 bd 7d c9 b6 bc 3a c0 3d bd
       0.22009715 -0.07249068 -0.022312874 -0.0463259
000080 4e 88 44 3e 8a 06 11 be 1e 2a 07 3e 51 a0 b6 3d
       0.19192621 -0.1416265 0.1319966 0.08917297
000090 1c 6f 04 3e af 34 72 3d 55 77 7a 3d 82 c7 ce bd
       0.1293301 0.059132274 0.06114896 -0.10096647
0000a0 77 c6 2c 3e 0d 11 5a be 2d 02 1c be 1d ff 2b bd
       0.16872583 -0.21295567 -0.15235205 -0.04199134
0000b0 77 00 10 bc b6 bd 19 3e b7 2b 2a 3d f9 0f 5c 3e
       -0.008789173 0.15013775 0.041545596 0.21490468
0000c0 38 2d dc bd 07 a7 6e 3e 96 1e 09 3e 3e c7 07 3d
       -0.10750812 0.23305903 0.13390574 0.033148997
0000d0 3a 47 92 3d 34 f8 08 3d 1f 03 9f b9 f0 88 30 be
       0.07142492 0.03343983 -0.0003032917 -0.17239738
0000e0 03 76 81 bd 58 87 6e bd ca 3d f7 bd 2c 75 51 be
       -0.06321337 -0.058234543 -0.12072332 -0.20454854
0000f0 0d 67 10 be c0 a9 9b bd 28 80 4f 3e c2 68 2a 3d
       -0.14101811 -0.076007366 0.20263731 0.04160381
000100 fd 50 a0 3d 42 79 34 3e 7f 86 6b 3e 2e 83 00 be
       0.07827947 0.17624381 0.23000525 -0.12550041
000110 5d ae cc 3d 35 19 42 3e 4a ec 85 3d 9d a0 23 bd
       0.09994195 0.18954928 0.06539209 -0.039948095
000120 d9 89 f7 bd 47 9b 02 be 6f 69 4e bd 4c 3c db bc
       -0.12086839 -0.12754546 -0.050393518 -0.02676215
000130 aa 79 d5 bc b7 5b 4c be 9d 0d 31 3e 4d 60 d8 3d
       -0.02605899 -0.19956861 0.1729035 0.10565243
000140 5e eb 94 bd 38 00 ec bd ce a4 52 bd fb 6d 4f be
       -0.07271455 -0.11523479 -0.0514267 -0.20256798
000150 70 b6 7e bc 6b 2f 65 bc 43 e0 8e bc 13 31 02 3e
       -0.015546426 -0.013988356 -0.01744092 0.12714033
000160 a1 a2 be bd be 11 fa bb 95 21 43 be a8 a2 f6 3b
       -0.09308363 -0.0076315096 -0.1905578 0.0075267144
000170 09 b8 5f be 55 ed 46 3c 0e 3b a4 3c 8e 7a 98 3d
       -0.21847548 0.012141545 0.02004769 0.074452505
000180 55 52 63 be 71 e4 4a 3e 9f 8f 10 be 8b fb 8b 3d
       -0.22199376 0.19813706 -0.14117287 0.068350874
000190 dd 5a 94 3d c9 c8 51 be 23 e9 fd bc 4b fd e9 bd
       0.07243893 -0.2048675 -0.030994957 -0.11425265
0001a0 55 18 d3 3d 36 b5 df bc 55 82 b8 bd f0 0c a1 bc
       0.10307375 -0.027308088 -0.09009234 -0.01965949
0001b0 89 6f 22 3c cf f8 2a 3e 6c 32 9c 3d 2b 1b 20 bd
       0.009914287 0.16696475 0.07626805 -0.03908841
0001c0 72 6a e1 bd 51 6f 09 be 7d fb 04 3e 37 53 19 3d
       -0.11006631 -0.1342137 0.1298656 0.037432875
0001d0 6f f3 e2 3d bf 92 2d 3d 5e f3 4a be 63 1d db bd
       0.110815875 0.042376276 -0.198194 -0.106989644
0001e0 35 af 17 b9 7b e3 44 bd dc 92 2c be 74 1a 7f bd
       -0.00014465752 -0.048068505 -0.16852897 -0.062281087

GAT_layers.0.GAT_heads.1.f.weight f4 [32, 124]
000000 0a ee 77 bd 2b 1d 13 3e 1d 55 55 bd af 58 32 be
       -0.060529746 0.14366595 -0.052083123 -0.17416643
000010 2d 95 1f bd ea 50 99 3d 61 09 d4 3d ee 9a df 3c
       -0.038960624 0.07486136 0.103533514 0.027295556
000020 d6 b3 1f be 23 9a 94 bd 4c d2 a5 3d af 3b 31 bd
       -0.15595946 -0.07255962 0.080967516 -0.04326981
000030 2e 5c 5e be 13 44 ac 3d 70 a3 14 3d a5 67 99 bd
       -0.21714851 0.084114216 0.03628868 -0.07490472
000040 81 fc af bd e2 a3 00 3e 9b f6 c9 3d 23 05 87 bc
       -0.08593083 0.12562516 0.098614894 -0.016481942
000050 57 ab b5 3b b6 56 5c 3d 65 55 0f bc 20 f2 04 be
       0.005544107 0.05379363 -0.008748387 -0.12982988
000060 16 fb 2a be 51 23 22 be 1d 59 fd 3d d5 1e 7d 3d
       -0.16697344 -0.15833785 0.12370513 0.06179698
000070 df d9 1b be 0a 33 99 3d e3 6d c6 b9 d1 a7 a0 bd
       -0.1521983 0.07480438 -0.00037847375 -0.078445084
000080 01 45 70 bc 01 97 d9 bd 00 05 3d be 22 48 13 3e
       -0.014664889 -0.10624505 -0.18458939 0.14382985
000090 63 03 ba bd f2 54 08 3e b7 c9 7c bd 00 57 70 3d
       -0.09082677 0.13313654 -0.061715808 0.05867672
0000a0 e3 b7 a2 3d ef 0a 01 3e 8f 1c 3b 3e 37 40 04 3d
       0.0794523 0.12601827 0.18272613 0.032287803
0000b0 63 05 02 be 9a 7e 3d bc 80 c6 d7 3d b7 1d 36 be
       -0.12697367 -0.011565829 0.10535908 -0.17784773
0000c0 6f 27 5a bd 90 c8 33 3d 7d 79 2c 3c 2a a6 bd 3d
       -0.053260263 0.043892443 0.010527012 0.09260209
0000d0 a2 96 3b 3c 31 60 0c be e1 0a b8 bd 94 50 d0 3d
       0.011449488 -0.13708569 -0.0898645 0.10171619
0000e0 10 e7 4d be 6b ef ae 3d 92 f8 0e 3e 28 c3 06 3d
       -0.20107675 0.08541759 0.1396201 0.03290096
0000f0 36 44 14 3e 87 e5 6a 3d 1c ca de 3d 12 a1 38 be
       0.14479145 0.0573478 0.10878393 -0.18030193
000100 69 46 07 3d 88 13 a7 3d 76 dd 13 be 48 72 2f 3e
       0.033026133 0.08158022 -0.1443995 0.17133439
000110 ea 67 1c be ea 22 2d 3d 46 14 a8 3b 5e ac 08 3e
       -0.15274015 0.042269625 0.00512937 0.13347003
000120 6d ab 0c 3e 71 c8 47 bd c5 29 8b bd b1 6c 90 bd
       0.13737269 -0.04877514 -0.06795076 -0.07051981
000130 bd e0 f6 3c 9f e3 ae bb 14 ce 1a bd a7 15 7a bb
       0.03013646 -0.005337193 -0.037794188 -0.0038159878
000140 c7 fa 17 3e 01 5d ec 3d f2 16 e3 3c 73 9b 54 be
       0.14841758 0.115411766 0.027720902 -0.20762424
000150 6e ae bf 3b 0f 94 15 3e f6 3f b9 3d ba 51 3e bd
       0.005849651 0.14607261 0.09045403 -0.04646466
000160 9b 8a 26 be 6a 28 a8 3d 10 07 ae bd 8d 04 fd bd
       -0.16263811 0.08210833 -0.08497441 -0.123543836
000170 50 9d 26 be 95 2c 2d 3e 42 24 2b 3e f8 d1 43 be
       -0.16270947 0.16911538 0.1671305 -0.19123065
000180 e5 79 7f 3d cf cc 9a bd a6 98 9e bd 6d 33 61 3d
       0.062372107 -0.075585954 -0.07743959 0.054980684
000190 46 b6 23 be 97 05 90 3d 71 b6 83 3c 69 92 17 bd
       -0.159875 0.07032316 0.016078206 -0.037004862
0001a0 ca 43 1b 3d 90 75 f8 bd b8 77 c3 3c 2a d6 68 3c
       0.037906446 -0.12131798 0.023860797 0.014211217
0001b0 91 21 33 3e cf a1 d4 bd b6 c7 7c bd 98 53 2f 3e
       0.17493273 -0.10382425 -0.061713897 0.17121732
0001c0 65 9e 38 3d 07 88 4e be 57 3a 47 be a5 3e 1f be
       0.04507293 -0.20169078 -0.19455849 -0.1555124
0001d0 bf 88 7d bd cd 8e 24 be 63 da e5 bc 01 14 9b bd
       -0.06189799 -0.16070099 -0.028058236 -0.07572175
0001e0 45 d9 e3 3d 62 b0 1f be 26 17 b7 bd 2c e1 12 3e
       0.11125425 -0.15594628 -0.08939962 0.14343709
0001f0 6b 93 92 bd a2 36 89 b9 7e d6 3b 3d dd 33 ba bd
       -0.07157024 -0.0002617138 0.045858853 -0.090919234
000200 16 88 08 be 5d 2e f1 bc 2d 2d f0 bd 83 62 82 bd
       -0.13333163 -0.029441053 -0.117273666 -0.06366446
000210 74 00 13 be a3 fb 83 bd 91 ee 03 3e 82 45 9f 3d
       -0.14355642 -0.0644448 0.12883975 0.077769294
000220 d4 b5 a2 bd aa 30 e1 bd 35 4b ac bc d4 23 53 3c
       -0.07944837 -0.1099561 -0.021031955 0.01288696
000230 d9 51 0d bd 42 cd 05 3d 5c f4 80 bd f2 73 e2 bd
       -0.034501884 0.032666452 -0.06296608 -0.11057271
000240 c4 45 b3 bd fd e5 08 3c 79 30 70 3c 43 dd 2b 3e
       -0.08753541 0.008355615 0.014659994 0.16783623
000250 42 2e 9d 3d 35 f1 70 bc 50 f3 18 be 70 c9 67 bd
       0.076748386 -0.014705946 -0.14936566 -0.05658859
000260 17 93 56 3d 72 f9 42 3e 45 0b 00 3e 43 51 0a 3a
       0.05238637 0.19040468 0.12504299 0.0005276391
000270 ed 45 ef bd 8f 26 0a 3e 39 35 a0 bc 8d e4 78 3d
       -0.11683259 0.13491271 -0.019556629 0.060764838
000280 8d 19 38 3d c9 85 d3 3d da 6d 82 bc ec b9 19 3e
       0.044946242 0.10328252 -0.015921522 0.1501233
000290 14 a3 2b be 24 98 fd 3d 92 cb 93 bd cc ae 2b be
       -0.16761428 0.12382534 -0.07216562 -0.16765898
0002a0 5f c3 37 3e 55 a1 7f bd bb 71 b6 bd 86 80 20 be
       0.17945622 -0.062409718 -0.08908411 -0.15674028
0002b0 bd e0 45 bd f4 ed a9 bd 22 99 f8 bd 13 c6 07 3e
       -0.04831003 -0.08297339 -0.12138583 0.13259153
0002c0 af f1 39 be 8a ae 5d 3c 7a 7b e6 3d 00 3e 23 be
       -0.18158601 0.013530383 0.1125402 -0.1594162
0002d0 b0 49 ca bd 6a fb 80 3d 4c 69 24 3c c4 40 6e 3d
       -0.09877336 0.062979534 0.01003487 0.058167234
0002e0 12 44 2b 3e a7 e5 f7 bc a8 41 97 bd 7d 39 96 3d
       0.16725186 -0.030260874 -0.0738557 0.07335184
0002f0 72 6f b0 3d 4d 85 26 3e ad 59 1d be 3e 3c 85 3d
       0.086150065 0.16261788 -0.1536624 0.06505631
000300 0f 67 3c be 53 67 13 be 0b 8c 8c bd 13 17 1d be
       -0.18398689 -0.14394884 -0.068626486 -0.15340833
000310 94 9a b7 3d 7e 70 36 be 01 d9 b6 3d cd e7 02 3e
       0.0896503 -0.1781635 0.08928109 0.12783737
000320 3d 8b 08 3e b0 e6 d1 bd 9b 99 a0 3d cf 70 32 3e
       0.13334365 -0.10249078 0.07841798 0.17425846
000330 07 ce 27 3c 68 71 2a 3e f8 7f 04 be f6 d1 46 3e
       0.010241992 0.16644824 -0.12939441 0.19416031
000340 22 14 9e bd 93 79 c8 bd aa df d3 bd 61 d5 06 bd
       -0.07718684 -0.097888134 -0.10345395 -0.032918338
000350 1a f2 30 be 39 0a 26 3e 7b 86 a0 3d 70 8b a1 bc
       -0.17279854 0.16214837 0.0783815 -0.01971981
000360 1b dc 71 bd 74 30 00 be 73 17 3e 3c 65 18 32 3e
       -0.0590478 -0.12518483 0.01160227 0.17392118
000370 81 7d 81 3d 86 66 49 be 10 8c 46 be 5c dd 3f bd
       0.06322766 -0.19668016 -0.19389367 -0.046841964
000380 1f 48 c5 bd f7 2e 86 bd e3 03 8e bd 6f 39 b6 bd
       -0.09632897 -0.065519266 -0.06934335 -0.08897673
000390 57 f3 fc bc 41 65 00 be 73 ae 91 3d db 55 7b bd
       -0.030877752 -0.12538625 0.07113352 -0.061361175
0003a0 33 89 30 bd 3f 0d 19 3e 6b 13 41 3e 18 3a 14 be
       -0.043099593 0.14946459 0.18855064 -0.14475286
0003b0 02 35 bf 3d d8 66 f6 3d 55 d1 00 be b8 63 1e 3e
       0.09336282 0.12031335 -0.12579854 0.15467727
0003c0 7e 90 26 be 51 74 24 3d 52 d7 05 3e 81 f5 32 3e
       -0.16266057 0.04014999 0.1307042 0.17476465
0003d0 ea 46 c7 3c 46 84 cb 3d fd 9f 56 3d 84 00 2d be
       0.024325807 0.099373385 0.05239867 -0.16894728
0003e0 38 3d a7 3d 90 9a 6e 3c 7e 1a ad bd 20 dd f4 3d
       0.081659734 0.014563218 -0.084523186 0.11956239
0003f0 06 ef 28 3e f1 19 c8 3d 31 95 a4 3b 2e 26 e2 bd
       0.1649743 0.09770573 0.005022668 -0.110424384

GAT_layers.0.GAT_heads.1.f.bias f4 [32]
000000 2d 09 05 bd dd 80 b0 3d c9 85 15 bc ca c5 3c 3d
       -0.032479454 0.08618329 -0.009126135 0.046087064
000010 87 a1 ed 3c e9 d9 53 bd 07 3c 4a bd e7 3c c8 3c
       0.029007686 -0.051721487 -0.049373653 0.024443103
000020 96 67 12 3d e6 d3 9f bd a4 64 87 bd 34 f2 cf 3c
       0.03574332 -0.07804088 -0.066109926 0.025384046
000030 90 7a 6e bc 23 b3 4e 3b dc 18 d5 3c 73 ac a4 bd
       -0.014555588 0.003153988 0.02601283 -0.080407046
000040 db ac 6e 3d 69 0f b5 3d 62 17 f6 3c be 11 3a bd
       0.058270317 0.0884083 0.030040447 -0.045427077
000050 c6 ed 99 bd 5a ae b3 bc 66 11 60 bd 7f 02 ac 3d
       -0.07516055 -0.021933723 -0.054704092 0.083989136
000060 b0 40 6b 3d b0 c7 50 3d 06 b5 86 3d e4 7d 62 bd
       0.057434738 0.050971687 0.06577496 -0.05529584
000070 65 00 af bd eb 48 16 3c c4 62 02 be c9 19 06 bd
       -0.08544997 0.009172658 -0.12732989 -0.032739434

GAT_layers.0.GAT_heads.1.w.weight f4 [1, 124]
000000 80 00 fb bd 80 b7 05 3e 83 2c e2 3d 89 22 62 3d
       -0.12255955 0.13058281 0.11043646 0.055208717
000010 c5 94 fc bd 2c d2 cf 3d 04 54 98 3c 94 fd aa bd
       -0.12333063 0.10147509 0.01859475 -0.083491474
000020 bb 9e 98 bd 3b 95 74 be c8 cc e1 bd 85 b0 ec bd
       -0.074521504 -0.23885052 -0.11025387 -0.11557106
000030 9d 69 67 3d 9c 80 fd 3d ff 66 17 3e d7 6e 13 be
       0.056497205 0.12378046 0.14785384 -0.14397751
000040 3b 72 ad 3d e5 41 3a be e7 49 d4 bc 98 ff 04 3e
       0.08469053 -0.181892 -0.025914146 0.12988126
000050 f4 55 1d be d8 1e 66 3e ca c3 32 3e 9c da c6 bd
       -0.1536482 0.22472703 0.174575 -0.09709665
000060 e0 d7 97 bd 94 43 f0 3d c2 87 0f be 6e de fa 3c
       -0.07414222 0.117316395 -0.14016631 0.03062364
000070 56 2e 97 3d 62 04 b4 bd 1d 2c 38 be 98 f6 0f 3e
       0.07381885 -0.087898985 -0.17985578 0.14058912
000080 f6 76 29 3e 9b 90 11 3e 29 ca 27 3e 05 93 33 bd
       0.16549286 0.14215319 0.16385712 -0.04384138
000090 99 03 e9 3d f0 4b 57 be 23 c4 46 be 23 5f 5f be
       0.11377639 -0.21025062 -0.19410758 -0.21813636
0000a0 3b 9b 3b 3e 97 30 25 3e 1a 93 92 3c 1c 70 2d 3e
       0.18320934 0.16131817 0.01789241 0.16937298
0000b0 44 7a c7 bd 8e 31 b5 3d 9e b9 8a 3c 07 be 52 be
       -0.09740117 0.088473424 0.016934212 -0.20580302
0000c0 e9 ea c1 bd 6d 66 de 3d f9 a2 07 3e 95 0e 78 bd
       -0.09468634 0.1085938 0.13245763 -0.06056078
0000d0 e7 44 ac bd de 10 fa bd a7 9f 49 3d 34 ea 44 be
       -0.084115796 -0.122102484 0.049224522 -0.19229966
0000e0 55 eb fe 3d 38 43 ac bd 21 b6 3f be a0 70 9e bd
       0.1244723 -0.084112585 -0.1872182 -0.07736325
0000f0 4b ad 83 3e 37 e3 28 be f5 47 e5 3c 98 d4 3b be
       0.2571815 -0.16492926 0.027988413 -0.18342817
000100 4e 6a 43 3e 43 fc 5b 3e 76 8d 83 3d ce 44 49 3e
       0.19083521 0.21482949 0.06423466 0.19655153
000110 22 47 e3 3c 3b a7 1f 3e 90 d1 06 be 03 9d fa 3d
       0.02774388 0.15591137 -0.13165879 0.12236979
000120 4f 4a 4a be 8a 42 f8 3d 34 02 a8 3c 20 ea 6e 3e
       -0.19754909 0.12122066 0.020508863 0.23331499
000130 4e 55 02 3e 36 ea 8d bd 5e b9 e0 3d e4 b5 51 be
       0.12727854 -0.06929438 0.10972856 -0.20479542
000140 96 ac 1b 3c 1e 99 11 be 2c 16 6b be 29 e2 1b 3e
       0.009501597 -0.14218566 -0.22957677 0.15222992
000150 40 c7 0e 3e 8a 81 9f 3d 30 a3 4d bb 1b 8b d8 bc
       0.13943195 0.077883795 -0.0031377785 -0.026433518
000160 c5 54 28 3e d8 54 1b be a8 b3 73 bd 7e 1f 00 3e
       0.16438587 -0.15169084 -0.059497505 0.12512013
000170 c9 af a6 3d 65 52 9a bd 09 29 be 3d 81 53 29 3e
       0.08138997 -0.07535247 0.092851706 0.1653576
000180 6a a0 f9 3d 6e 16 be bb d2 43 20 be 85 77 d4 bd
       0.121888 -0.0058010137 -0.15650871 -0.10374359
000190 93 25 52 be 95 7d 2c 3d 0e b4 e8 3b 75 e7 18 3e
       -0.20522146 0.04211195 0.0071015423 0.14932044
0001a0 c6 88 47 be 0e 6b 6f bd d8 95 8b bd 02 fe 60 3d
       -0.19485769 -0.058451705 -0.0681569 0.05492974
0001b0 46 85 3b 3e 98 a2 60 bc 59 38 21 3e a0 41 08 bd
       0.18312559 -0.01371064 0.15744151 -0.03326571
0001c0 4f 41 87 3d cf b5 04 3e d8 00 2e be 13 24 3f be
       0.066042535 0.1295998 -0.1699251 -0.18666105
0001d0 e6 5d 8a 3d 68 f0 d0 bc 55 41 3d be 23 20 49 3e
       0.06756191 -0.02550526 -0.18481953 0.19641165
0001e0 47 ee b2 bc 56 06 4e 3e 9d 0e 48 3e 61 a2 d0 3d
       -0.021842135 0.20119604 0.19536825 0.10187221

GAT_layers.1.GAT_heads.0.f.weight f4 [64, 128]
000000 eb 76 01 3e ec 7c 3c be 7b c9 91 3d 85 bd cb bd
       0.1264302 -0.18407029 0.071185075 -0.09948257
000010 91 3e c0 bb 20 1f ac 3c a6 f7 18 bd 87 64 af 3d
       -0.0058668335 0.021010935 -0.03734555 0.08564096
000020 77 e0 05 be 9e 41 f0 3d 0c 72 28 3e c0 3e 20 be
       -0.13073908 0.117312655 0.16449755 -0.15648937
000030 dd 33 4d 3d 1e d4 f8 3d 23 d5 05 3e 9f 03 2e bd
       0.05009829 0.12149833 0.13069586 -0.042483922
000040 fb 3b e1 3d 5b 49 fc bd ef 13 c2 bd 5d d3 7b bd
       0.109977685 -0.12318679 -0.09476458 -0.06148087
000050 b4 f9 a7 3d 9c 3f 62 3d 65 12 27 be 66 2e b8 3d
       0.08201924 0.055236444 -0.1631561 0.08993225
000060 40 c2 e3 3d 97 19 18 3e 8c 0a 53 bc 31 ff b2 3d
       0.111210346 0.14853512 -0.012880933 0.0874008
000070 eb 59 06 be eb 3a 3e bd b6 e7 b5 3c 63 ad cd bd
       -0.13120238 -0.046442907 0.022205215 -0.100428365
000080 71 38 b8 3d 35 43 25 be f2 d6 ca 3c d8 ff f0 3d
       0.0899514 -0.16138919 0.024760697 0.11767548
000090 8d 68 59 bd 33 64 01 be de e8 bd bd 3f 0a f1 bd
       -0.053078223 -0.12635879 -0.092729315 -0.117695324
0000a0 cb f5 f0 bd 16 da 22 3e 0d 2e 2e be 45 7c 47 be
       -0.11765631 0.15903506 -0.17009754 -0.19480999
0000b0 24 7a ce 3d 7d 83 1f be da c1 27 3e 05 9a fa 3d
       0.1008189 -0.15577503 0.16382542 0.12236408
0000c0 9f d0 9e bc 33 77 17 be 17 34 d8 bd d2 2b 06 3e
       -0.019386588 -0.14791565 -0.1055681 0.13102654
0000d0 e5 1a ac bd ca 28 76 3c 1a fc f5 3a 46 ae 6d 3d
       -0.08403567 0.015024373 0.0018767149 0.05802753
0000e0 8b 27 f7 3d 39 f7 e7 3d 1c 04 33 3e 04 c1 16 3e
       0.12068089 0.11326451 0.17482036 0.14722067
0000f0 f2 2a df bc 3a 7c 22 3e c4 14 09 be ab f5 43 bb
       -0.027242158 0.15867701 -0.13386828 -0.0029901068
000100 d5 61 91 3c 85 0e 86 bd 48 e2 12 3e 0d 6a e5 bd
       0.017746845 -0.06545738 0.14344132 -0.11201868
000110 56 b6 ab 3d da 58 5e bc 92 61 e5 3d 30 32 20 3d
       0.08384387 -0.013570989 0.11200251 0.039110363
000120 e8 7e fd bd 6f 65 86 bd 40 f1 05 bc fe 7c 37 bd
       -0.12377721 -0.06562316 -0.008175194 -0.044796936
000130 b1 38 a3 3c ff fd 11 3e b4 98 1e 3e a6 0c f0 3d
       0.019924494 0.14257048 0.15487939 0.117211625
000140 52 02 30 3e 21 a3 d8 bd 7a 45 e9 bd c6 98 30 3c
       0.17188385 -0.10577989 -0.11390205 0.0107786115
000150 06 86 f7 bd 0c 7d e0 bc 53 df d3 3d 23 d6 60 3c
       -0.1208611 -0.027403377 0.1034533 0.013722929
000160 e3 fa 31 3d 90 d2 81 3d eb 1d f7 bd d7 aa f9 3d
       0.043452155 0.0633899 -0.12066253 0.12190788
000170 61 13 db bd 2e 92 5e bc 42 ea 23 be 9b 44 2d be
       -0.106970556 -0.013584657 -0.16007331 -0.16920702
000180 cd 6e 23 be fe 89 0d 3d a2 41 6a bd c4 b8 0e be
       -0.15960236 0.034555428 -0.0571915 -0.1393767
000190 60 85 14 3d e0 26 29 3e b3 79 49 bd 9c cc cc bb
       0.03626001 0.16518736 -0.049188327 -0.0062499773
0001a0 79 18 cf 3c 6b ea 18 3c 84 63 01 bd a1 01 8b 3d
       0.025280224 0.009333233 -0.031589046 0.0678742
0001b0 bf e9 90 bd c2 6d bf 3d 8b 06 95 3d 54 3e c2 3d
       -0.070758335 0.093471065 0.072766386 0.094845444
0001c0 41 43 a3 3d 8d 89 e2 3d 2b 18 f2 3d 89 09 ee 3d
       0.07971812 0.11061392 0.11821016 0.116229124
0001d0 a4 e9 d9 bc 34 56 d8 3d 8e 57 be 3d 9c e8 1e 3e
       -0.026600666 0.10563317 0.092940435 0.15518421
0001e0 d6 e7 02 3e e6 8a a3 bd 40 61 0b 3d 76 eb f1 bd
       0.12783751 -0.07985477 0.03402829 -0.11812489
0001f0 82 3b 81 3d 85 e1 71 bd 51 11 e0 3d d0 6c 58 3d
       0.06310178 -0.059052963 0.10940803 0.052838147
000200 cf 07 0a be 46 17 f1 3d a9 57 9c 3d 77 db db bd
       -0.13479541 0.11772017 0.07633907 -0.10735219
000210 d1 3d bf 3d 71 48 9f bc 42 e0 1e 3d 3d f6 0a 3e
       0.093379624 -0.019443722 0.038788088 0.13570495
000220 45 23 d7 bc 67 9d 4d bd e0 07 5e bd b9 8e d3 3d
       -0.026261935 -0.05019894 -0.05420673 0.103299566
000230 63 79 01 be 0f 61 09 3e 71 77 dd bd 72 f9 01 be
       -0.12643962 0.13415931 -0.10813797 -0.12692812
000240 1e 57 b1 bd fd 9a 9f bd 52 e9 2c 3e 58 fa 0b be
       -0.086591944 -0.077932335 0.1688588 -0.13669717
000250 19 44 40 bd 07 52 98 bd c1 ec 73 3d 96 66 1d be
       -0.046939943 -0.074375205 0.059551958 -0.15371165
000260 e2 5f c0 3d 62 a4 c2 3d 5d ae 31 bc 53 d8 1a be
       0.09393288 0.0950401 -0.010844794 -0.15121584
000270 2a 00 af 3c 4d 0f 28 be 14 b2 07 3e e3 34 f9 3c
       0.021362383 -0.16412087 0.13251525 0.030420726
000280 b6 87 8d bc a8 1d 26 3e 93 24 c2 bd 51 48 f9 3d
       -0.017276626 0.1622225 -0.09479632 0.121719964
000290 14 fa 51 bc dc a2 8d bd 39 bb 1f 3d 77 3d 28 3e
       -0.012815971 -0.069158286 0.03899691 0.16429697
0002a0 bf 39 cf bb 94 8d 08 bc 2a 48 30 be ba 83 55 3c
       -0.0063240225 -0.008334536 -0.17215028 0.013031894
0002b0 ee 36 19 be b2 62 c8 bd fd c6 b2 3c e7 ff 1a bd
       -0.1496236 -0.0978445 0.0218234 -0.037841704
0002c0 4d 69 bc bc c2 ba 18 be 19 ab 28 3e 81 9a 80 3d
       -0.02299943 -0.14914992 0.16471519 0.06279469
0002d0 d8 a7 9d bc df 27 24 be 56 e2 03 3e 77 c7 0f 3e
       -0.019245073 -0.16030835 0.12879309 0.14040934
0002e0 d0 c6 0c bc c1 f6 ab 3d fb 6b 69 3d 60 b1 e1 3d
       -0.0085923225 0.08396674 0.056987744 0.1102016
0002f0 4e 95 5e bd 88 c8 cf 3b 1d e0 3e 3c 05 fc cf 3c
       -0.054341607 0.006341044 0.011650112 0.025388727
000300 f7 7b f6 3d a9 26 d5 3d 7f 5c e1 3d ec 2f 34 3d
       0.12035363 0.104077645 0.1100397 0.043991014
000310 0e dd aa 3d 27 8d cc 3d 15 1b a9 bd a4 01 d0 3d
       0.08342944 0.0998786 -0.082571186 0.10156563
000320 81 9a 26 3e 11 df 0f be 26 c7 63 bd f8 6d 9a bd
       0.16269876 -0.14049937 -0.055609845 -0.07540506
000330 b7 84 23 3e fe 15 18 3e 85 49 16 3e df 15 0d 3e
       0.15968595 0.1485214 0.14676483 0.13777874
000340 e8 b4 e0 bd 05 6e c8 bc 25 7c 17 bc 0f 2f 3a 3d
       -0.10972005 -0.024466524 -0.009245907 0.045455035
000350 09 4c 99 3c 38 bc d8 bd 84 b4 03 3e 5b 65 e8 3d
       0.018713014 -0.10582775 0.1286183 0.11347457
000360 9d e8 da bd 6f 38 23 3e 32 79 e1 3b c9 a7 ce 3c
       -0.10688899 0.15939496 0.0068809027 0.02522649
000370 43 d2 83 bd 3e 66 22 bd 63 0b a1 3c e1 e3 d9 3d
       -0.064365886 -0.039648287 0.01965875 0.106391676
000380 91 ba 0b be 91 49 81 3d c4 56 18 bd f3 01 5f bd
       -0.13645388 0.0631286 -0.03719212 -0.05444522
000390 4b 0d 2d 3e 17 d5 28 3e 9c f2 56 3d 20 4b 47 3d
       0.16899602 0.16487537 0.052477464 0.04865563
0003a0 5b b8 48 3c c8 cf ed 3c ed 60 bf bd cb 04 17 bd
       0.012250985 0.029029742 -0.09344659 -0.036869805
0003b0 91 ed 7c 3d f7 c1 d5 bd be 3a 37 bd ff 95 2b bd
       0.06175 -0.104373865 -0.044733755 -0.041891094
0003c0 29 e9 08 be 23 83 33 be 4f 3b 08 3d 31 51 ea bc
       -0.13370194 -0.17530493 0.033259686 -0.028603168
0003d0 a9 3c 34 3c 3c da 0c bd 70 79 04 bd be ac ec bd
       0.011000791 -0.034387812 -0.032342374 -0.115563855
0003e0 29 0f 99 bd d9 77 43 bd 7b 9f b4 bd 84 b4 dc 3d
       -0.07473595 -0.047721718 -0.08819481 0.10776618
0003f0 16 bf 95 3d 33 ea 0d 3e c4 53 e8 bd c4 24 12 be
       0.073118374 0.13858871 -0.11344102 -0.14271837

GAT_layers.1.GAT_heads.0.f.bias f4 [64]
000000 a4 aa 35 bd 18 a9 3e 3d 82 35 7c 3d ee cb 50 bc
       -0.04435219 0.04654798 0.061574467 -0.012743933
000010 9b ee 7f bc a3 da 0f bd 94 fe 99 3c 14 2a 87 bd
       -0.015620853 -0.035120618 0.01879815 -0.06599823
000020 e3 a5 50 bc de 18 6c 3d 2d 58 53 3d aa 6f 8c 3d
       -0.012734863 0.057640903 0.051597763 0.06857236
000030 49 10 64 bd 89 ae 5e bd a5 8b d0 bc 7d 70 a2 bc
       -0.055679593 -0.05436567 -0.025457213 -0.01982903
000040 a2 14 10 3d df ca 40 bd 88 95 81 3d d4 5d bd bd
       0.035175927 -0.047068473 0.06327349 -0.09246412
000050 b9 3e 2f bc 52 da 3a bd 5c 70 84 bc 3b 40 ca 3c
       -0.010696107 -0.045618363 -0.016166858 0.02468883
000060 15 7b 53 3d a1 3f 60 3d f4 98 86 bd ad 52 a5 bd
       0.051631052 0.05474818 -0.06572142 -0.0807241
000070 af a8 25 bd 35 7b ee 3c a5 25 da bc 3d 80 93 bd
       -0.040444072 0.029111484 -0.026629278 -0.07202194
000080 8b 15 4e bd bb b2 2e 3c 20 11 06 3d e2 28 8f bb
       -0.050313514 0.01066273 0.032731175 -0.0043688873
000090 32 99 3c 3d d2 bc 71 3d dd 45 d9 3c 0b cc a5 bc
       0.046044536 0.059017964 0.026522571 -0.020238897
0000a0 9c 97 d3 3c 5d 06 90 bd ed 9e 18 3b 57 c4 f3 3c
       0.025829129 -0.07032464 0.0023288087 0.029756708
0000b0 7a 65 31 bc af 80 a8 bc 08 88 58 bd aa 28 e0 3c
       -0.010827417 -0.020569174 -0.052864105 0.02736314
0000c0 9c c9 a5 bc a0 80 8f bc cc 58 66 bd 33 63 c7 bc
       -0.020237736 -0.017517388 -0.056237027 -0.024339294
0000d0 47 2f 1b bc 73 f0 1d bd 73 6d 53 bd b1 16 89 3c
       -0.009471721 -0.03855939 -0.05161805 0.016734453
0000e0 49 a5 02 bd f7 ba bc 3c 0b ed ab bd 4a dc 87 bc
       -0.03189591 0.02303837 -0.08394822 -0.016584534
0000f0 92 e0 b7 3d dc a3 24 3d c1 ff 7c 3d d1 f2 cd 3b
       0.0897838 0.04019533 0.061767343 0.0062850495

GAT_layers.1.GAT_heads.0.w.weight f4 [1, 128]
000000 62 3b c6 bd c0 25 f9 3d 21 c4 43 3e f1 75 d2 3b
       -0.09679295 0.12165403 0.19117786 0.006422751
000010 ed b2 28 3e a5 79 23 bd ac fb 24 be 0c 75 2f be
       0.16474505 -0.03991093 -0.1611163 -0.17134494
000020 0d a5 e2 3d 82 03 33 3d 87 93 ab bd d2 8a ea bd
       0.11066637 0.043704517 -0.08377748 -0.11452259
000030 04 ad b0 bd 1c a9 1c be 10 79 0b bd 71 00 14 3e
       -0.0862675 -0.15298885 -0.034051 0.14453293
000040 60 87 85 bd 50 2e 3d be 36 b2 df bd ec 3f 4a 3d
       -0.06519961 -0.18474698 -0.10922663 0.049377367
000050 12 e8 a1 bd 13 2d c0 bc fa f8 e4 bd a4 fd 6a bd
       -0.07905592 -0.023458993 -0.11180301 -0.057370797
000060 d5 d9 4f be b4 db 38 3e 54 9a 95 bb 90 87 bf 3c
       -0.2029794 0.1805256 -0.0045655165 0.02338007
000070 cc f3 0c be 82 f6 61 3c 85 ef 99 bd 4e a1 36 be
       -0.13764876 0.013791682 -0.07516388 -0.1783497
000080 56 d4 5f be 3c 7f 9f bd 3c b7 9a bd b1 be d1 bc
       -0.21858343 -0.0778794 -0.075544804 -0.025603624
000090 a9 24 2f 3e d6 9b 79 bd e6 8d 8d 3d d6 f1 27 be
       0.17103828 -0.060939632 0.069118306 -0.16400847
0000a0 98 00 22 be 49 c4 e1 3d ae ba ce bb d9 df cb bd
       -0.15820539 0.110237665 -0.006308875 -0.09954805
0000b0 8b 7c b5 3c a9 eb c7 3d 04 de e5 3d 2e f7 0e 3e
       0.022154113 0.097617455 0.11223987 0.13961479
0000c0 1b b1 20 be e6 d6 2a 3e 48 32 1d 3d f0 e9 03 3e
       -0.1569256 0.1668354 0.03837803 0.12882209
0000d0 3e 84 c5 3c 8c 14 d4 3a c5 16 bf bb a0 af 6f 3d
       0.02411091 0.001618044 -0.0058315718 0.0585171
0000e0 7e d3 e6 bc 83 d1 54 be 78 8e 2a be a0 17 b6 bd
       -0.02817702 -0.20783047 -0.1665591 -0.08891225
0000f0 e1 4f 3f 3e a2 35 45 be 77 25 66 3d 2e 86 11 be
       0.18682815 -0.1925874 0.056188073 -0.14211342
000100 64 13 67 3b c9 5d 1b be 5e dd 8e bd da e0 00 bd
       0.003525936 -0.15172495 -0.06975816 -0.031464435
000110 a9 7b d4 bd a8 2a 3d 3e 7a 71 53 3e 9b 88 a3 bc
       -0.10375149 0.18473303 0.20648757 -0.0199626
000120 85 d3 06 3e 5f 76 50 be b9 0e 49 be 3e 26 9f 3d
       0.13166626 -0.20357655 -0.19634522 0.07770966
000130 bc 7c 18 be 04 cf 23 3e 74 13 de 3d 8a 47 44 3d
       -0.14891332 0.15996939 0.10843554 0.047919787
000140 52 e2 14 3e 91 51 5c 3e 07 45 2c 3e d2 8f cc 3c
       0.1453946 0.2151549 0.16823207 0.024970923
000150 3f 3e 5a 3d 61 0c b9 3c 18 ae 50 be 59 93 9e 3d
       0.05328202 0.02258891 -0.20378911 0.07742948
000160 0a ba 5b 3d c5 8c 32 be a4 62 cc 3d b9 b0 5b bc
       0.053644218 -0.17436512 0.09979752 -0.013408833
000170 be f9 03 3e c8 d7 4e be 15 ba a5 3d 88 36 2b be
       0.12888238 -0.20199502 0.08092133 -0.16720021
000180 b8 5e 85 3d 33 5a 18 3e 25 a0 53 3e 9f 06 40 be
       0.06512207 0.14878158 0.20666559 -0.18752526
000190 7e e1 b5 3d ee 9d 0b bd c2 a5 20 be 8c 70 3e 3e
       0.088809 -0.03408616 -0.15688232 0.1859762
0001a0 ba ba ae 3d 12 d6 3e bd 19 ec 08 be a0 e7 2a be
       0.08531709 -0.046590872 -0.13371314 -0.1668992
0001b0 94 5c 91 bd 5a b2 56 be f7 29 05 be 0c e7 35 be
       -0.07097736 -0.20966473 -0.1300429 -0.17763919
0001c0 99 c3 2a be 48 01 4d be 88 64 cd 3d af 3f 51 3e
       -0.16676177 -0.2002002 0.100289404 0.2043445
0001d0 90 87 4a 3e ba 58 60 be a0 d6 5b 3d d0 14 33 3e
       0.19778275 -0.21908846 0.05367148 0.17488408
0001e0 a7 62 b9 bd 74 24 e2 bd d8 f7 5f bd 79 a5 06 3d
       -0.090520196 -0.11042109 -0.05467972 0.03287265
0001f0 fe 67 6b 3d 0b 90 00 be 8e 68 75 bd 99 89 0c 3c
       0.05747222 -0.12554948 -0.059914164 0.008577728

GAT_layers.1.GAT_heads.1.f.weight f4 [64, 128]
000000 a1 02 ce 3c 0b 19 96 3d 7f 7e 31 be c6 8e 06 be
       0.025147738 0.07328995 -0.1733341 -0.13140401
000010 c9 8b 89 3d b7 9c 00 be 72 4d fb 3d 6a 31 51 3b
       0.06716115 -0.12559782 0.12270631 0.0031920322
000020 14 0f a9 3d 75 63 ec 3d 7b 1f 28 be 9a c2 22 be
       0.08254829 0.115424074 -0.16418259 -0.15894547
000030 63 c3 8a 3c 2c 84 65 3c 84 9c ad 3d 01 f6 d1 3d
       0.01693887 0.014008563 0.084771186 0.10252
000040 bb 4b 21 be ae fa 19 3d cd 71 15 be 48 e8 46 bc
       -0.15751545 0.037592582 -0.14594193 -0.012140341
000050 63 6d 81 bd da 7c 01 3e 6f 02 bd bc 21 fa 8d 3c
       -0.06319692 0.12645283 -0.02307245 0.017331185
000060 f7 33 9f bd fe e3 08 3d 9e a0 13 be 0b 6c af 3c
       -0.077735834 0.033420555 -0.1441674 0.021413824
000070 ec 01 91 3d 1c be c4 bd f4 c0 7c 3c 01 ad 22 be
       0.07080445 -0.09606573 0.015426863 -0.15886308
000080 b8 20 07 3e 63 59 3f 3e 71 36 fa bd de 7d 1c be
       0.13196075 0.18686442 -0.12217415 -0.1528239
000090 98 f3 60 3d b5 e6 d3 3d 31 a3 b0 3c 9f 8a cd bd
       0.05491981 0.10346738 0.02156219 -0.100362055
0000a0 01 27 c0 bd 88 60 47 3d 40 73 f8 3c 01 93 a7 bd
       -0.093824394 0.048676044 0.030328393 -0.08182336
0000b0 9d ce 01 bc 79 dc 1e 3e 38 f0 31 3e 5d cf 31 be
       -0.007922796 0.15513791 0.17376792 -0.17364259
0000c0 73 70 56 bd b8 8e 1b 3e d2 c3 b8 3d 00 75 2d be
       -0.052353334 0.15191162 0.09021725 -0.16939163
0000d0 5b 80 2d be 3e 60 1c be bc e4 c0 bd 26 58 b2 3d
       -0.16943495 -0.15271088 -0.094186276 0.08708219
0000e0 88 d1 ff 3c a9 f2 61 bd b5 41 76 bd 98 23 e4 3d
       0.031227842 -0.05516306 -0.060121257 0.111396015
0000f0 db b6 e9 3d 70 66 22 3e 53 77 2f be 5d dc 06 bd
       0.1141183 0.1585939 -0.17135362 -0.032925
000100 d0 e6 31 be d2 78 8a bd 09 1f db 3c 57 5b b9 bd
       -0.17373204 -0.06761326 0.026748197 -0.09050625
000110 75 73 74 bd fa f2 b7 bd 73 ef f2 3d d7 ec dd bd
       -0.05968042 -0.08981891 0.118620776 -0.10836189
000120 5b b6 ce bd a5 c5 25 3e 81 c2 c8 bd ae 90 11 be
       -0.10093375 0.16188677 -0.09802724 -0.14215347
000130 d2 65 0d bd e3 25 c2 bd ee 0a 82 bd 4d 3e 2f be
       -0.03452093 -0.094798826 -0.06349741 -0.1711361
000140 03 29 40 bc 74 7f 08 be 4f fb 24 bc d3 d1 c5 3d
       -0.011728528 -0.1332987 -0.010069682 0.096591614
000150 67 e6 27 bd 0d 51 15 be ad 80 1a 3e c6 9b 1e bd
       -0.040991213 -0.145817 0.15088148 -0.038722776
000160 cc 52 2d 3e 01 0d a6 3c 6b 85 e4 bd 9a fa 19 be
       0.16926116 0.020269873 -0.1115826 -0.15037003
000170 5c 4f 00 be 07 2e af bd 43 3d 2c 3e 0d e7 1d bc
       -0.12530273 -0.08553701 0.16820244 -0.009637606
000180 37 84 42 3b fa 83 8b bd 7d be 2d be f1 0b ea 3c
       0.0029680857 -0.06812282 -0.16967197 0.028570147
000190 99 21 34 be 65 28 dc 3d 8b 20 24 3d f9 d1 b8 bc
       -0.17590941 0.10749892 0.040070098 -0.02256106
0001a0 7e e6 9c 3d 28 be 38 be 67 38 13 be 3f 7a 26 be
       0.076611504 -0.18041289 -0.14376985 -0.1625757
0001b0 71 be df 3d 1b 79 13 be 0c dd 12 3e de d7 0c 3c
       0.10924996 -0.14401667 0.14342135 0.008596389
0001c0 38 22 02 be f1 77 0b be 0a 6c 19 3d 6a b7 89 3d
       -0.12708366 -0.13619973 0.03745655 0.067244366
0001d0 7c 4f 91 bd a4 f5 fc 3d 90 93 0d be d0 cc 2a 3e
       -0.070952386 0.1235154 -0.13825822 0.16679692
0001e0 19 81 cd 3d 0d cf 4e 3d 87 3a 31 be e5 20 8a bd
       0.10034389 0.050490428 -0.17307483 -0.067445554
0001f0 a9 63 19 3e 5a 41 ec 3d 29 72 14 be bf 36 17 be
       0.14979424 0.11535902 -0.14496674 -0.14766978
000200 00 67 2c 3e 02 a5 af 3d b5 28 09 be 8c 9e b2 3d
       0.16836166 0.085763946 -0.13394435 0.08721647
000210 55 41 ed bc 19 15 2b bd 00 74 d9 3c 63 61 09 3e
       -0.028961817 -0.041768167 0.02654457 0.13416056
000220 56 69 2a 3e 2d 79 89 bd e0 12 1f be c5 76 e0 bd
       0.16641745 -0.067125656 -0.15534544 -0.109601535
000230 41 f9 91 bd f8 f2 82 ba 3b 85 16 bd f5 9f 04 3e
       -0.071276195 -0.0009990623 -0.036748152 0.12951644
000240 7a a7 39 be 7d 7d 12 3e 35 e6 07 3e 0f 61 e8 bd
       -0.18130293 0.14305682 0.13271411 -0.113466375
000250 85 32 0a 3e ce 95 2b 3d 7f 46 92 bd 4e 1a 0a be
       0.13495834 0.04189091 -0.07142352 -0.13486597
000260 b9 ba 74 3d 7d a4 34 be 46 ed cb bd ec 79 29 3e
       0.059748385 -0.17640872 -0.09957366 0.16550416
000270 0c ad 8a 3d cf b6 28 3e 2c cd cc bd 0a a2 41 bc
       0.06771287 0.16475986 -0.10000071 -0.011818418
000280 9f 45 23 3e 97 66 82 bd d6 db 23 3d b1 08 86 3b
       0.15944527 -0.06367224 0.040004574 0.0040903916
000290 db 49 f7 39 1d 21 06 3b ab 79 bc bb d9 c2 0c 3d
       0.00047166538 0.0020466514 -0.0057518086 0.03436551
0002a0 9d 70 25 be fc 74 fb 3d 38 81 db bd a8 9e 0d be
       -0.1615624 0.122781724 -0.10718006 -0.13830054
0002b0 d0 ff 06 3d 52 f1 5f bd 4b d2 8f 3d 78 48 ff bb
       0.032958806 -0.0546735 0.07022532 -0.0077906214
0002c0 a9 93 19 3c 56 3e e0 3d 1f fd 97 bd 2a 57 27 be
       0.009373584 0.1094939 -0.07421326 -0.16341844
0002d0 d9 a9 21 be b6 c8 b9 bd 4d e8 31 be c2 30 17 be
       -0.15787448 -0.09071486 -0.17373772 -0.14764693
0002e0 08 67 31 3e ff 6a 56 bd cd 87 65 3d 9d 77 e3 3c
       0.1732446 -0.052348133 0.056037713 0.027766997
0002f0 fa ad e1 3d 9a 96 e1 3c 6c 19 7c bd 26 38 76 3c
       0.110195115 0.027537633 -0.06154768 0.015028035
000300 58 64 94 3b ae b1 c1 bb 88 e9 c8 bd 25 0e bc 36
       0.0045285635 -0.0059110736 -0.098101676 5.6044832e-06
000310 08 85 8e bd c2 90 03 3e 25 fa d9 bd 6e e9 e2 bd
       -0.069589674 0.1284819 -0.106434144 -0.110796794
000320 1e 3f 6e 3d ec 7f c2 3d 29 25 21 be c8 e1 87 3c
       0.058165662 0.094970554 -0.15736832 0.016587153
000330 0e 64 0e be 65 3f e4 bd 83 33 e9 bd c1 4f 06 bd
       -0.13905355 -0.11144904 -0.11386778 -0.032790903
000340 76 56 dd bd 00 0f 33 be 49 5f d4 bd fe 3b af bd
       -0.10807507 -0.17486191 -0.10369737 -0.085563645
000350 75 96 1b be 0e 41 b3 bd 97 4d c1 3d 90 e0 c8 bd
       -0.15194114 -0.087526426 0.09438627 -0.09808457
000360 72 8a 38 bd 91 6f 1b be 1b d5 e7 3c 2b 9f 1e 3e
       -0.045053907 -0.15179278 0.028299859 0.15490405
000370 c7 fe 8b 3d 14 4c 76 bb f6 09 e4 bd 94 1d a0 bd
       0.06835704 -0.0037581967 -0.111347124 -0.078181416
000380 a1 71 14 3e a8 45 de bc 51 24 20 be 42 ac 81 bc
       0.14496471 -0.027132824 -0.15638854 -0.01582921
000390 1c ff b1 bd e4 b0 4b 3d 5c 12 f6 bd fb ab e1 3d
       -0.086912364 0.049729243 -0.120152205 0.11019131
0003a0 f3 14 06 3e e9 fb 88 3d 3b 0e c4 bd 86 96 9b 3c
       0.13093929 0.06688673 -0.09573027 0.018992674
0003b0 5d b6 29 bd 7a e6 1e be 95 66 cc 3d 89 25 d8 3c
       -0.04143368 -0.15517607 0.099805035 0.026385086
0003c0 6a 30 0d 3e 0c b2 b8 bd b7 f3 81 39 1f a8 e2 3b
       0.13788 -0.09018335 0.0002478638 0.0069170143
0003d0 12 d7 ce bc c5 98 65 3d 2c ae ef bc e5 08 cc bd
       -0.025249038 0.056053896 -0.029257856 -0.09962634
0003e0 39 59 77 3d 4c 9d 03 be 6f 71 22 bd af a2 c5 3d
       0.060387824 -0.12852973 -0.03965896 0.0965017
0003f0 30 15 c9 3d 36 ab 18 3e b7 2a dc bd f6 9f 74 38
       0.09818494 0.14909062 -0.10750335 5.832311e-05

GAT_layers.1.GAT_heads.1.f.bias f4 [64]
000000 75 c3 53 3a 74 be f9 bc 27 a8 06 3d 30 23 bb 3d
       0.00080781366 -0.030486323 0.032875206 0.09137571
000010 87 f1 51 bd 96 7f 7e 3d e4 3c 8e bd a8 a2 6c 3d
       -0.05125573 0.062133394 -0.06945208 0.05777231
000020 16 c7 78 3d 4c db 6e 3d eb 28 95 3d ce d1 43 3d
       0.06073674 0.058314607 0.07283195 0.047807507
000030 4d 14 c7 3c 5e 54 9a 3d 74 f4 cd bc 76 db 8b bd
       0.024301672 0.07535623 -0.025140978 -0.06828968
000040 9b 38 86 bc 5e 11 32 bd 83 29 a0 bc e0 97 76 bd
       -0.016384413 -0.043473594 -0.019551044 -0.060203433
000050 62 61 4c 3d 8a 7f 85 3d c4 d2 96 3d 87 7b ed bd
       0.04989756 0.06518467 0.07364419 -0.115958266
000060 0e b9 91 bd 7c 14 2d bd e1 88 90 bd 76 2f 9d bc
       -0.071153745 -0.042255864 -0.070573576 -0.01918767
000070 cb 4a 8c bd 11 b3 b7 bb 91 65 5f 3d 27 d6 a8 3d
       -0.06850203 -0.005606063 0.05454022 0.08243971
000080 3c ea ba 3d c1 a4 d9 3b 80 ab 04 3d ef 0f 62 3d
       0.09126708 0.0066419546 0.032390118 0.055190977
000090 54 9a b1 bd 54 34 62 bd 9d bc 40 bd 29 3a ec bc
       -0.08672014 -0.055225685 -0.047054876 -0.028836327
0000a0 ce 76 d6 bd 1f ad 4b 3d d0 15 39 bd 0b 9d d4 3d
       -0.10471879 0.049725648 -0.045186818 0.10381516
0000b0 06 3b 26 bd 7f d6 7d bd d3 03 b0 3d 5c 8d 8a 3d
       -0.040583633 -0.061972138 0.085944794 0.067652434
0000c0 d9 e5 75 bd 07 67 9c 3d f3 74 f7 3b 9a de ab 3d
       -0.060033653 0.076368384 0.007551783 0.08392067
0000d0 bd 8f 78 3c 65 b1 b9 3d 9d d8 5b 3d 73 d1 56 3d
       0.015170989 0.090670384 0.053673375 0.05244584
0000e0 6a 29 d8 bd 4d b0 7f bd a6 76 8a bd b8 82 04 bc
       -0.10554774 -0.062423993 -0.06760912 -0.008087806
0000f0 b9 4e a6 3c 7e e3 3a bd a8 bf ce bc 71 44 a2 3d
       0.02030121 -0.04562711 -0.025237873 0.079232104

GAT_layers.1.GAT_heads.1.w.weight f4 [1, 128]
000000 98 ee 2b 3e 66 44 0b be ae a7 41 3e 1e 10 04 3e
       0.16790235 -0.1360031 0.18911621 0.12896773
000010 7a 1d 49 3e 6e e1 72 3d a4 ea cd 3c 88 a6 74 be
       0.1964015 0.059297018 0.0251363 -0.23891652
000020 4b 5d 84 bc 48 12 62 3e e2 2d 50 bd c3 25 d3 bd
       -0.016157767 0.22077286 -0.050825007 -0.10309937
000030 28 c0 0b be 6d 0c 4b 3e fb 33 c7 bd 83 d3 f4 bc
       -0.1364752 0.19828959 -0.09726711 -0.029886013
000040 b7 2e 49 bd 40 a6 18 bd 60 2b 25 3e c2 95 9a bd
       -0.049116816 -0.037267923 0.16129827 -0.07548095
000050 22 c9 1a 3e 57 14 17 3e 77 b5 1a be 81 aa 59 3e
       0.15115789 0.14753853 -0.15108286 0.21256448
000060 0e d8 01 3d 68 04 63 3d 3a b8 28 bc 97 80 07 3e
       0.031700186 0.055424124 -0.010297829 0.13232647
000070 11 5a aa bd 25 2b a9 bd 24 e0 10 be 55 b4 06 bd
       -0.0831796 -0.08260182 -0.14148003 -0.03288682
000080 05 18 1e 3e 0a 8e e8 3d a9 4b 1d be 6f 7b ef 3d
       0.1543885 0.11355217 -0.15360893 0.11693465
000090 45 63 18 3e df 44 82 bd 7e d7 8f bd e6 25 69 3d
       0.14881618 -0.06360792 -0.07023524 0.05692091
0000a0 9d c3 30 bc b0 35 7c 3c 38 e9 51 3d 8d bf ec 3d
       -0.010788825 0.0153936595 0.051247805 0.11559973
0000b0 81 ff 8e 3d 01 e7 32 3e 91 7a 7a 3c 3c bf b1 bd
       0.06982327 0.17470933 0.015288011 -0.08679053
0000c0 15 72 e3 3d 9f cd 99 bd 0d a1 d1 3d 23 1c 29 bd
       0.11105744 -0.07509922 0.10235796 -0.0412866
0000d0 00 29 79 bd 48 e1 ba bd cc 79 c8 bd e8 cd b8 bc
       -0.060830116 -0.09125 -0.09788856 -0.022559121
0000e0 53 86 9d bd 7d ec cb 3d 70 c4 51 3e 16 53 10 be
       -0.07691636 0.09957216 0.20485091 -0.14094195
0000f0 e7 0f e0 bd 34 ec 85 3d 27 cf 1d be ef 78 6d be
       -0.10940533 0.06539193 -0.15411054 -0.23190664
000100 66 87 21 3e a4 53 b9 3d 5c 3c 48 bd 0d 18 b3 bd
       0.15774307 0.09049156 -0.04888569 -0.08744822
000110 8b 98 41 be c1 1a 46 3e 7d c6 2b bd 85 ed 4e 3e
       -0.18905847 0.19346143 -0.04193734 0.20207794
000120 16 b9 8f bb 05 49 95 3d 8a 29 b5 bd e5 b5 06 3e
       -0.0043860776 0.07289318 -0.088458136 0.13155325
000130 8f b3 dd bd 3b c0 3e be 04 ec 50 3e dc 32 4b 3e
       -0.10825264 -0.18628018 0.20402533 0.1984362
000140 79 6c c5 3c 81 37 ec 3c 48 aa b1 3d a5 74 71 bd
       0.024099575 0.02883506 0.08675057 -0.05894913
000150 70 7e 42 be 78 ba c0 3d dc e2 63 3d c1 56 33 3e
       -0.18993545 0.09410566 0.05563627 0.17513563
000160 c6 be 00 3e 7b e4 3c be b0 20 05 3d 5a 7b ed 3d
       0.12572774 -0.18446533 0.032501876 0.11595793
000170 10 54 31 bd d2 d0 6d bd 6f 91 42 be 31 97 08 be
       -0.04329306 -0.058060475 -0.19000791 -0.13338925
000180 c3 1d df bd b2 e5 c0 3c eb 96 7c bc 96 e4 11 3e
       -0.108943485 0.023547027 -0.015416841 0.14247355
000190 71 e5 0f 3e 5e 63 59 be c0 27 43 3e 0b ed 7e 3d
       0.14052369 -0.21229312 0.19058132 0.06223778
0001a0 c3 63 81 bd 59 83 2a be 60 20 cb 3d 95 a5 46 3c
       -0.06317856 -0.16651668 0.099182844 0.012124439
0001b0 a1 db c8 3d 90 bf 34 be f8 d1 30 bc b6 ad a3 bc
       0.09807516 -0.176512 -0.010792248 -0.019980293
0001c0 79 8a b3 3d 99 e4 54 be 83 03 b8 3d 48 47 56 3e
       0.08766646 -0.20790328 0.08985045 0.20925629
0001d0 e7 9a 92 3d b6 e1 5c be d7 80 0e 3e 52 d3 f7 bd
       0.071584515 -0.21570477 0.13916336 -0.12100853
0001e0 6a f2 8e bd 87 07 8b 3d 40 f1 9c 3c db ab 2c 3e
       -0.069798306 0.06788545 0.019158006 0.16862433
0001f0 28 f6 8d bd 50 11 62 bd 45 8b 14 be b8 e4 d7 bd
       -0.06931716 -0.05519229 -0.14506252 -0.105416715
