SLIC_GAT/hh_n_0/last2.pt (torch, 580781 bytes, 30 tensors)

GAT_layers.0.GAT_heads.0.f.weight f4 [32, 124]
0	0xbdcda783	-0.10041716
1	0xbdbac0ff	-0.09118842
2	0xbdb4bd2d	-0.08825145
3	0x3e1231f8	0.14276874
4	0x3d23ddc2	0.040006407
5	0xbdbbdcfc	-0.09173009
6	0xbe41eea7	-0.18938695
7	0xbe2fb121	-0.17157413
8	0x3c63b8b3	0.013899016
9	0xbdef978b	-0.116988264
10	0x3dfbacc2	0.1228881
11	0xbd10fc4d	-0.035396863
12	0xbd06e1d9	-0.03293023
13	0x3de911b3	0.11380329
14	0xbde7feaf	-0.11327874
15	0xbe325085	-0.17413528
16	0x3e307033	0.172303
17	0xbdbacbac	-0.091208786
18	0x3d2f612f	0.04281729
19	0xbd133e29	-0.035947952
20	0x3d9674b2	0.073464766
21	0xbe07a1c8	-0.13245308
22	0x3ce39bd2	0.027784262
23	0xbcd90210	-0.026490241
24	0xbd5c5826	-0.053795002
25	0xbe24675b	-0.16055052
26	0xbd35d273	-0.044390153
27	0x3e447f7d	0.19189258
28	0x3df4af43	0.11947491
29	0x3e18febc	0.14940923
30	0x3b14951e	0.0022671889
31	0xbe226cd0	-0.15861821
32	0x3e1ceec8	0.15325463
33	0xbe37b2dc	-0.17939323
34	0x3e46cc99	0.19413985
35	0x3db191fe	0.08670424
36	0x3b30dd55	0.0026987393
37	0x3d53e143	0.0517285
38	0x3ca745dc	0.020419054
39	0x3e23bcfc	0.1599006
40	0x3e15e296	0.14637217
41	0x3e426644	0.18984324
42	0xbcf7da95	-0.030255595
43	0x3dd28aa5	0.102803506
44	0x3dc78c7a	0.09743591
45	0x3cb7be10	0.022429496
46	0x3bf3b2b3	0.007437074
47	0xbdee9087	-0.1164866
48	0x3c52d083	0.012867096
49	0xbe1c9c6a	-0.15294042
50	0x3c9760bf	0.01847875
51	0xbd9bc8af	-0.07606637
52	0x3e3d8e25	0.18511255
53	0x3e48c69a	0.1960701
54	0xbe364484	-0.17799574
55	0xbabe1dc0	-0.0014504716
56	0x3e0e3545	0.13887508
57	0x3cdb74da	0.026789118
58	0xbdefd35f	-0.11710238
59	0x3dcbf6db	0.09959193
60	0x3d4cdcb1	0.050015155
61	0xbe3ab975	-0.18234809
62	0x3e3dfbc7	0.18553077
63	0x3df3fd7e	0.11913584
64	0xbd45a515	-0.048253138
65	0xbc97c79b	-0.018527796
66	0xbc27a7a0	-0.010232836
67	0xbcf956cd	-0.030436898
68	0xbbfbc787	-0.0076836976
69	0xbce8e2c4	-0.028428443
70	0xbcda9d1f	-0.02668625
71	0xbcc0e8e3	-0.023548549
72	0x3e036c90	0.12834382
73	0xbdacae06	-0.0843163
74	0x3e2a3e24	0.16625267
75	0x3d8f7d98	0.07006377
76	0xbdaf7b96	-0.08568494
77	0x3dcaa5fa	0.09894939
78	0x3c18a7ab	0.009317319
79	0xbb41cfd0	-0.0029573329
80	0x3daed84c	0.08537349
81	0xbe1f0ce2	-0.15532258
82	0x3e16fb5c	0.14744323
83	0x3e47d70d	0.19515629
84	0xbe2276a8	-0.15865576
85	0x3dfd70ce	0.123750314
86	0x3db3dd7f	0.087824814
87	0x3db12408	0.086494505
88	0xbe3de6d0	-0.18545079
89	0xbe34c8aa	-0.17654672
90	0x3d049c76	0.032375775
91	0xbe28cb52	-0.1648381
92	0xbca9cf0e	-0.020728614
93	0xbcfcb34f	-0.03084722
94	0x3dcdee01	0.10055161
95	0xbe31c2c2	-0.1735945
96	0x3e330835	0.174836
97	0xbe1226fd	-0.14272685
98	0x3e3fa6b3	0.18715934
99	0x3d5890fa	0.052872635
100	0xbe09f3b3	-0.1347187
101	0xbd6c6274	-0.05771108
102	0xbcb0814e	-0.021546032
103	0x3e344b5e	0.17606875
104	0xbe31a55f	-0.1734824
105	0x3d5bcc8a	0.05366186
106	0x3dbfc1c5	0.093631305
107	0x3e2bf818	0.16793859
108	0x3e227ad6	0.1586717
109	0x3e312b79	0.1730174
110	0x3e47bd7f	0.19505881
111	0x3da43287	0.0801745
112	0x3db90ca0	0.09035611
113	0x3db31fcd	0.087463
114	0x3dad3e9c	0.084592074
115	0xbdc5b1f3	-0.09653082
116	0xbdb2157d	-0.08695505
117	0xbdb15777	-0.08659261
118	0xbe045618	-0.12923467
119	0x3e303ba4	0.17210251
120	0x3e0fe583	0.14052396
121	0x3def815b	0.116945945
122	0x3d94b38a	0.07260807
123	0xbd961159	-0.073275276
124	0x3c1fcfb0	0.009754106
125	0xbc048e45	-0.00809056
126	0x3bc8a430	0.0061230883
127	0xbdeabf51	-0.11462272
128	0x3c0b176f	0.008489474
129	0xbe38be5b	-0.18041365
130	0xbbcce925	-0.006253379
131	0x3de414f5	0.1113681
132	0xbe257163	-0.16156535
133	0xbe3b5d67	-0.18297349
134	0xbe073fc4	-0.13207918
135	0x3dd8634e	0.10565816
136	0x3da61972	0.08110322
137	0xbe24a2b3	-0.1607769
138	0xbdb59f46	-0.088682696
139	0x3d37f1e3	0.044908416
140	0x3e42d1b9	0.19025315
141	0x3e1b02f3	0.15137844
142	0x3e30fbc7	0.17283545
143	0x3dd76b0f	0.10518467
144	0xbd218514	-0.039433554
145	0xbe45b036	-0.193055
146	0xbba4fa97	-0.0050347554
147	0xbe28f670	-0.16500258
148	0x3da63f2d	0.081175186
149	0x3dc23472	0.094826594
150	0x3b42d2b0	0.002972763
151	0x3dc2c376	0.095099375
152	0x3e2316b1	0.15926625
153	0xbdcdb4b9	-0.10044236
154	0x3d67de14	0.056608275
155	0xbdedbb2d	-0.116079666
156	0x3e0af1ea	0.13568845
157	0x3e073795	0.13204797
158	0xbdbab48e	-0.09116469
159	0x3def1aef	0.11675059
160	0xbd1c0c90	-0.038097918
161	0xbd1d358e	-0.03838115
162	0x3e42d85d	0.19027849
163	0xbba7fcbd	-0.0051265643
164	0x3e317dc3	0.1733313
165	0xbe19f7d8	-0.15035951
166	0xbe1549ee	-0.14578983
167	0xbe1f5405	-0.15559395
168	0xbce9493c	-0.028477304
169	0xbde00c04	-0.10939792
170	0x3dd2d251	0.10294021
171	0xbdb6fd03	-0.08934977
172	0xbe0f2cf6	-0.13981995
173	0xbdfbd545	-0.12296537
174	0xbb880a4e	-0.004151619
175	0xbb7fca65	-0.0039030549
176	0xbe266f8f	-0.16253494
177	0xbe1c541a	-0.15266457
178	0xbd10006a	-0.035156645
179	0xbd1acbf0	-0.037792146
180	0x3e341f7d	0.17590137
181	0x3e18a9a2	0.1490846
182	0xbe30a1ed	-0.1724927
183	0xbcfc1d87	-0.030775798
184	0x3cf0dfc4	0.029403575
185	0xbe0a78d2	-0.13522652
186	0x3cdc4787	0.026889576
187	0x3e1e239b	0.1544327
188	0xbddb4c28	-0.10707885
189	0xbe1fd3db	-0.1560816
190	0x3d54913a	0.05189631
191	0x3da432bc	0.08017489
192	0x3e141b77	0.14463602
193	0xbdee515d	-0.116366126
194	0xbd84a907	-0.06477552
195	0xbdea261d	-0.11433051
196	0xbdb1f838	-0.08689922
197	0x3c603827	0.013685263
198	0x3ddfdc29	0.10930664
199	0x3d90cbba	0.07070108
200	0xbe2ce216	-0.1688312
201	0xbd0a7c2f	-0.033809837
202	0x3d9a916f	0.075472705
203	0xbe34e949	-0.17667116
204	0xbe4475c5	-0.1918555
205	0x3d1ac7cb	0.037788194
206	0xbe16d371	-0.14729096
207	0x3e1fc978	0.15604198
208	0x3ddbf79c	0.10740587
209	0x3ddd47d7	0.10804718
210	0xbe3a39b9	-0.18186082
211	0xbe235c4a	-0.15953174
212	0xbdeab83e	-0.11460923
213	0xbde37e09	-0.11108024
214	0xbc743196	-0.0149044
215	0xbdb477e6	-0.08811931
216	0xbd452821	-0.048133973
217	0xbde6682c	-0.11250338
218	0x3caa68dc	0.020801954
219	0x3e065608	0.13118756
220	0xbda2362f	-0.07920491
221	0xbe3aca27	-0.18241177
222	0x3df55f33	0.119810484
223	0x3d7fcb59	0.062449787
224	0x3e43a9f9	0.19107808
225	0xbd9c1721	-0.07621599
226	0xbe2f38a5	-0.17111452
227	0x3e1c8814	0.15286285
228	0x3e0e67f1	0.13906838
229	0x3dd420f0	0.10357845
230	0xbd017a7f	-0.031610962
231	0x3e35fa8c	0.17771357
232	0xbdcb000e	-0.0991212
233	0x3e1345a6	0.14382038
234	0x3dbbf9e6	0.09178524
235	0x3e0940f0	0.13403678
236	0x3e1733a6	0.14765796
237	0x3e10e8dd	0.1415133
238	0xbe1d4805	-0.15359505
239	0xbc212730	-0.009836003
240	0x3e329231	0.1743858
241	0xbccc3dfc	-0.0249319
242	0xbd854460	-0.06507182
243	0x3e17c238	0.14820182
244	0xbe404cb6	-0.18779263
245	0xbe2be574	-0.16786748
246	0xbe2d833f	-0.16944598
247	0xbcfedf27	-0.031112267
248	0x3dbf7c79	0.09349913
249	0x3df806ed	0.12110696
250	0xbbb8a67f	-0.0056350823
251	0xbd9d36b4	-0.076764494
252	0x3affba29	0.0019510436
253	0x3cdbb751	0.02682081
254	0x3d408540	0.047002077
255	0x3d2d0106	0.042237304

GAT_layers.0.GAT_heads.0.f.bias f4 [32]
0	0xbae38269	-0.0017357591
1	0xbdb1b710	-0.086774945
2	0xbd8d8add	-0.06911252
3	0x3d62ebc9	0.055400643
4	0x3d35365c	0.044241294
5	0xbd3a20c0	-0.04544139
6	0xbd0e15c2	-0.03468872
7	0xbd4d308c	-0.050095126
8	0x3d04fd97	0.032468405
9	0x3d5cce22	0.05390752
10	0x3c9ef98c	0.019406103
11	0x3d215c86	0.039394878
12	0xbc65c09b	-0.0140229715
13	0x3c4939d8	0.012281857
14	0xbd44ec2b	-0.04807679
15	0xbaae1b41	-0.0013283269
16	0xbd7d193e	-0.06179165
17	0xbc7c3d16	-0.015395423
18	0xbd8e077e	-0.06935023
19	0x3c2809f1	0.0102562765
20	0x3d6ead1c	0.05827056
21	0xbc1654c5	-0.009175484
22	0x3c882b70	0.016622275
23	0x3d693ee7	0.056944754
24	0x3d8ebdd5	0.06969801
25	0x3d051f13	0.032500338
26	0xbd332900	-0.043740273
27	0x3dca1e47	0.09869056
28	0x3cf36b9b	0.029714396
29	0xbdcc7b43	-0.09984448
30	0xbd9f1d17	-0.0776922
31	0x3d485c5b	0.048916202

GAT_layers.0.GAT_heads.0.w.weight f4 [1, 124]
0	0x3e193380	0.14961052
1	0x3dfa0cc2	0.122094646
2	0x3c810c93	0.015753066
3	0xbb1ae906	-0.0023637428
4	0xbdb34372	-0.087530985
5	0xbdb2b510	-0.08725941
6	0x3d2f0a7e	0.042734616
7	0x3d784a6e	0.060617857
8	0xbdb6940e	-0.08914958
9	0x3e3eff0d	0.18651982
10	0xbdb8e308	-0.09027678
11	0xbe2d6bfc	-0.16935724
12	0xbe089963	-0.13339762
13	0xbd97ed07	-0.07418256
14	0xbc3ececa	-0.011645982
15	0xbdd72f2c	-0.10507044
16	0xbe0d4789	-0.1379682
17	0x3da8da5e	0.08244775
18	0x3e32b760	0.17452765
19	0xbdf74fe5	-0.120757855
20	0x3b788a17	0.0037924105
21	0x3d465a29	0.048425827
22	0xbd1ee3f7	-0.038791623
23	0xbe2bd987	-0.16782199
24	0x3dbd90c4	0.092561275
25	0xbdff0755	-0.1245257
26	0x3db9d125	0.09073094
27	0x3d87c3ec	0.06629166
28	0xbd9d8bb6	-0.07692663
29	0x3e41005b	0.18847792
30	0x3deebc3c	0.116569966
31	0x3d683307	0.05668929
32	0x3cc0bebd	0.023528451
33	0xbe59b993	-0.21262197
34	0x3e2cf741	0.16891195
35	0x3e0c9ab2	0.13730887
36	0x3d75da6a	0.06002275
37	0x3e20d699	0.15706863
38	0x3e4106e8	0.18850291
39	0x3e15832c	0.1460082
40	0xbdb4297c	-0.08796975
41	0xbd673e0b	-0.056455653
42	0xbe1b9d55	-0.15196736
43	0xbe59c81a	-0.21267739
44	0xbd1db334	-0.03850098
45	0xbe486073	-0.19568042
46	0xbe5f59a5	-0.2181154
47	0xbe13017f	-0.1435604
48	0x3d9661d7	0.0734288
49	0x3e2e1f63	0.1700416
50	0xbe29d626	-0.16585597
51	0xbcdb0cfc	-0.02673959
52	0xbe433e7c	-0.19066805
53	0xbe4b0b91	-0.19828631
54	0x3d740d31	0.059582893
55	0x3de8190e	0.11332904
56	0x3d58a930	0.052895725
57	0x3df3d03d	0.11904953
58	0xbe2b7eb9	-0.1674756
59	0xbe46cab6	-0.19413266
60	0x3dc359b3	0.09538593
61	0xbdd6e319	-0.10492534
62	0xbe591118	-0.21197927
63	0xbe3ca2fc	-0.18421549
64	0xbd3244ab	-0.043522518
65	0x3d8691a3	0.06570747
66	0xbdccbde3	-0.099971555
67	0xbe054f49	-0.13018526
68	0x3e28b6ee	0.16476032
69	0xbd60d2b9	-0.05488846
70	0x3bb6be4c	0.0055768844
71	0xbc1feab6	-0.009760549
72	0xbe3533b2	-0.17695501
73	0x3c672cca	0.0141098
74	0x3e574268	0.21021426
75	0xbe28e60d	-0.16494007
76	0x3d918629	0.07105667
77	0x3ded1ba3	0.11577537
78	0xbbf9fa95	-0.0076287487
79	0xbe3073a1	-0.17231609
80	0x3e27a7b2	0.16372564
81	0x3e079f89	0.13244452
82	0x3dda70b9	0.106660314
83	0x3c32e70b	0.010919343
84	0x3d2c1ee4	0.042021647
85	0x3d60ea0a	0.054910697
86	0xbe583d58	-0.21117151
87	0x3e4bd8bc	0.19906896
88	0x3e5e146c	0.21687478
89	0xbdf65992	-0.12028803
90	0x3da0ecac	0.078576416
91	0x3d520a65	0.051279444
92	0xbe2628fe	-0.16226575
93	0x3e2dbec7	0.16967307
94	0xbcd48875	-0.025943974
95	0x3dfb2536	0.12262957
96	0xbd93479a	-0.07191391
97	0xbd19ea4a	-0.03757695
98	0xbd55b28e	-0.052172236
99	0xbd8a2e5c	-0.067471236
100	0xbd401dd0	-0.04690343
101	0x3e194d86	0.14970979
102	0x3c596472	0.013268577
103	0x3e25b8cb	0.16183774
104	0x3e3e9a3f	0.18613528
105	0x3d95381a	0.07286091
106	0x3e3d60f5	0.18494017
107	0xbd986af2	-0.07442273
108	0xbd5cf60c	-0.053945586
109	0x3d121f65	0.03567447
110	0xbe5d5b14	-0.21616775
111	0xbe290b4d	-0.16508217
112	0x3d81547c	0.06314942
113	0x3dc652bf	0.09683751
114	0xbdc02c2a	-0.093834236
115	0x3e2bb2f6	0.16767487
116	0xbe5a0580	-0.2129116
117	0xbded6106	-0.115907714
118	0x3e438a33	0.19095688
119	0x3daccca1	0.08437467
120	0xbd4f887d	-0.050667275
121	0x3cbc97aa	0.023021538
122	0xbe2f825e	-0.17139575
123	0x3e27ef86	0.16399965

GAT_layers.0.GAT_heads.1.f.weight f4 [32, 124]
0	0xbe082d0e	-0.13298437
1	0xbdd288e8	-0.10280019
2	0xbd0be6e7	-0.034155753
3	0xbca15048	-0.019691601
4	0xbd0047c7	-0.031318452
5	0xbdd40645	-0.10352758
6	0x3db25743	0.0870805
7	0x3cd61273	0.026131844
8	0xbdeec411	-0.116584904
9	0xbdfbd8f9	-0.122972436
10	0x3d10b90b	0.03533272
11	0xbdba8c13	-0.09108748
12	0x3dd30b08	0.103048384
13	0xbab8879c	-0.0014078501
14	0xbe1fdafa	-0.15610877
15	0xbe20f263	-0.15717463
16	0xbe05be92	-0.13060978
17	0x3d88583a	0.06657453
18	0xbe03705b	-0.12835829
19	0x3e2329d7	0.1593393
20	0x3bd13cda	0.006385428
21	0x3df32bda	0.118735984
22	0xbe0041d7	-0.12525116
23	0x3e16ed52	0.14738968
24	0xbe4184fd	-0.18898387
25	0x3e19d025	0.15020807
26	0x3e0a7273	0.13520221
27	0xbe022270	-0.1270845
28	0xbd5d5443	-0.054035436
29	0xbd61ac31	-0.055095855
30	0x3ced4b4c	0.028966568
31	0xbe326fef	-0.17425512
32	0xbdafb008	-0.08578497
33	0x3e2cb43e	0.16865632
34	0xbe46d035	-0.19415362
35	0xbc818462	-0.015810195
36	0x3dbfee72	0.09371652
37	0x3ba7dbca	0.0051226364
38	0x3d66b123	0.056321274
39	0x3e485bc7	0.1956626
40	0xbe4148fa	-0.18875495
41	0xbe1b16ed	-0.15145464
42	0xbda09fcb	-0.07842978
43	0x3dfc3a96	0.12315862
44	0x3e24fc5b	0.16111891
45	0x3e028598	0.12746274
46	0x3e17ed22	0.14836553
47	0x3df5abf2	0.119956866
48	0x3d3aa204	0.045564666
49	0x3bc91d70	0.0061375424
50	0xbe03c512	-0.12868145
51	0xbcdfab9b	-0.027303508
52	0x3d96b8b4	0.07359448
53	0xbe1b5d1a	-0.15172234
54	0x3e005c18	0.12535131
55	0x3e343bcc	0.17600936
56	0xbd84ff08	-0.06493956
57	0xbde291d7	-0.11062973
58	0x3d92c3ae	0.07166229
59	0x3e1bc8b5	0.15213282
60	0xbd74c0da	-0.05975423
61	0xbe2157ed	-0.15756197
62	0x3cdbf3a4	0.026849575
63	0xbcb3b17b	-0.021935215
64	0x3df6b758	0.12046689
65	0xbdf1e0bf	-0.11810445
66	0x3cc41cd5	0.02393953
67	0xbd2349e8	-0.039865404
68	0x3e181163	0.14850383
69	0x3d3670bf	0.044541117
70	0x3d39e267	0.04538193
71	0xbe40efed	-0.18841524
72	0xbe3017c4	-0.17196566
73	0xbbeed985	-0.007289114
74	0xbd941c92	-0.07232012
75	0xbce530cc	-0.02797737
76	0xbe09d899	-0.13461532
77	0x3dc9b418	0.09848803
78	0xbc4e0a4b	-0.012575696
79	0xbe1d7c1f	-0.1537938
80	0xbe153fe2	-0.1457515
81	0xbdf725a1	-0.12067724
82	0x3dfd16da	0.12357874
83	0xbdb483d3	-0.08814206
84	0x3d0473ef	0.032337125
85	0x3e391753	0.18075304
86	0x3d4556ab	0.048178356
87	0xbda7fdc6	-0.082027
88	0xbd8cab82	-0.0686865
89	0x3d87711a	0.06613369
90	0x3dec74df	0.11545729
91	0xbd28b784	-0.04119064
92	0xbe0ddfef	-0.13854955
93	0xbde210e2	-0.110383764
94	0x3bae399a	0.0053169252
95	0x3d5beea6	0.05369439
96	0xbe2ac050	-0.16674924
97	0x3e01c256	0.1267179
98	0x3db56a59	0.08858175
99	0x3e0cb19e	0.1373963
100	0x3d47aab4	0.04874678
101	0xbe09c8d9	-0.13455524
102	0xbe2173bf	-0.1576681
103	0xbe0d1e20	-0.13781023
104	0x3e01114a	0.12604252
105	0xbd8f4698	-0.069958866
106	0x3db3cf4a	0.087797716
107	0xbd508e11	-0.050916735
108	0x3e0fa9e3	0.1402965
109	0x3e1ae1a2	0.15125135
110	0x3d8d744d	0.06906948
111	0xbc87b374	-0.016565062
112	0x3d9935bb	0.074809514
113	0xbe322867	-0.17398225
114	0xbdd43a2a	-0.103626564
115	0x3d4ff991	0.050775114
116	0x3e03d2c4	0.1287337
117	0xbd8be064	-0.068299085
118	0x3dd415ca	0.103557184
119	0xbcd46f43	-0.02593196
120	0xbac7d5a2	-0.0015246163
121	0x3e555fc3	0.20837311
122	0xbe2d572d	-0.16927786
123	0xbda8666c	-0.082226604
124	0x3dcd3fbb	0.10021921
125	0xbe15b45c	-0.14619583
126	0x3c1975e3	0.009366485
127	0xbe21e14a	-0.15808597
128	0x3e03ca0b	0.12870042
129	0xbddade6e	-0.10686956
130	0xbdced808	-0.100997984
131	0x3e1bc4e2	0.15211824
132	0xbe0a4220	-0.13501787
133	0x3c68d320	0.014210492
134	0x3dc092cb	0.094029985
135	0x3b80f695	0.003935645
136	0x3dbdd2cc	0.09268722
137	0xbd2a5e2b	-0.04159371
138	0xbd1f9964	-0.038964644
139	0x3bdb474d	0.0066918493
140	0x3d3bb4cb	0.045826714
141	0x3cb4b108	0.022057071
142	0x3e1697c9	0.14706339
143	0xbdf89ed2	-0.121396676
144	0x3d570075	0.05249067
145	0xbdd91fd9	-0.106017776
146	0x3da93f0e	0.0826398
147	0xbc147526	-0.0090611335
148	0xbda1410d	-0.078737356
149	0x3db1e4a8	0.08686191
150	0x3db88c02	0.09011079
151	0xbdef348a	-0.11679943
152	0xbe035fae	-0.12829468
153	0xbdf78b0b	-0.12087067
154	0x3ce18dc9	0.027533429
155	0xbcd3d108	-0.02585651
156	0xbd84f309	-0.06491668
157	0xbe3a9bf6	-0.18223557
158	0x3db1df78	0.086852014
159	0x3e0b0632	0.13576582
160	0x3e0c60e2	0.13708833
161	0x3e29bde2	0.16576341
162	0x3c02bea6	0.007980024
163	0xbc9b3ff7	-0.0189514
164	0xbda1b1da	-0.078952506
165	0xbdbfd36b	-0.09366497
166	0xbd4f900c	-0.050674483
167	0x3e22ca9e	0.15897605
168	0x3dced049	0.10098321
169	0xbe0fb565	-0.1403404
170	0xbe1893cd	-0.14900132
171	0x3ddbed7f	0.10738658
172	0x3e32d2bc	0.17463201
173	0xbc15f089	-0.009151586
174	0x3e12ffeb	0.14355437
175	0x3cb67c0a	0.022275943
176	0x3dbb7a8c	0.09154233
177	0xbd0ab00e	-0.033859305
178	0x3dad3902	0.08458139
179	0xbdc49d5e	-0.09600328
180	0x3e42b849	0.19015612
181	0x3e3d37bf	0.18478297
182	0x3dca5c01	0.098808296
183	0xbe064efa	-0.13116065
184	0xbadc8f67	-0.0016827405
185	0x3e46543e	0.19368073
186	0xbd1275e0	-0.035756946
187	0x3cc2462b	0.0237151
188	0x3e2bf217	0.16791569
189	0xbe396664	-0.18105465
190	0x3cd77084	0.026298769
191	0x3d42cb9a	0.04755745
192	0x3d88251c	0.06647703
193	0x3d6714be	0.056416266
194	0x3d668276	0.05627676
195	0xbe424acd	-0.18973847
196	0xbe1733f3	-0.14765911
197	0xbd66564a	-0.056234635
198	0x3d6f85b8	0.058477134
199	0x3ddd6c38	0.10811657
200	0xbc3d4700	-0.011552572
201	0xbc8955a4	-0.01676447
202	0x3e000d73	0.1250513
203	0xbe22348f	-0.15840362
204	0xbe31a794	-0.17349082
205	0xbe348830	-0.17630076
206	0x3de25932	0.11052169
207	0x3e09fee1	0.13476135
208	0xbdb74ec1	-0.08950568
209	0xbd7903a6	-0.060794495
210	0xbd0eb9bc	-0.0348451
211	0x3e34913b	0.17633526
212	0x3db6ed2a	0.08931954
213	0xbd5005ea	-0.05078689
214	0x3e0aafc8	0.13543618
215	0xbe10642d	-0.14100714
216	0x3e12c8cd	0.14334412
217	0x3e09da31	0.1346214
218	0x3e4245c8	0.18971932
219	0xbd7c9c96	-0.06167277
220	0x3e14be7f	0.14525793
221	0x3d17ce3a	0.037061907
222	0x3cb1e96c	0.02171775
223	0x3deff844	0.11717275
224	0x3e1c9a71	0.1529329
225	0xbd4df434	-0.05028172
226	0xbd6f4f91	-0.05842549
227	0xbe1a179f	-0.15048073
228	0xbe402316	-0.18763384
229	0xbd612aec	-0.054972574
230	0x3e07ec26	0.13273677
231	0xbe025d44	-0.1273089
232	0xbdef5d6b	-0.1168774
233	0x3e182ae3	0.1486011
234	0x3d574513	0.05255611
235	0xbe433933	-0.19064789
236	0xbb38f0ca	-0.0028219693
237	0x3ddf8042	0.10913135
238	0x3e45abb5	0.19303782
239	0xbae771d2	-0.0017657822
240	0xbc20f497	-0.00982394
241	0xbe2438bf	-0.16037272
242	0x3e0a6f03	0.1351891
243	0x3dda35de	0.106548056
244	0xbddd43c5	-0.10803942
245	0xbdf43835	-0.11924783
246	0x3d774f37	0.06037828
247	0xbe06d9fc	-0.13169092
248	0x3e17e923	0.14835028
249	0xbd9e4736	-0.07728426
250	0xbcb222b0	-0.021745056
251	0xbe08bfeb	-0.13354461
252	0xbe23ccb9	-0.15996064
253	0x3dfc692d	0.12324748
254	0xbdd505e7	-0.104015164
255	0xbbb88456	-0.00563101

GAT_layers.0.GAT_heads.1.f.bias f4 [32]
0	0xbd6584d5	-0.05603488
1	0xbc2a04d5	-0.010377129
2	0xbd87e5ff	-0.06635665
3	0xbd34a5f4	-0.044103578
4	0x3d41b13f	0.047288176
5	0x3d030c55	0.031994183
6	0x3db2bde4	0.08727625
7	0xbaa289e1	-0.001240071
8	0x3c74c939	0.014940553
9	0x3ca73ede	0.02041572
10	0x3d5163a1	0.051120404
11	0xbd2d4314	-0.0423003
12	0xbcad6169	-0.021164613
13	0xbd2645e8	-0.04059401
14	0x3c10e564	0.0088437535
15	0xbd868b34	-0.0656952
16	0x3d94f5c0	0.072734356
17	0x3d963901	0.073350914
18	0xbd8d8a16	-0.069111034
19	0x3daf13ee	0.08548723
20	0xbc7dc143	-0.015487972
21	0x3d8116ec	0.063032
22	0xbd9f8ee5	-0.07790927
23	0xbd160b4d	-0.03663187
24	0xbdb9ce1e	-0.09072517
25	0xbd07e564	-0.03317775
26	0x3ba3e19f	0.0050012614
27	0xbd4e2f82	-0.050338276
28	0xbcc016a5	-0.023448298
29	0x3d3dd81b	0.046348672
30	0xbc672804	-0.014108662
31	0xbced8dba	-0.028998245

GAT_layers.0.GAT_heads.1.w.weight f4 [1, 124]
0	0x3e34f708	0.1767236
1	0xbdf0048f	-0.117196195
2	0x3c0f1d66	0.0087350365
3	0x3d9cbaff	0.07652854
4	0xbc4219ad	-0.011846942
5	0x3dbf67db	0.09345981
6	0xbdc9d609	-0.09855277
7	0xbd691985	-0.056909103
8	0x3de029e1	0.10945488
9	0xbe05ecb4	-0.13078576
10	0xbd38b545	-0.045094747
11	0x3d3de9a2	0.046365388
12	0x3e347e67	0.17626344
13	0x3dd76480	0.10517216
14	0x3da3e63b	0.08002897
15	0xbd34e078	-0.044159383
16	0x3d00042f	0.03125399
17	0xbdc58c28	-0.09645873
18	0x3c8db224	0.017296858
19	0xbddd005f	-0.107910864
20	0xbe041aa2	-0.12900785
21	0xbe0dc4fb	-0.13844673
22	0x3db9006c	0.090332836
23	0xbe238cd0	-0.15971684
24	0x3e4962db	0.19666617
25	0xbdb31d58	-0.08745831
26	0xbd88321c	-0.066501826
27	0xbbd5d8e8	-0.0065261014
28	0x3b17d067	0.002316499
29	0xbe1f3929	-0.15549149
30	0x3e4e1dc9	0.2012855
31	0x3e26d2f7	0.16291414
32	0xbe016bdb	-0.126388
33	0xbd2f49aa	-0.04279486
34	0x3e15d210	0.14630914
35	0x3c95d760	0.018291175
36	0x3bee89ce	0.007279611
37	0xbe5934ab	-0.21211497
38	0x3d14f7b4	0.03636904
39	0xbe4ec7f9	-0.20193471
40	0x3dea0d00	0.11428261
41	0x3dd150ab	0.10220464
42	0x3e5a5ab3	0.21323662
43	0x3ddf9037	0.10916179
44	0xbc69b32f	-0.014263912
45	0xbd98883c	-0.0744786
46	0x3e14a052	0.14514282
47	0x3d36a878	0.044594258
48	0x3e1826cc	0.1485855
49	0x3d9140d2	0.070924416
50	0x3e3ef939	0.18649758
51	0xbde3dd1e	-0.11126159
52	0xbe60bee2	-0.21947816
53	0xbd996e88	-0.07491785
54	0xbda04a69	-0.078266926
55	0x3da20273	0.079106234
56	0xbd6238a7	-0.05522981
57	0x3d58237c	0.052768216
58	0x3e1d47b6	0.15359387
59	0x3dc0a490	0.09406388
60	0x3e28a20a	0.16468063
61	0x3d17e37b	0.037082177
62	0x3d9328e0	0.07185531
63	0x3e4b5419	0.198563
64	0x3e393829	0.1808783
65	0x3db366b9	0.08759827
66	0x3e13e5ba	0.14443102
67	0x3dee8f9f	0.11648487
68	0x3e483e8c	0.1955511
69	0xbd2f16a7	-0.042746212
70	0xbe016698	-0.12636793
71	0xbe56ee53	-0.20989351
72	0x3cf24ad7	0.029576702
73	0x3dca7a04	0.09886554
74	0xbe2b0314	-0.16700393
75	0x3e47b7c3	0.19503693
76	0x3e50fc65	0.20408781
77	0xbe41e2d4	-0.18934184
78	0xbe349b65	-0.17637403
79	0x3d12bd72	0.0358252
80	0x3df30df6	0.11867897
81	0xbc1129f5	-0.008860101
82	0x3d8d1ac1	0.068898685
83	0xbd8b5894	-0.06804004
84	0xbde98820	-0.11402917
85	0x3e4fbfc2	0.20287994
86	0xbe0f4851	-0.1399243
87	0x3d7b66a4	0.061377183
88	0xbc5efb1a	-0.013609672
89	0xbc339a8a	-0.010962138
90	0x3e5c21fe	0.21497342
91	0x3d2bebf3	0.041973066
92	0x3e11f20c	0.1425249
93	0xbe1690cb	-0.14703672
94	0xbd9c6308	-0.07636076
95	0x3de54148	0.11194092
96	0xbe535bdf	-0.20640515
97	0xbb516c4f	-0.0031955426
98	0x3e23bd15	0.15990098
99	0xbdffd199	-0.124911495
100	0xbcd1a108	-0.025589481
101	0x3e4eaa88	0.2018224
102	0x3e3af961	0.18259193
103	0xbe5f0990	-0.21780992
104	0x3dcb2810	0.09919751
105	0x3c186d4a	0.0093034
106	0xbd9caa96	-0.07649724
107	0x3e015193	0.12628774
108	0xbd603f67	-0.054747965
109	0xbe192627	-0.1495596
110	0x3caa3ccb	0.020780941
111	0x3de8fa67	0.113758855
112	0x3e1170a5	0.14203127
113	0xbe6791fc	-0.22614282
114	0xbe453ffe	-0.19262692
115	0xbd9ba40e	-0.0759965
116	0x3dbe54f4	0.09293547
117	0xbd08fe4e	-0.03344565
118	0x3e1ba3c1	0.15199186
119	0xbd8c840d	-0.06861124
120	0x3d9b877b	0.075942
121	0xbc331c0f	-0.010931983
122	0x3e4d6aa4	0.20060211
123	0xbe05de1e	-0.13073012

GAT_layers.1.GAT_heads.0.f.weight f4 [64, 128]
0	0xbddfb069	-0.109223194
1	0xbdd8bff6	-0.10583489
2	0x3e093c28	0.13401854
3	0x3e31f97c	0.17380327
4	0x3b15a6b1	0.0022834952
5	0xbd832f2a	-0.0640548
6	0x3e1affd1	0.15136649
7	0x3e26b493	0.16279821
8	0x3e0c0e7f	0.13677405
9	0x3db082a4	0.08618668
10	0x3e22c17e	0.15894124
11	0x3d6dc6d2	0.058050938
12	0xbdd5278d	-0.10407934
13	0xbe25b89b	-0.16183703
14	0x3cb42280	0.021989107
15	0xbdcfc221	-0.10144449
16	0xbdf28f39	-0.11843724
17	0xbda0ce93	-0.07851901
18	0xbd707c6d	-0.05871241
19	0x3d5dd9b0	0.05416268
20	0x3d33c9ef	0.04389375
21	0x3d0df9ee	0.03466218
22	0xbccb7dcb	-0.024840256
23	0x3d5ed083	0.05439807
24	0x3d5094b4	0.050923064
25	0xbde15a85	-0.11003593
26	0x3db602de	0.088872656
27	0x3e0307bb	0.12795918
28	0xbe1c1111	-0.15240885
29	0xbddf9547	-0.10917144
30	0x3d91ce60	0.07119441
31	0xbdeedb36	-0.11662905
32	0xbc059272	-0.008152591
33	0x3e337790	0.17526078
34	0x3e32de69	0.17467655
35	0x3c3a2513	0.011361378
36	0x3d49d741	0.049277548
37	0xbc006444	-0.007836405
38	0x3e2f5d2a	0.17125383
39	0xbdc916e6	-0.09818821
40	0x3cf05179	0.029335724
41	0x3def7b68	0.1169346
42	0x3cefd5f3	0.029276824
43	0x3ccf0c0f	0.025274305
44	0x3e21867a	0.15773955
45	0xbe2c8e68	-0.16851199
46	0xbcb3d92e	-0.021954145
47	0x3d1d84aa	0.038456596
48	0x3d8a5bc3	0.067557834
49	0x3a298a37	0.0006467434
50	0xbb47d568	-0.003049219
51	0xbe218ff9	-0.15777577
52	0x3d168fe7	0.03675833
53	0x3dd7576a	0.1051472
54	0xbe3222ef	-0.17396139
55	0xbdbcb8f6	-0.09214966
56	0xbdef4079	-0.11682219
57	0xbd8fbfa9	-0.07018978
58	0xbcf1b27e	-0.029504057
59	0x3cf420e1	0.029800834
60	0xbe27463f	-0.1633539
61	0xbe06b6f1	-0.13155724
62	0x3dd93ec1	0.106076725
63	0xbe2ddf4a	-0.1697971
64	0xbe25c84d	-0.1618969
65	0x3ab83000	0.0014052391
66	0x3dc8c115	0.098024525
67	0xba812905	-0.0009854144
68	0xbe30aa22	-0.172524
69	0xbcdeaaf8	-0.027181134
70	0x3cbf1fe6	0.02333064
71	0xbe11eb3f	-0.14249896
72	0x3e0fb219	0.14032783
73	0x3e07f303	0.13276295
74	0xbe0ee4ea	-0.13954511
75	0x3e08d506	0.13362512
76	0x3e165d10	0.14683938
77	0xbe2bb173	-0.1676691
78	0xbdc831f3	-0.09775152
79	0x3ddb2ed5	0.10702292
80	0x3e31f14f	0.17377208
81	0xbd8eef08	-0.06979185
82	0x3d773ea7	0.060362484
83	0xbdff7ce1	-0.12474991
84	0xbe2d6a2f	-0.16935037
85	0x3d44a644	0.048010126
86	0x3de4ee39	0.1117825
87	0xbcd45f24	-0.025924273
88	0xbe237044	-0.15960795
89	0xbca8aa48	-0.020589009
90	0xbbdb23e8	-0.00668763
91	0xbde75bf8	-0.112968385
92	0xbd73a35e	-0.05948197
93	0xbdd33ac1	-0.10313941
94	0x3e166e46	0.14690503
95	0x3defae46	0.11703162
96	0x3d3f2c0d	0.04667287
97	0x3e20dfe6	0.1571041
98	0x3cc2ad54	0.02376429
99	0xbd602787	-0.054725196
100	0xbd300346	-0.04297187
101	0xbe23953d	-0.15974899
102	0x3da5836e	0.08081709
103	0xbe2e7913	-0.17038374
104	0x3d9175c7	0.07102542
105	0x3db8edb1	0.09029711
106	0xbe07cecd	-0.13262482
107	0x3e282f09	0.16424192
108	0x3dde9e55	0.10870043
109	0x3e1c9890	0.15292573
110	0x3dd34c5d	0.103172995
111	0xbdda21c5	-0.10650972
112	0x3d9e24a0	0.077218294
113	0xbdf114d2	-0.11771549
114	0xbd3d482c	-0.046211407
115	0x3def845b	0.11695167
116	0xbdab98e0	-0.08378768
117	0x3e2caf89	0.16863836
118	0xbe15519a	-0.1458191
119	0xbe12618c	-0.14295024
120	0xbe1642de	-0.14673945
121	0xbdb9cc9c	-0.09072229
122	0x3e028e32	0.12749556
123	0xbbcd61fc	-0.006267784
124	0xbe14d960	-0.14536047
125	0x3dfb9f6d	0.122862674
126	0x3e24321c	0.1603474
127	0xbe1018c1	-0.14071943
128	0xbd6b3db3	-0.057431888
129	0x3daa09f5	0.083026804
130	0xbdc5465c	-0.096325606
131	0xbe086fd9	-0.13323916
132	0xbddaa75b	-0.10676452
133	0x3d6d8b0d	0.057993937
134	0x3e31e1f9	0.17371358
135	0xbe18e7c9	-0.14932169
136	0x3cc7e097	0.024399085
137	0x3c0b0d59	0.008487069
138	0xbdb5889d	-0.088639475
139	0x3c1f9589	0.009740242
140	0xbde17904	-0.1100941
141	0x3c1c9cf4	0.009558905
142	0xbd9b4f14	-0.07583442
143	0xbe125f6b	-0.14294212
144	0xbde86975	-0.11348239
145	0xbdc0914c	-0.09402713
146	0xbdf3994e	-0.11894475
147	0x3e13fbd9	0.14451541
148	0xbcfed1f5	-0.031105975
149	0x3c1c11be	0.009525714
150	0xbd3d9d50	-0.046292603
151	0x3d5e19cb	0.054223817
152	0x3e120b48	0.14262116
153	0xbd8d42fd	-0.068975426
154	0x3df90856	0.12159793
155	0xbd9f4137	-0.077761106
156	0xbd72fd93	-0.05932386
157	0xbd2a071b	-0.041510683
158	0xbd5fd2da	-0.054644443
159	0xbd9b3087	-0.07577615
160	0xbdd30309	-0.10303313
161	0xbdd54fbf	-0.10415601
162	0x3e19f10f	0.15033363
163	0x3e27a0a3	0.16369872
164	0xbda707d4	-0.0815579
165	0x3d846587	0.06464677
166	0x3d6b6b16	0.057475172
167	0xbbcad471	-0.006189876
168	0xbe07d49f	-0.13264702
169	0x3dc3bf3e	0.09557961
170	0xbe2af132	-0.16693571
171	0x3d333c12	0.04375846
172	0xbd2c710d	-0.0421
173	0xbc4d818a	-0.012543092
174	0xbe29328c	-0.16523188
175	0xbdc0f878	-0.09422392
176	0xbd93bbdf	-0.07213568
177	0x3d0676f9	0.032828305
178	0x3c3ec5ec	0.011643868
179	0x3c22dc9b	0.009940292
180	0x3e025a37	0.12729727
181	0xbcc03cdd	-0.023466522
182	0x3e330e2a	0.17485872
183	0xbe0d39ce	-0.13791582
184	0xbb9fe9f2	-0.0048801834
185	0xbd982d9e	-0.07430576
186	0x3e14ac75	0.14518912
187	0xbde6992a	-0.112596825
188	0x39203431	0.00015278232
189	0xbd84bcbc	-0.06481311
190	0xbde23ed7	-0.11047142
191	0x3d94dd69	0.07268793
192	0xbba096a8	-0.004900772
193	0xbd4f2acc	-0.050577924
194	0x3e1a1cf5	0.15050109
195	0x3e2e4570	0.17018676
196	0xbb91ebec	-0.004453173
197	0xbda88917	-0.08229273
198	0x3dafc8a4	0.08583191
199	0xbe11458d	-0.14186688
200	0x3c93ac7e	0.018026587
201	0xbd35f74f	-0.044425305
202	0x3d7b14ab	0.061299007
203	0xbe2da54b	-0.16957586
204	0x3e0f1261	0.13971855
205	0xbe1b73e7	-0.15180932
206	0x3b68afbc	0.0035505136
207	0x3e08b917	0.13351856
208	0x3d9c05b6	0.07618277
209	0xbca2e846	-0.019886147
210	0xbc0c74e9	-0.008572795
211	0xbe02615b	-0.1273245
212	0x3db5b74b	0.08872851
213	0x3c7d9160	0.015476555
214	0xbd64c432	-0.05585117
215	0x3dce068d	0.10059843
216	0xbe242c2c	-0.16032475
217	0x3d95d3ba	0.07315774
218	0x3de1d827	0.11027556
219	0x3dc9486b	0.09828266
220	0xbdcac573	-0.09900942
221	0xbd3b82ce	-0.045779042
222	0x3dbcaa44	0.09212163
223	0xbdef50ae	-0.1168531
224	0x3e1d98a5	0.1539026
225	0x3d4759a4	0.048669472
226	0xbe1283cf	-0.14308093
227	0x3dd3fe94	0.10351291
228	0xbdd1ec1a	-0.10250111
229	0xbe2424c1	-0.16029646
230	0xbdc0c986	-0.094134375
231	0x3b67c007	0.003536226
232	0x3defa19a	0.11700745
233	0xbe05dc2e	-0.13072273
234	0x3d37e073	0.044891786
235	0x3e0f1641	0.13973333
236	0xbce6c912	-0.02817205
237	0xbe0f7bea	-0.14012113
238	0xbce365ef	-0.027758567
239	0xbe23caa3	-0.15995269
240	0x3e260f27	0.16216718
241	0x3d51c49b	0.05121289
242	0xbd5b6b09	-0.053568874
243	0x3d948196	0.07251279
244	0xbd8e1dea	-0.069392994
245	0xbdff9a89	-0.12480647
246	0x3dc25104	0.09488109
247	0x3dfa9cfb	0.12236973
248	0x3d903e0e	0.07043086
249	0xbd6c1c92	-0.057644434
250	0x3e28119b	0.16412966
251	0x3bc49743	0.005999477
252	0x3d508da2	0.05091632
253	0x3dea630c	0.11444673
254	0xbd79060d	-0.060796786
255	0x3d80b516	0.062845394

GAT_layers.1.GAT_heads.0.f.bias f4 [64]
0	0x3d9c8114	0.07641807
1	0x3da298ee	0.07939325
2	0x3d51736e	0.051135473
3	0xbc5ec3ce	-0.013596488
4	0x3c87f2c7	0.016595257
5	0x3cd966e0	0.026538312
6	0xbd51288e	-0.051064067
7	0xbd8f5d1e	-0.070001826
8	0x3cc8dbf6	0.024518948
9	0xbd79f7cb	-0.06102733
10	0xbc769eef	-0.015052541
11	0xbbc73f53	-0.006080547
12	0xbd32bd8b	-0.043637794
13	0x3d56c182	0.052430637
14	0x3d44b64b	0.04802541
15	0xbcc53000	-0.02407074
16	0x3d899244	0.06717351
17	0x3c274859	0.01021012
18	0xbca85eaa	-0.020552952
19	0xbd414c2c	-0.047191784
20	0x3d717508	0.0589495
21	0x3cbb3f03	0.022857195
22	0xbd864732	-0.06556548
23	0xbb9087ce	-0.0044107204
24	0xbd0be7e6	-0.034156702
25	0xbba41c66	-0.005008268
26	0xbd81754f	-0.06321203
27	0xbd66e377	-0.05636927
28	0x3dac98ea	0.084276035
29	0xbc0f8ca6	-0.008761561
30	0x3d80464f	0.0626341
31	0x3d234978	0.039864987
32	0xbda37c60	-0.07982707
33	0x3d96be50	0.07360518
34	0xbcd6f1bf	-0.02623832
35	0x3d1f9f3b	0.038970213
36	0xbd30636b	-0.043063562
37	0x3881bb64	6.1861036e-05
38	0x3d1faeb4	0.03898497
39	0x3c4a0131	0.012329386
40	0x3cc998c5	0.024608979
41	0xbd54a81c	-0.051918134
42	0xbd7cf1c7	-0.061754014
43	0x3d741969	0.059594546
44	0xbce28553	-0.027651465
45	0xbc7d7a87	-0.015471107
46	0xbda67c6d	-0.08129201
47	0x3d9d25ae	0.076732025
48	0x3d1c8158	0.03820929
49	0x3c8e368b	0.017359992
50	0xbd2bd5e1	-0.041952018
51	0x3d7bb1d0	0.061448872
52	0x3ca426bd	0.020038003
53	0x3dc35b87	0.09538942
54	0xbd1f7c39	-0.038936827
55	0xbb94cb39	-0.0045408276
56	0x3d247eaf	0.040159877
57	0x3c0ca000	0.008583069
58	0x3ce84bca	0.028356452
59	0xbbe9c3e9	-0.00713395
60	0x3d2be9e8	0.041971117
61	0xbd4fc898	-0.05072841
62	0xbd906394	-0.07050243
63	0x3c913a30	0.017727941

GAT_layers.1.GAT_heads.0.w.weight f4 [1, 128]
0	0x3e427676	0.18990502
1	0xbe17a9ed	-0.14810915
2	0xbcda756b	-0.026667317
3	0x3df743bd	0.12073467
4	0x3dafbfeb	0.08581527
5	0x3d821628	0.06351882
6	0x3e1e5493	0.1546195
7	0xbe1ad1fc	-0.15119165
8	0x3dfb4885	0.122696914
9	0xbd60f97c	-0.054925427
10	0x3d640929	0.0556728
11	0x3e2d638b	0.16932504
12	0x3d238c50	0.039928734
13	0xbe216d44	-0.15764338
14	0x3de180d1	0.11010898
15	0x3e0fc600	0.14040375
16	0x3e0d02db	0.1377062
17	0xbe5c8c74	-0.21537954
18	0xbdfded09	-0.123987265
19	0x3d394a51	0.04523689
20	0xb9b54ead	-0.00034581628
21	0x3e372f3e	0.17889115
22	0x3d54bd97	0.05193862
23	0x3e35e5af	0.17763399
24	0xbbffcc42	-0.007806332
25	0x3d0d1361	0.03444231
26	0xbdb486cc	-0.08814773
27	0xbdee5510	-0.11637318
28	0xbe372517	-0.17885242
29	0x3e4ea81b	0.20181315
30	0x3dc82cfb	0.09774204
31	0x3de7a118	0.11310023
32	0x3d866947	0.06563049
33	0xbd39be3d	-0.04534744
34	0x3d37288c	0.044716403
35	0xbe45c9c3	-0.19315247
36	0xbe27d241	-0.16388799
37	0xbdb0464e	-0.086071596
38	0xbe3ec0a0	-0.18628168
39	0xbdb1e0f2	-0.08685483
40	0x3c15a422	0.009133371
41	0xbe40ca7f	-0.18827246
42	0xbd8ab097	-0.06771963
43	0xbd5e8d50	-0.054333985
44	0xbe4549d0	-0.19266438
45	0xbd5fcd4e	-0.054639153
46	0xbd8ce8ae	-0.06880318
47	0xbe5a82dc	-0.21338981
48	0x3d5fd4b1	0.054646198
49	0xbdec0ce8	-0.11525899
50	0x3e2828ad	0.16421767
51	0x3e3a036d	0.1816537
52	0xbe015bd3	-0.12632684
53	0xbda3f4b5	-0.080056585
54	0xbd8b7440	-0.06809282
55	0x3da11280	0.07864857
56	0xbd9129a1	-0.07088018
57	0xbd2e4faf	-0.04255646
58	0x3dd5442a	0.10413392
59	0x3cd7084f	0.026249079
60	0xbdf3c52f	-0.11902844
61	0xbe53f232	-0.20697859
62	0x3d9c42d8	0.07629937
63	0x3e214d4f	0.15752147
64	0xbe42dd62	-0.19029763
65	0xbdc8e36b	-0.098090015
66	0x3e02e74d	0.12783547
67	0xbd3bc1a0	-0.045838952
68	0x3e3f6fe6	0.1869503
69	0x3da3f63f	0.08005952
70	0x3de36224	0.11102703
71	0xbdda1fe2	-0.106506124
72	0x3e2d591c	0.16928524
73	0xbdc1a278	-0.094548166
74	0xbdd5dbea	-0.10442336
75	0x3e5add0e	0.21373388
76	0xbd6c0978	-0.057626218
77	0x3cfdfd54	0.031004585
78	0xbe27153a	-0.16316691
79	0xbd3ffebf	-0.046873804
80	0x3c04b93f	0.008100807
81	0x3db850d5	0.089997925
82	0xbd8fc7e2	-0.070205465
83	0xbe2c3b1c	-0.16819423
84	0xbda61e4b	-0.08111247
85	0xbe4d3cf1	-0.20042779
86	0x3d8bcade	0.06825803
87	0x3e03ff8e	0.12890455
88	0xbde1423f	-0.109989636
89	0x3e558ecb	0.20855252
90	0xbd82e701	-0.06391717
91	0xbd10a1c2	-0.035310514
92	0xbe195852	-0.14975098
93	0xbd545230	-0.051836193
94	0xbcc60139	-0.024170505
95	0xbe554b98	-0.20829618
96	0x3ddaf88f	0.1069194
97	0x3dc97867	0.09837418
98	0xbde4be93	-0.11169162
99	0xbe2e5912	-0.17026165
100	0x3cc7ef6b	0.024406156
101	0xbd6146c6	-0.054999135
102	0x3e1946bc	0.1496839
103	0x3e38d3d4	0.18049556
104	0xbda69207	-0.08133321
105	0x3e2141e2	0.15747789
106	0x3dfa93a8	0.122351944
107	0x3d499e14	0.04922302
108	0x3e152ac6	0.14567098
109	0x3d73f93a	0.059563853
110	0x3dd90635	0.10596887
111	0x3d9587c6	0.07301287
112	0xbe29f484	-0.16597182
113	0xbe32cd3c	-0.17461103
114	0x3d7f4ba3	0.062327992
115	0xbda4f64f	-0.08054792
116	0xbe1ab2c4	-0.15107256
117	0x3dcb1fea	0.099181965
118	0x3e04689d	0.12930532
119	0xbd2756c1	-0.04085422
120	0xbdd43a13	-0.10362639
121	0x3e281d9b	0.16417544
122	0xbe272688	-0.16323292
123	0xbc725928	-0.014791764
124	0x3e0d75aa	0.13814417
125	0xbe07f729	-0.13277878
126	0x3d6b9a97	0.057520475
127	0xbe27137b	-0.16316025

GAT_layers.1.GAT_heads.1.f.weight f4 [64, 128]
0	0x3d7bd024	0.061477795
1	0xbd805ce3	-0.06267717
2	0xbce2d667	-0.027690126
3	0x3bb77690	0.0055988505
4	0x3de302b9	0.11084504
5	0x3e17357e	0.147665
6	0xbe2a3f29	-0.16625656
7	0xbd53d054	-0.05171235
8	0xbc8847e5	-0.016635844
9	0x3df279ce	0.11839639
10	0x3da56a67	0.08076935
11	0xbc0f41b6	-0.008743694
12	0xbe34b98a	-0.17648903
13	0x3e0a3bd4	0.13499385
14	0x3cc067be	0.023486968
15	0xbe0cca47	-0.13749038
16	0x3e2e240b	0.17005937
17	0x3d1efecb	0.03881721
18	0xbd040775	-0.032233674
19	0xbdf499aa	-0.119433716
20	0xbd2625e3	-0.040563475
21	0x3c97c440	0.018526196
22	0x3e1d468a	0.1535894
23	0x3e1642dc	0.14673942
24	0x3da77930	0.081774116
25	0x3db5bda3	0.08874061
26	0x3dff4277	0.12463849
27	0x3cdf8f3a	0.027289975
28	0x3d512aaf	0.051066097
29	0x3d3730fd	0.044724453
30	0xbd2144f6	-0.039372407
31	0x3d587e52	0.052854843
32	0x3e0f3070	0.13983321
33	0x3ddf63f8	0.109077394
34	0xbd75a405	-0.059970874
35	0x3de1e9d5	0.11030928
36	0xbc8942eb	-0.016755542
37	0xbdb5cda8	-0.088771164
38	0x3e124600	0.14284515
39	0x3cf611b6	0.030037742
40	0x3ddb7ff7	0.10717767
41	0x3d9029f8	0.07039255
42	0x3d46b017	0.048507776
43	0x3d511774	0.051047757
44	0x3b0c5f2a	0.0021419027
45	0xbe00b904	-0.12570578
46	0xbca434f8	-0.020044789
47	0x3da3d72a	0.08000024
48	0x3ccb2af9	0.024800764
49	0x3c09fc3a	0.008421952
50	0xbd5a1a47	-0.053247716
51	0x3d7bf5a3	0.061513554
52	0x3d59bc41	0.05315805
53	0x3ca8d2b8	0.020608291
54	0xbe0417b1	-0.12899663
55	0x3d1655a8	0.036702782
56	0x3da48d66	0.08034782
57	0x3ac5dd98	0.0015095947
58	0x3d61199f	0.054956075
59	0x3d164f12	0.0366965
60	0x3c8825d3	0.016619598
61	0xbdf1a862	-0.117996946
62	0x3e2cf97d	0.16892047
63	0xbdcec453	-0.100960396
64	0xbd813b5f	-0.06310152
65	0x3d43f775	0.047843415
66	0xbe01de9c	-0.12682575
67	0xbe1b7e4e	-0.151849
68	0x3cdfb5c5	0.027308354
69	0xbe26d6e4	-0.16292912
70	0xbda1ca92	-0.07899965
71	0xbc98569e	-0.01859599
72	0xbdd4de9c	-0.10394022
73	0x3d5265a6	0.05136647
74	0xbdf397de	-0.11894201
75	0xbd13fc7c	-0.03612946
76	0x3d93bf3e	0.07214211
77	0xbe0f17f0	-0.13973975
78	0x3caba6cc	0.020953558
79	0xbdac5256	-0.08414142
80	0x3e0a1fde	0.13488719
81	0xbe00a088	-0.12561238
82	0x3ddc1ac4	0.10747293
83	0xbdf633f1	-0.12021626
84	0xbc770a92	-0.015078204
85	0x3e094c21	0.13407947
86	0xbe326e82	-0.17424968
87	0x3dc4848c	0.09595594
88	0x3e288c04	0.16459662
89	0x3dc75985	0.09733871
90	0xbe32523a	-0.1741418
91	0xbcedf8bd	-0.029049272
92	0x3dacde30	0.084408164
93	0xbc04fa98	-0.008116387
94	0xbe213ba5	-0.15745409
95	0xbcacd09f	-0.021095572
96	0xbe017689	-0.12642874
97	0xbb7db0ee	-0.0038710195
98	0xbdccf50c	-0.100076765
99	0x3dec8541	0.11548854
100	0xbcc4326a	-0.02394982
101	0xbd655582	-0.05598975
102	0x3dcfcf74	0.101469904
103	0xbd0ea671	-0.0348267
104	0xbd8174c8	-0.063211024
105	0xbdfd0d7d	-0.12356088
106	0x3d2a44b7	0.041569438
107	0xbda50e3a	-0.08059354
108	0xbd3ecb66	-0.046580695
109	0xbdc3da28	-0.095630944
110	0x3d63d89e	0.055626504
111	0x3e0e7ec7	0.13915549
112	0xbdf9cc81	-0.12197209
113	0x3e215081	0.15753366
114	0x3df3c771	0.11903275
115	0x3e31cf00	0.1736412
116	0xbd894195	-0.06701962
117	0x3deee6c2	0.11665107
118	0xbe0ca10b	-0.13733308
119	0x3dd07bdb	0.101798736
120	0xbd9cbd89	-0.076533385
121	0x3e0667ca	0.1312553
122	0x3e1d3b84	0.15354735
123	0x3de4c364	0.1117008
124	0x3d742e95	0.059614737
125	0xbdad2494	-0.08454242
126	0x3e1354f4	0.14387876
127	0xbc836aaf	-0.016042082
128	0x3e2c12d1	0.16804053
129	0x3d60aa4c	0.054849908
130	0xbe2bf8b4	-0.16794091
131	0x3d363090	0.044479907
132	0xbe31a7e2	-0.17349198
133	0xbd4886cd	-0.04895668
134	0xbda2a7df	-0.07942175
135	0xbe16e30d	-0.1473505
136	0xbd2d1fb5	-0.042266566
137	0x3d43e458	0.047825187
138	0x3bfad6d7	0.0076550054
139	0x3e2a7953	0.16647844
140	0x3d3c1b9b	0.045924764
141	0xbdd9c90a	-0.10634048
142	0xbe3053d7	-0.17219482
143	0xbc3483e7	-0.011017776
144	0x3d22dafe	0.03975963
145	0x3e16a78b	0.1471235
146	0x3c25a62a	0.010110417
147	0xbe0b3248	-0.135934
148	0xbd830572	-0.06397523
149	0xbdc11409	-0.094276495
150	0xbc7b44b5	-0.015336205
151	0xbdef6c78	-0.11690611
152	0x3dba52f0	0.0909785
153	0xbe0fdf0a	-0.14049926
154	0x3cd9d8a1	0.026592555
155	0xbd0fd685	-0.03511669
156	0xbd4905c6	-0.04907777
157	0xbc8ba7e5	-0.017047832
158	0x3d940d3e	0.07229088
159	0xbe1ed8ee	-0.1551244
160	0x3e184d29	0.14873184
161	0xbc286014	-0.010276813
162	0xbda801c2	-0.0820346
163	0x3b6faf8b	0.0036573138
164	0xbd996eb6	-0.074918196
165	0x3de45e70	0.11150825
166	0x3e056030	0.13024974
167	0xbd69610b	-0.056977313
168	0xbdf9c8f2	-0.121965304
169	0x3d6deaa4	0.0580851
170	0x3c8cd2f4	0.017190434
171	0x3d649872	0.055809446
172	0xbd6bee58	-0.05760035
173	0x3d2987df	0.041389342
174	0x3d8c1023	0.06839015
175	0x3ce02979	0.027363526
176	0x3d638857	0.055549946
177	0x3d9310b5	0.07180921
178	0xbc2e96e5	-0.010656093
179	0xbaf6f501	-0.0018841327
180	0x3d2cd669	0.042196665
181	0xbc67cdfe	-0.014148233
182	0xbdd5a913	-0.10432639
183	0xbe21f5ba	-0.15816393
184	0xbd81a67d	-0.06330583
185	0xbd380199	-0.0449234
186	0xbe2a5402	-0.16633609
187	0x3cf6e287	0.030137314
188	0x3e25c384	0.16187865
189	0xbe26f0cc	-0.16302794
190	0xbd7d3a7d	-0.061823357
191	0x3b7c9bbe	0.0038544978
192	0x3e115817	0.1419376
193	0x3e34a2d9	0.17640246
194	0x3b27d9d1	0.0025612006
195	0xbe23a8a9	-0.15982307
196	0xbe2f3091	-0.1710837
197	0x3e1045a1	0.14089061
198	0x3d9fbca6	0.07799654
199	0xbd3d503c	-0.046219096
200	0x3d2cd7ef	0.042198118
201	0x3dc76e48	0.09737831
202	0xbda150b1	-0.07876719
203	0x3dd592b0	0.10428369
204	0xbd10e87a	-0.035377957
205	0x3d310f12	0.043227263
206	0x3e030d0d	0.12797947
207	0x3e13b066	0.1442276
208	0x3dc4c452	0.09607758
209	0xbe129736	-0.14315495
210	0x3d1bd5f8	0.038045853
211	0xbd9230f9	-0.07138247
212	0x3ddb165a	0.106976226
213	0x3e097a4d	0.1342556
214	0xbe09cfdf	-0.13458203
215	0x3d0deb8b	0.03464846
216	0x3e29f84d	0.16598625
217	0xbdcddb46	-0.10051589
218	0xbd4556bc	-0.04817842
219	0x3e13b6c8	0.14425194
220	0xbda50a20	-0.08058572
221	0x3d8aaf64	0.06771734
222	0xbe063228	-0.1310507
223	0x3e2add88	0.1668607
224	0xbdc72eeb	-0.09725746
225	0x3e30f0bb	0.17279331
226	0x3d589c10	0.052883208
227	0xbc0fdb45	-0.008780305
228	0x3c0bd3f4	0.00853442
229	0x3db3e0c8	0.08783108
230	0x3e13e89b	0.144442
231	0x3d60dba9	0.054896984
232	0xbcd51b19	-0.026013898
233	0xbd5f11a8	-0.054460198
234	0xbd98fe2e	-0.07470356
235	0x3d779a2d	0.060449768
236	0x3d4b3f59	0.04962096
237	0xbdb03dc1	-0.086055286
238	0xb9fe018a	-0.00048447802
239	0xbda4e56a	-0.0805157
240	0x3d1268fd	0.035744656
241	0xbe34dc98	-0.17662275
242	0x3cf8a03a	0.03034984
243	0x3e189484	0.14900404
244	0x3dc5aa2f	0.096516006
245	0xbe331117	-0.17486988
246	0xbe083bee	-0.13304111
247	0xbdd70a5a	-0.10500021
248	0xbcb81910	-0.022472888
249	0x3d014ba5	0.03156628
250	0x3e0ce76d	0.13760157
251	0xbe048853	-0.12942629
252	0x3cb60a7e	0.0222218
253	0x3e07209d	0.13196035
254	0xbdcab5b4	-0.09897938
255	0x3e0defee	0.13861057

GAT_layers.1.GAT_heads.1.f.bias f4 [64]
0	0x3c89e193	0.016831195
1	0x3d36c12e	0.044617824
2	0xbc5f0da0	-0.013614088
3	0x3dbdc980	0.09266949
4	0xbd264969	-0.040597353
5	0x3da0fbdf	0.078605406
6	0xbd653066	-0.05595436
7	0xbb9f8ac9	-0.0048688394
8	0xbdcf9416	-0.10135667
9	0xbcac68e0	-0.021046102
10	0xbd64afe2	-0.055831797
11	0xbd0c5821	-0.034263734
12	0xbb85728a	-0.004072492
13	0x3d3dad5e	0.046307914
14	0x3d3b9da2	0.045804627
15	0xbda88e40	-0.08230257
16	0x3d5ce673	0.05393071
17	0xbcd58c58	-0.026067898
18	0xbbf01fca	-0.0073280083
19	0xbd8f230f	-0.06989109
20	0x3c21e5dd	0.009881464
21	0xbd2b9535	-0.04189034
22	0xbda11e1a	-0.078670695
23	0x3da5c081	0.08093358
24	0xbda6de06	-0.08147816
25	0x3d6b73c6	0.057483457
26	0xbdb331cb	-0.08749732
27	0x3d2eb252	0.04265053
28	0x3d99fea4	0.07519272
29	0xbaab60cb	-0.0013075111
30	0x3d9be2a3	0.07611587
31	0x3d00f547	0.031483915
32	0xbd662a63	-0.056192767
33	0x3c021b84	0.007941131
34	0xbd95dd6f	-0.07317626
35	0xbd7d3f46	-0.06182792
36	0xbd72207a	-0.059113003
37	0xbdd11884	-0.10209754
38	0xbd626f47	-0.055281904
39	0x3d7e30c0	0.06205821
40	0x3c96d593	0.018412387
41	0xbd957c1f	-0.07299065
42	0xbdb2799e	-0.08714603
43	0xbbbc4558	-0.005745571
44	0xbd1c2916	-0.03812512
45	0x3d9e77b7	0.077376775
46	0xbc624d4c	-0.013812374
47	0x3c84408f	0.016144065
48	0x3cfb150c	0.030649684
49	0xbd3c9690	-0.046042025
50	0x3c97947c	0.01850342
51	0x3d46df87	0.048553016
52	0xbd6474a8	-0.055775315
53	0x3d8b069e	0.067883715
54	0xbcd2f5e1	-0.02575201
55	0x3da01b02	0.07817651
56	0x3d2f9992	0.042871065
57	0xbcb04ddd	-0.021521503
58	0x3ccac1d1	0.024750622
59	0x3d1470d0	0.0362404
60	0xbcdf6d3f	-0.027273772
61	0xbb129ec5	-0.0022372466
62	0x3da6fab5	0.08153287
63	0xbda0a6d2	-0.078443184

GAT_layers.1.GAT_heads.1.w.weight f4 [1, 128]
0	0x3dc6b0f3	0.09701719
1	0xbd18ff96	-0.03735312
2	0xbd6ba874	-0.057533696
3	0xbe37679a	-0.17910615
4	0xbc6b8d63	-0.014376971
5	0x3e00b608	0.1256944
6	0xbc138e41	-0.009006084
7	0xbdb23bd2	-0.08702816
8	0x3daf47d9	0.08558626
9	0xbe699792	-0.22811726
10	0xbd7ee911	-0.06223399
11	0x3dd9fe0f	0.10644161
12	0x3e3b16e1	0.18270446
13	0x3d6ae699	0.05734882
14	0x3bbc085f	0.0057383026
15	0x3d20a733	0.039221954
16	0xbdfce39a	-0.12348099
17	0x3d212bd2	0.03934843
18	0x3d357025	0.044296402
19	0xbdf97585	-0.12180618
20	0x3d657167	0.056016352
21	0x3da827b8	0.08210701
22	0xbda9f6b3	-0.08299007
23	0x3b51a6d3	0.0031990304
24	0x3dbc80a2	0.09204222
25	0xbe5de7b2	-0.21670416
26	0xbc1a51b9	-0.009418898
27	0xbdb59ab6	-0.088673994
28	0x3e1ca75e	0.1529822
29	0xbd0e8030	-0.034790218
30	0x3dea2fde	0.11434911
31	0xbcff2157	-0.031143827
32	0xbe246a01	-0.16056062
33	0xbd94df7c	-0.07269189
34	0xbdc80484	-0.09766486
35	0xbc5ea960	-0.013590187
36	0x3da33f4e	0.07971059
37	0x3d87ab59	0.06624479
38	0x3dfe85f4	0.12427893
39	0x3e580047	0.21093856
40	0x3e491419	0.19636573
41	0x3e22a5c6	0.1588355
42	0xbd706431	-0.0586893
43	0x3cf47a9a	0.029843617
44	0xbe36f8f4	-0.17868406
45	0x3d4fa58b	0.050694983
46	0xbdee1048	-0.11624199
47	0xbe02e8a9	-0.12784065
48	0xbe462f1f	-0.19353913
49	0xbd93bc12	-0.07213606
50	0x39c9e745	0.00038510017
51	0x3d3cc0c8	0.046082288
52	0x3dbfa6c4	0.0935798
53	0x3e207849	0.15670885
54	0xbd141db9	-0.03616116
55	0xbe0442fd	-0.12916179
56	0xbddea4cd	-0.10871277
57	0xbd832173	-0.06402864
58	0xbe094ce7	-0.13408242
59	0x3de7ba26	0.11314802
60	0xbe564af6	-0.20927033
61	0xbc0ce234	-0.008598853
62	0x3e21991a	0.1578106
63	0xbc9ee0be	-0.019394275
64	0xbc0537d7	-0.008130989
65	0x3e561bc0	0.20909023
66	0xbd928bdf	-0.071555845
67	0xbd9b81c5	-0.07593111
68	0x3d29c981	0.041451935
69	0xbbde422e	-0.0067827916
70	0xbdaa273d	-0.08308265
71	0x3d5c38e3	0.05376519
72	0x3df820d6	0.12115638
73	0x3cb4a233	0.022049999
74	0x3e54754d	0.20747872
75	0xbcefa8b2	-0.029255245
76	0xbd079f83	-0.033111107
77	0xbe3aab36	-0.18229374
78	0x3dfa2b0b	0.12215241
79	0xbd80fde0	-0.06298423
80	0x3da2a6ed	0.07941995
81	0xbd168c00	-0.03675461
82	0xbe2cc02b	-0.16870181
83	0xbe537893	-0.20651464
84	0x3ddc5562	0.10758473
85	0xbe3c8ad3	-0.18412332
86	0xbdfd4427	-0.12366515
87	0xbd7d497e	-0.061837666
88	0x3e0c4967	0.13699876
89	0x3dc7fb25	0.09764699
90	0xbe19b273	-0.15009479
91	0x3e03964c	0.12850302
92	0xbdf555c9	-0.11979253
93	0x3de4c638	0.1117062
94	0xbe431227	-0.19049893
95	0xbe39c421	-0.18141223
96	0x3df988e4	0.12184313
97	0x3b90e14c	0.0044213887
98	0xbd9672c4	-0.073461086
99	0x3ce3248e	0.027727392
100	0xbd81d1f7	-0.06338876
101	0xbab24eae	-0.0013603771
102	0x3e47d34c	0.19514197
103	0x3d405bc0	0.0469625
104	0x3d696524	0.05698122
105	0xbd8eb06a	-0.06967242
106	0xbe54a5f6	-0.20766434
107	0xbd5f8765	-0.05457248
108	0xbe431735	-0.19051822
109	0xbd742525	-0.059605736
110	0x3d500f2a	0.05079571
111	0x3d1a48ba	0.037667014
112	0x3ca99a1b	0.020703366
113	0x3d80b084	0.06283668
114	0x3e3362b2	0.17518118
115	0xbe213fcd	-0.15746994
116	0x3d5b981a	0.053611852
117	0x3d8aeb1d	0.067831255
118	0xbcba2e85	-0.02272726
119	0x3bb31fee	0.005466453
120	0xbd8d0c09	-0.06887061
121	0x3d5c8ef0	0.053847253
122	0xbca980c5	-0.020691285
123	0x3e390d83	0.1807156
124	0x3e295e4e	0.1653988
125	0xbe169025	-0.14703424
126	0xbd7be8f4	-0.06150146
127	0xbe0a0e4d	-0.13482018
