SLIC_GAT/hh_n_0/last3.pt (torch, 580781 bytes, 30 tensors)

GAT_layers.0.GAT_heads.0.f.weight f4 [32, 124]
0	0xbe41d38f	-0.1892836
1	0xbd7a0f7e	-0.06104993
2	0x3d83cba9	0.064353295
3	0x3d32b33a	0.043627955
4	0xbe2a82a9	-0.16651405
5	0x3df88530	0.121347785
6	0x3d3760a3	0.044769894
7	0xbced73ab	-0.028985819
8	0xbdc8f4a5	-0.09812287
9	0x3d4db87d	0.05022477
10	0xbdef0e97	-0.11672705
11	0xbd811899	-0.0630352
12	0xbd169ecf	-0.036772545
13	0xbe0a0d6c	-0.13481683
14	0x3e21870b	0.15774171
15	0x3d8f46fa	0.069959596
16	0xbdd63479	-0.10459227
17	0x3e1038ac	0.14084119
18	0xbdd6f1d9	-0.104953475
19	0x3e403ed6	0.1877397
20	0x3e43e700	0.19131088
21	0xbd895704	-0.0670605
22	0x3da078ca	0.07835539
23	0x3d939902	0.07206918
24	0x3d26c6d3	0.040716957
25	0x3d076006	0.03305056
26	0xbe084aa3	-0.13309722
27	0xbe331e4d	-0.17492028
28	0x3e1032f8	0.14081943
29	0x3e1cbddd	0.15306802
30	0x3e1e3f2a	0.15453783
31	0x3e178e54	0.14800388
32	0xbe44fb75	-0.19236548
33	0x3d91024c	0.07080516
34	0xbde70954	-0.11281076
35	0x3dd3f39f	0.103492014
36	0x3d237df4	0.03991504
37	0x3dca5805	0.0988007
38	0xbd068fcd	-0.032851983
39	0x3d816148	0.06317383
40	0x3e412f2d	0.18865652
41	0xbd92239b	-0.071356975
42	0xbdbb030d	-0.09131441
43	0xbbcc3d26	-0.0062328754
44	0xbc7d740b	-0.015469561
45	0x3d2170bb	0.03941415
46	0xbe0ffcc0	-0.1406126
47	0x3e0cf27d	0.13764377
48	0x3d980d79	0.07424445
49	0x3e0811ad	0.13287993
50	0xbd832e79	-0.06405348
51	0xbdf87eae	-0.12133537
52	0x3e450050	0.192384
53	0x3d5c64ad	0.05380695
54	0xbe1716be	-0.14754769
55	0xbdb604ab	-0.08887609
56	0xbddbbd15	-0.10729424
57	0xbe011d9c	-0.12608951
58	0xbc87434b	-0.01651158
59	0xbc3ace23	-0.011401686
60	0xbcda06a7	-0.0266145
61	0xbdb93692	-0.090436116
62	0xbddd86de	-0.108167395
63	0xbded68cf	-0.11592256
64	0x3d9a480d	0.07533274
65	0xbe13d409	-0.14436354
66	0x3d834eb3	0.06411495
67	0x3cb824f9	0.022478567
68	0xbe1c707c	-0.15277284
69	0xbcf9ac81	-0.030477764
70	0xbdd0f39b	-0.10202714
71	0xbd54e4eb	-0.051976126
72	0x3c8ed658	0.017436191
73	0x3e3d5193	0.1848815
74	0xbd65afd5	-0.05607589
75	0x3d784dc6	0.060621046
76	0xbd0832c1	-0.033251528
77	0xbd47d834	-0.04879017
78	0x3e3c698e	0.18399641
79	0xbd8c03a5	-0.06836633
80	0x3e189f6c	0.14904565
81	0x3e2dd8c2	0.16977218
82	0x3d5d127c	0.053972706
83	0x3d2d3c0f	0.042293604
84	0x3e21178c	0.15731639
85	0x3d0ef326	0.034899853
86	0xbd2c347b	-0.042042237
87	0x3e3a2119	0.18176688
88	0xbe2a3f0c	-0.16625613
89	0x3d97f2e0	0.074193716
90	0x3e0ea455	0.13929875
91	0xbcc66546	-0.024218213
92	0xbe0ddee0	-0.13854551
93	0xbd3dc79b	-0.046332937
94	0xbd2409bc	-0.040048346
95	0x3d13f8e3	0.03612603
96	0xbe2e1006	-0.169983
97	0x3bf44b15	0.0074552395
98	0x3dfdfceb	0.12401756
99	0x3ca4ed67	0.020132734
100	0xbe139519	-0.14412345
101	0xbe26de22	-0.16295674
102	0x3e002c1b	0.12516825
103	0x3a4a5e0a	0.00077197014
104	0xbe414b31	-0.1887634
105	0x3e28a35d	0.16468568
106	0x3e16ee8e	0.14739439
107	0x3e0328e1	0.12808563
108	0x3dbeb324	0.09311512
109	0x3d82a439	0.06378979
110	0x3e2331fa	0.15937033
111	0xbe423ecf	-0.18969272
112	0xbb5024c1	-0.0031760188
113	0xbd40d9e8	-0.04708281
114	0xbe487d71	-0.19579102
115	0x3de1f7b1	0.110335715
116	0xbde9f8e5	-0.11424426
117	0xbe12415f	-0.1428275
118	0xbe15560c	-0.14583606
119	0x3c28d7ff	0.010305404
120	0x3def4340	0.11682749
121	0xbddfcbd3	-0.10927548
122	0x3e05f9c5	0.13083561
123	0xbe0c20aa	-0.13684335
124	0x3e29ae4c	0.16570395
125	0x3dc92463	0.09821393
126	0x3e0af12f	0.13568567
127	0x3dac8694	0.08424106
128	0x3d3a50a5	0.045487065
129	0x3b58ee99	0.00331012
130	0x3e14bac4	0.1452437
131	0xbe289234	-0.16462022
132	0xbde6b0c2	-0.112641826
133	0x3dfaa262	0.12238003
134	0x3e154d2a	0.14580217
135	0x3e36e855	0.17862065
136	0xbe380410	-0.179703
137	0xbd966fdd	-0.07345555
138	0x3e09c804	0.13455206
139	0xbe14265f	-0.14467762
140	0x3e00a14d	0.12561531
141	0xbc90bb57	-0.017667456
142	0xbd28264a	-0.04105214
143	0xbca62c0b	-0.020284673
144	0xbce82810	-0.028339416
145	0xbe454d24	-0.19267708
146	0xbe1e7512	-0.15474346
147	0xbddf95a2	-0.10917212
148	0x3dc1b65e	0.09458612
149	0x3d97abb6	0.07405798
150	0x3e3f0d5b	0.18657438
151	0x3ab7d275	0.0014024513
152	0xbe121236	-0.1426476
153	0xbcaf64d7	-0.021410389
154	0x3bec743a	0.0072160037
155	0xbe46c425	-0.1941076
156	0x3db6f217	0.08932894
157	0xbb005cd4	-0.001958658
158	0xbbbbb301	-0.005728126
159	0x3d356499	0.04428539
160	0x3d9ba10e	0.07599078
161	0x3dbba7d6	0.091628715
162	0x3dca4943	0.09877255
163	0x3e0920c8	0.13391411
164	0xbd84f8c3	-0.0649276
165	0x3d5040d3	0.05084307
166	0x3dc814e4	0.097696096
167	0x3d7d2174	0.06179948
168	0x3e0936b3	0.13399772
169	0x3dccb8d0	0.09996188
170	0x3db34549	0.087534495
171	0x3cc947a7	0.0245703
172	0xbdf8c163	-0.121462606
173	0xbe3823e8	-0.17982447
174	0x3e4256eb	0.18978469
175	0xbdc52f2d	-0.09628139
176	0xbdde6f85	-0.108611144
177	0xbb6737c6	-0.0035281046
178	0xbcd4a9a5	-0.025959799
179	0xbe365386	-0.17805299
180	0x3c4d24f6	0.012521019
181	0x3dd75803	0.10514834
182	0xbdf76fdb	-0.120818816
183	0x3e47dac9	0.19517054
184	0x3dfde7d3	0.123977326
185	0xbdf88360	-0.12134433
186	0x3d3be421	0.045871858
187	0xbdd81fe4	-0.10552958
188	0x3dfc73d4	0.1232678
189	0x3dcb8ec7	0.09939342
190	0x3e3de8fe	0.1854591
191	0x3c82bdd1	0.015959652
192	0xbd1dd3f8	-0.038532227
193	0x3e1eada2	0.15495923
194	0xbe318770	-0.17336822
195	0x3e000f22	0.12505773
196	0xbdca0df3	-0.09865942
197	0xbe1d792f	-0.15378259
198	0x3c1189d9	0.008882963
199	0x3deff448	0.11716515
200	0x3cecb0a1	0.028892817
201	0xbda95cae	-0.0826963
202	0xbdbaa2e7	-0.091131024
203	0x3c2394e0	0.009984225
204	0x3d08266c	0.033239767
205	0x3e15aad4	0.14615947
206	0x3bf5d15a	0.0075017633
207	0xbd9a965c	-0.0754821
208	0xbe0ca5bd	-0.13735099
209	0x3dcbe661	0.09956051
210	0xbe3636cc	-0.17794341
211	0xbdfacc32	-0.122459784
212	0x3d902f8b	0.07040318
213	0x3e34d481	0.17659189
214	0x3d536969	0.0516142
215	0xbdb08f05	-0.08621029
216	0x3deeb337	0.11655276
217	0xbd9434bd	-0.072366215
218	0xbe40b82a	-0.18820253
219	0xbe22fcef	-0.15916799
220	0x3cfa8fe6	0.030586194
221	0xbb645f01	-0.0034846666
222	0xbdbce3c4	-0.0922313
223	0xbd4c7981	-0.049920563
224	0xbe292a04	-0.16519934
225	0x3cbf938c	0.023385786
226	0xbd83e7dd	-0.06440709
227	0xbb8f6923	-0.004376547
228	0xbdf5453a	-0.119760945
229	0xbe111dcf	-0.14171527
230	0x3e3cf4a2	0.18452695
231	0xbda6b2e5	-0.0813959
232	0x3d8334cc	0.064065546
233	0x3d3a4d1d	0.045483697
234	0xbe44d368	-0.1922127
235	0x3d99b5bc	0.07505366
236	0x3e3ac24a	0.18238178
237	0x3cf1fa07	0.029538168
238	0x3cad25ec	0.021136247
239	0xbe2ed2e4	-0.17072636
240	0x3db085e7	0.0861929
241	0x3dce5656	0.10075061
242	0x3d9b294a	0.07576235
243	0xbe0f9acc	-0.14023894
244	0xbcd30715	-0.025760213
245	0x3e170e9f	0.14751671
246	0x3deb5abd	0.11491916
247	0xbd653d7f	-0.05596685
248	0x3e3a84ef	0.18214773
249	0xbe299411	-0.16560389
250	0x3d959a10	0.07304776
251	0xbb9076fe	-0.004408716
252	0x3dea6746	0.11445479
253	0xbd2d577e	-0.042319767
254	0xbe22eb34	-0.15910035
255	0xbe0b0d09	-0.13579191

GAT_layers.0.GAT_heads.0.f.bias f4 [32]
0	0x3d0acc3d	0.033886183
1	0x3d1fa4af	0.038975414
2	0xbda23a79	-0.07921309
3	0x3ccee0ea	0.025253732
4	0xbc24b774	-0.010053504
5	0xbcf8d91b	-0.030376961
6	0xbd670a09	-0.056406055
7	0xbd30248f	-0.043003615
8	0xbd5916b0	-0.053000152
9	0x3d047598	0.03233871
10	0xbd80b6be	-0.06284855
11	0x3c2e2cdc	0.0106308125
12	0xbd42e90c	-0.047585532
13	0xbd019149	-0.031632695
14	0x3d77fb45	0.060542364
15	0x3c6dbc30	0.014510199
16	0x3d8928ad	0.066972114
17	0x3d55aac8	0.052164823
18	0x3c2e336a	0.010632375
19	0x3cf3bd7e	0.029753443
20	0xbb13c1f4	-0.0022546025
21	0x3cc707bc	0.02429568
22	0xbc5e9a71	-0.013586626
23	0x3c4c4002	0.0124664325
24	0xbcde621f	-0.027146397
25	0xbb15dbfb	-0.0022866714
26	0xbceb8626	-0.02875049
27	0x3d910d2e	0.07082592
28	0x3d6211d2	0.055192776
29	0xbda8d0f2	-0.08242978
30	0xbd4d4938	-0.050118655
31	0xbd2f220f	-0.04275709

GAT_layers.0.GAT_heads.0.w.weight f4 [1, 124]
0	0x3db493f2	0.08817281
1	0xbe5b6395	-0.21424706
2	0x3e519268	0.20466006
3	0x3dc634f7	0.09678071
4	0xbcc52242	-0.024064187
5	0xbdb50c28	-0.08840209
6	0x3db96b8d	0.09053717
7	0xbd642265	-0.055696864
8	0x3d4dca2c	0.050241634
9	0x3e0073d6	0.12544188
10	0xbe1a7196	-0.15082392
11	0x3e1a673e	0.15078446
12	0x3da104f2	0.07862271
13	0xbd388d4e	-0.045056634
14	0x3dea1305	0.11429409
15	0x3e636a6d	0.22208567
16	0x3e4f0d45	0.20219906
17	0xbd603c0c	-0.054744765
18	0x3d3a016c	0.045411512
19	0xbdfd52ce	-0.12369309
20	0xbe4ac6f6	-0.1980246
21	0xbdbe455a	-0.092905715
22	0x3e0a5768	0.13509905
23	0xbe1a82e5	-0.15088995
24	0xbcea9f72	-0.028640483
25	0xbe15e8ad	-0.1463954
26	0xbc5df6c5	-0.013547604
27	0x3e3b56de	0.18294856
28	0x3e1ecd05	0.15507896
29	0xbe50a67b	-0.20376007
30	0x3dc1b2ca	0.094579294
31	0x3d306389	0.043063674
32	0xbe065fa6	-0.13122424
33	0xbe1aa405	-0.15101631
34	0x3db8d5d9	0.09025163
35	0xbd548efc	-0.051894173
36	0x3ccf5d6f	0.025313107
37	0x3c48e157	0.012260756
38	0xbd8fdda8	-0.070246994
39	0x3e35dfce	0.17761156
40	0xbdefeaf3	-0.11714735
41	0x3e125e3c	0.1429376
42	0x3b09d218	0.0021029767
43	0x3c05cf8e	0.008167161
44	0xbd5243b5	-0.0513341
45	0xbe325a4b	-0.17417257
46	0xbdf8975d	-0.12138245
47	0xbca15920	-0.019695818
48	0x3c8aef62	0.01695985
49	0xbd91c52e	-0.07117687
50	0xbdf2a5d1	-0.11848033
51	0x3dcd6ef7	0.100309305
52	0xbd958831	-0.07301367
53	0xbe2f65b9	-0.17128648
54	0x3c98630f	0.018601922
55	0x3e480a0c	0.19535083
56	0xbe3fe548	-0.18739808
57	0xbd23009e	-0.03979551
58	0xbdbc99f3	-0.09209051
59	0xbe0afb72	-0.13572481
60	0x3d3b6611	0.045751635
61	0x3da33aef	0.07970225
62	0x3dc99291	0.098424084
63	0xbe349d99	-0.17638244
64	0x3d598900	0.05310917
65	0xbdc36010	-0.09539807
66	0x3cc41a84	0.023938425
67	0xbaf0ffb8	-0.0018386757
68	0xbcf30865	-0.029667089
69	0xbcbcffd3	-0.023071205
70	0x3b4c76ff	0.0031198857
71	0xbcfc463a	-0.030795205
72	0x3dd7c6b8	0.105359495
73	0x3dad4a0c	0.08461389
74	0x3da2702a	0.0793155
75	0x3dbf1456	0.09330051
76	0xbdfc8fde	-0.12332128
77	0xbd30b3d2	-0.04314024
78	0x3dfb0762	0.122572675
79	0x3e65d5b8	0.22444808
80	0x3e5d66d1	0.21621253
81	0xbe240625	-0.16017969
82	0x3e47e56a	0.19521108
83	0xbcc19d19	-0.02363448
84	0x3e11f296	0.14252695
85	0xbe3519ce	-0.17685625
86	0xbcea1cfb	-0.028578272
87	0xbd6aef26	-0.057356976
88	0xbe48f9af	-0.19626497
89	0x3d50c61c	0.05097018
90	0x3e45445f	0.19264363
91	0x3def7b93	0.11693492
92	0xbdf4b53d	-0.11948631
93	0xbd4a8301	-0.04944134
94	0xbdd868ef	-0.105668895
95	0x3d54538b	0.051837485
96	0xbdf4c2a6	-0.11951189
97	0x3cbf8c06	0.023382198
98	0xbdb95194	-0.09048763
99	0xbdc73d9f	-0.0972855
100	0xbd80e8f1	-0.0629443
101	0xbdb6cf97	-0.08926313
102	0x3c1b93a5	0.00949565
103	0x3e14dccd	0.14537354
104	0x3d32f632	0.04369182
105	0x3e3a4632	0.1819084
106	0xbe3652fa	-0.1780509
107	0x3e0716c0	0.13192272
108	0x3dcca943	0.099932216
109	0xbe28b07e	-0.16473576
110	0x3d8f14d3	0.06986394
111	0xbda39773	-0.07987871
112	0xbcca4dbe	-0.024695273
113	0xbe124661	-0.1428466
114	0xbdd17630	-0.102276206
115	0xbda75ebe	-0.081723675
116	0x3de69f05	0.11260799
117	0x3e2b2fed	0.16717501
118	0xbdc4b183	-0.0960417
119	0x3de74466	0.11292343
120	0xbe63efb3	-0.22259407
121	0x3d9d6d5f	0.076868765
122	0x3acabd12	0.0015467724
123	0x3e00f5d2	0.12593773

GAT_layers.0.GAT_heads.1.f.weight f4 [32, 124]
0	0xbdd81283	-0.10550406
1	0x3d82aded	0.0638083
2	0x3dd71df2	0.105037585
3	0xbe13d93a	-0.14438334
4	0x3ac4e715	0.0015022481
5	0x3e322ca8	0.17399848
6	0xbd42e5b3	-0.04758234
7	0xbd4b745b	-0.049671512
8	0x3d22b4b2	0.039723106
9	0xbdca8849	-0.098892756
10	0xbd8eb714	-0.06968513
11	0x3e10c08f	0.14135955
12	0x3e0d92ff	0.13825606
13	0xbdd3156d	-0.10306821
14	0xbdea921f	-0.11453652
15	0xbd0606c8	-0.03272131
16	0xbe2c63e7	-0.16834985
17	0xbdfa4543	-0.12220242
18	0xbb46c2c3	-0.003032849
19	0x3e1ae850	0.15127683
20	0xbd4184f6	-0.047245942
21	0xbde8fdb7	-0.11376517
22	0xbe05a16d	-0.1304986
23	0x3bf78e51	0.0075548072
24	0xbdc00a7f	-0.09377002
25	0xbc034f3a	-0.008014495
26	0xbd9ce431	-0.076607116
27	0x3bd0abc9	0.0063681346
28	0xbdb3dc1f	-0.08782219
29	0xbd879d0a	-0.0662175
30	0x3da13bca	0.07872732
31	0x3d75f859	0.060051296
32	0x3e258b20	0.16166353
33	0xbe3db7d6	-0.18527159
34	0xbdf2f5c4	-0.11863282
35	0xbdc64136	-0.09680407
36	0x3bed5140	0.007242352
37	0xbe04074b	-0.12893407
38	0x3dda249f	0.10651516
39	0x3e12c76e	0.14333889
40	0xbdcfed83	-0.10152724
41	0xbdd3c7ea	-0.10340865
42	0x3c756f65	0.014980172
43	0x3b4509db	0.0030065689
44	0xbe25c2cb	-0.16187589
45	0xbd0ee1a5	-0.03488316
46	0x3d489e28	0.048978955
47	0x3e3c8c2c	0.18412846
48	0xbe43da29	-0.1912619
49	0xbe4bb13f	-0.19891833
50	0x3d0ec460	0.034855247
51	0x3d0cdfb5	0.03439303
52	0xbe10348d	-0.14082547
53	0xbdba9c8d	-0.09111891
54	0x3d82eb78	0.06392568
55	0x3e05e8e1	0.13077118
56	0xbdaefecb	-0.08544692
57	0x3e3f167c	0.18660921
58	0x3d1afaba	0.037836768
59	0x3d75085d	0.05982243
60	0xbe1d2964	-0.1534782
61	0x3d652132	0.05593986
62	0x3e0f423f	0.13990115
63	0xbe0a4f69	-0.13506855
64	0xbe195b83	-0.14976315
65	0xbde89cbf	-0.11358022
66	0x3bc59a01	0.0060303216
67	0xbde464aa	-0.11152013
68	0x3d6f8155	0.05847295
69	0xbd9ae563	-0.07563283
70	0x3dc9d32f	0.09854733
71	0x3e31d618	0.17366827
72	0x3a06e459	0.0005145721
73	0xbe2493a6	-0.16071948
74	0x3c8ab1ca	0.01693048
75	0x3e33cc93	0.17558508
76	0xbe40e78b	-0.18838327
77	0xbe25dff9	-0.1619872
78	0x3e28831b	0.16456263
79	0x3e0ff7b6	0.14059338
80	0xbe05276d	-0.13003321
81	0xbe42002f	-0.18945383
82	0xbe4e67a4	-0.20156723
83	0xbe280c08	-0.1641084
84	0x3e014eda	0.12627736
85	0xbe0487a0	-0.12942362
86	0x3dafd3d2	0.085853234
87	0xbe2bd894	-0.16781837
88	0x3d33d2ba	0.043902136
89	0x3e086d80	0.13323021
90	0xbd844958	-0.06459302
91	0x3de45b78	0.11150259
92	0x3e28a04b	0.16467397
93	0xbd123909	-0.035698924
94	0xbd80fe96	-0.062985584
95	0x39d00596	0.00039677013
96	0xbe04103c	-0.12896818
97	0x3e3987a9	0.18118156
98	0xbcc6c1a5	-0.024262259
99	0x3e0b96c2	0.13631728
100	0xbd560111	-0.05224711
101	0xbd287b29	-0.04113308
102	0xbccd4b0e	-0.025060203
103	0xbc4f0267	-0.01263485
104	0x3d283f2c	0.04107587
105	0x3df74b06	0.120748565
106	0xbe2d23d2	-0.16908196
107	0x3e259d90	0.16173387
108	0xbe299cfd	-0.16563793
109	0xbd55fa4d	-0.05224066
110	0x3e001530	0.12508082
111	0x3dc13148	0.09433228
112	0x3d26a5af	0.040685352
113	0x3d0a0797	0.033698644
114	0x3d1208d0	0.035652936
115	0xbe130d2a	-0.1436049
116	0x3db1b0ec	0.08676323
117	0xbe181576	-0.14851937
118	0xbc3524d5	-0.011056145
119	0xbd2cba24	-0.042169705
120	0xbe43889c	-0.19095081
121	0xbcea2f85	-0.028587112
122	0x3e002b4c	0.12516516
123	0x3bedbcb3	0.0072551607
124	0xbe1141ee	-0.14185306
125	0xbe202f26	-0.15642986
126	0x3e14b7c3	0.14523225
127	0x3e1938fb	0.14963143
128	0x3d5f1b26	0.05446925
129	0x3d8e32fe	0.0694332
130	0xbd4e5700	-0.05037594
131	0x3da8f5d8	0.08250016
132	0xbda9fcaa	-0.08300145
133	0x3e3041ce	0.17212602
134	0xbe1a4cbd	-0.15068336
135	0xbd35e01a	-0.044403173
136	0xbce902ee	-0.02844378
137	0xbc7895ec	-0.015172463
138	0xbde4360a	-0.1114312
139	0x3dfa5a95	0.122243084
140	0x3e36b3ff	0.178421
141	0xbe4829d9	-0.19547214
142	0x3bdbc01c	0.006706251
143	0x3e137311	0.14399363
144	0xbdc9d7e8	-0.09855634
145	0x3d92b06a	0.071625546
146	0xbe2860b2	-0.16443136
147	0x3df75055	0.12075869
148	0x3d965a03	0.07341387
149	0x3c5aa25e	0.013344375
150	0xbb02f672	-0.0019983319
151	0x3d4a6b02	0.049418457
152	0x3d629b9e	0.05532419
153	0xbdd80b66	-0.10549049
154	0x3e16cd9d	0.14726873
155	0x3d9919a0	0.07475591
156	0x3d7c2f1a	0.061568357
157	0x3d4b67e6	0.049659632
158	0x3d33fd18	0.04394254
159	0xbc96c9a3	-0.018406695
160	0xbe0e7322	-0.13911107
161	0x3cd7a73b	0.026324859
162	0x3df74540	0.12073755
163	0xbd5f9a5a	-0.05459056
164	0x3cdcc82e	0.026950922
165	0x3d7cf9a4	0.061761513
166	0xbc9b7898	-0.018978402
167	0x3dce01cf	0.10058939
168	0xbdd760f6	-0.10516541
169	0xbdd255de	-0.10270284
170	0xbdfcfd5b	-0.12353011
171	0x3e029159	0.12750758
172	0xbd36f4d3	-0.044667076
173	0xbe3ef15d	-0.1864676
174	0x3d71887a	0.058968045
175	0x3c913e8a	0.017730016
176	0xbd814e97	-0.06313818
177	0x3b802cfa	0.0039116116
178	0xbd8e3a84	-0.06944755
179	0xbdebae8d	-0.11507902
180	0x3df108ed	0.117692806
181	0xbda4bcd3	-0.08043828
182	0x3e0610b9	0.13092317
183	0x3e280470	0.16407943
184	0xbdb8c6d5	-0.09022299
185	0x3d07d092	0.033157893
186	0xbd2b3a94	-0.04180391
187	0xbd95a9d3	-0.07307782
188	0x3dc32321	0.09528185
189	0xbdd5117c	-0.104037255
190	0xbd4c964f	-0.049948033
191	0xbe2a71b7	-0.16644941
192	0xbdfad389	-0.122473784
193	0x3e20676f	0.15664457
194	0x3df9a7b3	0.12190189
195	0x3bf18106	0.007370117
196	0x3de4e999	0.11177368
197	0x3e081cdb	0.13292257
198	0xbd9bb316	-0.07602517
199	0xbd72f3a2	-0.059314378
200	0x3c8025b8	0.015642986
201	0xbd298d74	-0.041394666
202	0x3e04312d	0.12909384
203	0xbe0f37dd	-0.13986154
204	0x3cc81a13	0.024426496
205	0xbe086c82	-0.13322642
206	0x3d8f0161	0.06982685
207	0xbe1cc4f7	-0.15309511
208	0x3dd0b8f8	0.1019153
209	0x3d93740b	0.07199868
210	0xbe3b3ab7	-0.18284117
211	0x3c7b1c39	0.015326553
212	0x3b4a2fc1	0.0030851217
213	0x3e20e736	0.157132
214	0x3e13a4e8	0.14418375
215	0xbe2b69c0	-0.16739559
216	0x3dc98270	0.09839332
217	0xbd471170	-0.048600614
218	0xbe3aae1a	-0.18230477
219	0xbe35d665	-0.17757566
220	0x3e3a3ec6	0.18188009
221	0xbe35f254	-0.17768222
222	0xbcdfcea4	-0.027320214
223	0xbe3ccaaa	-0.18436685
224	0xbd727d1b	-0.05920134
225	0xbba2d7d2	-0.0049695754
226	0x3e1ca60e	0.1529772
227	0x3e295cc1	0.16539289
228	0x3d9f3c03	0.07775118
229	0xbe41d96f	-0.189306
230	0x3d28ea81	0.041239265
231	0xbd8303b5	-0.063971914
232	0xbbfd24d0	-0.0077253357
233	0x3ddd7073	0.108124636
234	0x3d5b4d3c	0.053540453
235	0x3db1d87f	0.086838715
236	0xbdbeb115	-0.093111195
237	0xbe1a708a	-0.15081993
238	0xbe3a737b	-0.18208115
239	0xbdc1b48a	-0.09458263
240	0x3dcec949	0.10096986
241	0x3e1a4049	0.15063585
242	0x3cbdbf39	0.023162471
243	0xbdce7a14	-0.10081878
244	0x3d1e42e6	0.038638018
245	0xbd15e1b4	-0.0365922
246	0xbe07fa31	-0.13279034
247	0xbe3ad3ae	-0.18244812
248	0xbe0ef0c0	-0.13959026
249	0xbd120110	-0.035645545
250	0xbdf59820	-0.11991906
251	0x3db21fc2	0.086974636
252	0x3d1cc237	0.038271155
253	0x3e039d41	0.12852956
254	0x3d0ac34d	0.03387766
255	0xbce4aeec	-0.02791544

GAT_layers.0.GAT_heads.1.f.bias f4 [32]
0	0x3d809455	0.06278292
1	0xbc894d07	-0.016760362
2	0x3c0aba92	0.008467333
3	0xbd892e5b	-0.06698295
4	0x3d3766ea	0.04477588
5	0xbd1edd0d	-0.03878503
6	0x3cc29b87	0.023755802
7	0xbcabb295	-0.020959178
8	0xbcb8a7e5	-0.022540996
9	0xbd189040	-0.037246943
10	0x3d0e03c7	0.03467157
11	0xbc8296a4	-0.015940972
12	0x3d6e8d6e	0.058240347
13	0xbda0573f	-0.07829141
14	0xbd15f97f	-0.03661489
15	0x3c106389	0.0088127935
16	0xbdb6e9a5	-0.08931283
17	0x3c299f95	0.010352989
18	0x3d78f432	0.060779758
19	0xbda3e2bb	-0.0800223
20	0x3c8a8182	0.016907457
21	0x3cd36646	0.025805604
22	0x3d4a3b0c	0.049372718
23	0xbd2f8b7e	-0.04285764
24	0xbd0f3512	-0.03496272
25	0x3d964a39	0.073383756
26	0xbc9b1f6c	-0.018935882
27	0xbd48eb56	-0.04905256
28	0xbd92976d	-0.071577884
29	0x3bcbf008	0.0062236823
30	0xbce02cb3	-0.027365064
31	0x3b045692	0.0020193201

GAT_layers.0.GAT_heads.1.w.weight f4 [1, 124]
0	0xbe3a0c13	-0.18168668
1	0xba579733	-0.00082241296
2	0x3dee866b	0.11646732
3	0xbdc5e8ed	-0.09663568
4	0x3d6c6cd5	0.057720978
5	0xbdb93a3c	-0.090443105
6	0x3cca751b	0.024714043
7	0xbda229e6	-0.07918148
8	0xbddc34fc	-0.107522935
9	0x3da1a234	0.07892266
10	0x3d2d56b0	0.042319
11	0x3d74a7b7	0.059730258
12	0xbcb32742	-0.021869306
13	0xbdb3f75a	-0.08787413
14	0xbda6afd5	-0.08139006
15	0xbe45174e	-0.19247171
16	0xbe2f51af	-0.17121004
17	0x3e4dba1b	0.20090525
18	0x3e17896f	0.1479852
19	0x3d13cec7	0.03608587
20	0x3dd98c2d	0.106224395
21	0xbcd2deda	-0.02574103
22	0x3dddfb2d	0.108389236
23	0x3dfb86db	0.12281581
24	0x3e08df5a	0.13366452
25	0x3d3e08a9	0.046394978
26	0xbe259ff0	-0.16174293
27	0xbe43897c	-0.19095415
28	0x3dc6667c	0.09687516
29	0xbcf63515	-0.030054608
30	0x3db5975a	0.08866759
31	0x3e221b2b	0.15830676
32	0xbe440937	-0.1914414
33	0xbe0e7e7d	-0.13915439
34	0xbcc2e97b	-0.023792973
35	0xbe2458c0	-0.1604948
36	0xbdd64086	-0.104615256
37	0x3e24b794	0.16085654
38	0xbe4b1ccb	-0.19835202
39	0xbe19bc31	-0.15013196
40	0x3e4c5a3c	0.19956297
41	0x3c83041e	0.015993174
42	0x3d86e371	0.0658635
43	0xbe0db83b	-0.1383981
44	0xbdc67d69	-0.09691889
45	0x3e108d42	0.14116386
46	0x3dedd0e5	0.11612109
47	0x3de3c4b1	0.111215
48	0xbe28561f	-0.16439103
49	0x3c8bd1c0	0.01706779
50	0xbe45b711	-0.19308116
51	0xbdefde1a	-0.117122844
52	0x3cfbca63	0.030736154
53	0xbe4e6d24	-0.20158821
54	0xbd9b22b7	-0.07574981
55	0x3d482cd2	0.04887087
56	0x3e0a6923	0.13516669
57	0xbb95fde1	-0.004577384
58	0x3e04b919	0.12961234
59	0x3d0a7657	0.033804264
60	0xbe420b4b	-0.1894962
61	0xbdd9669a	-0.10615273
62	0xbe0dab24	-0.13834816
63	0xbe1ddd33	-0.15416412
64	0xbdcaf2fa	-0.09909625
65	0xbe20172b	-0.15633838
66	0x3da0da44	0.07854131
67	0x3df86da9	0.12130291
68	0xbddbca5b	-0.107319556
69	0xbe55e1f7	-0.2088698
70	0x3d978a6d	0.073994495
71	0xbd07e134	-0.033173755
72	0xbd910acd	-0.07082138
73	0xbd282eb6	-0.041060172
74	0x3e5ca6a0	0.21547937
75	0xbdc2c7fe	-0.09510802
76	0x3dba7973	0.09105196
77	0x3cd93e79	0.026519047
78	0xbdc72a7a	-0.09724899
79	0xbcb5cabc	-0.022191398
80	0x3d9a736a	0.07541545
81	0xbe2c1e51	-0.1680844
82	0xbc5d5f1a	-0.0135114435
83	0x3d4a439f	0.049380895
84	0x3dff14ff	0.124551766
85	0x3e33533e	0.17512223
86	0x3cb897e4	0.022533365
87	0x3dfe4a55	0.124165215
88	0xbe3668d0	-0.1781342
89	0xbe0763ff	-0.13221739
90	0xbe079380	-0.1323986
91	0x3e413656	0.18868384
92	0x3cfea3fd	0.031084055
93	0x3c408f56	0.011752924
94	0x3df6e0f0	0.12054622
95	0x3e2edc04	0.17076117
96	0xbe338ee6	-0.1753498
97	0xbe5cc456	-0.21559271
98	0x3e103b1b	0.14085047
99	0xbd28d675	-0.041220147
100	0xbe2b176a	-0.1670815
101	0xbda1744b	-0.07883509
102	0xbd95eea1	-0.073209055
103	0x3e48196c	0.19540948
104	0x3dfc45de	0.123180136
105	0xbdca687c	-0.0988321
106	0xbde8db15	-0.113699116
107	0xbc6b1e1b	-0.014350439
108	0x3dc2cae4	0.095113546
109	0xbe076e3e	-0.13225648
110	0xbb56bccc	-0.003276634
111	0xbe26e392	-0.16297749
112	0x3d5c4c01	0.05378342
113	0x3d4af862	0.049553283
114	0xbe2dc99b	-0.16971438
115	0x3e304346	0.17213163
116	0x3d7162ca	0.058932103
117	0x3dcc4325	0.09973744
118	0x3de12d11	0.10994924
119	0x3e3d5f44	0.18493372
120	0xbb1e851a	-0.0024188221
121	0xbd8669b0	-0.06563127
122	0x3de0ebcf	0.10982477
123	0xbd7eaeb2	-0.06217832

GAT_layers.1.GAT_heads.0.f.weight f4 [64, 128]
0	0xbd9f79ce	-0.07786904
1	0xbcff3eb8	-0.031157836
2	0xbd286ff2	-0.041122384
3	0x3d8e96b2	0.069623366
4	0xbe269a3d	-0.16269775
5	0x3cdc3bf7	0.026884062
6	0xbe02784e	-0.12741205
7	0x3da26b1e	0.07930587
8	0x3c12e2ca	0.008965204
9	0x3df501eb	0.119632564
10	0x3dac5497	0.08414572
11	0x3cce9955	0.025219599
12	0x3dcf0823	0.10108974
13	0xbded7fcb	-0.1159664
14	0xbd227c60	-0.039669394
15	0xbdea76a0	-0.11448407
16	0x3c9f18a5	0.019420931
17	0x3e2fa2f1	0.17152001
18	0x3e134461	0.14381553
19	0xbdca2169	-0.09869654
20	0xbe023061	-0.12713768
21	0xbdaaafbb	-0.08334299
22	0x3de39a0d	0.11113367
23	0x3caf167b	0.021373024
24	0xbdeafeee	-0.11474405
25	0xbdf188e0	-0.11793685
26	0x3d90f60c	0.0707818
27	0x3df68451	0.12036956
28	0xbdecd06e	-0.11563192
29	0xbd83936b	-0.06424602
30	0xbe0f644b	-0.14003102
31	0xbccc6bbc	-0.024953716
32	0xbd5d843e	-0.054081194
33	0x3e2df30b	0.16987245
34	0x3e04d82c	0.12973088
35	0xbda0dc59	-0.07854528
36	0x3cbcb75a	0.023036648
37	0xbe24151a	-0.16023675
38	0x3db1ca9b	0.08681222
39	0xbd641b38	-0.05569002
40	0x3e09da75	0.13462241
41	0x3c18f502	0.009335758
42	0x3d48b20f	0.048997935
43	0xbe23a0fc	-0.1597938
44	0x3e216bbc	0.15763754
45	0x3cb4ce6e	0.02207109
46	0x3e319e1a	0.17345467
47	0xbe16592b	-0.14682452
48	0x3de604d0	0.11231387
49	0xbd3b6555	-0.045750935
50	0x3e15b489	0.1461965
51	0x3e1a0542	0.15041068
52	0x3d58ee4a	0.052961625
53	0xbe24cc69	-0.16093601
54	0xbe143724	-0.1447416
55	0x3db4abee	0.088218555
56	0xbca947a8	-0.020664051
57	0x3e117e95	0.14208443
58	0x3d8cd6c0	0.06876898
59	0xbe16e279	-0.1473483
60	0x3e2bb9e7	0.16770135
61	0x3e2f286e	0.17105266
62	0xbe1bd572	-0.15218142
63	0x3e07fd2f	0.13280176
64	0x3cff3a4d	0.03115573
65	0x3c40c320	0.011765271
66	0x3daed84a	0.085373476
67	0xbd65ffe6	-0.056152247
68	0x3d8f0058	0.069824874
69	0xbca47567	-0.020075513
70	0xbe0607d5	-0.13088925
71	0xbc681f38	-0.014167599
72	0xbd971ceb	-0.073785625
73	0x3e203222	0.15644124
74	0xbdaf849a	-0.085702136
75	0x3d2c68fc	0.04209231
76	0x3e01e504	0.12685019
77	0x3d82162a	0.06351884
78	0x3d87e813	0.066360615
79	0x3df5eaa5	0.120076455
80	0xbd848a57	-0.06471699
81	0x3e0cd534	0.13753206
82	0x3e156d29	0.14592423
83	0x3dbf1ca7	0.09331637
84	0x3d2361ad	0.039888073
85	0xbcfbb9a5	-0.03072817
86	0x3d6bac46	0.05753734
87	0x3d7fd5b6	0.06245967
88	0xbc12e52d	-0.008965773
89	0x3bf728cc	0.007542705
90	0xbd972ae7	-0.0738123
91	0xbdc2a7f8	-0.09504694
92	0x3c18b915	0.009321471
93	0xbd8b327e	-0.0679674
94	0xbe057aee	-0.13035175
95	0x3df1b627	0.11802321
96	0xbe28ba65	-0.16477354
97	0x3e343f56	0.17602286
98	0xbd2ce4a4	-0.042210236
99	0x3bf8a3f9	0.0075879064
100	0xbe3e65f8	-0.18593585
101	0x3dc5a626	0.09650831
102	0x3e022eb7	0.12713133
103	0x3dc518e0	0.09623885
104	0x3c4fb3cd	0.012677145
105	0xbd85a5e7	-0.06525784
106	0xbd3058ed	-0.043053556
107	0xbdd9311e	-0.106050715
108	0x3e18b8d7	0.14914261
109	0x3d215845	0.03939082
110	0x3dd61f2c	0.10455164
111	0x3dcfe53b	0.10151144
112	0xbd2319d9	-0.039819572
113	0xbdc9da01	-0.09856034
114	0xbaf8f1f7	-0.001899301
115	0x3d746313	0.059664797
116	0x3e398e91	0.18120791
117	0xbe114654	-0.14186984
118	0x3e29b37b	0.16572373
119	0x3d26ea5a	0.04075084
120	0x3d727d91	0.05920178
121	0x3dd0e84d	0.10200558
122	0x3d9fe259	0.07806844
123	0x3e1fe7e9	0.1561581
124	0xbd90bf5d	-0.0706775
125	0x3d62b183	0.05534507
126	0x3e27f83f	0.16403292
127	0xbd8a644d	-0.06757412
128	0x3e05a7b4	0.13052255
129	0xbe270521	-0.1631055
130	0x3d88c659	0.06678457
131	0xbcbd3c8c	-0.02310016
132	0x3ddf83d4	0.10913816
133	0xbdbfed7b	-0.09371468
134	0xbc51dce9	-0.012809017
135	0x3c212113	0.009834546
136	0x3cc7f07f	0.02440667
137	0xb9c1920b	-0.0003692064
138	0xbe33a1ca	-0.17542186
139	0xbdf55375	-0.11978809
140	0xba8f86af	-0.0010950173
141	0x3d8d545e	0.069008574
142	0xbe267c07	-0.1625825
143	0xbd66a2db	-0.056307655
144	0xbe216fe8	-0.15765345
145	0xbe236020	-0.15954638
146	0x3c13eced	0.0090286555
147	0xbe1d3499	-0.15352096
148	0x3c9f9074	0.01947806
149	0x3e1824d7	0.14857803
150	0xbe0eed4b	-0.13957708
151	0x3e26bf98	0.16284025
152	0xbc946380	-0.018113852
153	0x3e16405d	0.1467299
154	0xbdaa434d	-0.08313618
155	0x3db725ff	0.08942794
156	0x3dbba1f5	0.0916175
157	0x3d34a8b4	0.0441062
158	0x3d284d13	0.04108913
159	0x3d273c2d	0.040828872
160	0x3b86b0e0	0.0041104406
161	0xbc54cb54	-0.01298793
162	0xbe288354	-0.16456348
163	0xbe0ac268	-0.13550723
164	0x3e3187c8	0.17336953
165	0x3d4e0a53	0.050302815
166	0xbc117948	-0.008879013
167	0xbcee62c3	-0.029099828
168	0x3b4070f2	0.0029364196
169	0x3d1f1dba	0.03884671
170	0x3dc02d55	0.093836464
171	0xbe2c636f	-0.16834806
172	0x3d5f297a	0.054482915
173	0x3e35427a	0.1770114
174	0xbe1bb40c	-0.15205401
175	0x3deaef00	0.11471367
176	0x3c5e148d	0.013554704
177	0x3e2a632a	0.1663939
178	0xbe271e12	-0.16320065
179	0x3e29b0d7	0.16571365
180	0x3d19121f	0.037370797
181	0xbdb86b59	-0.0900485
182	0x3df924a3	0.12165191
183	0x3e1997cd	0.14999314
184	0xbdfc0add	-0.123067595
185	0xbe132527	-0.14369641
186	0x3e306e30	0.17229533
187	0xbd6b19f0	-0.057397783
188	0xbd575bbf	-0.05257773
189	0x3ce53eb9	0.02798401
190	0x3dcafa4e	0.09911023
191	0x3e002b97	0.12516628
192	0xbd3e3a33	-0.04644222
193	0x3e2a2283	0.16614728
194	0xbcf51661	-0.029917898
195	0x3ca587a1	0.020206274
196	0x3dd1ba74	0.10240641
197	0x3c855c71	0.016279431
198	0x3cd2f42d	0.025751198
199	0xbcd343db	-0.025789192
200	0x3e08fe6a	0.13378301
201	0xbe33d7b3	-0.17562751
202	0x3d13f8dc	0.036126003
203	0x3d3171ee	0.043321542
204	0xbdc514f4	-0.09623137
205	0xbe09c319	-0.1345333
206	0x3caa1342	0.020761136
207	0xbe337ee1	-0.17528869
208	0xbe194e42	-0.14971259
209	0xbe30b845	-0.17257793
210	0xbd983ec9	-0.0743385
211	0xbd2b3d65	-0.041806597
212	0xbd98408b	-0.074341856
213	0x3e14a9f3	0.14517955
214	0x3de07e7d	0.10961626
215	0x3d92d6f8	0.07169908
216	0x3e1eb30f	0.15497993
217	0x3e28aa66	0.16471252
218	0x3e1ba56f	0.15199827
219	0x3e08bd77	0.13353525
220	0x3e008479	0.12550534
221	0xbcfa985a	-0.030590225
222	0xbd458168	-0.048219115
223	0xbd5bf3bb	-0.053699236
224	0x3d9377f3	0.07200613
225	0x3d4b278c	0.04959826
226	0x3e1ec91f	0.15506409
227	0xbe0d261c	-0.13784069
228	0x3d834b23	0.064108156
229	0xbdb20abd	-0.086934544
230	0xbdb29269	-0.08719332
231	0xbe05c531	-0.13063504
232	0x3e1378d0	0.14401555
233	0xbe02ad06	-0.12761316
234	0xbd806523	-0.0626929
235	0xbd9393cb	-0.07205924
236	0x3e023783	0.12716489
237	0x3da54445	0.08069662
238	0x3cd89adf	0.026441036
239	0x3dc91151	0.09817756
240	0x3e1275ef	0.143028
241	0x3e2554bb	0.16145603
242	0x3dfb9d4f	0.122858636
243	0x3d5474c1	0.051869158
244	0x3e1bc1d8	0.15210664
245	0xbd8700b8	-0.06591934
246	0xbe106271	-0.14100052
247	0xbcc5b2ba	-0.024133075
248	0x3debaa5c	0.11507103
249	0xbc74a37a	-0.014931554
250	0xbdce7980	-0.10081768
251	0x3d176d1a	0.03696928
252	0xbe006724	-0.12539345
253	0x3e059848	0.13046372
254	0x3df73852	0.12071289
255	0x3ae4d099	0.0017457186

GAT_layers.1.GAT_heads.0.f.bias f4 [64]
0	0x3d92f179	0.071749635
1	0x3d501bbd	0.050807703
2	0x3d1bb279	0.038012
3	0x3db75746	0.08952193
4	0xbd246af6	-0.04014107
5	0xbbfd64bb	-0.0077329553
6	0x3d84984d	0.064743616
7	0x3d08ea14	0.03342636
8	0xbdae138b	-0.08499821
9	0xbd1ff5b1	-0.03905267
10	0xbd9af8dc	-0.075669974
11	0x3da518ac	0.080613464
12	0xbdb4cf3a	-0.08828588
13	0x3d59cacd	0.05317192
14	0x3d5b37a9	0.05351988
15	0x3d8b77c0	0.0680995
16	0x3d12da35	0.03585263
17	0xbc6cc095	-0.014450212
18	0x3b48e38f	0.0030653214
19	0x3d341df1	0.043973867
20	0xbc8912fc	-0.016732685
21	0x3d5427d4	0.051795796
22	0x3d97f8ba	0.07420488
23	0x3d9498c0	0.07255697
24	0xbd911b0d	-0.07085238
25	0xbd0bf14e	-0.034165673
26	0x3d76b113	0.060227465
27	0x3d283380	0.04106474
28	0x3d699ed4	0.057036236
29	0x3db96a52	0.09053482
30	0x3cc90677	0.024539215
31	0xbc23d6a4	-0.009999905
32	0xbd94e9c7	-0.07271152
33	0xbd96a863	-0.07356336
34	0xbdbf8c34	-0.093529135
35	0x3d9df791	0.07713235
36	0xbc9b37b9	-0.01894747
37	0x3daa76fe	0.08323477
38	0xbd2ba09c	-0.041901216
39	0x3cc33355	0.023828188
40	0xbd5ac918	-0.053414434
41	0xbc03ca70	-0.00804387
42	0xbc62552c	-0.013814252
43	0xbd963d09	-0.0733586
44	0x3d873736	0.066023275
45	0x3cf5ce45	0.030005584
46	0x3d5791e3	0.052629363
47	0xbdc68722	-0.09693743
48	0x3d24d2c2	0.040240057
49	0x3d342d39	0.04398844
50	0xbd0b609d	-0.034027684
51	0xbdac4b92	-0.084128514
52	0xbd835afe	-0.0641384
53	0xbc9850b4	-0.01859317
54	0x3c9b6990	0.018971235
55	0x3cdadaae	0.026715603
56	0xbd823565	-0.063578404
57	0x3d0089b5	0.031381328
58	0x3d3a8c63	0.04554404
59	0xbdc6e510	-0.09711659
60	0xbd8840b1	-0.06652964
61	0x3d41d5b1	0.047322933
62	0xbb195c49	-0.0023400954
63	0x3ca0718c	0.019585393

GAT_layers.1.GAT_heads.0.w.weight f4 [1, 128]
0	0x3d88ea65	0.06685332
1	0xbe0d760a	-0.1381456
2	0x3d8707ab	0.065932594
3	0xbcc56b7f	-0.02409911
4	0xbddba878	-0.10725492
5	0x3cce2c96	0.025167745
6	0x3dab87e8	0.083755314
7	0xbdb8703c	-0.09005782
8	0x3ddabc2f	0.106804244
9	0xbd33ee6a	-0.04392854
10	0xbdf0aa80	-0.1175127
11	0xbd67a8e6	-0.05655756
12	0xbe100512	-0.14064434
13	0x3df24d56	0.11831157
14	0x3dbfdaea	0.093679264
15	0x3d2b8c19	0.041881654
16	0x3d88a803	0.06672671
17	0x3e489d1d	0.19591184
18	0xbdc18977	-0.094500475
19	0x3e2b308c	0.16717738
20	0xbd57dabe	-0.052698843
21	0x3e3e6608	0.1859361
22	0xbccae6f8	-0.024768338
23	0x3e4f899d	0.20267339
24	0xbdf1b588	-0.118022025
25	0xbd4faf8c	-0.050704524
26	0x3e2e535e	0.1702399
27	0x3c173554	0.009229023
28	0xbe4bbed9	-0.19897021
29	0xbdf44b2f	-0.11928403
30	0xbe3d31c5	-0.18476017
31	0x3c6a6d81	0.014308334
32	0xbcb1bac2	-0.021695498
33	0x3d561bf7	0.052272763
34	0x3d1a6dd7	0.037702408
35	0xbe4247d3	-0.18972711
36	0x3e151dfe	0.14562222
37	0xbdb433d8	-0.08798951
38	0x3dcdd610	0.10050595
39	0xbd4442fc	-0.047915444
40	0xbdda8cea	-0.106714085
41	0xbc4c8d1b	-0.012484814
42	0x3e0a2c5b	0.13493483
43	0x3e48d8b7	0.1961392
44	0xbd275d85	-0.04086067
45	0xbceb2347	-0.028703345
46	0xbd53db5b	-0.051722866
47	0x3cfb28f7	0.030659182
48	0xbc780d4a	-0.015139887
49	0xbe4300cf	-0.19043277
50	0x3e24c37e	0.160902
51	0xbe4552b0	-0.19269824
52	0xbd40d696	-0.047079645
53	0x3cd2a4c4	0.025713332
54	0xbe5cd1f3	-0.21564464
55	0xbe318440	-0.17335606
56	0xbe382a24	-0.17984825
57	0x3e276dc1	0.16350462
58	0x3d8eff19	0.0698225
59	0x3cb6210a	0.022232551
60	0x3ddc7193	0.1076385
61	0x3dbc323a	0.091892675
62	0x3d1e9519	0.03871641
63	0x3d70cf06	0.058791183
64	0x3e2c6e6b	0.16838996
65	0xbc7c1fa1	-0.0153884
66	0x3dcc9d55	0.09990946
67	0x3c701f7a	0.014655942
68	0x3dc5bad2	0.09654774
69	0x3e2ae038	0.16687095
70	0x3e54e53b	0.2079057
71	0x3dcab84d	0.09898434
72	0xbe2a6906	-0.16641626
73	0x3d223561	0.039601687
74	0x3d9bd222	0.07608439
75	0x3de87193	0.113497876
76	0x3e27d76e	0.16390774
77	0xbe3a68a9	-0.18203987
78	0x3cbc85f6	0.023013096
79	0x3c6e9cc9	0.014563748
80	0x3e55a9aa	0.20865503
81	0x3d1dc746	0.03852012
82	0x3dbbfcb0	0.09179056
83	0x3ddf4c00	0.10903168
84	0xbd4dfd54	-0.05029042
85	0xbe2c29ca	-0.16812816
86	0xbd40182b	-0.04689805
87	0xbe2ad7b7	-0.16683851
88	0x3a5af984	0.0008353221
89	0x3e0b621f	0.13611649
90	0xbe30b8e0	-0.17258024
91	0xbb706499	-0.0036681055
92	0x3e1002a0	0.14063501
93	0xbe3e6cac	-0.18596143
94	0x3dcd4587	0.10023027
95	0x3c5cd20a	0.013477812
96	0x3dcedf36	0.10101168
97	0xbd81e5fc	-0.06342694
98	0xbe36c019	-0.17846717
99	0xbdfb1f3d	-0.122618176
100	0xbd9713d9	-0.073768325
101	0xbe03d423	-0.12873892
102	0xbe41bde0	-0.18920088
103	0xbe03f124	-0.12884957
104	0x3e3c620d	0.18396778
105	0xbe00008e	-0.12500212
106	0xbd97c975	-0.07411472
107	0x3e2cb38f	0.16865371
108	0xbd7a7f1a	-0.06115637
109	0xbe0da4f1	-0.13832451
110	0xbbaa6ced	-0.0052009732
111	0xbd5ad93f	-0.05342984
112	0x3cc2b5c1	0.023768308
113	0x3e59254f	0.21205638
114	0xbe1b936b	-0.15192954
115	0xbda2d227	-0.0795024
116	0xbc96af12	-0.018394027
117	0xbcc5212b	-0.024063667
118	0xbe321f67	-0.17394792
119	0x3de31b94	0.110892445
120	0xbdf5da00	-0.12004471
121	0xbdbdfcbb	-0.0927672
122	0x3e26fc2a	0.1630713
123	0x3dc113de	0.094276175
124	0x3e41cbed	0.18925448
125	0xbe2fd471	-0.17170884
126	0x3de8e994	0.113726765
127	0xbdae30e6	-0.085054204

GAT_layers.1.GAT_heads.1.f.weight f4 [64, 128]
0	0xbc500929	-0.012697496
1	0x3cb9ae26	0.022666048
2	0x3e34a6ec	0.176418
3	0xbc4d8a4a	-0.012545178
4	0xbdcaefe3	-0.09909036
5	0xbe00a71f	-0.12563752
6	0x3e31510c	0.17316073
7	0xbaf84eea	-0.0018944417
8	0xbdcbdb6b	-0.0995396
9	0xbe26e1de	-0.16297099
10	0x3dc1af11	0.094572194
11	0x3cd13aa1	0.025540652
12	0xbdbec180	-0.09314251
13	0x3d230a5e	0.03980481
14	0x3b48e8f8	0.0030656438
15	0xbe260548	-0.16212952
16	0xbaad1843	-0.0013206083
17	0xbd77d76d	-0.06050818
18	0x3e27bcca	0.16380611
19	0xbde94d66	-0.11391716
20	0xbdd8b136	-0.10580675
21	0xbe1540f2	-0.14575556
22	0xbd636587	-0.055516746
23	0x3d6e6ec1	0.058211092
24	0xbda610f0	-0.08108699
25	0x3d133db0	0.0359475
26	0x3e1ce610	0.15322137
27	0xbdf78b57	-0.12087124
28	0x3d9cc40d	0.07654581
29	0x3e127926	0.14304027
30	0xbd82c7d6	-0.06385772
31	0xbd4cc9f0	-0.04999727
32	0xbe30de4d	-0.17272301
33	0xbd5a6a01	-0.05332375
34	0xbaebe893	-0.001799839
35	0xbca3dc01	-0.020002367
36	0x3e271af3	0.16318874
37	0x3d1cfdd9	0.038328025
38	0xbddd763b	-0.10813566
39	0x3d5ef63c	0.054434046
40	0x3ddadadb	0.106862746
41	0xbcfb7ad8	-0.030698225
42	0x3e0691cb	0.13141553
43	0xbde2cc8f	-0.11074173
44	0xbdaa7cda	-0.08324595
45	0xbe05ce19	-0.13066901
46	0x3e1c507d	0.15265079
47	0x3ce93320	0.028466761
48	0x3cb509f1	0.022099467
49	0xba389ac6	-0.0007042106
50	0xbcacbe0f	-0.02108672
51	0x3e0e0c08	0.13871777
52	0xbda59d15	-0.08086602
53	0x3dfd9ae6	0.1238306
54	0xbd9a637d	-0.07538507
55	0x3e037b89	0.12840094
56	0xbdf28eab	-0.11843618
57	0xbd9c3127	-0.076265626
58	0xbe0999c6	-0.13437566
59	0xbcbe22e3	-0.023209995
60	0xbcc368ee	-0.023853745
61	0xbd9b13c2	-0.07572128
62	0xbe1b3c50	-0.15159726
63	0x3da715e8	0.08158475
64	0x3d812916	0.06306665
65	0xbd7c34bf	-0.06157374
66	0x3e0b820c	0.13623828
67	0x3dc24ef3	0.094877146
68	0x3dcffbd8	0.10155457
69	0x3e1b9794	0.15194541
70	0xbe041cfc	-0.12901682
71	0xbde07e9c	-0.10961649
72	0xbdd3cc9e	-0.10341762
73	0x3db0974d	0.08622608
74	0x3e31a34a	0.17347446
75	0xbe0d0824	-0.13772637
76	0xbdc81c46	-0.09771018
77	0x3d7ecddc	0.06220804
78	0x3d6d5454	0.05794175
79	0xbdb24368	-0.08704263
80	0x3e0d02c7	0.1377059
81	0xbe0fcff0	-0.14044166
82	0x3deaf130	0.11471784
83	0xbdddd315	-0.10831276
84	0x3e0413f2	0.12898234
85	0x3d5cc0e1	0.05389488
86	0x3da9c073	0.0828866
87	0xbd543d38	-0.051816195
88	0x3d92a4aa	0.071603134
89	0x3c723f60	0.014785618
90	0xbe292acc	-0.16520232
91	0xbe304f68	-0.17217791
92	0x3d43d678	0.047811955
93	0x3deb9110	0.11502278
94	0x3d37b38d	0.044848967
95	0xbe228d35	-0.15874179
96	0x3d376fa0	0.04478419
97	0xbe2acab0	-0.16678882
98	0x3d55a748	0.052161485
99	0x3de2026a	0.11035617
100	0x3ccacdae	0.024756279
101	0x3d1188f3	0.035530996
102	0x3c16041e	0.009156255
103	0x3d499e38	0.049223155
104	0x3e0b76d5	0.1361955
105	0xbd558a1d	-0.05213367
106	0x3e02d6b7	0.1277722
107	0xbd5a0c77	-0.053234544
108	0x3de4b430	0.111671805
109	0xbdfc55ac	-0.12321028
110	0x3e1bfbcb	0.1523277
111	0x3d89366c	0.06699833
112	0xbe082ae2	-0.13297608
113	0x3d9a2cf7	0.075281076
114	0xbe0be4d6	-0.13661513
115	0xbdbda31a	-0.09259625
116	0x3dbc2543	0.091867946
117	0xbd7cd1ae	-0.061723404
118	0x3e2d8d80	0.16948509
119	0xbe1dda24	-0.15415245
120	0x3dc36631	0.09540976
121	0x3e2e1f53	0.17004137
122	0x3d6f09c5	0.058358926
123	0x3dfc73a9	0.12326748
124	0x3e193fc8	0.14965737
125	0x3e201fa6	0.15637073
126	0x3e076c2f	0.13224863
127	0xbe272bed	-0.1632535
128	0xbe110130	-0.14160609
129	0xbe1aa7ce	-0.15103075
130	0xbe30b24e	-0.17255518
131	0x3dc4f919	0.09617824
132	0xbb66c88a	-0.0035214745
133	0xbe1127a3	-0.14175276
134	0xbdb97f2b	-0.090574585
135	0x3dac75db	0.08420917
136	0xbe0328df	-0.1280856
137	0xbd4c2424	-0.049839154
138	0xbe1efe55	-0.15526707
139	0xbd72c715	-0.05927189
140	0x3d46b4b5	0.04851218
141	0xbe0318d0	-0.12802434
142	0x3d4da84c	0.05020933
143	0xbc5e8f7b	-0.013584013
144	0xbd99e01f	-0.07513451
145	0xbde3f6ea	-0.111310795
146	0x3d664a58	0.056223243
147	0xbde01612	-0.109417096
148	0xbd4c7cdc	-0.049923763
149	0xbe16b790	-0.14718461
150	0x3dcc9867	0.09990006
151	0x3e1855dc	0.14876503
152	0xbcd5b321	-0.026086392
153	0xbda8283b	-0.08210798
154	0x3e0d683d	0.13809295
155	0x3b227098	0.002478635
156	0x3d3797aa	0.044822372
157	0x3df4399e	0.11925052
158	0x3db6965b	0.08915397
159	0xbc1215ba	-0.008916313
160	0x3dede89f	0.116166346
161	0x3dd6e860	0.10493541
162	0xbd84960b	-0.06473931
163	0xbd35682a	-0.04428879
164	0xbb86c582	-0.0041129002
165	0xbe341010	-0.17584252
166	0x3e0209d7	0.12699066
167	0xbdfd7daf	-0.12377488
168	0xbd2a5fdf	-0.041595336
169	0xbe22b228	-0.15888274
170	0xbe14b38f	-0.14521621
171	0x3e195b19	0.14976157
172	0x3df2f9f1	0.11864079
173	0xbdd7aaf4	-0.105306536
174	0xbdd3a1c5	-0.103335895
175	0x3e1d7d00	0.15379715
176	0x3d691ae2	0.056910403
177	0xbc45e121	-0.012077601
178	0x3cc54952	0.024082813
179	0xbda50966	-0.08058433
180	0x3dbaec0c	0.091270536
181	0xbdb088e8	-0.08619863
182	0x3e0b98d0	0.13632512
183	0x3d9f23ec	0.077705234
184	0xbd90e264	-0.070744306
185	0xbdf9b830	-0.12193334
186	0x3df812b2	0.12112941
187	0x3decda5c	0.11565086
188	0xbe0be50c	-0.13661593
189	0x3e00e49e	0.1258721
190	0xbdabfadd	-0.08397458
191	0x3e327d00	0.17430496
192	0xbd267252	-0.040636368
193	0xbe25aea2	-0.16179898
194	0x3dc7e49f	0.09760403
195	0x3dae731e	0.085180506
196	0xbe0e2fe8	-0.13885462
197	0x3da1e9e1	0.07905937
198	0x3e051f4e	0.13000223
199	0xbe11de9e	-0.14245078
200	0x3c5d2e31	0.013499782
201	0x3d38c5ff	0.0451107
202	0xbd29bd9c	-0.04144059
203	0xbd7c6628	-0.06162086
204	0x3db00828	0.08595306
205	0xbe0087db	-0.12551825
206	0xbd406f77	-0.0469813
207	0x3db5014b	0.08838137
208	0x3cec9335	0.028878788
209	0x3e2b1859	0.16708507
210	0xbe2e6849	-0.17031969
211	0xb9490467	-0.00019170494
212	0x3d8d636a	0.06903727
213	0xbe041178	-0.12897289
214	0x3d6d9980	0.058007717
215	0xbcdc0e9f	-0.02686244
216	0xbe19834a	-0.14991489
217	0x3e17550f	0.14778541
218	0xbdea89fe	-0.11452101
219	0xbce1414f	-0.027496962
220	0xbd239743	-0.039939176
221	0xbd919391	-0.07108224
222	0x3d18e596	0.037328325
223	0xbddd3e26	-0.108028695
224	0xbd698356	-0.057010017
225	0x3d94c1d5	0.07263533
226	0x3dee4b5f	0.1163547
227	0xbde988d4	-0.11403051
228	0x3d36d996	0.0446411
229	0x3d80e1fd	0.06293104
230	0x3df5079e	0.119643435
231	0xbe16ab70	-0.14713836
232	0x3e302fd1	0.1720574
233	0xbddc5621	-0.10758615
234	0xbe31b1cf	-0.17352985
235	0xbde6fdf8	-0.112789094
236	0x3d250ae4	0.04029359
237	0x3e213879	0.15744199
238	0xbe2e1602	-0.17000583
239	0xbbbf77c2	-0.0058431337
240	0xbe2cced9	-0.16875781
241	0x3dd471f2	0.10373296
242	0x3dca4502	0.098764434
243	0x3dfcdf32	0.123472586
244	0x3d9bb0e7	0.07602101
245	0xbd7175af	-0.058950122
246	0xbc83dfb5	-0.016097883
247	0x3c74d964	0.014944408
248	0x3dcc7e9b	0.099850856
249	0x3c5ac034	0.013351489
250	0xbd826935	-0.06367723
251	0x3d9ebb4e	0.07750569
252	0xbcf352c2	-0.029702548
253	0x3dbe6f17	0.092985325
254	0x3dfdcb4d	0.12392292
255	0x3d5916a9	0.053000126

GAT_layers.1.GAT_heads.1.f.bias f4 [64]
0	0x3d7ee8f6	0.062233888
1	0xbd9f80c8	-0.07788235
2	0x378651ac	1.6012076e-05
3	0xbdae42b7	-0.085088186
4	0xbd5abc45	-0.053402204
5	0x3d9e5ed5	0.077329315
6	0xbd90a8a8	-0.070634186
7	0xbda6fbc6	-0.08153491
8	0xbd844f7b	-0.06460472
9	0xbc553d90	-0.013015166
10	0x3d1e022e	0.038576297
11	0xbcc2d5f6	-0.023783665
12	0xbd7c3210	-0.06157118
13	0x3d80390c	0.06260881
14	0xbd9c70b7	-0.07638686
15	0x3d98e92a	0.074663475
16	0x3d76d4da	0.060261585
17	0xbca26612	-0.019824062
18	0x3d5e53b6	0.05427905
19	0x3d64d2ca	0.055865087
20	0xbd0c4102	-0.034241684
21	0xbd69085b	-0.056892734
22	0x3cae8153	0.021301901
23	0xbdb95d8b	-0.09051045
24	0x3d884650	0.06654036
25	0x3d7c9c10	0.06167227
26	0xbdaad4a9	-0.08341343
27	0xbd046c3a	-0.032329775
28	0x3d39f695	0.045401175
29	0x3d9421a1	0.07232977
30	0x3d278406	0.04089739
31	0xbc64d6e2	-0.013967248
32	0x3b46100f	0.0030221974
33	0x3d9d0453	0.076668404
34	0xbc93fbcb	-0.0180644
35	0xbd4440f7	-0.047913518
36	0x3d8a2147	0.067446284
37	0x3d3275df	0.043569442
38	0x3d11549e	0.035481088
39	0x3d4dbe8f	0.05023056
40	0xbd931f24	-0.07183674
41	0xbccb3e55	-0.024809996
42	0xbd81e6f5	-0.0634288
43	0xbd6d1f2a	-0.05789105
44	0xbcf7c3d0	-0.030244738
45	0x3d020e30	0.03175181
46	0x3d008335	0.03137513
47	0xbd46a189	-0.048493896
48	0x3b4c9e32	0.0031222221
49	0xbdad8e67	-0.08474427
50	0x3d9d3ef8	0.07678026
51	0x3d5bc5db	0.053655487
52	0xbd7b6684	-0.061377063
53	0xbcd9831c	-0.026551776
54	0x3d8144b6	0.06311934
55	0x3d00433c	0.03131412
56	0x3ca10378	0.019654974
57	0xbd1ecee2	-0.038771518
58	0x3d8bc553	0.06824746
59	0x3bc2ec2c	0.005948564
60	0x3d0b8031	0.0340578
61	0xbc820849	-0.015873091
62	0x3d996ece	0.074918374
63	0x3d911167	0.07083397

GAT_layers.1.GAT_heads.1.w.weight f4 [1, 128]
0	0x3e0b33e8	0.1359402
1	0xbdfa7443	-0.122292064
2	0x3e52a186	0.20569429
3	0xbe450aa3	-0.19242339
4	0xbe5da970	-0.21646667
5	0xbdb40bf2	-0.08791341
6	0x3d0d88b4	0.0345542
7	0x3d7e91d1	0.06215078
8	0xbca6d89e	-0.020366963
9	0x3e4d63bf	0.20057581
10	0xbe065ade	-0.131206
11	0xbd0414bf	-0.032246348
12	0xbd3e378e	-0.0464397
13	0x3e23a802	0.15982059
14	0x3b9a8b3f	0.0047163065
15	0x3e0fe880	0.14053535
16	0x3d84c995	0.06483761
17	0x3d2efa15	0.042718966
18	0x3d636af8	0.055521935
19	0x3dad370b	0.08457764
20	0xbded19f0	-0.11577213
21	0x3c6705db	0.014100517
22	0x3d65d6d8	0.056113094
23	0x3e3a0dca	0.18169323
24	0xbe4ba786	-0.19888124
25	0xbd066399	-0.032809827
26	0xbddcd926	-0.10783605
27	0x3e5df176	0.21674141
28	0xbe33ea86	-0.17569932
29	0x3e3f0276	0.18653283
30	0x3cfd1b50	0.030896813
31	0xbc9f1d0e	-0.019423034
32	0xbd2faff2	-0.042892404
33	0x3d6f70de	0.058457248
34	0xbe2915e5	-0.16512258
35	0x3d34cf99	0.044143293
36	0x3e139d75	0.14415534
37	0xbe092935	-0.13394625
38	0xbdd3d6fa	-0.10343738
39	0xbe4c0d4c	-0.19926947
40	0x3da24b4b	0.07924517
41	0x3e4ee62c	0.20204991
42	0xbe5564fe	-0.20839307
43	0x3e18d768	0.14925921
44	0xbe4f560e	-0.20247671
45	0xbe1f41a8	-0.1555239
46	0xbe1414fd	-0.14461131
47	0x3e51b6b9	0.2047986
48	0x3e163d54	0.14671832
49	0x3d9afa28	0.07567245
50	0xbd846824	-0.06465176
51	0xbd33d9af	-0.04390877
52	0x3c259e8e	0.010108603
53	0x3dfe5564	0.12418631
54	0xbca63dd2	-0.02029315
55	0xbe2f5de6	-0.17125663
56	0xbb2b24e3	-0.0026114515
57	0xbe1c5767	-0.15267716
58	0xbca8fd53	-0.020628607
59	0xbe091d7f	-0.13390158
60	0xbe139c47	-0.14415084
61	0xbd02b8fc	-0.031914696
62	0x3dec0696	0.11524694
63	0xbe52881d	-0.20559736
64	0x3a38cc65	0.00070495
65	0xbd9a7bdc	-0.075431556
66	0x3de52580	0.11188793
67	0x3e153e21	0.14574482
68	0xbd55dbf0	-0.052211702
69	0xbe4fa42c	-0.2027747
70	0x3e0bf1bc	0.13666433
71	0x3d8c484c	0.06849727
72	0xbe142fce	-0.14471361
73	0xbe369316	-0.17829546
74	0xbe5a058d	-0.2129118
75	0x3e47a154	0.19495136
76	0x3e4e27ef	0.20132421
77	0x3c3efa8b	0.011656414
78	0x3d6a696a	0.057229437
79	0x3dcfcc94	0.10146442
80	0x3e3a500e	0.18194601
81	0x3ddfbbcd	0.10924492
82	0xbe2b6077	-0.16736017
83	0x3cd4b04a	0.025962967
84	0x3def4bfd	0.116844155
85	0xbdc500ba	-0.09619279
86	0x3e48e51f	0.19618653
87	0x3d87233a	0.06598516
88	0x3d99f9b4	0.0751833
89	0xbcb7a91a	-0.022419501
90	0x3e0dd1b5	0.13849528
91	0xbe403a08	-0.18772137
92	0xbe36a7fa	-0.17837515
93	0x3ddaa316	0.106756374
94	0x3d8e13ce	0.06937371
95	0x3e1a576b	0.1507241
96	0xbe0a8af3	-0.13529567
97	0xbd94b4e4	-0.07261065
98	0xbe233821	-0.1593938
99	0x3b962795	0.0045823553
100	0x3cb4d648	0.022074834
101	0x3e193a9d	0.14963765
102	0x3e44b223	0.19208579
103	0xbe04bbe6	-0.12962303
104	0xbe2d204a	-0.16906849
105	0x3e1a53d0	0.15071034
106	0x3d77fb2d	0.060542274
107	0xbd930d95	-0.07180325
108	0x3d3c8940	0.04602933
109	0xbd7248bd	-0.0591514
110	0xbe031772	-0.12801912
111	0x3e2727fb	0.16323845
112	0xbd0088a2	-0.031380303
113	0x3e3ea221	0.18616535
114	0xbd9ec7e3	-0.07752969
115	0x3e196aa1	0.14982082
116	0xbd4ef7b0	-0.050529182
117	0xbd16ff92	-0.036864825
118	0x3e0f87f5	0.14016707
119	0x3e0def9d	0.13860936
120	0xbe00799e	-0.12546393
121	0x3d9d1f15	0.07671944
122	0x3d867a31	0.06566275
123	0xbd41b126	-0.047288083
124	0x3e305724	0.17220742
125	0xbe29deec	-0.16588944
126	0xbe23e30b	-0.16004579
127	0x3e55f294	0.20893317
