SLIC_GAT/best3.pt (torch, 580781 bytes, 30 tensors)

GAT_layers.0.GAT_heads.0.f.weight f4 [32, 124]
-0.049209777 -0.061826088 -0.13799109 -0.116162874 -0.10878385 0.10305893 -0.108358726 0.15349452
-0.13637084 0.17697121 0.1888167 0.1421514 -0.13984983 0.09721706 0.18540686 -0.005516524
0.023291007 -0.0164035 -0.059481863 -0.082579084 -0.15860449 -0.006146163 0.15506928 -0.0019375001
0.11368053 0.033428807 -0.16678263 -0.16241674 -0.017923033 0.11899573 0.060884573 -0.15791841
-0.13095966 0.040671814 0.18940519 0.12043246 -0.08910055 -0.19311406 -0.034861393 -0.08661077
-0.022638222 -0.099364616 -0.1935275 0.14001878 0.123556696 0.17954294 -0.053395785 0.107331485
0.10106491 0.009271356 0.18187892 0.16695684 -0.123602 0.07033029 0.051587805 0.04757073
-0.016691878 -0.03326137 0.07542732 0.14863564 0.17622095 -0.024857601 -0.005254283 -0.1462543
0.14395887 -0.016865466 0.06338188 0.03709471 0.027011544 -0.06559962 -0.06929903 -0.12524892
-0.0078019947 -0.023701446 -0.060320582 -0.104935266 0.18767634 -0.18850231 0.043644812 0.15678594
-0.051778995 -0.02506142 -0.14559805 0.0833378 0.014489776 0.019004375 0.1380106 -0.057699952
-0.10962689 0.18856773 0.09338926 0.16733493 -0.11714083 0.010915125 0.118581 0.076436825
-0.040425494 -0.19180995 -0.058548532 0.11982987 0.064945385 0.060311485 0.046889447 -0.13039443
-0.12335009 -0.07566909 -0.15800165 -0.0460566 0.0025280034 -0.10352318 0.16571477 -0.07753486
0.030869687 -0.16936868 -0.063956834 -0.044223554 0.091945104 0.0773262 0.05608842 -0.153069
-0.1730223 -0.13983476 0.19430149 -0.08683878 0.09897529 0.0726606 -0.18730563 -0.16821945
-0.14616904 -0.18331707 0.1570367 0.18206324 -0.134915 -0.036614995 0.12550263 -0.09908064
-0.12846932 0.073147304 -0.14494024 0.17372555 0.090690635 -0.01401252 -0.15231475 0.1850109
0.14315176 -0.19509378 0.09123095 -0.10608831 -0.13540803 -0.08640973 -0.13463914 0.182483
0.10363622 0.07076083 0.18961309 -0.109151855 -0.12448004 0.041409746 0.19303508 -0.070793755
-0.073961124 0.09824561 0.02570352 0.14827456 0.15167266 0.14392062 0.0027224221 0.002710873
0.085979 0.045191605 0.034424115 -0.07117735 0.03187491 -0.013708315 -0.06915487 -0.04246668
0.0620368 -0.04274622 -0.07067634 -0.18602255 0.086112194 0.02471733 -0.03989816 0.09762158
-0.17813312 -0.14836137 -0.054031316 0.1346611 0.092073806 0.14714856 -0.08649886 0.15246962
-0.166814 -0.09594869 -0.13405235 -0.16973881 0.13822483 -0.09053905 0.02257842 0.0721617
0.0058037564 0.1895398 -0.004279992 -0.03966734 0.013662071 0.16877261 -0.02224167 0.12826492
-0.13016185 0.05255237 -0.12920393 -0.08563152 -0.12770069 0.17099474 -0.1594375 0.04837639
0.008688779 0.11518164 -0.17923799 -0.0530988 0.11461673 0.19360685 -0.115094155 -0.097450845
0.11086276 0.16021615 0.17757903 -0.10970299 -0.04003916 -0.15499543 0.0146058295 0.05272654
-0.16791159 0.13005695 0.007823434 -0.10249313 0.19453403 -0.0055041565 -0.14768013 0.08746155
-0.07843511 -0.05148718 0.09984127 -0.045253906 0.06577249 -0.12360673 -0.0697872 -0.18701088
0.16978587 -0.005199334 0.058491006 0.026894562 -0.01950758 0.072361164 -0.07514964 -0.033728916
00000000: 3190 49bd 5a3d 7dbd 894d 0dbe cde6 edbd
00000010: 11ca debd 8f10 d33d 2eeb ddbd ab2d 1d3e
00000020: cca4 0bbe f137 353e 2a59 413e 2390 113e
00000030: cb34 0fbe bd19 c73d 4cdb 3d3e f5c3 b4bb
00000040: c8cc be3c a260 86bc 41a3 73bd 391f a9bd
00000050: 3769 22be c165 c9bb 7bca 1e3e b7f3 fdba
00000060: 56d1 e83d a5ec 083d 11c9 2abe 9350 26be
00000070: 53d3 92bc 09b4 f33d 1a62 793d 5db5 21be
00000080: 4a1a 06be 7d97 263d 6ff3 413e 4ba5 f63d
00000090: 597a b6bd b1bf 45be d2ca 0ebd fd60 b1bd
000000a0: cb73 b9bc ad7f cbbd 132c 46be 1561 0f3e
000000b0: 4b0b fd3d 1bda 373e 8ab5 5abd 9cd0 db3d
000000c0: 1ffb ce3d e3e6 173c 783e 3a3e bcf6 2a3e
000000d0: 0c23 fdbd 5409 903d bc4d 533d 87d9 423d
000000e0: 68bd 88bc 133d 08bd a479 9a3d f133 183e
000000f0: 4473 343e 2ba2 cbbc 1f2c acbb b0c3 15be
00000100: f469 133e 7229 8abc 5cce 813d 9ff0 173d
00000110: 5047 dd3c 1859 86bd a6ec 8dbd 4141 00be
00000120: e0a7 ffbb 8929 c2bc b712 77bd 4de8 d6bd
00000130: 3a2e 403e c006 41be e7c4 323d 7e8c 203e
00000140: 3616 54bd 9b4d cdbc a817 15be 02ad aa3d
00000150: 8766 6d3c 10af 9b3c a752 0d3e c956 6cbd
00000160: 1084 e0bd e617 413e de42 bf3d d959 2b3e
00000170: 88e7 efbd 5ad5 323c 98da f23d e98a 9c3d
00000180: 3495 25bd d469 44be 96d0 6fbd 5d69 f53d
00000190: 1602 853d 2d09 773d 260f 403d 1e86 05be
000001a0: f99e fcbd 65f8 9abd 2fcb 21be d8a5 3cbd
000001b0: dcac 253b f603 d4bd 22b1 293e 99ca 9ebd
000001c0: 6de2 fc3c fc6e 2dbe cdfb 82bd c223 35bd
000001d0: b74d bc3d 335d 9e3d f9bc 653d 1fbe 1cbe
000001e0: c22c 31be d830 0fbe f8f6 463e 88d8 b1bd
000001f0: 8fb3 ca3d 15cf 943d 0ccd 3fbe b841 2cbe
00000200: 56ad 15be 78b7 3bbe 3bce 203e c96e 3a3e
00000210: 2827 0abe 9bf9 15bd c383 003e caea cabd
00000220: 768d 03be 41ce 953d 376b 14be 1ce5 313e
00000230: 03bc b93d c594 65bc 66f8 1bbe 7f73 3d3e
00000240: 6096 123e aac6 47be 4bd7 ba3d d444 d9bd
00000250: 67a8 0abe 96f7 b0bd d8de 09be d3dc 3a3e
00000260: 3a3f d43d 0eeb 903d ef29 423e 028b dfbd
00000270: 64ef febd 449d 293d fdaa 453e 51fc 90bd
00000280: ee78 97bd ff34 c93d 3090 d23c 49d5 173e
00000290: 1450 1b3e ed5f 133e aa6a 323b e7a8 313b
000002a0: c215 b03d d51a 393d 4d00 0d3d 6ec5 91bd
000002b0: 448f 023d d798 60bc 12a1 8dbd 8bf1 2dbd
000002c0: 4d1a 7e3d a916 2fbd c2be 90bd b27c 3ebe
000002d0: 975b b03d ff7b ca3c 416c 23bd d3ed c73d
000002e0: 8768 36be 0bec 17be f14f 5dbd 99e4 093e
000002f0: 3191 bc3d 1dae 163e 5026 b1bd ff20 1c3e
00000300: 4ad1 2abe bf80 c4bd 0545 09be 03d0 2dbe
00000310: cf8a 0d3e 8a6c b9bd 61f6 b83c 83c9 933d
00000320: 702d be3b b916 423e 2d3f 8cbb 397a 22bd
00000330: e1d6 5f3c bad2 2c3e 2a34 b6bc e157 033e
00000340: 2649 05be 2741 573d 094e 04be 945f afbd
00000350: f8c3 02be 3f19 2f3e 9643 23be 5226 463d
00000360: 615b 0e3c 5ae4 eb3d 2a8a 37be 217e 59bd
00000370: 2dbc ea3d e040 463e 7cb6 ebbd 4f94 c7bd
00000380: 040c e33d b40f 243e 47d7 353e f6ab e0bd
00000390: 1a00 24bd 1fb7 1ebe 4a4d 6f3c c9f7 573d
000003a0: 04f1 2bbe a62d 053e dc2d 003c ebe7 d1bd
000003b0: ee33 473e 365c b4bb 7639 17be 0b1f b33d
000003c0: 96a2 a0bd 39e4 52bd 9479 cc3d 295c 39bd
000003d0: bab3 863d 8625 fdbd 97ec 8ebd c87f 3fbe
000003e0: 59dc 2d3e 2d5f aabb 4494 6f3d fc51 dc3c
000003f0: 5cce 9fbc 1732 943d 0ee8 99bd 5527 0abd

GAT_layers.0.GAT_heads.0.f.bias f4 [32]
-0.056742225 0.060936704 0.024190633 -0.013421147 0.01965693 0.04202606 -0.016463432 0.064824656
0.088079296 -0.009839592 -0.028488643 -0.033027362 0.025091512 0.04643756 0.061618418 -0.024690846
-0.046939842 -0.018502876 -0.09363285 -0.03447678 0.033368275 -0.006931693 0.053388014 0.009667045
-0.07661087 -0.079222575 -0.07205292 0.04679249 -0.055744074 -0.025419503 0.07986801 -0.07381991
00000000: 896a 68bd c498 793d 6f2b c63c 5fe4 5bbc
00000010: 9207 a13c 8523 2c3d 52de 86bc cac2 843d
00000020: eb62 b43d 3d36 21bc 0461 e9bc b347 07bd
00000030: b78c cd3c 5035 3e3d 9863 7c3d 7544 cabc
00000040: fe43 40bd 5893 97bc 94c2 bfbd 8637 0dbd
00000050: 2cad 083d 4123 e3bb 64ad 5a3d 8762 1e3c
00000060: 29e6 9cbd 723f a2bd 7b90 93bd 7ba9 3f3d
00000070: e653 64bd 903c d0bc d791 a33d e52e 97bd

GAT_layers.0.GAT_heads.0.w.weight f4 [1, 124]
0.10530552 -0.19570827 -0.18010485 -0.107973255 0.06665627 0.16196933 -0.035342537 0.12371654
0.11270526 -0.093764886 0.03719486 0.055532027 0.03459599 -0.03781884 0.03105234 0.20822714
-0.14056215 -0.16425675 -0.07723809 -0.010574936 0.055627573 0.18794306 -0.06054523 -0.21133971
0.21224928 0.18073988 -0.08133052 -0.054625675 -0.20106995 -0.15258479 0.05151506 0.09475531
0.06955158 -0.068819925 -0.09033315 0.06561024 0.043055914 -0.12357843 -0.12693737 -0.16459145
0.13291268 -0.09451888 0.21440543 -0.050388675 -0.0658291 -0.10397277 -0.14283271 0.21547666
0.18007053 -0.19607773 -0.1285044 -0.18974167 0.021327475 0.10407373 0.16108587 -0.11987389
0.17749445 -0.12341023 -0.21806483 -0.06358439 0.14046131 -0.0414842 -0.048313625 -0.2046005
0.20218302 0.05768916 -0.01403826 -0.1641802 -0.13885766 0.17083684 -0.12048037 -0.16329496
-0.09382932 0.022229047 0.00083557586 0.02016617 -0.16662157 -0.16179752 0.16867144 0.057169113
0.0076796706 0.05723619 -0.18714295 0.01307524 0.060160976 -0.16279526 -0.017385956 0.00138331
0.0022221361 0.0991305 -0.061736338 -0.08249286 0.14334483 -0.14756407 -0.106165275 -0.11839751
-0.04744348 0.010508333 -0.11686541 -0.18221627 0.051418304 -0.16411585 -0.10073554 -0.13997243
-0.096820556 0.19495279 0.036776837 -0.13199496 -0.14647025 -0.1842439 -0.0939027 -0.070543654
0.055164147 -0.21023536 -0.16509736 0.034967307 -0.21529958 0.011250774 0.08265226 -0.08972938
0.19142354 0.12978263 0.052762415 -0.10015145
00000000: 6caa d73d c067 48be 686d 38be 1521 ddbd
00000010: 1583 883d 4adb 253e 56c3 10bd 195f fd3d
00000020: 04d2 e63d ce07 c0bd a359 183d 8d75 633d
00000030: 86b4 0d3d eee7 1abd 7a61 fe3c 7f39 553e
00000040: 86ef 0fbe ec32 28be 012f 9ebd 7f42 2dbc
00000050: bdd9 633d 2574 403e 46fe 77bd 7069 58be
00000060: e057 593e e013 393e 9e90 a6bd 2cbf 5fbd
00000070: 48e5 4dbe 303f 1cbe 7501 533d 120f c23d
00000080: 0f71 8e3d 76f1 8cbd 9600 b9bd a95e 863d
00000090: 665b 303d b016 fdbd dffb 01be a98a 28be
000000a0: 431a 083e 1d93 c1bd 198d 5b3e 5b64 4ebd
000000b0: 68d1 86bd adef d4bd bd42 12be eaa5 5c3e
000000c0: 6964 383e 9ac8 48be a896 03be a44b 42be
000000d0: f5b6 ae3c 9c24 d53d b2f3 243e 7180 f5bd
000000e0: 1bc1 353e 81be fcbd 634c 5fbe 8838 82bd
000000f0: 17d5 0f3e 56eb 29bd 82e4 45bd cb82 51be
00000100: 1109 4f3e 784b 6c3d bb00 66bc db1e 28be
00000110: b430 0ebe daef 2e3e 6abe f6bd cb36 27be
00000120: 9629 c0bd b119 b63c 8c0a 5b3a 8633 a53c
00000130: d89e 2abe 40ae 25be 35b8 2c3e 292a 6a3d
00000140: bfa5 fb3b 7f70 6a3d 67a2 3fbe 8839 563c
00000150: 5b6b 763d cdb3 26be fe6c 8ebc 2e50 b53a
00000160: 42a1 113b ee04 cb3d 3edf 7cbd 04f2 a8bd
00000170: fdc8 123e 091b 17be 2e6d d9bd 657a f2bd
00000180: 1854 42bd 252b 2c3c 2257 efbd e796 3abe
00000190: 009c 523d fc0d 28be 6f4e cebd ef54 0fbe
000001a0: db49 c6bd b4a1 473e 4fa3 163d b029 07be
000001b0: 4cfc 15be 6faa 3cbe 0f50 c0bd 3179 90bd
000001c0: cdf3 613d f047 57be 480f 29be e139 0f3d
000001d0: 7e77 5cbe 2b55 383c 9745 a93d 0ac4 b7bd
000001e0: 8804 443e bde5 043e 671d 583d 341c cdbd

GAT_layers.0.GAT_heads.1.f.weight f4 [32, 124]
0.068801455 0.1684898 -0.043430474 -0.06044442 -0.08303603 -0.11701601 0.1328231 -0.029849106
0.09583238 -0.0013137987 -0.097958125 -0.082240865 -0.07428192 0.04710168 -0.032725736 0.06120159
0.051770438 0.14482793 -0.10289172 -0.16439342 -0.16526566 -0.18980597 0.16117418 0.19442816
-0.16409127 -0.018465657 -0.14186826 -0.19508833 0.08444514 -0.15389296 -0.09252887 0.061346844
0.1304536 -0.032828603 -0.0013501295 0.061607823 0.079911396 0.09894964 -0.15634558 -0.095841095
-0.17914191 0.10379295 -0.071042806 -0.05913151 -0.16327468 0.08633911 -0.18007271 0.10312862
-0.11184297 -0.007305311 -0.13211322 -0.062544756 0.19280496 0.16788307 -0.054832555 0.1785046
-0.08350365 -0.08125947 0.040762406 -0.11727358 -0.118941985 -0.17454396 0.08376769 0.057003867
-0.10522278 -0.16017476 -0.03552353 0.0689493 0.17753641 0.1834942 -0.096407846 0.13753816
-0.14585374 -0.053344443 -0.18712479 -0.16184518 0.087482266 -0.16629548 0.19503206 -0.13289307
-0.0795918 0.13259192 0.16886087 -0.04606679 0.0798789 0.11631951 -0.05961938 -0.06290972
-0.12672037 -0.014519351 -0.11018962 -0.047664598 0.07028706 -0.14528276 0.06875018 0.17810145
0.1713868 0.019866776 -0.1921319 0.14861996 0.013796873 -0.18296184 -0.040338196 0.18714127
0.08759334 0.019523643 -0.034751326 -0.03649146 0.16442885 0.17404015 0.11279484 -0.000288051
0.012843039 -0.07378784 0.18819484 0.15657866 0.15291609 0.051620066 0.013327169 0.012083249
-0.00290618 -0.056808677 0.13474981 0.027882967 -0.07547835 -0.11102088 -0.18963112 -0.09905689
-0.13925196 -0.07569121 0.051094554 0.06953175 0.066470236 0.03679879 0.040996283 -0.11642245
0.07266052 -0.16346242 0.025733208 -0.085220255 -0.044517294 -0.16251378 -0.07102951 0.056806378
0.048968997 0.10365692 0.048883438 -0.1995225 -0.018632917 0.0018891632 0.18334515 -0.12156625
0.15150946 -0.096319355 0.040202454 -0.13973726 0.18526846 0.028449468 0.11574985 0.12553018
-0.04086913 0.15834305 -0.11260035 -0.18111707 -0.13442929 0.10164483 0.0015319469 0.004477193
-0.079555966 -0.11947175 0.054807026 -0.0011627479 -0.14105427 -0.11370353 -0.06442278 -0.044867896
0.140893 -0.07889923 0.047503147 0.14438109 0.17960171 0.17732044 -0.012734463 -0.06107287
-0.19567968 0.08784297 0.16475493 -0.009777937 0.13192244 0.09686641 -0.075016074 0.16716687
-0.15182458 0.17555392 -0.11553719 -0.10066352 -0.028162511 -0.15746872 0.08873213 -0.12238688
-0.058697518 0.046192706 0.1558258 -0.018927576 -0.13662861 0.11599053 0.15291868 0.114336096
0.06461903 0.06670503 -0.08845581 -0.06312669 -0.1507072 0.09985251 -0.08716388 -0.19532129
-0.16866677 0.15444656 -0.023752656 -0.087835945 -0.11472221 0.021103937 -0.0032887517 -0.16639496
0.1702577 0.028399898 0.10290254 0.06188477 0.0380578 0.18198486 0.11903115 0.09215259
-0.0074354843 0.15171014 -0.041603424 -0.20011109 -0.007691179 0.10165415 -0.07942594 -0.089860275
-0.05862446 0.032865785 -0.19665834 -0.053221572 0.017945308 -0.10203826 -0.19324425 -0.049470488
0.03476856 0.1583016 -0.0061791753 0.12224669 -0.18778461 0.038944606 -0.0033759198 0.17228372
00000000: c7e7 8c3d 9788 2c3e 27e4 31bd 9194 77bd
00000010: cb0e aabd 17a6 efbd c702 083e 1d86 f4bc
00000020: c443 c43d c533 acba 459e c8bd e66d a8bd
00000030: 1f21 98bd b1ed 403d 6c0b 06bd 85ae 7a3d
00000040: 3d0d 543d c64d 143e e5b8 d2bd c056 28be
00000050: 673b 29be 7f5c 42be d80a 253e 2d18 473e
00000060: 8b07 28be 4a45 97bc ea45 11be 3cc5 47be
00000070: 93f1 ac3d 1e96 1dbe c77f bdbd d446 7b3d
00000080: a195 053e 4977 06bd d4f6 b0ba 7c58 7c3d
00000090: 96a8 a33d 1ca6 ca3d 0e19 20be 5648 c4bd
000000a0: fa70 37be 6691 d43d e47e 91bd e233 72bd
000000b0: 7a31 27be 8fd2 b03d fb64 38be 1935 d33d
000000c0: ed0d e5bd 6461 efbb b048 07be 7717 80bd
000000d0: aa6e 453e 8ae9 2b3e 1a98 60bd e9c9 363e
000000e0: f603 abbd 5d6b a6bd 7bf6 263d 212d f0bd
000000f0: db97 f3bd a7bb 32be 658e ab3d e37c 693d
00000100: 0a7f d7bd da04 24be 1f81 11bd 4a35 8d3d
00000110: 1bcc 353e e7e5 3b3e 7a71 c5bd ced6 0c3e
00000120: af5a 15be b47f 5abd a49d 3fbe beba 25be
00000130: e729 b33d 5d49 2abe 7cb6 473e 1f15 08be
00000140: 0701 a3bd 2dc6 073e dde9 2c3e 88b0 3cbd
00000150: 8c97 a33d ec38 ee3d 7333 74bd d0d6 80bd
00000160: fcc2 01be 92e2 6dbc 18ab e1bd f43b 43bd
00000170: aaf2 8f3d 01c5 14be e5cc 8c3d 3a60 363e
00000180: 0580 2f3e a6bf a23c 3abe 44be d52f 183e
00000190: 480c 623c 595a 3bbe aa39 25bd f6a1 3f3e
000001a0: 2364 b33d 0cf0 9f3c 6857 0ebd 1278 15bd
000001b0: 0960 283e 9537 323e fb00 e73d 8d05 97b9
000001c0: 9c6b 523c 141e 97bd 26b6 403e 2856 203e
000001d0: 0996 1c3e 906f 533d 335a 5a3c d2f8 453c
000001e0: 9c75 3ebb 37b0 68bd dbfb 093e d26a e43c
000001f0: 6594 9abd ea5e e3bd a92e 42be 57de cabd
00000200: 1198 0ebe fe03 9bbd 8648 513d aa66 8e3d
00000210: 8c21 883d 54ba 163d b8eb 273d e56e eebd
00000220: 0acf 943d b162 27be 73ce d23c f587 aebd
00000230: c457 36bd 036a 26be eb77 91bd cead 683d
00000240: b793 483d 144a d43d 003a 483d a04f 4cbe
00000250: 0fa4 98bc cc9d f73a d5be 3b3e baf7 f8bd
00000260: 4c25 1b3e 1543 c5bd 54ab 243d 4917 0fbe
00000270: 04b7 3d3e dc0e e93c 420e ed3d fc8a 003e
00000280: 6466 27bd ae24 223e 039b e6bd c176 39be
00000290: d5a7 09be 2a2b d03d 9ccb c83a 6bb5 923b
000002a0: 3dee a2bd 9bad f4bd 557d 603d 5867 98ba
000002b0: 8870 10be 65dd e8bd 17f0 83bd 66c7 37bd
000002c0: 4146 103e eb95 a1bd a992 423d a3d8 133e
000002d0: 83e9 373e 7d93 353e 36a4 50bc 8c27 7abd
000002e0: 4160 48be 04e7 b33d 84b5 283e a433 20bc
000002f0: ad16 073e e561 c63d 07a2 99bd cb2d 2b3e
00000300: e777 1bbe 68c4 333e c39e ecbd ad28 cebd
00000310: 11b5 e6bc 7b3f 21be 31b9 b53d f9a5 fabd
00000320: cf6c 70bd 9034 3d3d cc90 1f3e 010e 9bbc
00000330: 5fe8 0bbe 718c ed3d b796 1c3e 0b29 ea3d
00000340: fb56 843d a69c 883d 5228 b5bd 9148 81bd
00000350: fd52 1abe 797f cc3d fa82 b2bd 4e02 48be
00000360: fbb6 2cbe 3d27 1e3e ee94 c2bc 55e3 b3bd
00000370: 7af3 eabd 2ae2 ac3c 1988 57bb 7163 2abe
00000380: 0958 2e3e e7a6 e83c 91be d23d e27a 7d3d
00000390: 7fe2 1b3d 3d5a 3a3e 9bc6 f33d 7fba bc3d
000003a0: 5da5 f3bb e759 1b3e 5a68 2abd ece9 4cbe
000003b0: 4906 fcbb 0d30 d03d 11aa a2bd aa08 b8bd
000003c0: 3420 70bd 469e 063d ce60 49be ddfe 59bd
000003d0: 0a02 933c 6ff9 d0bd d2e1 45be 91a1 4abd
000003e0: 7a69 0e3d d119 223e ae7a cabb 795c fa3d
000003f0: 9c4a 40be 6184 1f3d 893e 5dbb 256b 303e

GAT_layers.0.GAT_heads.1.f.bias f4 [32]
-0.009998022 0.042969443 0.006775613 0.0016739318 -0.065274686 -0.042732313 0.05720712 0.048441663
-0.052678455 0.086193986 0.0017922509 0.091017224 -0.02677208 -0.0037053756 0.083694585 -0.061438695
0.043346744 -0.043009266 -0.034437772 0.028690994 -0.05188755 0.05291935 -0.06811161 -0.098715946
0.012046097 0.032278135 -0.09074489 -0.0028933475 0.04409126 0.027644057 0.051560584 0.072811894
00000000: bece 23bc ba00 303d f605 de3b d567 db3a
00000010: bcae 85bd 1408 2fbd 0352 6a3d c46a 463d
00000020: 5dc5 57bd 7986 b03d f6e9 ea3a 3d67 ba3d
00000030: 1f51 dbbc e3d5 72bb 1168 ab3d 24a7 7bbd
00000040: 5b8c 313d 7c2a 30bd 9f0e 0dbd 6009 eb3c
00000050: 0a88 54bd f6c1 583d 1a7e 8bbd 962b cabd
00000060: fe5c 453c 1436 043d 75d8 b9bd 519e 3dbb
00000070: 0999 343d ca75 e23c 3131 533d 671e 953d

GAT_layers.0.GAT_heads.1.w.weight f4 [1, 124]
0.18703994 -0.10578606 -0.022622334 -0.15802994 0.19061296 -0.14779666 -0.10654834 -0.08039642
0.13845792 0.17021024 0.018958967 0.20726997 0.20041536 -0.19761854 -0.021325612 0.15646024
-0.1714873 0.014829077 -0.13600773 0.16615419 0.1276734 0.21332604 0.10467869 0.119748
0.108709306 -0.20398639 -0.18201514 0.12450676 0.13231997 -0.21081679 0.14942877 0.13948621
0.10385904 0.004783316 0.1464776 0.22554162 0.16986018 -0.20497122 0.08440365 0.027799828
-0.11115418 -0.1987322 0.13383642 0.18362695 -0.11247394 -0.028610539 0.21607292 -0.041737117
0.081015565 -0.076039866 -0.11277858 -0.05446991 0.123263985 -0.16311647 -0.101963274 0.020091558
0.033872325 -0.17575254 -0.114674136 -0.075452976 -0.21453328 0.0038427287 -0.07609027 0.15956673
-0.13174406 0.071020775 0.020645956 0.14236283 0.11615747 -0.014421912 -0.13834208 -0.10365451
0.07944933 -0.16999221 -0.1408797 -0.15947506 0.13345501 0.07006882 -0.008354392 -0.08655494
0.0099965315 0.06273922 0.14830668 0.008107669 0.13838647 0.11912942 0.047801584 0.05773212
0.058890518 0.13783756 -0.08327272 -0.21697232 -0.0376278 0.094968 -0.06708048 0.022591148
0.09028384 -0.040806476 -0.2042289 0.15247755 -0.036586832 -0.20950666 -0.07498332 -0.17844601
0.1797004 -0.11690002 0.08395045 0.13192964 0.049341183 0.17232293 -0.17398056 0.11382627
0.03264866 0.12208056 -0.19497569 0.034656018 -0.05244545 0.005809629 -0.012859846 -0.2185304
0.13859962 0.0010209661 0.084373236 0.01574601
00000000: 6687 3f3e 5da6 d8bd 7952 b9bc 9ad2 21be
00000010: 0b30 433e 0258 17be 0436 dabd e1a6 a4bd
00000020: eac7 0d3e 984b 2e3e d64f 9b3c 943e 543e
00000030: af39 4d3e 845c 4abe 0db3 aebc 1d37 203e
00000040: 5e9a 2fbe a8f5 723c 9c45 0bbe 5324 2a3e
00000050: d1bc 023e 2472 5a3e c861 d63d 703e f53d
00000060: fca2 de3d cfe1 50be 2d62 3abe 66fd fe3d
00000070: e37e 073e 5be0 57be db03 193e 79d5 0e3e
00000080: 0cb4 d43d 5dbd 9c3b 39fe 153e 62f4 663e
00000090: d4ef 2d3e fae3 51be d2db ac3d 77bc e33c
000000a0: cda4 e3bd 7480 4bbe 6a0c 093e b408 3c3e
000000b0: bd58 e6bd a660 eabc 3842 5d3e 8af4 2abd
000000c0: 7deb a53d caba 9bbd 75f8 e6bd d71b 5fbd
000000d0: d471 fc3d 0108 27be 1fd2 d0bd 0d97 a43c
000000e0: b5bd 0a3d 79f8 33be 46da eabd 1787 9abd
000000f0: 9dae 5bbe 4ad6 7b3b 37d5 9bbd 7665 233e
00000100: eae7 06be 5773 913d b521 a93c 90c7 113e
00000110: f8e3 ed3d e249 6cbc 8ca9 0dbe d148 d4bd
00000120: 55b6 a23d 7012 2ebe c542 10be 6e4d 23be
00000130: 6ea8 083e 3e80 8f3d dce0 08bc b743 b1bd
00000140: 7ec8 233c 6c7d 803d b5dd 173e 07d6 043c
00000150: 2fb5 0d3e 20fa f33d 98cb 433d 8478 6c3d
00000160: 2f37 713d 4a25 0d3e e38a aabd fe2d 5ebe
00000170: 9c1f 1abd 957e c23d 7e61 89bd 1211 b93c
00000180: bce6 b83d b124 27bd 6121 51be 1323 1c3e
00000190: 13dc 15bd ea88 56be db90 99bd 8dba 36be
000001a0: 6203 383e 4769 efbd 37ee ab3d 9018 073e
000001b0: fb19 4a3d 6c75 303e f627 32be bf1d e93d
000001c0: 9aba 053d 5f05 fa3d b5a7 47be 78f3 0d3d
000001d0: 0ad1 56bd b35e be3b 1bb2 52bc 6fc6 5fbe
000001e0: 0fed 0d3e f0d1 853a e0cb ac3d c7fd 803c

GAT_layers.1.GAT_heads.0.f.weight f4 [64, 128]
0.112671696 0.08706544 -0.036663186 -0.07203303 0.14949441 -0.14962889 -0.12005822 0.04473182
-0.09507423 -0.13284 0.055371728 -0.15867046 -0.036764 -0.17241222 -0.05282294 -0.07941336
-0.13205223 -0.018926041 -0.09195026 0.11912697 -0.07096005 0.1611392 0.15063705 0.14779899
0.10985112 -0.028503766 -0.0984622 0.13117777 0.046593152 -0.053789787 0.025026545 -0.07421632
0.054759398 0.114220336 -0.14146525 -0.15137033 -0.10248749 -0.16264798 -0.10226726 -0.09501223
0.17456628 -0.03948894 -0.03604194 -0.074709535 -0.059760228 0.15513876 0.13827148 -0.024264552
0.15280323 0.008533216 0.12726459 -0.14341731 -0.054981828 0.03479296 -0.1635806 0.12453552
-0.10188105 -0.16458987 -0.118886866 -0.019396584 0.15205559 0.13462995 -0.07397611 0.119990855
0.13637128 0.15660863 -0.057526592 0.14786313 0.031957846 -0.061185844 -0.04515411 -0.104058966
0.0017025851 0.08946368 0.10413063 -0.03184458 0.14339615 0.049265828 0.15746766 0.14633632
-0.1549986 0.10436512 -0.0031287924 0.00534618 0.1005286 0.04708235 -0.13477826 0.10050362
-0.17550729 0.035049003 0.15199645 0.1273159 -0.083625816 -0.17225449 0.15044105 0.03347033
-0.13647604 -0.10376822 -0.11088103 -0.15206458 -0.11066761 -0.06354333 -0.14229451 -0.17444398
-0.12887032 0.021136519 -0.0042447564 -0.16241044 0.14772895 0.14854552 -0.010740323 -0.17569898
0.16724454 0.16767651 0.06185164 -0.09178652 0.11324755 0.09032272 -0.08960293 -0.1625293
0.026514202 0.09941198 -0.07797433 0.06904107 0.019929975 -0.053931084 -0.0062291985 -0.026824571
0.0324367 0.15090942 -0.03111059 -0.071739644 0.052434642 -0.16957812 -0.1648619 -0.11275241
-0.1753415 0.03178749 -0.122449465 -0.005028688 0.08094077 0.12390204 0.14162616 0.115923576
0.070278496 -0.10301815 -0.09500955 -0.030159272 -0.11382532 0.17490588 -0.1261374 -0.10038113
0.066756435 0.15927371 0.08270685 -0.16537793 0.0782895 -0.13037348 0.121521205 -0.07487826
0.109571666 0.025996597 0.15486312 0.13095021 0.02956494 0.15210593 -0.1295718 0.024374006
-0.12577884 0.12148256 -0.14119156 0.10116021 -0.14936966 -0.06005085 0.022242157 -0.034299567
0.07584679 0.17242126 0.019888233 -0.12844327 -0.008997151 0.13254218 -0.12874103 0.09862748
-0.17032665 -0.17387597 -0.12863109 -0.03696774 0.103704154 -0.1268538 -0.016580254 0.112589866
0.0023369372 0.066058144 -0.16239645 -0.16804399 -0.11195727 -0.10739211 0.14358081 -0.10069569
0.017349496 -0.158809 -0.020178646 0.08179833 -0.07746194 0.026280034 -0.018423757 -0.079776585
-0.09565078 -0.06320908 0.026088456 -0.021550441 0.022036627 0.062853254 0.15663101 0.03296265
-0.15442885 -0.17415711 -0.104404844 -0.03702432 -0.04561406 0.12430349 0.014577962 -0.14191766
-0.00073803344 -0.08512582 -0.08740154 -0.0979698 0.092095904 0.02867861 0.09886998 -0.14813022
-0.055283703 -0.09540348 -0.029423704 -0.0956804 0.07057376 -0.084755264 -0.039096955 0.10057273
-0.1517642 -0.15629955 -0.15145954 0.08005596 0.07900823 -0.1719909 0.1405497 -0.16779362
0.037204117 -0.13022758 -0.15677121 0.08081068 0.102368124 -0.16951704 -0.03874431 -0.10809039
00000000: 6bc0 e63d 5e4f b23d 232c 16bd 0e86 93bd
00000010: 1015 193e 5138 19be 16e1 f5bd b638 373d
00000020: 47b6 c2bd 3507 08be 77cd 623d 827a 22be
00000030: d995 16bd d48c 30be de5c 58bd 79a3 a2bd
00000040: b338 07be c90a 9bbc 6b50 bcbd d7f8 f33d
00000050: 8153 91bd ad01 253e 9940 1a3e 9e58 173e
00000060: a0f9 e03d bb80 e9bc 8da6 c9bd 7753 063e
00000070: 76d8 3e3d ae52 5cbd 7804 cd3c bafe 97bd
00000080: 644b 603d 5aec e93d 44dc 10be d300 1bbe
00000090: f6e4 d1bd 318d 26be 7f71 d1bd c695 c2bd
000000a0: 81c1 323e 28bf 21bd b7a0 13bd 5001 99bd
000000b0: 24c7 74bd b2dc 1e3e 0a97 0d3e 74c6 c6bc
000000c0: 7378 1c3e e7ce 0b3c a651 023e fddb 12be
000000d0: a034 61bd 1083 0e3d ac81 27be 7b0c ff3d
000000e0: 03a7 d0bd 3f8a 28be f57a f3bd 96e5 9ebc
000000f0: 76b4 1b3e 6fdc 093e c980 97bd c4bd f53d
00000100: eaa4 0b3e 035e 203e 01a1 6bbd 6f69 173e
00000110: 3be6 023d 029e 7abd 84f3 38bd de1c d5bd
00000120: 4729 df3a bc38 b73d 7142 d53d 766f 02bd
00000130: 71d6 123e f7ca 493d 343f 213e 30d9 153e
00000140: f4b7 1ebe 61bd d53d 6d0c 4dbb 022f af3b
00000150: f0e1 cd3d 6cd9 403d 5003 0abe d8d4 cd3d
00000160: 2fb8 33be 8b8f 0f3d f5a4 1b3e 195f 023e
00000170: 0344 abbd 7b63 30be 380d 1a3e 2f18 093d
00000180: 60c0 0bbe 6f84 d4bd 9815 e3bd d1b6 1bbe
00000190: b3a5 e2bd 0123 82bd a7b5 11be 71a1 32be
000001a0: 95f6 03be 7e26 ad3c 9917 8bbb ec4e 26be
000001b0: 4246 173e 511c 183e 2ef8 2fbc 6fea 33be
000001c0: 2742 2b3e 64b3 2b3e 2558 7d3d 92fa bbbd
000001d0: 55ee e73d 1efb b83d be81 b7bd 156e 26be
000001e0: 5034 d93c 8298 cb3d 01b1 9fbd 6865 8d3d
000001f0: 3044 a33c d7e6 5cbd 4e1e ccbb 34bf dbbc
00000200: 58dc 043d 0088 1a3e a3db febc 3cec 92bd
00000210: b5c5 563d e3a5 2dbe 8fd1 28be bcea e6bd
00000220: b98c 33be 9933 023d c9c6 fabd b1c7 a4bb
00000230: 46c4 a53d 5ac0 fd3d 7306 113e 5769 ed3d
00000240: 2cee 8f3d 2efb d2bd 5e94 c2bd 9410 f7bc
00000250: 401d e9bd 871a 333e 2a2a 01be 9f94 cdbd
00000260: 99b7 883d a618 233e 3562 a93d d558 29be
00000270: 3f56 a03d a080 05be 1ce0 f83d c659 99bd
00000280: 1c67 e03d d1f6 d43c 7094 1e3e d017 063e
00000290: 2c32 f23c a8c1 1b3e 78ae 04be ffab c73c
000002a0: 2bcc 00be d9cb f83d 8594 10be 162d cf3d
000002b0: 5cf4 18be e1f7 75bd 2f35 b63c b47d 0cbd
000002c0: 9055 9b3d 338f 303e a6ec a23c a286 03be
000002d0: c968 13bc 23b9 073e b0d4 03be 34fd c93d
000002e0: 1c6a 2ebe 8b0c 32be deb7 03be 7c6b 17bd
000002f0: d862 d43d f6e5 01be 50d3 87bc 8495 e63d
00000300: 4d27 193b 7e49 873d 414b 26be b913 2cbe
00000310: da49 e5bd 65f0 dbbd d906 133e 8b39 cebd
00000320: 8820 8e3c d49e 22be b04d a5bc e285 a73d
00000330: 5ea4 9ebd 3a49 d73c 6bed 96bc e861 a3bd
00000340: 8ee4 c3bd c373 81bd 75b7 d53c 8d8a b0bc
00000350: 2886 b43c 35b9 803d e163 203e d803 073d
00000360: 9922 1ebe 3e56 32be 35d2 d5bd d0a6 17bd
00000370: cfd5 3abd d492 fe3d 68d8 6e3c dd52 11be
00000380: 9678 41ba 7256 aebd 94ff b2bd 64a4 c8bd
00000390: c79c bc3d 68ef ea3c 587c ca3d 73af 17be
000003a0: 2a71 62bd e662 c3bd fb09 f1bc 16f4 c3bd
000003b0: fa88 903d 2b94 adbd 2124 20bd 13f9 cd3d
000003c0: 1368 1bbe fd0c 20be 3618 1bbe 61f4 a33d
000003d0: 11cf a13d 621e 30be 43ec 0f3e 17d2 2bbe
000003e0: 5863 183d 615a 05be a288 20be 1280 a53d
000003f0: 61a6 d13d e095 2dbe 5bb2 1ebd 7f5e ddbd

GAT_layers.1.GAT_heads.0.f.bias f4 [64]
0.036628935 -0.06341528 -0.018070092 0.08421958 0.081974566 0.09044155 0.011772917 -0.03832263
-0.081545435 -0.032747902 -0.013941248 -0.0006841048 0.054556083 -0.0010946441 0.056602255 0.056357797
0.08604699 0.06278703 0.035573017 -0.026638221 -0.042358097 0.021872092 -0.016930658 0.048448276
0.060825698 -0.07481745 0.083805546 0.048423182 0.0372915 0.016429907 -0.0520753 -0.03764104
0.045142595 0.08662171 -0.054149553 0.07526884 0.028859762 -0.048896216 0.07219242 -0.061298184
-0.0709862 -0.061436553 0.06771914 0.020995378 -0.04451217 -0.07321255 -0.054228928 -0.03833042
0.035511576 -0.07557276 -0.09274842 0.06782873 -0.036256805 0.030920621 -0.037802942 -0.055380452
0.028414348 -0.07021669 0.026302423 0.060729206 0.031828165 0.022904035 0.061495993 -0.015238954
00000000: 3908 163d dfdf 81bd bb07 94bc 517b ac3d
00000010: 48e2 a73d 6b39 b93d 31e3 403c 31f8 1cbd
00000020: 4b01 a7bd aa22 06bd d569 64bc 7f55 33ba
00000030: 3376 5f3d 297a 8fba c4d7 673d 6fd7 663d
00000040: 6739 b03d 7d96 803d 03b5 113d 6638 dabc
00000050: af7f 2dbd 1a2d b33c 2ab2 8abc b371 463d
00000060: 5e24 793d e439 99bd 3ea2 ab3d 6357 463d
00000070: f9be 183d 0398 863c e94c 55bd 7e2d 1abd
00000080: 71e7 383d b966 b13d eccb 5dbd 8d26 9a3d
00000090: 4f6b ec3c 6647 48bd 9fd9 933d ce13 7bbd
000000a0: 3661 91bd e5a4 7bbd 55b0 8a3d 80fe ab3c
000000b0: 6552 36bd 76f0 95bd 271f 5ebd 5c00 1dbd
000000c0: 9674 113d e4c5 9abd e2f2 bdbd cae9 8a3d
000000d0: 0482 14bd 3e4d fd3c 42d7 1abd 9dd6 62bd
000000e0: 35c5 e83c c5cd 8fbd 2e78 d73c 30bf 783d
000000f0: 405e 023d 3ea1 bb3c 39e3 7b3d ceac 79bc

GAT_layers.1.GAT_heads.0.w.weight f4 [1, 128]
-0.17114449 -0.16981465 -0.040160246 0.17374967 -0.16126418 0.04182886 -0.1453735 -0.20538472
0.027202252 0.18570206 -0.0061621936 0.021291984 0.06620671 -0.18580778 -0.07213117 -0.08403925
0.1974572 -0.18848868 -0.047371432 0.003229504 0.009820555 -0.094352365 -0.13718148 0.13479148
0.1630129 0.06257103 0.016726777 0.05671428 0.003090365 -0.035715282 -0.04840513 0.048176598
0.026178326 0.05542025 0.111884065 -0.1092788 -0.07866031 0.07617237 -0.16744024 0.17885515
0.1508474 0.16298774 -0.16662276 0.048093982 0.14514066 -0.08079866 0.19903953 -0.02634171
-0.11510986 0.113470286 0.0154933715 0.15639386 -0.16454343 -0.04324583 0.11886923 -0.17741698
-0.2086046 0.01473214 -0.09318179 -0.19484839 -0.05463986 0.20178173 0.10800194 0.13970798
0.20117502 0.051813904 -0.017674578 -0.13248913 0.03791631 -0.127018 0.13375846 0.0038698209
0.06603248 0.062026884 0.1408999 0.052401643 -0.08177219 -0.12135167 0.04232649 -0.13561189
0.018015664 -0.15835507 -0.16506495 -0.025070332 0.023480697 -0.058270212 0.02570926 -0.124516
-0.093685284 -0.2018327 0.104431815 0.16086166 0.2026876 0.19972 -0.022579327 -0.107558094
-0.14082022 -0.037618976 -0.10803542 0.16554937 0.14620039 0.19119196 0.0835585 0.017585976
-0.069506295 -0.16967227 -0.18516165 0.11658539 -0.1635487 0.14298192 -0.12345536 -0.08491555
0.1645585 -0.1337108 -0.00734779 -0.10470662 0.18887125 0.14595029 -0.1361431 0.036036506
-0.004523481 0.1777769 0.04030222 0.17428762 0.12913296 -0.09168549 0.12903856 0.1868426
00000000: 8040 2fbe e4e3 2dbe 127f 24bd 6feb 313e
00000010: 7022 25be bd54 2b3d cadc 14be 5f50 52be
00000020: 42d7 de3c ae28 3e3e 3aec c9bb 876c ae3c
00000030: 6297 873d 6544 3ebe 82b9 93bd c51c acbd
00000040: 3832 4a3e 2d03 41be 8c08 42bd 16a6 533b
00000050: 65e6 203c d03b c1bd 4d79 0cbe c706 0a3e
00000060: dbec 263e 3d25 803d 9806 893c 3c4d 683d
00000070: b987 4a3b 304a 12bd 7544 46bd d354 453d
00000080: ee73 d63c 5800 633d 7923 e53d 90cd dfbd
00000090: a818 a1bd 4200 9c3d 7475 2bbe ce25 373e
000000a0: be77 1a3e 42e6 263e 289f 2abe 32fe 443d
000000b0: c19f 143e c579 a5bd 05d1 4b3e 92ca d7bc
000000c0: b8be ebbd 1c63 e83d e9d7 7d3c b625 203e
000000d0: 137e 28be 8a22 31bd b671 f33d ccac 35be
000000e0: 729c 55be 135f 713c 18d6 bebd 5686 47be
000000f0: 0cce 5fbd df9f 4e3e 1f30 dd3d 9c0f 0f3e
00000100: d300 4e3e d13a 543d 47ca 90bc 3bab 07be
00000110: 224e 1b3d 0211 02be faf7 083e d29c 7d3b
00000120: 093c 873d e70f 7e3d 1048 103e 1ba3 563d
00000130: 2e78 a7bd 3987 f8bd 8b5e 2d3d d8dd 0abe
00000140: 9695 933c d527 22be c906 29be 4c60 cdbc
00000150: 975a c03c bfac 6ebd 3a9c d23c 3f02 ffbd
00000160: 12de bfbd 3bad 4ebe 59e0 d53d ebb8 243e
00000170: 578d 4f3e 6683 4c3e 48f8 b8bc 6b47 dcbd
00000180: 2d33 10be 5b16 1abd ad41 ddbd c685 293e
00000190: 8eb5 153e d3c7 433e b820 ab3d 7710 903c
000001a0: 5159 8ebd 91be 2dbe 049b 3dbe 52c4 ee3d
000001b0: 4f79 27be da69 123e 2ad6 fcbd 34e8 adbd
000001c0: 0682 283e 7ceb 08be bbc5 f0bb 6d70 d6bd
000001d0: 7767 413e fe73 153e 1969 0bbe 049b 133d
000001e0: b539 94bb 260b 363e f113 253d 7478 323e
000001f0: 6e3b 043e 9ac5 bbbd af22 043e ab53 3f3e

GAT_layers.1.GAT_heads.1.f.weight f4 [64, 128]
-0.08795853 -0.07860128 -0.019881846 0.08478063 0.0012456923 -0.037386384 -0.1527681 0.13808525
0.10426658 -0.14869267 -0.13102993 0.14233516 0.137859 -0.14058681 -0.098082036 -0.12446691
-0.10343681 0.13396919 -0.15202431 -0.07241397 0.015716895 -0.034933392 -0.07922842 0.044476874
0.050405096 0.06639648 0.016586272 0.083076835 -0.12648508 0.04681421 0.012893883 -0.0021646058
-0.0054444033 0.11725632 -0.019414388 0.09159216 0.15353538 0.11905694 -0.13254036 0.16796923
0.041448727 0.01672115 0.16920862 0.052210797 0.15663625 -0.15349066 0.16612333 0.10094333
0.06671744 0.12744531 -0.054847166 -0.10049897 0.032744665 0.03986131 0.17743261 0.030032221
-0.072881974 -0.15426996 -0.06790997 0.16794659 -0.15708764 0.15324032 -0.14720114 -0.038611844
-0.040912684 -0.05801349 -0.12981814 0.09025498 -0.045033824 0.15580796 0.12529278 -0.014786519
0.1257173 -0.05203826 0.11863937 0.14892796 0.16432405 0.03316467 -0.03297327 -0.10472918
0.030158808 0.07814219 -0.15861037 -0.15342118 0.16028072 0.0917331 0.02350005 -0.12593228
-0.11802268 -0.005988681 -0.0651512 -0.13996622 0.14927876 -0.16264789 -0.088872194 -0.16295563
-0.10525815 -0.091742225 -0.011158928 0.1630188 -0.119294934 -0.15398364 0.13474879 -0.10544278
-0.026086032 0.06411105 0.15017696 -0.0917432 0.045109164 0.021898342 0.105877444 0.13177067
0.07582024 -0.09787175 -0.09877325 -0.08322443 -0.09783004 0.13025288 0.12110527 -0.108046606
0.1507299 -0.081107415 -0.16057143 0.15459438 -0.15928243 -0.07667092 0.04110636 0.0095486
-0.17610262 0.01932867 -0.16239336 -0.0049792253 -0.137918 -0.11998264 0.070100814 -0.0418222
0.0684306 -0.12951024 0.15611994 -0.0753879 -0.091079384 -0.08064529 -0.15610363 -0.030901458
-0.085091725 0.117647074 -0.10507315 0.02298856 -0.052419186 0.08937339 0.09642008 -0.1028699
0.006623109 -0.035386715 -0.0957012 0.050964452 0.020243447 -0.027286692 0.013417142 0.027627079
-0.17108543 0.018671352 0.11658891 -0.12461847 0.05591771 0.0392887 0.12926656 -0.045693632
0.16209553 -0.12765121 -0.039597597 0.011693219 0.0060868664 0.15051357 0.055170838 0.049956065
0.129013 -0.06633874 0.0022055916 0.07710612 0.04596097 -0.042662747 0.15333992 -0.04200918
-0.11307412 0.005997433 -0.06193233 -0.009133935 0.13795926 0.106240146 0.0964033 -0.06050355
-0.029825006 0.04381053 -0.016989844 -0.11000798 -0.0804546 0.1748045 0.033182766 -0.060174827
-0.03380326 0.018645197 0.04747598 0.1350329 0.09102095 0.07117115 -0.073418394 -0.16104566
0.02141338 -0.044164363 -0.032876898 -0.16443111 0.0050227763 -0.110126965 0.05082029 -0.052552
-0.14557002 0.12395767 -0.15557432 0.060358893 -0.14289649 -0.043275308 -0.08433348 -0.10127797
-0.044997364 0.041768428 -0.011452734 0.1651341 0.15703216 -0.12886824 -0.026076218 0.106104806
-0.06968372 0.16245872 -0.067746654 0.056327865 0.038189024 0.041291162 -0.0005912056 -0.121485
0.09342313 -0.1459016 -0.0059536174 -0.13388719 -0.16543502 -0.10119767 0.15502405 0.049037535
-0.07837632 0.047909126 -0.15095326 -0.023970068 0.048409127 0.013131405 0.16861117 -0.13978563
00000000: 9a23 b4bd b5f9 a0bd 41df a2bc 78a1 ad3d
00000010: 7f46 a33a 7722 19bd 3e6f 1cbe 3866 0d3e
00000020: b789 d53d e442 18be b62c 06be 4fc0 113e
00000030: e92a 0d3e fdf5 0fbe 3cdf c8bd 82e8 febd
00000040: aed6 d3bd 382f 093e 43ac 1bbe c74d 94bd
00000050: b8c0 803c 5116 0fbd 8342 a2bd 622d 363d
00000060: 9375 4e3d e1fa 873d efdf 873c 3024 aa3d
00000070: 4e85 01be 42c0 3f3d dd40 533c 0fdc 0dbb
00000080: f766 b2bb 1524 f03d ec0a 9fbc ac94 bb3d
00000090: 6138 1d3e 20d4 f33d a9b8 07be 2000 2c3e
000000a0: 24c6 293d cbfa 883c 0645 2d3e fdda 553d
000000b0: 4165 203e a82c 1dbe 3c1c 2a3e 60bb ce3d
000000c0: 27a3 883d 0681 023e 6ca7 60bd 67d2 cdbd
000000d0: 451f 063d 9d45 233d e5b0 353e 2206 f63c
000000e0: 2543 95bd f2f8 1dbe 6214 8bbd 31fa 2b3e
000000f0: 95db 20be 08eb 1c3e e5bb 16be 7427 1ebd
00000100: 0f94 27bd 8e9f 6dbd 0cef 04be 9ad7 b83d
00000110: 6375 38bd 1f8c 1f3e c04c 003e 2843 72bc
00000120: 09bc 003e 1226 55bd 33f9 f23d 9280 183e
00000130: 9044 283e add7 073d fb0e 07bd 417c d6bd
00000140: 9b0f f73c 0309 a03d c26a 22be 711a 1dbe
00000150: a120 243e 90de bb3d 2d83 c03c 64f4 00be
00000160: e0b5 f1bd b33c c4bb fe6d 85bd 4e53 0fbe
00000170: 88dc 183e 2b8d 26be a002 b6bd d7dd 26be
00000180: 9691 d7bd 59e3 bbbd f0d3 36bc 66ee 263e
00000190: e750 f4bd e3ad 1dbe 96fb 093e 62f2 d7bd
000001a0: 60b2 d5bc a74c 833d fdc7 193e dce3 bbbd
000001b0: 63c4 383d 2764 b33c 46d6 d83d e4ee 063e
000001c0: a447 9b3d fc70 c8bd a149 cabd 9271 aabd
000001d0: 1e5b c8bd 0361 053e 0a06 f83d 8a47 ddbd
000001e0: f058 1a3e a51b a6bd d66c 24be fd4d 1e3e
000001f0: ef1a 23be a505 9dbd 245f 283d bb71 1c3c
00000200: 3f54 34be 2957 9e3c 724a 26be c528 a3bb
00000210: 603a 0dbe 75b9 f5bd 0491 8f3d c14d 2bbd
00000220: 5825 8c3d 559e 04be e8dd 1f3e f964 9abd
00000230: d487 babd 5c29 a5bd a1d9 1fbe 0e25 fdbc
00000240: 9244 aebd f3f0 f03d 9730 d7bd 8152 bc3c
00000250: 80b5 56bd 6509 b73d e477 c53d 74ad d2bd
00000260: aa06 d93b a9f1 10bd fefe c3bd 1ac0 503d
00000270: 96d5 a53c 5788 dfbc 93d3 5b3c 2f52 e23c
00000280: 0531 2fbe aaf4 983c 2bc6 ee3d f837 ffbd
00000290: f809 653d 30ed 203d 745e 043e 3f29 3bbd
000002a0: 5ffc 253e 00b7 02be 1731 22bd ea94 3f3c
000002b0: 5674 c73b 3b20 1a3e d1fa 613d bb9e 4c3d
000002c0: fc1b 043e 9bdc 87bd b08b 103b d0e9 9d3d
000002d0: 9241 3c3d 22bf 2ebd 2405 1d3e d111 2cbd
000002e0: 6793 e7bd 1d86 c43b c1ac 7dbd 80a6 15bc
000002f0: 3145 0d3e 6f94 d93d 186f c53d 92d2 77bd
00000300: 9253 f4bc ac72 333d 492e 8bbc dd4b e1bd
00000310: 62c5 a4bd f3ff 323e a7ea 073d e179 76bd
00000320: 4a75 0abd d0bd 983c 2c76 423d 1146 0a3e
00000330: 3169 ba3d 2ec2 913d 625c 96bd 27e9 24be
00000340: 1d6b af3c b1e5 34bd eda9 06bd a160 28be
00000350: 1a96 a43b 3f8a e1bd f028 503d c440 57bd
00000360: 4f10 15be 85dd fd3d e04e 1fbe e33a 773d
00000370: 7553 12be 7341 31bd 08b7 acbd d36a cfbd
00000380: 284f 38bd 5f15 2b3d 3fa4 3bbc ea18 293e
00000390: 0acd 203e 09f6 03be cb9d d5bc 7a4d d93d
000003a0: 57b6 8ebd 945b 263e c2be 8abd 0cb8 663d
000003b0: 186c 1c3d ec20 293d 23fb 1aba 21cd f8bd
000003c0: a054 bf3d 3b67 15be 9016 c3bb b919 09be
000003d0: cc67 29be b940 cfbd a0be 1e3e 95db 483d
000003e0: c483 a0bd 5c3c 443d 7e93 1abe e05c c4bc
000003f0: a648 463d 1b25 573c 68a8 2c3e f723 0fbe

GAT_layers.1.GAT_heads.1.f.bias f4 [64]
-0.02460116 0.08458629 -0.028474327 0.069338076 -0.041608237 -0.010243228 0.09582939 -0.029012386
-0.017946804 -0.024584578 -0.06977418 0.057315238 0.04360084 0.016457807 -0.060921073 0.02850311
-0.0873101 -0.0082871225 0.050048918 -0.0685477 -0.072640926 0.013597624 -0.0054972824 -0.085686
0.07688029 0.0664462 -0.072137505 0.068050124 0.033220924 -0.08870039 0.0765353 0.050455134
0.0069695027 -0.0695275 0.049202416 -0.09007164 0.053187896 -0.0039239684 -0.091226794 -0.055419866
0.05636383 -0.0044298344 -0.0051104673 -0.055172257 0.0038716644 -0.009323771 0.045217313 0.042822134
0.038116723 -0.076965556 0.08449977 -0.0726552 -0.07347759 0.053668816 -0.03182133 -0.025623104
0.07532113 -0.0073864227 0.09251918 0.022935918 0.014833702 0.07457088 0.0141926035 -0.06109984
00000000: 5f88 c9bc 943b ad3d fe42 e9bc 1f01 8e3d
00000010: 666d 2abd 36d3 27bc 3342 c43d 62ab edbc
00000020: 2d05 93bc 9965 c9bc c4e5 8ebd 62c3 6a3d
00000030: cb96 323d 86d2 863c 6088 79bd 5b7f e93c
00000040: a3cf b2bd b6c6 07bc 1800 4d3d bd62 8cbd
00000050: c4c4 94bd 92c8 5e3c 8c22 b4bb 247c afbd
00000060: 6a73 9d3d f214 883d d4bc 93bd dd5d 8b3d
00000070: aa12 083d 8da8 b5bd 8abe 9c3d 0baa 4e3d
00000080: 6d60 e43b 6f64 8ebd 7988 493d 7b77 b8bd
00000090: 8ddb 593d a294 80bb 1dd5 babd f1ff 62bd
000000a0: c2dd 663d 2528 91bb b575 a7bb 4efc 61bd
000000b0: c0bb 7d3b bbc2 18bc ca35 393d 4366 2f3d
000000c0: 4820 1c3d 1ea0 9dbd 370e ad3d 40cc 94bd
000000d0: 6b7b 96bd d5d3 5b3d 1557 02bd 8be7 d1bc
000000e0: f741 9a3d ce09 f2bb b27a bd3d 1be4 bb3c
000000f0: 0e09 733c 9eb8 983d 1888 683c d343 7abd

GAT_layers.1.GAT_heads.1.w.weight f4 [1, 128]
0.09019234 0.060702134 -0.1868644 0.023699082 -0.104197934 0.12350822 0.15578137 0.11716213
0.15705504 0.031372476 0.12347455 -0.14675951 -0.072892345 -0.05218426 -0.025306882 -0.19028328
-0.09087282 -0.11734872 -0.0043431986 0.20264332 -0.0049116802 -0.17975092 0.06106168 0.03845073
-0.14292303 -0.084206834 -0.19553652 0.08826725 -0.026471794 -0.102772765 0.08368301 0.11472258
-0.1362184 0.048584335 0.09395084 0.20807461 -0.12085672 -0.13646014 0.13280737 -0.11859797
0.18295391 0.055074774 0.17980476 -0.12464942 0.0027536543 -0.03572122 -0.1802473 -0.02301561
-0.04661901 -0.17305882 0.08511649 0.13440232 0.018913228 0.20348434 -0.00589891 -0.06034729
0.19846146 -0.08637697 -0.13005914 -0.1093092 0.1791876 0.05063318 0.16312693 -0.13975722
-0.089797854 -0.1270612 0.09248892 0.040648863 0.06195266 -0.16079347 -0.038314443 0.051378414
0.1504987 -0.15992832 -0.07004935 -0.111949086 -0.08334892 0.12986524 -0.06303809 0.1471369
0.06425069 -0.096360624 0.0170163 0.04826231 -0.15178943 0.13944279 0.19559206 0.033784587
0.034123234 -0.09441468 0.06071744 -0.12774849 -0.16394046 -0.10847692 0.17385475 -0.04126626
0.21049199 -0.17236458 0.09208257 -0.111210294 0.15057321 0.021363946 0.12941761 -0.20118646
0.21172076 -0.030002179 -0.07136043 0.009335168 0.052755244 0.20021416 -0.059799287 -0.1976699
-0.18929826 0.19741632 -0.056962743 -0.12838668 -0.20181948 0.054973677 -0.11408894 -0.16469167
0.031627472 -0.12900917 -0.17434253 0.18243384 -0.025404235 -0.18812267 0.07406094 -0.019257039
00000000: c3b6 b83d cda2 783d 6259 3fbe 9424 c23c
00000010: ba65 d5bd e1f1 fc3d 2785 1f3e b3f2 ef3d
00000020: 09d3 203e 6d80 003d 3ae0 fc3d 2048 16be
00000030: 9548 95bd 2abf 55bd 6150 cfbc 9fd9 42be
00000040: 871b babd 8754 f0bd 6451 8ebb bb81 4f3e
00000050: 29f2 a0bb a010 38be d01b 7a3d 837e 1d3d
00000060: 6a5a 12be a274 acbd ba3a 48be 76c5 b43d
00000070: 60db d8bc 877a d2bd ff61 ab3d acf3 ea3d
00000080: d67c 0bbe 5e00 473d 4c69 c03d 8311 553e
00000090: ba83 f7bd 35bc 0bbe a8fe 073e 7ee3 f2bd
000000a0: 4558 3b3e 1696 613d bd1e 383e 3248 ffbd
000000b0: a776 343b 6a50 12bd c092 38be 3c8b bcbc
000000c0: 93f3 3ebd 5536 31be 8e51 ae3d c3a0 093e
000000d0: eaef 9a3c 335e 503e a54b c1bb b82e 77bd
000000e0: 7b39 4b3e 69e6 b0bd 392e 05be 80dd dfbd
000000f0: f47c 373e bd64 4f3d bf0a 273e 841c 0fbe
00000100: f0e7 b7bd 551c 02be d56a bd3d 6c7f 263d
00000110: 13c2 7d3d 0ba7 24be 9bef 1cbd 2c72 523d
00000120: 551c 1a3e 40c4 23be 0976 8fbd 9045 e5bd
00000130: d7b2 aabd 65fb 043e 1d1a 81bd 0eab 163e
00000140: de95 833d b858 c5bd c465 8b3c b3ae 453d
00000150: b06e 1bbe 17ca 0e3e 4949 483e b561 0a3d
00000160: cec4 0b3d 7c5c c1bd dab2 783d 80d0 02be
00000170: 02e0 27be 2629 debd fb06 323e cf06 29bd
00000180: 368b 573e 5780 30be c995 bc3d 39c2 e3bd
00000190: dd2f 1a3e 7103 af3c 0d86 043e d303 4ebe
000001a0: 54cd 583e 21c7 f5bc 6b25 92bd 88f2 183c
000001b0: e215 583d f104 4d3e 19f0 74bd fa69 4abe
000001c0: 67d7 41be 8127 4a3e c451 69bd cc77 03be
000001d0: c4a9 4ebe 142c 613d 76a7 e9bd efa4 28be
000001e0: cf8b 013d fb1a 04be d986 32be f0cf 3a3e
000001f0: 8b1c d0bc 3ba3 40be 43ad 973d f0c0 9dbc

GAT_layers.1.GAT_heads.2.f.weight f4 [64, 128]
0.17028876 0.07489935 -0.060461465 0.015125682 0.030657427 0.04772827 0.021801932 0.1083116
0.16848813 0.115724415 -0.007090364 0.1008267 -0.12704845 0.13918547 -0.054169573 0.0069176042
0.038365055 -0.040800784 -0.07377108 0.1629446 0.0058070347 -0.09999633 -0.052319158 -0.06493773
0.04691922 -0.030356184 0.13650131 0.16471969 0.08351918 0.15127692 0.034288716 -0.111787535
-0.1624719 -0.17646761 -0.040292956 0.14961754 -0.09041052 -0.12424872 -0.140578 -0.030221457
0.1194632 0.12718712 -0.018519346 0.068941414 0.10557044 -0.11106215 0.033123627 -0.14176813
-0.1744922 -0.13828014 -0.053296436 -0.15026797 -0.04378988 -0.086055666 -0.09747485 -0.15179043
-0.12067117 0.004496605 -0.044987418 0.009956501 0.16822731 -0.14906411 -0.15571912 -0.17232297
-0.14700039 0.07996581 0.16605605 0.11854349 0.125074 0.15277082 0.15228899 0.02908101
-0.023732869 0.110579565 0.07661066 -0.14782172 -0.10952282 0.049924586 -0.12157374 0.1680249
0.1010578 -0.040486198 -0.07690742 0.16161828 -0.0028188655 -0.16574821 -0.012857866 0.084472544
-0.039398894 0.06376116 0.024323199 -0.08220159 -0.017730104 -0.13064337 -0.15064834 0.103422865
-0.0049744872 -0.09931243 -0.16683334 0.06375492 0.13562688 0.011309917 -0.04437389 0.06528059
-0.06973573 -0.099325456 -0.14944361 -0.11825747 0.07446847 -0.13367505 0.1613623 0.16373271
0.028426155 0.14591199 -0.15742128 -0.10173766 -0.07595001 -0.036768995 0.09635557 0.03367925
-0.08369061 -0.0018343573 0.15554695 0.091984786 0.0059815054 0.061857305 -0.057929557 0.15197127
-0.17388834 -0.159315 -0.02184195 0.13741677 -0.14238366 0.13024402 -0.1373582 0.08296312
0.043733362 -0.005464655 -0.027257988 0.08688921 -0.13198848 0.07569418 -0.13548543 -0.05846636
-0.06061823 -0.049324792 0.08540789 -0.15928327 0.11045313 0.16875853 -0.039849423 0.102935776
0.10517796 -0.023497963 -0.057237905 0.14267665 0.034738675 -0.12935364 0.07946815 0.06647449
0.13734621 -0.08008519 0.12689225 0.14758769 -0.026994172 -0.022119572 -0.056658175 -0.17589393
0.03536892 0.013622093 -0.16628386 0.10965799 -0.0682981 0.0019663612 -0.0045078583 0.16069277
0.0073998473 0.01345203 -0.02412804 -0.12426079 0.16459525 -0.16585094 0.15533316 -0.08664064
-0.059807263 -0.17113508 -0.09214812 -0.16039358 -0.13233835 -0.0124389045 0.014169075 0.11011028
-0.05776571 0.036851875 -0.0077868407 0.17333755 0.14667535 0.029982299 -0.006871011 0.15875147
-0.13952105 -0.11327551 -0.07761899 -0.11142982 -0.03411583 -0.17139013 0.14824465 0.16852571
-0.04682736 0.07014647 -0.09339948 -0.17011742 -0.097498514 -0.0316432 -0.14390652 0.02061261
-0.09043864 0.0937885 -0.092977904 0.09904667 0.12611502 0.16930616 -0.09636816 0.069552965
0.041200735 0.0021402591 0.14083329 0.021409735 -0.11221478 -0.09807717 -0.094907306 0.04459556
0.16119339 0.10823787 -0.15347107 -0.05115597 0.1666299 -0.08143492 -0.16251549 0.054594815
0.12841536 -0.098463826 0.101412356 0.049552765 -0.08688726 -0.06911181 0.10412735 -0.014812805
0.011355098 0.1180541 0.096952565 -0.088965654 0.16063412 0.15076047 -0.010889839 -0.012207792
00000000: 2d60 2e3e d564 993d 71a6 77bd b5d1 773c
00000010: 4925 fb3c b87e 433d f799 b23c 79d2 dd3d
00000020: 2788 2c3e ec00 ed3d 4956 e8bb 3b7e ce3d
00000030: fd18 02be a386 0e3e eae0 5dbd 12ad e23b
00000040: ad24 1d3d b91e 27bd 4b15 97bd f3da 263e
00000050: f048 be3b e0ca ccbd 9d4c 56bd 13fe 84bd
00000060: 5e2e 403d 88ad f8bc 00c7 0b3e 47ac 283e
00000070: 1b0c ab3d 56e8 1a3e 5372 0c3d ddf0 e4bd
00000080: 095f 26be edb3 34be 3a0a 25bd 5735 193e
00000090: 2729 b9bd 1d76 febd aef3 0fbe fd92 f7bc
000000a0: 1fa9 f43d 573d 023e e2b5 97bc 2831 8d3d
000000b0: 5135 d83d 8d74 e3bd a4ac 073d aa2b 11be
000000c0: 15ae 32be 4f99 0dbe 5d4d 5abd d9df 19be
000000d0: 045d 33bd f43d b0bd e5a0 c7bd f36e 1bbe
000000e0: 7222 f7bd 4258 933b ba44 38bd 9820 233c
000000f0: c843 2c3e 43a4 18be d574 1fbe 6f75 30be
00000100: 4587 16be 1dc5 a33d 990a 2a3e eec6 f23d
00000110: 6613 003e f46f 1c3e a5f1 1b3e 4c3b ee3c
00000120: 6f6b c2bc 8a77 e23d 0de6 9c3d 945e 17be
00000130: 804d e0bd b97d 4c3d a7fb f8bd b80e 2c3e
00000140: 64f7 ce3d dbd4 25bd a381 9dbd 437f 253e
00000150: b7bc 38bb e6b9 29be cca9 52bc f1ff ac3d
00000160: bc60 21bd 3695 823d 7241 c73c 4f59 a8bd
00000170: b93e 91bc 60c7 05be 8f43 1abe 5ecf d33d
00000180: 0601 a3bb 5164 cbbd 5cd6 2abe f191 823d
00000190: c6e1 0a3e 3b4d 393c 65c1 35bd d4b1 853d
000001a0: 9bd1 8ebd 256b cbbd bf07 19be f930 f2bd
000001b0: ed82 983d 1de2 08be 293c 253e 8ca9 273e
000001c0: f8dd e83c f469 153e 0b33 21be d65b d0bd
000001d0: ae8b 9bbd 169b 16bd 1256 c53d 41f3 093d
000001e0: fc65 abbd d16e f0ba b347 1f3e 8562 bc3d
000001f0: 8100 c43b 165e 7d3d 8b47 6dbd 5b9e 1b3e
00000200: c90f 32be 7923 23be e4ed b2bc fbb6 0c3e
00000210: 06cd 11be b05e 053e a1a7 0cbe 91e8 a93d
00000220: c121 333d d910 b3bb 254c dfbc f8f2 b13d
00000230: fd27 07be 8d05 9b3d b1bc 0abe 6c7a 6fbd
00000240: d24a 78bd cb08 4abd 55ea ae3d 271b 23be
00000250: 4035 e23d 09cf 2c3e 2639 23bd fecf d23d
00000260: 8b67 d73d cd7e c0bc 4b72 6abd d419 123e
00000270: 244a 0e3d 4875 04be 33c0 a23d c723 883d
00000280: 7ca4 0c3e b403 a4bd 0bf0 013e 3a21 173e
00000290: e222 ddbc 1b34 b5bc 6712 68bd 8a1d 34be
000002a0: 00df 103d 332f 5f3c 5146 2abe 5e94 e03d
000002b0: e0df 8bbd 11de 003b a8b6 93bb a58c 243e
000002c0: 6b7a f23b e765 5c3c 2ba8 c5bc 717c febd
000002d0: a88b 283e d4d4 29be a80f 1f3e a670 b1bd
000002e0: 76f8 74bd 093e 2fbe 27b8 bcbd 373e 24be
000002f0: b483 07be 8ccc 4bbc 6825 683c 8081 e13d
00000300: bd9b 6cbd fef1 163d c128 ffbb 667f 313e
00000310: 1032 163e 709d f53c 3826 e1bb bf8f 223e
00000320: 9bde 0ebe fefc e7bd b4f6 9ebd 5135 e4bd
00000330: 0abd 0bbd e580 2fbe 72cd 173e 0192 2c3e
00000340: 0cce 3fbd f4a8 8f3d 3a48 bfbd 4333 2ebe
00000350: 4dad c7bd 4d9c 01bd 3b5c 13be c7db a83c
00000360: e537 b9bd 2f14 c03d 336b bebd fbd8 ca3d
00000370: 4c24 013e 985e 2d3e ab5c c5bd c971 8e3d
00000380: 1ac2 283d 9743 0c3b 9a36 103e 7863 af3c
00000390: ddd0 e5bd afdc c8bd c35e c2bd d5a9 363d
000003a0: e10f 253e d1ab dd3d 8527 1dbe ec88 51bd
000003b0: 07a1 2a3e 5ac7 a6bd 766a 26be d09e 5f3d
000003c0: 517f 033e 67a7 c9bd 48b1 cf3d d7f7 4a3d
000003d0: f3f1 b1bd 7e8a 8dbd b840 d53d 68b1 72bc
000003e0: bc0a 3a3c 59c6 f13d 118f c63d a033 b6bd
000003f0: 457d 243e f460 1a3e 4c6b 32bc 3103 48bc

GAT_layers.1.GAT_heads.2.f.bias f4 [64]
-0.08319217 0.007600615 0.0033922584 0.065676734 -0.07959197 0.035982255 0.054222375 -0.023682376
-0.053320896 0.066076405 0.027949337 -0.028788324 -0.037227236 0.09201691 -0.092645586 0.08460029
-0.045398813 -0.08137525 -0.0343069 -0.07888943 0.052662734 -0.075427465 0.051209863 0.059452232
-0.027147071 0.08347578 -0.016701259 0.057017688 -0.055755373 0.07699268 0.07847573 0.05072825
-0.056941286 -0.08418879 -0.037113313 0.006689853 -0.08035208 0.031282738 -0.08750186 0.08106139
-0.094909444 -0.033562087 -0.02529947 -0.06021738 -0.08275184 -0.04359459 -0.051982183 -0.05593242
0.02508689 0.07055525 -0.0375313 -0.007344643 0.020770295 -0.01400504 -0.030927867 -0.011987768
0.08212528 -0.019564694 0.07570797 0.057812557 0.06572478 -0.059007417 -0.08813984 -0.052702736
00000000: a860 aabd 940e f93b a750 5e3b 8681 863d
00000010: 1d01 a3bd 2162 133d 4818 5e3d 8b01 c2bc
00000020: 0367 5abd 1153 873d 02f6 e43c 7ed5 ebbc
00000030: 967b 18bd 5d73 bc3d f8bc bdbd eb42 ad3d
00000040: 1bf4 39bd 11a8 a6bd 6485 0cbd c890 a1bd
00000050: e1b4 573d b779 9abd 6fc1 513d 2f84 733d
00000060: 8963 debc 5af5 aa3d 14d1 88bc 618b 693d
00000070: bf5f 64bd 57ae 9d3d e2b7 a03d 6dc8 4f3d
00000080: 443b 69bd 2c6b acbd 2104 18bd 8e36 db3b
00000090: a28f a4bd 5422 003d 2d34 b3bd 8403 a63d
000000a0: e25f c2bd 6678 09bd d640 cfbc 80a6 76bd
000000b0: cc79 a9bd 3e90 32bd 45eb 54bd 6519 65bd
000000c0: 0683 cd3c 457f 903d 6cba 19bd 55ab f0bb
000000d0: 7726 aa3c 6575 65bc 705c fdbc 5868 44bc
000000e0: 4c31 a83d 2346 a0bc c80c 9b3d dccc 6c3d
000000f0: b79a 863d c3b1 71bd a982 b4bd d3de 57bd
