SLIC_GAT/best5.pt (torch, 80373 bytes, 12 tensors)

GAT_layers.0.f.weight f4 [32, 124]
0	0xbe38a504	-0.18031698
1	0xbd8fa35c	-0.0701358
2	0x3d4be36d	0.049777437
3	0x3e34ce03	0.17656712
4	0xbe0bddb5	-0.13658793
5	0x3d889b3c	0.066702336
6	0x3db96b4d	0.09053669
7	0x3b495289	0.003071936
8	0x3c496aa8	0.012293495
9	0xbe404725	-0.1877714
10	0x3e1a2321	0.15052463
11	0x3e2deff6	0.16986069
12	0x3d85a348	0.06525284
13	0xbdc332f1	-0.09531201
14	0x3db0cc48	0.086327136
15	0x3e30a06f	0.172487
16	0x3e018366	0.12647781
17	0x3e33b401	0.17549135
18	0xbda7c496	-0.08191793
19	0x3d939eeb	0.072080456
20	0xbc4c2bb2	-0.01246159
21	0x3e2b4417	0.16725193
22	0xbe0852aa	-0.13312784
23	0xbc1b4d8c	-0.009478938
24	0xbab34650	-0.0013677571
25	0x3c2be14d	0.010490728
26	0xbda31ac4	-0.079640895
27	0x3da8ad1c	0.08236143
28	0x3dd5eba7	0.10445338
29	0xbd376c81	-0.04478121
30	0xbd94ab44	-0.07259229
31	0xbe317904	-0.1733132
32	0x3d828216	0.06372468
33	0xbdc1d1df	-0.09463858
34	0xbe06a8c4	-0.13150316
35	0xbd805708	-0.062666
36	0xbe299a2a	-0.16562715
37	0x3d5e4f10	0.05427462
38	0xbc75c450	-0.015000418
39	0xbd699bcd	-0.05703335
40	0xbdf06fe5	-0.11740092
41	0x3cf0cb5f	0.02939385
42	0xbddcd372	-0.107825175
43	0xbd890192	-0.06689753
44	0x3e141c51	0.14463927
45	0xba9fed34	-0.0012201429
46	0xbd3684f0	-0.044560373
47	0x3e12e05f	0.14343403
48	0x3e190810	0.14944482
49	0x3e3a56fa	0.18197241
50	0x3c459dec	0.012061577
51	0x3e19abca	0.15006939
52	0xbdd0aab0	-0.10188806
53	0x3d005d7d	0.031339157
54	0x3dbfb4ca	0.09360655
55	0x3cce0c9f	0.025152503
56	0x3cf9bd39	0.030485736
57	0xbe32856f	-0.17433713
58	0x3e1b3f12	0.15160778
59	0xbe0eec1a	-0.13957253
60	0x3db684f7	0.0891208
61	0xbe425ca8	-0.18980658
62	0x3e246102	0.1605263
63	0xbd80586a	-0.06266864
64	0x3e44d34c	0.19221228
65	0x3d856caa	0.06514867
66	0x3dccc617	0.0999872
67	0x3c156fb0	0.009120867
68	0x3db4dbee	0.08831011
69	0x3d4eadd4	0.050458744
70	0x3e094013	0.13403349
71	0xbd758b4a	-0.05994729
72	0x3d3c3729	0.045951042
73	0xbdd6d49a	-0.10489769
74	0xbe3010ff	-0.17193983
75	0xbe024a11	-0.12723567
76	0xbe063213	-0.1310504
77	0xbd590aab	-0.05298869
78	0xbdc5ad6d	-0.09652219
79	0x3d93df0f	0.072202794
80	0x3e46d9ad	0.19418974
81	0x3d53e0a6	0.051727913
82	0xbde6eefd	-0.11276052
83	0xbd870fb1	-0.0659479
84	0x3e046b7d	0.12931629
85	0x3e040e1b	0.12896006
86	0xbe1a1215	-0.1504596
87	0xbd6f523d	-0.058428038
88	0x3d90e558	0.07074994
89	0x3e33b3c7	0.17549048
90	0xbe03346b	-0.12812965
91	0x3e2af61e	0.16695449
92	0x3d2e0f34	0.042494968
93	0x3d956944	0.072954684
94	0xbe086bc9	-0.13322367
95	0xbe0106b0	-0.12600207
96	0xbe0342df	-0.12818478
97	0xbd2ea427	-0.042637017
98	0x3e141604	0.14461523
99	0x3c6a3131	0.014293955
100	0x3e3e8dd6	0.18608794
101	0xbdd71ff9	-0.10504145
102	0xbdcfe5ae	-0.1015123
103	0xbdc5570a	-0.09635742
104	0x3e10f66d	0.14156504
105	0x3e0c4682	0.13698772
106	0x3cf0a9fb	0.029377928
107	0x3c62d3a2	0.0138444025
108	0x3e01737f	0.12641715
109	0xbd6aa019	-0.057281587
110	0x3d82b30b	0.06381806
111	0xbda96d6d	-0.082728244
112	0xbe1c15a0	-0.15242624
113	0x3df9b018	0.1219179
114	0xbe2a3d19	-0.1662487
115	0x3e0e091d	0.13870664
116	0x3cb5bb29	0.022183971
117	0x3da3db96	0.08000867
118	0x3e3acd32	0.18242338
119	0xbd82b955	-0.063830055
120	0x3e1babf2	0.1520231
121	0xbc992466	-0.018694114
122	0x3e10939b	0.14118807
123	0x3e3b2ac3	0.18278031
124	0x3adec9b6	0.001699737
125	0x3dabba8b	0.083851896
126	0x3e38368d	0.1798956
127	0xbd084802	-0.033271797
128	0x3e234ef2	0.15948084
129	0xbdd88a65	-0.10573272
130	0xbcd981af	-0.026551096
131	0xbd73c675	-0.059515435
132	0x3d855924	0.06511143
133	0x3d191f34	0.037383273
134	0x3dc13622	0.09434153
135	0x3e477f4a	0.1948215
136	0xbcd83083	-0.02639032
137	0xbe164439	-0.14674462
138	0x3da035be	0.078227505
139	0x3df30e58	0.1186797
140	0xbdf862cf	-0.12128221
141	0x3e2d7830	0.16940379
142	0xbde629de	-0.11238454
143	0x3e078f0d	0.13238163
144	0xbd16364e	-0.036672883
145	0x3d52159d	0.051290143
146	0xbc7dc2c8	-0.015488334
147	0xbc863c67	-0.016386224
148	0xbd5269d9	-0.051370475
149	0x3cbb0741	0.022830607
150	0x3e1a500c	0.15069598
151	0x3db55a80	0.08855152
152	0x3e2b668a	0.16738334
153	0xbe055c1e	-0.13023421
154	0xbd8e9bca	-0.06963308
155	0x3c3a5a3b	0.011374052
156	0x3d41f32a	0.04735104
157	0x3d28b150	0.041184723
158	0x3d7b8dcc	0.061414525
159	0xb9445636	-0.00018724133
160	0xbd6c71d9	-0.05772576
161	0xbe254435	-0.161393
162	0xbd7c0f7b	-0.0615382
163	0xbe00228a	-0.12513176
164	0x3d711839	0.05886099
165	0xbdc9fa0b	-0.09862145
166	0xbe050d93	-0.1299346
167	0xbdd27d2a	-0.102777794
168	0xbba979fd	-0.005172013
169	0x3e21061e	0.1572499
170	0x3e148c47	0.14506637
171	0x3da623f7	0.081123285
172	0x3da8b6b5	0.082379736
173	0x3e079f83	0.13244443
174	0xbe1f2381	-0.15540887
175	0x3dc2474f	0.09486257
176	0xbd996184	-0.07489303
177	0xbe241c19	-0.16026343
178	0xbd9fbadd	-0.07799313
179	0xbe2ab89f	-0.1667199
180	0xbd70adb5	-0.05875941
181	0xbd52a1dd	-0.051423896
182	0xbe2c5d96	-0.16832575
183	0x3d5068a9	0.05088106
184	0xbc5d44e9	-0.013505199
185	0x3e398c5f	0.18119954
186	0xbe2d7c8d	-0.16942044
187	0x3db2fec8	0.08740002
188	0x3d0994ea	0.03358928
189	0xbc99cf8f	-0.01877573
190	0xbd2357e2	-0.039878733
191	0xbd1b9bdf	-0.037990447
192	0x3db9fb94	0.09081188
193	0x3e071662	0.13192132
194	0xbe28809c	-0.1645531
195	0xbd14740c	-0.036243483
196	0x3d1867a3	0.03720821
197	0x3d00a8b9	0.031410906
198	0x3e46d4f8	0.19417179
199	0x3d8a9c52	0.06768097
200	0x3e4443c8	0.19166481
201	0xbe3a19a6	-0.18173847
202	0xbcb22ce3	-0.02174992
203	0xbc6ae135	-0.01433592
204	0xbde92afc	-0.11385152
205	0xbddc1055	-0.107453026
206	0x3d26af44	0.04069449
207	0x3e40c4f6	0.18825135
208	0xbdf85e91	-0.12127412
209	0xbe0a8c21	-0.13530017
210	0x3e225094	0.1585105
211	0xbe309db1	-0.17247654
212	0xbdc8e069	-0.09808428
213	0xbb43b952	-0.0029865098
214	0xbddd35ee	-0.10801302
215	0x3e32d92e	0.1746566
216	0x3d94e92a	0.07271035
217	0xbde476b9	-0.11155457
218	0xbe218c86	-0.15776262
219	0x3d5e38bb	0.05425332
220	0xbe452f4a	-0.1925632
221	0xbe3e00fd	-0.18555064
222	0x3e248de1	0.16069748
223	0x3dcafc12	0.0991136
224	0xbd8354c4	-0.06412652
225	0xbdd45ec0	-0.10369635
226	0xbb40a03a	-0.0029392377
227	0x3e193e45	0.1496516
228	0xbe4401f0	-0.19141364
229	0x3d519b1d	0.05117332
230	0x3d8ed1d5	0.06973616
231	0xbe1b2bc5	-0.15153416
232	0xbbd67298	-0.0065444224
233	0xbe386f73	-0.18011265
234	0x3da881a5	0.08227853
235	0xbe09a4ed	-0.1344182
236	0x3e2d0ebf	0.16900156
237	0x3cdd3eaf	0.027007429
238	0xbd750140	-0.059815645
239	0x3e27a270	0.16370559
240	0xbdbe58e4	-0.09294298
241	0xbe47b00e	-0.19500753
242	0x3e1095c5	0.14119633
243	0x3d9314cd	0.07181702
244	0x3db98514	0.09058586
245	0x3de53e58	0.11193532
246	0x3d4f2727	0.050574448
247	0x3c80e2c6	0.015733134
248	0xbddfa25e	-0.10919641
249	0x3da92123	0.082582735
250	0x3ca43f4d	0.020049715
251	0x3e2df837	0.16989218
252	0x3e287b24	0.16453224
253	0x3e3927fc	0.18081659
254	0x3dea7de3	0.11449792
255	0x3d23dfb8	0.040008277

GAT_layers.0.f.bias f4 [32]
0	0xbdb75dfe	-0.089534745
1	0xbd823442	-0.06357624
2	0xbbbe0156	-0.005798499
3	0x3da5fd1e	0.08104919
4	0xbd4286c2	-0.047491796
5	0x3d508d93	0.050916266
6	0xbc9df9e8	-0.019284204
7	0x3db660db	0.089051925
8	0xbc00460c	-0.0078292005
9	0x3ccc4871	0.024936887
10	0x3c03f721	0.008054526
11	0xbda7b5b7	-0.08188956
12	0xbd786d40	-0.060651064
13	0x3c04dda7	0.008109487
14	0xbdb5f8c4	-0.08885339
15	0xbd93b859	-0.07212896
16	0xbd302fc4	-0.043014303
17	0xbc935e74	-0.017989375
18	0x3d025447	0.031818654
19	0xbdafb990	-0.08580315
20	0xbcb94a58	-0.022618458
21	0xbd2f73b8	-0.042834967
22	0xbd81267b	-0.06306168
23	0xbd819e68	-0.06329042
24	0xbd717c14	-0.05895622
25	0x3c548854	0.012971956
26	0x3c8b3748	0.016994134
27	0x3cecbc9f	0.028898535
28	0x3d806319	0.062689014
29	0x3d5d2ed7	0.053999748
30	0xbccd45e3	-0.025057739
31	0x3c8e0980	0.017338514

GAT_layers.0.w.weight f4 [1, 124]
0	0x3e14ca15	0.14530213
1	0x3e5914d7	0.21199356
2	0xbe59e281	-0.2127781
3	0x3d771fed	0.06033318
4	0xbdddc9e4	-0.10829523
5	0x3e4cccf8	0.20000064
6	0xbdb644a2	-0.088998094
7	0xbe50bb34	-0.20383912
8	0x3dfacce3	0.1224611
9	0x3dbf255b	0.09333297
10	0xbe5254cd	-0.20540161
11	0x3e0e5630	0.13900065
12	0x3d29f634	0.041494563
13	0xbd783167	-0.06059399
14	0x3d41ccd1	0.04731447
15	0xbdbfa2e4	-0.09357241
16	0xbe5d642e	-0.21620247
17	0x3e258ec0	0.16167736
18	0xbd551252	-0.052019425
19	0xbe5801ac	-0.21094388
20	0xbd3bcc83	-0.045849334
21	0xbe0194a5	-0.1265436
22	0xbe29eb6b	-0.16593711
23	0xbe313b69	-0.1730782
24	0xbdbb2697	-0.0913822
25	0x3e25801d	0.16162153
26	0xbd8c4598	-0.068492115
27	0x3e2ac95d	0.16678376
28	0xbe0ba9df	-0.1363902
29	0x3d0b5c4b	0.034023564
30	0x3e388c3b	0.18022244
31	0xbe393878	-0.18087947
32	0xbe2b88c7	-0.16751395
33	0xbc64b360	-0.013958782
34	0xbdac771f	-0.08421158
35	0x3e252af4	0.16129667
36	0xbe145764	-0.14486462
37	0xbe0eed53	-0.1395772
38	0xbd909430	-0.070595145
39	0xbe5af012	-0.21380642
40	0x3e3f0624	0.18654686
41	0xbda6643b	-0.08124586
42	0x3de3c6df	0.11121916
43	0xbd6cd9f4	-0.057825044
44	0xbe3036d7	-0.1720842
45	0x3b62d2ea	0.0034610578
46	0xbd7fbdef	-0.062436994
47	0xbe217174	-0.15765935
48	0xbde5d6c4	-0.11222604
49	0xbc66ebea	-0.014094332
50	0x3c6baf41	0.0143850455
51	0x3ce9c950	0.028538376
52	0xbc2da100	-0.010597467
53	0xbd7d39a6	-0.061822556
54	0x3dfbd48f	0.12296402
55	0xbad3141d	-0.0016104017
56	0xbe1bfe6b	-0.15233772
57	0x3d961806	0.07328801
58	0xbd99b24e	-0.07504712
59	0xbd508565	-0.050908465
60	0x3e4b8e61	0.19878532
61	0xbd424a4d	-0.04743414
62	0xbe2a779c	-0.1664719
63	0xbe4e1a1b	-0.20127146
64	0x3cca5896	0.024700444
65	0xbe5776c6	-0.21041402
66	0xbd2ec455	-0.042667706
67	0xbe08347a	-0.13301268
68	0xbd1ba0ae	-0.037995033
69	0x3e41c842	0.18924049
70	0x3e48ddf9	0.19615926
71	0x3e492b42	0.19645408
72	0x3e13bceb	0.14427535
73	0x3e44dedc	0.19225639
74	0x3cce313a	0.025169957
75	0xbddf2eb8	-0.10897583
76	0x3d5b3a56	0.05352243
77	0xbe33c3f3	-0.17555217
78	0xbe2a577c	-0.16634935
79	0xbe2588b1	-0.16165425
80	0xbd07bb14	-0.033137396
81	0x3d15e260	0.03659284
82	0x3e2e5e08	0.17028058
83	0xbb74ac3c	-0.0037334105
84	0xbe08af58	-0.13348138
85	0x3e2a825f	0.16651295
86	0xbe46266f	-0.19350599
87	0xbccd94be	-0.02509534
88	0xbd61167e	-0.05495309
89	0xbdd53360	-0.1041019
90	0x3cd0e3e8	0.0254993
91	0xbcf49a37	-0.029858692
92	0xbc639a11	-0.013891713
93	0xbe32be7d	-0.17455478
94	0xbd895dde	-0.06707357
95	0x3e34a600	0.17641449
96	0x3e24aa3f	0.16080569
97	0xbdd1da18	-0.10246676
98	0x3e191a83	0.1495152
99	0xbe4695e3	-0.19393115
100	0x3e3e9653	0.18612032
101	0x3db8fcdc	0.09032604
102	0xbc4fbe37	-0.012679628
103	0xbb0fc7d5	-0.0021939178
104	0x3cf4b89d	0.029873187
105	0x3dc28f5b	0.09499999
106	0xbdef0523	-0.116709016
107	0xbd323247	-0.04350498
108	0x3de0209f	0.10943722
109	0x3e4b89c2	0.19876769
110	0x3dd6bdc3	0.10485413
111	0xbcf07c20	-0.029356062
112	0x3e12c541	0.14333059
113	0xbbed2b0b	-0.007237797
114	0x3e22c70a	0.1589624
115	0x3df8fa4f	0.121571176
116	0xbe5a98ea	-0.21347395
117	0xbddda70b	-0.108228765
118	0xbb75491a	-0.0037427605
119	0xbe34cc46	-0.17656049
120	0x3e33ee4d	0.17571373
121	0xbe508cf9	-0.20366277
122	0x3c8e8e18	0.01740174
123	0x3e52984f	0.20565914

GAT_layers.1.f.weight f4 [64, 64]
0	0xbdef55cf	-0.116862886
1	0xbc86e95d	-0.016468698
2	0xbdc0f1a6	-0.09421091
3	0x3da174cf	0.078836076
4	0x3dcd8601	0.10035325
5	0x3d89c25e	0.06726526
6	0xbe071364	-0.1319099
7	0x3e501dec	0.20323914
8	0xbe20697f	-0.15665244
9	0xbd2adf06	-0.041716598
10	0xbdbb7140	-0.0915246
11	0x3e1f6999	0.15567626
12	0x3d7327bd	0.05936407
13	0x3dff5bb2	0.12468661
14	0xbd53d288	-0.05171445
15	0x3e11305e	0.14178607
16	0x3dacd74b	0.084395014
17	0x3df73a53	0.12071671
18	0xbcbc0c30	-0.02295503
19	0x3e55c062	0.2087417
20	0xbdefbf15	-0.11706368
21	0x3e57c400	0.21070862
22	0xbdcd778e	-0.10032569
23	0x3ae69a5a	0.0017593608
24	0xbd8cd705	-0.06876949
25	0xbde714a7	-0.11283236
26	0x3d19bfaa	0.0375363
27	0x3e2ef83a	0.17086878
28	0x3daf2651	0.0855223
29	0x3e14f7e7	0.14547692
30	0xbe53ce54	-0.20684177
31	0xbd5342da	-0.051577426
32	0x3e3bd204	0.18341833
33	0x3da93f40	0.08264017
34	0x3e46e31d	0.19422574
35	0xbd002395	-0.031283934
36	0xbe427523	-0.18989997
37	0xba9bd576	-0.0011889178
38	0xbcced6be	-0.025248881
39	0xbdbaea3b	-0.09126707
40	0x3dc2d832	0.09513892
41	0xbdbfe104	-0.0936909
42	0xbcfb6761	-0.030688943
43	0xbde76813	-0.112991475
44	0x3e27527f	0.16340064
45	0xbdce55fd	-0.10074995
46	0xbe1158a2	-0.14193967
47	0x3d59d776	0.053183995
48	0x3e18162d	0.1485221
49	0x3ad47e85	0.0016212022
50	0x3e3b4f9c	0.18292087
51	0x3d88fd2c	0.06688914
52	0xbd09295a	-0.0334867
53	0xbe30e774	-0.17275792
54	0xbe0155ec	-0.12630433
55	0x3dd1d390	0.102454305
56	0x3dff4304	0.12463954
57	0xbdae8670	-0.08521736
58	0xbdeb09a8	-0.11476451
59	0xbe019997	-0.12656246
60	0x3dbb7603	0.09153368
61	0xbde9c941	-0.11415339
62	0xbe4c06fc	-0.1992454
63	0x3d81d32c	0.06339106
64	0x3dc6667f	0.09687518
65	0xbc641d64	-0.013923023
66	0xbd449c27	-0.04800048
67	0xbd406d3b	-0.04697917
68	0xbde26003	-0.11053469
69	0x3deb9ef7	0.115049295
70	0x3d7ca336	0.061679088
71	0x3e33e344	0.17567164
72	0xbdbbf257	-0.09177082
73	0xbcb73209	-0.022362726
74	0x3d6be778	0.057593793
75	0x3e159b41	0.14610006
76	0xbe11d830	-0.14242625
77	0x3d65d3ae	0.056110077
78	0xbd369ebb	-0.04458497
79	0xbe008719	-0.12551536
80	0x3e0833d5	0.13301022
81	0xbd432b17	-0.047648516
82	0x3d90c0c8	0.0706802
83	0xbe1521f7	-0.14563738
84	0xbe4f675e	-0.20254275
85	0xbc90938b	-0.017648479
86	0x3e325a46	0.17417249
87	0x3d1ee50d	0.03879266
88	0x3da69bc4	0.08135179
89	0xbbba9340	-0.005693823
90	0xbd052b40	-0.03251195
91	0x3d95b304	0.07309535
92	0x3e47fd56	0.19530234
93	0xbbeb4238	-0.0071795247
94	0xbd66ccbf	-0.056347605
95	0x3c3c0203	0.011475089
96	0x3de5f6f2	0.11228742
97	0x3de68bc1	0.11257125
98	0xbdf38ac4	-0.11891702
99	0x3e10b9b9	0.14133348
100	0x3e3601a1	0.17774059
101	0x3e511a62	0.2042022
102	0xbe382815	-0.1798404
103	0xbdb0341c	-0.08603689
104	0x3d7b3c22	0.061336644
105	0x3e44e848	0.19229233
106	0x3ddad71d	0.10685561
107	0xbe579215	-0.2105182
108	0xbe03051a	-0.12794915
109	0x3df41c68	0.119194806
110	0xbd5172a3	-0.051134717
111	0x3e2f6a7f	0.17130469
112	0xbe551d84	-0.2081204
113	0xbe39b431	-0.18135144
114	0x3e3a03fa	0.1816558
115	0xbe39889d	-0.1811852
116	0x3e22b053	0.15887575
117	0xbe3fa9ce	-0.18717119
118	0x3dbedca0	0.09319425
119	0x3d88638f	0.06659614
120	0x3d764cdf	0.060131904
121	0xbdd87d30	-0.105707526
122	0x3e26a079	0.16272153
123	0x3d94ba3d	0.07262085
124	0xbe01e84c	-0.1268627
125	0x3d03b119	0.032151315
126	0x3e059fea	0.13049284
127	0x3e249e80	0.16076088
128	0xbdd454d4	-0.10367742
129	0xbddcb799	-0.10777206
130	0x3d756fc4	0.05992104
131	0x3e2c47b0	0.16824222
132	0xbe4a62f1	-0.19764306
133	0xbdbd80e3	-0.09253099
134	0x3de67859	0.11253423
135	0xbcd9c06e	-0.026581015
136	0xbddc10af	-0.1074537
137	0x3e4c2f30	0.19939876
138	0xbe3d6217	-0.1849445
139	0x3c8a76da	0.016902376
140	0xbe1028a5	-0.14078005
141	0x3ddf1206	0.108921096
142	0xbce5c49b	-0.02804785
143	0x3d487e06	0.04894831
144	0xbe224a0c	-0.15848559
145	0x3de53d13	0.111932896
146	0xbe4db939	-0.20090188
147	0x3e3ed470	0.18635726
148	0xbdcfeea1	-0.10152937
149	0x3d9e90cd	0.07742462
150	0xbdd2067c	-0.10255143
151	0xbc9e353f	-0.0193125
152	0x3d890689	0.066906996
153	0xbe2c66df	-0.16836117
154	0xba9de69a	-0.0012046874
155	0xbe580cf3	-0.2109869
156	0x3e5d16e5	0.21590765
157	0x3e1dc0d0	0.15405583
158	0xbd81e3e9	-0.063422985
159	0x3dd2f319	0.103002734
160	0xbe0cb09f	-0.1373925
161	0x3e388bc3	0.18022065
162	0xbd29d867	-0.041466143
163	0x3dba5989	0.09099109
164	0x3dd5dffe	0.10443114
165	0x3dc7a0ee	0.09747492
166	0x3e4dc8be	0.20096108
167	0x3e416a17	0.18888126
168	0xbe105a9c	-0.14097065
169	0xbd49e172	-0.049287267
170	0x3df82ddb	0.12118121
171	0xbdad3dba	-0.08459039
172	0xbe0b33bc	-0.13593954
173	0x3e45c354	0.19312793
174	0xbe591c4e	-0.21202204
175	0x3c6bee05	0.01440001
176	0xbe2819d3	-0.16416101
177	0x3d7e02e6	0.062014483
178	0xbd9dbda1	-0.077021845
179	0xbdb8c571	-0.09022034
180	0x3db570bb	0.08859392
181	0x3deee3c3	0.11664536
182	0x3e558ea0	0.20855188
183	0x3e5d9814	0.21640044
184	0xbc92b593	-0.017908847
185	0x3e344e10	0.17607903
186	0x3c78287c	0.015146371
187	0x3c916b4b	0.017751357
188	0x3da2b0cc	0.079438776
189	0x3d8e487d	0.0694742
190	0xbe01fe45	-0.12694652
191	0x3e335d48	0.17516053
192	0xbe185241	-0.14875127
193	0xbd859f19	-0.06524486
194	0xbe585825	-0.21127374
195	0xbe5670ac	-0.20941418
196	0x3e37af09	0.17937864
197	0x3e3d2a89	0.18473257
198	0xbdab8137	-0.08374255
199	0x3e0ca0da	0.13733235
200	0x3cf75209	0.030190485
201	0xbde3da7a	-0.111256555
202	0x3de290a1	0.11062742
203	0x3e19719b	0.14984743
204	0x3d404456	0.04694017
205	0xbcad7a98	-0.021176621
206	0x3dc00421	0.093757875
207	0xbe3cdd32	-0.18443754
208	0xbd9b9ed2	-0.07598652
209	0xbe2c07bb	-0.16799824
210	0x3e5023e2	0.20326188
211	0x3de505f2	0.111827746
212	0x3dd436d7	0.10362022
213	0x3d576267	0.05258408
214	0x3d376f17	0.044783678
215	0x3e0ac80b	0.13552873
216	0xbdc169be	-0.09443997
217	0xbe0b4524	-0.13600594
218	0xbdc6f514	-0.09714714
219	0xbdc97db1	-0.09838427
220	0xbd8cba90	-0.068715215
221	0x3e153d73	0.14574222
222	0x3dafcf12	0.085844174
223	0xbdcd2069	-0.10015947
224	0x3e02a7cd	0.12759323
225	0x3d4fd00c	0.05073552
226	0x3c852b6a	0.016256053
227	0xbc4c725a	-0.012478435
228	0x3c80fcbc	0.015745513
229	0xbd42bcc0	-0.047543287
230	0x3d267737	0.040641036
231	0x3e1928e6	0.14957008
232	0xbb6af099	-0.0035848974
233	0xbd9ccf37	-0.076567106
234	0xbbe90860	-0.007111594
235	0xbe01d848	-0.12680161
236	0xbdc98140	-0.098391056
237	0xbe4d4d06	-0.20048913
238	0xbd935ed0	-0.071958184
239	0xbe411769	-0.18856587
240	0xbd49867c	-0.04920052
241	0xbd2e8c12	-0.04261405
242	0xbdff521e	-0.124668345
243	0xbe405b0e	-0.18784735
244	0x3cb98466	0.02264614
245	0xbe1fd667	-0.15609132
246	0xbdf45578	-0.11930364
247	0x3dfee243	0.124455
248	0x3da30ee2	0.07961823
249	0x3d849872	0.06474389
250	0x3c7863ce	0.015160514
251	0xbdae146c	-0.08499989
252	0x3ab6c67c	0.0013944651
253	0x3e1f33f1	0.15547158
254	0xbcf000e0	-0.029297292
255	0x3db6a931	0.089189894

GAT_layers.1.f.bias f4 [64]
0	0xbd649944	-0.055810228
1	0x3ddcdc14	0.10784164
2	0x3d8a8ea7	0.0676549
3	0x3da3a80d	0.079910375
4	0x3def26c0	0.11677313
5	0xbdbbc308	-0.09168059
6	0x3d875c40	0.06609392
7	0xbc3bc780	-0.011461139
8	0x3d6299b2	0.055322357
9	0xbd9399c6	-0.07207064
10	0xbdadcaf2	-0.08485974
11	0xbd9795ea	-0.07401641
12	0xbc109270	-0.008823976
13	0x3d8ba5b7	0.06818717
14	0xbb007a80	-0.0019604266
15	0xbd57a878	-0.0526509
16	0x3e0ab07a	0.13543883
17	0x3ce70bdc	0.028203897
18	0xbcce4168	-0.025177673
19	0xbd92b592	-0.07163538
20	0xbdfe01c2	-0.12402679
21	0x3d26ef1c	0.040755376
22	0xbc96b080	-0.018394709
23	0x3dd6465e	0.1046264
24	0x3dadcf22	0.08486773
25	0x3d43b912	0.04778392
26	0x3caf4a3c	0.021397702
27	0xbd77427c	-0.06036614
28	0xbd9a6fa0	-0.07540822
29	0xbd03c77c	-0.032172665
30	0x3d5d873d	0.05408405
31	0x3bf14818	0.0073633306
32	0x3d70516f	0.05867141
33	0xbdc0e828	-0.0941928
34	0x3cc8ae72	0.024497245
35	0xbc7689d0	-0.0150475055
36	0x3e0c5c6f	0.13707136
37	0xbc3ad790	-0.011403933
38	0x3d93ad24	0.07210758
39	0x3d5d306b	0.054001253
40	0xbdb46d4a	-0.08809908
41	0xbd9cc71e	-0.07655166
42	0x3d427c4f	0.04748183
43	0xbdbe6bca	-0.09297903
44	0x3dfeec36	0.124473974
45	0x3d0d73e2	0.034534343
46	0x3d0f1d45	0.034940023
47	0x3dd21e30	0.10259664
48	0x3d9ef18c	0.07760915
49	0xbd25c0c0	-0.040467024
50	0xbdb5d3c8	-0.08878285
51	0x3d1e7067	0.038681414
52	0xbda491c6	-0.080356166
53	0xbd1eca68	-0.03876725
54	0xbd26cde0	-0.04072368
55	0xbd971740	-0.073774815
56	0xbc70f0f0	-0.0147058815
57	0xbd687570	-0.056752622
58	0xbcf00c18	-0.029302642
59	0xbdeaad16	-0.11458795
60	0xbdd9e312	-0.10639013
61	0x3d930e2a	0.07180436
62	0xbccfe5f8	-0.025378212
63	0x3d8a9dfd	0.06768415

GAT_layers.1.w.weight f4 [1, 64]
0	0x3e1ef0da	0.15521565
1	0xbe84f071	-0.25964692
2	0x3ca5cc22	0.02023894
3	0x3e85cdfe	0.26133722
4	0x3d24f048	0.040268213
5	0xbe95f2ff	-0.29286954
6	0x3e8433cf	0.25820777
7	0xbe6c379c	-0.23068088
8	0xbdebef12	-0.115202084
9	0xbdea509a	-0.11441155
10	0x3dd4559d	0.10367892
11	0xbb5111db	-0.0031901512
12	0x3dfc862d	0.123302795
13	0xbe62a635	-0.22133715
14	0x3d498b35	0.049205024
15	0x3dae0d37	0.08498614
16	0x3e84a34d	0.2590584
17	0xbcaf4061	-0.021393003
18	0xbdd2e6eb	-0.1029795
19	0xbe3f168c	-0.18660945
20	0x3e8a99c3	0.27070436
21	0x3e6071e1	0.21918441
22	0x3e1e5006	0.15460214
23	0xbdd079b3	-0.10179462
24	0xbdd26172	-0.102724925
25	0xbe69bbb1	-0.22825505
26	0xbe7ba326	-0.24573955
27	0x3dfc39dd	0.12315724
28	0xbe945993	-0.2897459
29	0xbdf1dd6c	-0.11809811
30	0x3e478670	0.19484878
31	0x3d1bacc3	0.038006555
32	0x3e8a3cba	0.26999456
33	0xbe2c30d2	-0.16815498
34	0xbd9d5ef6	-0.07684128
35	0x3e8bd486	0.2731058
36	0x3e5c6648	0.21523392
37	0x3dd4d957	0.10393017
38	0xbe864730	-0.26226187
39	0x3ded5516	0.115884945
40	0x3dd04cb2	0.101708785
41	0xbe733a6d	-0.23752756
42	0x3e9998ca	0.2999938
43	0x3e186dcf	0.14885639
44	0x3e58756f	0.21138547
45	0xbe3afbe7	-0.18260156
46	0xbdf14d47	-0.117823176
47	0x3e6d834a	0.23194614
48	0x3e6cb5db	0.23116247
49	0x3e74f03e	0.2391977
50	0x3e57f78c	0.21090525
51	0x3e839882	0.25702292
52	0xbe35af72	-0.17742708
53	0x3e2aff37	0.16698919
54	0xbe28c7ca	-0.16482463
55	0xbcde314a	-0.027123112
56	0xbe53d1f9	-0.20685567
57	0xbe371c6e	-0.17881939
58	0xbdc80d3a	-0.09768148
59	0xbe17d61b	-0.14827769
60	0xbe2ad2c8	-0.16681969
61	0xbe1f2e19	-0.15544929
62	0x3e39937c	0.18122667
63	0x3e7fb6b0	0.24972034

GAT_layers.2.f.weight f4 [64, 128]
0	0xbd9e6a0e	-0.07735072
1	0x3d7b27fd	0.061317433
2	0x3db4ad78	0.08822149
3	0xbd86695b	-0.06563064
4	0xbd328e18	-0.043592542
5	0xbe0cd06b	-0.1375138
6	0xbdd8aca5	-0.10579804
7	0xbdfc7c08	-0.123283446
8	0xbe18e6ed	-0.14931841
9	0xbcce3640	-0.025172353
10	0x3dbf34dc	0.09336254
11	0x3e1b4daa	0.15166345
12	0xbe2692b4	-0.162669
13	0x3dce9de5	0.1008871
14	0xbdcca0b4	-0.09991589
15	0x3e2deb11	0.16984202
16	0x3dbd1b0f	0.09233677
17	0x3dc08245	0.09399847
18	0xbe0759d7	-0.13217865
19	0x3dc821e0	0.09772086
20	0x3d96c9d8	0.073627174
21	0xbe08755e	-0.13326022
22	0x3df823b3	0.12116184
23	0x3c4fdeed	0.012687427
24	0xbe07ddac	-0.13268155
25	0x3d800d32	0.06252517
26	0x3e371475	0.17878897
27	0xbd240696	-0.040045343
28	0xbdbb5f10	-0.09148991
29	0x3d84ccc4	0.064843684
30	0x3d6a37b9	0.057182048
31	0x3e0b8be5	0.13627584
32	0x3e037d47	0.12840758
33	0xbe0accaf	-0.13554643
34	0x3dd767f4	0.10517874
35	0x3dca5f32	0.09881438
36	0x3e3f20e8	0.18664896
37	0x3e0197c0	0.12655544
38	0x3d9d5701	0.0768261
39	0xbd4286c3	-0.0474918
40	0xbda72037	-0.08160441
41	0x3d8ae0b3	0.06781139
42	0xbaa85ab3	-0.0012844413
43	0x3db51c7e	0.08843325
44	0x3deff08f	0.11715805
45	0xbd3d3267	-0.046190646
46	0xbe1ccd0e	-0.15312597
47	0xbd54b9ab	-0.05193488
48	0x3dcf020b	0.101078115
49	0x3d35eb7d	0.044414032
50	0x3e0b742a	0.13618532
51	0xbc6abc07	-0.014327056
52	0xbddcf271	-0.107884295
53	0xbbdc0d9b	-0.006715489
54	0x3dc7a89e	0.09748958
55	0xbe308c3b	-0.17240994
56	0x3dfddadc	0.1239526
57	0x3d2f7021	0.042831544
58	0xbd9a0e98	-0.07522315
59	0xbe27d27d	-0.16388889
60	0xbc3b7ac9	-0.0114428485
61	0x39f87a12	0.00047393196
62	0xbddc861d	-0.107677676
63	0xbd025109	-0.031815562
64	0x3e221449	0.1582805
65	0x3dcabfcd	0.09899864
66	0x3d3d9139	0.046281073
67	0x3d583101	0.05278111
68	0x3df85604	0.12125781
69	0x3e26b9e5	0.1628185
70	0xbdbd4366	-0.09241371
71	0xbe226e64	-0.15862423
72	0xbe103218	-0.14081609
73	0xbc539ba0	-0.012915522
74	0x3ccde204	0.025132187
75	0xbcf026bc	-0.029315345
76	0xbd97154e	-0.073771104
77	0xbdaad88e	-0.08342086
78	0xbe16a758	-0.14712274
79	0xbc3a9187	-0.0113872355
80	0xbe0c63eb	-0.1370999
81	0xbd665b72	-0.056239553
82	0xbe14849b	-0.1450371
83	0x3df0cfd8	0.11758393
84	0x3dcffcf4	0.10155669
85	0x3e20fb82	0.15720943
86	0xbd750f05	-0.059828777
87	0x3d552c9a	0.05204449
88	0xbcc0d950	-0.023541123
89	0x3dce5803	0.10075381
90	0x3d9378bb	0.07200762
91	0x3e217015	0.15765412
92	0xbe19fdba	-0.15038195
93	0x3ce58624	0.028018065
94	0xbe25406a	-0.16137853
95	0x3e093ac8	0.1340133
96	0x39230ded	0.00015550079
97	0x3d476fea	0.048690714
98	0x3e2617cf	0.1622002
99	0xbe06b53c	-0.13155073
100	0xbbd501c7	-0.006500456
101	0x3d1a9c42	0.037746675
102	0xbe2de7c5	-0.16982944
103	0xbd8fa67b	-0.070141755
104	0x3d9baab1	0.07600916
105	0xbda7bad6	-0.08189933
106	0xbe1a1ad4	-0.15049297
107	0xbe147641	-0.14498235
108	0xbd9da49e	-0.07697414
109	0x3d25dbed	0.04049294
110	0xbe34785b	-0.17624037
111	0xbe15a711	-0.14614512
112	0xbe19027a	-0.14942351
113	0xbe25a82e	-0.16177437
114	0x3d8ac6a3	0.06776168
115	0xbe0400fb	-0.12890999
116	0xbcc8527a	-0.02445339
117	0xbd94be0b	-0.0726281
118	0xbd50866e	-0.050909452
119	0x3df3b7cf	0.11900293
120	0xbd49a5f4	-0.04923053
121	0xbde8d837	-0.11369365
122	0x3d4b7f35	0.04968186
123	0x3dd43afe	0.10362814
124	0xbe045d13	-0.1292613
125	0xbdcd3ad7	-0.100209884
126	0x3d9c1ee1	0.07623077
127	0xbda4b256	-0.080418274
128	0x3de1426a	0.109989956
129	0x3e32d06b	0.17462318
130	0xbc83109c	-0.01599913
131	0xbb119c74	-0.0022218497
132	0x3e0e08b0	0.13870502
133	0x3dc31085	0.09524635
134	0xbca786ca	-0.020450015
135	0x3d183042	0.037155397
136	0x3cf16049	0.029464858
137	0xbdefefb9	-0.11715645
138	0xbd84fe08	-0.06493765
139	0x3d9e738e	0.07736884
140	0xbe0b0aea	-0.13578382
141	0xbd69d7cf	-0.057090577
142	0x3d3d061a	0.046148397
143	0x3d6df901	0.058098797
144	0xbc139bec	-0.009009343
145	0xbe148082	-0.14502147
146	0x3da8af96	0.08236615
147	0xbe3047d9	-0.17214908
148	0x3bc43acf	0.005988456
149	0x3c8f6f86	0.017509233
150	0x3d724b51	0.05915386
151	0x3db4ff67	0.08837777
152	0xbdf70a8a	-0.12062557
153	0x3db513c3	0.0884166
154	0xbd098f75	-0.033584077
155	0xbd8d6e71	-0.06905831
156	0xbda180eb	-0.07885917
157	0xbddbac69	-0.10726244
158	0xbc60c405	-0.01371861
159	0x39e41128	0.0004350033
160	0x3e324513	0.17409162
161	0x3d6893c8	0.05678156
162	0xbc35d330	-0.011097714
163	0x3d948146	0.072512195
164	0xbd19dbd0	-0.037563145
165	0x3df5386e	0.11973654
166	0xbdb80e68	-0.08987123
167	0xbdbe5b9b	-0.09294816
168	0xbb0e55eb	-0.0021718692
169	0x3e1768ed	0.1478612
170	0x3e0e62bb	0.1390485
171	0x3d3cf3a6	0.0461308
172	0x3e02f650	0.12789273
173	0x3e1c7637	0.1527947
174	0x3e1f970a	0.1558496
175	0x3cf3805e	0.029724296
176	0xbd9b9fb0	-0.07598817
177	0x3d80ab25	0.06282643
178	0x3d1e6fb6	0.038680755
179	0x3e2c5031	0.16827466
180	0x3df90917	0.12159937
181	0xbd58f238	-0.052965373
182	0x3d625147	0.055253293
183	0x3de21050	0.110382676
184	0x3c987035	0.018608192
185	0x3e0e7a15	0.13913758
186	0xbe29a95f	-0.16568516
187	0xbdfbfec4	-0.12304452
188	0xbca1af78	-0.01973699
189	0x3db2d565	0.08732108
190	0x3d9a76bd	0.07542179
191	0xbccc387f	-0.024929283
192	0xbdf678c3	-0.12034752
193	0xbdaadac9	-0.08342511
194	0xbdf4cfe4	-0.119537145
195	0x3debda25	0.11516217
196	0xbc18e77c	-0.009332534
197	0x3cb70a8d	0.022343898
198	0xbd1d134e	-0.03834849
199	0xbc7a5571	-0.01527916
200	0x3e1dee41	0.15422918
201	0x3e13efbc	0.1444692
202	0xbb561833	-0.0032668232
203	0x3db1d16c	0.08682522
204	0xbcfb9a88	-0.030713335
205	0xbe08237e	-0.13294789
206	0xbddb126d	-0.10696874
207	0x3dfa5de7	0.12224942
208	0xbdf234ef	-0.118265025
209	0xbe29929e	-0.16559836
210	0x3d99fda2	0.0751908
211	0x3d5ce83c	0.053932413
212	0x3e3076fe	0.17232892
213	0xbda8822a	-0.08227952
214	0x3dd68fc4	0.1047664
215	0xbe2aa91e	-0.16666076
216	0xbdca3859	-0.09874029
217	0x3d950de9	0.07278044
218	0x3e1022e9	0.14075817
219	0x3ccd7119	0.025078343
220	0xbd83c662	-0.06434323
221	0x3df40849	0.11915643
222	0x3d4848ee	0.048897676
223	0xbe263df6	-0.16234574
224	0xbe1c2bca	-0.15251079
225	0x3e1354fb	0.14387886
226	0x3e2b6dac	0.16741055
227	0x3de5ba01	0.11217118
228	0xbdbe4c8a	-0.092919424
229	0x3d3d7fb9	0.046264384
230	0x3d754a6b	0.059885424
231	0xbdfcf156	-0.12350719
232	0xbdf4bd6b	-0.11950191
233	0x3decb17e	0.115572914
234	0xbccd62d3	-0.025071537
235	0xbe142c27	-0.14469968
236	0x3dc1e340	0.094671726
237	0xbd2108a8	-0.039314896
238	0x3def3a98	0.11681098
239	0xbe2ea540	-0.17055225
240	0xbe1fc5e8	-0.15602839
241	0x3e0ca89c	0.13736194
242	0x3dc3afe8	0.09555036
243	0xbe1acc1f	-0.15116929
244	0x3de4bf31	0.11169279
245	0x3d35185a	0.044212677
246	0xbe32e68e	-0.17470762
247	0xbdee6011	-0.11639417
248	0xbe16faf3	-0.14744167
249	0x3dad7870	0.08470237
250	0xbd8d83c4	-0.06909898
251	0xbd5846bf	-0.052801844
252	0x3d4dc5a4	0.050237313
253	0xbdb625ae	-0.088939056
254	0xbe0f65af	-0.14003633
255	0x3d9aa908	0.075517714

GAT_layers.2.f.bias f4 [64]
0	0x3c6e9cbc	0.014563736
1	0x3cf46e62	0.02983779
2	0xbd20ef02	-0.039290436
3	0xbb599ef1	-0.0033206309
4	0xbdab12e4	-0.083532125
5	0xbc8509d7	-0.016240044
6	0x3d855c78	0.06511778
7	0x3d055099	0.032547567
8	0xbd33da6e	-0.043909483
9	0xbda27d91	-0.07934106
10	0x3cbf5414	0.023355521
11	0xbc674026	-0.014114415
12	0xbd880180	-0.06640911
13	0x3db5557c	0.088541955
14	0xbd9668c7	-0.073442034
15	0x3c482d1b	0.012217785
16	0x3b6fa3c5	0.003656612
17	0x3ce48eca	0.027900118
18	0x3dd1f5b5	0.10251943
19	0x3d286641	0.041113142
20	0xbd92ce89	-0.071683
21	0x3dc5df34	0.09661713
22	0xbd62ef73	-0.055404138
23	0x3d491e39	0.04910109
24	0xbd96c897	-0.07362478
25	0x3d491b57	0.04909834
26	0x3d95d25c	0.073155135
27	0x3cf7b83c	0.030239217
28	0x3d11a9b4	0.035562232
29	0x3dbc8ddd	0.09206746
30	0x3d7012fb	0.05861185
31	0xbd6c4dca	-0.057691373
32	0xbda734b1	-0.08164347
33	0x3d4d4121	0.05011094
34	0x3d1a9c04	0.037746444
35	0xbb6e1897	-0.0036330575
36	0x3c7b4a9b	0.015337612
37	0xbbeb64f9	-0.0071836677
38	0x3d06c87f	0.03290605
39	0x3d9f38e2	0.077745214
40	0xbd3b7b70	-0.045772016
41	0x3d796a6a	0.0608925
42	0x3cfddb20	0.030988276
43	0x3d4ed23f	0.050493475
44	0xbc6e3834	-0.014539767
45	0xbda6eabc	-0.08150241
46	0xbc97611e	-0.018478926
47	0xbd9f5c10	-0.077812314
48	0xbcc2a6f8	-0.023761258
49	0xbb9d65a7	-0.0048033777
50	0xbc9e2e31	-0.019309135
51	0x3cbd865e	0.02313536
52	0xbd3f164f	-0.046652135
53	0x3d06bea8	0.032896668
54	0xbd7df06f	-0.061996873
55	0xbdb4cf0a	-0.08828552
56	0x3d3938f4	0.04522033
57	0x3d8be3b5	0.06830541
58	0xbd2590eb	-0.040421408
59	0x3d19f6e4	0.03758897
60	0x3d8ed2b0	0.06973779
61	0xbd0c4711	-0.03424746
62	0xbcb5d557	-0.022196455
63	0x3c052871	0.008127318

GAT_layers.2.w.weight f4 [1, 128]
0	0x3e038acf	0.1284592
1	0xbd426e31	-0.047468368
2	0x3e17256b	0.14760368
3	0xbe48c1af	-0.19605134
4	0xbd8e7800	-0.06956482
5	0xbe0a4e19	-0.13506354
6	0xbcb33418	-0.021875426
7	0x3bc0e55f	0.005886718
8	0xbe415112	-0.18878582
9	0x3e3e1615	0.18563111
10	0xbd5d0222	-0.053957112
11	0x3e3eae99	0.18621291
12	0xbd11cf57	-0.035598125
13	0x3c9ab9ea	0.018887479
14	0xbe004ad3	-0.12528543
15	0x3e5a2c7f	0.21306036
16	0x3e018fdc	0.12652534
17	0xbd054a20	-0.032541394
18	0xbd235da6	-0.039884232
19	0xbd948080	-0.07251072
20	0x3e2efe9f	0.17089318
21	0x3e1685c4	0.14699465
22	0xbe5bb113	-0.21454267
23	0x3cf43c2e	0.029813852
24	0x3d77383d	0.060356367
25	0x3c150523	0.009095463
26	0x3d0d3cb6	0.034481727
27	0xbe4e8975	-0.20169623
28	0xbdade013	-0.084900044
29	0x3cc42272	0.023942206
30	0x3da5a04e	0.08087216
31	0x3de351b3	0.11099567
32	0x3e168acd	0.14701386
33	0x3e4c83bd	0.19972129
34	0xbbb1a1a1	-0.005420879
35	0x3e0980fa	0.13428107
36	0x3d5b4659	0.053533886
37	0xbe15f7aa	-0.14645258
38	0x3e3ad9c0	0.18247128
39	0xbda40491	-0.080086835
40	0xbdc7566f	-0.09733283
41	0x3e2e6b5d	0.17033143
42	0xbd3fe812	-0.04685218
43	0x3e53c1e0	0.20679426
44	0x3df2720d	0.1183816
45	0x3e515f83	0.20446591
46	0x3db43f9d	0.08801196
47	0xbdc5217f	-0.096255295
48	0x3dcc5847	0.09977775
49	0xbe4c2144	-0.19934565
50	0xbe453b39	-0.19260873
51	0x3d90ccfb	0.07070347
52	0x3e57c26c	0.2107026
53	0x3e20a105	0.15686424
54	0x3d1c5bcc	0.03817348
55	0xbe25265e	-0.16127917
56	0x3e4b5121	0.19855167
57	0xbc88a97b	-0.016682377
58	0x3c26a34b	0.010170768
59	0xbe249f9f	-0.16076516
60	0x3d15f441	0.03660989
61	0x3d3b155f	0.045674678
62	0x3cf2b6a6	0.02962811
63	0x3df13c89	0.11779124
64	0x3cef812d	0.0292364
65	0xbd5fde63	-0.054655444
66	0xbe0c7da7	-0.13719808
67	0x3b3392c5	0.0027400714
68	0xbe0d9ebc	-0.13830084
69	0xbe2d42b0	-0.1691997
70	0x3dca2125	0.09869603
71	0xbe22faf4	-0.15916044
72	0x3e163cfb	0.146717
73	0xbe00b1b7	-0.12567793
74	0x3e43a898	0.19107282
75	0x3cdfaec3	0.027305013
76	0x3c5100ca	0.012756536
77	0xbd917dad	-0.07104049
78	0xbe278eac	-0.16363019
79	0x3d5170f0	0.051133096
80	0x3e3859b7	0.18002973
81	0x3dda8eb1	0.106717475
82	0x3d225df3	0.03964038
83	0xbc90dc57	-0.017683191
84	0xbe1a1279	-0.1504611
85	0xbd5ffe5a	-0.054685928
86	0xbda3ac2a	-0.07991822
87	0xbe344ff0	-0.17608619
88	0x3d003777	0.031302895
89	0xbdbfcbab	-0.093650185
90	0xbd53274f	-0.05155116
91	0xbd98a9ac	-0.07454237
92	0xbd05649e	-0.03256666
93	0x3d7c93b0	0.061664283
94	0x3e00fad6	0.12595686
95	0xbde08f90	-0.109648824
96	0x3d97077b	0.07374474
97	0xbd9edc83	-0.07756903
98	0x3e21e479	0.15809812
99	0x3e0bc41f	0.13649033
100	0x3de677ad	0.11253295
101	0x3ba3b37c	0.0049957614
102	0x3da85bc1	0.08220626
103	0x3d450a7f	0.048105713
104	0xbdeb9d4d	-0.11504612
105	0xbdbf9d40	-0.09356165
106	0xbddba6fd	-0.1072521
107	0xbced66a9	-0.028979616
108	0x3df1c0e8	0.11804372
109	0x3e0a4a89	0.13504995
110	0x3e50dd30	0.20396876
111	0xbdbace68	-0.091214
112	0x3d86e59a	0.06586762
113	0xbe28f643	-0.16500191
114	0xbc0f9113	-0.008762616
115	0x3e393e68	0.18090212
116	0xbdeee9a2	-0.11665656
117	0xbb875c7e	-0.004130899
118	0x3e40f070	0.1884172
119	0xbdda5bc8	-0.10662037
120	0xbdb0720f	-0.08615505
121	0x3dc7c618	0.0975458
122	0x3e56ec26	0.20988521
123	0x3b8ff220	0.004392877
124	0x3d94fcab	0.07274755
125	0xbe5aed20	-0.21379519
126	0x3dea56e1	0.11442352
127	0xbd214793	-0.0393749

MLP_layers.0.weight f4 [32, 64]
0	0x3d4ac404	0.04950334
1	0x3c9c2710	0.019061595
2	0x3c9610c8	0.018318549
3	0xbda03388	-0.07822329
4	0x3dd654d8	0.104654014
5	0xbd833f6c	-0.06408581
6	0x3bf66e40	0.007520467
7	0xbb18a6c0	-0.002329275
8	0x3dfc4192	0.12317194
9	0x3d5327d0	0.05155164
10	0x3d4bfc7c	0.049801335
11	0xbc67e700	-0.014154196
12	0x3d775294	0.060381487
13	0xbdc8032e	-0.097662315
14	0x3c20b1b0	0.009807989
15	0x3d3c5150	0.045975983
16	0x3d9eb470	0.077492595
17	0xbd6fe5c0	-0.058568716
18	0xbcc47b98	-0.023984715
19	0xbc8fec20	-0.017568648
20	0xbde1b468	-0.11020738
21	0x3ce06628	0.027392462
22	0x3df5adb0	0.11996019
23	0xbde97f86	-0.11401276
24	0x3ce88160	0.028382003
25	0x3cde9da0	0.02717477
26	0xbdf1e666	-0.11811523
27	0x3d89f458	0.06736058
28	0xbdc6b2c8	-0.097020686
29	0xbd984dbe	-0.07436703
30	0x3c31eea0	0.010860115
31	0xbdfaf646	-0.12254004
32	0x3df488d4	0.119401604
33	0xbda93b24	-0.08263233
34	0xbdc71b24	-0.097219735
35	0x3c91b870	0.017788142
36	0x3d94273a	0.072340444
37	0x3d76202c	0.060089275
38	0x3c801208	0.015633598
39	0xbde70a12	-0.11281218
40	0x3db9930c	0.0906125
41	0xbd438c78	-0.047741383
42	0xbdb89036	-0.09011881
43	0xbdaf744a	-0.08567102
44	0x3c7f83b0	0.015595362
45	0x3d8c14fe	0.068399414
46	0xbdb7b50a	-0.08970077
47	0x3ace5500	0.0015741885
48	0x3dcda6c4	0.10041574
49	0xbdfcedd2	-0.12350048
50	0x3d23bbdc	0.03997408
51	0x3df27666	0.11838989
52	0xbd9b5a22	-0.07585551
53	0xbc727860	-0.014799207
54	0xbdd2417c	-0.102663964
55	0x3d521128	0.051285893
56	0x3d3f8570	0.046758115
57	0xbda0259e	-0.07819675
58	0xbcab9cf8	-0.020948872
59	0x3d94b7f4	0.07261649
60	0xbdfd02a4	-0.12354019
61	0x3deaea4e	0.11470471
62	0xbde4cbbe	-0.11171673
63	0x3de5171e	0.1118605
64	0xbc8ddb20	-0.017316401
65	0xbd8d1928	-0.06889564
66	0x3ddf75c8	0.10911137
67	0xbd3c7584	-0.04601051
68	0xbd4e9f2c	-0.050444767
69	0x3d50e7dc	0.05100237
70	0xbaf72900	-0.0018856823
71	0x3d36c35c	0.044619903
72	0x3aff2a80	0.0019467622
73	0xbd2eb2ac	-0.042650864
74	0x3dd89d9a	0.10576935
75	0x3c75cd30	0.015002534
76	0xbcf855e0	-0.030314386
77	0x3da73ba4	0.081656724
78	0xbc147c20	-0.009062797
79	0xbddc91a0	-0.10769963
80	0x3d349b60	0.04409349
81	0xbdf9fe46	-0.12206702
82	0x3ddb59ae	0.107104644
83	0x3de0d0d4	0.10977331
84	0xbccf6c80	-0.025320292
85	0xbd256b28	-0.040385395
86	0xbcebab88	-0.028768316
87	0xbda36356	-0.07977931
88	0xbcd4bb58	-0.025968239
89	0x3d3ed3b8	0.04658863
90	0x3d9816d6	0.074262306
91	0xbd8c54b4	-0.06852093
92	0xbd0c7420	-0.034290433
93	0xbd58aadc	-0.05289732
94	0xbd93a168	-0.0720852
95	0xbd1c6744	-0.03818442
96	0x3d9fe066	0.078064725
97	0xbd5cf998	-0.05394897
98	0xbdcc8798	-0.099868
99	0xbd8f86e8	-0.07008153
100	0xbd891a74	-0.06694499
101	0xbd9f0684	-0.07764915
102	0xbdcfcc92	-0.101464406
103	0xbd5d0b04	-0.053965583
104	0x3bc0b740	0.00588122
105	0xbdf74864	-0.12074354
106	0x3ddc45a2	0.10755469
107	0xbdf6ae02	-0.12044908
108	0xbcbadc50	-0.022810131
109	0xbdd7d366	-0.10538368
110	0xbd7352b4	-0.059405044
111	0xbcb3efc8	-0.021964923
112	0x3d566978	0.052346677
113	0x3deab4c4	0.114602596
114	0x3daee6f8	0.085401475
115	0xbd861688	-0.06547266
116	0xbd3c8508	-0.046025306
117	0x3d91ebea	0.07125075
118	0x3da459d4	0.08024946
119	0x3d6236ec	0.05522816
120	0x3da2db40	0.07951975
121	0x3b214440	0.002460733
122	0xbd9912f0	-0.07474315
123	0xbd9d8d34	-0.07692948
124	0xbd44d850	-0.048057854
125	0x3c5391d0	0.012913182
126	0xbc69e7b0	-0.01427643
127	0xbdcee97a	-0.10103126
128	0x3e0edafb	0.13950722
129	0xbd9603e7	-0.07324963
130	0x3b8ee4e0	0.00436078
131	0x3d99a97a	0.07503028
132	0xbc8edd10	-0.017439395
133	0x3dd3abd6	0.103355095
134	0xbdab45c7	-0.08362918
135	0xbdc03ac6	-0.0938621
136	0x3cf56738	0.029956445
137	0xbc810948	-0.015751496
138	0x3d246d39	0.040143225
139	0xbde7af12	-0.11312689
140	0xbde4d367	-0.11173134
141	0x3e0bab36	0.1363953
142	0x3d50c404	0.050968185
143	0x3b9b321d	0.0047361986
144	0x3dbe7806	0.093002364
145	0xbd27e847	-0.040993
146	0xbdd16773	-0.102248095
147	0x3e0d6f0d	0.13811894
148	0x3cd5d118	0.02610068
149	0xbdb6507e	-0.089020714
150	0xbc78cb20	-0.0151851475
151	0x3e0e4e05	0.1389695
152	0x3d7fd49c	0.06245862
153	0x3e0512e1	0.12995483
154	0x3d5db0cd	0.05412369
155	0xbd5d3f60	-0.054015517
156	0x3d0dca2b	0.03461663
157	0x3d39ba29	0.04534355
158	0xbd876245	-0.0661054
159	0xbdb29454	-0.087196976
160	0x3dff5638	0.12467617
161	0x3e1313e4	0.14363056
162	0xbdbf21e8	-0.09332639
163	0xbc975e4f	-0.018477587
164	0x3ce34c78	0.027746424
165	0x3df047e4	0.11732462
166	0x3e10020e	0.14063284
167	0x3dfa45db	0.12220355
168	0xbd4970d4	-0.049179867
169	0xbc910e8b	-0.01770713
170	0x3d7d0b2a	0.061778225
171	0xbd612920	-0.05497086
172	0xbc7db650	-0.015485361
173	0x3d691aac	0.056910202
174	0xbc6f72c0	-0.014614761
175	0x3dadf2f8	0.08493608
176	0x3d65909b	0.05604611
177	0xbd97a834	-0.07405129
178	0x3cf23c80	0.029569864
179	0xbd526632	-0.051366992
180	0xbdf42a98	-0.119221866
181	0x3e0e7470	0.13911605
182	0xbd8b9b1f	-0.068166964
183	0xbc3b1670	-0.011418924
184	0x3e1166b1	0.1419933
185	0xbc8b54bc	-0.017008178
186	0xbca90230	-0.020630926
187	0xbc8f0e77	-0.017462952
188	0x3dffc4f5	0.124887384
189	0x3ccc64d6	0.024950426
190	0xbc1ff0ce	-0.009762002
191	0x3d999752	0.07499565
192	0xbd2ff0e5	-0.042954344
193	0xbd4c7b8b	-0.049922507
194	0xbdefe7ab	-0.11714109
195	0x3e10cef3	0.14141445
196	0x3dcd1a76	0.10014813
197	0x3dd7cc0c	0.10536966
198	0xbb22cc65	-0.0024841067
199	0x3d74f1da	0.05980096
200	0xbdb91550	-0.09037268
201	0x3bdb57c0	0.00669381
202	0x3d4c2823	0.049842965
203	0xbd476df0	-0.04868883
204	0x3cdbbdb9	0.026823865
205	0x3cce8064	0.025207706
206	0xbd968648	-0.07349831
207	0xbd20fb75	-0.039302308
208	0x3e11c045	0.14233501
209	0xbd39225c	-0.045198783
210	0xbc62dd8a	-0.013846764
211	0x3dabbd72	0.08385743
212	0xbce3fe20	-0.027831137
213	0x3ddfc36c	0.10925946
214	0x3de4b4fe	0.11167334
215	0x3d2a6f62	0.04161013
216	0xbcfc99d8	-0.030835077
217	0xbd405172	-0.046952672
218	0x3d2a8f50	0.04164058
219	0xbdd74f55	-0.10513178
220	0x3de8744d	0.113503076
221	0xbdad8a11	-0.084736
222	0x3d756e93	0.059919905
223	0xbd8ecf62	-0.06973149
224	0x3decb01a	0.11557026
225	0x3d6bc7d1	0.057563607
226	0x3d971797	0.07377546
227	0x3de901d8	0.11377305
228	0x3d3f3f3e	0.04669117
229	0x3df028fc	0.11726567
230	0x3d03376d	0.03203528
231	0xbd36dc35	-0.0446436
232	0x3df57f28	0.11987144
233	0x3e04e622	0.12978414
234	0xbdafcf85	-0.08584503
235	0xbd2b845b	-0.04187427
236	0x3cb75a00	0.022381783
237	0x3dbb2330	0.09137571
238	0x3d30f074	0.043198064
239	0x3cbf3f60	0.02334565
240	0x3db61958	0.08891553
241	0xbc6ab9ba	-0.014326507
242	0x3ccb2538	0.02479802
243	0x3c337dc2	0.010955276
244	0x3db071d0	0.08615458
245	0x3db61072	0.088898554
246	0xbda0fb8b	-0.07860478
247	0x3c95e1f0	0.018296212
248	0x3dd265da	0.10273333
249	0xbd6fc1d9	-0.058534477
250	0x3d93d686	0.072186515
251	0xbdcd572a	-0.10026391
252	0x3d2ed91b	0.042687517
253	0x3d6993b3	0.057025623
254	0x3dc65194	0.096835285
255	0x3ca205cb	0.019778153

MLP_layers.0.bias f4 [32]
0	0x3d24bd14	0.04021938
1	0x3da117fa	0.07865901
2	0xbd8b5138	-0.068026006
3	0x3cfae83f	0.030628322
4	0x3df7bc50	0.12096465
5	0xbdd603de	-0.10449956
6	0x3ddde5d8	0.10834855
7	0x3c5608cb	0.01306362
8	0xbd2f0e69	-0.042738352
9	0xbd1f3923	-0.03887285
10	0x3d85c54b	0.06531771
11	0xbd6204ca	-0.05518035
12	0x3dd91329	0.10599358
13	0xbdf20717	-0.118177585
14	0xbdae8248	-0.08520943
15	0x3bd6dae4	0.0065568555
16	0xbdb64a13	-0.08900847
17	0xbd1e7e78	-0.03869483
18	0xbdbe1c1a	-0.09282704
19	0x3d89c660	0.0672729
20	0x3dc3ed31	0.09566725
21	0x3df6270b	0.120191656
22	0xbd2e11ed	-0.042497564
23	0x3d72ae92	0.059248514
24	0xbc593b50	-0.01325877
25	0xbaf50580	-0.0018693656
26	0xbd344800	-0.044013977
27	0xbdc9a368	-0.098456204
28	0xbd77392c	-0.060357258
29	0x3d81aca4	0.06331757
30	0xbc5076c0	-0.012723625
31	0x3d97fcd6	0.074212715

MLP_layers.1.weight f4 [1, 32]
0	0xbd80dccc	-0.06292114
1	0x3de72586	0.11286454
2	0x3d633ede	0.055479877
3	0x3df8b8ae	0.121446
4	0x3e1ccf00	0.15313339
5	0xbd80fc0a	-0.06298073
6	0x3d8e36f9	0.06944079
7	0x3dd08321	0.10181261
8	0xbe27426d	-0.16333933
9	0x3d790ae6	0.06080141
10	0xbd8a6d69	-0.067591496
11	0x3df5e4e0	0.12006545
12	0xbe04ce97	-0.12969433
13	0x3c275402	0.0102129
14	0x3d2fcf2b	0.04292218
15	0xbdc41236	-0.09573786
16	0x3dd68674	0.10474864
17	0xbdb94c04	-0.09047702
18	0xbd0a95a7	-0.033834126
19	0x3dab97dc	0.08378574
20	0x3d162fbf	0.036666628
21	0xbd15c847	-0.036567952
22	0xbe196b5a	-0.14982358
23	0xbdd9cc3a	-0.10634656
24	0x3d9b4d71	0.0758313
25	0x3d889542	0.06669094
26	0xbdd4307f	-0.103608124
27	0x3daa285a	0.08308478
28	0x3db521c3	0.0884433
29	0x3e3ee171	0.18640687
30	0xbdc8c2b2	-0.0980276
31	0x3e0351d7	0.12824188
