SLIC_GAT/best6.pt (torch, 80373 bytes, 12 tensors)

GAT_layers.0.f.weight f4 [32, 124]
00000000: 2b9a 153e 33cd 13bd 2757 0f3b b6fd 94bd
00000010: 4eb9 cc3d 9083 9abd 4602 973d 1cf3 47be
00000020: 1c92 bfbd d964 86bd af91 183d 36b4 eb3d
00000030: f1b2 f8bd 1849 ae3d e51c 37be f8a2 163d
00000040: e34d b1bc 6622 063d 9ad1 473d 212a 0d3e
00000050: 3731 a53d 8c22 ddbd 3423 99bc c415 31be
00000060: a4a6 a2bd 33a2 6d3b d357 3e3d 06db efbd
00000070: cf06 fabd 1194 ee3d 7362 d7bd e2df dfbd
00000080: 9665 433c b0a4 4ebe 497d 883d 4acd 72bc
00000090: a106 8b3d a30f 7ebd 7ec4 b13d ee01 ef3c
000000a0: e80c 8bbd c515 8ebd 5227 8ebd 33a3 02be
000000b0: 832d ab3d 8c16 143d 8958 21bd 80e4 7f3d
000000c0: 483f 103e fec3 9e3d e816 843d 9043 a5bd
000000d0: ac04 e63d d1d9 8a3d f877 8cbd 6325 0dbe
000000e0: 9aca 2c3e 1506 383e ecbd dabd 75d6 0c3e
000000f0: cba3 d9bd 42e8 193e 9bf0 253e 3a2a e8bd
00000100: a0c0 223e 5c96 de3d 1ab0 d7bd 0781 0ebe
00000110: 4ca6 8b3d e773 c5bc b466 083e ef46 39bd
00000120: c391 1ebd 3095 abbc 0cad 20bd 2316 f13d
00000130: 77f2 29be b635 a03d bcd3 c13d 6aeb 1fbe
00000140: e1f7 0cbc 6920 48be cd95 d43d e52d 933d
00000150: 2ba6 983d 6adb f73d db5b 1ebe 3a56 df3d
00000160: 6367 3fbe d45e 39bd 0b8a abbd 466c bf3d
00000170: 67a2 853c 8755 f738 6cfd 0fbd b275 b03d
00000180: 7348 d8bd a3c5 1c3e 8968 cbbd 3399 b1bd
00000190: bada a33d 6815 1bbd 91c4 81bd d976 393e
000001a0: fbd6 90bd 261f 313e 9d75 ba3d 40d0 ddbd
000001b0: 6e3c 8cbd c3db 563d d7c2 0b3d 1009 d03d
000001c0: 1dc6 90bd 079b a7bd 21e0 1abe 3db5 463e
000001d0: 3261 c93d 3736 0d3e af71 91bd 6f5e a8bd
000001e0: a1a5 7bbd bb54 913d 9980 0e3e f490 03be
000001f0: 8b5d 2cbe d758 233d 7e4a 8abb 4760 0bbe
00000200: e830 f5bd 4a76 96bc 2079 d83d 1d16 983d
00000210: b587 6f3d 42bd 5ebd db34 fd3d 6b41 a13c
00000220: f64b 303e 10b7 0abe 7c80 c13c c245 b2bd
00000230: b84e c6bc d8a5 85bd f21f 363e cd2f 0b3d
00000240: 8c85 e33d b39c 7f3d a772 3bbd c98a a3bd
00000250: 9466 973d 884a a73d b261 223e 2ca2 2b3e
00000260: b263 a5bd ff02 7b3d 1696 3c3e b24f df3d
00000270: 6686 643d af57 9bbd 3f16 05be 07f6 1dbe
00000280: d57e bdbd 1acf 54bb 3509 be3c 3f2e 403e
00000290: c631 073e 73e9 00be f4dc 233e e4b6 0e3d
000002a0: 6890 ef3c 3718 8abd 3b6c 2ebe b673 a9bb
000002b0: 7504 d5bd 3aec debc c81e abbd 7249 323d
000002c0: 305b 3f3e 5bf2 e83d 526b 143d 8476 39bd
000002d0: 4213 e5bd 5019 abbc 6a4f 343e 584a 803d
000002e0: ef69 2e3e dda8 383e 8903 7bbd 2d0b 363d
000002f0: 49b1 1d3e d254 20be f303 823d 2a2a 463e
00000300: bb62 d33d f5eb 8c3a 2a60 263e bbbe 9e3d
00000310: 0d3e 33be 9fed 063e 82ef 1abd a66f f73d
00000320: 29c5 05be 16e7 95bd 2880 e83d a229 4bbd
00000330: 6e49 0e3e be8e c93c 8bf4 eeb9 15dc 1cbe
00000340: 2cd8 233e c447 2fbc 9150 21bc 8f13 0b3e
00000350: 2003 e9bc 53bb 203e 3470 44be 3d1c 903c
00000360: 10ad 06be 4f7c c9bd 71f4 21be cd08 03be
00000370: 2d95 ea3d 0f27 09be 61a5 393e 9787 283e
00000380: e5f6 afbb ce87 83bd 3f08 2ebe 6db8 343e
00000390: 55f1 6ebd 314b 323e dc0d f03d c061 d63d
000003a0: b0be 6ebd 0257 683d 9166 363e 5be5 42be
000003b0: 47e5 79bd 0d2e 0dbe c411 0abd 09a5 7b3d
000003c0: 9809 afbc d434 41be 551e 2a3c 8277 75bd
000003d0: e828 17be 898b dfbd c7a0 b4bd e4cc 47be
000003e0: e632 2d3b fda0 13be 4047 123e 2e5b dfbd
000003f0: f49b 113e de4e 153e 9555 883d ea20 28be
0.14609592 -0.036084365 0.0021872015 -0.07274954 0.099962816 -0.07544625 0.073734805 -0.19526333
-0.0935404 -0.06562204 0.03724831 0.11508982 -0.12143505 0.08510035 -0.17882116 0.036776513
-0.021643585 0.03274765 0.048783876 0.13785602 0.080660276 -0.10797605 -0.018693544 -0.17293459
-0.079419404 0.0036260008 0.046470474 -0.11711697 -0.1220833 0.11649335 -0.105168246 -0.10931374
0.011926075 -0.20180011 0.06664521 -0.014819453 0.06788374 -0.06202663 0.08680056 0.029175725
-0.06789571 -0.06937746 -0.069410935 -0.12757568 0.0835829 0.036154315 -0.039391074 0.062473774
0.1408664 0.07752226 0.064496815 -0.08069527 0.1123136 0.067798264 -0.0685882 -0.13783793
0.16874161 0.1797107 -0.10680756 0.13753684 -0.10626944 0.15030006 0.16205065 -0.11336179
0.15893793 0.108685225 -0.105316356 -0.13916408 0.06818828 -0.024103118 0.13320428 -0.045233663
-0.038713228 -0.020945162 -0.03922753 0.117718 -0.16596399 0.078227445 0.09464213 -0.15617147
-0.008604021 -0.19543613 0.10380135 0.07186488 0.07453569 0.12102397 -0.15464728 0.10905118
-0.18691783 -0.04525645 -0.08375939 0.093468234 0.016312791 0.000117938085 -0.03515379 0.086161986
-0.105606936 0.15309767 -0.09932048 -0.086717986 0.08000703 -0.03786221 -0.0633632 0.18111743
-0.07072254 0.17297038 0.09104464 -0.10830736 -0.068474635 0.052455675 0.03412136 0.101579785
-0.07069037 -0.08183866 -0.15124561 0.19405074 0.09832992 0.13790213 -0.071017615 -0.08221137
-0.061437253 0.07096239 0.13916244 -0.12848264 -0.16832559 0.039879646 -0.004220306 -0.13610946
-0.11972219 -0.018366951 0.10569978 0.07426093 0.05847903 -0.05437971 0.12363597 0.019684514
0.17216477 -0.13546395 0.023620836 -0.087047115 -0.024207458 -0.06525773 0.17785624 0.033981133
0.111094564 0.0624053 -0.045763638 -0.079854555 0.07392612 0.081685126 0.1585758 0.16761082
-0.08075656 0.061282154 0.18416628 0.109038725 0.055792235 -0.07585084 -0.12996767 -0.15425883
-0.09252707 -0.0032472075 0.02319775 0.18767641 0.13202581 -0.12589054 0.16002256 0.034842387
0.029243663 -0.067429 -0.17033474 -0.0051712645 -0.10401241 -0.027212251 -0.083554804 0.043527074
0.18687129 0.11374351 0.03623516 -0.04527904 -0.11185314 -0.020886093 0.17608419 0.0626418
0.17032598 0.18033166 -0.06128267 0.04444425 0.1539966 -0.15657356 0.063484095 0.19352022
0.10321566 0.0010751473 0.16247621 0.07751223 -0.17504139 0.13176583 -0.03782607 0.12081842
-0.13063492 -0.07319467 0.11352569 -0.04960025 0.13895199 0.024604198 -0.00045577096 -0.1531833
0.16000432 -0.010698263 -0.009845869 0.1358168 -0.028443873 0.15696459 -0.19183427 0.01759159
-0.13151956 -0.09838163 -0.15815903 -0.12796326 0.11454234 -0.13393806 0.18129493 0.16457973
-0.0053700083 -0.06422387 -0.16995333 0.17648478 -0.05833562 0.17411496 0.117213935 0.10467863
-0.058287323 0.056723602 0.17812563 -0.19032805 -0.06100967 -0.13787098 -0.03370835 0.061436687
-0.02136688 -0.18867809 0.010383208 -0.059928425 -0.14761698 -0.10915286 -0.08819728 -0.19511753
0.0026428043 -0.14416881 0.14284992 -0.10906063 0.14219648 0.14580867 0.066569485 -0.16418806

GAT_layers.0.f.bias f4 [32]
00000000: 299c 853d 511f 963c fb46 3b3d c71c ae3d
00000010: 1965 f93c 5b8e fe3c 981d b0bc ad45 993d
00000020: a777 9cbd eafc 6dbd 0b53 cfbc c18c 99bc
00000030: 1e8e fcbc 841a 96bd 34fc 193a e553 b5bd
00000040: 7043 8dbd cb44 763d 20fa 8a3d 9c8f a2bd
00000050: e7ac eabc 451f bfbb 115b 173d 0dad 5cbd
00000060: 64f5 713d 8f4b 89bd dbe1 4c3d 355f 913d
00000070: 0a3b abbd d17e adbc 3d74 0ebd ee81 82bd
0.06523926 0.01832548 0.04572199 0.085015826 0.030443715 0.03107374 -0.021498486 0.07483993
-0.076400094 -0.058102526 -0.025308153 -0.018743875 -0.030829486 -0.07329276 0.0005874068 -0.08853892
-0.06897628 0.0601242 0.06785989 -0.079375476 -0.0286469 -0.005832585 0.036952082 -0.05387597
0.059071913 -0.06703865 0.05002008 0.070982374 -0.0836087 -0.021178635 -0.034778822 -0.06372438

GAT_layers.0.w.weight f4 [1, 124]
00000000: ca9a 253d ba7d 71bd 2292 153e 3fad 22be
00000010: 97b8 a13b b641 4b3e 6656 f43d d7db 523e
00000020: cabd 863d 450a eebd 7f97 233c 3b6f 113e
00000030: cdb5 4abe 02c0 06be 4a91 e0bd de30 103e
00000040: 2742 a9bd 5fd7 cd3d 2da4 b93d 4288 133e
00000050: 6cb4 363e 647e 3a3e 6b71 70be dbe8 0f3e
00000060: 4d3e 0b3e 5b9b d7bc e09a 433d 74f7 c23d
00000070: b099 2e3e 1b26 083d 2f0b 95bd 2b1c 8d3d
00000080: 1645 d2bd f882 43be c07e 4abe f4fd 21be
00000090: 6711 903d 587f d5bd 8639 ddbd bd1e bf3d
000000a0: b54d 59be 3f07 2ebe f0c2 453e 0e2b 353e
000000b0: 82ef dbbd a83d 1d3e 9fe2 e23d 9b27 82bd
000000c0: 2a23 c2bd b6c7 0b3e 6e6d 00bd 05a9 4f3e
000000d0: 645f 113e da63 0fbe c30e 1f3e 2eb6 333e
000000e0: a6db d6bd da40 3abe 8c69 a3bd a84b 2ebd
000000f0: eaac 10be cc0f 20be 4c4c 7cbd da8b 22be
00000100: d2bc bdbb 09f3 c2bd 4a84 7b3b 500f e4bd
00000110: 10d2 babd 9e18 1d3e c2af 26be 82d9 fa3c
00000120: 90b9 a9bd 39ec 33be dda7 4ebd 5739 c63d
00000130: cf92 283e 6532 aabd 5788 85bd 3448 1b3e
00000140: 436e 64be 5dce 19be 65a9 203d 2146 31be
00000150: f393 7c3d 35d3 4d3e 0270 c73d 8f0a 77bd
00000160: a1ea 06be 891a 973c 7fd8 d9bd 1f7a 383e
00000170: 1484 d8bd 74f0 dabd fd2c e7bd 12c8 363e
00000180: e290 8abd e9c9 423e 4535 e03d f707 b73d
00000190: 93ad 813c 217c 6c3d 3baf 76bd 091a 35be
000001a0: ddae 46be 8e37 84bc d524 fabd d7e9 cfbd
000001b0: 5598 833d e3d4 623d 26da a93d 5a38 323c
000001c0: 32f0 3bbd 24b9 bc3d 28da bdbd db71 4a3e
000001d0: 5242 393d ee8e d93d fb7d 01be 24c3 413c
000001e0: f38c c2bc efe6 ab3b b562 2d3e c528 4a3d
0.04043082 -0.058957793 0.14606526 -0.158864 0.004935335 0.19849285 0.11930542 0.20591675
0.06579168 -0.116230525 0.00998485 0.14202587 -0.19795914 -0.13159183 -0.10965212 0.14081141
-0.08264571 0.100508444 0.09064517 0.14407447 0.17842263 0.18212277 -0.23480766 0.14053671
0.13597985 -0.026319196 0.047755122 0.09519854 0.17050815 0.033239465 -0.07277524 0.06890138
-0.10267083 -0.1909293 -0.19774914 -0.15819532 0.07034569 -0.104246795 -0.10801987 0.09332035
-0.21221049 -0.16994952 0.19312644 0.17692205 -0.10739042 0.15355551 0.11078381 -0.063552104
-0.09479363 0.13650402 -0.03135436 0.2027932 0.14196545 -0.14002934 0.15532975 0.17549965
-0.10491113 -0.18188801 -0.07979116 -0.04255262 -0.14128461 -0.15631026 -0.0615962 -0.15873662
-0.0057903314 -0.095190115 0.003837841 -0.11135733 -0.091220975 0.15341422 -0.16277984 0.030621294
-0.08287346 -0.1757058 -0.050453056 0.096789055 0.16462253 -0.08310393 -0.065201454 0.15164262
-0.22307687 -0.15020128 0.039224047 -0.17311908 0.061664533 0.201001 0.09738161 -0.060312804
-0.13175441 0.01844527 -0.106369965 0.18015336 -0.10572067 -0.10690394 -0.11287878 0.17849758
-0.067659155 0.19022335 0.1094766 0.08937066 0.015829837 0.057735566 -0.060225707 -0.17685713
-0.19402643 -0.016139772 -0.122140564 -0.10152023 0.064255394 0.055378806 0.08293562 0.010877693
-0.045883365 0.09215 -0.09270126 0.19769995 0.045229264 0.10622965 -0.12645714 0.01182631
-0.02374885 0.0052460353 0.16932185 0.049355287

GAT_layers.1.f.weight f4 [64, 64]
00000000: 6465 20bd 2dc5 723d 86ca d7bd ac1b 643e
00000010: 6444 ba3c a35c f1bd f63b a8bd 2a1f 653e
00000020: a9b9 123e dc5d 48be c333 103e 855a 353e
00000030: fc29 cc3c 64f4 d63d 171c 87ba 9ca5 473e
00000040: c8c6 aebd 17a5 c73d 330e a9bd 23ae f63b
00000050: a1a4 1b3c 0b10 1dbc a3b2 203e be7e d0bd
00000060: 9711 533e 59f8 833d 8cb3 443e 209c 4bbd
00000070: afeb ffbd e01f 143e 9346 4b3d c5ac a23d
00000080: 8508 aabd 5fe1 443e aea7 4bbd f95c 77bc
00000090: e928 583c 024c 1ebe 6750 893c f6cc eebd
000000a0: d258 e43d 28ee 23bd f818 183e f17b 1b3e
000000b0: 3449 09bd 5504 203e e12b 8fbd e37e 4dbe
000000c0: 976d 253e 6880 523e 1f1c c7bd 3bbf 523e
000000d0: 63d0 d5bd daf9 1bbe 2a46 afbc ae7f 443e
000000e0: e025 183e f6e2 513e 2f01 643e 101e 7bbd
000000f0: 315d 8d3c a46c 5a3e 4fec ff3d 1ee3 f73d
00000100: 44df 23be 888c 313d df99 3ebe 07f9 433d
00000110: 059b 863d d49f 3e3d 5b44 aa3d 2f6b 0fbe
00000120: 1eb9 f4bd f1ec f13b 4aa9 cebd a46f 503d
00000130: 636f 223e b4b4 91bd 7b06 97bd 05aa 3a3e
00000140: 20f3 e73d 26f6 1fbe 1d03 87bd 00e2 06be
00000150: 859c 89bd de0a 3dbe 10f0 92bd 9933 ecbd
00000160: 39a9 103e c241 c63d 4c8a fc3d b5ef 183d
00000170: 4a7e 06be 2018 803d 5588 e93b 8e42 813d
00000180: 68cb cebd 908e 383e bf2d 4bbc da0f 50bb
00000190: d0f3 293e 007f 283e a27e 103e 6e6d 3ebe
000001a0: 6012 a33d 90c4 dabb ff2b b83d be9b 65bb
000001b0: 379b db3d 0e11 973d 22c9 753c d192 31be
000001c0: a519 5abe 5919 57be 0c4b 033e 5c3d b73d
000001d0: e58f 4abe c2d0 2bbe ec17 133e 555d 7f3d
000001e0: 5984 dbbd efe8 283d 512d f13d e5cf 29bd
000001f0: 9553 583d 09af 81bd 3bb2 593e a165 173e
00000200: e926 2cbe 686d 7cbc 4176 1f3e 87cf 9abd
00000210: 7563 2b3e 5939 663d 3cce 0bbe 7f86 363e
00000220: 5be7 243e e081 043e aadf 2ebe 83cc 0b3e
00000230: b247 123c f068 a83d 775f 7a3d b8ea 923d
00000240: 029f 09bd f370 db3c 4435 4cbd 97df 4b3d
00000250: 4ee4 69bd 7fef 1bbe 4896 1d3e 2158 2cbe
00000260: b64b 2b3e 7295 c83d d98b 26be e6fa 1e3d
00000270: cf94 b7bb ac09 0a3e e373 19bc 4e83 3cbe
00000280: 3ad5 9d3c 32d4 c3bd 7359 24be 99c1 c93d
00000290: cbb1 48be d660 d93d d4d3 233e 89bc 723c
000002a0: fed6 743d e86f 08be 91f6 85bd 5a9d 1abe
000002b0: 5577 01bd e7c1 51be a9de 1e3e acf7 583e
000002c0: d4ac b6bc dc8d 013d d62a 763d 4bcd 843d
000002d0: 2ad1 bb3d a056 06bd 6d41 1ebe 0722 15bd
000002e0: 5c50 55be 5c6e 40be 8768 3abe 0d92 473e
000002f0: d1c8 0ebe c7d4 2fbe f1fc 053d 2303 303e
00000300: d500 763d 8a02 373d 2d11 e73d eed6 33be
00000310: dd5d 26be 12cc f13d 6ef0 24be 5404 3b3e
00000320: a8d9 35be 6677 48be 4e58 3b3e d621 15be
00000330: 38a9 b43b 0d1e 81bd 1494 35be c002 a13d
00000340: 0c18 c0bd 235a 5fbe a1f5 09be e11c a63b
00000350: cae1 163b a181 063d 3b29 9c3d 7d67 093e
00000360: 7e2f f0bd 6481 a8bd b4e8 963d 2639 453e
00000370: 5a07 5dbe 4f34 48be c9a3 4cbe c2b2 2c3d
00000380: cf90 90bd 5eed 08be e83c 94bc 0e0a 803c
00000390: 1834 bdbc 196a 333e f86a 233e b37b cebd
000003a0: 65f7 18be 72b1 423e 99e7 483e a5d5 833d
000003b0: 580a 6d3d dd4e 943d 2d09 b43d cce4 72bd
000003c0: 5575 193e 3b7a e6bd 28a3 3ebd 938e c3bd
000003d0: 074c 6dbd f737 c73d 4030 ba3d aa1d 293d
000003e0: bfb3 30be 6207 513e 7d35 a03d 6e8e ff3d
000003f0: 8acc 2abe b913 09be 3778 2cbd dc2c ffbd
-0.039159194 0.059270073 -0.10536675 0.22276181 0.02273769 -0.11785247 -0.08214562 0.2237517
0.14328636 -0.19567055 0.14082246 0.17710312 0.024922363 0.104958326 -0.0010308054 0.19496769
-0.08534008 0.09748285 -0.082546614 0.007528083 0.0094997 -0.0095863445 0.15693145 -0.10180424
0.20612179 0.06443853 0.19209117 -0.04970944 -0.12496125 0.14465284 0.04962785 0.079431094
-0.08302406 0.19226597 -0.04972046 -0.01509785 0.0131933475 -0.15458682 0.016761972 -0.11660187
0.11149754 -0.040022045 0.14853275 0.15183999 -0.033517078 0.15626653 -0.06990791 -0.20067935
0.16155086 0.20556796 -0.097221605 0.20580761 -0.10440137 -0.1523203 -0.021395762 0.19189331
0.14858198 0.20496735 0.22266077 -0.061307967 0.017256351 0.21330506 0.12496244 0.12103866
-0.16003138 0.04334691 -0.18613385 0.047844913 0.065725364 0.046539143 0.08313819 -0.14005731
-0.11949371 0.007382982 -0.10090883 0.05088772 0.15862803 -0.071145445 -0.07374283 0.1822892
0.11325669 -0.15621242 -0.06592391 -0.1317215 -0.06719307 -0.18461177 -0.071746945 -0.11533279
0.14127053 0.09680511 0.123310655 0.037337977 -0.13134113 0.062546015 0.0071268477 0.063115224
-0.100973904 0.18023133 -0.012401043 -0.003174773 0.16596913 0.16454697 0.14110807 -0.18596432
0.07962489 -0.006676264 0.089927666 -0.0035035457 0.10722964 0.073763 0.015001567 -0.17341162
-0.21298845 -0.21005763 0.12821597 0.0894725 -0.19781454 -0.16778854 0.14364594 0.062344868
-0.10718603 0.041237768 0.117762215 -0.04145803 0.052814085 -0.063322134 0.21259396 0.14784862
-0.16811718 -0.015406944 0.15572454 -0.07559114 0.16737159 0.056207035 -0.13652891 0.17824744
0.1610388 0.12940168 -0.17077509 0.13652234 0.008928226 0.0822314 0.0611262 0.07173675
-0.033598907 0.026787257 -0.049855486 0.04977378 -0.057102494 -0.1522808 0.15389359 -0.16830494
0.167281 0.097941294 -0.16264285 0.038813494 -0.005602456 0.13480252 -0.009366008 -0.18409464
0.019266713 -0.095619574 -0.16049747 0.09851379 -0.19599073 0.10614173 0.15998775 0.014815458
0.059775345 -0.13323939 -0.065411694 -0.15099087 -0.031607945 -0.20484124 0.15514626 0.2118823
-0.022299208 0.03162943 0.060099445 0.06484469 0.09170754 -0.032797456 -0.15454645 -0.036409404
-0.20831436 -0.18792099 -0.18203937 0.19489308 -0.13943793 -0.17171012 0.032711927 0.17188697
0.060059387 0.044680156 0.11282573 -0.17562458 -0.16246744 0.118065014 -0.16107342 0.1826337
-0.1775881 -0.19576797 0.18295404 -0.14563689 0.0055133365 -0.0630456 -0.17732269 0.07861853
-0.093795866 -0.21811728 -0.13472606 0.0050693606 0.0023022764 0.032838468 0.076250516 0.13418384
-0.117278084 -0.08227804 0.07368603 0.19260082 -0.21584836 -0.19551204 -0.19984354 0.042162664
-0.0705887 -0.13371798 -0.018095449 0.015629794 -0.02309613 0.17520942 0.15958774 -0.100821875
-0.14938124 0.19013003 0.19619597 0.06437234 0.057871193 0.072416045 0.08790813 -0.05930023
0.14986165 -0.11253782 -0.046542317 -0.09548678 -0.057933833 0.09727471 0.09091234 0.041288055
-0.17256068 0.20412973 0.07822702 0.12478338 -0.16679588 -0.1338643 -0.042106833 -0.12459728

GAT_layers.1.f.bias f4 [64]
00000000: bc34 c4bd 6f5a 303d 86cf 43bd a3af e1bd
00000010: d60d 7abd e99f 8fbd 74f4 9a3d 33b3 d8bd
00000020: 48f3 52bc b859 663d 8520 943d 5cc1 d7bd
00000030: 869c 7fbd 8d56 40ba 46fa 1cbc ed1a cb3d
00000040: 70d5 94bc e9da 88bd e59c 39bc 73cc a7bd
00000050: a951 1f3c 1f4d 2fbd eb61 a8bc 8dba cfbd
00000060: cfab 603d a0b8 25bb 0611 cf3d 9c6d 82bd
00000070: 4d7d 663d 4a1e 8bbd 2e62 90bd 8d10 263d
00000080: 145b e1bd 78ad 1a3d 4fef c33d f03e 093e
00000090: 6fde ef3d 993c 54bc 4115 923c c7dc 893d
000000a0: 037d 123d 4888 ce3d 0266 dabc 6163 07be
000000b0: e8db 7fbb 8fa8 f5bd 0c06 b43d ec82 acbd
000000c0: 1072 2abc 6617 b2bd ba49 c73d a9b9 01be
000000d0: 8bcc 9e3d 3fbe ebbd 28e0 9a3d b5ef fb3d
000000e0: d6c0 2f3d f4ec 09ba 7207 073e 4ae2 fabd
000000f0: 400d 2fbd 5a3f 67bd 0090 bcbd 4875 953d
-0.09580371 0.043054994 -0.04780533 -0.11019828 -0.06104835 -0.07012922 0.07566157 -0.105810545
-0.012875386 0.056237906 0.07232765 -0.10534927 -0.06240513 -0.0007337116 -0.009581154 0.09917245
-0.018168181 -0.06682379 -0.0113289105 -0.081932925 0.009724059 -0.042798158 -0.020554503 -0.101430036
0.05485135 -0.0025287047 0.10110669 -0.063685626 0.05627184 -0.067928866 -0.07049976 0.040543128
-0.110037 0.03776309 0.09567129 0.13402915 0.11712348 -0.012953901 0.0178324 0.06731563
0.03576375 0.10084587 -0.02665997 -0.13221504 -0.0039040986 -0.119950406 0.08790216 -0.08423409
-0.010403171 -0.08695869 0.09730859 -0.1266848 0.07753857 -0.11510896 0.07562286 0.1230158
0.042908512 -0.0005261444 0.13186434 -0.122501925 -0.042737246 -0.0564569 -0.09207153 0.0729776

GAT_layers.1.w.weight f4 [1, 64]
00000000: f577 79be 6740 20be 63f0 843e eb5e 89be
00000010: 87cd 1abe a197 4dbe 6a50 5e3c 7538 5cbe
00000020: 6be8 09be 4155 0e3e 04ce 103e 98ca f23d
00000030: 49e8 6a3e e6f8 84bd f28c c0bd 5e82 93be
00000040: d051 0abe acb0 e7bd 14a0 69be 2d9e 3fbe
00000050: c1d0 4f3e 0426 8ebe 77da 383b 6fa3 1d3d
00000060: b6eb e63d fb8a 20be 6513 843e f2b2 ee3d
00000070: 6311 21be 5689 67be bc5c ea3d 4280 67be
00000080: a34d 433e 8d00 093e 6fa8 e53d 2e45 21be
00000090: 59e6 193e 33be a63d 91bf 2e3e 2abc 78be
000000a0: 9eb2 053e c68a 433e 4930 093e d4b2 2cbe
000000b0: b65b eabd 3dcf 803e d99a 7b3e e80c 923e
000000c0: 7d91 6cbe d77f 94be 4dfe 87be 6c51 4bbd
000000d0: 8647 86bb d0b1 833e 6fa9 1bbe 19d4 31be
000000e0: 11d5 dabd 23d6 993e a66d 903d c507 0b3e
000000f0: b459 913e 8f53 153d 0208 2c3e 605f 9bbe
-0.24362166 -0.15649568 0.2596465 -0.2683023 -0.15117465 -0.20077373 0.013568977 -0.21505912
-0.13467567 0.1389971 0.14141089 0.11855048 0.22940172 -0.06492786 -0.09401883 -0.288104
-0.13507771 -0.11312994 -0.22814971 -0.18712683 0.20294477 -0.2776338 0.0028206387 0.03848594
0.11275427 -0.15678017 0.25796047 0.11655225 -0.15729289 -0.22610983 0.11443469 -0.2260752
0.19072585 0.13379116 0.11213767 -0.15749046 0.15029277 0.08141746 0.17065264 -0.24290529
0.13056418 0.19095907 0.13397326 -0.16865093 -0.11443274 0.2515811 0.24570788 0.28525472
-0.23102374 -0.29003784 -0.26561204 -0.049638197 -0.0040978817 0.25721598 -0.15201353 -0.17366065
-0.106851704 0.30046186 0.07052164 0.13577183 0.2838875 0.03645664 0.1679993 -0.30346203

GAT_layers.2.f.weight f4 [64, 128]
00000000: 5f5d 9d3d d633 76bd 5d30 cabd 0710 d8bd
00000010: 71ce c7bd ddf9 f2bd b820 0cbe 1559 d43d
00000020: ceff b53d aeee 893c 87ef 78bd 417f a13d
00000030: a066 983d 7b90 4d3b 6e91 16be 5c4f a33d
00000040: f21e 213e f61e 363d ebd9 25be 5be0 25be
00000050: 4ba9 183e 4fc2 9dbc 23e3 01be 312c 28be
00000060: b338 823c c25b 26bd 7d7d 1a3e e438 24bd
00000070: 363a 983d c545 193e 2874 07be 4631 023e
00000080: 7ced 5cbd 13e2 d0bc e000 e2bc a907 45bc
00000090: a00b bebd abee 44bc 0a75 133e 22e8 da3d
000000a0: f47f 133e 812b 72bd 8528 1cbe 6bf8 17be
000000b0: 9e7c 69bd 5d5a ae3c 5250 963b 0bde 1fbe
000000c0: ae87 1b3c ad60 ea3c 55ab 193e 29b7 e5bc
000000d0: ee61 2abe 3ce8 ca3d f7df 843a ba80 23be
000000e0: 3511 18be 29b2 08be 1d27 153e aec6 a83c
000000f0: a899 cbbc 6f16 27be 00b0 fdbd 95ab 1abe
00000100: 250b bd3d ab10 113e 59b1 543d ab6d 93bd
00000110: fe24 82bc 1f10 b73d 84de 193e 89dc 893c
00000120: 365d f03c f076 bb3d ee83 ccbd b3a7 00bc
00000130: ebb3 223e 68f8 a7bd 3a33 d33d bd0f 103e
00000140: 7fd3 2d3e e2ae 8c3d ec90 58bd 70e1 6c3c
00000150: 4fb8 963d 66ed 59bd f243 8b3c e7a1 74bd
00000160: aded 1dbe 832b 8a3d 43ee 12bd c937 89bd
00000170: c0cc c23c 32ae 41bd 9f99 d2bc 3d45 c43b
00000180: 4fd3 08be 47ed 113d 8c32 80bd 2e96 c13c
00000190: 699c 173d d82d ec3d 3ca0 90bd 9fe8 063e
000001a0: a00b 813d 9653 00be e34c 0c3d b2e7 0f3e
000001b0: a3b6 d53d 5522 8f3d 82f2 97bc bd6b 8c3d
000001c0: 64d2 173c 6a71 05be cb71 2cbe caff 2b3c
000001d0: c253 dabb 2d9e a83d 71f1 a73d 591f 2a3d
000001e0: 80b2 f8bd d838 183e f675 0ebe 87f4 a4bb
000001f0: db9f 23be e6be 993d 60f5 02be 85b5 b6bd
00000200: 5169 153e d7ee f53d 804e c53d 3626 12bd
00000210: 85c5 ce3c b767 cdbc 4830 0fbe afba 413b
00000220: 7676 ecbd 46d6 e7bd a16e 643d 43bd 513d
00000230: 1e37 05be 01d4 c4bd d399 b2bd 817f 24bd
00000240: 0990 12be ff71 b63a 5e81 b8bd 4357 73bd
00000250: a03e f73d 4980 d0bd 8088 d3bc 5570 d7bc
00000260: 35b4 51bd d7ad b9bc dc67 963d c3fd 3f3d
00000270: 983e 183e 1f6d 0f3e 74b4 2c3e 2749 6c3d
00000280: 3f02 373e 3478 75bd b6a9 cdbb a215 06be
00000290: d165 683c 7cc6 7dbd 3305 53bd 40ee 223e
000002a0: 9371 bcbd 2bf0 e23d 6e69 053e b005 c43d
000002b0: fb32 f83d d1df eb3d b63b 263e f726 833d
000002c0: 5522 2cbe 4450 83bb f1e1 213e bce8 c0bd
000002d0: 343b a7bd 1f93 babd be22 a33c 105f f53d
000002e0: 0da7 b5bc c2ca 363b 5a26 c63c 7e11 0c3e
000002f0: 6bba b73d ce88 1a3e ecb0 cabd c12f c23d
00000300: 189a 113e 4229 0ebe 4615 9a3d 4cda 133e
00000310: f091 a1bd cf02 103e 3770 0c3e b389 38be
00000320: bf6f 133e 374c 32be cbda 5cbd 97c7 1ebe
00000330: b342 c7bd 4e1f 21be 9f11 a9bc f9b9 113e
00000340: d9e1 bfbc 9923 ca3d fe33 0b3e c9bb 443d
00000350: f694 593d 41ad a53b 76a8 62bb 542f 0c3e
00000360: 4664 323d d7f1 813c 5938 c1bd 9947 f73d
00000370: f019 bc3d 0372 233e cd6d 8b3d 25fb 99bd
00000380: a8e4 a0bd f485 19bd 0bcb abbd 88da 593d
00000390: 1b3e 19be aad8 16be 3f0f adbd e860 8bbd
000003a0: 4d63 273e acf9 e43d 4b34 2d3e eef5 67bd
000003b0: 2228 923d 9583 043e 026d 58bc 3abd 44bd
000003c0: 37fc eabd 534b 8f3d 2206 bd3d 4cb9 bb3d
000003d0: 0a30 0f3e 55a6 993d 0d68 1ebe 1e4b dabd
000003e0: a8dd b4bc 6043 0cbe 985d 04be 284f 09be
000003f0: d042 98bd 62d6 1bbe d32a 0b3e 11e2 fe3c
0.07683825 -0.06010803 -0.09872506 -0.10549932 -0.097561724 -0.11864064 -0.13684356 0.103685535
0.088866815 0.016837444 -0.060775306 0.078856 0.07441449 0.0031366635 -0.14703915 0.07974121
0.15734461 0.04446312 -0.1619641 -0.16198866 0.1490833 -0.019257693 -0.12684302 -0.16423108
0.015896177 -0.04061485 0.15086932 -0.040093318 0.07432978 0.14968021 -0.13227904 0.12714109
-0.05393742 -0.025498426 -0.027588308 -0.012025752 -0.09279561 -0.0120197935 0.14400116 0.10688807
0.14404279 -0.05912352 -0.15249832 -0.14840858 -0.05700361 0.021283323 0.0045872116 -0.15612046
0.009492798 0.028610552 0.15006764 -0.02804144 -0.1663892 0.099075764 0.0010137548 -0.15967074
-0.14850314 -0.13349213 0.14565702 0.02060255 -0.024853542 -0.16317151 -0.12387085 -0.15104516
0.09230641 0.14166515 0.051926944 -0.07198652 -0.01588678 0.08938622 0.15026289 0.016828792
0.029341321 0.09153545 -0.09986101 -0.007852483 0.15888946 -0.082016766 0.10312505 0.14068504
0.1697521 0.06869294 -0.052872583 0.014458045 0.07359373 -0.053204916 0.017000172 -0.059724715
-0.15422697 0.067465805 -0.035871755 -0.06700093 0.023779273 -0.047285266 -0.025708018 0.005989699
-0.13361858 0.035626676 -0.06259641 0.023631182 0.0370144 0.115321815 -0.07061812 0.13174675
0.063010454 -0.12531886 0.034253012 0.14053228 0.10435226 0.0698897 -0.018548254 0.06856487
0.00926647 -0.13031545 -0.16840284 0.010497997 -0.0066628167 0.08233295 0.08200348 0.0415338
-0.12143421 0.14865434 -0.13912186 -0.0050340327 -0.15978949 0.07507114 -0.12788916 -0.08921341
0.14590956 0.12008446 0.09634113 -0.035680972 0.025240669 -0.02507387 -0.13983262 0.0029560735
-0.11546032 -0.11320166 0.055769566 0.051205885 -0.13009307 -0.09610749 -0.08720746 -0.04016066
-0.14312758 0.0013919472 -0.0900905 -0.05940939 0.12072492 -0.101807185 -0.025821924 -0.026298681
-0.05119725 -0.022665901 0.07344028 0.046872865 0.14867628 0.1400647 0.16865712 0.05768695
0.1787195 -0.059929088 -0.0062763346 -0.1309419 0.014184431 -0.061956868 -0.05151863 0.15911198
-0.0920135 0.11080965 0.130285 0.09571397 0.12119099 0.11517299 0.16233715 0.06403916
-0.16809972 -0.004007371 0.15808846 -0.094193906 -0.08165589 -0.09110092 0.019914027 0.11981022
-0.022174383 0.002789185 0.02418821 0.13678548 0.08971103 0.1509125 -0.098970264 0.094817646
0.14218938 -0.13882926 0.07523589 0.14438742 -0.078891635 0.14063571 0.13714682 -0.18021278
0.14398097 -0.17411886 -0.053919595 -0.15505825 -0.09729519 -0.15734598 -0.020638285 0.14231099
-0.023423122 0.09870071 0.13594052 0.04803065 0.053120576 0.005056054 -0.0034585274 0.13689929
0.04355266 0.015862389 -0.094345756 0.12074203 0.09184635 0.15961461 0.06808052 -0.07518605
-0.07856113 -0.037481263 -0.08388337 0.053186923 -0.14965098 -0.14731088 -0.084501736 -0.06805593
0.16346474 0.11180434 0.1691448 -0.05663102 0.07136561 0.1294082 -0.013209583 -0.048032023
-0.114738874 0.06996789 0.09229685 0.09166202 0.13983169 0.075024284 -0.1546938 -0.10658859
-0.02207835 -0.13697577 -0.12926328 -0.13409102 -0.074346185 -0.152185 0.13590555 0.031113656

GAT_layers.2.f.bias f4 [64]
00000000: 4185 7dbd 72ba 3cbd e4cc cbbc ca17 dbbb
00000010: a07b 6fbd 90a5 0bbd bef0 573d a0d7 99bd
00000020: d45e 64bc 15f8 2a3d 4d53 60bd 77f2 6b3c
00000030: 91f0 053d 4dee 053d 33c3 613d 3aaa fd3c
00000040: 4ae8 4fbd 6b42 4bbd c5cd 27bd 86e1 b73d
00000050: f79a 8fbd 6511 fb3c 26c1 6e3d d8c5 c33c
00000060: 587c 763d b854 803b 97b1 893d 0c37 2ebd
00000070: 49a1 c03d 69ca 61bc 8311 87bd 48bc c53d
00000080: 3e95 4f3d a10a 763d 6e6c 5c3c 3428 443d
00000090: a0ac 5cbd 3c90 2a3c a3b6 64bc 8869 51bd
000000a0: 45a0 ecbc 4fdc 823d 6b3e 17bd c6b9 e63c
000000b0: add7 813d 0837 a53d 263f 863b 96d5 35bd
000000c0: 39c9 9b3d c2ff 493d 08b9 803d 2b60 c13d
000000d0: 85bd 823c 1a7c 763d a237 50bd 3fbd fcbc
000000e0: e238 7b3d 7413 863d e2c7 693d 81fc 743d
000000f0: 364d 88bd 83ec 133d bfdf f23c dc30 88bd
-0.06189466 -0.046076246 -0.024877973 -0.0066861855 -0.058467507 -0.03409344 0.052719824 -0.0751183
-0.013938624 0.041740496 -0.05476694 0.01440107 0.032700125 0.032697964 0.055117797 0.03096496
-0.050758637 -0.049623888 -0.04096772 0.08978562 -0.07011979 0.030647943 0.05828967 0.02389805
0.060177177 0.0039163493 0.06723326 -0.042532966 0.09405763 -0.0137811685 -0.06595137 0.096550524
0.050679438 0.06006873 0.013453586 0.047889903 -0.053875566 0.010410365 -0.01395956 -0.051126033
-0.028885016 0.06389677 -0.03692476 0.028164756 0.06339965 0.08067137 0.0040968833 -0.044393145
0.076067396 0.049316175 0.06285292 0.09442171 0.01595951 0.060176946 -0.050834306 -0.030851958
0.061333545 0.06546679 0.05707539 0.05981112 -0.06655352 0.036114227 0.029647706 -0.06649944

GAT_layers.2.w.weight f4 [1, 128]
00000000: 94bc f73a b432 11be 8b01 5f3d e4bf 5cbe
00000010: 80c2 25be af21 d43c 77e9 553e 5389 cebd
00000020: 1743 353e 40c5 b03d e181 213e d298 303e
00000030: ed67 17be c073 2f3d d0a4 97bd 751c 1cbc
00000040: 9d4b 4bbb 2d78 1abc 91de ed3c c77d a43d
00000050: 85c3 ee3d c55d 16be 9a70 20be 6bb9 e9bd
00000060: 8e07 8dbc 2a14 0b3d 77f4 f7bc 5bb0 3cbe
00000070: 8cbc 573e 1eb2 25be a11a 29be 8b7e 26bd
00000080: 9758 2d3d ae77 2a3d 8dee f63d da07 373e
00000090: 90f4 5abb a38c 17be c25c c73d b46f ad3d
000000a0: a987 1c3e 0312 04be eb78 883c 354c 333c
000000b0: 438e 853d 3bc7 353e 552b 10be 9cea 84bd
000000c0: 33d9 e13d 7863 4d3e 8fcb 99bc 798a 383d
000000d0: b829 b5bd c424 613e 946f 38be b5a5 43be
000000e0: d1cd 633e 02a7 48be a755 e43d 5f06 ad3d
000000f0: fe2f 913d 6eab edbd 27d2 70bb 339c 433c
00000100: c727 613e 952a 12bd e250 e83d 42fc 46bd
00000110: a3ec 223e 0fa3 32be e5c5 183e d3e6 283e
00000120: 0247 1c3e a388 b63d 3742 1d3e 24a2 f83d
00000130: e0c7 16be 854d 29be fbde a73d 6d1e f43d
00000140: b302 1cbe 5f0f 2a3e e05d 96bd 579a 793d
00000150: acdb 15be 1f95 51be 45c6 d33d 46dc 983c
00000160: a0ce 7a3d 84d4 3ebe 6d24 493c 21f2 ae3d
00000170: a926 adbd 00b7 5d3c 2285 3a3d 9465 f43b
00000180: 457f b33d 45e2 943c 35f9 133e 092b 2b3d
00000190: 2045 1bbd 8431 723c 11ef 8c3d 3da0 46be
000001a0: ea65 513e 00a7 3dbe efd7 3d3e 0675 383d
000001b0: 9b8f c53d 42f7 84bd ea9e f3bd 246d 363d
000001c0: ad12 ec3d 77b0 133d b0c4 a33d c146 1f3e
000001d0: b1ee b53d fc57 c7bd 4edd 4ebc 0b1c 5b3e
000001e0: 0449 123e c53a 613e 2421 54be 78b9 483d
000001f0: 9b4b 81bc cb11 393e f9fc 0d3e 7899 883d
0.0018900805 -0.14179498 0.05444483 -0.21557575 -0.16187477 0.025894968 0.20889841 -0.10084786
0.17701374 0.086313725 0.15772201 0.17245796 -0.14785738 0.042834997 -0.07404482 -0.009528269
-0.003102041 -0.009428066 0.029036792 0.080318026 0.11658386 -0.14684208 -0.15667954 -0.11412319
-0.017215516 0.033954777 -0.030267937 -0.1842665 0.21068019 -0.16181228 -0.16514064 -0.040648025
0.042320814 0.04161804 0.12057219 0.17874089 -0.003340993 -0.14799742 0.09734489 0.08468571
0.15286125 -0.12897496 0.01665922 0.010943462 0.06521275 0.17751782 -0.1407903 -0.06490061
0.110277556 0.20057476 -0.018773822 0.045053933 -0.08845848 0.21986681 -0.18011314 -0.19106181
0.22246481 -0.19594958 0.111491494 0.08448481 0.07089232 -0.11604963 -0.0036746354 0.011939096
0.2198783 -0.03568514 0.11343552 -0.048580416 0.15910582 -0.17445014 0.14919241 0.16494302
0.15261462 0.0891278 0.1535729 0.12140301 -0.14724684 -0.16533478 0.08196827 0.11919866
-0.15235405 0.16607426 -0.07342124 0.060938206 -0.1463458 -0.20467041 0.10340551 0.018659722
0.06123221 -0.18635756 0.012276751 0.08542276 -0.084546395 0.0135324 0.04553712 0.007458398
0.08764509 0.0181743 0.14450534 0.04178909 -0.03790772 0.014782313 0.06881536 -0.19397064
0.20449033 -0.18520737 0.18539403 0.045033477 0.09646531 -0.06492473 -0.11895545 0.04453768
0.115269996 0.036056962 0.079964995 0.15554334 0.088834174 -0.097335786 -0.012626005 0.21397416
0.14285666 0.21995075 -0.20715767 0.049005 -0.015783122 0.18073194 0.13866033 0.06669897

MLP_layers.0.weight f4 [32, 64]
00000000: cb52 f0bd e19f 0d3d 433a d5bd 9fac 8a3d
00000010: 9ddd 423d 73f0 9ebd a7a5 babd 50ad 08bd
00000020: 93cf 783d 95a1 3c3d d09a 463d 81ca 723d
00000030: cf99 cdbd 8666 dbbd c737 883c 4a0e 663c
00000040: 83ae 9f3d be7a fd3d 3f71 be3d f6e8 163c
00000050: 039d 7bbc 8724 e0bb 0399 843b adec 6a3c
00000060: 1b01 e83d 531c e2bc 48ea 3d3d 90e7 b8bd
00000070: fcda a23d 5047 f43c 9704 df3d 0215 8bbd
00000080: a4cf e3bd 2a53 5e3d 7952 ad3d 94ce cd3d
00000090: e562 0fbd 250f ae3d 5deb afbd d40e af3b
000000a0: 5a90 80bd e075 a63d be7c 453d 3239 8b3c
000000b0: 59e7 ba3d aa25 843b 1386 dfbd bce6 4f3d
000000c0: df81 ba3d fd19 f0bc 7fa7 52ba 88c7 d8bd
000000d0: af46 0dbd a7f0 303d dd6a acbd 9e7f 77bd
000000e0: f69d e1bd ba76 963d f0b8 b1bd 4670 2a3d
000000f0: ee8d 62bd d396 893d 0d5f c0bd bdb2 aebc
00000100: ad2b 9e3d 3e82 74bd 1093 883d 075c 87bd
00000110: ceac 643d 88ad 903d 4678 af3c 8a62 b73d
00000120: c10f 87bc e7b1 dd3d 51ea e9bd d9a4 58bc
00000130: 55c5 db3c efc6 d5bc e3e8 44bd 2fef f63d
00000140: 7ad8 d63d 3a58 c73c 401a dc3c 984d 4abb
00000150: 1785 e1bd 71ce a33d 2b04 db3c ec9a 383b
00000160: fbdc 00be 5757 edbc cc43 c4bd 9e3b 76bd
00000170: 65fa 363c 1da2 cf3d 0bd7 0d3b 5cfc d2bd
00000180: cb06 d43b eb98 a5bb 8734 46bd 22d0 493c
00000190: 2344 a9bb 0a77 773d 4102 68bc bcd9 963d
000001a0: c964 a23a a16e 833d 79f8 8fbd 3cfc 9f3d
000001b0: b6d0 93bd d3ba a63d 712f 6b3d dead d53d
000001c0: b84e 4b3d bf07 ccbd 6f04 a23d 1631 cb3d
000001d0: c7b7 f03d f11e dfbd 0f20 fe3c 2794 e4bd
000001e0: 45ae d9bd 7fa9 f03d 5a44 f2bd d3db 00bd
000001f0: 528d 87bd ad2a d13d 4266 6a3d 2123 b0bd
00000200: 1a5d 5c3d 75f3 03bd a718 4c3d 68bb 933b
00000210: e859 de3c 60e6 b33c 91d4 253d 34f4 083c
00000220: 7ac4 afbd 30cf a6bc 2800 833d 30f1 ee3c
00000230: 45dc 7f3d 6aaa 48bc 7f35 bf3d d440 a8bd
00000240: 70c9 98bd d4bf 6a3d 93ac 5b3d 7f63 f0bd
00000250: 727f 90bd a417 06be 71d3 c6bd e894 99bd
00000260: cdc7 813d 6a91 c9bd 2362 6cbd a056 e23d
00000270: bc93 de3d 3efc a03d 742f b1bd d4f1 95bd
00000280: 36e2 493d a866 d13d ea90 98bd 956e 63bd
00000290: 53e2 973d 0288 5ebd 7211 85bd 86c9 6e3d
000002a0: 2faa f7bd 49fa e73c 1d30 24bd b3ca cb3d
000002b0: fc59 863d f3c3 b73d e38a a2bd 006b f2bc
000002c0: 0e97 293d 624f 1abd e73d 67bd 7855 123d
000002d0: 3a57 a33d aed5 e53c ea7a 5d3c 0035 913d
000002e0: 4ee6 c5bd 42ec 083d fbf9 b33d 02be dc3c
000002f0: 7c79 783d 635d 6cbd c473 04be 6e96 e73d
00000300: 4040 c73b 30a4 32bc b469 af3d c80a d9bc
00000310: a0ed ed3d 6eef b8bd dc90 953d 2ebf eebd
00000320: d827 fbbc 1c3b e6bd 80d0 ee3a 72d3 b6bd
00000330: 5004 31bc ce82 9e3d f8b6 c4bc 9c9f 14bd
00000340: 6095 10bc 98bb adbd 96f7 8bbd c687 e8bd
00000350: d401 203d b4e7 b73d 70bf 0abd 8434 8ebd
00000360: 941d a9bd 403f 883d 8047 45bb ea6a ad3d
00000370: d897 e9bc ecf8 ef3d 962f fdbd a26b 8c3d
00000380: 3880 06bd acde 9e3d c8cd c23d babd fabd
00000390: 483b a0bd 52d0 e63d 1837 8a3d d69b c2bd
000003a0: a09d 403c b8a0 a0bc 2c42 a4bd 8c27 dbbd
000003b0: a227 e73d 8060 95bd e8da dd3d 924c debd
000003c0: fc0e 27bd b837 2ebd 20da 9c3d 94b9 25bd
000003d0: 06ec 923d ac09 f6bd a21a fb3d 9086 123c
000003e0: 14b6 ea3d 10c3 4a3c 80a2 5e3c 2aed ddbd
000003f0: 382a 733d 5029 f6bd e84e 8fbc b0d0 043c
-0.117345415 0.0345763 -0.10411503 0.06771206 0.04757463 -0.07760706 -0.09113627 -0.03336841
0.060744833 0.046052534 0.048487484 0.059275154 -0.10039102 -0.10712914 0.01662816 0.014041493
0.07796957 0.12376927 0.09298944 0.009210816 -0.015357259 -0.006840292 0.0040465607 0.0143386545
0.11328336 -0.027601397 0.046366006 -0.09028542 0.07951924 0.02981916 0.10889547 -0.06791116
-0.11123589 0.05427853 0.08462996 0.10049167 -0.035006423 0.08498982 -0.08589814 0.005342344
-0.06277533 0.081279516 0.048214667 0.016995046 0.09126157 0.00403281 -0.109142445 0.050757155
0.09106802 -0.029309267 -0.0008035823 -0.105849326 -0.034491237 0.043198254 -0.0841882 -0.06042444
-0.11016457 0.07346864 -0.08677852 0.04161098 -0.055311136 0.067182206 -0.093931295 -0.021325463
0.07723174 -0.05969452 0.06668675 -0.0660935 0.055828862 0.070643485 0.021419656 0.08954342
-0.016487004 0.10824948 -0.114216454 -0.0132228965 0.026827494 -0.026095835 -0.04807366 0.120573394
0.104905084 0.024334062 0.026867986 -0.0030869003 -0.11011713 0.0799836 0.026735386 0.0028168513
-0.12584297 -0.028972311 -0.09583244 -0.06011545 0.011168097 0.101383425 0.0021643068 -0.1030204
0.0064705363 -0.0050536296 -0.048389938 0.012317689 -0.0051655932 0.06041626 -0.014160694 0.07365748
0.0012389655 0.06417585 -0.07029814 0.07811782 -0.07217543 0.08141103 0.05741829 0.10433553
0.04963562 -0.09962415 0.07911002 0.09921472 0.11753803 -0.108945735 0.031021146 -0.1116107
-0.106289424 0.11751079 -0.11829443 -0.03145964 -0.066187516 0.10213218 0.057226427 -0.0860045
0.053799726 -0.0322146 0.049828198 0.0045084246 0.02714248 0.021960437 0.040485922 0.008359004
-0.08582397 -0.020362467 0.06396514 0.029167742 0.062465925 -0.012247661 0.093363754 -0.0821549
-0.07460296 0.057311848 0.053631376 -0.117377274 -0.07055558 -0.13094956 -0.09708298 -0.07499105
0.06336937 -0.09842189 -0.057710778 0.11051679 0.10868022 0.078606114 -0.08651629 -0.07321516
0.049287997 0.10224658 -0.07449515 -0.05552538 0.07416215 -0.054328926 -0.06497468 0.058297656
-0.12093007 0.028317587 -0.040084947 0.09950771 0.06560132 0.08972921 -0.07936647 -0.029592037
0.041403823 -0.03767336 -0.05645552 0.03572604 0.079756215 0.028055992 0.0135180745 0.07090187
-0.09663068 0.033428438 0.08787914 0.026946072 0.06066273 -0.057706248 -0.12934786 0.11307989
0.0060806572 -0.010903403 0.08565083 -0.026494399 0.11617589 -0.090300426 0.0730302 -0.116575584
-0.030658647 -0.11241743 0.0018220097 -0.08927049 -0.010804251 0.07739793 -0.024013028 -0.036285028
-0.008824676 -0.08483046 -0.06834333 -0.11354022 0.039064243 0.08979741 -0.033873975 -0.0694361
-0.08257595 0.06652689 -0.0030102432 0.08467658 -0.028514788 0.117174 -0.12362592 0.06856467
-0.032837123 0.07757315 0.09511906 -0.12243219 -0.07823807 0.11270203 0.067487895 -0.095023796
0.011756331 -0.019607887 -0.08020434 -0.10700902 0.11286856 -0.072937965 0.10832769 -0.108544484
-0.040785775 -0.042533606 0.076587915 -0.040460184 0.07173924 -0.120135635 0.12260939 0.008943215
0.1146051 0.012375608 0.013588548 -0.10836251 0.059366435 -0.120195985 -0.01749368 0.008106396

MLP_layers.0.bias f4 [32]
00000000: 580e 053e ab4e f8bd ed6b 7d3c 0c19 58bd
00000010: 17a7 8d3d d64f 35bd 4e82 1e3e 2316 3c3e
00000020: e09d 78bb d22e cb3a 0585 243e f644 09bc
00000030: b90c d03d bd77 973d ad77 153e 69ee 1fbc
00000040: 1c6f 13bd b49e 703d 26d4 aabc b2ae b4bd
00000050: 9abb 7abd 0b9d e5bd 6022 a73d 3525 3f3d
00000060: 7815 973d 6e02 dabd 47b2 37bd 51c2 a33d
00000070: c43e d1bd 12c1 983d 181a 1e3d ec10 be3d
0.12993753 -0.1212438 0.015467626 -0.05275826 0.069166355 -0.04426559 0.15479395 0.1836782
-0.0037935898 0.0015501624 0.16066368 -0.008378258 0.10158677 0.07395885 0.14596434 -0.009761431
-0.035994634 0.0587451 -0.020853113 -0.08822383 -0.061214067 -0.11211594 0.081608534 0.046666343
0.07377142 -0.10644995 -0.044847753 0.07996047 -0.1021705 0.074587 0.038599104 0.09280571

MLP_layers.1.weight f4 [1, 32]
00000000: 8a46 c63d bed7 b9bd 2a80 d7bd 6b75 34be
00000010: 4f8d ea3d fb5d 0cbd 9c40 d43d b255 003e
00000020: 13b6 273e 343b d8bd 557b ab3d 51e3 153d
00000030: 2a15 533e b9c8 da3c 552e 173e ce3a 04bd
00000040: 34e5 f0bd 9970 ff3d 7ed1 27bd a669 10bd
00000050: 7701 25be 282b 3dbd 519e 1b3d ccd6 d3bc
00000060: 7b9a 923d 29b5 0bbd 9b89 cfbd 06cc f33d
00000070: 4add c6bd 5c7a cbbc 79da 1a3d f2ba ea3d
0.09681423 -0.09074353 -0.10522492 -0.17622916 0.11452734 -0.034269314 0.10363886 0.1253269
0.1637805 -0.10558167 0.08373133 0.03659374 0.20613542 0.02670704 0.14763768 -0.032282643
-0.11762467 0.12472648 -0.04097127 -0.035257004 -0.1611384 -0.046183735 0.03799278 -0.02585926
0.07158371 -0.034108315 -0.10133668 0.11904149 -0.09710176 -0.024838619 0.037806008 0.11461438
