SLIC_GAT/best4.pt (torch, 580781 bytes, 30 tensors)

GAT_layers.0.GAT_heads.0.f.weight f4 [32, 124]
000000 35 15 bc 3d 39 83 83 3c c3 17 60 3d 2e 41 94 3d
       0.091837324 0.016053783 0.05471016 0.072389945
000010 4c 6f 0b 3e 14 b2 ff 3d d7 32 0d 3d f2 56 45 be
       0.13616675 0.124851376 0.034472313 -0.19271448
000020 68 71 41 be c3 bf d0 bc d3 72 1d 3e 0c 18 8c 3d
       -0.18890917 -0.025482064 0.15375833 0.06840524
000030 ca 04 21 be 41 60 ca 3d 4d 74 24 be be 1c f6 3c
       -0.15724483 0.0988164 -0.1605999 0.030043002
000040 29 dc 0f be 6c f2 b4 bc 7c 4e e5 3c af 63 f1 3d
       -0.14048828 -0.022088252 0.027991526 0.11786591
000050 c0 9d ef 3d 24 a0 0c be fb cc 2a be 14 b7 28 be
       0.1170001 -0.13732964 -0.16679756 -0.16476089
000060 4f cb bc 3c 5f ca 0f be 66 e4 7c 3d b2 70 17 be
       0.023046164 -0.14042042 0.061741255 -0.14789084
000070 6f 22 ee bd 3b d8 4a ba 17 b8 25 3e 79 7c b9 3d
       -0.116276614 -0.00077379093 0.16183506 0.090569444
000080 42 1e 4f 3d 3d bb ae 3d a9 46 cc bc 33 85 2d 3d
       0.050565965 0.085318066 -0.024936037 0.042363357
000090 20 b6 3d 3d 45 f4 1a 3e 5b 72 3f be f9 19 6e 3d
       0.046316266 0.15132244 -0.18695967 0.05813024
0000a0 40 f2 c2 bd 88 30 22 bb 4c ea 04 3d 4e e0 3a 3e
       -0.09518862 -0.0024748165 0.032450005 0.18249628
0000b0 35 10 02 bc 8c a7 2b 3c 09 cc 9a bd 5d 0a 16 3e
       -0.007938434 0.010476958 -0.07558448 0.14652391
0000c0 3f d3 88 bb 71 c3 fa bd ee 5e bb 3d 78 7c ba 3d
       -0.004175573 -0.12244309 0.09148966 0.09105772
0000d0 a6 f5 1b 3e fa 4e 1a be c6 ac 24 3e 3a d8 00 3e
       0.15230426 -0.1506919 0.16081533 0.12582484
0000e0 80 6c 14 bc a3 4b 2e be b2 94 7d bd d2 e3 de bd
       -0.009059072 -0.1702104 -0.061909385 -0.10883297
0000f0 98 ef ab 3d 2c d9 70 3c 52 0a ce 3d 30 ba 15 be
       0.08395308 0.014700215 0.10060562 -0.14621806
000100 d5 3a 0f be c9 73 f1 bd 08 14 c8 ba 0b 47 31 3c
       -0.13987286 -0.117896624 -0.0015264759 0.010820161
000110 e2 f1 3e 3e 89 37 1b 3d aa 06 dc 3d a7 1c 34 bd
       0.18646958 0.03789476 0.107434586 -0.043972638
000120 58 09 a7 bd fe d5 8d 3d a5 72 1b 3d 5a 19 ab bd
       -0.08156079 0.069255814 0.03795113 -0.08354445
000130 d0 1a ae 3d dc 0f b4 3c 10 2d 31 3e 11 b8 f1 bc
       0.08501208 0.021980219 0.17302346 -0.029506715
000140 04 9c 23 3c 9e 56 50 3d cf 50 2e be 66 68 1d be
       0.0099859275 0.050863855 -0.17023014 -0.15371856
000150 df 75 f5 bd 14 fe 55 3d 48 4e 07 be f2 f9 46 3d
       -0.11985373 0.05224426 -0.13213456 0.04857821
000160 dc c2 2a 3e 7e e2 25 be 2b db fd 3d d9 b8 82 bd
       0.16675895 -0.16199681 0.123953186 -0.06382913
000170 74 ea 72 bc 7f 13 2e bd c2 97 13 be 69 72 8e bc
       -0.014826406 -0.04249906 -0.1441336 -0.01738854
000180 38 82 2a be 88 05 e7 3d 01 59 2a 3e a8 55 1f 3e
       -0.16651237 0.11280352 0.16635515 0.15560019
000190 6f 03 1e 3e 61 e9 45 bd fa 99 f8 3d a9 81 67 3d
       0.15430997 -0.04831827 0.12138744 0.056520138
0001a0 7e 17 d7 bd da 09 0d 3e 4c b2 ab 3d 06 45 42 3e
       -0.10502528 0.1377329 0.08383617 0.18971643
0001b0 db a4 4e bc 08 f2 15 3e 89 f8 bc 3d a1 3e c2 3d
       -0.012612547 0.14643109 0.09227092 0.09484602
0001c0 a4 78 1b be 12 35 40 3e 30 38 ac bd fd 6f 3d be
       -0.1518274 0.18770245 -0.084091544 -0.18499751
0001d0 57 f5 98 bd 16 3d 9b 3d f7 62 e3 bd a0 7e 4d be
       -0.0746867 0.075800106 -0.111028604 -0.20067835
0001e0 f5 01 5e 3d 98 cf b6 bb 54 19 9b bc 3d ba aa 3c
       0.054201085 -0.0055789463 -0.018932976 0.020840758
0001f0 3e 1f 15 3e 07 46 35 be 25 db 06 be 99 51 c7 bd
       0.14562699 -0.17702495 -0.13169535 -0.097323604
000200 2d 00 16 bd 55 57 32 3e cd 7e b5 bd d5 51 94 bc
       -0.03662126 0.17416127 -0.08862076 -0.018105427
000210 32 fc 3b 3e 40 75 99 3d c8 26 cd 3d 73 90 8c 3d
       0.18357924 0.07493067 0.100171626 0.06863489
000220 e8 1e 37 3e 78 ef 14 be 2f 52 83 3d ef 59 40 be
       0.17882884 -0.14544475 0.0641216 -0.18784307
000230 7b 50 25 3e 4c 50 e2 3d 92 4a 45 be 1c 46 28 be
       0.16143982 0.11050472 -0.19266728 -0.16432995
000240 ef d6 0d be 65 c5 2d be ae 16 e7 bb 8a 59 18 be
       -0.13851522 -0.16969831 -0.007052264 -0.14877906
000250 b1 c8 5e bd d7 54 71 3c fd db 84 bc 1a 94 0c be
       -0.054390613 0.0147297 -0.01621818 -0.13728371
000260 24 30 35 be 8b f8 fa bc 3d d1 2c 3e 95 c9 8a bc
       -0.17694145 -0.030636093 0.16876693 -0.016941825
000270 3e 1e 35 3e 87 0f 18 be f5 e4 3b 3e 22 bd 23 3d
       0.17687318 -0.14849673 0.18349059 0.039975293
000280 99 3d 9b 3d d6 81 2b 3e db d1 e4 bd 86 98 3d 3e
       0.07580108 0.16748747 -0.11172839 0.18515214
000290 26 6f 28 3d 97 97 48 be 77 03 77 3d 4f 2e be 3d
       0.041121624 -0.19589077 0.06030604 0.092861764
0002a0 ae 3f d2 3a f1 35 12 be 4c 05 41 3d 4e 68 7e bc
       0.0016040707 -0.1427839 0.047124192 -0.015527798
0002b0 53 6f ff bd eb 23 0d 3e e2 63 f7 bd 30 ff b1 3d
       -0.12472405 0.13783233 -0.12079598 0.08691251
0002c0 92 3a f3 bd bd d5 1d be c3 53 35 be 52 d1 2b be
       -0.11876406 -0.15413566 -0.17707734 -0.16779068
0002d0 12 1b 3e 3e ce 3e 3b be 90 fd 1f bd e2 2d 2e be
       0.18565014 -0.18285677 -0.039060175 -0.1700969
0002e0 88 63 af bc 48 22 bf 3d 53 a4 8c bd 98 9e 15 3e
       -0.021409765 0.093327105 -0.0686728 0.1461128
0002f0 0a 59 9a 3d c0 ab 7f bd ab f4 45 3d 67 37 28 be
       0.07536514 -0.062419653 0.048329037 -0.16427384
000300 30 13 a8 3c 2e 4c 31 bd a1 a2 47 3e 7d 97 89 3c
       0.020516962 -0.04328554 0.19495632 0.016795868
000310 c2 7e 05 3e ca 9a 36 3e 81 c5 0e 3e f8 d1 aa bd
       0.13036636 0.17832485 0.1394253 -0.083408296
000320 58 df e4 3b 14 f6 aa 3d 79 aa a5 3c c2 08 0f bd
       0.0069846325 0.08347717 0.02022289 -0.03492046
000330 ed 06 9b 3d 87 1f 15 be 6b 7c 5c bd 78 b1 9b 3c
       0.0756968 -0.14562808 -0.05382959 0.019005522
000340 74 85 3d 3e 7d a2 24 3e ea 9d b8 3d 4f ad dd bd
       0.1850794 0.1607761 0.09014495 -0.108240716
000350 85 00 c6 3d c0 bc 41 3e f5 66 1c be fb dd cb 3b
       0.09668068 0.18919659 -0.1527365 0.0062215305
000360 35 46 d9 bd 3a 42 07 3e 1c 93 01 be 74 fd 3a 3d
       -0.10609094 0.13208857 -0.12653774 0.045651868
000370 92 33 20 be 1e 2a fe bd f8 6a 40 be 51 7a 93 bb
       -0.15644673 -0.12410377 -0.18790805 -0.0045006652
000380 84 cb 25 3e 05 1f 77 3d b4 55 45 be 1a cd ab 3d
       0.16190916 0.060332317 -0.19270974 0.083887294
000390 1a 22 d6 3d e8 9c 24 3e 51 96 d2 bc f1 39 87 3d
       0.10455723 0.1607548 -0.025706442 0.06602848
0003a0 fb 16 84 bc aa 68 ad bd e9 5b 17 be 36 b7 3f be
       -0.01612424 -0.08467229 -0.14781155 -0.18722233
0003b0 3d c2 df 3c 7d d4 aa bd 57 91 b5 3d 04 54 4f 3c
       0.0273143 -0.0834131 0.08865612 0.012654308
0003c0 ce ad 47 bc 0e 1a a3 3b 0a 18 39 be 25 38 45 be
       -0.012187434 0.004977471 -0.18075576 -0.19259699
0003d0 7b cc 4a be b2 2a 78 bc cf 66 57 3c 77 f6 81 3d
       -0.19804566 -0.015146898 0.01314707 0.063458376
0003e0 36 6e 25 3d 93 1f 0f 3e aa e2 f2 bc f2 89 a8 ba
       0.04038831 0.13976888 -0.029649097 -0.0012858494
0003f0 77 f6 cf 3d 2e 19 42 be df ea 34 bd ce 12 44 3d
       0.10154431 -0.18954918 -0.044169303 0.047869496

GAT_layers.0.GAT_heads.0.f.bias f4 [32]
000000 97 1c b8 bd f4 12 88 bd 6c 09 2b 3c d8 af 44 bd
       -0.08989828 -0.0664424 0.010439258 -0.04801926
000010 65 43 8e 3d 01 d9 9d 3d d7 42 f8 3c ab 40 9c bd
       0.06946448 0.07707406 0.03030531 -0.07629522
000020 a5 79 7e bd e7 a7 a3 3b 8a a6 39 3d b9 d1 dd 3c
       -0.062127728 0.0049943808 0.04532484 0.027077543
000030 13 1e 11 bd 53 02 63 3d fd 75 5f bc f3 2c 8b 3d
       -0.03542907 0.05542214 -0.01363897 0.06795683
000040 96 57 a0 3c 19 ba 26 bd 51 2a b3 bd 18 db 97 bd
       0.019573014 -0.04070482 -0.087483056 -0.07414836
000050 ca b4 81 bd 3a d4 85 bc 6d be 6d bd d3 cd bf 3c
       -0.06333311 -0.01633655 -0.058042932 0.023413574
000060 42 88 a1 3d 51 e3 8a 3d 36 99 a4 bd 5f 95 a5 bd
       0.07887317 0.067816384 -0.08037035 -0.08085131
000070 11 66 11 3d 95 6a a6 bd a0 76 ff bc a3 17 9b 3b
       0.03549773 -0.08125798 -0.031184494 0.0047330423

GAT_layers.0.GAT_heads.0.w.weight f4 [1, 124]
000000 bf 90 28 be 52 52 60 3e 76 66 03 bd e9 af 88 3c
       -0.16461466 0.21906403 -0.032080136 0.016685443
000010 90 a1 2f be 84 23 4b bd a8 e4 47 3e 8a b6 c6 bd
       -0.17151475 -0.049594417 0.19520819 -0.09702785
000020 e8 33 57 bd a2 88 74 3c c2 0b c3 3d 4d 75 9b bc
       -0.052539736 0.014925154 0.09523727 -0.018976832
000030 3f 54 de 3d a8 0e 08 be b4 4e 31 be 77 ef 0b 3c
       0.108559124 -0.13286841 -0.17315179 0.00854098
000040 b2 34 21 3e 82 d3 bb 3d a9 36 b2 bc 65 7a 34 be
       0.15742758 0.09171201 -0.02175458 -0.17624815
000050 da f8 eb 3d af ac 5d be 45 71 bd bd 3b 57 25 bd
       0.11522074 -0.21647905 -0.0925012 -0.040366393
000060 e0 d9 f9 bd 43 bd 14 3d f9 99 d2 3d 2b 8c 7e bd
       -0.121997595 0.036313307 0.10283274 -0.062145393
000070 68 f3 ee 3c 30 a7 bc bd b0 a9 21 be 73 79 58 be
       0.0291688 -0.09211576 -0.15787387 -0.21140079
000080 7d 93 24 3e 2a 69 3e 3e 1f d4 ae 3d 7b d3 40 be
       0.16071887 0.18594804 0.08536553 -0.18830673
000090 96 c3 19 be 20 2c 91 bc 74 9e 27 3e 56 81 44 be
       -0.15016016 -0.017721236 0.16369039 -0.19189963
0000a0 fc e4 5c be c4 7f 41 be 85 48 00 be eb 10 8a bd
       -0.21571726 -0.18896395 -0.12527664 -0.06741508
0000b0 be 19 4f be 80 be c7 3d f8 d8 e7 3a 96 b3 4d 3e
       -0.20224664 0.09753132 0.0017688563 0.20088038
0000c0 b5 90 34 3e be 4e 3d 3e 47 bd ee bd a4 df 1b 3e
       0.17633326 0.18487069 -0.116571955 0.15222031
0000d0 fd 11 4c 3e 76 68 e6 3c 7a 18 cd bd 12 36 f5 3d
       0.19928737 0.028125983 -0.10014434 0.11973204
0000e0 d9 bf 15 be a7 cb 03 3e f3 95 56 be d0 48 3f be
       -0.14623965 0.12870656 -0.20955639 -0.1868012
0000f0 a3 24 af 3d b9 b8 5a 3e 94 62 13 3e 0e af 38 3e
       0.0855191 0.21359529 0.14393073 0.18035528
000100 bd fa 1d 3c 42 f0 73 3b 99 52 49 be ce 99 c0 bd
       0.0096423 0.0037222062 -0.19660415 -0.09404336
000110 6d 38 dc 3d 52 3f f9 bc 7c 4d 15 be d5 31 f9 bd
       0.1075295 -0.030425701 -0.14580339 -0.12167708
000120 98 25 85 bc a2 30 46 3c 53 18 08 3e 01 c6 a9 bd
       -0.016253278 0.012096556 0.13290529 -0.082897194
000130 bd 07 1a 3e 13 a6 45 3e 0b e4 27 3e ce ec 04 be
       0.15042014 0.19301634 0.16395585 -0.12980959
000140 72 f9 26 bd af b2 f9 bd 32 1a ce 3d ad 82 45 3d
       -0.040765233 -0.12192284 0.1006359 0.048220325
000150 dc 80 af bd a9 a1 57 be 6e f7 32 bd 81 2f 48 be
       -0.085695 -0.21057762 -0.043693 -0.19549371
000160 04 b1 68 3d fb 19 16 be 2b 28 2f 3e f2 5b 3c be
       0.05680944 -0.14658348 0.17105167 -0.1839445
000170 59 d3 57 3e 3d 55 95 bd 11 d0 29 3e 15 f2 62 3d
       0.21076716 -0.072916485 0.16583277 0.05540665
000180 3c 6a 37 3e d8 7f 03 3e ba b9 63 bc 92 43 75 bd
       0.17911619 0.12841737 -0.013899261 -0.059878893
000190 34 f9 b8 bd cb 61 5b 3e 89 78 8f bd 0e 33 05 3e
       -0.09031907 0.21424024 -0.07005412 0.13007757
0001a0 30 f9 3d bd e1 ba 5f be ab 24 60 3e 84 59 8e bb
       -0.04638022 -0.21848632 0.21888988 -0.004344167
0001b0 a4 93 22 be b0 38 f8 3d ab fd 0d be f9 9d c8 bd
       -0.15876633 0.12120187 -0.13866298 -0.09795756
0001c0 cc 64 55 be 1f 13 be 3d 81 cf 0b 3d e8 79 27 3e
       -0.20839232 0.09280991 0.034133438 0.16355097
0001d0 f2 7b 2d be 22 3c 24 3e 41 b2 13 be f6 61 1f be
       -0.16941813 0.16038564 -0.14423467 -0.15564713
0001e0 fd 9c da bd 61 f9 c2 3d a3 fe c9 bd 05 8b 4c be
       -0.106744744 0.095202215 -0.09863021 -0.19974907

GAT_layers.0.GAT_heads.1.f.weight f4 [32, 124]
000000 6f c3 f8 3d 2e 82 c5 bd 99 45 18 3d 3d b0 03 3d
       0.12146651 -0.096439704 0.03717575 0.032150496
000010 78 a2 10 be ec ab 17 3d de 04 c0 bd d7 87 43 bd
       -0.14124477 0.03702919 -0.09375928 -0.04773697
000020 ab f5 0c 3d a1 11 d1 bd ae b7 fe 3d fe 26 85 ba
       0.034413975 -0.102084406 0.12437378 -0.0010158715
000030 f5 e8 09 be f3 9a 35 3e 53 c7 d6 3d f9 bd a8 bd
       -0.13467772 0.1773489 0.10487237 -0.082393594
000040 f7 af 2e bb 4f fc d1 3d f9 53 43 3e 18 b6 81 bd
       -0.0026655176 0.10253202 0.19075002 -0.0633356
000050 d1 47 c2 3d f8 98 b8 3c 05 ab 6b bc e6 2f 3c 3d
       0.09486354 0.022533879 -0.014384036 0.045944117
000060 c0 6b 2b 3e ac 3a 08 be ac 92 13 be 5e da 02 3e
       0.16740322 -0.13303632 -0.1441142 0.12778613
000070 9b 2b c9 3c c6 32 28 3e 97 c3 03 bd 97 51 c6 3b
       0.024556926 0.16425619 -0.03216895 0.0060522067
000080 5c e8 bb bb d6 ee ee 3c c8 bd c9 3d 85 f8 dd 3d
       -0.0057344865 0.02916662 0.09850651 0.10838417
000090 42 9f 05 3e 27 fb b7 3c f9 47 75 3c 93 48 d3 3d
       0.13049033 0.022458626 0.014970773 0.10316577
0000a0 04 5d aa 3d 5a 65 9e bd 48 94 c4 bc 42 6a 2e 3e
       0.083185226 -0.07734175 -0.023996487 0.17032722
0000b0 0d 6a cf ba 66 9a 09 be 99 a8 3e 3e 75 01 89 bc
       -0.0015824452 -0.13437805 0.18619002 -0.016724328
0000c0 19 0d e5 bd 2b 6f 1b 3e 5e 0d 9b 3c 26 99 4c 3d
       -0.11184139 0.15179126 0.018927272 0.04995074
0000d0 e5 0e dc 3d cc 0b 47 be b4 95 36 3b 45 11 1e 3d
       0.107450284 -0.19438094 0.0027860226 0.03859069
0000e0 9d 89 4d bd 2d 74 ec 3d ea 75 06 be 01 e2 0f 3e
       -0.050180066 0.11545596 -0.13130918 0.14051057
0000f0 46 a2 f0 3d 1c 07 2a bc fd ad 4a be 61 bd 29 be
       0.11749701 -0.010377672 -0.19792934 -0.16576149
000100 c3 06 d1 bd 15 16 79 bb a0 de 3d 3e 44 44 c0 3d
       -0.10206368 -0.0038007547 0.18541956 0.09388021
000110 d8 4b 08 3e 52 32 86 bd 7f 3e 2b be e6 75 05 3e
       0.13310182 -0.065525666 -0.16723059 0.13033256
000120 c3 99 33 be 6c 9c 64 3d 70 d3 9f 3d d0 96 4a bd
       -0.17539124 0.055813238 0.078040004 -0.049460232
000130 c6 80 20 bb 99 3a 8d bd 38 50 9a 3c 0f 95 83 3d
       -0.0024490817 -0.06895942 0.01883708 0.06424915
000140 74 fb 16 3d b9 f6 28 be ec 59 cc 3d 92 62 a5 3d
       0.036860898 -0.16500367 0.09978089 0.080754414
000150 b3 f4 11 3e 5b 7f 10 3e 91 81 b3 bd e7 01 d1 bd
       0.14253502 0.14111082 -0.08764947 -0.10205441
000160 ee ff b3 3c 9e be c9 3d 10 c5 2e 3e f3 f4 71 3d
       0.021972623 0.098508105 0.17067361 0.059071492
000170 90 60 ed bd d8 fb 2d 3e f9 07 31 be 70 b6 3a bd
       -0.115906835 0.16990602 -0.17288198 -0.045584142
000180 aa 37 b0 bc 30 6e a8 bd 3a 82 dc bd 1c 22 c7 bd
       -0.021510918 -0.082241416 -0.10767026 -0.09723303
000190 b6 c1 b6 3d 08 b1 44 be 82 df 8d bd 7d bc c4 bc
       0.08923666 -0.19208157 -0.06927396 -0.02401566
0001a0 73 bb 9c bc 7d 76 aa bc 04 de 3e 3e 1b 63 1c 3e
       -0.019132352 -0.020808453 0.1863938 0.1527218
0001b0 86 bc fe bd 49 d3 13 be d9 e1 f4 bd 23 db dc 38
       -0.12438302 -0.14436068 -0.119571395 0.00010531235
0001c0 b1 5d f0 3d 9e 0f aa 3c fa 80 14 3d ac e8 ea bd
       0.1173662 0.0207594 0.036255814 -0.1147016
0001d0 ae ea bd 3d 6f 66 45 bd 36 e0 45 be a7 60 b2 3c
       0.09273277 -0.04819339 -0.19323811 0.021774603
0001e0 a5 b3 10 be a4 34 2a 3e 78 43 2a be b1 8d c3 3d
       -0.14131029 0.16621643 -0.166273 0.0954851
0001f0 7a 58 22 3e cb 41 65 bb 0e d3 02 3e 10 4a c2 bd
       0.15854064 -0.0034981843 0.12775823 -0.094867826
000200 59 1b a3 3d 33 db 10 3d 82 cf fb 3d 52 a1 45 be
       0.079642005 0.035365295 0.12295438 -0.1929982
000210 65 0f 18 be bc e1 30 3e 21 67 02 be fc 66 bb 3d
       -0.14849623 0.17273611 -0.12734653 0.09150502
000220 93 28 ea bd 78 68 08 3e 44 38 b9 3d 0b 2b d8 3d
       -0.1143352 0.13321102 0.09043935 0.10555085
000230 ff 85 3b 3e 5a c1 25 be 2b ce 13 bd 7e 1c 2c be
       0.18312834 -0.16187039 -0.03608529 -0.16807744
000240 9c ac b0 bd c8 53 3c 3e 7b 2b 10 be 0d ff 14 be
       -0.086266726 0.18391335 -0.14079086 -0.14550419
000250 1e b1 1d be 94 5e d7 bd d2 3d 16 3e 3c 2d 22 3d
       -0.15399596 -0.10516086 0.1467202 0.03959392
000260 80 80 34 3e cc 9f 9b bd 5a 3a 0c 3e e6 a9 66 bd
       0.17627144 -0.07598838 0.13694134 -0.05631437
000270 f0 2a 2e 3c 0f c6 40 be 25 ae 33 3e 71 be a3 3d
       0.010630354 -0.18825553 0.175469 0.07995308
000280 5c d2 45 3e 26 db 78 bd f7 17 1f be cf d1 26 bd
       0.19318527 -0.06075587 -0.15536486 -0.040727433
000290 db bb 48 be bd 87 c3 bd 85 40 75 bc 6b 2a ed 3a
       -0.19602911 -0.095473744 -0.014968996 0.0018094307
0002a0 c5 ef a9 3d a9 62 18 bd 54 c0 f3 3d 26 14 11 be
       0.082976855 -0.037203465 0.11901918 -0.14167842
0002b0 af ac 9d 3d e6 70 ea 3d 6d 4c 89 bd 82 3f 14 be
       0.076989524 0.11447315 -0.0670403 -0.14477351
0002c0 8c ae 65 bd 8c 92 2b 3e b8 53 dd bc 72 35 1f be
       -0.056074664 0.16755122 -0.02701746 -0.15547732
0002d0 95 5a 41 3e 5c 04 43 3d 67 14 e8 bc e0 03 26 3e
       0.1888221 0.04761158 -0.028330041 0.16212416
0002e0 d8 ee 0f be 5a 22 3d 3e 08 b0 06 3c 49 c1 2a be
       -0.14055955 0.18470135 0.00822068 -0.16675295
0002f0 a4 28 1b 3e 55 2c 63 3b 71 3b cd 3d 8b 95 a2 3d
       0.15152222 0.0034663875 0.10021103 0.07938679
000300 53 f6 16 3e 80 59 9e 3d 5b 9f 01 3e 00 e3 36 bc
       0.14742403 0.077319145 0.12658446 -0.011162519
000310 1a 97 46 be 13 3a a0 bc 87 14 33 3e 61 c4 b8 3b
       -0.19393578 -0.019558942 0.174883 0.0056386446
000320 5f 04 bb bb a2 fd 94 3d 3b 6d 43 3d eb b5 08 be
       -0.005707308 0.07274939 0.047711592 -0.13350646
000330 7e c0 d0 bc 87 7c 74 bd d7 6d db 3d 9b bd 31 3e
       -0.025482412 -0.05968907 0.1071431 0.17357485
000340 75 a2 2d 3d 28 9f 3c bd 00 3b b0 bc 23 fe 5d 3c
       0.04239126 -0.04605022 -0.021512508 0.01354936
000350 92 97 a4 bd 41 8d 05 be 14 37 df bd 58 cf 64 bd
       -0.08036722 -0.13042165 -0.10899177 -0.0558618
000360 f7 7a 99 3d d8 ad 0e 3e a1 a2 39 be c7 87 b7 3d
       0.07494157 0.13933504 -0.18128444 0.08961444
000370 1a 8f 8d bd 08 88 27 3e ec 46 06 be 0d d5 4e bd
       -0.0691206 0.16360486 -0.13112992 -0.05049615
000380 cb 49 04 be fe 15 1f bd c6 de 01 3e c5 1a 82 3d
       -0.12918775 -0.038839333 0.12682638 0.06352762
000390 54 27 88 b9 90 fc 3c 3e 4a 49 40 3e 46 be 98 bc
       -0.00025969243 0.1845572 0.18777958 -0.018645417
0003a0 d3 7e 7c bd e6 9f 9a bd f4 e7 46 be b9 42 2d 3e
       -0.061644387 -0.075500295 -0.1942442 0.16919984
0003b0 85 99 23 be b2 93 39 be f6 0e e0 3d 20 29 41 3e
       -0.15976532 -0.18122748 0.109403536 0.18863344
0003c0 f2 97 1a be fc 74 eb 3d a2 64 cf 3d bd 1c 0d 3e
       -0.15097025 0.114969224 0.10126616 0.13780494
0003d0 4c a8 17 be 75 19 86 3d 22 a9 39 be 3e 31 b9 3d
       -0.14810294 0.06547824 -0.18130925 0.09042595
0003e0 6a ac 0a 3e 12 00 d3 bd a1 55 d1 bd 36 d2 46 3e
       0.13542333 -0.10302748 -0.102214105 0.19416127
0003f0 b2 18 aa bc 27 40 04 be 15 c0 f7 bd 94 e3 46 3e
       -0.020763729 -0.12915097 -0.120971836 0.19422752

GAT_layers.0.GAT_heads.1.f.bias f4 [32]
000000 6a bc 96 bd 11 cd 4c 3c 5a a8 8e bd 9b e6 82 3c
       -0.07360156 0.0125000635 -0.06965704 0.015979102
000010 86 07 ce bc af 32 2a 3d cc 8b a1 3d e8 e0 56 3d
       -0.025150072 0.041552242 0.07887992 0.05246058
000020 bf 9a 61 bd a2 af 88 bd 81 fc 4f bd 3a 12 a6 3d
       -0.055079218 -0.06674124 -0.050777916 0.08108945
000030 fd 18 91 bc 3c 65 18 3c e7 5d 41 3d 2f 61 d1 bc
       -0.01771211 0.00930148 0.047208693 -0.025559036
000040 3d 3d 48 bc 9d b1 9f bd 1e 53 86 bd 81 75 a5 bb
       -0.012221632 -0.07797549 -0.06558822 -0.005049408
000050 fd 71 2a 3c ce bd 4f 3c ba 7f a3 3d 26 dc 65 3d
       0.0104031535 0.01267953 0.07983346 0.056118153
000060 68 1f cf 3c 36 b2 62 3d f2 42 37 bd fd cc 4e 3d
       0.02528353 0.055345736 -0.04474158 0.05048846
000070 fb 68 77 3d e1 de 5e bc 71 1e 12 3d cc 0f 33 bd
       0.06040285 -0.013602943 0.035673562 -0.043716237

GAT_layers.0.GAT_heads.1.w.weight f4 [1, 124]
000000 34 61 9a 3d 98 3b 52 3e be 1d 5e bc bc 7d 87 bd
       0.07538071 0.20530546 -0.013556896 -0.06615779
000010 ab 7b 51 3e fa 0b 28 be 08 04 a2 3d 30 92 61 3d
       0.20457332 -0.16410819 0.07910925 0.055071056
000020 e2 88 54 be 5d a2 20 be 38 98 99 bd 71 1f d0 3d
       -0.20755342 -0.15686937 -0.074997365 0.10162247
000030 b1 ce e6 bd 71 2e 4f 3e 09 af 7e bd cc 6c 41 3d
       -0.11269892 0.2023256 -0.062178645 0.047222897
000040 15 3b 71 bc 17 77 1f be 7f 58 a1 bd 76 83 3f 3e
       -0.014723559 -0.15572773 -0.078782074 0.18702492
000050 1f 12 3f bd a1 6e 05 3d 89 a2 e4 bd 3b 62 44 3e
       -0.04664814 0.032576207 -0.111638136 0.19178097
000060 96 14 2f 3e c9 fc b7 bd 77 12 15 bd 6c 51 5e be
       0.17097697 -0.08983762 -0.036394563 -0.21710747
000070 26 3d 20 3e d0 b1 64 3d a7 67 8e 3c 70 e6 e9 bd
       0.15648326 0.055833638 0.01738341 -0.114209056
000080 42 0b fc 3d a8 0e 30 3e 9f 3d 35 be f3 46 be 3d
       0.12306835 0.17193091 -0.17699288 0.09290876
000090 d8 60 43 be 87 ef 7a 3c 1e 1d 7e bc ae e7 63 bd
       -0.19079912 0.015315897 -0.015509872 -0.05564087
0000a0 ba 3e 3b be 24 02 03 3e f5 93 38 3e f4 a2 3b be
       -0.18285647 0.12793785 0.18025191 -0.1832388
0000b0 2d 15 48 be d2 87 06 3e 13 9f 5c be 72 b3 7a 3d
       -0.19539328 0.13137749 -0.21545057 0.06120629
0000c0 ac a3 e5 3b 3b 79 a3 3c 86 2c 06 3e 14 dd 30 3d
       0.0070080366 0.019955268 0.13102922 0.043179587
0000d0 ce 0f 89 3d d3 a9 37 bd ab 62 11 be 4f 66 59 bd
       0.06692468 -0.04483969 -0.14197795 -0.053076085
0000e0 08 c0 4b 3c b7 b6 1f 3b d1 d1 a8 3d c8 26 ea 3d
       0.012435921 0.002437038 0.08243144 0.11433178
0000f0 98 7c 54 be 98 9c c9 3d 6c 48 0a 3e a3 ea 28 be
       -0.20750654 0.09844321 0.13504189 -0.16495757
000100 e7 35 b6 3c b3 08 14 bd 98 1e ce bd af 46 94 3b
       0.0222425 -0.03614111 -0.10064429 0.0045250277
000110 0e 9a e3 bd 98 4d 2c 3e 39 27 cd 3d 76 63 95 bd
       -0.11113368 0.16826475 0.10017247 -0.07294361
000120 17 37 44 be 1d 77 d3 3d bd 6a 10 be 4a 31 82 b9
       -0.1916164 0.103254534 -0.14103217 -0.00024832255
000130 1f 1c 26 3e b0 54 0c 3e d0 64 22 3e da 49 31 be
       0.16221665 0.1370418 0.1585877 -0.17313328
000140 b6 bd 10 be 6f 5e f1 3d 21 dd a0 3d 12 5f 3a be
       -0.14134869 0.1178559 0.07854677 -0.18200329
000150 5a b8 02 3e 89 35 01 be 08 53 39 ba 2d d0 1e be
       0.12765637 -0.12618078 -0.00070695626 -0.155091
000160 00 61 f3 bd c4 23 18 be d0 e5 0b 3d 08 4c b5 bd
       -0.11883736 -0.14857394 0.034154713 -0.088523924
000170 a5 fd 2e 3e 8a 4c 51 3e 3d 68 bf 3d 80 18 f8 bd
       0.17088945 0.20439354 0.09346054 -0.12114048
000180 89 7c d1 3d ea f1 1b be 88 40 55 3e ef bd 16 3e
       0.10228831 -0.15229002 0.20825398 0.14720891
000190 d1 2e e2 bd bb 2f 17 3e 5c a1 49 be 1e 4e 2b bd
       -0.11044086 0.14764301 -0.1969046 -0.041822545
0001a0 4f aa 0f 3e a0 d0 4b bd 66 47 5b bd 10 b9 b8 3d
       0.14029811 -0.049759507 -0.053534888 0.09019673
0001b0 fd 99 21 3e 87 dc 29 3e 3d 21 c7 bb 48 5f 98 bd
       0.15781398 0.16588031 -0.0060769604 -0.074400485
0001c0 ea 65 88 3d e1 f2 31 be a5 1e 42 3e b5 01 c5 bd
       0.066600636 -0.17377807 0.18957002 -0.09619466
0001d0 c0 7e 35 bd 9e 65 66 3c 38 7c 49 3e 7e ac 1b be
       -0.04431033 0.014062313 0.19676292 -0.1520252
0001e0 b3 bc 8f 3d 70 c8 44 3e 34 9c 81 3d fd 94 8e 3c
       0.070184134 0.19217086 0.063286215 0.017405028

GAT_layers.1.GAT_heads.0.f.weight f4 [64, 128]
000000 60 eb 64 bd 15 08 4f 3d 63 15 90 bc 7a 3e 1d 3e
       -0.055888534 0.050544817 -0.017588323 0.15355864
000010 fb 1f 02 3e f1 65 c0 bd 28 03 fd bc 0a b7 94 bd
       0.12707512 -0.09394444 -0.030885294 -0.072614744
000020 df f0 43 bd e1 93 e2 3c 21 41 d1 3c 03 7a 80 bc
       -0.047837134 0.027658405 0.025543751 -0.01568318
000030 b4 e6 4c bd b0 5c 7a 3d 7f d8 22 bd 3d c8 1d 3c
       -0.050024703 0.06112355 -0.039757248 0.00963026
000040 87 9e 5a 3c 66 b0 be bd 0c 8c 71 bd b1 57 1e 3d
       0.01334346 -0.09310989 -0.05897145 0.038657848
000050 3f 9f b6 3c 26 c2 ed 3d 29 5b 20 3e ad e1 c2 bd
       0.022292731 0.116092965 0.15659775 -0.095157005
000060 34 ca 15 bd 97 1e 90 bd 64 8f 2e be 51 a5 55 3d
       -0.03656979 -0.070370845 -0.17046887 0.05215961
000070 06 ae 51 bd 15 8d ac 3d 56 b5 81 bc e0 fb 11 3d
       -0.051191352 0.08425347 -0.015833538 0.035640597
000080 a4 ba c8 3d b4 af 1a 3d 2f d9 1b 3e c9 e4 00 3d
       0.09801224 0.03776522 0.15219568 0.031468187
000090 6a 25 03 3e da 2e c7 bd 9f 23 f2 bd b2 fb 1b be
       0.12807241 -0.09725733 -0.118232004 -0.15232733
0000a0 69 34 2e 3e d4 23 2f 3e 3e 0e db bd 74 16 6f bd
       0.1701218 0.17103511 -0.10696076 -0.058371022
0000b0 73 66 b8 ba 4c 33 f0 3d e5 c8 2f bd 8b 4b 8e 3d
       -0.0014068618 0.11728534 -0.042916197 0.069480024
0000c0 38 80 e5 bc c7 fc a9 3d 2b 7e 20 3e 34 05 ec 3d
       -0.028015241 0.083001666 0.1567313 0.1152443
0000d0 99 e1 33 be c0 1e ed bd 60 8b d9 bb 06 c0 14 3e
       -0.17566527 -0.11578131 -0.0066389292 0.14526376
0000e0 c8 ce 2d be b0 c7 12 be 2c 0a 24 be 91 45 a3 3c
       -0.16973412 -0.14333987 -0.16019505 0.019930633
0000f0 ba 79 99 3c 87 90 cc 3d a6 9e 18 be 6a 0e 2b 3e
       0.018734802 0.09988504 -0.1490427 0.16704717
000100 33 4c 1c 3e de f0 8d bd 22 a3 dd bb f0 83 12 be
       0.15263443 -0.069307074 -0.0067638317 -0.14308143
000110 58 d4 fe 3d bc 54 8c 3c e6 4d fb 3c 90 59 18 3e
       0.12442845 0.017130248 0.030676793 0.14877915
000120 16 d4 09 3e 91 e0 e2 bd 23 21 31 be 4a 3c db 3d
       0.1345981 -0.11077989 -0.17297797 0.107048586
000130 f6 eb fb bd 67 61 06 be 3e 77 1f bd 18 9f 79 bd
       -0.12300865 -0.13123094 -0.038932078 -0.06094274
000140 82 21 9a bd 0d 43 ab 3c 2e 05 59 3d 7b a5 d3 3d
       -0.07525922 0.020905996 0.052983455 0.10334297
000150 2b b1 ed 3d 55 c0 10 3e 17 f2 d1 bd bf e2 d9 3d
       0.11606058 0.14135869 -0.10251253 0.106389515
000160 1a 9f 02 3d 33 36 4f bd 79 9c 56 3d 95 48 2d be
       0.031890012 -0.050588798 0.052395318 -0.16922219
000170 3b 3a 23 3e 90 ad d4 bd 7b 5e c1 bd fd b0 d6 bd
       0.15940182 -0.10384667 -0.09441849 -0.104829766
000180 68 8f a5 3c 3c e8 90 bb 60 5a 68 bd c2 ef f5 3d
       0.020209983 -0.0044222157 -0.056726813 0.12008621
000190 1a ca 93 bd d7 a4 3e bd 42 ef 2e 3d 04 9b 49 3d
       -0.07216282 -0.046543922 0.042708643 0.0492201
0001a0 d6 1f 0c be ba f5 a7 3d fe 6b c1 3c 6e 8e 1f 3e
       -0.1368402 0.082011655 0.023611065 0.15581676
0001b0 e3 b7 0c 3e 9d 57 87 3d 7d a8 03 3e 87 5b 01 be
       0.13742022 0.06608508 0.12857242 -0.12632571
0001c0 55 e6 09 be 4b 76 bc bd 7d 9e c0 3c ac 7d 94 3d
       -0.13466771 -0.0920225 0.023513073 0.072505325
0001d0 bc 73 0f 3e 70 78 33 3c 37 18 12 be ad 9a 03 3d
       0.14008993 0.0109540075 -0.1426705 0.032129932
0001e0 d4 a8 22 be d2 d2 1f 3e 35 6f c7 3d d3 d7 e9 bd
       -0.15884715 0.15607765 0.09738008 -0.11418118
0001f0 86 c5 87 bc b2 79 a5 bd 8e 2f 1b be 5a 00 b5 3b
       -0.016573679 -0.08079852 -0.1515486 0.0055237236
000200 cf ad 23 3e 34 cb c2 3c d6 30 2e 3e 49 66 15 be
       0.15984271 0.023778535 0.17010817 -0.145898
000210 65 e0 32 be 16 87 28 3e c2 31 34 be 9c 2e 98 3d
       -0.17468412 0.16457781 -0.17597106 0.07430765
000220 13 fe f4 3b a3 29 a3 3d 8a d1 0c 3c ff 19 55 3b
       0.007476577 0.07966926 0.00859488 0.0032516716
000230 df 25 87 3d 13 c6 a5 3b 88 f8 0e 3d ff cb bc bd
       0.0659902 0.0050590127 0.034904987 -0.09218597
000240 bb 6c 28 be 7b 77 0f 3e 03 de 11 3e a9 a2 0a bc
       -0.16447727 0.14010422 0.14244847 -0.008461633
000250 14 51 2c 3e bc 31 25 3d 02 ec 1b be 32 af 44 3d
       0.16827804 0.040330634 -0.15226749 0.04801864
000260 36 93 4a 3d ef 67 93 bd e5 13 fb 3d e5 cd 23 3e
       0.049456798 -0.07197558 0.12259654 0.15996511
000270 b1 a4 e5 3d c4 d1 8d 3d e0 4b d8 3d 77 d9 01 3e
       0.11213053 0.06924775 0.10561347 0.12680613
000280 3c d5 30 3e e1 7d 9c bd d2 d3 e6 bd 34 3a de 3b
       0.17268842 -0.07641197 -0.1127087 0.0067818407
000290 3e de 23 be e0 0a e8 3d e5 28 ad 3c df 12 13 3d
       -0.16002747 0.11330199 0.021137664 0.03590667
0002a0 74 93 00 be ac 0b a1 bd 9b 4a 22 be c6 92 1a 3e
       -0.12556249 -0.07863554 -0.15848772 0.15095052
0002b0 1a 51 aa bd 64 26 06 3e b5 4b 1b be 88 12 71 3d
       -0.0831625 0.13100582 -0.15165599 0.058855563
0002c0 ee 54 15 3e 14 8c da 3d ab 94 80 3c 45 15 bf bd
       0.1458318 0.10671249 0.01569589 -0.09330229
0002d0 34 78 cf bb 1f 1d e6 3d b6 1d fa 3c aa 01 c5 3b
       -0.006331468 0.11236023 0.030531745 0.0060121613
0002e0 a9 79 0b bd c2 64 09 3e 52 32 ba bd b1 5d a2 3d
       -0.03405157 0.13417342 -0.09091629 0.079280265
0002f0 56 60 1c be 23 a0 22 3e a5 d5 6a 3d 4c cc 8c bc
       -0.15271124 0.158814 0.057332654 -0.01718726
000300 f8 08 d5 bd 7e 14 32 be bb 35 25 3e 66 0d d5 bc
       -0.10402101 -0.1739063 0.16133778 -0.026007365
000310 ac c8 be 3d 76 6e 29 bc 90 78 fa bd 53 cc 43 bd
       0.09315619 -0.010341277 -0.12230027 -0.04780228
000320 82 5b 17 3d 03 0b 66 3d 2e 1a 75 3b 34 dd cc bd
       0.036952503 0.056162845 0.0037399638 -0.10003129
000330 9b 34 1a be 16 73 10 3e bb b3 1f 3e 6d 4a d4 3d
       -0.1505913 0.14106402 0.15595905 0.10365758
000340 a6 3b 19 be 9a 6f 09 3d e2 d8 a0 bd ef ef 32 be
       -0.1496416 0.033553697 -0.07853867 -0.1747434
000350 08 f7 40 3d 72 b9 6a bd a6 86 9e 3d c2 dc 2b bd
       0.047110587 -0.05730576 0.07740526 -0.041958578
000360 30 cf 4d bd 16 e6 8f 3d 91 36 c4 3b e5 ad 9b 3d
       -0.050246418 0.07026307 0.00598795 0.07601527
000370 e8 bb 15 bd af 43 91 bd c0 f8 88 bd 32 bd 24 3d
       -0.036556154 -0.07092988 -0.0668807 0.040219493
000380 81 61 b2 3d f9 7b f8 bc 9f db fb 3d 58 f5 fc 3c
       0.08710004 -0.030332552 0.12297749 0.030878708
000390 75 d3 24 3e cb cd 09 3e 24 fd e2 bd f9 3a 14 3e
       0.1609629 0.1345741 -0.11083439 0.14475621
0003a0 a4 0a 04 be 8f eb 7c bd cf 32 22 3e 8d 7a f3 3d
       -0.12894684 -0.061748084 0.15839694 0.11888609
0003b0 da 37 6c bd c1 52 63 3d 83 0f f9 3d f1 66 d4 bd
       -0.05767045 0.055498842 0.12161162 -0.10371197
0003c0 04 f0 96 3d 16 15 5a 3c ac 1b fd 3d e6 b8 04 3e
       0.07369998 0.013310691 0.123587936 0.12961158
0003d0 c5 0f d8 3d 6f de 20 3e 26 2f 7e bd e4 45 96 3d
       0.10549883 0.15709852 -0.062056683 0.07337549
0003e0 c1 f0 64 bd f7 a8 b0 3d 20 52 57 3d 5f 1b 32 be
       -0.055893663 0.086259775 0.052568555 -0.17393254
0003f0 d5 10 dc bd fc 13 03 be 33 b6 ea 3d c0 70 db bd
       -0.10745398 -0.12800592 0.11460533 -0.10714865

GAT_layers.1.GAT_heads.0.f.bias f4 [64]
000000 a7 e8 2a bd e8 30 4a 3c 19 0d 55 bd 32 a6 1c 3c
       -0.04172578 0.012340762 -0.052014444 0.009561108
000010 dc 51 91 bd b4 28 ba 3b d4 20 91 3d d6 64 77 3d
       -0.070956916 0.0056811217 0.070863396 0.0603989
000020 05 02 65 bd fa 7e 61 3d 15 27 32 bd 63 50 ae 3c
       -0.05591013 0.055052735 -0.043494303 0.021278566
000030 83 68 80 3d 2b fb 8a bb 3e 61 02 3d 74 6b a4 bd
       0.06269934 -0.0042413673 0.03183102 -0.080283076
000040 6d 17 5c bd 58 f0 70 b9 ea 21 4f 3d 17 1a 2e 3d
       -0.053733278 -0.00022977719 0.050569452 0.04250535
000050 3c d5 8f 3d 6f d8 d0 3c 9d e7 f2 3c a8 1a 92 bd
       0.07023093 0.025493829 0.029651457 -0.071339905
000060 25 e7 a0 bd 19 a5 ef 3c eb 8e 6e 3d 4a 83 9b 3d
       -0.07856587 0.02925353 0.058241766 0.07593401
000070 e1 18 6d bd 53 06 9b 3c fb 8d 73 3c b4 0f 86 bb
       -0.057885054 0.018923914 0.014865394 -0.0040912274
000080 c7 59 14 3d d2 02 47 3c 6b e0 94 3d ed e3 68 3d
       0.03621843 0.0121466685 0.07269367 0.056857992
000090 c4 bd fa ba ca 80 13 bd b0 4c 99 bd ec 77 5d bd
       -0.0019130041 -0.036011495 -0.0748533 -0.054069445
0000a0 a5 d6 84 bc 87 2e 32 bd 0c 20 e6 bc a1 7d a3 3d
       -0.016215632 -0.043501403 -0.028091453 0.07982946
0000b0 ec 5c 95 3d 4c 82 39 3d db 9c 22 3d 92 e1 2a 3d
       0.07293114 0.045290276 0.03970037 0.041719027
0000c0 7b c0 34 bd 8d 06 0b bd 9c ef 8d bd ab 3f 4f bd
       -0.044128876 -0.033941794 -0.069304675 -0.050597828
0000d0 67 53 e4 bb 9f 20 9d 3d 86 4d 21 3d 9a 5b 60 3d
       -0.00696795 0.076722376 0.039380573 0.054774858
0000e0 e5 5a 0d 3d 13 e8 97 3d 9e 08 19 bd 97 67 87 bd
       0.034510512 0.074173115 -0.037361734 -0.06611555
0000f0 2a 55 c3 ba 7d a8 19 bd ab 5f 90 3d 91 36 c4 bc
       -0.00149027 -0.0375142 0.07049497 -0.0239518

GAT_layers.1.GAT_heads.0.w.weight f4 [1, 128]
000000 b5 70 2a 3e a9 4d 35 3e 76 75 37 be 85 b3 2c 3e
       0.16644557 0.17705406 -0.17915902 0.16865356
000010 7d 9c 3b 3e a2 92 0f 3e b9 0d d0 3d 13 aa 08 3d
       0.18321414 0.1402078 0.101588674 0.03336532
000020 07 28 ff bc 8c 19 4b 3e 52 21 32 3e c7 e8 ef 3d
       -0.031147016 0.19833964 0.17395523 0.11714321
000030 36 e7 91 3d 9c 25 dd bd ad 58 88 3d 7e 9c 4d 3d
       0.07124178 -0.10798189 0.066575386 0.05019807
000040 05 a8 24 3e 0a 5a a2 3c 04 14 76 3c 61 66 b9 bd
       0.1607972 0.019818325 0.015019421 -0.0905273
000050 a2 be d0 bd 2b 34 f2 3c 4e 9c a7 bd 49 c4 1c 3e
       -0.1019261 0.029565891 -0.0818411 0.15309252
000060 c4 e2 1a be fe 0a e7 3d 7d ea 17 3e 9b 34 05 bd
       -0.15125567 0.112813935 0.14835544 -0.03252087
000070 cb 35 a2 bd e8 96 2f 3e a1 2a 18 3e 34 ef 46 3e
       -0.079204164 0.1714741 0.14860012 0.19427186
000080 c4 67 4e 3e 23 21 ea 3d 13 45 a6 3d 4c 59 2f 3e
       0.20156771 0.114321016 0.081186436 0.17123908
000090 18 97 1b 3e 97 d1 43 3e f4 dc 43 3e fe 96 68 3d
       0.15194356 0.19122921 0.19127256 0.056784622
0000a0 da 34 4a be 27 0a 53 3e 2e 62 aa bd c2 ca 02 3e
       -0.19746724 0.20609342 -0.083195075 0.12772658
0000b0 67 e2 c3 3d 16 36 f1 3d ba df a9 bd fe bc a7 3d
       0.09564667 0.11777894 -0.082946256 0.08190344
0000c0 68 cb 5b be bb 3e 21 be fb 3e ab 3c e2 71 32 bd
       -0.21464312 -0.15746586 0.020904055 -0.04356564
0000d0 a2 2a e3 3d a8 c2 ed bd 24 30 49 bd d6 ed 2c be
       0.11092116 -0.11609393 -0.049118176 -0.16887602
0000e0 7e 12 2a 3e 32 54 59 be 59 3b 64 3c 78 1d 0d be
       0.16608617 -0.21223524 0.013930165 -0.13780773
0000f0 37 29 19 3e 24 72 de 3c 79 f9 56 3e 6a f0 1f 3e
       0.14957128 0.027154036 0.20993604 0.15619054
000100 d4 8c 15 be 24 74 fd bd 56 c2 9e 3c 05 52 2e 3e
       -0.14604503 -0.12375668 0.019379776 0.17023475
000110 55 06 f9 3d 76 48 b3 3d 02 97 9c 3d 7b 6b 4f 3e
       0.12159411 0.08754055 0.0764599 0.20255844
000120 53 01 21 bd e2 53 19 be 47 b5 24 3e a2 5c d2 bd
       -0.039307903 -0.14973405 0.16084777 -0.102715746
000130 23 da 91 3d 59 1b 50 3e 96 89 9e bd 4c c1 5c bd
       0.071216844 0.20322932 -0.07741086 -0.05389528
000140 b4 db 90 3d 1c aa ba bd 17 3d 8c bc 2f da 15 3d
       0.07073155 -0.09114477 -0.017118974 0.03658503
000150 00 24 f1 3d e9 6a 03 bd 4b 9d 8e bd ca 1c ad bc
       0.117744446 -0.03208438 -0.06963595 -0.021131892
000160 88 5b 55 be 92 30 12 be 9a a2 25 be e8 8a 99 3d
       -0.20835698 -0.1427634 -0.16175309 0.074971974
000170 84 ac 82 3d 74 ad 05 be bc a6 22 be 30 c9 07 3c
       0.06380561 -0.13054448 -0.15883917 0.008287713
000180 04 73 03 3e ff 10 f8 bd 4f bb 01 be df 9a a3 3d
       0.12836844 -0.12112617 -0.12669109 0.07988524
000190 85 55 54 be 1d c0 8f 3d ea 16 0b 3e b1 30 56 3e
       -0.20735748 0.070190646 0.1358296 0.20917012
0001a0 fc b8 5e bd 2f 4b 4e 3d cf 07 a4 ba e0 0c 08 3e
       -0.054375634 0.05036467 -0.0012514534 0.13286161
0001b0 4c a1 0d 3e c4 6d 83 3b fe f5 82 bd 8c 5a e4 3d
       0.13831061 0.004010888 -0.063945755 0.11150083
0001c0 96 d3 d0 bd 86 fa 1c 3e cc cc 96 bd 1b 88 de bd
       -0.10196607 0.15329942 -0.07363281 -0.10865804
0001d0 f4 d1 b7 3d 50 7c 18 3e f4 fd 59 3e 89 d6 b5 bd
       0.08975592 0.14891171 0.21288282 -0.0887881
0001e0 29 f5 c5 bd d2 69 99 3d 8c cc 24 3d 17 f3 32 be
       -0.09665901 0.07490887 0.040234134 -0.17475544
0001f0 43 c5 5c be 52 8a 69 bd 18 34 95 3d a3 46 df bd
       -0.21559624 -0.05701668 0.07285327 -0.10902145

GAT_layers.1.GAT_heads.1.f.weight f4 [64, 128]
000000 ea 83 0c be e7 1d 4d bd a7 1c c5 3d fb 9d 0b be
       -0.13722196 -0.050077345 0.096246056 -0.13634484
000010 74 26 0a bd be 02 30 be 0a 04 4b bd 41 4b 99 bd
       -0.033728078 -0.17188546 -0.0495644 -0.07485057
000020 43 9d be 3b bc 21 16 3e e0 f0 1e be f3 10 21 3e
       0.005817087 0.14661306 -0.15521574 0.15729122
000030 1c 84 07 be c0 9c 0e be 48 7c b8 bd bb 89 06 3e
       -0.1323399 -0.13926983 -0.0900808 0.13138478
000040 5e 43 4b bd 0d ee 1c bd 86 e1 0e be 33 44 2b 3d
       -0.049624793 -0.03831296 -0.13953218 0.041813087
000050 9a 40 f6 3c 36 2e ef 3d 10 6d 2f be a7 db 96 bc
       0.030060101 0.11678736 -0.17131448 -0.018415285
000060 ec f8 b7 3d 79 94 9d 3d 97 00 6d 3c 19 61 b4 bd
       0.08983025 0.076943345 0.014465473 -0.088075824
000070 a8 d1 ca 3c c8 09 c5 bd c3 2e 8a 3d a4 fa a1 3d
       0.024758175 -0.09621006 0.067472 0.07909134
000080 4e a4 c3 bd 31 d9 06 3e ec 22 27 bd ab 18 ec bd
       -0.09552823 0.1316879 -0.04080479 -0.115281425
000090 ed 67 82 3b 07 69 95 bd ee d7 6c 3b 18 ec 6e 3d
       0.003979674 -0.07295423 0.0036139446 0.058330625
0000a0 6c 77 5d bd 89 0b fc 3d 91 4a e5 bc ae 0b 8d 3d
       -0.054068968 0.12306888 -0.027989658 0.06886993
0000b0 b6 d5 59 3d 54 88 aa 3d 3a ac 1c 3e 20 45 ba bd
       0.053182326 0.08326784 0.15300074 -0.09095216
0000c0 08 cc 1e be d9 35 26 be 15 7f d0 bd 1b dc 3e 3d
       -0.15507519 -0.16231479 -0.10180489 0.046596628
0000d0 07 a7 0b 3e 30 e3 c0 3d ef d8 ba 3d 08 72 22 3e
       0.13637935 0.094183326 0.09123408 0.15863812
0000e0 01 22 23 be c8 64 08 be 35 27 00 3e b0 ed 95 bd
       -0.1593094 -0.13319695 0.12514956 -0.07320726
0000f0 73 3d 12 be 4c e6 80 bd 99 6a ce 3d 41 a9 fc 3d
       -0.14281254 -0.06293926 0.10078926 0.1233697
000100 a8 d0 7e 3d 87 dd b4 bc 4e a7 04 be b3 40 d7 bc
       0.06221071 -0.022078289 -0.12954447 -0.026275968
000110 7e 5d 5f bd bd b4 d1 3d 97 10 0c bc 7b 8c 55 bd
       -0.05453252 0.10239551 -0.008548877 -0.052135926
000120 a6 79 a1 3d bd 2d 79 3d 9d 1b d4 3b 43 6b a8 3c
       0.07884531 0.060834635 0.0064730183 0.020558959
000130 25 4f 1d 3a 18 db 99 bd ef 5d b1 3d ea 1c 48 bd
       0.0006000868 -0.07512492 0.086604945 -0.0488557
000140 2a d3 24 3e 86 d5 91 3d 00 50 09 3d 57 f9 a3 bd
       0.16096178 0.071208045 0.03352356 -0.08006542
000150 c2 43 16 3e 72 9a 44 3d 08 d2 87 3b 74 25 1a be
       0.14674285 0.047998853 0.0041449107 -0.1505335
000160 40 ce ad bc 91 5b 6c 3c 4d 03 3c bd 27 80 22 3c
       -0.021216512 0.014426128 -0.045901585 0.009918249
000170 7b fd 92 bd 34 a9 90 bd 11 c4 24 bc 50 e6 10 be
       -0.07177254 -0.07063523 -0.0100565115 -0.14150357
000180 be 6d 2a be a0 d5 86 bd 30 78 5f bd 4b 3c a0 bd
       -0.16643426 -0.065837145 -0.05455798 -0.07824
000190 cc 27 b1 bc c2 80 c4 bd 2e ea 90 bd c3 b5 58 3d
       -0.021625422 -0.09594871 -0.07075916 0.052907716
0001a0 26 8e 19 be 3b 7d e4 3d cd bd 1f 3e ac 04 22 be
       -0.14995632 0.11156698 0.15599747 -0.15822095
0001b0 63 f7 76 3c 01 7e 27 3e 7f 02 c6 3c 57 67 15 bd
       0.01507363 0.1635666 0.024171112 -0.036475506
0001c0 a3 d8 3e bd 40 a7 98 3d 84 06 3e bd 8e d7 af bd
       -0.04659332 0.074537754 -0.046392933 -0.08586036
0001d0 11 0f 8e 3d f2 80 1c be 4f 22 82 3d 8a 26 2d 3e
       0.069364674 -0.15283564 0.063542 0.16909233
0001e0 13 2e f8 bb 89 ed 06 3e 60 7b e4 3d 93 a5 74 3d
       -0.007573852 0.1317655 0.111563444 0.059728216
0001f0 8d fd 48 3d 0d ab fd 3c 9f 9a 7b 3d ce 21 c2 bd
       0.04906993 0.030965352 0.061426755 -0.09479104
000200 1b fe 0f be 32 ef 9b 3c 8f 66 46 3c 2a be b8 bd
       -0.14061777 0.019034956 0.012109413 -0.09020646
000210 1f 18 d4 bc 9c e8 34 be 8c 78 bc bd 00 ec 93 3d
       -0.025890408 -0.17666858 -0.0920268 0.07222748
000220 bb aa 13 be a6 ce f9 bc 63 fc 64 bc e9 b4 e3 bd
       -0.14420597 -0.030494045 -0.013976189 -0.1111849
000230 d6 31 f0 bd 59 8e 07 be 15 77 6a 3b 58 18 04 3d
       -0.117282555 -0.13237895 0.0035776545 0.03224978
000240 39 47 80 3d e2 43 ee 3c bb 5b 05 be 3b 4c 81 3d
       0.06263585 0.029085103 -0.13023274 0.06313368
000250 06 96 2a 3e 4d 6c 97 bb 9d 8d 29 be ae 29 b0 bd
       0.16658792 -0.0046210648 -0.16557927 -0.086017
000260 92 0f 1b 3e d9 cb 32 39 c2 1f c4 3d c4 63 b3 bd
       0.15142658 0.00017051342 0.0957637 -0.08759263
000270 00 31 e3 3d e8 9d db bc e9 4c 0e 3e 7e f0 8b bd
       0.110933304 -0.026808694 0.13896526 -0.068329796
000280 88 9c 15 3e dd df 0c be 23 90 b1 3d 21 35 05 bd
       0.14610493 -0.13757272 0.0867007 -0.03252137
000290 86 9f eb 3c 15 aa f0 3c 2d 7f 2b be 77 19 ea bc
       0.02876259 0.029377976 -0.16747732 -0.028576596
0002a0 f4 ea 90 3d 4b 16 31 3d 91 63 3e bd 49 f1 06 be
       0.07076064 0.04323415 -0.046481673 -0.1317798
0002b0 10 2c 34 3e f6 23 89 3d 42 5e fe bd 3b 97 0c 3e
       0.17594934 0.06696312 -0.12420322 0.13729565
0002c0 89 cc 0e bd 1e c5 e3 3d 2e c5 05 bb 6b 51 84 bc
       -0.03486303 0.111215815 -0.0020411718 -0.016152104
0002d0 02 cb 56 3d 9a f9 c7 3c 38 e4 26 be 2e 17 07 be
       0.052439697 0.024411011 -0.16297996 -0.13192436
0002e0 cd 5f 1e bd 9b c6 f9 bb ec 8c 2d be 85 53 da bd
       -0.03866558 -0.0076225526 -0.16948289 -0.10660461
0002f0 8f 56 88 3d cc 2c de bc fd 1d 0a bd c0 16 20 3e
       0.06657135 -0.02712097 -0.033720005 0.15633678
000300 91 ea 20 3e 7d ab 05 3e fa e1 fc 3d e2 33 03 be
       0.1571448 0.13053699 0.12347789 -0.1281276
000310 54 a8 b0 3d 7a 07 05 bd 8c 0c cf bc 98 21 a3 3c
       0.08625856 -0.032477833 -0.025274538 0.01991348
000320 a4 01 1f 3d 50 4d 64 3d 3c f0 81 3d 43 fb 23 3e
       0.038819924 0.055737793 0.06344649 0.16013817
000330 37 bd 15 be 3d c5 b9 3d 49 84 b9 3d 69 c8 d4 3c
       -0.14622961 0.09070823 0.090584345 0.02597447
000340 42 28 92 3d c5 9c fe 3d 63 a0 16 bd 8e 71 31 be
       0.07136585 0.12432245 -0.03677405 -0.17328474
000350 b4 67 82 3c 04 a6 df 3d c9 10 30 3e e9 11 02 be
       0.01591859 0.10920337 0.17193903 -0.12702145
000360 17 c6 f6 bd 1a 98 94 bd de d5 25 be 03 16 13 be
       -0.120495014 -0.072555736 -0.16194865 -0.14363866
000370 d5 d3 5d 3c 73 6e 25 be b3 63 c2 bc fd 62 da bd
       0.013539274 -0.16155414 -0.02372918 -0.10663412
000380 15 72 1c bd a8 65 80 3d 63 57 01 3e bc 98 b7 bd
       -0.038194735 0.062693894 0.12630992 -0.08964679
000390 4b 2a 07 3d b2 e7 f7 3d 4a 1c 91 3d ed 61 e9 3d
       0.032999318 0.12104739 0.07085474 0.11395631
0003a0 dc 91 d1 bc a7 17 0b 3e e3 dc 00 bd dc aa 2b be
       -0.025582246 0.13583241 -0.031460654 -0.16764396
0003b0 07 7e 85 3d 7b a5 22 be 6d bb f5 bd eb 8d dd 3c
       0.065181784 -0.15883438 -0.11998639 0.02704521
0003c0 dd f2 10 3e f3 95 17 be 8a bb 12 3e 9d a9 cb 3d
       0.14155145 -0.14803295 0.14329353 0.099444605
0003d0 c7 d0 90 bd 2a f1 a9 bd bb 7f be bd 27 a5 1c bd
       -0.07071071 -0.082979515 -0.093017064 -0.03824344
0003e0 ae 0f 47 3d e4 29 56 3d f3 c4 09 3e cd e3 b9 bc
       0.048598938 0.052286044 0.13454036 -0.022691632
0003f0 38 3b 31 3d 10 a3 25 be 12 79 0f bd 2f d4 0a 3e
       0.043269366 -0.16175485 -0.03502757 0.13557504

GAT_layers.1.GAT_heads.1.f.bias f4 [64]
000000 d5 9f 2a bd 19 f4 5d bd f2 49 95 bd c1 c2 82 3b
       -0.041656334 -0.054187868 -0.072894946 0.0039905016
000010 95 10 05 3d da 5b c9 3c 14 76 64 bc ee 94 63 bd
       0.032486517 0.024579931 -0.013944168 -0.055561952
000020 5b 77 3e 3d 01 d3 ce 3c 51 8e 1a 3d b6 7e 9b bd
       0.046500545 0.025247099 0.03773338 -0.075925276
000030 4c 5b 5c 3c 11 5a 6c ba 6a 12 e6 bc 0d c6 a7 bd
       0.013449501 -0.00090161065 -0.028084952 -0.08192072
000040 c5 8e bd 3c 81 cf 99 3b 25 44 90 bd 20 d3 55 3d
       0.023139367 0.004693926 -0.070442475 0.052203298
000050 16 4d 9f 3d b6 06 ac 3d 13 28 8e bd 3f b5 01 3c
       0.07778375 0.083997175 -0.06941237 0.007916748
000060 a0 40 95 3d f6 2d 78 3d c8 2f 82 bc 88 3d 28 bd
       0.07287717 0.060590707 -0.015891925 -0.041074306
000070 17 44 51 bc 42 dc b2 bd 76 01 79 bd 03 ef 85 bd
       -0.012772582 -0.08733417 -0.06079241 -0.065397285
000080 3e fe ae 3d 65 d1 5c bd 1a cb ac bd 3f 24 86 3d
       0.085445866 -0.05391063 -0.08437176 0.06549882
000090 eb c9 14 3d 28 39 fa bb 4a a7 c4 bb f1 4b a5 bc
       0.036325376 -0.007636208 -0.0060013877 -0.020177813
0000a0 4f 78 fe bc 13 38 fa 3c 1f fd 9c 39 1f 10 2c 3d
       -0.031063227 0.030544316 0.0002994323 0.04200756
0000b0 18 74 46 3d 21 4f c9 3c f8 1a ff 3b b1 15 ab bd
       0.04845056 0.024573864 0.0077851973 -0.08353747
0000c0 f4 ec a1 bd 22 21 8e 3d d5 6e e9 bb 46 3e 56 3d
       -0.07906523 0.06939913 -0.007123808 0.052305482
0000d0 fe 7b 20 bd c8 35 1c 3d 5a d6 6e 3d f8 f0 2e 3d
       -0.03918075 0.038137227 0.05830989 0.042710274
0000e0 e9 62 ac 3d b2 01 57 bd 4e 7f 8d 3d 8b 0a 5a bd
       0.08417303 -0.05249185 0.06909047 -0.05323271
0000f0 50 f8 84 bb 02 bb 63 bb 65 a0 dc bc 31 4b 14 3c
       -0.0040579215 -0.0034748917 -0.02693195 0.00905113

GAT_layers.1.GAT_heads.1.w.weight f4 [1, 128]
000000 e0 31 4e be 54 32 24 3d 21 f2 08 be c7 08 4e 3e
       -0.20136213 0.04008706 -0.13373615 0.20120536
000010 7e 69 f2 3d f6 ca 14 3e 33 d1 2d 3e 26 dc f7 3c
       0.11836527 0.14530548 0.16974334 0.030256342
000020 03 0c 45 3e bb 4f 2f 3e 44 29 1e bc 26 b7 3c be
       0.19242863 0.17120259 -0.009653393 -0.1842924
000030 63 60 43 be 2b af 7c bd 9b 7d 30 3e e7 13 59 be
       -0.19079737 -0.06169049 0.17235415 -0.21198998
000040 51 c9 39 3e 8d 16 59 3b 65 8e 0c 3e 9a 2f 13 be
       0.18143202 0.0033125014 0.13726194 -0.14373627
000050 79 fb 1c 3e f3 cf 13 3e 4b ab fe bd 65 52 02 be
       0.15330304 0.14434795 -0.12435015 -0.12726744
000060 3a a1 8c 3d c3 6c 98 3d f3 9e 27 3e 14 1d fc 3d
       0.06866689 0.0744262 0.16369228 0.12310234
000070 1b 98 27 be f6 6e 5c 3d 1c 4c 93 bd 96 a2 27 be
       -0.16366617 0.053816758 -0.07192251 -0.16370615
000080 09 c0 15 3e 23 3a bf bc 2a 82 09 3e 75 e6 b4 3d
       0.14624037 -0.023343151 0.1342856 0.08833019
000090 64 a3 82 3d 08 20 0b 3e fe ab 53 3d 11 fd 01 be
       0.063788205 0.13586438 0.051677696 -0.12694193
0000a0 8f 40 42 be 06 61 1c bd da b1 09 3e e6 a3 2a 3e
       -0.1896994 -0.038178466 0.13446751 0.16664085
0000b0 cc af 2e be 9e 68 0b 3e be a8 02 3e 33 46 32 3e
       -0.17059249 0.13614127 0.12759683 0.17409591
0000c0 ec 3d 4d 3d 7d 26 34 bd c0 2c 82 bd b4 38 59 3e
       0.05010788 -0.043982018 -0.06356192 0.21213037
0000d0 3d d2 3c 3e c0 76 1a 3e 3c 35 0e 3e 1e 5b 45 be
       0.18439575 0.15084362 0.13887495 -0.1927304
0000e0 a7 91 1d 3b 21 b7 bf 3d 83 5c 57 be 3a 7a a8 3d
       0.0024043114 0.09361101 -0.21031384 0.08226438
0000f0 fa 0d 4b bd e5 b2 0a 3e eb 75 51 be 11 04 56 be
       -0.049573876 0.13544805 -0.20455138 -0.20899989
000100 9f ea 31 3c 0e a7 c9 bc e8 8e f3 bd ec 85 9b 3d
       0.010859161 -0.02461579 -0.118924916 0.07593903
000110 78 2a 71 3c ac 77 50 be 75 84 b0 bd af f0 4a 3e
       0.014719598 -0.20358151 -0.08619014 0.19818376
000120 1f 13 a6 bc 49 7a 4b be da f2 25 be 49 a7 24 be
       -0.02027279 -0.19870867 -0.16205922 -0.16079439
000130 fb 53 31 bd 06 39 fc bd 74 44 83 bd 14 d4 1d 3b
       -0.04329298 -0.12315564 -0.06409541 0.0024082707
000140 9d 4c 0e 3e 95 aa 21 be 7b b0 2d be 20 62 6e 3d
       0.13896413 -0.15787728 -0.16961853 0.058199048
000150 8b 3e aa bd 97 ce f1 3d 10 a0 9d bd 7c 22 02 3e
       -0.083127104 0.11806982 -0.07696545 0.12708467
000160 86 bb 62 3d 21 4f 3c 3d 6c 44 2f be 42 a6 21 3e
       0.055354618 0.0459739 -0.17115945 0.15786079
000170 84 50 54 3e 51 cf 52 3e c1 5d 0b 3e 75 9b 75 bc
       0.2073384 0.20586897 0.13609983 -0.014990677
000180 26 4a 21 3e a5 66 e8 3d 5b 8f 1e bd 70 d8 37 be
       0.15750942 0.11347703 -0.038710933 -0.17953658
000190 d0 4c 3f be e9 6f 1b 3d c6 f4 0e 3d e5 09 4c 3e
       -0.18681645 0.037948523 0.034901403 0.1992565
0001a0 21 52 e0 3b 6c 14 39 be 2b b9 4b be b5 74 1e be
       0.006845728 -0.18074197 -0.19894855 -0.15474208
0001b0 88 89 21 3e dc 01 39 3e b3 7d 23 3d 65 83 c5 3d
       0.1577512 0.18067116 0.039914798 0.09644202
0001c0 90 21 2d be d9 0d 6a bd 48 8d 96 3d 9b 22 f5 3d
       -0.16907334 -0.057142112 0.07351166 0.11969491
0001d0 48 2f 21 be 9f 88 c3 bb 22 8a 13 be b6 86 59 be
       -0.15740693 -0.0059672142 -0.14408162 -0.21242794
0001e0 33 38 43 3e ec 80 04 be e6 8e 59 be 77 b4 67 3d
       0.19064407 -0.12939805 -0.21245918 0.05656859
0001f0 0f 2e 7b bd 91 d3 d0 bd c3 bf 1b bd 97 0e 11 bb
       -0.06132322 -0.10196603 -0.038024675 -0.002213394
