SLIC_GAT/best0.pt (torch, 580781 bytes, 30 tensors)

GAT_layers.0.GAT_heads.0.f.weight f4 [32, 124]
00000000: 8d35 f73c c79b 84bd 6d16 c2bd dacf 5c3d
00000010: 09b8 00be 9e14 3f3e d671 24be b0e8 313e
00000020: f72e 2abe 400f fa3d 4be7 21be 071c 3ebe
00000030: 841e 083e 35e0 23bd 137c 203e a413 bc3c
00000040: 63f0 2ebe 7af4 44bd 5637 55bc faf8 dabd
00000050: 2001 1dbe e40d 1d3d 9e14 2bbe 4cc5 1b3e
00000060: a186 81bd aa63 393d 19f5 023e b82d a3bb
00000070: cc8d 503d 4ec9 d9bd cbfe 013e ab1d c43d
00000080: 024c 513c a58a 4d3d d931 1e3e 6283 1c3d
00000090: a874 3b3e 35a5 cb3c fad2 183e 62ec e73d
000000a0: 6ffe a53d b806 31be e9b1 f23d 0851 0bbe
000000b0: ea3d d43d 7b06 303e 00a7 43be faf4 a93d
000000c0: dff4 99bc 5db2 0f3d 5db6 1b3e 5a16 343e
000000d0: e9e3 9cbd c96c ab3d a9bc 0bbe a5f1 b33d
000000e0: 07eb 2b3e 14d8 2abd 7f8c a43d dd0c dc3d
000000f0: 94dc 6b3d 51d0 853d 2c9b 4e3d f4b0 03bc
00000100: 1845 d83d 0161 95bd b939 523d 4824 0bbe
00000110: 2ab1 f5bd c454 c9bd b070 20be b14d f13c
00000120: 1b43 d5bd 5d3c 013e dcbc e9bd d014 dd3d
00000130: ea2d 453e 1d93 3bbe 2d56 b3bd 7b69 8fbd
00000140: 68c3 e7bc 4120 8fbd 06f4 6d3b 04dd 3ebe
00000150: 11ea 18be 5043 dcbc 1102 083b b0e5 513d
00000160: 873c 183e 3b80 cebd 6f44 203e ed60 3dbe
00000170: ee99 ae3d 6b06 253e 6b24 263e d197 0cbe
00000180: c72b 8a3d 3464 3ebd ab6d 873d 6945 303e
00000190: 2ae6 7e3d 1b45 ddbd f8bd 033e 8383 173e
000001a0: 7f43 a0bc d699 f7bd bed0 b23d 1693 8b3d
000001b0: dc12 dabd 2d3d 0e3c e3c2 eb3c fa09 273e
000001c0: 6ad4 d0bd fdb5 0bbe 83bd 13bd 7512 fe3d
000001d0: 95cc 18be 9f88 6cbc 97aa 323e 4b02 273e
000001e0: 9d5e 1a3e c3a8 173e 77a3 293e c649 1dbe
000001f0: 6d8d 9f3d 7964 a83d 5ce8 843d ef29 0e3d
00000200: d759 ac3d 21e7 a7bd 0fb3 e8bb 4998 5d3d
00000210: 0838 283e 4017 df3d 3d95 b13d 6af4 033e
00000220: e303 8cbd 0d8f 86bd 3983 073e f13d b83d
00000230: 87e1 03be d005 ffbd d5a8 3dbe 0c2d f33d
00000240: bfff 513b 6978 38be 7d72 23be 563c fb3c
00000250: a055 f43c 5e90 eebd db78 9a3c 2645 0a3e
00000260: 23ab c83d 4a37 a03c c884 393e 01f8 e03d
00000270: 8263 fb3b 4f0e 3fbd fdcb 16be 7fb2 43be
00000280: 366f 44be 504b fd3d 4108 27bd f863 8b3c
00000290: 52d1 1e3e fcc9 5fbd 2eab f9bd 9939 2bbe
000002a0: 95e9 3d3d 9178 103e 95b6 9e3d f480 373e
000002b0: 9d19 3dbe 6a78 af3d 6a3d f43d 9962 193e
000002c0: 5b1b 92bd 4884 153d 893c a0bc d1a7 443e
000002d0: 145f 27be b132 26be ebc5 2b3d 39e4 573d
000002e0: e3c7 b13d 1401 ffbd fe71 e43d 0d0f af3d
000002f0: ad96 9ebd 17ee 163e 94ab ecbc 82e2 38be
00000300: 6670 45bd 64fb 5c3d f3eb f2bd 43d7 e23c
00000310: 18b3 cf3d 24d5 21be 579d c9bd 13f1 21be
00000320: 21d2 46be c681 3abe d794 733d d7ac fa3d
00000330: 5153 ba3d c0b6 103e 51ce 0ebe 1b3f 3a3e
00000340: 0c47 2e3d 09ae ac3d e4ac f1bd 3a0a 47be
00000350: 05aa 263d 0232 123e 6cac 34bd 0058 9d3c
00000360: 8a8f 163e 416e 0fbe 8726 303e c9c3 e43d
00000370: b9c6 c9bd 9325 d23d 23ef c53d 526e 3fbe
00000380: 3a56 ccbd 7b8d 423d 06fa c0bd f2be 4fbd
00000390: 13fe 7bbd eada 9a3c c249 44bc 1a92 26be
000003a0: 31b2 2c3d bdf5 213e 1f42 10be 059b 87bd
000003b0: 9d80 11be b3ea 34be a695 213e 608d d8bc
000003c0: c575 02bd 4bbd 3abd 2f8e 3a3e aecd abbd
000003d0: 9ba2 5dbd d76e 2bbe 261f 1d3e 4402 0bbe
000003e0: 8cc9 35be a1ee 92bd ba86 2c3e 16b5 f4bd
000003f0: 27e6 a1bd 76d6 c83d 136c d5bc 17ab febd
0.030176902 -0.06475025 -0.09476934 0.05390916 -0.12570204 0.18660209 -0.1605905 0.1737392
-0.16619478 0.1220994 -0.15810888 -0.18565379 0.13292891 -0.040008742 0.1567233 0.022958584
-0.17083888 -0.048084714 -0.013013681 -0.1069202 -0.1533246 0.038343325 -0.16707084 0.15211982
-0.063245066 0.045261063 0.1278881 -0.0049798153 0.050916478 -0.10634099 0.12694852 0.09575971
0.012774469 0.05018105 0.15448703 0.038211234 0.1830622 0.02485905 0.14924231 0.11324383
0.0810517 -0.17287719 0.1185034 -0.1360513 0.10363372 0.17189972 -0.19106674 0.08298679
-0.018793521 0.03508221 0.15206285 0.17586651 -0.07660658 0.083703585 -0.13646187 0.087863244
0.16788875 -0.041709974 0.0803461 0.10744641 0.057583407 0.06533874 0.050440952 -0.008037794
0.105600536 -0.07293893 0.05132458 -0.13588059 -0.11996682 -0.09830621 -0.15667987 0.029455991
-0.1041319 0.12620683 -0.11412975 0.10794985 0.19255796 -0.18317838 -0.08756671 -0.07002541
-0.02829142 -0.06988574 0.003630878 -0.18638998 -0.14933039 -0.026887566 0.0020753185 0.051244438
0.1486684 -0.10083052 0.15651105 -0.18494006 0.085254535 0.1611573 0.1622483 -0.13729788
0.06746631 -0.04648228 0.066127144 0.17213978 0.06223122 -0.108041964 0.12865436 0.14796261
-0.019563435 -0.12089889 0.08731221 0.06815164 -0.106481284 0.008681578 0.028779453 0.163124
-0.10196765 -0.13643642 -0.036069404 0.12405864 -0.14921792 -0.01443687 0.17447887 0.16309468
0.15075155 0.14810471 0.16566263 -0.15360174 0.07790647 0.08222289 0.064896315 0.03470796
0.08415573 -0.08198381 -0.0071014236 0.05410031 0.16427624 0.108931065 0.08671043 0.12886205
-0.06836679 -0.065702535 0.13233651 0.089961894 -0.12879 -0.124522805 -0.18521436 0.118738264
0.0032043306 -0.18014683 -0.15961643 0.030668419 0.029825985 -0.116486296 0.018856457 0.1350294
0.09798267 0.019557614 0.18117058 0.10984803 0.0076717744 -0.046644505 -0.14726253 -0.1911106
-0.19183049 0.1236788 -0.040779356 0.017015442 0.15509537 -0.054635987 -0.12190853 -0.1672119
0.04636534 0.14108492 0.077496685 0.17920285 -0.18466802 0.08567889 0.11925776 0.14979018
-0.07134124 0.036503106 -0.019560115 0.19204642 -0.16344863 -0.16230275 0.041936796 0.052707884
0.086807035 -0.124513775 0.11154555 0.085477926 -0.07743583 0.14739262 -0.028890409 -0.18055156
-0.048202895 0.053950682 -0.1186141 0.027690535 0.10141581 -0.15803963 -0.09844463 -0.15814619
-0.19416095 -0.18213567 0.059468117 0.12239998 0.090979226 0.14132214 -0.13945891 0.18188135
0.042548224 0.08431632 -0.118005544 -0.19437495 0.040689487 0.14276889 -0.044109747 0.019207
0.14703193 -0.14006902 0.17202197 0.111701556 -0.098523565 0.10261073 0.09664752 -0.18694428
-0.09977384 0.047498208 -0.09422688 -0.05071921 -0.0615216 0.018903214 -0.011980476 -0.16266671
0.042162124 0.15816398 -0.14087723 -0.066213645 -0.14209218 -0.17667656 0.15779743 -0.0264346
-0.031850595 -0.04559068 0.18218301 -0.0838884 -0.05411015 -0.16741501 0.15343913 -0.13575083
-0.17752665 -0.07174421 0.16848269 -0.11948602 -0.07905226 0.0980653 -0.02605251 -0.124349765

GAT_layers.0.GAT_heads.0.f.bias f4 [32]
00000000: 7cf4 64bc f835 acbd 73c5 6dbd 869a 863d
00000010: bb86 b9bc 6f75 2fbd b28d 9c3d 01a1 6abd
00000020: 1473 513d 67c2 29bc 14eb 56bd 4f4f 70bb
00000030: f228 99bc 7c15 9bbb 1ca9 22bc 27b2 d8bb
00000040: bda1 9a3d a218 a03c 4751 94bd 1816 783d
00000050: 364e 33bd 8203 b2bd efb1 853c 79cc a6bd
00000060: 64c6 9ebd b1f9 9f3c d2f7 95bc af3e 703d
00000070: 39e2 793c 9450 b03d 9372 7bbd ff83 863c
-0.013974305 -0.08408731 -0.05804963 0.06572442 -0.022647252 -0.042836603 0.07644214 -0.05728245
0.051135138 -0.010361291 -0.05247028 -0.0036668365 -0.018696282 -0.0047327857 -0.009928014 -0.0066130343
0.075503804 0.019542996 -0.07242065 0.060567945 -0.04377576 -0.08692075 0.016320197 -0.08144469
-0.07752684 0.019528242 -0.018306646 0.05865353 0.01525169 0.08609119 -0.061388563 0.016420363

GAT_layers.0.GAT_heads.0.w.weight f4 [1, 124]
00000000: 1021 403e ef0d 80bc b90b e23d 45ab 1ebe
00000010: 2609 54be a110 83bd 4648 e4bd 4446 2dbe
00000020: ff5f f5bc 5eb7 3abd ff81 583e 5bfb 3f3e
00000030: 7a70 b43d 707d 9b3d ff9c ee3d baa2 4fbe
00000040: 330a dabd dd22 30be 3f21 94bd 4789 c93c
00000050: a268 fdbc 4092 3a3e 0291 44be 069f a53d
00000060: c440 f53d 87ae 9b3c fe21 f33d a895 d0bd
00000070: be4b 393e d52a 143e 20b1 233e 5bc8 f13d
00000080: 6464 063e f089 b4bc 661b 303d f710 57be
00000090: 4298 4f3d d1c7 c83d 5766 c93d e936 3d3d
000000a0: 854b 46be 132f 2d3c 7a2c 4c3e 1cf8 de3d
000000b0: 8015 dd3d aaa0 313e d5ad b03c 3c7d 1b3e
000000c0: 12fd 833d b465 523e 3801 ec3d a420 023e
000000d0: 4744 793b a64d d5bd ef16 eb3d 8892 4c3e
000000e0: 43b3 153e 7689 bc3d a154 ea3d 4d45 0c3e
000000f0: 6d11 b93d bbbe b83d 3bd3 ba3d a1e3 103e
00000100: c674 91bd 9841 99bd 58f0 813c 83ce 83b8
00000110: 78b8 5f3d cd8d c93d 25b2 73bc 68de 62be
00000120: 8569 a33d 15ba c13d 9112 4b3e 1b73 193e
00000130: 8ebc 10be 4ad2 f03d f964 36bd b14a 16be
00000140: f685 01be 4661 533e 583b 23be 9e99 3ebb
00000150: cdc6 d03d 231a e33d e9fb 183e bf65 2c3e
00000160: 1796 063e 90ff 3f3e c690 223c adb5 ad3d
00000170: 721f e6bd 964f b43d 6198 32bb d824 37be
00000180: 4180 2abd f561 a03d 2bab 37be 73ab 9cbd
00000190: 5502 373e 33ff fb3c 9690 cc3d debb c93d
000001a0: be39 c9bc db44 19be f287 043e e452 59be
000001b0: de4d eb3d aad3 3b3e 28b0 443e 8203 273e
000001c0: 73a9 c93d c6f3 4d3e 579d 2f3d 82fe 113e
000001d0: f27a a03c aea4 243d 2d56 5dbe c165 30be
000001e0: bb2b 2e3e 8d3c 393e 5885 0f3e 793a 833d
0.18762612 -0.015631644 0.11037392 -0.15495022 -0.20706615 -0.06399656 -0.111465976 -0.16921335
-0.029953001 -0.04558503 0.2114334 0.18748228 0.08810516 0.07592285 0.116510384 -0.20276919
-0.106464766 -0.172008 -0.07232904 0.024601592 -0.030933682 0.18219852 -0.19195941 0.08086972
0.11975244 0.01900412 0.11871718 -0.10184795 0.180953 0.14469464 0.15985537 0.11805793
0.13124233 -0.02203843 0.04299488 -0.21002565 0.050682314 0.09803737 0.09833973 0.046194945
-0.19364746 0.010570305 0.19938841 0.10887167 0.107951164 0.17346445 0.021567265 0.15184492
0.06444754 0.20546609 0.1152367 0.12707764 0.0038035081 -0.10415201 0.114789836 0.19977772
0.14619164 0.09205906 0.11441923 0.13698311 0.09036527 0.09020754 0.0912232 0.14149334
-0.07102351 -0.07483214 0.015861675 -6.2850326e-05 0.054619282 0.098414995 -0.014874016 -0.22155154
0.07979111 0.094593205 0.19831301 0.14985316 -0.14134428 0.117588595 -0.04452989 -0.1467693
-0.12648758 0.20642576 -0.15940607 -0.0029083262 0.10194168 0.110889696 0.14939846 0.16835688
0.13143192 0.18749833 0.009922212 0.084819175 -0.112364665 0.08804242 -0.002725147 -0.17885149
-0.04162622 0.07831184 -0.17936389 -0.07649889 0.17871983 0.030761337 0.09988515 0.09850286
-0.024563666 -0.14967673 0.12942484 -0.21223027 0.11489461 0.18342462 0.19207823 0.16309932
0.09846773 0.20112523 0.04287466 0.14257243 0.019589875 0.040196113 -0.21614905 -0.17226316
0.1700887 0.18089505 0.1401571 0.06407637

GAT_layers.0.GAT_heads.1.f.weight f4 [32, 124]
00000000: be7e 59bd ffe3 41be a31e edbd 9467 96bd
00000010: 40c1 00be a1af 013e fc91 1f3d d3bd 0ebe
00000020: 2ce4 433e 3036 043d 721f bfbb 9b52 3c3e
00000030: 1636 02be e9bf 04bd d808 013e 2b33 cbbc
00000040: 1bdc e03d 1a29 073e 967e 2cbd e941 eabd
00000050: cd85 c53d 3d35 473e fbad 1b3e 859b 32bd
00000060: 57b8 dbbd 4131 2d3e 3024 7bbd 4852 f73d
00000070: 8916 16be abba d63d acf5 973d 9aa8 78bd
00000080: 42cf d13d 3e8d 26bd ae8e 4bbd b0bc 973d
00000090: a881 0b3e 8c0b 84bd 1e6e 1c3e 179e 09be
000000a0: 72e9 093e 5cde 9c3d cbb9 2bbe 2e30 c23d
000000b0: 3a0d 483d 4dfc a5bd 3276 1d3e eb34 36be
000000c0: a858 1c3e c849 21be a69f dd3d 0897 c7bd
000000d0: 5368 083e 3e49 11be ccab bbbc d1f7 583c
000000e0: 0546 96bd e701 cdbd 6441 8bbd 2e9b 37bd
000000f0: 8e6f 13bd 65b8 3b3e 101f ab3d 6e9f 1a3e
00000100: 4825 e1bd ba75 423c b574 443d bcde edbd
00000110: a14c d5bd f438 8abd 9338 c43d 9444 e9b9
00000120: 1478 8a3d 4127 043e 6cbd 093e e633 fabd
00000130: 83c0 323d 2a80 9abd 2e03 a93d 9677 76bd
00000140: cf3d 123e 578d b93d 1213 8b3d bdb0 1b3e
00000150: 6b58 0a3e b9e6 153e 6df2 4a3d 42fa a63a
00000160: 280d 1bbe 43c5 cb3d d721 d13c e393 35bd
00000170: 952d 643d 24dd 133e a675 413d 749d 7e3c
00000180: 9ec5 1bbe a293 0d3e 2c44 86bd 47a4 0b3e
00000190: ff1f aebd 8461 813c c334 083d 9341 903d
000001a0: ca26 0dbe 9e15 b6bc 3e23 ecbd 09f4 143c
000001b0: 423b 1c3e 48ca 393c 92e1 263d bbe6 7a3d
000001c0: fd32 103d 24cb 263d e6b0 543b ee3a 8dbd
000001d0: f3aa 25bd 8782 56bd a6af 0c3e ecea ee3d
000001e0: ee71 7c3d e84f a1bd 4ebf 173e c7d3 013d
000001f0: 77b7 95bd 943c bc3d e955 03be 5f90 203b
00000200: e839 de3c 889b 47be 8060 1cbe 44fc 04be
00000210: f205 8ebd 0b38 3abe 25f2 3e3e 14ce fc3d
00000220: a4e6 d53d 1424 2c3d d7c0 47be 8ca4 403e
00000230: f29d d33b 1530 4c3d 0253 59bd 77a0 acbc
00000240: b3b0 3bbd acbd ec3d 1f67 f53d 94f2 21be
00000250: dcf3 32be ed2e 413d 7889 523d 5756 db3d
00000260: 5d9d c1bd ac99 35be 9b7a b63d 8ad4 fa3d
00000270: c2c3 343e eae3 37bc 145f d63c 4e39 2b3e
00000280: 4b91 2c3e ef2d 2c3d 47b7 edbc c8bd bcbd
00000290: d28b ee3b 8a97 8cbd a596 293d 095a 46be
000002a0: c4d1 a53d b428 463e 0e1d 20bc 181d bfbc
000002b0: 0ca4 29be 5800 d4bd c52d 0ebe 51e4 b4bd
000002c0: f628 fe3d 9f0e aa3d 376a 3abd abed cabd
000002d0: d5b0 a33d f9f6 13be 2ec4 0e3d b504 c53d
000002e0: c4d4 9d3d 4794 03be ca4d 16bc e521 d43d
000002f0: f7ed 25be 2a92 8d3d 3f4d 09be a7f1 3ebc
00000300: a38f a0bd 94de 003e 399e 853d 28e0 b13d
00000310: 4595 15be 8dd6 03be b032 8c3d 19ea 5fbd
00000320: 9c22 7e3d 2ce9 cabd e093 11be a804 063e
00000330: 6e2f 14bd 3384 103e b628 b5bd 7011 31be
00000340: bfd7 403e 691d 1dbd 19ac a23d 3802 733d
00000350: f526 3abe a612 21be a9cf 8bbd 7fc1 c1bc
00000360: c519 8cbc 196d 423b aa2d c43c e7c5 88bd
00000370: 1e22 1a3e 16ce 0f3e 858e 09be 8116 9a3c
00000380: 697b b53d 7d78 39be 57cd b83c 7764 27be
00000390: 0ad1 873a c225 833d c803 1fbe d5be bebd
000003a0: a782 d43d 6047 25be e719 b73d c57f 9fbd
000003b0: 8aed 0f3e 6abd 1dbe f1a5 8ebd bdf3 1d3e
000003c0: a208 9f3d 1b32 2f3e 0f49 fbbd 1aaa 8f3d
000003d0: d218 2dbe 01e7 183e 468d e63d 0dbe b5bc
000003e0: 4bf8 18be ce16 e1bd 7066 d73d 2d2f 773d
000003f0: 62cd f8bd 3b80 88bd 01b6 44be a43b 06be
-0.053099386 -0.1893463 -0.11578109 -0.07343975 -0.12573719 0.12664653 0.03895758 -0.139396
0.1913001 0.03227824 -0.005832606 0.18390886 -0.12715945 -0.032409582 0.1260103 -0.024804672
0.10979482 0.13199273 -0.04211291 -0.114383526 0.09644661 0.19453903 0.15203087 -0.043605346
-0.107285194 0.1691332 -0.061313808 0.12076241 -0.14657034 0.10484823 0.07419905 -0.060707666
0.102446094 -0.040662043 -0.049696617 0.07409036 0.13623679 -0.06447515 0.15276381 -0.13439213
0.13467959 0.07659599 -0.16770093 0.09481846 0.04884074 -0.08104763 0.15377119 -0.17793624
0.15268195 -0.15750802 0.10821466 -0.09745604 0.13321047 -0.14188096 -0.022909068 0.013242678
-0.07337574 -0.100101285 -0.06799582 -0.044825725 -0.03599506 0.1833206 0.08355534 0.1509988
-0.10993439 0.0118688885 0.047962863 -0.11614749 -0.104150064 -0.06749144 0.09581103 -0.00044492318
0.06761184 0.12905599 0.13451165 -0.1221693 0.043640625 -0.075439766 0.082525596 -0.06017264
0.1428139 0.090601616 0.06790747 0.15204139 0.13510291 0.14638795 0.0495476 0.0012739378
-0.15141737 0.09949734 0.025528831 -0.04433049 0.055707533 0.14439827 0.04723134 0.015540469
-0.15212104 0.13825849 -0.065559715 0.13636886 -0.085021965 0.01579357 0.033253442 0.07043757
-0.13784328 -0.022227105 -0.115301594 0.009091386 0.1525698 0.0113397315 0.040742464 0.061255198
0.035204876 0.040721074 0.0032454072 -0.068960056 -0.040446233 -0.052370574 0.1373888 0.116659015
0.06163209 -0.07876569 0.1481907 0.031696107 -0.07310384 0.09191242 -0.12825741 0.0024500114
0.027127221 -0.19492924 -0.15271187 -0.12986857 -0.06934728 -0.18185441 0.18647058 0.12343994
0.10444382 0.042026594 -0.19507156 0.1881277 0.0064580375 0.049850542 -0.053057678 -0.02107261
-0.04582281 0.115596145 0.119825594 -0.15815192 -0.17475837 0.047163893 0.05140063 0.107098274
-0.09453843 -0.17734402 0.08910104 0.1224757 0.176528 -0.011223773 0.026168384 0.16721079
0.168523 0.042035993 -0.029018058 -0.092158854 0.0072798515 -0.06864841 0.04140343 -0.19370283
0.0809665 0.19351465 -0.009772552 -0.023329303 -0.16566485 -0.10351628 -0.13884647 -0.088326104
0.124101564 0.0830357 -0.04551145 -0.09908613 0.079927124 -0.14449681 0.03485506 0.096200384
0.077065974 -0.12849532 -0.00917382 0.10358027 -0.16204058 0.06912644 -0.13408373 -0.011654294
-0.078398965 0.12584907 0.06524319 0.086853325 -0.14607723 -0.12874813 0.068456054 -0.054666612
0.062044725 -0.09907755 -0.14216566 0.13087714 -0.036178045 0.1411293 -0.088456556 -0.17291808
0.188323 -0.038358126 0.07942981 0.059328288 -0.18178923 -0.1572977 -0.068267174 -0.023651836
-0.017102132 0.0029667078 0.023947556 -0.06678372 0.15052077 0.1404346 -0.13433273 0.018809559
0.08861429 -0.18112369 0.022558851 -0.16346918 0.0010361981 0.06403686 -0.15528786 -0.09313742
0.103764825 -0.16140509 0.08940487 -0.07788042 0.14055458 -0.15404287 -0.069652446 0.1542501
0.077653185 0.17108957 -0.12269794 0.07014866 -0.16904 0.14931871 0.112574145 -0.02218535
-0.14938466 -0.10990678 0.10517585 0.060347725 -0.12148549 -0.06665083 -0.19210054 -0.13108689

GAT_layers.0.GAT_heads.1.f.bias f4 [32]
00000000: 2817 eb3c e66c 90bd d6f1 9bbd e77b 7fbc
00000010: dc31 843c b8d6 98bd f5f3 aabd 1d51 6bbd
00000020: ada7 e3bb 3cd6 54bd aefb 933d 80b6 8cbd
00000030: 9e0c db3c f3ed 51bd 8ee8 aa3d d33a 3a3d
00000040: d041 903d 92a8 19bc 898f 063d e746 4c3d
00000050: 2765 653d 9036 4fbc 0fb3 553d b943 88bd
00000060: 45f6 023d 144c b2bd eda6 2a3d 8548 ab3d
00000070: 280b a13d 5e0f 0e3d 402b 70bd e87b 1ebd
0.028697565 -0.07052021 -0.07614486 -0.015593505 0.016137056 -0.07462829 -0.08347312 -0.057450403
-0.0069474787 -0.051962122 0.072257385 -0.068707466 0.026739415 -0.051252317 0.083451375 0.045466255
0.07043803 -0.009378569 0.03285173 0.049872305 0.05600467 -0.012647286 0.052172717 -0.06653542
0.031973142 -0.08705917 0.0416631 0.083634414 0.07863456 0.034682624 -0.058634996 -0.038692385

GAT_layers.0.GAT_heads.1.w.weight f4 [1, 124]
00000000: 6d68 e03c 0961 403e dda1 a13d c0c4 48be
00000010: c073 e53d 45b2 1abe 960b 863c d4d2 37be
00000020: fa12 50be 1983 c2bd ae63 3d3e a115 94bc
00000030: e5d6 553c 8eed 38be 64ae 243e 1413 42be
00000040: 6c85 b23c 85eb 203e c9bc 083e df66 083e
00000050: 7d96 f63d 921f 34be 265f 23be 685a 25be
00000060: 6581 c1bc 339c 5abe 6756 1a3e 84ea 853d
00000070: c90f 32be 91bf 54be 0e95 c03d cf47 9fbd
00000080: f897 23be d594 9dbd 651c 0fbd d975 6a3c
00000090: 69b4 4f3e ad3b a9bd 1ec9 0abc e62f 07be
000000a0: 27fd 23be 67c2 053e bad5 8c3d 510a 5d3e
000000b0: 6b22 f23c e90b c13d 6459 b3bd 6f93 9a3d
000000c0: a873 4bbe 7404 1c3e 0e93 3b3d 779e be3d
000000d0: b690 27be 8f7a 583e 321a 013e dd95 9bbd
000000e0: b2a8 30be f258 1abe e9ea 5f3e 3582 303d
000000f0: 1440 a3bd bbda cb3c 939e 80bd 9ff7 c13d
00000100: fdaa c73d 92ac cbbd 6813 d13d cc50 233e
00000110: 45ab 4bbe ae79 553e 5952 21be 1b19 4ebe
00000120: bc77 98bd 9707 74bc 71d2 cf3d 6016 1fbe
00000130: 2692 a23c b5c7 80bd baf1 133d 3425 d33b
00000140: fc76 2a3e 56b8 153e 62fa 7cbd d6cf f13d
00000150: a4da cf3d 93c3 f53c fc00 4e3e 0c84 2cbe
00000160: ad0e 9cbd 4146 383e 0772 bb3d 3951 293e
00000170: a2bd 0dbe e4a0 693d d679 18be 51bd 1e3d
00000180: d7ca 563e f6f9 e6bd 0007 31bc b696 af3c
00000190: aba1 063e 3faf c23c 6ac6 18be 33d3 41bd
000001a0: 6b60 22bd a874 d43d 8fe5 193e 12d1 dbbc
000001b0: 64e4 09bc a243 ac3d c40b 45bd b9e3 113e
000001c0: ac51 52bc 735d 9ebd ab33 073e a6e3 323e
000001d0: 8203 5b3b de99 083e b076 473e ffd8 76bd
000001e0: eb97 3fbe d0b3 4b3d 001d bcbd bde3 88bd
0.027393544 0.18787016 0.07892201 -0.19606304 0.11203718 -0.15107067 0.016362946 -0.17951518
-0.20319739 -0.09497661 0.18495056 -0.01807672 0.013051723 -0.1805937 0.1608215 -0.1895259
0.021792136 0.15714844 0.13353266 0.13320492 0.12040422 -0.17590168 -0.15954265 -0.16147768
-0.02362127 -0.21348648 0.15072022 0.06538871 -0.17388834 -0.20776202 0.0940343 -0.07777368
-0.1597594 -0.07694403 -0.03493919 0.014310324 0.20283665 -0.082633354 -0.008470802 -0.13201866
-0.16014539 0.1306244 0.068767026 0.21585967 0.029557427 0.094261 -0.08757284 0.07547652
-0.19868338 0.15236074 0.04579454 0.093075685 -0.16363797 0.21140502 0.12607649 -0.075969435
-0.17251852 -0.15072992 0.21866955 0.043092925 -0.07971206 0.024884572 -0.06280246 0.09471058
0.0974941 -0.099450245 0.102087796 0.1594879 -0.19889553 0.20847198 -0.1575407 -0.20126764
-0.074447125 -0.014894388 0.101475604 -0.15535879 0.01984508 -0.06288091 0.0361192 0.006443644
0.16646951 0.146211 -0.06176222 0.1180722 0.10149124 0.030000484 0.20117563 -0.16847247
-0.07619987 0.1799555 0.09152608 0.1653489 -0.1384187 0.057038203 -0.14890227 0.038754765
0.20975815 -0.11278145 -0.010804892 0.02143417 0.13147609 0.023765204 -0.14919439 -0.047320556
-0.039642733 0.10373813 0.15028976 -0.02683309 -0.008416269 0.084113374 -0.048106924 0.14247026
-0.012836855 -0.07732668 0.13203304 0.17469653 0.003341884 0.13339946 0.1947887 -0.060265537
-0.18710296 0.04973203 -0.09185219 -0.06684063

GAT_layers.1.GAT_heads.0.f.weight f4 [64, 128]
00000000: d069 13be c23b cd3c 7633 19be ae6d 15bc
00000010: c0d0 9bbd 5a6f 013e 9ac1 f2bc 9289 24be
00000020: 6ab7 593d 2637 7bbd 1fce a3bd 1a5f a73d
00000030: 7e4f 033d d78d 0f3e 9c9f e23d 73c9 a03d
00000040: 5d04 ee3d 9279 2abe 33d3 13be 6b19 b53d
00000050: bf03 523d 3cf2 8e3d d311 2c3e e9a3 333b
00000060: 6e02 873d 4103 5abd 887d f4bc e304 193d
00000070: 162d f83d b437 15be 8b77 cabb 840a 003e
00000080: f81a 22bd f3c5 0c3e 748b 0f3c 2a23 af3d
00000090: 61c4 bf3d 58b0 15be 6b1b 753c d499 9a3b
000000a0: 4270 22be d50a 77bc 69e1 f93d 3ea7 cc3d
000000b0: 6bb4 24be 52b9 953d 0bea 7ebd 6786 02be
000000c0: 36e8 84bb 3ae8 ec3d 0cd0 823d d136 253d
000000d0: e772 e83d 6527 033d 4a77 08be ec9f 453d
000000e0: e0f4 60bd c829 a73d e70a c43d bd9b b33d
000000f0: de14 e83d 19ab a63d ebed ee3d 5a9a acbd
00000100: 390a d0bd 31e5 003e 317b 39bd 3945 95bd
00000110: 6ec8 b33d d14f 243e 652d afbd b7d7 1a3e
00000120: ca34 313d 6e5c b1bd 033e 2fbd 31b0 a2bd
00000130: f34a 79bd 6cf9 cc3d f7c1 c6bd 54f9 d3bd
00000140: e19e 0f3e 06f9 3fbd a467 09be 7c57 0f3e
00000150: 78ba c53d ec6a d83d 845a e2bc 52b2 af3d
00000160: ad44 83bc 26b9 53ba dbde 513c 2edd 8dbd
00000170: 3eca 443d b32d d23c 8916 24be 4e58 a33c
00000180: 5440 8239 4ece 55bb 3a45 23be 7312 033e
00000190: dc2a e53d 1180 1cbe 5233 7a3c accd 183e
000001a0: bd92 263d 971b ae3c a684 a83d 1d25 2c3e
000001b0: 55ac 53bc 0ce2 d8bd 0f50 ac3c 0cb0 1bbe
000001c0: ab70 47bd 0474 f73c 1821 00be f872 fd3c
000001d0: 1afd 1b3d b425 6f3d 7eeb b43a 7869 1fbe
000001e0: d3c4 34be 0d25 08bd e781 34be b0d0 1ebe
000001f0: 28f4 8cbd 9ba4 b4bd d7fa 0e3e 0b0e 323e
00000200: 8841 7e3b 9556 9fbd c098 59bd 5341 38bd
00000210: 0a2d 0fbe f9f9 493d a0aa 863d c88c bcbd
00000220: 3538 353d 7ea5 2d3e f6f0 963b 0b14 d03d
00000230: 94a3 cabb 3469 4abd 50ac fc3d 36f0 aebc
00000240: 8bb9 d8bd 13e0 1b3e 7103 2dbe 8ca3 953d
00000250: f465 643d 639d aabd 2253 553b 7ede 75bd
00000260: 1883 26bd fd20 17be 9ab4 12be 8742 66bc
00000270: ee80 b53d ec8d 80bd 9d96 203e 450d c8bc
00000280: 779f eb3d d3ff a1bd a3fb 253c 7f15 d33c
00000290: 0d41 14bd 73b6 2ebc dea1 bcbc ebc1 10be
000002a0: 7c8a 193e 26d7 1f3e 519c d23d 1158 c83d
000002b0: 473c 753d 1d3d 0c3d aced 963d e80e 273e
000002c0: 106c 18be d3be b0bd 9ef4 b03c fcc5 a33d
000002d0: bbce 5dbd 3ce1 1bbe 0eb4 a73d 8175 ef3d
000002e0: be5a c8bd 7214 5ebc cae4 d53d bad5 eb3d
000002f0: bcdd b5bd f88f e0bd f44d 4f3d b201 cbbc
00000300: 826b 5ebc d7b0 943d c546 2bbe 4ac4 0dbe
00000310: ed42 203e adc1 29be 29a8 163e 26e6 19be
00000320: 4907 0cbd da82 b73d 7c9c f93d 52b3 843d
00000330: 1d3d 1cbe 2cd0 5cbd 9fb5 d23d bbe4 493c
00000340: 3525 14bd 7304 e33d 9236 c93d 6bed 6cbd
00000350: ac22 9f3c 82e9 e4bd a942 893d 1c88 4cbd
00000360: a464 d93d 0294 f83d a50c c6bd 89f1 f33c
00000370: fe1c 233a 918c a1bd 9fab 33be 17b2 6a3d
00000380: f4ec 813d 2e97 053e 3f5b 2f3e 97b1 adbd
00000390: 244e 1bbc 74eb e6bc 3512 1abe e485 4dbd
000003a0: 1f27 ab3c 2ce9 9dbd 7b8a e63d 4461 263e
000003b0: 96f5 cc3d 37f0 85bd 1297 693d bbdd 2dbe
000003c0: c2ac 67bd 434f 073e 05ba a93d 526a b7bd
000003d0: 8c8b 8ebd a075 41bd 2b14 193e 56e1 373d
000003e0: 901e b2bd bcb5 f73d 5ccd 113d 6cc5 f33d
000003f0: f25b 26be 1a18 d63d 6f19 1c3d f09b 1cbd
-0.14395833 0.025052909 -0.14961037 -0.009120388 -0.07608175 0.12640134 -0.029633332 -0.16068104
0.053153433 -0.06133189 -0.07998299 0.08172436 0.03205823 0.14018951 0.11065599 0.078509234
0.11621926 -0.16647938 -0.14436035 0.08842739 0.051273104 0.06979796 0.16803674 0.002741093
0.0659226 -0.05322576 -0.029845014 0.037358176 0.121179745 -0.1457203 -0.0061788014 0.12504011
-0.0395765 0.13747387 0.008761276 0.08551629 0.09363628 -0.14618051 0.01496015 0.004718045
-0.15863135 -0.015078266 0.12201197 0.099928364 -0.16084449 0.07310738 -0.06223492 -0.12746583
-0.004056002 0.11567731 0.06387338 0.04033548 0.11350041 0.03201999 -0.13326755 0.048248217
-0.05492103 0.08162266 0.09572392 0.08769939 0.11332105 0.08138103 0.11666473 -0.08427878
-0.101582 0.1258743 -0.0452835 -0.07288594 0.08778463 0.16046073 -0.0855358 0.15121351
0.043263234 -0.08660208 -0.04278375 -0.07943762 -0.060862493 0.10008511 -0.097049646 -0.1035029
0.14025451 -0.046868347 -0.13418442 0.13998216 0.09654707 0.10567269 -0.027631052 0.08578934
-0.016023958 -0.00080766005 0.012809481 -0.06926952 0.048044436 0.025656557 -0.16024221 0.019939568
0.0002484346 -0.0032624188 -0.15944377 0.12800007 0.111898154 -0.15283228 0.015271025 0.14922208
0.040667284 0.02125339 0.08228426 0.16811033 -0.012919505 -0.1058999 0.021034269 -0.15203875
-0.048691433 0.030206688 -0.12512624 0.03093861 0.038083173 0.058385566 0.0013803092 -0.15567577
-0.17653207 -0.03323846 -0.17627679 -0.15509295 -0.068825066 -0.088204585 0.13962875 0.1738817
0.0038796384 -0.07780186 -0.05312419 -0.044984173 -0.13982025 0.049310658 0.06575513 -0.092065394
0.044243056 0.16957662 0.0046063615 0.10160073 -0.006184051 -0.049416736 0.123375535 -0.021354776
-0.105822645 0.15222196 -0.16895844 0.07306585 0.055761293 -0.083308004 0.0032550772 -0.06002664
-0.040652364 -0.14758678 -0.14326707 -0.014053947 0.08862482 -0.062770694 0.15682454 -0.02442039
0.11505025 -0.07910123 0.010130796 0.025767086 -0.03619485 -0.0106636165 -0.023026403 -0.14136474
0.14994234 0.15609416 0.10283721 0.09782422 0.059871938 0.03423797 0.07369551 0.1631428
-0.14884973 -0.08630147 0.021601018 0.07996747 -0.05415223 -0.15222639 0.081886396 0.11692334
-0.09782933 -0.013554679 0.10444029 0.115153745 -0.08880183 -0.1096496 0.05061145 -0.024781082
-0.013575437 0.07260292 -0.16726215 -0.1384441 0.1565053 -0.16577788 0.14712586 -0.15029201
-0.034186635 0.08960505 0.1218805 0.06479515 -0.15257688 -0.053909466 0.10288548 0.0123226
-0.036168296 0.11084833 0.098248616 -0.057843607 0.019425713 -0.111773506 0.067021675 -0.04993449
0.10614899 0.12137605 -0.096703805 0.029778259 0.0006222277 -0.07888139 -0.17545937 0.057298746
0.06344023 0.13045952 0.17124651 -0.08481138 -0.009479079 -0.028188445 -0.15046008 -0.050176516
0.020892678 -0.0771049 0.11256882 0.16248041 0.10007779 -0.06539958 0.057028838 -0.16979115
-0.05656124 0.1321383 0.082874335 -0.08955826 -0.0696021 -0.047231317 0.149491 0.04489263
-0.086972356 0.1209521 0.035596237 0.119028896 -0.16246012 0.10453816 0.038110193 -0.03823465

GAT_layers.1.GAT_heads.0.f.bias f4 [64]
00000000: 3efe 503d 5204 773d 6c15 1a3c 61f4 4fbd
00000010: 84cb 9abd 1ff2 9dbd f493 88bd 1fb2 a93d
00000020: 1085 9abd 72f3 acbd 0c86 8f3d 4bc8 643d
00000030: 2727 01bd 6c2d 263d 5552 f43c 8fe4 5abc
00000040: d128 26bd 7305 09bc e945 933d 2f60 e6bc
00000050: 0927 173b a4d9 7bbc 7d83 f9bc c07e 42bd
00000060: 8086 b13d 08ce 0f3d 77bc 2dbd 840c f2bc
00000070: a824 7dbd b0e3 2b3d 4c16 393a af64 1f3c
00000080: 89ba 02bd e1ce cabc 0f3e 873d 02cf 5fbb
00000090: 3ffa 4fbd c2b1 673d d1e5 62bd 1667 9fbd
000000a0: 7451 5c3d 76f8 023d 95d3 b83b c251 12bd
000000b0: 5dc7 9d3d 13e2 6c3d 47ff e53b 1d4f 10bb
000000c0: 26ab 2cbd 8347 e23b 1689 893d a860 5a3c
000000d0: 1982 973c 9e49 acbd 7648 853d b4b9 26bd
000000e0: 17c5 2e3d 4808 60bc eca8 6abc 57ee 8ebd
000000f0: 0e46 e8bc ca64 173c 57a8 0e3d a2aa 96bd
0.051023714 0.060306855 0.009404521 -0.050770167 -0.07558349 -0.077121966 -0.06668845 0.08285927
-0.07544911 -0.08444871 0.07007989 0.055855077 -0.03153148 0.04057066 0.029824415 -0.013360157
-0.04056627 -0.008363116 0.07191069 -0.028122036 0.0023064038 -0.015371714 -0.030458206 -0.04748416
0.08668232 0.035108596 -0.042416062 -0.029546984 -0.061802536 0.041965187 0.00070605124 0.009728595
-0.031916175 -0.02475685 0.066036336 -0.0034150486 -0.050775763 0.056566007 -0.05539495 -0.07783334
0.053788617 0.031975232 0.005640457 -0.0357225 0.07704041 0.05783279 0.007018957 -0.0022019811
-0.042155407 0.0069054975 0.067156 0.013328709 0.018494653 -0.08412479 0.065079615 -0.040704444
0.04266843 -0.013673849 -0.014322501 -0.069790535 -0.028353717 0.009240339 0.03482851 -0.073567644

GAT_layers.1.GAT_heads.0.w.weight f4 [1, 128]
00000000: 475a 013e de17 2bbe 7955 a63d 1c2a 103e
00000010: 21be 54be ed8e 71bd 87d2 083e 6123 90bc
00000020: 6c83 3abe 61d5 533d d723 1d3d 77f0 53be
00000030: feca dc3d 5058 d0bd 5695 c63d 1021 8dbd
00000040: 2d46 a4bd a0a5 683d b42c 47bd 41d5 7c3d
00000050: 0360 0d3d 4ad7 babd c639 26be 5852 273e
00000060: d056 bebd dcfa 35be 4139 8f3c fe24 253e
00000070: 1a13 05be cb54 fbbd a268 cc3c 6ac6 97bd
00000080: e24c f6bd dedc 48bd c249 0e3e 22f8 debd
00000090: 02a5 333d 70d6 f3bd 86b7 99bd 54e6 8d3d
000000a0: ab84 e73d ada2 a5bd f9d6 2f3e ea69 3ebe
000000b0: efd0 583e ebbb 403e 006b 473e 4465 3c3e
000000c0: 172a bb3c 0321 4e3e 6871 49bd f427 d8bd
000000d0: 06bf 953d 4558 4ebe 75e9 cbbd feb6 493e
000000e0: a3ab 543e fccc 3d3e a955 2ebe 3c7e dd3d
000000f0: 6bd6 4c3e 39e8 1d3e 1d00 413b b401 563e
00000100: 664d a7bc 99d1 4c3e 9e68 593e 30a2 dcbd
00000110: 0c24 553e 35b6 debd cafb 133e 3a01 14be
00000120: 4601 22be 9e95 10be 1ac7 a7bd f43d 11bd
00000130: 5c3a 543e d655 32bd 619e 073e eb8e 25bd
00000140: 15fc 1c3e 07e4 a13d 4e8b a83d e40d 1fbe
00000150: a9df 0cbe cddb 4b3d 6aa5 19be c185 c13c
00000160: ed40 57be 84db 79bd fa54 823d d6a3 143e
00000170: 640a 5abd 77cf 1fbd dc39 bcbd 1482 38be
00000180: 6e68 0e3e 9a65 85bd 8cb5 443e 22a7 34bd
00000190: 1197 49be 4769 583e 2c37 e2bd 45d4 f8bd
000001a0: 4dfe 2d3e 0e0e f4bd 1113 9bbd 2705 86bd
000001b0: 495e 153d 74a3 06bc d1dc ddbb 33f7 b13d
000001c0: bf94 11be 7bf0 1fbe c39a 693b 53b1 1ebd
000001d0: 6013 313e d3f0 77bd b711 08be bec7 08be
000001e0: 7b09 0ebe 70ff 463d fdea c6bd dd03 45be
000001f0: ab97 cd3b c0f8 1e3e 7d54 f53d 1a8f 003d
0.12632094 -0.16708323 0.08121771 0.14078563 -0.20775653 -0.058974195 0.1336156 -0.017594995
-0.18214196 0.051717166 0.038364258 -0.20697199 0.10780905 -0.10173094 0.09696452 -0.06891072
-0.080211975 0.056798577 -0.048626617 0.061726812 0.034515392 -0.091230944 -0.16232976 0.16340005
-0.09293902 -0.17771477 0.017483355 0.16127393 -0.12995568 -0.12272032 0.024952237 -0.07410891
-0.12026383 -0.04903876 0.13895324 -0.10887171 0.043858536 -0.11906135 -0.075057074 0.06928697
0.11304601 -0.080876686 0.1717185 -0.1859509 0.21173452 0.18821685 0.19474411 0.18398005
0.022847218 0.2012978 -0.04918042 -0.105544955 0.073118255 -0.2015086 -0.09956638 0.19698712
0.20768599 0.18535227 -0.17024864 0.10815093 0.20003669 0.15420617 0.002944953 0.20899087
-0.020422649 0.2000183 0.21231315 -0.10773122 0.20814532 -0.10874597 0.14451519 -0.14453593
-0.15820798 -0.14119574 -0.081922725 -0.035459474 0.20725387 -0.04353889 0.1324401 -0.0404195
0.15330537 0.07904821 0.08229695 -0.15532643 -0.13757195 0.049770165 -0.15004507 0.02362335
-0.21020861 -0.061000362 0.06363864 0.14515623 -0.053232566 -0.039016213 -0.09190723 -0.18018371
0.13907024 -0.065135196 0.1920988 -0.044104703 -0.19686534 0.2113391 -0.110456795 -0.12149862
0.1699154 -0.11916743 -0.07571996 -0.065439515 0.03646687 -0.008217681 -0.006770708 0.08689728
-0.14216898 -0.1561908 0.0035645224 -0.03874333 0.17292547 -0.060532402 -0.13288008 -0.13357446
-0.13870804 0.048583448 -0.09712789 -0.19239755 0.0062741837 0.15524578 0.119790055 0.031386472

GAT_layers.1.GAT_heads.1.f.weight f4 [64, 128]
00000000: e6dd c83d 466c 073e cfc8 283e 758c 1abe
00000010: 8033 dcbd 676e 30bd 73db 97bd 064c b0bd
00000020: 6481 173e 281d 213e d66a bdbc 5340 f83c
00000030: 7c8d ec3d a7be 5fbd 2699 3e3d d290 533d
00000040: 4899 b23d 58e0 693d b3cd ee3d 2ea0 eebd
00000050: c185 f33d cebb 19be bb0e 1c3e a8d8 303e
00000060: f0d6 9c3d 0b2c e93d 3061 943d 3dec f0bd
00000070: ee08 a03d 5858 bb3d ce47 64bd ce1f d53d
00000080: 331a 973d 85fb 093d 8b33 693d 65c2 d5bd
00000090: e5b6 64bd 1a06 b0bd 3613 85bd 0d2c 0abe
000000a0: a6a0 523d ccd1 983d 5ae3 143e 10ad f0bd
000000b0: cbfd 02be 09a2 9c3d 64c9 f0bd 3677 fb3d
000000c0: 23eb e3bc c728 943d 3fd1 51bd 40a9 333d
000000d0: a327 a7bd 892a c63d ca1b 2abd da79 d9bd
000000e0: 1532 f03d 3f96 fbbd 16d3 543d b460 273e
000000f0: 536e f33d 6e29 19be 79b2 14bd 519a 1a3e
00000100: c25b c83c 164e 3abd f47c 1ebd 647c 623d
00000110: 2b58 853d dd3a 143e 916b 0bbe f923 c33d
00000120: 1206 7fbd 8e69 53bd 07f0 f8bc 83f0 053d
00000130: c7e7 8b3d cd4a 123e 26dc 87bc abaf adbc
00000140: 96fc 32be b3f5 1d3e 6229 aabd 2767 d23d
00000150: 628f 0a3d 3493 97bd d9ad 93bd 2586 cfbd
00000160: 9a89 303d d040 8f3c 4882 1d3e 36df e73d
00000170: 79a0 9abd 4d2e 703d 49e6 e23c 9cb4 a23c
00000180: ad57 8cbd ed93 b1bd 11cd 0d3e ffa7 3fbd
00000190: 38f7 303e 3408 c33d 53e1 0bbd 85e1 05be
000001a0: f050 183e 14b8 0abe 9ffa 18bd bb8c f7bd
000001b0: 0941 8abd 2696 183e 0b55 50bd 558b 19be
000001c0: d742 e8bc a371 d6bd 3b56 163c 6943 1d3d
000001d0: defc 59bc c294 313d eab3 5f3d 2a77 bebd
000001e0: 9a51 2c3e 2520 21bd b847 3b3d 6343 bdbd
000001f0: 4c73 b63d 8191 22be 2260 d03b 34ea 7d3b
00000200: b386 023e 9f2a a1bd c5cc 01be 99a7 fabc
00000210: eea0 6fbd eded a9bd dc8c 6abd 2ca2 003e
00000220: 1373 bfbc de3f 1abe 964a 34be 47ff e7bd
00000230: f8d9 69bd 2ead b43c fa51 093e c4f5 063c
00000240: 3449 d5bd dc7d 0bbe c5e1 5dbd 971c 433c
00000250: 16b5 9ebd 6826 a8bc 94b3 ca3d 5b50 2cbd
00000260: 2758 05bd 76ac 23be a6f8 cc3d f9a7 9bbd
00000270: 60ac f13d 01da 903d e910 29be 1831 a5bd
00000280: bff9 493d aa87 10be f597 83bd 1f7e bfbb
00000290: af16 fabc 2b04 edbd 29c1 343e bf85 edbd
000002a0: 31c9 b3bd d12c 013e 9927 1cbd dded 0ebe
000002b0: e23d a23d b301 be3d e8e1 f73d b2df c93d
000002c0: 29db 2cbd 8b77 20bd a9f5 92bc 99e4 f13d
000002d0: f1e3 2f3e cf65 92bc 40d4 d1bb b4f4 89bd
000002e0: 6738 b33c 8149 2ebe 095a dfbd bf07 503d
000002f0: a600 c2bd bee8 58bc 9b5b 083e eedf 04be
00000300: a097 5cbd 77f5 0bbe 6d2b 39be 6a91 cbbc
00000310: fe94 d33d c563 18be eb95 cfbd 7da7 b2bd
00000320: c9eb 9a3b 7ea8 fbbd d83e 213e 4336 ef3d
00000330: 2695 c4bb 1a96 ad3d 8929 843d c64e 8bbd
00000340: b463 63bd a051 febd d68a ff3d 2696 273e
00000350: bf59 303e 9d3d a73d a476 153e f775 343e
00000360: f889 5c3d 0dd9 30be 5628 ea3d 6f56 063e
00000370: b70e 143e 2b3b c4bc c887 2f3e 9626 1b3e
00000380: 8892 49bc 512a 97bc 2a93 9ebd 39fa 98bb
00000390: 9ae5 14be 0af9 4d3c 1063 c1bd 304e 773d
000003a0: c14a 463d 2155 1fbe 9488 163e 938c 713c
000003b0: 89cf 1ebe cba7 dd3d a2d1 5bbd 6e4f 15be
000003c0: d6ae 453c ee84 193e f167 103d 5bf2 0c3d
000003d0: daab 033e d416 0ebe 0f3a 17be 293e a6bd
000003e0: de9f 0fbe dbed efbc 6a46 303e a337 8e3d
000003f0: c373 debd 40ef 0fbe 6564 e2bd 13c2 68bd
0.09807949 0.13224897 0.16482852 -0.15092643 -0.1075201 -0.043074038 -0.074149035 -0.0860825
0.14795452 0.15733778 -0.023122232 0.03030411 0.115504235 -0.05462518 0.046532772 0.051651783
0.08720642 0.057098716 0.11660328 -0.116516456 0.11890746 -0.15013048 0.15239994 0.17270148
0.076581836 0.11385354 0.072450995 -0.11763809 0.07814203 0.091477096 -0.05573254 0.10406457
0.07378044 0.033687133 0.05693392 -0.104374684 -0.055838484 -0.08594914 -0.06497805 -0.13493367
0.051422738 0.074618906 0.14539853 -0.11751759 -0.12792127 0.07648093 -0.11757162 0.12278597
-0.027822083 0.0723434 -0.051224943 0.04386258 -0.08161857 0.09676082 -0.041530408 -0.106189445
0.117283024 -0.122845165 0.05195912 0.16345483 0.11886277 -0.1495721 -0.036303017 0.1509793
0.024457816 -0.045484625 -0.038693383 0.05529441 0.06510957 0.1447558 -0.13615252 0.095283456
-0.06226165 -0.051614337 -0.030387891 0.032700073 0.068313174 0.14286347 -0.016584467 -0.02120193
-0.17479166 0.15425758 -0.083086744 0.10273581 0.033828147 -0.07401124 -0.07210893 -0.10133008
0.043099977 0.01748696 0.1538173 0.11321871 -0.07550139 0.058637906 0.0276977 0.019861512
-0.0685266 -0.08670793 0.13847758 -0.046791073 0.17281806 0.09523049 -0.034150433 -0.1307431
0.14874625 -0.13546783 -0.037348386 -0.12087389 -0.06750686 0.14901027 -0.050862353 -0.14994557
-0.028352184 -0.10470893 0.009175832 0.038394365 -0.013304917 0.043354757 0.05461494 -0.093000725
0.16828004 -0.039337296 0.045722693 -0.092413686 0.0890871 -0.15875818 0.006359116 0.0038744332
0.12746696 -0.078694575 -0.1267577 -0.030597495 -0.058503084 -0.08297334 -0.05726324 0.12561864
-0.023370301 -0.15063426 -0.17606577 -0.11327987 -0.057092637 0.022055235 0.13410178 0.008237306
-0.10414353 -0.1362223 -0.05417039 0.011908672 -0.07749383 -0.020526126 0.09897533 -0.04206882
-0.03255477 -0.15983757 0.100083634 -0.076003976 0.11800456 0.07072831 -0.16510357 -0.080660045
0.049310442 -0.14114252 -0.06425468 -0.005843892 -0.030528395 -0.115730606 0.1765181 -0.11597776
-0.087786086 0.12614752 -0.0381237 -0.13957925 0.079219595 0.09277668 0.12103635 0.098571196
-0.042201195 -0.039176505 -0.017939406 0.1181118 0.17176796 -0.017870812 -0.006403476 -0.067361265
0.02187748 -0.17020227 -0.10905845 0.050788637 -0.0947278 -0.013239084 0.13316195 -0.12976047
-0.05385554 -0.13667856 -0.18082972 -0.024849612 0.103311524 -0.14881809 -0.101360165 -0.08723352
0.004727815 -0.12287997 0.15746629 0.116802715 -0.005999225 0.08475895 0.06453235 -0.06802134
-0.055515006 -0.124179125 0.12477653 0.16365871 0.17221735 0.08166049 0.14596039 0.17623125
0.053842515 -0.17270298 0.11433475 0.1311891 0.14458738 -0.023953995 0.1714164 0.15151438
-0.012303002 -0.018452795 -0.07742913 -0.0046685007 -0.14540711 0.012571583 -0.09442723 0.0603773
0.048411135 -0.15559818 0.14700538 0.014742988 -0.15508856 0.108230196 -0.05366672 -0.14581081
0.01206561 0.14992115 0.035255376 0.034410816 0.12858525 -0.13875896 -0.14768241 -0.08117325
-0.14025828 -0.029288223 0.17214361 0.069442056 -0.108619235 -0.1405611 -0.11054305 -0.05682571

GAT_layers.1.GAT_heads.1.f.bias f4 [64]
00000000: 7fcd ae3d a8e2 6d3d a374 46bd 387a 613d
00000010: 3f35 95bc 8013 d5bb ef13 27bd 477f df3b
00000020: ba19 36bd fb64 043c 539d 0a3c 45bd 593d
00000030: 2663 5bbd ef79 86bb 1b80 bc3c 17d6 3bbd
00000040: b225 5d3d da1e 27bd 3c6f 05bd bd95 70bd
00000050: 1f78 823d 1d2b d63b 1e46 6b3c 9d9b debc
00000060: 10df 2ebd 0992 60bc 1a93 903b eee0 413c
00000070: b5c2 a1bd 8637 a43d 47c6 ae3d 6818 80bc
00000080: f15b 8fbd 123c b5bd 11dd 8e3d 9522 4c3d
00000090: 015e 693d 62b8 27bd 8017 8abd 704f 9b3d
000000a0: 4481 a03b 3082 85bd 578d 853c f68f a43d
000000b0: 8102 8d3d 8026 293d 0690 65bd 7318 113d
000000c0: 5090 1c3d ec6a 44bc 3a6e d53b 200e 44bd
000000d0: e817 8d3d 21aa 943d 46d3 87bd 7435 adbc
000000e0: 5de5 84bd 42d3 103d 7286 c93c 6c4d ed3c
000000f0: 9afb 493d e7ec 94bd c3e4 a2bd 5ad5 843d
0.08535289 0.058077484 -0.048451077 0.055048198 -0.018213866 -0.0065025687 -0.040790495 0.0068205926
-0.04445813 0.008080716 0.008460361 0.053159017 -0.053561352 -0.004103891 0.023010304 -0.04585847
0.053991027 -0.040800907 -0.032576784 -0.05873655 0.063705675 0.006535901 0.014359979 -0.027173812
-0.042693198 -0.0137066925 0.004412067 0.011833413 -0.078984655 0.08018403 0.08533912 -0.015636638
-0.06999958 -0.08849348 0.06975759 0.049837667 0.056974415 -0.040947326 -0.067427635 0.07583511
0.004898222 -0.06518972 0.016302748 0.08035271 0.06885243 0.041296482 -0.056045555 0.035423707
0.038223565 -0.011988383 0.006513384 -0.047865033 0.068893254 0.07259012 -0.06632094 -0.021143652
-0.0648906 0.03535772 0.024600241 0.028967582 0.04931221 -0.07271748 -0.07953789 0.06486006

GAT_layers.1.GAT_heads.1.w.weight f4 [1, 128]
00000000: a932 dfbd 2b88 fd3d 81ba 583e bed7 693d
00000010: 9b65 45be 0c01 4e3d 9a68 efbd 45e7 37be
00000020: be14 8dbd de7d d13b a726 2fbd 95cb 033c
00000030: 86c4 19be 6bac 39be b105 423e 6c5e 94bc
00000040: f156 dd3c 3a57 923d df20 fa3d 194c 4abe
00000050: 668f 1bbe 8d91 0e3e 4825 953d 6b1b 2d3d
00000060: 983f 48bc 9f33 9dbc 80e1 d33c 111c 55bd
00000070: 8f47 0d3e fdd0 3dbe e96f d7bc 1aea b33d
00000080: 4d0a dabd 29f7 bebd 0a88 e93d 6cd0 80bd
00000090: 2fa0 4c3e 7d7b 8bbd a57f 3c3e b147 9dbd
000000a0: e900 d43d ef36 993c 056d 10be ed94 10bd
000000b0: 19ad 0b3e b129 3e3e 1dba 4e3e 3623 523e
000000c0: de32 46be b468 adbd ee46 103e dbf2 32be
000000d0: b788 56bd 21ef 103e 9077 fd3c 48d0 373c
000000e0: 8c45 8b3d f819 883d 4427 453d 8d03 c43d
000000f0: 85fc 3bbe 8df2 ec3d 9466 e83d 6b27 acbd
00000100: fb2e 443e 3246 19be 1ccc 943d bc3d 423d
00000110: 24be 2fbd 7ffe 34bc 1651 e4bd f696 af3d
00000120: 9162 0f3e 26ae 16bd 5408 7abd 8cb1 f8bb
00000130: dd81 f23d b2a9 d43d 533b ef3d 2eb6 85bd
00000140: 9efa 04bd e32a a03d b453 f5bd f15b 033c
00000150: 3f98 a8bd 0190 063e 347d c53d edc1 c0bd
00000160: 82fc bcbd 5de0 b4bd 9a4d 59bd 603e 343e
00000170: 8afc 203e 3ddb f93d 2e60 1abe a487 6b3d
00000180: f8b0 0d3e 4c21 e23d 1c64 3a3e f45b f3bb
00000190: 2410 b13d 187c 5cbc e78b 2cbe e55a 4fbe
000001a0: e420 6d3d ce5f 17be cb2d b93d 4f3c acbd
000001b0: 83f0 2fbd 9285 503e 5513 213e e0a2 2e3d
000001c0: ab5e 0ebe 4f57 cf3d bcf5 11be aff5 043e
000001d0: 1d84 cf3d 952f 55be fe25 413d 8cea 3b3e
000001e0: b56e 14be 71f1 5bbe 1604 edbd 3a07 42bd
000001f0: 2db2 51bc 79d2 15bd b88c 303e 69c5 88bd
-0.108983345 0.123794876 0.21164896 0.057090513 -0.1927704 0.050293967 -0.11689873 -0.17959316
-0.06888722 0.0063931784 -0.04276147 0.008044143 -0.15016374 -0.18132178 0.18947484 -0.01811143
0.027018996 0.071455434 0.12213301 -0.19755591 -0.15191421 0.1392271 0.072825015 0.042262476
-0.012222193 -0.019189654 0.025864363 -0.05202872 0.13796829 -0.18536754 -0.02629848 0.08784886
-0.10646496 -0.09324486 0.114029005 -0.06289753 0.1998298 -0.06810663 0.18408068 -0.0767969
0.10351736 0.018702952 -0.14104088 -0.035298277 0.1364025 0.18570592 0.20188184 0.20521244
-0.19355342 -0.08467236 0.14089558 -0.17475455 -0.052376475 0.1415372 0.0309408 0.011219092
0.068003744 0.06645578 0.04813315 0.0957099 -0.18358047 0.115697004 0.1134769 -0.08405956
0.19158547 -0.14968184 0.07265493 0.047422156 -0.04290594 -0.011047005 -0.111482784 0.085737154
0.14002444 -0.036787175 -0.0610431 -0.0075895246 0.11841176 0.10383929 0.11681237 -0.06528889
-0.03246557 0.0782068 -0.11978856 0.008017526 -0.08232164 0.1314087 0.09643021 -0.094119884
-0.092278495 -0.088318564 -0.053052522 0.17601919 0.15721336 0.122000195 -0.15075752 0.057502404
0.1383704 0.11041507 0.18202251 -0.007426733 0.08645657 -0.013457321 -0.16850244 -0.20249517
0.057892695 -0.1478264 0.090419374 -0.084099405 -0.04295398 0.20363453 0.15730031 0.0426358
-0.139033 0.10124075 -0.14253896 0.12984346 0.101326205 -0.20818932 0.047155373 0.18351191
-0.14495356 -0.21478821 -0.11573045 -0.047370173 -0.012798828 -0.036577675 0.1724118 -0.06678278

GAT_layers.1.GAT_heads.2.f.weight f4 [64, 128]
00000000: 6bdf 473d a753 04be 53cf 10be 3576 083e
00000010: ac4e 6cbd 672f d4bd 298b a93d a9f7 293e
00000020: c2a5 593d 44f3 2abe e545 31be 9aab 143e
00000030: 3f72 27be 7031 83bd ec7d 8cbd 9ddd 273e
00000040: a6ee f63d 4c0d 00be 0e79 643d 76e1 38bc
00000050: 39d9 193d 7fcf 1abe e3fe 56bd 170b 663d
00000060: c7e9 2dbe 1c02 22bc 0d21 11be 061b bebd
00000070: e7a6 a53d d074 723d 228f b2bd d57b c6bd
00000080: 1a29 123e c0b8 0fbe 8551 8abd f681 16bd
00000090: 0e14 913d 69a1 15be 04c3 093d 333c 0dbe
000000a0: da31 93bc fe46 58bc a4e4 953d c423 ac3d
000000b0: 3654 f23d a78f b13d 97c4 dcbd d7e3 1cbc
000000c0: dcba 983d a0fd 1d3d 5e85 0d3d 8383 143e
000000d0: c662 20be d865 9c3d d549 66bd eae3 e23c
000000e0: 1b20 073d 0d63 483d 9aad 10be 1bd7 f6bd
000000f0: c29d 003e d6fa 953d 1e18 b73c 2d22 7ebd
00000100: 5bf4 cfbd e34b a33c e448 e33c 7603 583c
00000110: 8d35 2ebd b32e 1cbe f862 ea3c bb8d dbbc
00000120: 6e87 17be 9604 bd3d b2f3 e3bc ba74 303e
00000130: 96e1 083e 5460 01be 7bc3 29be 9aac 41bd
00000140: a386 c6bc 3bdb 3bbd 67e4 20bc 73c1 c4bd
00000150: 7a2c 2d3e 641c e0bd 306e 023e 2f9b 023e
00000160: e1b3 9abd a639 83bd 18d1 203d 63cb dfbd
00000170: 708f ea3d 5d00 bfbd 23ae 77bc a76b f5bd
00000180: c3c1 c1bd 436c 06be c33f a43d 8d90 ed3d
00000190: a757 693d e1a9 a5bc 4da0 2fbe 04e2 ba3d
000001a0: c89b 103e 85d1 a3bd 01c3 e4bd c44c f4bd
000001b0: 56ad 90bd 1d46 a6bd e39f 0bbe 3bc5 023e
000001c0: 883a 143d 7397 adbc ed1f 2cbe b229 53bd
000001d0: 44bd b03d 8492 8dbd 95ff 443d 8b9f 30be
000001e0: 4b17 303e eba4 963d 1be0 423d 8055 fdbd
000001f0: 6b0e 26bd 1c6f 233d c3ee 97bd 764a e43c
00000200: dab2 8dbd 03f7 b5bd ae57 03bd 4533 e2bd
00000210: 3a05 1e3e 80cd 173e 123c ccbd cc68 04bd
00000220: 4039 033e 51a7 1e3e c460 253e 5bd1 1dbe
00000230: 2cb6 88bd 6936 2dbe 2bf8 c2bd 1558 933b
00000240: 9fcc c53a e08c 22be fc56 193e ebad 54bd
00000250: 95d8 d1bc 9e47 7cbd 5b50 073e 6f2f 99bc
00000260: 1f47 d83d 77d9 2b3e e877 40bd 169a 33be
00000270: 9f3b e7bb 0c7c 333e 67da c93d 0712 c03d
00000280: 645f 2f3e 8afc 163e 9770 86bd 3c5e bbbb
00000290: bd68 a93d 5213 a93d 3d1f 243e bdf7 2f3c
000002a0: 862b 803c f398 ac3d 7e70 18be 125d 1c3d
000002b0: 00bd 173d 68bf 0fbe 4b64 dc3d a762 9ebc
000002c0: 0912 1c3e 8e33 c5bd fa95 82bc a3c9 103e
000002d0: cde1 d0bd 4534 dfbd 86a1 8e3d b3e7 8bbd
000002e0: fd04 a7bd c839 533d b19a bd3d 8446 0abe
000002f0: 3753 d7b9 af0b 94bd 54ca 40bd 46d2 42bd
00000300: 780e 213e 2e7d f4bd 09f0 f13d 23b8 6b3b
00000310: 34d4 1f3c 9822 0dbe b11b 1fbd bc3e 0b3e
00000320: 9670 cc3d b6b4 f43a a6b5 11be cde8 26be
00000330: 8d46 14be fd32 323e b572 23be 57e7 243e
00000340: aa50 d53c 3259 21be 69d7 053d 1011 03be
00000350: 5c70 173e ca48 e93d 47d7 233d f9d5 d33d
00000360: 6752 783d 7485 e63d 971f 08bd fc8b d93d
00000370: 6ca1 023d 8ef9 76bd 8705 863c eed6 02be
00000380: 61c3 983c 3b35 c43d 3c29 993d 2565 013e
00000390: a7ec 993d 0487 e7bc aa2c d1bc 45c0 153e
000003a0: bf27 583d 6624 d6bc 2474 9a3d 371f 5c3d
000003b0: 777f 21be 85e0 263d 6cf4 27bc e862 dbbd
000003c0: 1d2f 2f3e 8148 08be 49fb c2bc 1efe 0fbd
000003d0: 97a9 b63d 9e69 2d3e 477f c83d 1492 143d
000003e0: f315 16be 27d7 8e3d dbac 01be 502b a63d
000003f0: e2cd 6b3c 2db2 2d3e 97d9 8fbd 6578 0fbe
0.048797052 -0.12922536 -0.14141588 0.13326342 -0.057692215 -0.10360604 0.08278496 0.16598381
0.053136595 -0.16694361 -0.17311819 0.14518586 -0.16352175 -0.06405914 -0.06859955 0.16393133
0.12057237 -0.12505072 0.05577951 -0.011284223 0.037560675 -0.15118216 -0.052489173 0.05616292
-0.1698371 -0.009888198 -0.14172764 -0.09282498 0.08088475 0.059193432 -0.08718707 -0.09691588
0.14273492 -0.1403532 -0.0675383 -0.036745034 0.07083903 -0.14612354 0.033633247 -0.13792495
-0.017968107 -0.01320052 0.07319 0.08405259 0.11832468 0.08669978 -0.10779684 -0.009575806
0.074575156 0.038571954 0.034551017 0.14503293 -0.15662679 0.07636613 -0.056222755 0.027696569
0.032989603 0.048922587 -0.14128724 -0.12052747 0.1256018 0.07323234 0.022350367 -0.06204431
-0.10154029 0.019933647 0.027744718 0.013184419 -0.04253154 -0.1525219 0.028611645 -0.02680098
-0.14797756 0.0922939 -0.027826164 0.17232028 0.13367304 -0.12634403 -0.16578476 -0.047283746
-0.024234122 -0.04586337 -0.00982008 -0.0960721 0.16911498 -0.10942915 0.12737346 0.1275451
-0.075538404 -0.0640748 0.039261907 -0.10927465 0.1145314 -0.09326241 -0.015117201 -0.11983424
-0.09460785 -0.13127236 0.08019974 0.115998365 0.056968357 -0.020222606 -0.17150994 0.0912514
0.14121926 -0.07998947 -0.111700065 -0.119287044 -0.07064311 -0.08118842 -0.1363521 0.1277055
0.036188632 -0.02119038 -0.16809054 -0.051553436 0.086298496 -0.06912711 0.048095305 -0.17248361
0.17196386 0.07355674 0.047577005 -0.123698235 -0.040541094 0.039900884 -0.07418587 0.027867537
-0.06918879 -0.08885004 -0.03206604 -0.11044935 0.15431681 0.14824486 -0.09972395 -0.032326505
0.12814808 0.15493514 0.16150194 -0.15411894 -0.066753715 -0.16915287 -0.095199905 0.004496584
0.0015090889 -0.15874052 0.14974588 -0.051923674 -0.02561597 -0.061591737 0.13214247 -0.018699376
0.1056044 0.16782175 -0.04698935 -0.17539248 -0.007056668 0.17527789 0.0985611 0.093784384
0.17126232 0.14744774 -0.065644436 -0.0057180207 0.0827193 0.08255638 0.16027541 0.010740218
0.015645754 0.0842761 -0.14886662 0.038174696 0.03704548 -0.1403786 0.10761317 -0.01933415
0.15241255 -0.09628974 -0.015940655 0.14139418 -0.10199318 -0.108986415 0.06964402 -0.068313025
-0.08155248 0.051568776 0.09258021 -0.13503462 -0.00041069995 -0.07228791 -0.047067955 -0.047563814
0.15728176 -0.11937939 0.11813361 0.0035967908 0.009755183 -0.13782728 -0.038844768 0.1359815
0.099824116 0.0018669579 -0.1422945 -0.16299744 -0.14480038 0.17402263 -0.15961726 0.16103874
0.02603944 -0.15756682 0.032676134 -0.12799478 0.14788955 0.113908365 0.040000226 0.103435464
0.06062546 0.11255923 -0.03323325 0.10622403 0.031892225 -0.060296588 0.016360058 -0.12777302
0.018647851 0.095804654 0.07478568 0.1263624 0.07515841 -0.028262623 -0.025533993 0.14624126
0.05277228 -0.026140403 0.07541683 0.053740706 -0.1577128 0.040741462 -0.010251146 -0.10712224
0.17107816 -0.13308908 -0.023801463 -0.035154454 0.089190654 0.16934821 0.09789901 0.036272123
-0.1465681 0.06974631 -0.12663595 0.0811373 0.014392348 0.169625 -0.07023924 -0.1401077

GAT_layers.1.GAT_heads.2.f.bias f4 [64]
00000000: c5c8 ae3d 469b c23c 5a82 35bd 8113 a13d
00000010: d413 b3b8 b86f 9a3d 71fe b13d 1989 0c3d
00000020: fe28 a63d e076 3f3c 4faa 7d3d 8936 5fbd
00000030: d565 963c 74d4 fb3c e2b5 acbb ad5a 76bd
00000040: 5029 9cbd 55ab fdbb 08c5 d03c c44f d8bb
00000050: 5d47 8cbd 25fb 253d b78d 22bd 16c7 3d3d
00000060: 5274 99bd 1cc3 17bd 1a6c 83bb f0b8 6cbd
00000070: abce dc3c 9c6e 0bbd 8300 94bd ca0f fabb
00000080: 9614 1bbd f2d8 8f3d 57a8 9ebd 2832 563d
00000090: 148b b63d dbf7 893d 6397 fdbc 00ec 813d
000000a0: 90f6 a4bc edf8 7e3d 3630 703d 440e 023d
000000b0: 27ad a73d 29ab 033d f155 f23a 78c8 95bd
000000c0: 1e7c 803d 3f1d 653d 12f9 8ebd 52c0 31bd
000000d0: af95 603a 28fc 273c efc1 4abb c219 92bd
000000e0: 9c1b 98bd 4a98 883c 2263 abbd 4125 7f3d
000000f0: 46ca 54bb 6af6 acbd 4c40 013d 46d4 1f3d
0.085343875 0.02375568 -0.044313766 0.07865048 -8.5390784e-05 0.0754084 0.08691109 0.034310434
0.081132874 0.011686057 0.061929997 -0.05449537 0.018359104 0.030740954 -0.0052707056 -0.06014507
-0.07625067 -0.0077413716 0.025484577 -0.0066013057 -0.06849549 0.040522713 -0.03968593 0.04633244
-0.074928895 -0.037051305 -0.0040106894 -0.057793558 0.026954016 -0.034041032 -0.0722666 -0.0076312767
-0.03786143 0.07023801 -0.07746952 0.052293926 0.08913246 0.06736728 -0.030955976 0.063438416
-0.020137101 0.062249113 0.058639728 0.031751886 0.08187323 0.032145653 0.0018488747 -0.07313627
0.062736735 0.055936094 -0.069811 -0.0433963 0.00085672265 0.01025299 -0.0030938347 -0.07133819
-0.07427141 0.01667418 -0.083685175 0.062291387 -0.0032469197 -0.08445437 0.03155546 0.0390208
