SLIC_GAT/best1.pt (torch, 580781 bytes, 30 tensors)

GAT_layers.0.GAT_heads.0.f.weight f4 [32, 124]
0	0x3ddb10a2	0.10696532
1	0xbd367aa5	-0.044550557
2	0x3e201cff	0.15636061
3	0xbce84a56	-0.028355759
4	0x3e1b6e02	0.15178683
5	0xbe29a64c	-0.16567343
6	0x3d44ce36	0.04804822
7	0xbc6767eb	-0.014123897
8	0xbd0fe7f9	-0.035133336
9	0xbdad9ab6	-0.084767744
10	0x3e360152	0.17773941
11	0xbe2269a3	-0.1586061
12	0x3e128d8a	0.14311805
13	0x3e09258b	0.13393228
14	0xbe07b997	-0.1325439
15	0xbd8fa78a	-0.070143774
16	0xbd86b061	-0.0657661
17	0xbdaf43a8	-0.08557826
18	0x3dca89cf	0.09889566
19	0xbdf105b1	-0.11768664
20	0xbde38c73	-0.11110773
21	0x3d906767	0.070509724
22	0x3e476282	0.19471171
23	0xbd2bf1b4	-0.041978553
24	0x3e1b679b	0.15176241
25	0xbe038a99	-0.1284584
26	0xbd72a314	-0.059237555
27	0xbddfbc8a	-0.10924633
28	0xbd3e2230	-0.046419322
29	0xbe3871d5	-0.18012173
30	0x3e05761d	0.13033338
31	0xbe3da65f	-0.18520497
32	0xbe2f9aa1	-0.1714883
33	0x3e3441c5	0.17603214
34	0x3c4e4c36	0.012591412
35	0x3e0bc94c	0.13651007
36	0x3c79d5b0	0.015248701
37	0xbd9b3017	-0.07577532
38	0x3de29387	0.11063295
39	0xbd27e338	-0.040988177
40	0xbe38a71b	-0.18032496
41	0x3d77ddfd	0.06051444
42	0x3be160c7	0.006877992
43	0xbd7a12e7	-0.061053183
44	0x3e248051	0.16064574
45	0xbe438e52	-0.1909726
46	0x3bd6c332	0.006554031
47	0x3e16e63c	0.14736265
48	0xbe3d829a	-0.18506852
49	0x3e08b8f2	0.13351801
50	0xbda228df	-0.07917952
51	0x3df1ca59	0.11806173
52	0x3e1f03f3	0.1552885
53	0xbd5b8a66	-0.053598784
54	0x3d99d01d	0.075103976
55	0x3e2e14c5	0.1700011
56	0xbcd0b564	-0.025477119
57	0xbde4f2b1	-0.11179102
58	0xbde7b223	-0.11313274
59	0xbe2cf8de	-0.1689181
60	0xbe1238b9	-0.1427945
61	0x3d9cb385	0.07651428
62	0xbe3a4ede	-0.18194148
63	0x3c95650c	0.01823666
64	0x3b23decf	0.002500463
65	0x3d2a927c	0.041643605
66	0xbdeb1b6e	-0.11479841
67	0xbdd98fa5	-0.10623101
68	0xbde62a3c	-0.11238524
69	0x3d832368	0.064032376
70	0x3ab7783f	0.0013997628
71	0x3e1d819a	0.1538147
72	0xbd1163f3	-0.03549571
73	0xbcd67cf0	-0.026182622
74	0xbe326d96	-0.17424616
75	0xbc32840f	-0.010895743
76	0x3dbf6de4	0.09347132
77	0x3db6aead	0.089200355
78	0xbc8be365	-0.017076204
79	0xbd6aca56	-0.05732187
80	0x3dbd622a	0.09247239
81	0xbc87511f	-0.016518174
82	0x3c6a1fef	0.01428984
83	0xbe2f44cf	-0.17116092
84	0x3d8527ea	0.06501754
85	0x3e30200d	0.17199726
86	0x3abacdbe	0.001425199
87	0xbc05934d	-0.008152795
88	0xbe00d8a8	-0.12582648
89	0x3d8b6ba1	0.06807638
90	0xbdc4ceaa	-0.096097305
91	0x3de82260	0.113346815
92	0xbdb9310a	-0.090425566
93	0x3e3103bc	0.17286581
94	0xbc92cba0	-0.017919362
95	0x3e175407	0.14778148
96	0x3df519ff	0.11967849
97	0x3e31ae37	0.17351614
98	0x3e217792	0.15768269
99	0x3cc20d97	0.02368812
100	0x3ced4ef2	0.028968308
101	0x3df961e5	0.12176875
102	0xbdf296ef	-0.118451945
103	0xbd970479	-0.073739
104	0xbc4b6ce0	-0.012416095
105	0xbd885f32	-0.06658782
106	0xbd977585	-0.07395462
107	0x3c9efac1	0.019406678
108	0xbe437407	-0.1908723
109	0xbe17b024	-0.14813286
110	0xbcc983f5	-0.024599055
111	0xbd607702	-0.054800995
112	0xbd1cf1d2	-0.038316555
113	0x3e2053d2	0.15656975
114	0xbd9ecc02	-0.07753755
115	0x3d5c8d3f	0.05384564
116	0xbe48ae3c	-0.19597715
117	0xbe1ec668	-0.15505373
118	0x3e1dfde5	0.15428884
119	0xbd260f23	-0.04054178
120	0xbdf6db7c	-0.12053582
121	0xbe14acf8	-0.14519107
122	0xbdfd36f7	-0.12363999
123	0xbe1f900b	-0.15582292
124	0x3dadac75	0.08480159
125	0xbd91efe3	-0.07125833
126	0xbd3c2d18	-0.045941442
127	0x3e39433b	0.18092053
128	0xbd95c921	-0.07313753
129	0xbd89d960	-0.06730914
130	0xbd151087	-0.036392715
131	0x3e4bf4e5	0.19917639
132	0x3db9921f	0.090610735
133	0x3e206319	0.15662803
134	0x3e4d12d0	0.20026708
135	0xbd51dc85	-0.051235694
136	0xbd43cfa5	-0.047805447
137	0xbe205864	-0.15658718
138	0xbd7ee014	-0.062225416
139	0x3ddc9a16	0.10771577
140	0x3db449c2	0.08803131
141	0xbdd8ec1b	-0.105919085
142	0xbe3c96b1	-0.18416859
143	0xbdc81014	-0.09768692
144	0xbdb32447	-0.08747154
145	0x3e0c9bda	0.13731328
146	0xbd4bf672	-0.049795575
147	0xbdc93ee0	-0.098264456
148	0x3e3e6df9	0.18596639
149	0x3dbf0b99	0.09328384
150	0x3da613fc	0.081092805
151	0x3e4e5934	0.20151216
152	0xbccf9c2b	-0.025343021
153	0x3d807b54	0.06273523
154	0xbda5ac54	-0.080895096
155	0x3dc430c6	0.09579615
156	0x3c71c55c	0.014756527
157	0xbdf9b0fa	-0.12191959
158	0xbcb7978d	-0.022411132
159	0xbe1bb8f6	-0.15207276
160	0x3da2a2d1	0.07941211
161	0xbe44b51c	-0.19209713
162	0xbe190d26	-0.14946422
163	0x3cb8faf0	0.022580594
164	0x3d18332d	0.03715818
165	0x3debac49	0.1150747
166	0xbd19f671	-0.03758854
167	0xbdf061d6	-0.11737411
168	0x3da777c2	0.08177139
169	0x3d86b300	0.0657711
170	0xbd947a20	-0.07249856
171	0xbc98aa06	-0.018635761
172	0x3e18d5e0	0.14925337
173	0x3e2d5b9f	0.16929482
174	0xbe17918c	-0.14801615
175	0xbe0473aa	-0.12934747
176	0x3d708c29	0.058727417
177	0x3e02b7da	0.12765446
178	0x3d466a87	0.048441436
179	0xbde5a572	-0.11213197
180	0xbd93877d	-0.07203577
181	0x3e23b78c	0.15987986
182	0x3a800763	0.0009767826
183	0x3e0184c2	0.126483
184	0x3d112282	0.0354333
185	0xbe004bf8	-0.1252898
186	0xbe160a51	-0.14652373
187	0xbd8fd88b	-0.07023724
188	0xbe1b2834	-0.15152055
189	0xbdb97899	-0.09056205
190	0xbe3e42ee	-0.18580219
191	0x3e311da9	0.1729647
192	0xbb510dc8	-0.0031899083
193	0xbdf75a3e	-0.12077759
194	0x3e1c3442	0.1525431
195	0xbe3f970a	-0.1870996
196	0x3dff7c2c	0.12474856
197	0x3d976733	0.073927306
198	0x3e13fc78	0.14451778
199	0xbe39b999	-0.18137206
200	0xbcfb2b10	-0.030660182
201	0x3ca1bad7	0.019742412
202	0x3d94778a	0.07249363
203	0x3e24b29d	0.1608376
204	0xbe076db5	-0.13225444
205	0xbb8a1f9e	-0.004215195
206	0xbd8e7243	-0.069553874
207	0x3dd73761	0.105086096
208	0x3d919d23	0.071100496
209	0x3dbeb463	0.0931175
210	0x3e334b67	0.17509232
211	0xbe0e95e7	-0.1392437
212	0x3c9eb740	0.01937449
213	0x3d0a263e	0.033727877
214	0xbe2cc079	-0.16870297
215	0x3da4971d	0.08036635
216	0xbe1fc4be	-0.15602395
217	0xbd3031c9	-0.04301623
218	0x3dbf378c	0.093367666
219	0x3c891e52	0.01673809
220	0xbdade227	-0.08490401
221	0x3c1a1a2a	0.009405652
222	0xbdc074f2	-0.093973055
223	0xbe39c049	-0.18139757
224	0xbd0a0b58	-0.033702224
225	0x3e19f61f	0.15035294
226	0xbcefb41a	-0.029260684
227	0xbe38e9e9	-0.1805798
228	0xbd1367a3	-0.035987508
229	0x3dc7eb40	0.09761667
230	0xbdc4fd86	-0.09618668
231	0xbde748fe	-0.11293219
232	0xbd2d8631	-0.042364303
233	0x3c08363c	0.008313712
234	0x3d0feb3d	0.03513645
235	0xbe3c7f1b	-0.18407862
236	0xbda887d5	-0.08229033
237	0x3df0acfa	0.11751743
238	0x3e2c4a04	0.1682511
239	0x3d26fa89	0.040766273
240	0xbc8236f1	-0.015895339
241	0x3bc73be4	0.0060801376
242	0x3d6765fd	0.056493748
243	0xbdb86fdc	-0.090057105
244	0xbd97b5a0	-0.07407689
245	0xbda147ac	-0.078749985
246	0xbe0b437b	-0.1359996
247	0x3e0fb189	0.14032568
248	0xbd67d519	-0.05659971
249	0xbe350066	-0.17675933
250	0xbd91a484	-0.07111457
251	0x3d873849	0.066025324
252	0x3d73828e	0.05945068
253	0x3d8e48f9	0.06947512
254	0xbd0395f7	-0.03212544
255	0x3d2327cd	0.03983288

GAT_layers.0.GAT_heads.0.f.bias f4 [32]
0	0xbc5db660	-0.013532251
1	0x3cb299b1	0.021801801
2	0x3c75aef6	0.014995327
3	0xbd0c9b74	-0.03432794
4	0xbd502627	-0.050817635
5	0xbd9543b8	-0.07288307
6	0xbdaf058b	-0.08545979
7	0x3dbbcaec	0.09169564
8	0xbda3ed60	-0.0800426
9	0xbc702765	-0.01465783
10	0x3d85f3ba	0.06540628
11	0xbd845981	-0.06462384
12	0x3a3e3657	0.0007256022
13	0x3da3955b	0.07987472
14	0x3c5195a7	0.012792028
15	0xbc917af1	-0.017758818
16	0x3c28bcd9	0.010298931
17	0xbda5446b	-0.0806969
18	0x3d967b6f	0.07347762
19	0xbab8e287	-0.0014105596
20	0xbd28dd0c	-0.04122643
21	0x3d2c03d4	0.04199584
22	0x3c0371ca	0.008022735
23	0x3d92e384	0.071723014
24	0x3b06f6c2	0.0020593856
25	0x3db04c58	0.086083114
26	0x3d550311	0.052004877
27	0x3ca4116b	0.020027837
28	0xbd040457	-0.0322307
29	0x3d8787e4	0.06617716
30	0x3d9fd62f	0.07804524
31	0xbd8dc9bd	-0.06923244

GAT_layers.0.GAT_heads.0.w.weight f4 [1, 124]
0	0x3d8c5f96	0.06854169
1	0x3e309b6a	0.17246786
2	0x3e5e011b	0.21680109
3	0xbd085c54	-0.033291176
4	0x3d4a9b7d	0.04946469
5	0x3d77cdaa	0.06049887
6	0xbdc0be15	-0.09411255
7	0x3df82dc0	0.12118101
8	0xbde37434	-0.11106148
9	0xbd9f727f	-0.0778551
10	0xbe105c6e	-0.14097759
11	0x3e50cc71	0.20390488
12	0x3cd96e97	0.026541991
13	0xbcc5439a	-0.024080086
14	0x3d289713	0.0411597
15	0x3e22d470	0.15901351
16	0x3d309102	0.04310704
17	0xbe12cedc	-0.14336723
18	0xbe49b303	-0.19697194
19	0xbdde1697	-0.108441524
20	0x3dececb1	0.11568583
21	0x3dc83280	0.09775257
22	0xbd0a9d25	-0.03384127
23	0x3daee879	0.085404344
24	0x3e5bd805	0.21469124
25	0x3c28b2c8	0.010296531
26	0x3de2ea3d	0.11079834
27	0xbd8a7d03	-0.06762125
28	0xbd576028	-0.052581936
29	0x3e02425d	0.12720628
30	0xbd846926	-0.06465368
31	0x3e355184	0.17706877
32	0xbe43b667	-0.1911255
33	0x3e4df031	0.20111157
34	0xbdd278e4	-0.10276964
35	0x3e1e8d4c	0.15483588
36	0x3cbcd3e9	0.023050265
37	0xbd808df3	-0.06277075
38	0xbdd760ab	-0.10516485
39	0xbdb96e6a	-0.09054263
40	0xbd900396	-0.07031934
41	0xbc329f46	-0.010902232
42	0xbd12b883	-0.035820495
43	0x3e4dde8e	0.20104429
44	0xbdd07cc5	-0.10180048
45	0xbe54d9de	-0.20786235
46	0x3ce96c87	0.028494133
47	0xbc5b37a7	-0.013379968
48	0xbd6b1cc4	-0.05740048
49	0xbe507f42	-0.20361045
50	0xbe3f28a2	-0.18667844
51	0xbdffd3fb	-0.12491604
52	0x3bdf22a8	0.0068095513
53	0xbd8ad9a2	-0.067797914
54	0x3d1e3abf	0.038630243
55	0x3e12056d	0.14259882
56	0xbd918759	-0.07105894
57	0x3ddcd9d1	0.10783733
58	0x3e59b363	0.21259837
59	0x3d5846f7	0.052802052
60	0x3e473675	0.19454367
61	0xbd6e9a30	-0.058252513
62	0x3df3733f	0.11887216
63	0x3e10e126	0.14148387
64	0xbe276315	-0.1634639
65	0x3e098691	0.1343024
66	0xbe1efe21	-0.1552663
67	0xbd9d0c39	-0.07668347
68	0x3d825def	0.06365573
69	0x3e34a046	0.17639264
70	0xbda9d81b	-0.08293172
71	0xbb1bb12f	-0.0023756733
72	0xbdb2a148	-0.08722168
73	0xbe22b478	-0.15889156
74	0xbcd7a097	-0.026321692
75	0x3e066a1b	0.13126414
76	0x3ce7ead7	0.028310223
77	0xbde4ce83	-0.111722015
78	0xbe32c590	-0.17458177
79	0x3e126671	0.14296891
80	0x3dac26c3	0.08405831
81	0xbe383e99	-0.17992629
82	0xbe484ca2	-0.19560483
83	0x3d4491cc	0.047990605
84	0x3d645e9a	0.05575428
85	0x3e3013c6	0.17195043
86	0xbcfb5738	-0.030681238
87	0x3e462207	0.19348918
88	0xbc932f69	-0.017966943
89	0x3de1fdc4	0.1103473
90	0xbcea7f1b	-0.028625062
91	0xbdc68011	-0.096923955
92	0x3e1e771c	0.15475124
93	0xbe0b0efd	-0.13579936
94	0x3e33f6dc	0.17574638
95	0xbdcc63b1	-0.09979952
96	0xbde16793	-0.11006083
97	0xbd185354	-0.037188843
98	0xbe222eaa	-0.15838113
99	0xbcc8107e	-0.024421927
100	0xbe395ec7	-0.18102561
101	0x3c1c34c9	0.009534069
102	0x3dcd3a85	0.10020927
103	0xbe24932e	-0.1607177
104	0xbe40f3b3	-0.18842964
105	0x3d83164e	0.06400739
106	0x3da39b23	0.07988574
107	0xbd8be7d3	-0.06831326
108	0x3dbc8c22	0.09206416
109	0xbde441b9	-0.11145348
110	0xbd06c586	-0.032903217
111	0xbe27cb62	-0.16386178
112	0x3e07c0fd	0.13257213
113	0xbe2eebe0	-0.17082167
114	0xbddf98da	-0.10917826
115	0x3e33322c	0.17499608
116	0xbd2cc949	-0.042184148
117	0xbbc142b9	-0.0058978465
118	0x3d8d3006	0.06893925
119	0xbd961bd1	-0.07329524
120	0x3de441a1	0.1114533
121	0xbe594db4	-0.21221048
122	0xbe4578c0	-0.19284344
123	0x3c01a479	0.0079127485

GAT_layers.0.GAT_heads.1.f.weight f4 [32, 124]
0	0x3d038672	0.03211064
1	0xbe03226d	-0.12806101
2	0xbe2f6720	-0.17129183
3	0xbe17a5a3	-0.14809279
4	0x3c21058d	0.009827984
5	0xbd9aa126	-0.07550268
6	0xbe44d07c	-0.19220155
7	0xbd922b3a	-0.07137151
8	0x3d48c7e2	0.049018748
9	0x3e02e68e	0.12783262
10	0x3dffa42a	0.12482484
11	0xbd3bd83d	-0.045860518
12	0xbe1fffb2	-0.15624884
13	0xbe224e2e	-0.15850136
14	0xbda8f573	-0.08249941
15	0x3e32cc9e	0.17460868
16	0x3cf84247	0.030305041
17	0x3e2a93bc	0.16657919
18	0xbe2dd75b	-0.16976683
19	0xba8e0a49	-0.0010836805
20	0x3e41b2ef	0.18915914
21	0xbd1256dd	-0.03572737
22	0xbd70d52d	-0.05879705
23	0x3e3ad62b	0.18245761
24	0xbd18f8c4	-0.037346616
25	0x3e40cebc	0.18828863
26	0x3de976cc	0.11399612
27	0xbdf7018e	-0.120608434
28	0x3e1e2e69	0.15447392
29	0xbc0d029b	-0.008606578
30	0x3dcee99b	0.101031505
31	0x3cb8078f	0.022464542
32	0x3e42ea8a	0.19034782
33	0x3e25ee6c	0.16204232
34	0x3baae6c4	0.0052154977
35	0x3e1e7c86	0.1547719
36	0xbe44f6d2	-0.1923478
37	0x3e10b499	0.14131393
38	0x3d363803	0.04448701
39	0x3e07277d	0.13198657
40	0x3dfac2c1	0.122441776
41	0xbd190005	-0.037353534
42	0xbdd9f5ad	-0.10642562
43	0x3d4b25db	0.04959665
44	0x3e30f2ba	0.17280093
45	0xbdd74f30	-0.10513151
46	0x3d616981	0.055032257
47	0xbcbaee27	-0.022818638
48	0x3db2677d	0.08711145
49	0xbe0f1c49	-0.13975634
50	0xbd84ebc1	-0.06490279
51	0x3e1f85a5	0.15578325
52	0x3e10690d	0.14102574
53	0x3cf49987	0.029858364
54	0xbe22a685	-0.15883835
55	0x3e1869e9	0.14884152
56	0xbd7b40f2	-0.061341234
57	0xbe3c1138	-0.18365943
58	0x3d970ea2	0.07375838
59	0x3c86c77f	0.016452549
60	0xbddc8cd4	-0.10769048
61	0xbe31d4f2	-0.17366388
62	0xbe086bb1	-0.13322331
63	0x3e27cfad	0.16387816
64	0x3e2299c9	0.15878977
65	0x3e3599b6	0.17734417
66	0xbe1a49db	-0.15067236
67	0xbbe8d820	-0.007105842
68	0x3d0f5067	0.034988787
69	0xbd8d183a	-0.068893865
70	0x3db4e42e	0.08832584
71	0x3d5bb1cb	0.053636353
72	0xbd305972	-0.04305405
73	0x3da62cc7	0.08114009
74	0xbe41c5df	-0.18923138
75	0xbe25c846	-0.1618968
76	0xbd8d73c7	-0.069068484
77	0xbe1dede8	-0.15422785
78	0x3e142e55	0.144708
79	0x3ddcb800	0.10777283
80	0x3e3c8320	0.18409395
81	0xbe1cb722	-0.15304235
82	0xbd7176d3	-0.05895121
83	0x3e32b047	0.17450057
84	0xbdf78719	-0.12086315
85	0xbc747571	-0.014920578
86	0xbdd12d83	-0.10213759
87	0xbc872606	-0.016497623
88	0xbd2a42ef	-0.04156774
89	0x3c15fa8a	0.009153971
90	0x3e437c47	0.19090377
91	0x3dc28d5f	0.09499621
92	0xbe33809d	-0.17529531
93	0x3df58b34	0.119894415
94	0x3e322fdf	0.17401074
95	0xbe06e01a	-0.13171425
96	0xbda60d1b	-0.081079684
97	0x3d8272da	0.063695624
98	0x3e46a61f	0.19399308
99	0xbe4117e1	-0.18856765
100	0x3e1bae32	0.15203169
101	0x3dff4721	0.12464739
102	0xbb82f9fa	-0.0039970847
103	0xbdc5e7cf	-0.096633546
104	0x3de6ddbe	0.11272763
105	0x3d57d5e2	0.05269421
106	0xbdcea7a4	-0.10090569
107	0xbdffb6f7	-0.1248607
108	0x3d96d675	0.07365123
109	0x3df2cdaf	0.11855637
110	0xbe0405a5	-0.12892778
111	0xbda9d662	-0.082928434
112	0xbd958913	-0.073015355
113	0xbc87803d	-0.016540641
114	0xbe415d7c	-0.18883318
115	0x3decef82	0.1156912
116	0xbe1012c1	-0.14069654
117	0xbd97fc5d	-0.07421181
118	0xbc7b9fd1	-0.015357927
119	0x3e210cb0	0.15727496
120	0x3df5e1c1	0.1200595
121	0xbe153fd7	-0.14575134
122	0x3bad3e18	0.005286943
123	0xbba41c00	-0.0050082207
124	0x3d22df77	0.039763894
125	0x3d3f67fb	0.046730023
126	0x3dfd8bb9	0.123801656
127	0xbe1c25d0	-0.152488
128	0x3e369cc3	0.17833237
129	0x3b253464	0.002520823
130	0xbdeab7c5	-0.114608325
131	0xbde91fb6	-0.113830015
132	0x3e23b837	0.15988241
133	0x3bffef22	0.0078104893
134	0xbce3b6de	-0.027797159
135	0xbd421bd5	-0.047389824
136	0x3e37eec4	0.17962176
137	0x3c979a79	0.018506275
138	0xbd12dcba	-0.035855033
139	0xbd351d55	-0.044217426
140	0x3e0f9ec5	0.1402541
141	0xbda2bf26	-0.07946615
142	0x3c3550d4	0.011066634
143	0xbd02e398	-0.03195533
144	0x3d412a35	0.047159392
145	0xbd5c08e6	-0.053719424
146	0x3c5ca434	0.013466883
147	0x3e22cd46	0.15898618
148	0xbd45a7a2	-0.04825557
149	0x3e00f7c4	0.12594515
150	0xbddeb9f4	-0.108753115
151	0x3d18863b	0.037237387
152	0xbe20d902	-0.15707782
153	0x3dd6b872	0.10484399
154	0x3d5d75cc	0.054067418
155	0xbdfd8968	-0.12379724
156	0x3da15f2f	0.07879483
157	0xbc8c9bca	-0.01716413
158	0xbd502dc1	-0.050824884
159	0x3da6e119	0.08148403
160	0x3e2babb4	0.16764718
161	0x3e18fd4d	0.14940377
162	0x3d806f08	0.062711775
163	0xbc0b50cc	-0.00850315
164	0x3e115669	0.14193119
165	0x3c054f8b	0.00813664
166	0xbd9dc55f	-0.07703661
167	0xbe1549f6	-0.14578995
168	0x3e24ff97	0.16113125
169	0xbd19423c	-0.03741668
170	0x3e3c0088	0.18359578
171	0xbdb1e7be	-0.086867794
172	0xbc54a035	-0.012977649
173	0xbe2286af	-0.1587169
174	0x3e20690d	0.15665074
175	0x3d9ab6a6	0.07554369
176	0x3e1af993	0.15134268
177	0x3dab449c	0.083626956
178	0xbdc13ff0	-0.09436023
179	0xbbda6822	-0.0066652456
180	0xbdcc5449	-0.099770136
181	0x3be7e1b3	0.007076466
182	0x3d9ea86f	0.0774697
183	0xbd3d3b0d	-0.046198893
184	0xbc9f66a2	-0.019458119
185	0xbc90627a	-0.017625082
186	0xbcac0632	-0.020999048
187	0xbe034c35	-0.1282204
188	0x3e239f47	0.15978728
189	0x3db51bbb	0.0884318
190	0x3ca065da	0.019579817
191	0x3dd18c36	0.10231821
192	0x3e2abe4c	0.16674155
193	0xbb99c503	-0.004692675
194	0xbba886ff	-0.005143046
195	0x3d8fc23a	0.07019468
196	0xbe01a4e9	-0.12660564
197	0x3c9f5f66	0.01945467
198	0xbd06c3e5	-0.032901663
199	0xbd870949	-0.06593568
200	0xbe2907f4	-0.1650694
201	0xbd4741c7	-0.048646715
202	0xbe124054	-0.14282352
203	0x3debf572	0.11521424
204	0x3d71ced9	0.059035156
205	0xbc674e6c	-0.014117818
206	0xbc4702cd	-0.012146664
207	0x3de739d5	0.112903275
208	0xbdabca4b	-0.08388194
209	0xbceeb127	-0.029137207
210	0xbe3f06b3	-0.186549
211	0xbcb050a8	-0.021522835
212	0x3b6e3e5b	0.0036353085
213	0x3d7084fb	0.05872057
214	0x3da7236a	0.081610516
215	0x3dc94ece	0.09829484
216	0xbe16a556	-0.14711508
217	0xbdb89415	-0.090126194
218	0x3d661a44	0.056177393
219	0xbd529146	-0.051408075
220	0xbd703a48	-0.05864933
221	0x3defec3b	0.11714979
222	0x3db7d221	0.08975626
223	0x3e4129f1	0.18863656
224	0x3db16e98	0.08663672
225	0xbd21b033	-0.039474677
226	0xbe30ad0b	-0.1725351
227	0xbe1f609b	-0.15564196
228	0x3b116c55	0.0022189815
229	0x3dfb32ba	0.12265535
230	0x3db7377a	0.08946128
231	0x3d7aff64	0.061278716
232	0xbdc94277	-0.0982713
233	0xbba52299	-0.0050395248
234	0x3d82b553	0.06382241
235	0xbe3f1039	-0.18658532
236	0xbe014a9a	-0.12626114
237	0xbdf857a2	-0.1212609
238	0xbdbdaa24	-0.092609674
239	0x3e02f9fc	0.12790674
240	0xbdd219d5	-0.10258833
241	0xbe2c01ae	-0.16797516
242	0xbdc01e61	-0.09380794
243	0xb9f17009	-0.00046050575
244	0xbd80ddd6	-0.06292312
245	0xbd18b9f8	-0.03728673
246	0x3e1a51c1	0.15070249
247	0x3e2681cb	0.1626045
248	0x3d853279	0.065037675
249	0x3e45ccbf	0.19316386
250	0xbe4e502a	-0.20147768
251	0xbe0cfb8a	-0.1376783
252	0xbe243b4d	-0.16038246
253	0x3e1a0550	0.15041089
254	0xbdba931b	-0.091100894
255	0xbd438933	-0.047738265

GAT_layers.0.GAT_heads.1.f.bias f4 [32]
0	0x3a648c39	0.00087184046
1	0xbd8c4cec	-0.06850609
2	0xbbf598a7	-0.007495004
3	0x3c29c36b	0.010361533
4	0x3d2be9a3	0.04197086
5	0x3cb7a3b2	0.022416923
6	0x3d633f06	0.055480026
7	0xbd5ab8c9	-0.05339888
8	0x3da91936	0.08256762
9	0xbc3cb1e1	-0.011517019
10	0x3ce611c4	0.028084643
11	0x3da3d529	0.079996414
12	0xbd6c67ea	-0.057716288
13	0xbd9a014e	-0.0751978
14	0x3d2279c8	0.03966692
15	0xbc801183	-0.01563335
16	0xbdaa852b	-0.08326181
17	0x3cc63abf	0.024197934
18	0x3c021730	0.007940099
19	0xbd7a80f8	-0.06115815
20	0xbdb27077	-0.08712857
21	0x3bbb075d	0.005707665
22	0xbd58b1a7	-0.052903797
23	0xbd9b82de	-0.0759332
24	0x3d2cbc14	0.042171553
25	0x3d31ab2e	0.04337614
26	0x3d815f0f	0.06316959
27	0x3d556bde	0.052104823
28	0x3d3a2bdd	0.045451988
29	0x3daf0082	0.08545019
30	0xbd3eb3fa	-0.046558358
31	0x3d8a1cfa	0.06743808

GAT_layers.0.GAT_heads.1.w.weight f4 [1, 124]
0	0x3afbab07	0.001920075
1	0xbe474c9b	-0.19462816
2	0x3e34e725	0.176663
3	0x3c92687a	0.017872084
4	0xbe562dae	-0.20915863
5	0xbd3a8334	-0.04553528
6	0x3c3ff75d	0.011716691
7	0xbe44aefb	-0.19207375
8	0xbdceb348	-0.10092789
9	0xbdf15c69	-0.11785204
10	0x3b6573a6	0.0035011559
11	0xbda306ee	-0.07960306
12	0x3e5f07b3	0.21780281
13	0x3d57f7b6	0.05272647
14	0x3cd772af	0.026299803
15	0x3d2afbee	0.041744165
16	0x3dc65ae3	0.09685304
17	0x3e20daf9	0.15708531
18	0xbe2e6c18	-0.17033422
19	0xbd369e98	-0.04458484
20	0xbd1e3153	-0.038621258
21	0x3e270c9a	0.16313401
22	0xbe2fbd79	-0.17162122
23	0xbe2bb978	-0.1676997
24	0xbe3d6188	-0.18494236
25	0xbe28ae79	-0.16472806
26	0x3dfa64cd	0.122262575
27	0x3d704376	0.058658086
28	0xbdc16e61	-0.09444881
29	0x3db5b7c5	0.08872942
30	0xbc80389e	-0.015651997
31	0xbc686373	-0.014183867
32	0xbe33fc47	-0.17576705
33	0xbe3a325f	-0.18183278
34	0xbe244123	-0.16040473
35	0x3d6636fd	0.056204785
36	0xbe03e438	-0.12880027
37	0xbe2ff75a	-0.17184201
38	0xbc6d4a60	-0.014483064
39	0x3e37cc66	0.17949066
40	0x3dfc07c9	0.123061724
41	0x3e41f73f	0.18941973
42	0x3ccb1d70	0.02479431
43	0x3dbbf777	0.091780595
44	0x3d46087d	0.04834794
45	0x3e58fe07	0.21190654
46	0xbe5a887f	-0.21341132
47	0xbdf8148a	-0.121132925
48	0xbe47ba6f	-0.19504713
49	0xbc2c537f	-0.010517954
50	0xbe5c1628	-0.21492827
51	0x3e33d5f0	0.1756208
52	0x3e4b98fa	0.19882575
53	0xbe3c7601	-0.1840439
54	0xbe052dfa	-0.1300582
55	0x3d628e07	0.05531123
56	0xbe12d2c7	-0.14338218
57	0x3d7e31c6	0.062059186
58	0xbddde583	-0.108347915
59	0xbdcc4dc6	-0.099757716
60	0x3dc1bc0f	0.094596975
61	0xbddb6c73	-0.107140444
62	0xbdd3a80d	-0.103347875
63	0x3e008194	0.1254943
64	0x3e1c8ffc	0.152893
65	0xbb29c113	-0.0025902435
66	0xbe3dd3fb	-0.18537895
67	0x3c10f081	0.008846403
68	0xbd085433	-0.033283424
69	0xbe5bff07	-0.21484004
70	0xbe06c21c	-0.13159984
71	0xbd3a72cc	-0.045519635
72	0xbc87a693	-0.016558921
73	0x3c0f3bbe	0.008742271
74	0x3e13d2c5	0.14435871
75	0xbdca4113	-0.09875693
76	0xbdaeda18	-0.08537692
77	0xbdeaaea0	-0.11459088
78	0xbd91346a	-0.07090075
79	0x3e245c9f	0.16050957
80	0xbe082b6c	-0.13297814
81	0xbce5cffc	-0.028053276
82	0xbcf01682	-0.029307608
83	0x3db09afa	0.086233094
84	0x3d48688a	0.04892782
85	0x3da7699f	0.081744425
86	0x3e05ef17	0.13079487
87	0xbe52c346	-0.20582303
88	0x3e12f1a0	0.14349985
89	0xbd6926ae	-0.056921653
90	0x3e0f1e70	0.13976455
91	0xbe075103	-0.13214497
92	0x3e027598	0.12740171
93	0x3c268035	0.010162403
94	0xbe526481	-0.20546152
95	0x3e13a033	0.1441658
96	0xbdbbd5a3	-0.09171607
97	0x3dd6cdf6	0.10488503
98	0xbe511880	-0.20419502
99	0xbbbe613a	-0.00580993
100	0xbde24e45	-0.11050085
101	0xbd83d0aa	-0.06436284
102	0xbd067f2e	-0.03283613
103	0x3d280da9	0.041028652
104	0x3d5a55ef	0.05330461
105	0x3d5a932c	0.05336301
106	0x3db2cce6	0.087304875
107	0xbc3f96b1	-0.0116936425
108	0xbd9f13a3	-0.07767417
109	0x3cafdfff	0.021469114
110	0xbe4380f0	-0.19092155
111	0x3e28982b	0.16464297
112	0x3d62b5dc	0.055349216
113	0x3e61d946	0.2205554
114	0xbe5e016d	-0.21680231
115	0xbda9e1af	-0.08294999
116	0x3dee5ee7	0.11639195
117	0xbe06531b	-0.1311764
118	0xbd6f53f2	-0.058429666
119	0xbdab52e8	-0.083654225
120	0x3d26486b	0.040596407
121	0xbc054b34	-0.008135606
122	0x3d594b22	0.053050168
123	0xbe39bada	-0.18137684

GAT_layers.1.GAT_heads.0.f.weight f4 [64, 128]
0	0xbca4e85a	-0.020130325
1	0xbdbdc675	-0.09266368
2	0x3cb0ca26	0.021580767
3	0xbe0fe091	-0.14050509
4	0xbd0eb97d	-0.034844864
5	0x3e1f94c8	0.155841
6	0xbe27fbcc	-0.16404647
7	0x3d2d08ba	0.04224465
8	0xbd9f3b9f	-0.07775044
9	0x3e294629	0.1653067
10	0xbe30e3d5	-0.17274411
11	0xbe2e07df	-0.1699519
12	0x3df4035e	0.11914705
13	0x3c273e5c	0.010207739
14	0xbde9e508	-0.11420637
15	0xbe166c45	-0.14689739
16	0x3d6ea451	0.058262173
17	0xbe31c244	-0.17359263
18	0xbde026f1	-0.109449275
19	0xbe1957bd	-0.14974876
20	0xbda5b20a	-0.08090599
21	0x3e316385	0.1732312
22	0x3cd5c7c5	0.026096234
23	0xbe0ab482	-0.13545421
24	0xbd78082d	-0.060554672
25	0xbd21b71d	-0.03948127
26	0xbdd28518	-0.10279292
27	0xbd5902b4	-0.052981094
28	0xbda8e17b	-0.08246132
29	0x3d56ed37	0.05247232
30	0xbd46077d	-0.048346985
31	0x3de88214	0.113529354
32	0x3e1a193a	0.15048686
33	0xbd94aa03	-0.0725899
34	0xbdc2defe	-0.09515189
35	0xbde739ad	-0.11290298
36	0xbdc784c6	-0.097421214
37	0x3c5a3456	0.013318142
38	0xbcd79549	-0.026316302
39	0xbd3fc1a0	-0.046815515
40	0x3df00014	0.11718765
41	0x3e0cbed7	0.13744675
42	0xbdee8413	-0.11646285
43	0x3e2e1b03	0.17002492
44	0x3e250cf9	0.1611823
45	0x3def47a4	0.11683586
46	0xbc9fa457	-0.019487543
47	0xbdca4a5b	-0.098774634
48	0x3e1e67b2	0.15469244
49	0xbded901c	-0.11599752
50	0x3db3c817	0.087783985
51	0xbd982a2f	-0.07429921
52	0x3dd8a86d	0.10579
53	0x3df29782	0.11845304
54	0x3d299d7c	0.041409954
55	0x3e18d724	0.1492582
56	0x3cb7be57	0.022429628
57	0x3e1ad314	0.15119582
58	0x3b0cfbb0	0.0021512322
59	0xbd3fb16e	-0.04680007
60	0x3df24a66	0.118305966
61	0xbca05f8a	-0.019576807
62	0x3d82b7af	0.06382691
63	0xbd74ffdd	-0.059814323
64	0x3e048b1c	0.12943691
65	0xbdf8c371	-0.121466525
66	0x3d376cf9	0.04478166
67	0x3bd92783	0.0066270246
68	0xbd692096	-0.056915842
69	0xbe35497e	-0.17703816
70	0xbe05d95f	-0.13071202
71	0x3bc08777	0.0058755237
72	0xbe011caf	-0.12608598
73	0x3cc11f67	0.023574544
74	0xbe31478a	-0.17312446
75	0x3dd58c34	0.10427132
76	0xbdb52af8	-0.08846086
77	0xbdcc4ba9	-0.099753685
78	0xbd241834	-0.040062144
79	0x3d3a8826	0.045539998
80	0xbdf9b6b2	-0.121930495
81	0xbdcd5529	-0.10026009
82	0xbd020214	-0.031740263
83	0xbbb40b84	-0.005494537
84	0x3db00512	0.08594717
85	0xbdb8d3e9	-0.09024794
86	0xbdaeee75	-0.08541576
87	0xbb041acc	-0.0020157574
88	0x3e17a0db	0.14807455
89	0xbdcfc3c0	-0.10144758
90	0x3dba315c	0.09091446
91	0x3dd3f901	0.10350228
92	0xbce4b224	-0.027916975
93	0xbe22c1e4	-0.15894276
94	0x3e19df9d	0.15026708
95	0x3da32689	0.079663344
96	0xbddd1ccb	-0.107965074
97	0xbcb1544c	-0.021646641
98	0x3d476535	0.048680503
99	0xbc2902ae	-0.01031558
100	0x3dc2ff68	0.09521371
101	0x3dbdbdcb	0.09264716
102	0xbdc2031c	-0.09473249
103	0x3e224c6d	0.15849467
104	0x3d888ade	0.06667112
105	0x3dee762f	0.116436355
106	0x3ce0d02c	0.027443014
107	0xbe335e06	-0.17516336
108	0xbd1512cd	-0.036394883
109	0xbe12071b	-0.14260523
110	0x3e24b2ee	0.16083881
111	0x3ca2f5f9	0.01989268
112	0xbdd8e3ea	-0.10590346
113	0xbd90a958	-0.0706355
114	0x3e08bf13	0.13354139
115	0x3d1b1a99	0.037867162
116	0x3c3bb0f7	0.011455766
117	0x3d17688b	0.036964934
118	0x3d7224d8	0.05911717
119	0xbd5c43be	-0.05377554
120	0xbc997822	-0.018734042
121	0x3dce6992	0.1007873
122	0x3e17833d	0.14796157
123	0x3db91a3e	0.090382084
124	0xbd09c2d4	-0.03363307
125	0xbdf3d724	-0.11906269
126	0x3da883fa	0.082282975
127	0xbccdd7fc	-0.025127403
128	0x3d2da663	0.042395007
129	0xbdc3e910	-0.095659375
130	0xbd60ef70	-0.054915845
131	0xbe331805	-0.17489631
132	0x3dd4ab6e	0.1038426
133	0xbdd247f1	-0.10267628
134	0xbbdec97a	-0.00679892
135	0xbd856bc7	-0.065146975
136	0xbd7fd81e	-0.062461965
137	0x3e0edcfe	0.1395149
138	0xbe07f056	-0.13275275
139	0xbdaf3af2	-0.08556165
140	0xbd3a42f9	-0.045474026
141	0x3dfc2760	0.12312198
142	0x3e094190	0.13403916
143	0xbd9269c1	-0.07149077
144	0xbdead881	-0.11467076
145	0x3d5ad538	0.053425997
146	0x3dcefc57	0.10106724
147	0xbd165805	-0.036705036
148	0xbe309ea7	-0.17248021
149	0xbd188204	-0.037233368
150	0xbdd5194d	-0.10405216
151	0x3dc37fd2	0.09545864
152	0x3cddb9c1	0.027066113
153	0xbe091df2	-0.1339033
154	0x3e31c5bc	0.17360586
155	0xbda0e35f	-0.078558676
156	0x3dd32ed2	0.10311665
157	0x3de885e2	0.11353661
158	0xbdc273c1	-0.094947346
159	0x3e00bceb	0.12572066
160	0x3dba539a	0.09097977
161	0x3dbc47d0	0.09193385
162	0x3e217001	0.15765382
163	0x3cafd7de	0.021465238
164	0xbe1e58da	-0.15463582
165	0x3d68ef0e	0.056868605
166	0xbdeecdba	-0.11660333
167	0x3cc698c7	0.024242772
168	0xbd7a822e	-0.061159305
169	0xbd4ee5c4	-0.05051209
170	0x3dc91001	0.09817506
171	0x3bbe78a2	0.0058127204
172	0x3d350dc2	0.044202574
173	0x3e131eef	0.14367269
174	0xbc560423	-0.01306251
175	0x3e1b2371	0.15150239
176	0xbdc8ec3a	-0.09810682
177	0x3d2c66f1	0.04209036
178	0x3df02cf3	0.117273234
179	0xbe0eb3c1	-0.13935758
180	0xbde9d0f1	-0.114168055
181	0xbd9f1d79	-0.07769293
182	0x3d2ee334	0.042697147
183	0xbdef5bcc	-0.11687431
184	0xbd1f4664	-0.03888549
185	0xbd7f9ad8	-0.06240353
186	0x3e016fee	0.12640354
187	0x3e05bca8	0.13060248
188	0x3da22b8a	0.07918461
189	0xbe19f61a	-0.15035287
190	0x3dda7a39	0.10667843
191	0x3cec2dea	0.028830487
192	0xbd5c28f0	-0.05374998
193	0x3d162856	0.03665956
194	0x3d39cae0	0.045359492
195	0xbcf9b794	-0.030483045
196	0x3deb409d	0.114869334
197	0x3e2b051c	0.16701168
198	0x3d408388	0.047000438
199	0x3d315441	0.04329324
200	0x3e0040c7	0.1252471
201	0x3e1cfdde	0.15331218
202	0x3cb76d75	0.02239106
203	0xbd9ca1fe	-0.07648085
204	0xbd05c0a1	-0.03265441
205	0xbdbed073	-0.09317102
206	0x3d7263ce	0.059177212
207	0xbc144de3	-0.009051773
208	0x3e313c7c	0.17308229
209	0x3dfd7b71	0.1237706
210	0xbc7dc48d	-0.015488756
211	0xbe2b0c0d	-0.16703816
212	0x3e2498f4	0.16073972
213	0xbda5737d	-0.08078668
214	0x3dce6cf0	0.10079372
215	0x3dd38365	0.10327796
216	0x3e048a28	0.12943327
217	0x3e241297	0.16022716
218	0x3dba8f27	0.091093354
219	0xbd2a14a1	-0.04152358
220	0xbe08c7b1	-0.13357426
221	0x3def1a25	0.116749085
222	0x3e0a0dd8	0.13481843
223	0xbe18bbd1	-0.14915396
224	0x3e0a53b7	0.13508497
225	0x3d476575	0.04868074
226	0xbcd18b22	-0.025579039
227	0x3d2baec0	0.0419147
228	0xbd472377	-0.048617806
229	0x3e13b654	0.14425021
230	0xbe0cc73f	-0.13747881
231	0x3c9593cf	0.018258957
232	0xbd798903	-0.06092168
233	0xbc97b242	-0.018517617
234	0x3e2be3c9	0.16786112
235	0xbd91f333	-0.07126465
236	0x3c094846	0.008379048
237	0xbd96f146	-0.07370238
238	0xbdaa5872	-0.08317651
239	0xbcff71cf	-0.031182198
240	0x3ce0b016	0.027427714
241	0xbe2f2fc2	-0.17108062
242	0x3d8cb2af	0.06870019
243	0x3d9e5aaa	0.077321365
244	0x3de4d982	0.11174299
245	0xbe010781	-0.12600519
246	0x3d881111	0.0664388
247	0xbcea63d8	-0.028612062
248	0xbb821840	-0.003970176
249	0x3e2565d6	0.16152129
250	0x3e210a20	0.15726519
251	0xbd855860	-0.06510997
252	0xbda21d08	-0.079156935
253	0x3e0d5237	0.13800894
254	0x3de83031	0.11337317
255	0x3e1c05f7	0.1523665

GAT_layers.1.GAT_heads.0.f.bias f4 [64]
0	0x3d52fff0	0.051513612
1	0xbced240c	-0.028947853
2	0x3d6df41b	0.058094125
3	0xbd7a0809	-0.06104282
4	0xbdacf49c	-0.08445093
5	0xbb9350ad	-0.0044957013
6	0x3c936eb9	0.017997133
7	0xbb9cb157	-0.0047818827
8	0xbd7557c0	-0.059898138
9	0x3d626171	0.05526871
10	0x3d121e42	0.035673387
11	0x3c2479bc	0.010038789
12	0xbccc73a5	-0.024957487
13	0xbceae34e	-0.02867284
14	0x3cb1852a	0.021669943
15	0x3d26eaf8	0.040751427
16	0xbcad136c	-0.021127425
17	0xbd0749a3	-0.03302921
18	0x3db9ea6b	0.09077915
19	0x3d633ef3	0.055479955
20	0x3d821c56	0.06353061
21	0x3b81ae72	0.003957563
22	0x3cd41ab0	0.025891632
23	0xbd4da2ef	-0.050204214
24	0xbcdf7d42	-0.027281407
25	0xbb9df80f	-0.0048208307
26	0x3d1b5629	0.037923966
27	0x3d49ab7b	0.049235802
28	0xbdaed1a0	-0.085360765
29	0xbdaf09f4	-0.0854682
30	0x3d25d46c	0.040485784
31	0x38b882cd	8.798167e-05
32	0xbba6f5c9	-0.005095218
33	0xbc4fb39a	-0.012677098
34	0xbd549200	-0.05189705
35	0x3c3446ed	0.011003238
36	0x3d2f5e63	0.042814624
37	0x3ccd3d8e	0.025053766
38	0x3db25760	0.08708072
39	0x3c9a1092	0.01880673
40	0x3d2d0b4a	0.042247094
41	0x3d896e44	0.067104846
42	0x3d0c134f	0.0341981
43	0x3db9038f	0.09033882
44	0xbd0bf02e	-0.0341646
45	0x3d87d10f	0.06631672
46	0x3d592cd5	0.05302127
47	0xbcbef376	-0.02330945
48	0x3d0bb2a0	0.034105897
49	0x3ce0cc61	0.027441205
50	0xbdb77932	-0.08958663
51	0x3d3cc6f9	0.046088193
52	0x3ab82295	0.0014048392
53	0x3da68ae9	0.08131964
54	0x3c7e89b1	0.015535758
55	0xbd5b55fe	-0.053548805
56	0x3d8105d9	0.062999435
57	0xbcf75c11	-0.030195268
58	0x3d9339fc	0.07188794
59	0x3d40aa1a	0.04703722
60	0xbd34f50a	-0.044179
61	0x3c719195	0.014744182
62	0x3d61cc15	0.05512627
63	0x3d993748	0.07481247

GAT_layers.1.GAT_heads.0.w.weight f4 [1, 128]
0	0x3e2d665a	0.16933575
1	0xbda577e7	-0.0807951
2	0x3e03f7dd	0.12887521
3	0xbcc8604f	-0.024459986
4	0xbdf10eec	-0.11770424
5	0xbd9f8264	-0.07788542
6	0xbb275516	-0.0025532893
7	0x3c1323b7	0.008980683
8	0xbdbd9b47	-0.092581324
9	0xbe0357e0	-0.1282649
10	0xbdaa7f3b	-0.083250485
11	0x3e5c839a	0.21534577
12	0xbd4b7fe2	-0.049682505
13	0x3d72b3f2	0.05925364
14	0x3c98d3a6	0.01865561
15	0x3d68f2f8	0.056872338
16	0xbdc99125	-0.09842137
17	0xbbc4d21b	-0.006006492
18	0x3e33bf50	0.17553449
19	0x3dc27cea	0.09496482
20	0x3e55c8e9	0.20877422
21	0x3e44f173	0.1923273
22	0xbbed11fd	-0.0072348104
23	0x3d343c74	0.044002965
24	0xbe4c1aa6	-0.1993204
25	0xbe40001b	-0.1875004
26	0x3e50857d	0.20363422
27	0xbcc14f07	-0.023597253
28	0x3de51e8c	0.11187467
29	0xbe5108e2	-0.20413545
30	0x3e0895a8	0.1333834
31	0x3da05092	0.078278676
32	0xbde797d6	-0.11308257
33	0x3bd1cca4	0.006402569
34	0xbe0cb255	-0.13739903
35	0xbcf46f9d	-0.029838378
36	0xbe13c239	-0.14429559
37	0x3d1f8d5c	0.03895317
38	0xbe09b51c	-0.13447994
39	0x3e3ce541	0.18446828
40	0x3e203b58	0.15647638
41	0x3e2df7a3	0.16988997
42	0xbe314ffe	-0.17315671
43	0x3c432cdc	0.011912551
44	0x3d02e153	0.031953167
45	0x3d8f657c	0.070017785
46	0x3dc72562	0.09723927
47	0x3e36a9e1	0.17838241
48	0x3e4be553	0.19911699
49	0xbe13c069	-0.14428867
50	0x3db823a1	0.08991171
51	0xbe215d0d	-0.15758152
52	0x3d42dfc1	0.04757667
53	0xbd6e8f78	-0.05824229
54	0xbb7bdc62	-0.003843092
55	0x3bf35bf4	0.007426733
56	0xbafb6794	-0.0019180649
57	0xbdb89f30	-0.090147376
58	0x3e2773e2	0.163528
59	0xbbe6c467	-0.007042456
60	0x3dec8294	0.11548343
61	0x3da83b34	0.08214417
62	0xbd0b0490	-0.033939898
63	0x3d0615c3	0.032735597
64	0xbe481084	-0.1953755
65	0xbe1faf02	-0.15594104
66	0x3e195b5b	0.14976256
67	0xbe349ee6	-0.1763874
68	0xbe49aef6	-0.19695649
69	0x3e49aef2	0.19695643
70	0xbd8d653c	-0.069040745
71	0x3d69baca	0.0570629
72	0xbdc26976	-0.09492771
73	0x3e3e49a6	0.18582782
74	0x3c3b9417	0.011448882
75	0xbe34178f	-0.17587112
76	0xbd22ff0e	-0.03979402
77	0x3e2078ba	0.15671054
78	0xbd62338b	-0.055224936
79	0xbc6b7d4e	-0.014373137
80	0x3cafff83	0.021484142
81	0x3e34baa9	0.1764933
82	0xbc38c738	-0.011277966
83	0xbdf748a2	-0.120744005
84	0xbd06c518	-0.032902807
85	0xbe10f6e7	-0.14156686
86	0xbdfeffcd	-0.12451134
87	0x3d5f2479	0.054478142
88	0xbe5b2f07	-0.21404658
89	0xbe353fa4	-0.17700058
90	0x3df5a0dd	0.11993573
91	0x3e36df25	0.1785856
92	0xbd692c65	-0.056927104
93	0xbd8e7245	-0.06955389
94	0xbe582898	-0.21109235
95	0x3e43f9a1	0.19138195
96	0xbe1591e9	-0.14606442
97	0x3dfb84c5	0.12281183
98	0xbe2a67ca	-0.16641155
99	0xbb4cdc8e	-0.003125939
100	0x3e21a5d7	0.15785919
101	0xbe1cc420	-0.15309191
102	0x3d45a9f7	0.048257794
103	0x3de9526f	0.11392676
104	0x3e3fba22	0.18723348
105	0x3df8890b	0.12135514
106	0xbde3c4f8	-0.11121553
107	0xbe514aaa	-0.20438638
108	0x3e1e66cf	0.15468906
109	0xbe425942	-0.18979362
110	0xbe023537	-0.12715612
111	0xbc831f44	-0.01600612
112	0xbd468391	-0.048465315
113	0xbe5c1422	-0.21492055
114	0x3db4c099	0.088257976
115	0x3e2420ab	0.16028087
116	0xbe0000d1	-0.12500311
117	0x3dd0c842	0.10194446
118	0x3cb7cd7d	0.022436852
119	0xbd6691b8	-0.056291312
120	0xbe4c4f97	-0.19952236
121	0xbe4d08c3	-0.20022874
122	0x3e35fe09	0.17772688
123	0xbde39c2e	-0.11113773
124	0x3df610d0	0.120149255
125	0x3d3771d3	0.044786286
126	0xbe3e22f0	-0.18568015
127	0xbe194179	-0.14966382

GAT_layers.1.GAT_heads.1.f.weight f4 [64, 128]
0	0xbcdb935d	-0.026803667
1	0xbd41d2b3	-0.04732008
2	0x3dbf8330	0.09351194
3	0xbd460eab	-0.048353832
4	0x3e17b93b	0.14816754
5	0xbe01f472	-0.12690905
6	0xbd032df3	-0.032026242
7	0xbe2f03df	-0.1709132
8	0x3cdf9a53	0.027295267
9	0x3e07aa72	0.13248613
10	0x3d2a3342	0.04155279
11	0x3c7b7084	0.01534665
12	0xbd89c193	-0.067263745
13	0x3deb8186	0.11499314
14	0x3d43c636	0.04779645
15	0xbd1fd4ee	-0.039021425
16	0x3d10e9b1	0.035379115
17	0x3db59253	0.088658
18	0x3ddda2e0	0.108220816
19	0xbe20c8c2	-0.15701583
20	0x3e1b1b24	0.15147072
21	0xbdc9eb46	-0.09859328
22	0x3da841ad	0.08215652
23	0xbc4f1e1d	-0.012641457
24	0xbdad9e04	-0.08477405
25	0xbe029bcc	-0.12754744
26	0x3c06e97b	0.008234377
27	0xbdcdfe4f	-0.10058271
28	0xbdab3c9f	-0.08361172
29	0xbd480c31	-0.04883975
30	0xbb8ce2d3	-0.0042995005
31	0x3d13e3f1	0.036106054
32	0xbd40fdc5	-0.047117013
33	0x3dc133f9	0.09433741
34	0x3d372bd5	0.044719536
35	0x3db488d7	0.08815163
36	0xbe00b856	-0.12570319
37	0xbe19e2f4	-0.15027982
38	0x3d84c135	0.06482164
39	0xbdf2bdb3	-0.118525885
40	0xbdc54cb0	-0.096337676
41	0xbe081469	-0.13289036
42	0x3d60a8f3	0.054848623
43	0xbe236093	-0.15954809
44	0xbbd60dd6	-0.006532411
45	0xbdaeac70	-0.085289836
46	0x3e297fda	0.16552678
47	0xbdc4bd0d	-0.09606371
48	0x3d5d9acd	0.054102708
49	0xbe3344e7	-0.17506753
50	0xbe33cb69	-0.17558064
51	0x3df4419f	0.11926579
52	0xbe08e914	-0.13370162
53	0x3d5c7fc2	0.053832777
54	0x3e15721c	0.1459431
55	0xbe0310f8	-0.12799442
56	0x3e20f0bd	0.15716834
57	0x3cd19721	0.02558476
58	0xbdb9e757	-0.09077328
59	0xbe1008f7	-0.1406592
60	0x3caac572	0.020846102
61	0x3d8a3a4f	0.06749403
62	0x3daa7685	0.08323387
63	0x3dd7552c	0.10514292
64	0xbd81511b	-0.06314298
65	0x3dba8609	0.091075964
66	0xbe0c26aa	-0.13686624
67	0x3de3cc8a	0.11122997
68	0x3df2d489	0.11856944
69	0xbe129a9c	-0.14316791
70	0x3e11da45	0.1424342
71	0x3db09f60	0.08624148
72	0x3ba9c15e	0.005180522
73	0x3e2b6773	0.16738681
74	0xbd8753d6	-0.06607787
75	0x3c4cd652	0.01250227
76	0xbd02952b	-0.03188054
77	0xbdec80de	-0.11548017
78	0x3d512e3f	0.051069494
79	0xbca5e20b	-0.020249387
80	0xbde442f7	-0.11145585
81	0x3dac4372	0.08411302
82	0xbe2b8e61	-0.16753532
83	0x3aa4719a	0.0012546063
84	0xbc32d2fe	-0.010914562
85	0xbdddf294	-0.10837284
86	0x3d913ba6	0.07091455
87	0xbbf6d899	-0.0075331447
88	0x3bcdc4b2	0.0062795514
89	0xbdbf8e64	-0.09353331
90	0x3d4ff54c	0.050771043
91	0x3dd488b2	0.10377635
92	0xbd681136	-0.05665704
93	0x3cdd26e9	0.026996093
94	0x3e357e98	0.17724073
95	0x3b7012b3	0.003663224
96	0xbd144b8c	-0.03620486
97	0xbd107ad0	-0.035273373
98	0xbe02a501	-0.12758256
99	0x3dff66cb	0.12470778
100	0xbd80ee08	-0.06295401
101	0xbe1bcd90	-0.15215135
102	0xbdeb098b	-0.114764296
103	0xbde63816	-0.11241166
104	0x3d86a0f9	0.06573672
105	0xbba9ac82	-0.0051780352
106	0x3dee2834	0.11628762
107	0x3d11fca9	0.035641346
108	0xbe139276	-0.14411339
109	0x3d3f8928	0.04676166
110	0xbd1bc637	-0.03803083
111	0x3ddb8a3d	0.10719726
112	0x3e09092f	0.1338241
113	0x3d9dc2f4	0.077032
114	0x3d029c47	0.03188732
115	0xbc9785f5	-0.018496493
116	0xbbf9d5fc	-0.007624386
117	0xbddf7c0b	-0.10912331
118	0x3e14f62f	0.14547037
119	0x3c08d47a	0.00835144
120	0xbe0a91ca	-0.13532177
121	0x3d64a76d	0.055823732
122	0x3d48d3d6	0.049030147
123	0xbbd3dcae	-0.006465516
124	0xbd63f748	-0.055655748
125	0xbdb6b233	-0.089207076
126	0xbdb22469	-0.08698351
127	0xbd9a27b5	-0.07527105
128	0xbd1a64cb	-0.03769378
129	0x3da91bcd	0.08257256
130	0x3e1e573b	0.15462963
131	0x3d24f63f	0.0402739
132	0xbd024be2	-0.03181065
133	0x3e01630c	0.1263544
134	0xbd99b350	-0.07504904
135	0xbe32e1e4	-0.17468983
136	0xbe043a99	-0.12912978
137	0xbe0124af	-0.1261165
138	0x3e32b95f	0.17453526
139	0xbdd417db	-0.103561126
140	0xbcc972f1	-0.024590941
141	0x3e2a182f	0.16610788
142	0xbd5aa50a	-0.05338005
143	0xbdfe7c07	-0.12426
144	0xbc497fc7	-0.012298531
145	0xbc66b9e6	-0.014082408
146	0x3dc8a848	0.09797722
147	0x3d325b6e	0.043544225
148	0xbd528fe3	-0.051406752
149	0x3da760c0	0.081727505
150	0x3ad651ff	0.0016351341
151	0x3e0f47a1	0.13992168
152	0x3e2d7673	0.16939716
153	0xbdd2d6cf	-0.10294878
154	0xbe22e46c	-0.15907449
155	0x3dbdbc2c	0.092644066
156	0x3de3c2f4	0.11121169
157	0x3b83be4c	0.004020488
158	0x3e2b6c92	0.16740635
159	0xbe342120	-0.17590761
160	0xbd894869	-0.06703264
161	0x3dee6a98	0.11641425
162	0xbd301570	-0.042989194
163	0x3d6e64b5	0.05820151
164	0xbe02ffdd	-0.12792917
165	0xbe0a8ce2	-0.13530305
166	0xbdc57b4b	-0.09642657
167	0x3e014a19	0.12625922
168	0x3e0b982d	0.13632269
169	0xbe285dc0	-0.16442013
170	0xbd51c51d	-0.051213372
171	0x3db60815	0.0888826
172	0x3cae79ba	0.021298278
173	0x3dae7f4e	0.08520375
174	0xbe226152	-0.15857437
175	0xbd4f85f3	-0.050664853
176	0x3da0cc33	0.07851448
177	0xbe1811e4	-0.14850575
178	0x3e349177	0.17633615
179	0x3d3c2812	0.04593665
180	0xbdef6533	-0.11689224
181	0x3d0b0bd8	0.033946842
182	0xbd0adb6e	-0.03390067
183	0x3d854767	0.065077595
184	0xbd86d3cb	-0.06583365
185	0x3cdd84fe	0.027040955
186	0x3d4327f2	0.047645517
187	0x3e272221	0.16321613
188	0x3d91524d	0.07095776
189	0xbe1a9ace	-0.15098116
190	0xbdfe263b	-0.12409636
191	0x3c9e691b	0.019337228
192	0xbd5cceb1	-0.053908054
193	0x3d26b251	0.0406974
194	0x3d82baab	0.0638326
195	0x3e3067b1	0.17227055
196	0x3e1dc82c	0.15408391
197	0xbe0c64ba	-0.13710299
198	0xbe12776b	-0.14303367
199	0xbdbb00a0	-0.091309786
200	0x3e1803ee	0.14845249
201	0xbd648af7	-0.05579659
202	0x3dc0837f	0.09400081
203	0x3e0936ed	0.13399859
204	0x3decb143	0.115572475
205	0x3db46d11	0.08809865
206	0xbe04b052	-0.12957886
207	0xbe08a5e3	-0.13344531
208	0x3dd6dd77	0.1049146
209	0x3e120899	0.14261092
210	0x3e197a33	0.14988022
211	0xbb935fdc	-0.0044975113
212	0xbd718dcf	-0.05897313
213	0xbd514a55	-0.05109628
214	0x3de43c55	0.1114432
215	0xbd3161d2	-0.04330618
216	0x3d9d9936	0.07695238
217	0x3cb8b1b2	0.02254567
218	0x3e33574f	0.17513774
219	0xbe2c8ac7	-0.16849814
220	0x3dae9fa5	0.085265435
221	0xbddadf92	-0.10687174
222	0x3e21a73b	0.1578645
223	0x3d1cb689	0.038260017
224	0xbdd1acc6	-0.10238032
225	0xbdae8d23	-0.085230134
226	0x3df66069	0.120301075
227	0x3e2dafa4	0.16961533
228	0xbd14b5ae	-0.036306076
229	0xbde110ac	-0.10989508
230	0xbe2e09c5	-0.16995914
231	0x3dd14bae	0.10219513
232	0xbdbabfd2	-0.09118618
233	0xbdd7a924	-0.10530308
234	0xbcf0d90f	-0.029400377
235	0xbdfdec15	-0.12398545
236	0xbc42ae36	-0.011882355
237	0xbe263fef	-0.16235326
238	0xbdeade73	-0.1146821
239	0x3dca1b96	0.09868543
240	0x3df580f1	0.11987484
241	0xbcdc2d6d	-0.02687713
242	0xbdf126e8	-0.11774999
243	0x3c51d13f	0.012806236
244	0x3dc3cb19	0.09560222
245	0x3dbcc917	0.09218042
246	0xbdb5c074	-0.08874598
247	0x3ddde9e8	0.1083563
248	0xbd072e7e	-0.033003323
249	0xbd8fe4c0	-0.070260525
250	0xbe22fe3a	-0.15917292
251	0x3d19cc37	0.03754827
252	0xbc9c1793	-0.01905421
253	0xbda89873	-0.082322024
254	0x3da952c0	0.082677364
255	0xbe27acc0	-0.16374493

GAT_layers.1.GAT_heads.1.f.bias f4 [64]
0	0xbc872512	-0.016497169
1	0x3d3bf9b0	0.045892417
2	0xbda75c4a	-0.081718996
3	0x3cd77062	0.026298705
4	0xbb58d8ee	-0.0033088285
5	0xbda90242	-0.08252384
6	0xbcf9a942	-0.030476216
7	0x3dbf2249	0.09332711
8	0x3ca3eecb	0.020011326
9	0x3d36ce3a	0.044630267
10	0x3ce4ce07	0.027930273
11	0xbdafdd21	-0.08587099
12	0x3bf9ee28	0.0076272674
13	0x3c195a10	0.0093598515
14	0xbd9bdbf7	-0.07610314
15	0xbd794df1	-0.060865346
16	0xbd66a986	-0.056314014
17	0x3c5e70cc	0.013576698
18	0x3c879491	0.016550334
19	0xbb47b93e	-0.0030475403
20	0xbd85dc83	-0.065362
21	0xbd4c7055	-0.049911816
22	0x3d23c448	0.03998211
23	0x3d2a56b1	0.04158658
24	0xbc879e87	-0.016555084
25	0xbd89aa83	-0.06721976
26	0xbda35e8c	-0.07977018
27	0x3d3bc842	0.045845278
28	0x3da0c178	0.07849401
29	0x3cbcddd0	0.023054987
30	0x3caa1f18	0.02076678
31	0xbd0c445f	-0.03424489
32	0xbd78cf1c	-0.06074439
33	0x3cf2be0d	0.029631639
34	0x3d81a706	0.06330685
35	0xbd2bec35	-0.04197331
36	0xbbe92102	-0.0071145305
37	0x3d27a3e9	0.0409278
38	0x3d414a2a	0.04718987
39	0x3d2b2e4e	0.041792206
40	0xbbe33bf6	-0.006934638
41	0x3d4deae6	0.050272845
42	0xbd2e7475	-0.04259153
43	0xbd2e536f	-0.042560037
44	0x3d9fdfee	0.07806383
45	0x3c9795bf	0.018504022
46	0xbd5c7ba0	-0.053828835
47	0x3d6b5812	0.057457037
48	0xbd2972bc	-0.041369185
49	0x3d4456a7	0.0479342
50	0xbcb1bf28	-0.021697596
51	0xbd8cf112	-0.06881918
52	0xbdafe604	-0.08588794
53	0x3d8aa13c	0.06769034
54	0x3d3d6b59	0.046244953
55	0x3b077851	0.002067108
56	0x3a0bdfb2	0.00053357624
57	0x3d459924	0.04824175
58	0xbb430d42	-0.002976254
59	0xbca2cb51	-0.01987234
60	0xbdb1881b	-0.08668538
61	0x3db1bd19	0.08678646
62	0xbda2b4cc	-0.079446405
63	0x3c6a18fa	0.014288181

GAT_layers.1.GAT_heads.1.w.weight f4 [1, 128]
0	0x3dd9ebc2	0.1064067
1	0x3e239f90	0.15978837
2	0x3d8bd42d	0.06827579
3	0x3e5021fd	0.20325466
4	0xbdce9216	-0.100864574
5	0xbdd7d5d3	-0.105388306
6	0xbda23c70	-0.07921684
7	0xbdae1187	-0.08499437
8	0xbbafe957	-0.0053683924
9	0x3e4a9824	0.197846
10	0x3de0b7ae	0.10972534
11	0x3e4a1249	0.19733538
12	0xbdc12c98	-0.09432334
13	0x3d9ac53d	0.075571515
14	0xbe1bf0ee	-0.15228626
15	0x3e147119	0.14496268
16	0xbccc191d	-0.024914319
17	0xbe0d1555	-0.13777669
18	0xbd214c29	-0.039379273
19	0xbaab1639	-0.0013052888
20	0x3de141e0	0.10998893
21	0x3e2cbec8	0.16869652
22	0xbde59e5d	-0.11211846
23	0xbde965b4	-0.113963515
24	0x3e3a176d	0.18172999
25	0xbd2be9b4	-0.041970924
26	0x3e2c5f8b	0.16833322
27	0x3d07b9fc	0.033136353
28	0x3e3cc686	0.18435106
29	0xbd2d97cd	-0.042381097
30	0x3e2f2d80	0.171072
31	0xbe23d38c	-0.15998667
32	0xbd7b978c	-0.061423823
33	0x3d6e92a8	0.05824533
34	0xbe2178f2	-0.15768793
35	0xbe20ac2c	-0.15690678
36	0xbe499b22	-0.19688085
37	0xbcecf5ec	-0.028925858
38	0x3bc90757	0.006134908
39	0xbd91b5d1	-0.07114757
40	0x3dd36c00	0.10323334
41	0xbd576145	-0.052582998
42	0xbe1eb604	-0.15499121
43	0xbdd2b378	-0.10288137
44	0xbe284e56	-0.16436133
45	0xbe0eacc0	-0.13933086
46	0x3d317a43	0.04332949
47	0xbe1da8be	-0.15396401
48	0x3d108d68	0.035291106
49	0x3d1b293c	0.03788112
50	0xbe323bca	-0.1740562
51	0x3df64880	0.12025547
52	0xbdbcffa3	-0.09228446
53	0xbe46a3b3	-0.19398384
54	0x3d640a75	0.055674035
55	0x3e323296	0.1740211
56	0x3e1ffffe	0.15624997
57	0x3d82cdda	0.06386919
58	0x3e43ba7d	0.19114108
59	0xbd64b848	-0.055839807
60	0x3e01046e	0.12599346
61	0xbd84ceba	-0.064847425
62	0x3c44273e	0.011972247
63	0xbe5052b7	-0.20344053
64	0x3e06ce30	0.13164592
65	0x3dee672b	0.116407715
66	0x3e006caa	0.12541452
67	0x3e27df8c	0.1639387
68	0xbe24e93c	-0.16104597
69	0xbd3fbb8e	-0.046809725
70	0x3db3360b	0.08750542
71	0x3d2ca43a	0.042148806
72	0xbe07c4c8	-0.1325866
73	0x3ca375ed	0.019953692
74	0xbcdb5121	-0.026772084
75	0x3cf763cd	0.030198956
76	0x3b45ceb5	0.0030183021
77	0x3d2d336e	0.042285375
78	0x3dbf7006	0.09347539
79	0xbe292981	-0.16519739
80	0xbdb74c0d	-0.089500524
81	0xbe2cd2ed	-0.16877337
82	0xbdb8cd68	-0.09023553
83	0xbd2b88b7	-0.04187843
84	0x3dd1e404	0.10248569
85	0xbd29a320	-0.041415334
86	0x3e329943	0.17441277
87	0xbe16dd3d	-0.14732833
88	0x3e46fab2	0.1943157
89	0x3e0aa9fb	0.13541405
90	0x3c47fb8d	0.0122059705
91	0xbdb8d9b1	-0.09025896
92	0xbde3c242	-0.11121036
93	0xbe0f8432	-0.14015272
94	0xbd32581b	-0.043541055
95	0x3e5750f1	0.2102697
96	0xbd8fc2d7	-0.070195846
97	0x3e09d344	0.13459498
98	0xba293c22	-0.0006455799
99	0x3c9adf33	0.018905258
100	0xbdfbc482	-0.1229334
101	0xbe2a1e8b	-0.16613214
102	0x3db2d0c5	0.08731226
103	0x3d7c686d	0.061623026
104	0x3e037913	0.12839155
105	0xbdc23cd2	-0.09484257
106	0xbcb0989f	-0.02155715
107	0xbd3e9831	-0.04653186
108	0xbda5aaf4	-0.08089247
109	0x3e3de1fd	0.18543239
110	0x3dd71230	0.10501516
111	0xbb32945a	-0.002724907
112	0xbd3ee92f	-0.0466091
113	0xbd71f804	-0.059074417
114	0x3cfdc96d	0.030979836
115	0xbe2fd0d2	-0.17169502
116	0x3dc41cbb	0.095757924
117	0xbe426f76	-0.18987831
118	0x3db2b0cf	0.0872513
119	0xbe2c4857	-0.1682447
120	0x3d0034db	0.031300407
121	0x3e0116fe	0.12606427
122	0x3ddf8e55	0.109158196
123	0x3deadde9	0.11468107
124	0xbdfef87f	-0.124497406
125	0xbe5181e1	-0.20459701
126	0x3cc8afaf	0.024497835
127	0xbe2390d9	-0.15973224
