SLIC_GAT/best2.pt (torch, 580781 bytes, 30 tensors)

GAT_layers.0.GAT_heads.0.f.weight f4 [32, 124]
000000 05 fb d2 3c cc 6f 47 bc ec 92 19 be ef c5 18 be
       0.025754461 -0.012172651 -0.14997452 -0.14919256
000010 21 a5 ad bd 28 71 c7 bd 9a 10 45 3e e4 64 3e 3e
       -0.084787615 -0.0973838 0.19244614 0.18593174
000020 e8 c3 0c be 1b e2 b6 3d ba 37 9b 3d 83 d0 13 be
       -0.13746607 0.08929845 0.075789884 -0.1443501
000030 2a 6b b9 3c 46 4d 45 3e 91 c0 22 3e 91 68 34 3a
       0.022634108 0.19267759 0.15893771 0.00068820367
000040 bc 87 a8 3d 05 81 ad bd ee fd b8 3c 22 4e d0 bc
       0.08229014 -0.08471874 0.02258202 -0.025427882
000050 f3 df 81 bd 85 8f c5 bd 70 eb 89 3d 64 06 ba 3d
       -0.06341543 -0.09646515 0.06734359 0.0908325
000060 38 ac 17 3e 3e 70 ff 3d 19 da 2d 3e 0f 27 a7 3d
       0.1481179 0.124725804 0.16977729 0.08161747
000070 53 27 ae bc 23 cf 0f be 69 d2 3d 3e ed 1e 1f be
       -0.021258986 -0.1404386 0.18537296 -0.15539141
000080 0b 81 27 be c9 17 de 3c 4c bc 27 be 5e 0a 46 3e
       -0.1635782 0.027110951 -0.16380423 0.19339892
000090 6f 0b 64 3d ed 95 2a be 90 22 c0 3d 28 65 7c 3d
       0.055674966 -0.16658755 0.09381592 0.061619908
0000a0 e2 1c 9b 3d 2f 9c fa 3d 16 f8 11 3e 61 4e 25 3d
       0.07573868 0.12236821 0.14254794 0.04035795
0000b0 6c cf 0c bc 8e 6a 13 3d 0a 6c 46 be a0 34 3a 3d
       -0.008594375 0.03599029 -0.19377151 0.045460343
0000c0 91 c7 79 bd 36 bd c7 3c 34 39 97 bd 15 00 02 3e
       -0.060981337 0.024382215 -0.073839575 0.12695344
0000d0 04 34 5c bc 18 6d 46 be 04 92 d7 3d 7c 89 7b bd
       -0.013440136 -0.19377553 0.10525897 -0.061410412
0000e0 86 5d be bd 6a 2b e2 bd 12 e1 42 be e8 b3 d5 3d
       -0.09295182 -0.11043437 -0.1903117 0.10434705
0000f0 5c 31 34 be 24 6b 43 be ca 87 1f 3e fa 77 cd 3d
       -0.17596954 -0.1908384 0.15579143 0.10032649
000100 79 d7 b2 bd cf 88 0f 3d 41 ab 31 3b f4 dc fb bd
       -0.087325044 0.03504258 0.0027110132 -0.12298003
000110 93 3f bd bd 2e 14 05 3e 18 bf 67 bb aa eb bd 3d
       -0.092406414 0.12995979 -0.0035361703 0.09273465
000120 9f 48 17 3e 0d 12 8d bd 3a 03 db bd c2 f1 bb 3c
       0.14773796 -0.068882085 -0.10693975 0.022942428
000130 63 58 0e be 79 06 08 3e 67 4c d4 3d 45 29 b9 bc
       -0.13900904 0.13283719 0.10366135 -0.022602687
000140 44 a4 39 be f1 43 ff 3d 67 5e d5 bd be 07 2a be
       -0.18129069 0.12464131 -0.104183964 -0.16604516
000150 53 64 cc 3c 7f f9 20 be 17 a8 2c be bb 8a 2e be
       0.024950182 -0.15720175 -0.16860996 -0.17045109
000160 f0 2b 45 be d4 30 31 be d5 de dc 3d 13 a8 1f bd
       -0.19255042 -0.17303783 0.10784689 -0.038978647
000170 d5 2a 14 be 7c b0 63 bd f9 5a 45 bd c9 2f 3f 3e
       -0.14469464 -0.05558823 -0.04818246 0.18670572
000180 34 cd 17 be 40 ea 18 3d 10 3b b8 bd 33 58 b1 bd
       -0.14824373 0.037332773 -0.0899564 -0.08659401
000190 83 95 2a be 57 5b c7 bd bd 5b ba 3d e0 56 ac 3c
       -0.16658597 -0.097342186 0.09099529 0.021037519
0001a0 5c a1 a2 bd 18 35 b1 bc ee 50 2a 3d 6a e1 cf bd
       -0.07940933 -0.021631762 0.041581087 -0.10150416
0001b0 15 81 c8 b9 84 96 f7 bd 88 6d d6 bd 4c 5d e8 3d
       -0.00038243146 -0.120892555 -0.1047011 0.1134592
0001c0 78 33 b9 bd c4 ab 52 bd a4 a7 2f be a7 e9 de bd
       -0.0904302 -0.05143334 -0.17153794 -0.108844094
0001d0 90 b0 3d bd d0 ff 16 3e 4c a5 eb bd 0a fb 04 3e
       -0.04631096 0.14746022 -0.11506137 0.12986389
0001e0 9e b7 a9 3c 91 d4 b7 bd 6d 2d 14 be d2 22 12 be
       0.020717438 -0.08976091 -0.14470454 -0.14271095
0001f0 ac 21 0e be 4f 7e 2a be cd 52 03 3d 35 49 36 3e
       -0.13880032 -0.16649745 0.032061387 0.17801364
000200 02 52 88 3d 86 85 16 bd b4 8a 5d bd b2 0c 98 3d
       0.06656267 -0.03674843 -0.054087356 0.074242964
000210 dc 55 34 be 02 54 6a bc cf 87 44 be 88 2e f9 bc
       -0.17610878 -0.014302256 -0.19192432 -0.030417696
000220 38 10 33 3e d4 d4 90 bd 27 ad 84 bc 25 e6 ae 3a
       0.17486656 -0.07071844 -0.016195847 0.0013343735
000230 07 89 46 be db e3 24 be da 62 23 3e 57 92 3d 3e
       -0.1938821 -0.16102545 0.15955678 0.18512855
000240 f2 53 9b bd 13 5e d3 bd 3e ca 21 be c9 0c 2c be
       -0.07584371 -0.103206776 -0.15799806 -0.16801752
000250 f7 2a 46 3d 5e 20 59 bb cf 62 c7 bd b4 5b 13 be
       0.04838082 -0.0033130865 -0.09735643 -0.1439045
000260 0f 04 19 bd 90 26 da 3b ee fe 7c bb 06 9e bf 3d
       -0.037357386 0.006657429 -0.0038604098 0.093563125
000270 6d 07 e5 bc 3b c0 f1 3c 3a 34 31 be 0d 68 a5 bd
       -0.027957642 0.029510608 -0.17305079 -0.08076487
000280 ab 85 11 3e 3b 2a 2e be bb 1d 2c bd 44 a1 92 bc
       0.14211147 -0.17008297 -0.04202054 -0.017899163
000290 81 d3 3b 3e ef 60 91 bd 85 ad ae bd 8b 2c 02 3c
       0.18342401 -0.07098567 -0.0852919 0.00794519
0002a0 14 58 12 be d6 5e 24 be e3 a2 f3 3d 9e a6 a9 bd
       -0.14291412 -0.16051802 0.118963026 -0.08283733
0002b0 ac 46 46 3e 23 e1 0e be 8f fe 16 be 20 37 12 be
       0.19362897 -0.1395307 -0.14745544 -0.14278841
0002c0 14 2b 32 be 3b d9 35 3e 0f 26 b0 3d e3 97 84 bd
       -0.17399246 0.17758648 0.08601009 -0.064742826
0002d0 3d 62 e4 bd 51 87 32 3b 1c b8 1f be 52 84 a1 3d
       -0.1115155 0.00272413 -0.15597576 0.07886566
0002e0 da 23 01 3e fd 75 27 be 13 de 75 3d 07 4d 0a 3e
       0.12611333 -0.16353603 0.06002624 0.13505946
0002f0 f8 33 37 3e b9 65 35 be 86 a3 9a bd be 32 89 3b
       0.17890918 -0.17714585 -0.07550721 0.004186957
000300 2a 77 16 3e 13 0e 06 3c a9 c9 6c 3d b8 73 f9 3d
       0.14693895 0.0081820665 0.057809506 0.12180275
000310 4e 59 2c be 42 5f 92 bc 50 ee dd bd c8 e7 9f bd
       -0.16830942 -0.017867688 -0.1083647 -0.07807881
000320 82 4c 3d 3e 31 ab 34 be 94 f2 01 be 32 e2 b5 3d
       0.18486217 -0.1764343 -0.12690192 0.08881034
000330 e5 8d 10 3e 78 08 9a bd 1a b4 0e be 7d e4 90 bd
       0.14116628 -0.075211465 -0.13935891 -0.07074831
000340 7e 90 2c 3c ff c0 9a bd f4 2c 20 3d 16 40 d2 3d
       0.0105324965 -0.07556342 0.03910537 0.1026613
000350 f7 87 b7 3d 5c 9a 40 3e 02 56 e0 bd 7d 34 74 bd
       0.0896148 0.18808883 -0.10953905 -0.05962037
000360 33 9e 41 3e 74 aa a1 bd 30 41 cb 3d 8c 97 f2 bc
       0.18908004 -0.078938395 0.09924543 -0.029613279
000370 3f a0 e4 3d 19 79 0a bd e6 8b 3f 3c 53 7a bd bd
       0.11163377 -0.033806894 0.011691069 -0.09251847
000380 4b 75 ec bd 20 d0 bb bc ec 38 23 3d 0f 0f d5 bd
       -0.11545809 -0.02292639 0.039849207 -0.10403263
000390 13 4d 7f 3d 79 0c d7 3d ac 9c 10 3d 05 42 24 3e
       0.062329363 0.10500426 0.035305664 0.1604081
0003a0 df 58 f6 3d 0e 3e 47 3d 39 4e 88 3d d1 d7 1c be
       0.120286696 0.048643164 0.06655545 -0.15316702
0003b0 2a c9 45 3e cf c7 81 3d 17 f9 b3 3d 59 09 ba 3d
       0.19315019 0.063369386 0.087877445 0.09083814
0003c0 2e 5e e9 bc ba b7 43 3d 4c b1 96 3d dd 31 ea 3d
       -0.028487291 0.047782637 0.073580354 0.11435292
0003d0 1a a9 a7 bd 34 4c e0 bd 42 ea 0b be bc 69 35 3e
       -0.081865504 -0.109520346 -0.13663581 0.17716116
0003e0 05 7c 86 3d 8c 59 39 3e dc 09 ac bd 09 93 de bd
       0.065666236 0.18100566 -0.08400318 -0.108678885
0003f0 5d 77 c5 bd 0d 32 18 be 17 cd 00 be 98 84 a9 3d
       -0.09641907 -0.14862843 -0.12578236 0.082772434

GAT_layers.0.GAT_heads.0.f.bias f4 [32]
000000 90 7d 66 3d 5d 59 a4 bc 4b cd 0c 3d 0d 51 a1 3c
       0.05627209 -0.020062143 0.03437547 0.019691968
000010 fd d9 5b bd 21 70 94 3d 04 cd be bb 44 d1 9f bd
       -0.053674687 0.072479494 -0.0058227796 -0.07803586
000020 23 e2 d2 bc c2 2d 6e bd 1c 7d 92 bd fd 33 b0 bd
       -0.025742596 -0.058149107 -0.07152769 -0.08603666
000030 4b a1 94 3b 79 c6 c6 bb d9 07 8d bd 79 04 18 bc
       0.004535829 -0.0060661403 -0.068862624 -0.00927841
000040 4f 23 1e bd cf f6 e1 3c 71 ad 82 bd 72 10 39 3d
       -0.03860789 0.027583508 -0.063807376 0.0451817
000050 b3 c1 aa bd e2 ca 2f 3d 6a d7 9b bd 9e ad 48 bd
       -0.083377264 0.042918094 -0.07609446 -0.0489937
000060 51 fd 9b 3d 0f c0 e6 bb 46 09 e8 bc 5e be 8e 3c
       0.07616676 -0.007041938 -0.028324734 0.017424759
000070 08 ae 94 3d 0b f9 7c bd 41 c9 81 3d 57 cd 86 3c
       0.07259756 -0.061760943 0.06337214 0.016455336

GAT_layers.0.GAT_heads.0.w.weight f4 [1, 124]
000000 b1 b5 ab bd 71 54 c1 3d 7d dd 62 bd cf f0 82 bd
       -0.08384264 0.09439934 -0.05538701 -0.06393587
000010 22 6b b4 bd 35 4b 1e 3e 65 41 26 3e 2b 40 d1 3d
       -0.088094965 0.15458377 0.16235884 0.10217317
000020 f3 77 3c 3e d7 ff 56 be bb 89 1e be 8f c3 be 3d
       0.18405132 -0.20996033 -0.15482228 0.093146436
000030 3f 97 d7 bd 4d 37 4e be 4c 71 eb 3d 7b 15 1e 3e
       -0.10526895 -0.20138283 0.11496219 0.15437882
000040 5b 75 5c be 1e 76 35 bc af 3b 1c 3e e7 47 bb bd
       -0.21529143 -0.011075525 0.15257142 -0.09144574
000050 f4 79 20 be b8 10 24 3c a4 13 4d 3e ef 7e c0 bd
       -0.15671521 0.010013752 0.20027024 -0.09399211
000060 cb 7a 01 be a6 ba 59 3e 1f 7b b3 3d a7 e7 8e bd
       -0.12644498 0.21262607 0.08763718 -0.06977778
000070 61 bb 5a 3d 99 b2 2b 3e bf 59 0e 3e 64 b1 21 bd
       0.053401355 0.16767348 0.13901423 -0.039475814
000080 44 b8 2e 3e 0e 92 8c bc 45 f0 4f be 5e 7e 08 be
       0.1706248 -0.017159488 -0.203065 -0.13329455
000090 44 7f 36 3e b0 ec 29 be bd 90 74 3c 6a f0 4b be
       0.17821985 -0.16594195 0.014927086 -0.1991593
0000a0 ce 9d c8 3c eb ed 4e be a3 9e 31 bd 71 1f 89 3d
       0.02448931 -0.20207946 -0.04336418 0.0669545
0000b0 9d 25 39 be 52 ba 88 bc 47 a1 bf 3d 8b c6 53 3e
       -0.18080755 -0.016690407 0.09356933 0.20681207
0000c0 c1 f8 fd bd 09 ae 1d be 3e e2 06 be 9c 7f ea 3d
       -0.12400962 -0.1539842 -0.13172242 0.11450121
0000d0 47 8c 3b 3e 4a cf 7c bd d0 f0 a8 3d 7f 25 5a be
       0.1831523 -0.061721124 0.08249056 -0.21303366
0000e0 af 45 af 3d 24 c3 50 be 8b 46 24 3c f3 d4 c6 3d
       0.08558213 -0.2038694 0.010026584 0.097085856
0000f0 56 6f 5e be 99 81 23 3e 8f 8c 26 3e 5d 27 43 be
       -0.21722159 0.15967406 0.16264556 -0.19057985
000100 74 e0 17 be 1e 0d 53 3e 12 8e dd bd 7b 8c 79 bd
       -0.14831716 0.20610473 -0.108181134 -0.06092499
000110 63 dd 03 be f3 04 54 bd e8 f8 05 3d 34 88 00 3e
       -0.12877421 -0.051762532 0.03270808 0.12551957
000120 4b 17 87 3c 33 e6 be bd e6 1b 37 3e 6b a7 f1 3d
       0.0164906 -0.09321251 0.17881736 0.117995106
000130 49 ca d9 3d 49 d4 81 bd a0 b0 b3 3d a0 5a db bd
       0.10634286 -0.06339318 0.08773923 -0.10710645
000140 60 97 ce bc 6a fc 6b bc 7e 5c 2b be e2 b1 f6 3d
       -0.025218666 -0.014403442 -0.16734502 0.12045647
000150 d9 6b bf 3d 6f ee 3f 3e 6e 4f 1c 3e f1 1f 50 be
       0.09346742 0.18743299 0.15264675 -0.20324685
000160 04 7a 80 3b 16 18 c6 bd 82 a2 4e be 09 f1 a5 bd
       0.0039207954 -0.09672563 -0.2017918 -0.081026144
000170 99 5d 50 3b 12 97 1b be a1 92 98 bd 90 3e 0c 3e
       0.003179407 -0.15194348 -0.07449842 0.1369574
000180 31 11 02 3e 68 f9 4a be 44 aa 11 3e e3 aa 11 be
       0.1270187 -0.19821703 0.14225107 -0.14225344
000190 ae c3 55 3e 7c 98 50 be 00 15 85 bc 2b ce 1b 3d
       0.20875427 -0.20370668 -0.016245365 0.038038414
0001a0 5d 40 45 3e 42 b9 4a be f3 96 32 bc 33 6c 56 3e
       0.19262834 -0.19797233 -0.010900247 0.20939712
0001b0 c9 ba 0d 3c 7e 43 48 3e 55 88 31 bd c2 2e e1 bc
       0.00865049 0.19556996 -0.043342907 -0.027488116
0001c0 7f 99 50 3d eb a5 81 bd 7d 3d cd bc 47 1d 49 3d
       0.050927635 -0.063304745 -0.025053734 0.049100187
0001d0 13 f8 0a be 78 53 09 be 71 33 47 3e ad 14 ee 3d
       -0.13571195 -0.13410747 0.19453217 0.11625037
0001e0 52 83 aa bd c4 38 96 3c 42 cf 11 be 81 66 52 3e
       -0.083258286 0.018337615 -0.14239219 0.20546915

GAT_layers.0.GAT_heads.1.f.weight f4 [32, 124]
000000 9f 40 5d 3d 95 e9 2b be a0 4a 02 3e 83 b6 ec bb
       0.054016706 -0.16788323 0.1272378 -0.0072239055
000010 31 58 ab bd a1 b5 c5 bd 6e 89 a4 bb d1 87 10 be
       -0.083664306 -0.096537836 -0.0050212657 -0.1411431
000020 35 13 be 3d 4a d1 0b be 69 ee ac 3d 25 63 c7 bb
       0.09281007 -0.13654056 0.08443911 -0.006084817
000030 7b 45 28 3e c2 5d 1e be b9 58 91 ba 6a 91 61 3d
       0.16432755 -0.15465453 -0.0011089063 0.05507032
000040 9f f6 e5 3d af bc 02 3e 94 cf ee bc fe 8b 56 bc
       0.1122868 0.1276729 -0.029151715 -0.0130949
000050 b6 38 48 be 62 a5 09 3e cb 6d 00 3c ce 83 30 bd
       -0.19552884 0.13441995 0.007838677 -0.04309445
000060 6c 05 8f 3d bb 8c 35 be 09 7e 3e 3e 71 23 0a be
       0.06983456 -0.17729466 0.18602766 -0.13490082
000070 3c a8 0d be 8a e8 fb bd 3a 27 31 3e 7c 5d ee bd
       -0.13833708 -0.12300213 0.1730012 -0.116389245
000080 2a 3e 6b 3b 96 87 26 3e 67 7d 47 bd 35 74 f7 bd
       0.0035895207 0.1626266 -0.048703577 -0.120827116
000090 e4 55 18 bc 69 cb c8 bd e4 f8 4e 3c cc f7 8c 3d
       -0.009297822 -0.098044224 0.012632582 0.06883201
0000a0 21 25 48 bd bd a9 d8 bd 62 8b 40 3e 7f 8c 85 bd
       -0.048863534 -0.1057925 0.1880317 -0.06520938
0000b0 d2 a3 2a be bc 59 5f bd 32 39 de 3d e4 7f e9 bd
       -0.16664055 -0.054528937 0.10850753 -0.11401346
0000c0 c8 01 e0 bd 2f d7 12 be 70 91 35 3e 5a 19 34 be
       -0.1093784 -0.14339899 0.17731261 -0.17587796
0000d0 12 2a a9 bd 44 86 2d 3b c5 a4 3f be ab ca a5 3c
       -0.082599774 0.0026477734 -0.18715198 0.020238241
0000e0 cc b3 42 bc 91 34 da bd fa 66 12 3e eb 87 b1 bd
       -0.011883687 -0.106545575 0.14297095 -0.086685024
0000f0 58 06 01 be 60 1f 1e bd 0f b5 26 3e 41 f6 e3 3d
       -0.12600076 -0.03860414 0.16280006 0.111309536
000100 10 ff ee bd d5 52 df bd cf 7b af 3d 28 c8 ce 3d
       -0.11669743 -0.10904471 0.085685365 0.100967705
000110 8d 9b dc 3d 90 52 6b 3c 71 d1 1b 3e 8a a1 73 bc
       0.107718565 0.014362946 0.15216614 -0.014870057
000120 1f 29 69 3b 03 df 59 bd 46 7d 59 3c 0a 98 c5 bc
       0.0035577489 -0.053191196 0.013274496 -0.02412035
000130 3c f9 36 3d aa c9 8d bc cb 3d 8f 3d 06 12 0f be
       0.044671282 -0.017308075 0.06994208 -0.13971719
000140 3a 11 14 be 56 98 19 3e 41 6d 74 bd f0 b3 b0 3d
       -0.14459696 0.14999518 -0.059674505 0.0862807
000150 40 24 3a 3d 89 ab b6 bd 7b 12 1e bd 08 14 3d be
       0.045444727 -0.089194365 -0.038591843 -0.18464673
000160 2f ca c3 bb 11 f8 29 be e8 76 21 be 3e 03 d7 3d
       -0.00597503 -0.16598536 -0.15768015 0.10498665
000170 3e b3 12 3e 01 44 9a bd c4 4e 2c 3e 68 15 76 3c
       0.14326188 -0.07532502 0.16826922 0.015019752
000180 84 0a b2 3d 54 9c d8 3d 11 99 53 bd 43 18 85 bd
       0.08693412 0.10576692 -0.051659647 -0.06498768
000190 fd f3 81 bd b1 fb ab 3d 8b ba 34 3e 1a ed f5 bc
       -0.06345365 0.08397616 0.17649285 -0.030020285
0001a0 7b 2b 00 3d 5d 50 46 bd 3e 18 d3 3d f8 f5 11 3e
       0.031291466 -0.048416484 0.10307358 0.14253986
0001b0 63 8c ae bd 4b d4 24 3e ae e8 8e bb c4 f1 a4 3c
       -0.085228704 0.16096608 -0.0043612337 0.020134814
0001c0 1d ad 05 3e 0e 20 0d 3e 13 02 02 be 42 17 0f be
       0.13054319 0.13781759 -0.12696104 -0.13973716
0001d0 26 63 c0 bd d9 5e dd 3c c6 99 f9 bb ca 5d 8d bd
       -0.09393911 0.027022766 -0.007617208 -0.069026545
0001e0 c9 76 13 bc a8 a6 16 bd b4 f3 35 be f0 33 9d bd
       -0.009000489 -0.03678003 -0.17768747 -0.07675922
0001f0 c4 6e 1e 3e ae 0f b9 ba 7b 15 93 3d a5 71 46 bd
       0.15471941 -0.0014119053 0.071818314 -0.048448224
000200 da 3d 3e 3e ab 19 97 3c 80 b5 b4 bc 0a 8f fd bd
       0.18578282 0.018444857 -0.022059202 -0.12380798
000210 e0 79 25 be 3e 3c 1f 3d 50 e2 10 be 9b d5 51 3d
       -0.16159773 0.03887581 -0.14148831 0.0512291
000220 29 c8 54 3d 7d d2 0c bd 53 11 82 bd 6c 52 44 bd
       0.0519487 -0.034380425 -0.063509606 -0.047930166
000230 b2 dc 35 bd fb 4c eb bd e5 66 5d 3d e4 5a 5b bb
       -0.044399925 -0.11489292 0.054053206 -0.0033470923
000240 63 78 2d 3c a7 85 1b bd 21 3d 2d 3e 60 a4 29 be
       0.010587784 -0.037969258 0.1691785 -0.1656661
000250 4c f5 d2 bb 9b 45 0c be a6 9c b1 3d 05 99 1e be
       -0.006437933 -0.13698427 0.086724564 -0.1548806
000260 2f 09 b3 bd fb 2c 1a be 7f 93 65 3c 4b c4 87 3c
       -0.08741986 -0.15056221 0.014012217 0.016573092
000270 3f 73 19 3e c3 64 83 3c 2f 23 3f 3e 23 83 b4 3d
       0.14985369 0.016039258 0.18665765 0.08814075
000280 31 b3 85 bd 5e fd 5a 3c d0 33 26 bd dd 15 c9 bd
       -0.06528319 0.0133660715 -0.040576756 -0.09818623
000290 3d 86 c0 3c df 3f fc 3d 52 10 85 3d 9a 2a ac 3d
       0.02350151 0.1231687 0.064972535 0.08406563
0002a0 6a c8 36 3e 4c 9a 1a 3e 14 61 32 be de d5 2a 3e
       0.1784989 0.15097922 -0.17419845 0.16683146
0002b0 59 f0 11 3d 34 ae 3d be 1b 01 59 3d a5 4a fd 3d
       0.035629604 -0.18523484 0.05297957 0.12367753
0002c0 60 77 9b 3c be 78 cd bb 2d 48 b5 bd ec a8 3f be
       0.01897782 -0.006270497 -0.08851657 -0.18716782
0002d0 33 01 f1 b9 af ce e0 bd f4 22 21 be 0e 2d 3d 3e
       -0.00045967996 -0.10976922 -0.1573599 0.18474218
0002e0 5e 4f 5a bd 8e f1 9e bd 82 00 1d 3e 40 d5 e9 3d
       -0.053298347 -0.07760917 0.15332225 0.11417627
0002f0 80 b0 3f be dd 25 00 be 45 f3 07 bd 84 57 85 bd
       -0.18719673 -0.12514444 -0.033190984 -0.06510833
000300 27 82 d9 bd 2e 7a 40 3e b5 47 29 3e f6 cb 18 3e
       -0.10620528 0.18796608 0.1653126 0.14921555
000310 cb 77 e7 bd 63 3a 4d be 51 e1 ff 3c 03 00 a5 3d
       -0.113021456 -0.20041804 0.031235369 0.08056643
000320 2e 75 61 bc eb d9 db 3c 94 24 b9 bd 88 59 f6 3d
       -0.013760848 0.02683731 -0.0904018 0.120287955
000330 ad 3b 4d 3d fc 5f f0 3d 8c c1 17 3e ea 2f ea bd
       0.05010574 0.117370576 0.14819926 -0.1143492
000340 0e b7 a2 3c 16 7e 2c be 29 20 11 3d b8 69 4c 3b
       0.019862678 -0.16844973 0.03543106 0.0031190943
000350 50 21 20 be 3f 3d 14 3e de 90 2d be 02 c7 aa bd
       -0.15637708 0.14476489 -0.16949794 -0.08338739
000360 7c 11 26 3e db 0a 50 bd ca 87 fb 3a 23 b9 01 bd
       0.16217607 -0.050791603 0.0019190249 -0.0316707
000370 4b a0 de bd ab ab e8 3c 59 fd 78 3d 94 79 bb bd
       -0.10870417 0.02840217 0.060788486 -0.091540486
000380 d5 a0 46 3e e9 4d 34 3e cf 8c 0d 3e 1e fe 44 be
       0.1939729 0.17607845 0.13823245 -0.19237563
000390 d1 34 9f 3d 59 58 da 3d ed 13 99 3b fd b7 39 be
       0.07773746 0.10661382 0.004671565 -0.18136592
0003a0 e3 82 96 3d 4c 4f 96 bd e1 76 19 be 31 38 0f 3e
       0.073491834 -0.073393434 -0.14986755 0.13986279
0003b0 d9 d1 40 3e 12 56 26 3d 2d 25 19 bd b6 ad 98 bd
       0.1883005 0.040609427 -0.03738897 -0.07455008
0003c0 ec 01 8d bd d0 56 b4 bd 8a 7d 2d 3e ed 1d 9f bc
       -0.06885132 -0.08805621 0.1694242 -0.01942345
0003d0 71 c5 cd bd 34 d4 c9 bc 73 c7 1b be 4e bd f1 3d
       -0.100474246 -0.02463732 -0.15212803 0.11803685
0003e0 7d 64 ec bc e9 d3 38 3e 85 fe eb 3d 0e f7 9e 3d
       -0.02885651 0.18049587 0.11523155 0.07761966
0003f0 c6 b1 2c 3c 6c 94 41 be d1 81 46 be d8 df 89 bd
       0.010540431 -0.18904275 -0.19385459 -0.06732148

GAT_layers.0.GAT_heads.1.f.bias f4 [32]
000000 79 c8 b0 3d 3a 07 c0 3c 32 c4 9f bd 7d 67 15 3d
       0.08631987 0.023440946 -0.07801093 0.036475647
000010 00 2e 04 bc 1f 84 e4 bc b5 0b 00 bd fa 0b 97 bd
       -0.008067608 -0.027895031 -0.031261165 -0.07375331
000020 aa b9 2f bd c2 60 96 3c 8f 44 88 3c da df 00 3d
       -0.042901672 0.018356685 0.016634254 0.03146348
000030 a5 c9 e8 3c e8 58 5e 3d f3 5e 9e bd cd a3 f2 3b
       0.028416464 0.054284006 -0.07732954 0.0074047805
000040 36 17 6d bc 3b db 87 bd 0b 72 31 bd 3f 52 72 3d
       -0.014470866 -0.06633612 -0.04332165 0.059160467
000050 98 a0 58 bd 73 97 b8 bc e8 1d 7e 3d ae d4 8f bc
       -0.05288753 -0.022533154 0.06204024 -0.017557468
000060 aa b7 8e 3d 3b 1d 79 bd cc e0 44 bd c3 a5 83 3d
       0.06968625 -0.060818892 -0.048065946 0.06428101
000070 1d 4e 39 3c 64 1e 62 bc ce 24 fd 3c 17 b7 78 3d
       0.011310128 -0.013801191 0.030901339 0.060721483

GAT_layers.0.GAT_heads.1.w.weight f4 [1, 124]
000000 5f 40 4d be c0 21 27 be cd de 15 3e e8 fd 5a 3e
       -0.20044087 -0.16321468 0.14635773 0.2138592
000010 ef ee 5a be 0a 74 82 bd 33 24 a3 3d f1 fa b8 3d
       -0.21380208 -0.06369789 0.07965889 0.09032238
000020 81 f9 1e be 40 b3 05 be c5 af bb 3d 71 96 d7 3c
       -0.15524866 -0.1305666 0.09164385 0.026316853
000030 dd ab 93 3c 60 28 ff 3d 3a 10 b8 3d 12 f0 3b be
       0.018026287 0.12458873 0.0898747 -0.18353298
000040 6f 7b 1b 3e 6e 6e fc 3d f5 80 37 be 84 cf a1 bd
       0.15183805 0.1232575 -0.17920287 -0.079009086
000050 9b 40 53 3e 92 4d 97 bd 0f bb 55 be 00 73 1f 3e
       0.20630114 -0.07387842 -0.20872138 0.15571213
000060 52 69 20 3e a0 a9 32 3d a0 fb 33 3e d8 df 26 be
       0.15665177 0.0436188 0.17576456 -0.16296327
000070 c9 4f 5f 3e c1 72 91 bd 89 43 4e 3e 08 3b 29 be
       0.2180778 -0.07101966 0.2014295 -0.16526425
000080 45 2e 4e be 8a b4 70 bc 45 d7 1f 3e 20 33 28 3e
       -0.20134838 -0.014691481 0.15609463 0.16425753
000090 8c d8 b6 bd 1c b4 d6 bd 43 a5 9f bd d1 6c d0 bd
       -0.08928022 -0.10483572 -0.07795193 -0.10177005
0000a0 07 05 d8 bd ca ce 23 3d de 21 cf 3d b6 c3 b2 3d
       -0.10547834 0.03999213 0.101138815 0.08728735
0000b0 66 9c 27 be aa 0c 03 3b c6 ba b3 3c 0a 2e 12 be
       -0.16368255 0.0019996562 0.021939646 -0.14275375
0000c0 8e 9d 38 3c 7a d6 1d be f4 b3 a1 3d da ca 42 3d
       0.011268033 -0.15413848 0.078956515 0.047556736
0000d0 1a 32 df bd fc b7 01 be 8b a8 52 3e 11 74 4a be
       -0.10898228 -0.1266784 0.20572107 -0.19770838
0000e0 ce 9d de bd 19 0c 14 bc 34 4f a9 bc b4 84 cf ba
       -0.108699426 -0.009036087 -0.02066765 -0.0015832395
0000f0 26 76 4e 3e a3 69 4d be 5c e3 fd bd c2 e4 29 3e
       0.20162258 -0.20059828 -0.12396881 0.1659117
000100 7e f5 7e bd 91 00 2c 3e 5a 0d 1b 3e fe d6 17 bd
       -0.06224584 0.16797091 0.15141812 -0.037070267
000110 5b ca 34 3e bb 19 1f 3e a2 69 1b be 84 f0 18 be
       0.17655317 0.15537159 -0.15177014 -0.149355
000120 71 c6 8b 3c 54 bc 47 be 2e e4 4b be 0d aa 51 3e
       0.017062398 -0.19505435 -0.19911262 0.20475025
000130 45 1f 4c be 17 c4 ef bc 08 58 27 be 6e f8 02 be
       -0.19933803 -0.029268308 -0.16342175 -0.12790081
000140 f2 4a fb bc 13 59 10 3e 59 83 cf bd 61 2b 5f bd
       -0.030675385 0.14096479 -0.101324745 -0.05448473
000150 31 cc 4d be 1e 50 05 3e 04 b0 5a be a9 cd b1 3d
       -0.20097424 0.13018844 -0.21356207 0.08681805
000160 7c db 1c be b7 a6 09 3d 09 2e 5a 3e e4 d5 08 be
       -0.15318102 0.033606257 0.21306624 -0.13362843
000170 0b c4 5d 3e 28 46 2a be fc cc 69 bd f6 ba 05 3c
       0.21656816 -0.16628325 -0.057080254 0.008162251
000180 68 e2 1b 3e 91 ce 20 3e c9 cd de bd 50 ef 40 3e
       0.15223086 0.15703799 -0.10879094 0.1884129
000190 f5 7e 13 be 2a 9e 2c 3e 4c 33 a9 bd 74 83 ec 3d
       -0.14403899 0.1685721 -0.08261737 0.1154851
0001a0 40 df 3f 3e 67 cc b1 3c e5 1f 55 3e cd aa 19 3e
       0.18737507 0.021703912 0.20812948 0.15006562
0001b0 6a 95 32 be 6c ba db 3d 4d db 1a be 8f d1 2e bd
       -0.1743981 0.107289165 -0.15122719 -0.04268032
0001c0 a7 fc 90 bd 6a ef fe bd f9 03 2f 3e 8d bf 90 bd
       -0.070794396 -0.12448008 0.17091359 -0.070677854
0001d0 4d fa ea 3d 35 a0 25 be c5 6d 44 be 90 05 27 3e
       0.11473522 -0.16174395 -0.19182499 0.16310716
0001e0 fa 1b 4e 3c db 89 43 3e f8 5b fc bd 9a b2 18 3e
       0.012579912 0.19095556 -0.12322229 0.14911881

GAT_layers.1.GAT_heads.0.f.weight f4 [64, 128]
000000 5f c6 a7 ba 5d 0a 1c be 5a e4 cc 3d fa 93 9b bd
       -0.0012800208 -0.15238328 0.10004492 -0.07596584
000010 c4 49 f7 3c ef b0 04 3e a5 9c 98 bd 29 00 f3 3c
       0.030186541 0.1295812 -0.074517526 0.029663162
000020 bb db cf 3b 9f 33 28 3d 24 2a 24 3d 11 a2 d5 bd
       0.0063433326 0.041064855 0.04007925 -0.10431302
000030 89 ab 26 3e 3a a7 98 bd 5c d5 1f 3e c2 1c 34 be
       0.16276373 -0.07453771 0.15608734 -0.17589095
000040 aa 80 58 bd cf 89 a8 3d 08 f6 ae bd 46 63 14 3e
       -0.05285708 0.0822941 -0.085430205 0.14490995
000050 3b 71 86 bc c1 35 8a 3d c2 0c e8 3d 59 bb 59 bd
       -0.016411414 0.06748534 0.11330558 -0.053157184
000060 62 7f 90 3d 72 8a e0 3d 69 12 08 3e 3b 04 a0 3d
       0.07055546 0.10963906 0.13288273 0.07813307
000070 93 44 a1 bd 35 6d 9d bd 84 ae 75 3d 2f b2 0b 3e
       -0.078744076 -0.07686845 0.059980884 0.1364219
000080 89 a6 ca bd 32 80 ee bd ce fe 0b be 66 aa 2d be
       -0.09895045 -0.11645545 -0.13671419 -0.16959533
000090 e8 4d 58 bd 8b bb 34 be d2 39 00 3d d6 6f 84 bd
       -0.052808672 -0.17649667 0.03130514 -0.064666435
0000a0 e8 3a 83 bc 92 b0 2b 3e 3e 03 58 bd 5a ff 1c 3d
       -0.0160193 0.16766575 -0.052737467 0.03832946
0000b0 d8 dd 15 bc cf 7f b5 bb c8 a8 86 3d 41 74 e3 3c
       -0.00914713 -0.0055389176 0.06575161 0.027765395
0000c0 ce 6b fe 3d 43 6f 9b 3d 71 aa bc 3c 6d 7f ac 3d
       0.12422906 0.07589581 0.023030492 0.08422742
0000d0 3e 18 18 3e f9 cb 8a 3d 5c 06 cf 3a 88 c0 ce 3c
       0.14852998 0.06777186 0.0015794742 0.02523829
0000e0 bc 57 0c be 60 d5 13 3e fd b3 05 3e be 5c aa bd
       -0.13705343 0.14436865 0.13056941 -0.083184704
0000f0 b9 74 34 3e 57 bf 82 bd 05 36 d4 3d 12 91 78 3c
       0.17622651 -0.063841514 0.10361866 0.015171306
000100 db 1f 7a 3d da dd a7 3d e5 21 14 3e fd c5 04 3e
       0.061065536 0.08196612 0.14466055 0.12966152
000110 8f 34 4c 3d 55 3c f9 bd 1f 14 04 3e 3a c5 1d 3e
       0.04985481 -0.121697105 0.128983 0.15407267
000120 95 c3 13 be bf f4 35 3d ec bc c3 bd 21 b3 b3 bb
       -0.14430077 0.04442286 -0.09557518 -0.0054840003
000130 9f f3 0f be e6 8c 2b 3c 39 b9 5a bc 34 a0 0d 3e
       -0.14057778 0.0104706045 -0.013349825 0.13830644
000140 06 11 f2 bc 80 6d 51 3d 61 f5 2a 3e bb 7f 37 bd
       -0.029549133 0.051129818 0.16695167 -0.044799548
000150 03 43 00 bd 6c db 68 bd 4a a6 2d 3e f2 30 95 bd
       -0.031313907 -0.056849882 0.16957965 -0.07284726
000160 0e 08 91 bb f5 2e 2a 3e 53 99 9b 3d 61 a4 c6 3c
       -0.004426009 0.16619475 0.07597604 0.024248304
000170 f7 ce aa bd a3 cd ce 3d e4 49 30 3e 8b 47 bf 3c
       -0.08340257 0.10097816 0.17215687 0.023349544
000180 d5 87 29 be b2 88 37 3e 7c 77 27 3d 1a e1 05 be
       -0.16555722 0.17923239 0.040885434 -0.1307415
000190 e2 66 32 3e c8 d5 1c be a7 c7 30 bd 5d 40 0b 3e
       0.17422059 -0.15315926 -0.043159153 0.13598771
0001a0 7c 89 f7 bd 1e 02 ea bd a6 45 0a be 14 d1 02 3e
       -0.1208677 -0.11426185 -0.13503131 0.1277507
0001b0 19 cd c3 3d 06 e4 49 3d ca d9 04 bd 1a dc 22 3e
       0.09560604 0.049289726 -0.032434262 0.15904275
0001c0 d9 90 0a bd 5c f5 38 3e 19 5d d4 bd de 9b 0b 3e
       -0.033829544 0.18062347 -0.103693195 0.13633677
0001d0 70 62 53 3d a6 79 1e be f9 67 c2 3d 57 0a a0 3c
       0.05160755 -0.15476093 0.094924875 0.01953618
0001e0 c6 bf c3 3d 3d 1a b1 bd e2 f0 95 bd 9d 43 98 bd
       0.09558062 -0.08647583 -0.073213354 -0.07434771
0001f0 2c 02 84 3d a4 43 b6 3d 5e 10 54 3d 63 50 19 3e
       0.06445727 0.0889962 0.05177342 0.14972071
000200 db 98 f0 bd 56 09 50 3d 5e 3d b0 bd 99 8d 0a be
       -0.11747905 0.050790153 -0.08605455 -0.13530578
000210 86 f8 d9 3d a9 1b 24 3e 88 ee c3 bc ec db e3 bd
       0.10643105 0.16026177 -0.023917452 -0.11125931
000220 26 57 2c be 2f b0 c3 3d 23 b0 00 be f6 cc ff 3d
       -0.1683012 0.09555089 -0.12567191 0.12490265
000230 23 ca 7e bd 7a 90 14 be 3b 1f 77 3d dd 72 d2 3c
       -0.06220449 -0.14508238 0.060332518 0.025689537
000240 1d 97 fe 3d 0f ce 84 3d 24 c1 e5 bc e6 bc e9 bd
       0.12431166 0.06484615 -0.028046198 -0.11412983
000250 38 38 7c 3c b3 b8 8f bd f2 0c 2f be 53 9d f1 3c
       0.015394263 -0.070176505 -0.17094782 0.029493963
000260 2f 8f 32 3c 5e 99 fc bd 8c cc b6 3d 68 b9 0c be
       0.010898395 -0.1233394 0.08925733 -0.13742602
000270 40 ed cb 3d ce de 09 3e 43 70 bc 3d e3 c2 ac 3d
       0.09957361 0.134639 0.092011 0.08435609
000280 6e 5d 52 bd 2a 93 42 3c 72 99 fc 3b dd a3 88 ba
       -0.051358633 0.011875907 0.007708722 -0.0010424812
000290 af c1 c1 3c 51 ae 43 3d ab 57 b1 3d 1f 22 3d bd
       0.023651926 0.047773663 0.086592995 -0.04617512
0002a0 98 3f 1e 3e 0a 6a 14 3d dd bc 24 3e 40 99 a3 bd
       0.15453947 0.03623394 0.1608767 -0.079882145
0002b0 52 42 cf bd f1 ef 22 be 13 0e f4 bd 89 aa 7a bd
       -0.101200715 -0.15911843 -0.11916747 -0.06119779
0002c0 c3 00 9e 3c ca a8 0a 3e 28 67 fd 3d 8d 16 dd 3d
       0.019287473 0.1354095 0.12373191 0.10795317
0002d0 6d 11 58 bc 2a 99 1d 3e 94 96 48 bd 63 54 2a be
       -0.013187748 0.15390459 -0.048971727 -0.16633753
0002e0 f1 45 5e bb c9 aa 94 3b 80 3a 1c 3e 23 7c 03 be
       -0.00339162 0.0045369607 0.15256691 -0.12840323
0002f0 45 53 ff bc 02 97 8e bd 18 d5 ca 3d a1 4b 69 bd
       -0.031167636 -0.06962396 0.09903926 -0.05695689
000300 e1 11 97 3c 45 04 e2 3d a3 f9 11 3e 21 9a bb bd
       0.018441143 0.110359706 0.14255385 -0.09160257
000310 69 47 69 bc dd a6 ba 3d be 1a c5 bd 49 ac a1 3d
       -0.014238217 0.09113858 -0.09624241 0.07894189
000320 4d 03 fb bc 60 18 d4 bd fb 80 34 be 18 de 29 bc
       -0.030641222 -0.10356212 -0.17627327 -0.010367893
000330 d7 f4 2c be fb 81 45 bd 15 56 18 be f2 1a ff bd
       -0.16890274 -0.048219662 -0.14876588 -0.12456311
000340 68 14 4c 3d 42 36 16 3e da ab 1e 3e b5 a4 22 be
       0.04982415 0.14669135 0.15495244 -0.15883143
000350 86 45 8e 3d f8 e7 0a 3e 53 67 f2 3d 49 40 6b 3c
       0.06946854 0.13565052 0.11836114 0.0143585885
000360 91 71 07 be 2c e6 1e 3e 22 9f d4 bb f6 48 1c 3e
       -0.13226916 0.15517491 -0.0064886967 0.15262207
000370 3e ba 4d 3d 94 64 00 bd 79 69 de 3c bc fb a5 3d
       0.050226443 -0.03134592 0.027149903 0.08104655
000380 27 f1 28 3e 51 03 4e bd 21 8d e8 bd e8 aa e0 3d
       0.16498242 -0.05029613 -0.11355043 0.10970098
000390 a2 ff 91 bd 80 65 16 bd b6 24 55 bd 21 d8 08 be
       -0.07128836 -0.03671789 -0.052036963 -0.13363697
0003a0 69 c3 26 be 65 a5 20 bd 17 af 15 bc b9 e9 bf 3d
       -0.1628548 -0.039220233 -0.009135983 0.09370751
0003b0 20 aa 33 3e 3b 54 ec 3d 42 a5 a1 3c 1c b7 ed 3d
       0.17545366 0.11539503 0.019732121 0.11607191
0003c0 2d fa c9 bd d2 4c 00 3e c6 f8 23 3e 53 c7 2a be
       -0.0986217 0.12529305 0.16012868 -0.16677599
0003d0 8b 50 c6 3d 97 b2 04 be 20 fa d7 3d 04 e9 17 3c
       0.09683331 -0.12958752 0.105457544 0.009271864
0003e0 88 be 26 3c 35 a4 b4 3d 3c 61 03 be 8a 7e aa 3d
       0.010177262 0.088203825 -0.1283006 0.08324917
0003f0 36 13 b1 bd 25 80 97 bc 4b cb cc bd 2e 6e 8c 3d
       -0.08646242 -0.018493721 -0.099997126 0.068569526

GAT_layers.1.GAT_heads.0.f.bias f4 [64]
000000 54 86 42 bd 10 1d 1f bc ec d8 03 3d 17 79 65 3d
       -0.047491387 -0.009711519 0.032189295 0.056023683
000010 13 f9 37 3d 53 3d 87 bd d6 1f 60 bd 6b f4 38 3d
       0.04491527 -0.066034935 -0.05471786 0.04515497
000020 71 44 29 3d 02 45 88 3d ce ad 59 3d 54 72 33 3d
       0.041325036 0.06653787 0.05314427 0.043810204
000030 70 91 a2 bc b3 18 8d 3d ea fe 85 bd d8 e6 21 bc
       -0.01984474 0.068894766 -0.065427616 -0.009881698
000040 9c 7f bb 3d f4 e4 e3 3c 5c c2 96 3c 4e 90 a1 3d
       0.09155199 0.027819134 0.018403225 0.07888852
000050 b5 75 25 3d 3a 86 7c bd a9 f9 da bc d9 d3 46 bd
       0.040395457 -0.061651446 -0.026730375 -0.048541877
000060 fb 26 cf bc 00 3f 7c bd 4e 19 af 3d b5 2e 84 bd
       -0.025287142 -0.06158352 0.08549748 -0.06454221
000070 9a 86 50 bc 8a 35 e9 3c 27 75 30 bd eb f3 e3 3c
       -0.012727404 0.028467912 -0.043080475 0.02782627
000080 eb 38 aa bd 2a cf 4f 3d a8 a4 d9 bc eb 30 be bc
       -0.083116375 0.050734676 -0.026567772 -0.023216685
000090 2d e1 8b bd 85 d0 ef 3c 17 42 47 bd 88 3b 93 3c
       -0.06830058 0.029274235 -0.048647013 0.017972723
0000a0 d4 c8 9b bd cf 12 47 3d 70 68 3a 3d 4f 84 45 bc
       -0.07606664 0.04860192 0.045509756 -0.012055471
0000b0 09 69 09 3d 8a fa 6f 3d 64 8b 4e 3d af 88 94 bd
       0.033547435 0.058588542 0.050425902 -0.07252633
0000c0 71 08 0a 3d 0f c8 ed bc 82 00 bf bd b5 11 8d bd
       0.033699457 -0.02902606 -0.09326269 -0.06888143
0000d0 ee b5 4d bd 5a cc e2 3c e3 e1 94 3d 89 44 91 3d
       -0.05022233 0.027685333 0.07269647 0.0709315
0000e0 0d d9 7a bd 4d 9b 8d bd ab fc 28 3d 3d ce 9a bb
       -0.061242152 -0.06914387 0.041256588 -0.0047242926
0000f0 05 a0 89 bc 8f 42 96 3d a6 a4 a2 3d 5b 86 d1 bc
       -0.016799936 0.07336914 0.079415604 -0.025576761

GAT_layers.1.GAT_heads.0.w.weight f4 [1, 128]
000000 0e de 2a 3e 12 cf ea 3d 80 2b 1b 3e 4f be e9 3d
       0.1668627 0.11465277 0.15153313 0.114132516
000010 ed 78 6a 3d 69 52 9a 3d a4 af 03 3e df 8f 93 3d
       0.05724423 0.0753525 0.1285997 0.072051756
000020 d2 70 8a 3d b9 f8 a9 bd d8 8d 4f be de ce 4a be
       0.067598 -0.08299393 -0.20268953 -0.19805476
000030 8c 78 2c 3e 7f 5f a0 3c 8d 3e 52 be 42 99 0c be
       0.1684286 0.019576786 -0.20531674 -0.13730338
000040 59 9d 0e 3e e1 05 10 be 21 7d 4f bd f0 01 3e 3d
       0.13927211 -0.14064743 -0.05065644 0.046388566
000050 a0 70 a9 bd 56 cf 3d be 93 8d d7 3d d5 33 38 3e
       -0.08273435 -0.18536124 0.1052505 0.17988522
000060 b6 35 11 3e bc e7 43 be 25 b3 9b 3c 66 0f bc 3d
       0.14180645 -0.19131368 0.019006321 0.091826245
000070 0c cf be 3d 80 6f ed 3d 42 23 c6 3d a0 90 fc bd
       0.09316835 0.115935326 0.09674694 -0.123322725
000080 e4 d9 2b 3e 4c 93 ee 3d d6 e3 45 bc ec 8e 02 be
       0.16782337 0.116491884 -0.012078246 -0.12749833
000090 02 fe 98 bd e4 a0 81 3b 8a 0a 2c be bd c7 f7 3d
       -0.07470323 0.0039559472 -0.16800895 0.12098644
0000a0 f9 ee 97 3d 51 d2 7b bb 69 0e 07 be d9 be 66 bd
       0.07418627 -0.003842492 -0.13189091 -0.05633435
0000b0 f7 4b 56 be 04 1c 19 be e7 19 17 be 15 75 81 bd
       -0.20927416 -0.14952093 -0.14755975 -0.0632116
0000c0 71 56 36 3e 99 61 2e be 92 18 6b 3d a3 e4 cf bd
       0.17806412 -0.17029418 0.05739648 -0.10151031
0000d0 ca 4c 87 3d f5 2a 57 be 49 fc ce bd 50 6c 83 bc
       0.06606443 -0.2101248 -0.10106713 -0.016042858
0000e0 6b fd 2d be b8 62 db 3d 5a 2a fb bd a5 b5 29 be
       -0.16991203 0.107121885 -0.12263937 -0.16573198
0000f0 4e ab 1a bd 6e 34 f4 3c 66 8b 2c 3e 82 73 83 bd
       -0.037761025 0.029810157 0.16850051 -0.06418516
000100 55 42 24 3e 55 a8 30 3e 71 93 0f be 3f 27 7f 3d
       0.16040929 0.17251714 -0.14021088 0.062293287
000110 97 87 e2 3d 66 83 12 3e d9 51 ed 3c c5 88 d3 bd
       0.11061018 0.14307937 0.028969692 -0.10328821
000120 e1 a0 0e 3d af 0f a3 3d f0 8e 0b bd 39 1d 4d bd
       0.034821395 0.07961976 -0.034071863 -0.050076697
000130 8c 11 48 bd 45 aa 3f 3e 0f 9f 02 3e 5b a4 22 3e
       -0.04884486 0.18717296 0.12755989 0.15883009
000140 60 74 27 be 56 f4 2a be 38 e8 d8 bc 5a 53 e3 3d
       -0.16352987 -0.1669477 -0.026477918 0.110998824
000150 52 1b 24 be 2d c6 72 bc a8 98 99 bd 03 23 5b 3e
       -0.16026047 -0.014817757 -0.0749982 0.21400075
000160 ed 6e 29 bd 49 3b 43 be 44 82 9c bd 9e ec 1a be
       -0.041365553 -0.19065584 -0.07642034 -0.15129325
000170 32 69 52 3d b7 d1 1b 3d f1 0d 14 3e fe 4f 88 3d
       0.051369853 0.038041797 0.14458443 0.06655882
000180 d1 c4 59 be e0 8b 16 be a4 7f a9 bd 7c b1 44 3e
       -0.21266486 -0.14701796 -0.08276299 0.1920833
000190 38 38 38 be d4 2b 52 be 23 c1 2a 3e b1 39 97 3a
       -0.17990196 -0.20524532 0.16675238 0.0011537579
0001a0 d0 ba 50 3e b3 06 b5 3d 5a e2 2b 3c 2a 1e b5 3d
       0.20383763 0.088391684 0.010490978 0.08843644
0001b0 8d 29 ab 3d 4b ac bc bd dd c7 c9 3d be d3 93 3d
       0.083575346 -0.0921255 0.09852574 0.07218121
0001c0 ac c4 80 3c d4 d0 4b 3e a7 22 f9 3d b2 98 35 3e
       0.01571878 0.1990388 0.121648125 0.1773403
0001d0 3a 1f 7c bd f3 ff 1b 3e b5 8a c2 3d fd 2b 44 3e
       -0.061553217 0.15234356 0.094991125 0.19157405
0001e0 e0 45 35 3e 36 f3 98 bd 82 e9 b3 3d 1f b7 cc 3d
       0.17702436 -0.07468264 0.087847725 0.09995865
0001f0 56 6f b1 bd 0a ae 39 3e 35 45 62 bd 34 32 0f 3e
       -0.08663814 0.18132797 -0.055241782 0.13983995

GAT_layers.1.GAT_heads.1.f.weight f4 [64, 128]
000000 54 a9 29 3c 8f 41 12 3e 80 89 84 bc aa 10 1f 3d
       0.010355312 0.14282821 -0.016178846 0.03883425
000010 14 41 fa bd f5 76 1c 3e 01 4e 8d bd 81 b6 cd bd
       -0.12219444 0.15279754 -0.06899644 -0.100445755
000020 cc c1 51 bd 5e 22 a7 3d 79 64 a9 3c 74 d5 fd bd
       -0.05121021 0.08160852 0.020677792 -0.123942286
000030 5a de 5d 3d c3 9f f6 bd ca 32 b3 bb 82 36 8a 3d
       0.05416713 -0.12042191 -0.005468701 0.06748678
000040 ca bd 16 3e 1e 68 0e be e5 61 ed bd 0b 8b 17 be
       0.14720836 -0.13906905 -0.115909375 -0.14799134
000050 ec a0 11 3d da 0d 31 3e b7 db 16 3e 11 f0 0e 3d
       0.035553858 0.1729044 0.14732252 0.034896914
000060 17 97 a2 3c f3 a1 39 bd 86 bb 66 3d 8f f7 f3 bd
       0.019847436 -0.045320462 0.05633118 -0.119124524
000070 db 2f 08 3d ff 90 f5 3d 0a c4 05 be 38 12 c4 3d
       0.033248764 0.119905464 -0.13063064 0.095737875
000080 3e 2a 0c 3e 33 6b 51 bd 57 c5 3f bd 71 12 d0 bd
       0.13687989 -0.051127624 -0.046819057 -0.101597674
000090 34 cb 07 3d bf f6 ea 3d c1 cd 40 bd 43 77 eb bd
       0.033152774 0.11472844 -0.047071222 -0.11497357
0000a0 44 cc f6 bd 96 ad 12 3e 13 82 d0 b8 e2 b6 0e be
       -0.12050679 0.1432403 -9.942441e-05 -0.13936952
0000b0 ec cb b3 bd e3 b0 31 be f5 7b bf 3d 0e 82 18 be
       -0.087791294 -0.17352633 0.09349815 -0.14893362
0000c0 b2 6e ce 3d 6e 9f f0 bb 86 99 23 be d7 b3 d0 3d
       0.10079707 -0.0073432242 -0.15976533 0.10190552
0000d0 01 43 13 3e 26 e7 b7 3d d9 df cd 3d bb e1 2b be
       0.14381029 0.08979635 0.10052461 -0.16785328
0000e0 23 e6 b6 3b 31 15 32 be ad df 08 be 99 fe e6 3d
       0.0055816337 -0.17390896 -0.13366576 0.112790294
0000f0 43 4d 48 bb 9c 0d f2 bd 52 78 41 3c c5 df 84 bd
       -0.003056363 -0.11819002 0.011808472 -0.06487993
000100 9f d1 7f bd 30 fd 07 bd 83 6a 0d be 37 89 9d bd
       -0.06245577 -0.033200443 -0.13810162 -0.07692187
000110 ed 64 09 be 7c dc 22 be ef 3b de bd f9 9d 97 bd
       -0.13417406 -0.1590442 -0.10851275 -0.07403178
000120 a3 a9 0b 3d 6a bf 2b bd 94 ee fb bd 6e 6e 24 be
       0.034097325 -0.041930594 -0.123013645 -0.1605775
000130 40 b0 73 bd 08 92 00 bd 39 5a 1d 3e de ab 0f be
       -0.059494257 -0.031389266 0.15366448 -0.14030406
000140 da f9 11 be 6d 46 03 be 9b f2 b7 3d 49 5f 16 be
       -0.14255467 -0.12819834 0.0898182 -0.14684786
000150 1d 81 e1 3d 84 86 c6 3d f7 1f 76 3d f8 de 59 bd
       0.110109545 0.096936256 0.060089078 -0.053191155
000160 fd 18 7d 3c cd d8 10 be d6 31 11 3e 25 e6 14 3e
       0.015447852 -0.14145203 0.14179167 0.14540918
000170 d7 4b 15 3e 30 94 2c 3d 5a 1d c2 bd f6 1e 0a 3d
       0.14579712 0.04213351 -0.094782546 0.033720933
000180 03 77 2d 3e 20 08 2e 3d 91 38 20 bd a1 7f e8 3d
       0.1693993 0.042488217 -0.039116446 0.11352468
000190 7c f9 ff bc 07 b8 86 3c 16 b5 b9 bc f7 97 1f 3e
       -0.031246893 0.016445173 -0.022669356 0.15585314
0001a0 3a 4b 1e be c5 c9 0f 3e 7f 77 00 be 63 63 47 bd
       -0.15458384 0.14041813 -0.12545584 -0.048678767
0001b0 e4 e2 16 3e 3c 56 f6 3d 7c a0 d6 3d 03 a8 05 3c
       0.1473499 0.12028167 0.10479829 0.008157733
0001c0 a7 05 e4 bd d6 b9 09 3e f3 03 36 bd 4f a2 15 3e
       -0.111338906 0.13449797 -0.04443736 0.14612697
0001d0 85 5c 21 3e 3f 5a a8 bd ce 50 19 be 5a 7b 1c be
       0.1575795 -0.08220338 -0.14972231 -0.1528143
0001e0 76 f6 80 bd ae ca b2 bd 0b fc b2 3d 4c a5 f0 bd
       -0.06297009 -0.08730064 0.0873948 -0.11750278
0001f0 a4 d6 15 3e 03 ce d0 bd 02 46 0c be f3 3c b6 3d
       0.1463266 -0.101955436 -0.13698581 0.08898344
000200 c0 68 a4 bd 73 7d e9 bd 21 62 29 3e a9 7b 22 be
       -0.08027792 -0.11400881 0.1654134 -0.15867485
000210 63 bc 2a be 8e 24 cf bd df 44 0a be 2a c8 16 bd
       -0.16673426 -0.10114394 -0.13502835 -0.036811985
000220 43 ef 94 3d 9d 7c af ba 1c 80 76 3d 8d b8 a5 3c
       0.07272198 -0.0013388578 0.06018077 0.020229602
000230 0b 5d fa bd d9 c1 28 3e 6d b0 ce bd 46 2e 2c 3e
       -0.12224778 0.16480197 -0.10092244 0.16814527
000240 e5 5e 2f 3d 56 5c 15 3e 7b bd 21 3e 39 e6 43 bd
       0.042815108 0.14586005 0.15794937 -0.04782698
000250 70 13 9d 3d a2 10 9b bd b6 c7 1a be b1 d8 29 be
       0.07669723 -0.07571532 -0.15115246 -0.16586567
000260 62 30 91 3d 58 a8 6a 3d 07 53 ec bd a2 bd 10 bc
       0.070893064 0.05728945 -0.11539274 -0.0088342745
000270 d2 59 2d be d1 08 c4 bd bf b8 1b be 1e 24 10 3e
       -0.16928795 -0.09571994 -0.15207194 0.14076278
000280 9a 9a f6 3d ed c2 af bc b6 e7 b9 3d 58 31 2c be
       0.12041207 -0.021455253 0.090773985 -0.16815698
000290 46 67 d8 bd b0 75 d7 3d 9d 53 2a be c5 d1 28 3e
       -0.10566573 0.10520494 -0.16633458 0.1648627
0002a0 25 08 23 3e b4 d2 a7 bc 1d 8d b5 bd c5 e3 17 3e
       0.15921076 -0.020486213 -0.08864806 0.14832981
0002b0 a0 67 27 be ad 5a 15 3b e9 c3 e4 bc 7d 22 33 be
       -0.16348124 0.0022789643 -0.027925448 -0.17493625
0002c0 08 11 b4 bd 00 8f 23 3e 1a 2b 76 3d b4 75 1d 3d
       -0.08792311 0.15972519 0.0600997 0.03844233
0002d0 02 7e 7f bd 36 fd a0 3d 8f bd 03 be b5 94 a3 bd
       -0.06237603 0.07860796 -0.1286528 -0.07987348
0002e0 90 3a 9d 3d 00 29 6a bd 55 d6 2d be 4f a9 0d be
       0.076771855 -0.057168007 -0.16976292 -0.13834117
0002f0 e2 02 61 bd 3e 4c c0 3c 1e 46 eb 3d 4e 08 10 be
       -0.05493439 0.023473855 0.11487983 -0.14065668
000300 51 5f 95 3c 3a bf f9 3d ea e3 db bd c7 bb 25 3e
       0.018233927 0.12194677 -0.107368305 0.16184913
000310 6e 7f db bd 6d 5d f4 3c a6 e5 92 bc ba 31 08 3e
       -0.10717665 0.029829705 -0.01793177 0.13300219
000320 d2 28 82 3d c7 19 21 3e 94 52 c1 3d a1 18 dc bd
       0.06355442 0.1573249 0.09439579 -0.10746885
000330 85 90 e0 bd 00 06 3e bd de 54 11 be b9 da bc 3d
       -0.10965065 -0.04639244 -0.1419253 0.092214055
000340 6c 7f b8 bd 36 d6 d0 3c dc a8 b1 bd 86 01 9c bc
       -0.09008679 0.025492769 -0.086747855 -0.019043695
000350 f4 48 4e bd ed e4 b1 bd 40 24 63 bd b5 d4 e7 3b
       -0.050362542 -0.08686242 -0.055454493 0.007074917
000360 8e 15 80 bd 2c d4 fa 3d 4f ab 30 3e 95 3f 1f 3e
       -0.06254111 0.122475 0.17252849 0.15551598
000370 32 9a a4 bd 43 2c 09 3e ef 83 d2 ba be ce 78 bd
       -0.08037223 0.13395791 -0.0016061048 -0.06074404
000380 af ca 5d 3d 14 86 dd 3d 1a fc 26 be 07 ba 85 3d
       0.054148372 0.10816589 -0.16307107 0.065296225
000390 19 ec 93 3d 88 30 13 be 93 e1 fd bd 07 3a ca bc
       0.072227664 -0.14373982 -0.123965405 -0.024685873
0003a0 fa a2 d8 3d 68 7d d1 bc bd 1c 91 bb 4a f1 28 bd
       0.1057796 -0.025572494 -0.0044284747 -0.041245736
0003b0 ec 06 a7 3b 2b 9c 05 bb 97 68 79 bd 7d b5 8b 3d
       0.0050972607 -0.0020387273 -0.06089076 0.068217255
0003c0 9d 15 e4 bc 36 80 4a 3c 34 6e a1 3d 2c f1 10 be
       -0.027842337 0.012359669 0.07882348 -0.141545
0003d0 d1 71 f3 bd 4c a1 13 bd 28 20 9a bd b2 91 1a 3b
       -0.11886943 -0.036042497 -0.075256646 0.0023585376
0003e0 35 0f c1 bd 1b 97 90 bd 3a 41 25 bd 09 0b 83 bd
       -0.09426729 -0.07060071 -0.040345408 -0.06398589
0003f0 32 b4 5e 3d 9a 03 4c 3d 59 d5 5f bd 90 50 e8 3d
       0.054371066 0.049808122 -0.054646824 0.11343491

GAT_layers.1.GAT_heads.1.f.bias f4 [64]
000000 30 a0 9f bd e1 89 ba bc 1e bc 71 38 7c 50 18 bd
       -0.07794225 -0.022770824 5.7634075e-05 -0.03718613
000010 81 8a f4 bc fd 58 e3 bc 1c c7 cc 3c 77 63 85 3d
       -0.0298512 -0.027752394 0.024997286 0.06513112
000020 2f ca 84 bd c0 2d 16 3d 99 d6 28 3d 26 b2 08 3d
       -0.06483876 0.036664724 0.04122028 0.03337302
000030 fa e6 43 3d 8d d9 0d 3d a4 e2 3d bd bb f0 86 3d
       0.0478277 0.0346313 -0.04635872 0.065888844
000040 eb ae f2 bc 08 6a 55 3d 2b 22 1f bd c5 f1 16 bd
       -0.029624423 0.052103072 -0.038850944 -0.036851663
000050 7b 9d 9d bd 08 45 8a bd 65 da 55 3d e2 b6 05 3d
       -0.07696053 -0.06751448 0.05221023 0.032645114
000060 be 42 59 bd 07 75 62 3d eb 32 2b 3d 33 99 d6 bb
       -0.053042166 0.055287387 0.041796606 -0.0065490245
000070 f9 de 58 3d a1 76 3d bd 29 7c 94 3d 94 40 9a bd
       0.05294702 -0.04625571 0.07250244 -0.075318485
000080 8f da 69 3d 4a 2d 10 bc 97 95 92 bd e6 94 77 3d
       0.0570932 -0.00879986 -0.07157438 0.060444735
000090 ac ec a0 3d 0b f0 4a 3d 8a ea a2 bd b9 46 fe 3c
       0.078576416 0.04954533 -0.07954891 0.031039583
0000a0 24 ef f5 bc 66 24 21 3d ec dc 9a 3d 0d 87 b8 3d
       -0.030021258 0.039341353 0.07561669 0.09010134
0000b0 c5 d9 69 3d d6 b0 0c bb dc 11 94 3d e9 f6 a3 bc
       0.057092447 -0.0021467707 0.07229969 -0.020015197
0000c0 90 71 15 3d f9 31 be bd c7 e6 14 bd 8b 05 e4 bb
       0.036485255 -0.09286875 -0.0363529 -0.0069586686
0000d0 c1 79 5d 3d 12 af 07 bd 6b 08 9a bd 1a ba 22 bd
       0.05407119 -0.033125944 -0.07521137 -0.03972826
0000e0 f9 79 95 bd 80 24 87 3d 49 f0 19 3d a4 ac ba 3c
       -0.07298655 0.06598759 0.03758267 0.0227874
0000f0 9b 27 9f bd 91 6e 7e 3d 34 59 9d bd fa f8 b6 3b
       -0.07771226 0.062117163 -0.0768303 0.0055838795

GAT_layers.1.GAT_heads.1.w.weight f4 [1, 128]
000000 cb 14 85 bd 42 2b 81 3d b3 98 3d 3e 23 7a 28 3e
       -0.064981066 0.06307079 0.18515281 0.16452841
000010 11 59 b8 bc 6b 2e 46 3e 33 47 e8 3d 11 1f 46 3d
       -0.022503408 0.19353645 0.11341705 0.04836947
000020 a8 8a 19 be a3 e9 f5 3b db 9b 05 3d ea ac bf 3d
       -0.149943 0.0075046583 0.03261934 0.093591526
000030 52 ca bd bc 0e b8 11 be b2 fe 4e 3d b2 1d 33 be
       -0.023167763 -0.14230368 0.050535865 -0.17491797
000040 12 85 a1 bd f8 1d b9 bd 00 4e 90 bb 44 29 17 3e
       -0.07886709 -0.09038919 -0.0044038296 0.14761835
000050 9a 4a 36 bd dd 39 01 3e 66 a2 04 3e 22 d7 3c 3e
       -0.04450474 0.1261973 0.12952575 0.18441442
000060 31 60 53 3e 2a 1e 30 be a6 69 fe 3c 04 4c ae 3c
       0.20642163 -0.17199007 0.031056236 0.021276481
000070 46 a3 81 3d 79 a0 44 3e fc 85 2e be 9b e2 3d 3e
       0.0632997 0.1920184 -0.17043298 0.18543474
000080 8e 68 e9 bd 1f cf f3 3b 36 29 a9 3c 59 e3 10 bd
       -0.11396895 0.0074404622 0.020649534 -0.035373066
000090 92 f1 7e bd a9 62 74 3d 6d 00 00 3e be d1 e7 3d
       -0.0622421 0.059664402 0.12500162 0.11319302
0000a0 7a ea 10 be 20 21 29 3c 99 da 88 bd ab fa 5a be
       -0.14151946 0.010322839 -0.06682319 -0.21384685
0000b0 47 0d f0 3d 3e 86 18 3e 41 45 1e be d9 1e 45 be
       0.117212825 0.1489496 -0.15456106 -0.19250049
0000c0 e5 da ef 3c b8 2e 68 3c 98 b8 30 be 42 1c 93 bd
       0.029279182 0.014171295 -0.17257917 -0.07183124
0000d0 12 68 db bd be 94 c5 3c dc 18 96 3c 12 f3 56 3e
       -0.10713209 0.024118777 0.0183224 0.20991161
0000e0 d7 da d9 bc 0b 60 ac 3d 7a a2 4d be c1 a7 17 3e
       -0.026593609 0.08416756 -0.20081511 0.14810087
0000f0 02 a5 09 3e f6 b4 3b 3e 21 d1 e0 3d ef a8 50 3e
       0.13441852 0.1833075 0.10977388 0.20376943
000100 24 03 41 be a2 0a d4 bd 94 23 a1 3b 3b 7d 05 3d
       -0.18848854 -0.103535905 0.0049175713 0.032590132
000110 bd 7e b7 3d 4b 78 ac bc e7 3f 92 bc 52 b3 77 3d
       0.0895972 -0.021053454 -0.017852737 0.060473748
000120 c5 15 1f 3e 0a 1d 7d bd ef 52 05 3d c4 af 4b 3e
       0.15535648 -0.061795272 0.032549795 0.19891268
000130 59 56 8f bd 97 cc 91 3d 7a a7 18 3e 5a 3b 5a 3d
       -0.069988914 0.071191005 0.14907637 0.05327926
000140 6b 49 0e 3e 4f 56 c3 bd 53 9d 7d bd 9e 54 01 be
       0.13895194 -0.095379464 -0.061917614 -0.12629935
000150 7e 5f 1b 3d 03 89 40 be f2 3d 4a be bb 2b 01 bd
       0.037932865 -0.18802266 -0.19750193 -0.031535845
000160 c4 f4 08 3e ee f3 38 be dd d2 79 bd b4 fe b4 3d
       0.1337462 -0.18061802 -0.06099211 0.08837643
000170 71 2f 9b 3d ac a0 4b 3e 1c 82 09 3d da b0 30 be
       0.07577408 0.1988551 0.033571348 -0.17254964
000180 d3 da 21 3e 49 bb ae bd 35 ad 10 3e b4 a1 0f be
       0.15806131 -0.085318156 0.14128573 -0.14026529
000190 6a 9b 2a 3e f9 85 4f 3d a3 7e 35 bd ed 5c 8f 3d
       0.16660848 0.050664876 -0.044310223 0.07000146
0001a0 76 a6 0f 3e e9 49 16 3e 18 d3 cb 3d 59 b5 ba 3d
       0.14028344 0.14676632 0.09952372 0.091166206
0001b0 2c 5f 17 be ce 40 02 bc 99 03 bb 3d 9d 10 e9 bd
       -0.14782399 -0.007950021 0.091315456 -0.11380122
0001c0 d6 89 47 be 42 4a 59 3e 81 56 52 3e 59 b9 cb 3d
       -0.19486174 0.21219733 0.20540811 0.09947462
0001d0 29 37 24 be d8 88 f2 3d 0c 12 16 3e df 28 36 3e
       -0.16036667 0.11842507 0.14655322 0.17789029
0001e0 7c c7 0f 3e b6 17 f3 3d 02 04 75 3d 5b a8 2e 3e
       0.14040941 0.11869757 0.059818275 0.1705641
0001f0 7f 86 13 3e e9 a7 35 3e ef d8 4d 3e c3 ce 2e 3d
       0.14406775 0.17739834 0.20102285 0.042677652
