SLIC_GAT/best7.pt (torch, 80373 bytes, 12 tensors)

GAT_layers.0.f.weight f4 [32, 124]
-0.16488905 0.026974324 0.055191003 0.1190817 -0.08367941 -0.08481656 -0.12231642 -0.04841798
0.053971723 -0.16933492 -0.055695448 0.07658278 0.0041543073 0.0067422776 0.10635158 0.06840894
0.13942707 -0.09424546 0.07720325 -0.031925477 0.19070804 -0.15103915 -0.107791506 0.082200274
-0.1619021 -0.13927917 -0.097887754 0.17454831 0.064104594 0.1205234 0.027451346 0.047231082
0.011598582 0.19436891 0.16378981 0.0127627095 -0.061914153 0.004578283 0.0575673 0.07082234
-0.13314778 -0.13046844 0.08450041 0.030050352 -0.1314805 0.1627519 -0.081156574 0.19038472
-0.021242341 -0.19474459 -0.07481155 0.11834423 0.09301987 -0.021657923 0.04895289 0.11650208
0.13172363 0.0022882533 -0.13574573 -0.009318348 0.15149844 -0.029055698 -0.19370058 0.1563935
0.11282095 -0.023899091 0.13437961 -0.009839276 -0.048095398 0.07788543 0.17242713 0.031997062
0.13793787 -0.07571573 0.042787157 -0.031119093 0.14265212 -0.14194296 0.050077833 0.0608867
0.06827241 0.12511237 -0.042333208 0.06551838 0.015664587 -0.15561084 -0.026180752 -0.18386252
0.16241449 -0.15371475 0.0025967138 0.012619818 -0.14446998 -0.04494727 0.041875288 0.12863554
-0.16240211 -0.028568879 0.16552673 -0.060348704 -0.09364028 0.15279669 0.05229616 0.05165981
-0.08827707 -0.07120623 0.14279503 0.18014084 0.18612567 -0.03959232 0.0013740461 -0.16376552
-0.12591593 0.018009769 -0.12911072 0.06726476 0.13001214 0.08888287 0.02518079 -0.0017860752
-0.19099775 -0.08761136 0.040034972 -0.075402945 -0.18794335 -0.16663663 0.11511113 0.18884477
0.13265996 -0.08065381 -0.07639477 -0.095198296 0.074473724 -0.10075562 -0.08420822 0.18375012
0.07206921 0.059429634 -0.13424526 -0.06971255 -0.10261718 0.006917452 0.10951537 0.09791894
0.031753626 -0.03580852 -0.18452679 -0.076933265 -0.06534351 0.03247881 0.060288057 -0.10872166
0.1766857 0.024669027 -0.14032245 -0.04671406 0.088980995 0.11584901 -0.11636386 0.005339743
-0.14051355 -0.19308317 0.17007856 0.060097966 0.10311134 0.13749686 0.1925628 0.08107236
0.13614401 0.036626708 0.14191076 0.09456905 -0.048139747 -0.047074746 -0.1696845 -0.19276494
-0.096076846 -0.16226359 -0.10287475 0.04353865 -0.042246055 -0.014609809 0.14477822 -0.04857775
0.09227439 0.15285936 0.04729603 -0.13932241 0.0142248 -0.1259341 -0.14852814 -0.021155348
0.12215946 0.020301506 -0.0232071 0.039051823 -0.09343672 -0.054230455 -0.04167568 -0.1774754
0.05527773 -0.06833563 -0.0901511 0.07994483 -0.19172862 -0.11160724 -0.04332367 0.08998712
0.11727615 -0.15881473 0.068207234 0.058599733 0.07822101 0.07433448 0.038056772 -0.086367585
0.15959933 0.080100015 -0.13010962 0.029881697 -0.15005383 -0.18873939 0.07592906 -0.16247268
0.13967331 0.15652886 0.0923846 0.035949238 0.13144687 0.09852108 -0.019936772 -0.06418391
-0.047391415 0.16160117 -0.08022504 -0.19409971 0.19261913 -0.11093592 0.020036178 -0.023343796
0.17827523 -0.0064871646 0.1106207 -0.14093697 0.0044503435 0.07230747 0.16292535 -0.1150985
-0.13985403 -0.07181031 0.057304706 0.14850447 -0.18634461 -0.0050767907 0.012694396 0.11032498
00000000: add8 28be 42f9 dc3c f60f 623d 1be1 f33d
00000010: 1c60 abbd 4eb4 adbd 0881 fabd ef51 46bd
00000020: 7411 5d3d 2266 2dbe e920 64bd 6fd7 9c3d
00000030: db20 883b 53ee dc3b dbce d93d fd19 8c3d
00000040: f8c5 0e3e c403 c1bd bd1c 9e3d 4ac4 02bd
00000050: f848 433e 02aa 1abe cbc1 dcbd 9e58 a83d
00000060: aac9 25be 339f 0ebe 6079 c8bd cbbc 323e
00000070: 4549 833d f9d4 f63d a5e1 e03c 6175 413d
00000080: fb07 3e3c a508 473e 84b8 273e af1a 513c
00000090: b299 7dbd 6c05 963b b0cb 6b3d 4e0b 913d
000000a0: e457 08be 8599 05be 8d0e ad3d 282c f63c
000000b0: d3a2 06be 6fa8 263e 6b35 a6bd 36f4 423e
000000c0: 6b04 aebc 206b 47be cc36 99bd 765e f23d
000000d0: 3481 be3d f56b b1bc d382 483d a498 ee3d
000000e0: 8fe2 063e 85f6 153b ee00 0bbe fcab 18bc
000000f0: 6822 1b3e 3706 eebc 7259 46be 9e25 203e
00000100: ac0e e73d 07c8 c3bc cf9a 093e ea34 21bc
00000110: aeff 44bd 6582 9f3d bd90 303e 5a0f 033d
00000120: 963f 0d3e d910 9bbd 9641 2f3d 78ed febc
00000130: 6613 123e 7f59 11be 6a1e 4d3d 5564 793d
00000140: 68d2 8b3d 751d 003e 9665 2dbd 802e 863d
00000150: 0553 803c 7358 1fbe 0479 d6bc 7546 3cbe
00000160: fc4f 263e 6667 1dbe a12d 2a3b 5ac3 4e3c
00000170: f0ef 13be a11a 38bd 6c85 2b3d 09b9 033e
00000180: bd4c 26be 4809 eabc d77f 293e 3430 77bd
00000190: 7ac6 bfbd bc76 1c3e 8034 563d 3d99 533d
000001a0: 9cca b4bd 92d4 91bd dc38 123e d776 383e
000001b0: ba97 3e3e 8e2b 22bd 5619 b43a 26b2 27be
000001c0: 1bf0 00be 3989 933c 9a35 04be 1bc2 893d
000001d0: e721 053e 3908 b63d f247 ce3c bd1a eaba
000001e0: ea94 43be 966d b3bd b6fb 233d dc6c 9abd
000001f0: 3974 40be cba2 2abe 62bf eb3d 8660 413e
00000200: 03d8 073e d32d a5bd dc74 9cbd 53f7 c2bd
00000210: ae85 983d f658 cebd 5c75 acbd fe28 3c3e
00000220: 0699 933d 7d6c 733d 9777 09be 74c5 8ebd
00000230: f528 d2bd cbab e23b 9849 e03d ba89 c83d
00000240: 1710 023d f4ab 12bd 97f4 3cbe 308f 9dbd
00000250: d1d2 85bd 8008 053d 9cf0 763d 76a9 debd
00000260: 19ed 343e b316 ca3c b0b0 0fbe 3e57 3fbd
00000270: ab3b b63d 3f42 ed3d 2d50 eebd 03f9 ae3b
00000280: c9e2 0fbe 98b7 45be 1329 2e3e 4929 763d
00000290: 0a2c d33d facb 0c3e 2f2f 453e 4409 a63d
000002a0: 5669 0b3e e305 163d 0e51 113e 6bad c13d
000002b0: 2f2e 45bd 73d1 40bd c6c1 2dbe 2c64 45be
000002c0: f0c3 c4bd 6d28 26be ffaf d2bd 9555 323d
000002d0: 330a 2dbd fb5d 6fbc be40 143e 76f9 46bd
000002e0: 5bfa bc3d 2a87 1c3e 7bb9 413d 89aa 0ebe
000002f0: 230f 693c def4 00be c317 18be fb4d adbc
00000300: bd2e fa3d 584f a63c d11c bebc cef4 1f3d
00000310: c05b bfbd c120 5ebd 1eb4 2abd 1cbc 35be
00000320: e76a 623d 8df3 8bbd 24a1 b8bd 1dba a33d
00000330: 8254 44be 5692 e4bd 2974 31bd 2b4b b83d
00000340: 7a2e f03d 54a0 22be 3cb0 8b3d 4606 703d
00000350: 5632 a03d ad3c 983d 6be1 1b3d 7de1 b0bd
00000360: 026e 233e 7a0b a43d 753b 05be 76ca f43c
00000370: b6a7 19be e644 41be b280 9b3d 3d5f 26be
00000380: 8506 0f3e 1a49 203e 2334 bd3d 823f 133d
00000390: 029a 063e 6cc5 c93d 7152 a3bc db72 83bd
000003a0: 801d 42bd c77a 253e 074d a4bd 13c2 46be
000003b0: f33d 453e 5f32 e3bd e922 a43c 7d3b bfbc
000003c0: c88d 363e 4892 d4bb 1b8d e23d c851 10be
000003d0: 30d4 913b f015 943d e7d5 263e c3b8 ebbd
000003e0: e535 0fbe 4911 93bd 57b8 6a3d 8e11 183e
000003f0: 1fd1 3ebe 355b a6bb 28fc 4f3c 10f2 e13d

GAT_layers.0.f.bias f4 [32]
-0.08558413 0.059440937 -0.0872476 0.094942965 0.046272516 0.016951278 -0.08357836 0.032249145
-0.07839106 0.08563659 0.04510702 0.059991434 -0.07162426 0.05339843 0.049442787 0.006452626
-0.07877429 0.04371247 0.030614244 -0.0043213707 0.06332637 0.07730201 -0.06726497 0.047977895
0.08323541 0.05282293 -0.053800814 0.022136515 -0.06440346 -0.052492756 -0.013415428 -0.054343615
00000000: bb46 afbd 5778 733d dfae b2bd 7571 c23d
00000010: 4088 3d3d 68dd 8a3c 222b abbd ae17 043d
00000020: 7e8b a0bd 3d62 af3d 23c2 383d 94b9 753d
00000030: bdaf 92bd 50b8 5a3d 8584 4a3d 8d70 d33b
00000040: 6a54 a1bd d90b 333d b9ca fa3c 499a 8dbb
00000050: 42b1 813d 8450 9e3d 37c2 89bd 7884 443d
00000060: 5477 aa3d db5c 583d 3e5e 5cbd a357 b53c
00000070: f6e5 83bd a502 57bd 62cc 5bbc 6997 5ebd

GAT_layers.0.w.weight f4 [1, 124]
-0.15992469 0.059809674 -0.06425607 0.1040994 -0.14001316 0.06713824 -0.11451227 0.049962763
0.017632732 -0.009085007 -0.07800729 0.12236152 -0.16636847 -0.11327203 0.045215182 -0.16379118
0.087589435 0.02252131 -0.15523867 0.205927 -0.0067042434 -0.084621996 -0.016701628 0.14901106
-0.1346322 -0.032067344 0.008847048 0.11834789 -0.20281479 0.12571326 0.054315843 -0.032848585
0.08047612 0.044881027 0.061401445 0.13067006 0.10626852 -0.022288758 -0.18704571 -0.0049313656
0.008672533 -0.09651146 0.14889136 -0.06157491 0.00085417106 -0.08743914 0.06402112 -0.12602812
0.12241798 -0.1910615 -0.13252982 0.10737226 0.06358106 -0.17921472 -0.0062553436 -0.18444923
0.2129763 0.014617374 0.12135291 0.156249 -0.18054697 -0.08914927 0.09892268 0.07292424
0.023915648 -0.16096951 -0.14166239 -0.2157862 -0.012526594 0.18219924 0.16753185 -0.16414967
0.19826214 0.026515035 -0.010625048 0.05122284 0.24107412 -0.003245722 -0.09512077 -0.0067190593
-0.11120168 -0.11292684 0.14950414 -0.1592773 -0.15652762 -0.028780583 -0.13724163 0.1558508
0.13074806 -0.043219995 -0.16491994 -0.013400936 0.20242602 0.07147446 -0.06740238 -0.23001634
-0.03767488 0.19465004 0.026210764 -0.090728246 0.1781467 0.13602136 -0.02400295 0.07382715
-0.036741998 0.10488121 0.13383356 0.022819491 -0.008264056 0.08194085 0.04212198 0.05744029
-0.12879243 0.07955023 -0.0907382 0.16407584 0.049975913 0.12869096 -0.059463713 -0.018929144
-0.22402829 0.023032669 -0.044150453 -0.09996645
00000000: 4cc3 23be fdfa 743d b098 83bd 1132 d53d
00000010: 9c5f 0fbe c67f 893d 6985 eabd c1a5 4c3d
00000020: 8572 903c 48d9 14bc 49c2 9fbd ad98 fa3d
00000030: 7f5c 2abe 2bfb e7bd 8e33 393d e0b8 27be
00000040: 1762 b33d 9c7e b83c e3f6 1ebe 87de 523e
00000050: 45af dbbb 4c4e adbd dad1 88bc 5b96 183e
00000060: 06dd 09be 0c59 03bd 35f3 103c 6160 f23d
00000070: aeae 4fbe faba 003e 4a7a 5e3d 3d8c 06bd
00000080: aad0 a43d 2bd5 373d 1580 7b3d 5fce 053e
00000090: 4fa3 d93d ea96 b6bc e988 3fbe 4b97 a1bb
000000a0: 3d17 0e3c cda7 c5bd fa76 183e f935 7cbd
000000b0: 73ea 5f3a 4b13 b3bd 811d 833d 840d 01be
000000c0: 47b6 fa3d a0a5 43be e6b5 07be fde5 db3d
000000d0: c936 823d 1084 37be a0f9 ccbb 42e0 3cbe
000000e0: 7616 5a3e b67d 6f3c e087 f83d bdff 1f3e
000000f0: 4ee1 38be e493 b6bd f997 ca3d 4e59 953d
00000100: c0ea c33c 31d5 24be f20f 11be 0ff7 5cbe
00000110: 583c 4dbc 7092 3a3e 788d 2b3e da16 28be
00000120: 3b05 4b3e 0f36 d93c ae14 2ebc 0acf 513d
00000130: 22dc 763e 2eb6 54bb aece c2bd 8e2b dcbb
00000140: b5bd e3bd 3046 e7bd 9d17 193e 9719 23be
00000150: c748 20be 42c5 ebbc 1289 0cbe 5a97 1f3e
00000160: d2e2 053e 7307 31bd c6e0 28be 998f 5bbc
00000170: c448 4f3e 3461 923d 420a 8abd 6789 6bbe
00000180: fa50 1abd 5752 473e f5b7 d63c bbcf b9bd
00000190: 176c 363e 2f49 0b3e d6a1 c4bc b032 973d
000001a0: c77e 16bd f6cb d63d aa0b 093e f1ef ba3c
000001b0: f765 07bc 9bd0 a73d 1988 2c3d 8246 6b3d
000001c0: 2ae2 03be 3beb a23d f3d4 b9bd 7f03 283e
000001d0: 8bb3 4c3d 90c7 033e 3990 73bd 4b11 9bbc
000001e0: ac67 65be 02af bc3c 1bd7 34bd 36bb ccbd

GAT_layers.1.f.weight f4 [64, 64]
0.16047543 0.21598223 0.095378354 -0.07269599 0.13901645 0.18417676 -0.19158007 -0.060787126
0.113148116 0.1576418 0.13476212 0.15770864 -0.15229379 0.055388417 0.08312841 0.13332742
0.024115816 0.17680393 0.15743738 0.14609869 -0.15900844 -0.13038975 0.1822665 0.21997263
0.043379948 -0.022224976 -0.11900509 0.030263087 -0.17267162 0.21518563 0.21545136 0.15946627
-0.21205334 0.070086785 0.1328454 0.030139538 0.0751571 0.19132425 0.0024326602 0.025109308
-0.19764826 0.07689917 0.16150726 -0.016855322 -0.09024187 0.15835723 0.04155085 0.07468912
0.09425172 -0.15347593 -0.17680125 -0.1500661 -0.19053772 0.0026450022 0.15419175 0.10872832
0.07119678 0.08698911 -0.024321122 0.1809125 0.04969537 0.018497856 0.12096919 -0.09542969
0.020325344 0.11029474 0.14644377 -0.19152546 0.008128362 -0.10856093 -0.09180049 -0.05712669
-0.18285467 -0.1022168 0.12958959 -0.015932083 -0.011670288 0.012248472 0.14222491 -0.09036944
0.023497678 -0.09627385 0.20768549 -0.024748333 -0.1382568 -0.07415663 -0.02431529 0.03055996
0.061493747 0.1775487 0.14453386 0.09100595 0.10913178 0.020366874 -0.08595658 0.05440275
-0.025491258 0.022326382 -0.13466552 -0.0137700755 0.077989645 0.16126642 0.16635856 0.06874274
0.069453366 0.06872009 0.110904485 -0.16419315 0.015588386 -0.042912357 0.19857956 0.10350507
0.048887793 0.13275716 0.17662065 0.08382311 -0.09313451 -0.1398433 0.17587668 0.009047303
0.2000066 0.006869267 -0.053584598 -0.15676256 -0.08708246 -0.015543698 0.002380551 0.10011534
0.11533808 -0.020605717 0.12012322 -0.14057867 -0.048547022 0.18884091 0.21829471 -0.0013800139
0.12960646 0.07084443 -0.0981159 0.20386213 0.0077020316 0.07761254 -0.0028466147 -0.05780161
0.15122887 -0.14274292 0.023021335 0.19319944 0.13103214 -0.029745957 0.08525981 -0.14647777
-0.20232874 0.039449506 0.030549468 0.18718293 0.1230163 0.11997957 -0.19683835 -0.054820348
0.0473324 0.1569715 -0.16549072 0.077297464 -0.13790831 0.130803 -0.10486817 0.12950082
-0.10305745 -0.16088924 0.02645602 0.05450709 -0.086599305 0.01736189 0.15931126 -0.004881286
0.17030981 -0.16192791 -0.14946462 0.124638945 0.06549591 0.019272149 0.15134639 0.12271795
0.0014348571 -0.21736193 0.09555666 0.18908672 -0.12948336 0.013721349 0.086403154 0.18664667
-0.16083333 -0.18865088 0.10914105 0.016001446 0.059172176 -0.14290166 -0.21409126 0.14502339
-0.10717753 -0.15421408 -0.17773664 0.12019765 -0.23791893 0.13963461 0.0059108813 0.20680267
-0.012644785 -0.20234147 -0.21101564 0.104251646 0.10161042 0.09401677 -0.050481677 -0.12902153
-0.07858262 0.0055591743 0.15699981 -0.02489825 -0.20820841 -0.23106417 0.15487672 -0.2063733
-0.017332751 0.050581206 0.19444007 -0.11272263 -0.10332442 0.16943288 -0.2189312 -0.18468428
0.11674746 -0.13559963 0.071847975 0.11860954 -0.14268596 0.14270642 -0.05360637 -0.024755891
-0.0075960294 -0.06229991 -0.03862825 0.15109757 -0.04868085 -0.08595379 -0.010583006 -0.15912431
0.20306508 -0.056291595 -0.14877284 0.16221696 0.08681232 0.18662481 0.18489923 0.17357531
00000000: ac53 243e 722a 5d3e ba55 c33d a3e1 94bd
00000010: 545a 0e3e d598 3c3e 912d 44be ecfb 78bd
00000020: 33ba e73d da6c 213e 15ff 093e 607e 213e
00000030: e7f2 1bbe f7de 623d 3a3f aa3d fc86 083e
00000040: 888e c53c 170c 353e 4437 213e e59a 153e
00000050: 1cd3 22be e484 05be 12a4 3a3e 8140 613e
00000060: 2caf 313d 2711 b6bc f1b8 f3bd 4bea f73c
00000070: d4d0 30be 9f59 5c3e 489f 5c3e 204b 233e
00000080: 8324 59be a989 8f3d a008 083e 31e7 f63c
00000090: f7eb 993d 81ea 433e 446d 1f3b 09b2 cd3c
000000a0: 4e64 4abe 507d 9d3d 2962 253e 2c14 8abc
000000b0: bbd0 b8bd 6628 223e 3931 2a3d 9cf6 983d
000000c0: 0c07 c13d cb28 1dbe 630b 35be edaa 19be
000000d0: 521c 43be c657 2d3b 71e4 1d3e f4ac de3d
000000e0: 9ecf 913d 5927 b23d 173d c7bc 2041 393e
000000f0: 5f8d 4b3d d188 973c b2be f73d a470 c3bd
00000100: 5681 a63c 35e2 e13d 5bf5 153e 401f 44be
00000110: d22c 053c 3155 debd e501 bcbd adfd 69bd
00000120: 413e 3bbe 0b57 d1bd 22b3 043e 0084 82bc
00000130: bc34 3fbc d1ad 483c 68a3 113e 9d13 b9bd
00000140: 347e c03c 392b c5bd 81ab 543e 04bd cabc
00000150: 3193 0dbe 6edf 97bd dc30 c7bc e258 fa3c
00000160: dee0 7b3d 54cf 353e af00 143e 5461 ba3d
00000170: 7c80 df3d 6ed8 a63c 010a b0bd 6bd5 5e3d
00000180: 0bd3 d0bc d1e5 b63c c2e5 09be e29b 61bc
00000190: 09b9 9f3d 0623 253e e659 2a3e fec8 8c3d
000001a0: 913d 8e3d 1ebd 8c3d e421 e33d 4022 28be
000001b0: 6e66 7f3c dec4 2fbd 7158 4b3e 77fa d33d
000001c0: 913e 483d 7ef1 073e 0bdc 343e 73ab ab3d
000001d0: 4ebd bebd 1533 0fbe 0419 343e 243b 143c
000001e0: 88ce 4c3e 9717 e13b 867b 5bbd 5d86 20be
000001f0: 4a58 b2bd ffaa 7ebc 0503 1c3b 4509 cd3d
00000200: 5f36 ec3d 52cd a8bc 2a03 f63d dbf3 0fbe
00000210: 3ed9 46bd 835f 413e a688 5f3e 95e1 b4ba
00000220: 8eb7 043e e216 913d fdf0 c8bd 3cc1 503e
00000230: 5361 fc3b 53f3 9e3d 458e 3abb 62c1 6cbd
00000240: bedb 1a3e 332b 12be 3d97 bc3c 13d6 453e
00000250: 4a2d 063e cbad f3bc b29c ae3d 45fe 15be
00000260: 442f 4fbe ce95 213d e142 fa3c e2ac 3f3e
00000270: f8ef fb3d d9b7 f53d fe8f 49be 4d8b 60bd
00000280: 9edf 413d 23bd 203e 6676 29be 224e 9e3d
00000290: d637 0dbe 39f1 053e 20c5 d6bd dd9b 043e
000002a0: c90f d3bd 26c0 24be 4cba d83c d442 5f3d
000002b0: fa5a b1bd 863a 8e3c 7e22 233e 32f3 9fbb
000002c0: b265 2e3e 6ed0 25be 410d 19be b442 ff3d
000002d0: b822 863d a0e0 9d3c 8cfa 1a3e 8c53 fb3d
000002e0: d111 bc3a 2094 5ebe 36b3 c33d f39f 413e
000002f0: 4997 04be 82cf 603c 23f4 b03d 4e20 3f3e
00000300: 7eb1 24be b22d 41be 5885 df3d 7715 833c
00000310: 865e 723d d054 12be bd3a 5bbe 0381 143e
00000320: e57f dbbd 4cea 1dbe 9800 36be 2f2a f63d
00000330: 05a1 73be 60fc 0e3e 11b0 c13b 14c4 533e
00000340: 132c 4fbc 9a32 4fbe 7c14 58be e381 d53d
00000350: 2019 d03d dd8b c03d e0c5 4ebd 381e 04be
00000360: edef a0bd bc29 b63b 8fc4 203e 6af7 cbbc
00000370: 9634 55be 169c 6cbe 0198 1e3e 8653 53be
00000380: 6afd 8dbc 3d2e 4f3d 4c1b 473e 1fdb e6bd
00000390: c19b d3bd d07f 2d3e 802f 60be e01d 3dbe
000003a0: 4b19 ef3d a1da 0abe 0825 933d 8fe9 f23d
000003b0: 451c 12be a221 123e 5a92 5bbd decc cabc
000003c0: 1de8 f8bb 312e 7fbd a838 1ebd 52b9 1a3e
000003d0: 9265 47bd 8a08 b0bd 5864 2dbc 7cf1 22be
000003e0: 4bf0 4f3e 0492 66bd e857 18be 341c 263e
000003f0: a8ca b13d 931a 3f3e 3956 3d3e babd 313e

GAT_layers.1.f.bias f4 [64]
-0.061617836 0.011635678 0.07510394 -0.12746999 -0.08325283 -0.06471398 -0.1221913 0.10183754
-0.039786812 -0.0679059 -0.12358625 0.023840234 -0.08353625 -0.02622895 -0.09108741 -0.035972673
0.019002335 -0.07898605 -0.006060645 -0.08781637 0.07596564 0.10706082 -0.0017939407 -0.07327397
0.06612664 -0.07964076 -0.09582442 0.056510694 0.12698871 0.025218457 -0.089417025 0.05858904
-0.027370153 -0.08114363 0.0025532825 -0.046802834 0.0673196 0.015862491 0.0001946545 -0.022329181
-0.09364733 0.0136576 0.09050924 0.03727053 -0.0966388 0.0717113 0.11569506 -0.10235736
0.052199207 0.013281941 -0.032975778 -0.034107853 0.076827995 -0.078433745 -0.1469566 0.038912468
-0.073666476 0.040771764 -0.050135862 -0.05112563 -0.018753564 -0.014338947 -0.05098495 0.05787304
00000000: fc62 7cbd 92a3 3e3c 18d0 993d 7e87 02be
00000010: 7680 aabd c388 84bd 6f3f fabd 3390 d03d
00000020: 7ff7 22bd 4012 8bbd ca1a fdbd 984c c33c
00000030: 0e15 abbd 18de d6bc 098c babd 1558 13bd
00000040: c9aa 9b3c 70c3 a1bd 6098 c6bb 12d9 b3bd
00000050: e093 9b3d b442 db3d a922 ebba aa10 96bd
00000060: 676d 873d b21a a3bd 983f c4bd c277 673d
00000070: 5409 023e f096 ce3c 4620 b7bd 10fb 6f3d
00000080: 5f37 e0bc a22e a6bd f954 273b 54b4 3fbd
00000090: dcde 893d 0ef2 813c 2b1c 4c39 b0eb b6bc
000000a0: 2cca bfbd 20c4 5f3c e95c b93d fca8 183d
000000b0: 90ea c5bd 60dd 923d 88f1 ec3d bca0 d1bd
000000c0: d6ce 553d 809c 593c 9c11 07bd adb4 0bbd
000000d0: ff57 9d3d dfa1 a0bd ca7b 16be ae62 1f3d
000000e0: 73de 96bd 4b00 273d 435b 4dbd 1c69 51bd
000000f0: 13a1 99bc e7ed 6abc 98d5 50bd 480c 6d3d

GAT_layers.1.w.weight f4 [1, 64]
-0.28933758 0.17767224 -0.23829138 0.26337644 -0.058379974 -0.08535916 0.003115289 -0.2565478
-0.27597827 0.09433965 -0.19783208 0.21860254 0.29455182 0.2340086 0.1979784 -0.08126608
-0.25584754 -0.08067409 0.12905431 0.13117923 0.23378873 -0.24078485 0.1974072 -0.102391504
-0.095949225 0.21179748 -0.2785587 0.30378652 -0.028679272 0.27000663 -0.07246091 0.16884908
-0.072246075 0.17666468 -0.1687046 0.24700053 -0.28924978 -0.26109764 0.088732794 -0.07141716
0.024445886 0.15375702 0.14577083 0.27458096 -0.27468085 -0.20537427 -0.25977546 0.16461447
-0.16752565 0.05775539 -0.08675541 0.21964332 0.2629579 0.2989993 -0.098780476 0.27798718
-0.29304475 0.045491066 0.055024337 0.05224985 -0.17268127 0.17918333 -0.21955493 -0.28606588
00000000: 0e24 94be b6ef 353e a802 74be 47d9 863e
00000010: d71f 6fbd c9d0 aebd e029 4c3b 3c5a 83be
00000020: 064d 8dbe 2535 c13d 7e94 4abe 58d9 5f3e
00000030: 7fcf 963e f39f 6f3e daba 4a3e d56e a6bd
00000040: 73fe 82be 7538 a5bd d026 043e d953 063e
00000050: 5066 6f3e 4e90 76be 1d25 4a3e a3b2 d1bd
00000060: 0781 c4bd 70e1 583e 3f9f 8ebe e889 9b3e
00000070: cbf0 eabc 4f3e 8a3e 6366 94bd c6e6 2c3e
00000080: c0f5 93bd 96e7 343e e6c0 2cbe b5ed 7c3e
00000090: 8c18 94be 97ae 85be 8ab9 b53d 2943 92bd
000000a0: bd42 c83c 7b72 1d3e f344 153e e095 8c3e
000000b0: f8a2 8cbe a24d 52be 4a01 85be b290 283e
000000c0: d88b 2bbe ea90 6c3d d2ac b1bd 2eea 603e
000000d0: 6ba2 863e 7016 993e 6b4d cabd 5654 8e3e
000000e0: f609 96be d754 3a3d 3361 613d f003 563d
000000f0: 5cd3 30be d67b 373e 02d3 60be 3a77 92be

GAT_layers.2.f.weight f4 [64, 128]
0.124694206 -0.04225445 0.02729172 -0.1373247 0.13057233 0.048760343 -0.16571602 -0.036002286
-0.05298791 0.13741317 -0.17424439 -0.14696671 -0.0077038957 0.1206392 0.053116705 0.06322716
0.033217285 0.1673518 0.12051185 -0.11653835 0.025992615 -0.037604406 -0.059714034 0.014641185
0.12699538 -0.18723613 -0.12192158 -0.005965233 0.014577245 0.057822105 0.12388086 0.06947722
0.09432263 0.12088112 -0.13649157 -0.0017611061 0.06920917 -0.03974852 -0.14706455 -0.17050329
0.058951937 0.138014 0.03777198 -0.12612556 -0.14847906 -0.093547836 -0.14908887 -0.16963562
-0.07929763 -0.17461345 -0.12824066 0.04186721 0.016183048 0.09265048 -0.15014169 -0.11408542
-0.17393316 0.037654366 -0.16722886 0.07369587 -0.13074568 -0.030175898 -0.08296238 0.006575375
0.10036465 -0.029260235 -0.044644896 -0.015049716 0.06942597 0.03926796 0.12141632 -0.14686608
-0.1494577 -0.039080434 -0.03362718 0.1365067 0.13327967 0.08013523 -0.06827241 0.029195292
-0.16164732 0.11554972 -0.13484403 0.06591964 0.09809068 0.105441086 -0.013710665 0.14591026
-0.008696455 -0.0992983 0.104101494 0.14381774 -0.20303835 -0.022041136 -0.1159653 0.17648114
-0.13280764 0.023506748 -0.15819103 -0.09752502 -0.053752474 -0.12344439 -0.14131346 0.16194744
-0.0072568674 -0.14669885 -0.11639579 0.12124521 -0.12977967 0.1536035 -0.021221057 -0.14416255
0.02169785 -0.106224194 -0.16039826 0.16917865 -0.017258864 -0.09074125 -0.19917671 0.079585835
-0.14397056 0.01767211 0.003572363 -0.16923228 -0.0024169686 0.06938299 -0.16302125 -0.039806936
-0.16280454 0.039194692 -0.17200354 0.12395019 0.08148052 -0.033574242 -0.116174646 0.08435055
-0.14315821 -0.051637452 0.10395345 0.17239213 0.04187066 0.12724487 -0.06025343 0.17163052
0.09588779 -0.11949772 0.08762728 -0.021626327 0.14039767 -0.17255718 0.1505158 0.1446464
-0.014771817 -0.065804064 -0.034062177 -0.13189706 0.041882884 0.09807413 -0.10932722 -0.042828593
-0.16932663 0.1189136 0.08322955 -0.1466384 -0.12730125 -0.07704018 0.16803282 0.018572578
-0.06853307 -0.12973367 -0.09649285 -0.05205163 -0.16603139 -0.16209604 0.089442626 -0.053173244
-0.0013855355 0.09828162 -0.056588 -0.12601058 -0.09177889 0.043260116 0.15607363 0.15689528
-0.0551081 0.08013694 -0.02118722 -0.08369915 -0.0060446165 0.14207749 0.14362647 0.11805629
0.0031231868 0.018085528 0.07539555 -0.12878856 -0.1428831 -0.076316856 -0.09811833 -0.12074591
-0.08355596 0.15348445 -0.015078224 0.033716425 0.06675918 -0.038415883 -0.17077738 -0.1625301
-0.16960414 -0.02755601 -0.021894086 0.088103056 -0.12866792 -0.018945746 -0.15604275 -0.05217529
0.048392694 0.00042052017 0.028478751 -0.09125128 -0.047389474 0.09549831 0.008123552 -0.102939375
-0.107096724 -0.061581098 -0.14665 0.07411203 0.14604682 0.006046745 0.095890045 0.12214026
0.12948778 0.14707309 0.15276831 -0.10411736 0.174611 -0.124097176 -0.10928241 -0.10332742
-0.13544181 0.031248158 0.13767834 0.10221922 -0.16177006 -0.083854504 0.14688773 -0.0049648564
-0.072073005 -0.045599286 0.01944565 0.07154415 0.15897165 -0.14571847 0.063633166 0.14735213
00000000: ad5f ff3d 0113 2dbd e392 df3c d99e 0cbe
00000010: c1b4 053e edb8 473d 76b1 29be 2277 13bd
00000020: da09 59bd 0ab6 0c3e 1f6d 32be 717e 16be
00000030: f670 fcbb af11 f73d e790 593d 3e7d 813d
00000040: d90e 083d 455e 2b3e ebce f63d a9ab eebd
00000050: 77ee d43c 1407 1abd b496 74bd 95e1 6f3c
00000060: 140b 023e d4ba 3fbe 05b2 f9bd 0078 c3bb
00000070: 66d5 6e3c dfd6 6c3d 40b5 fd3d 134a 8e3d
00000080: 392c c13d 8590 f73d 72c4 0bbe ead4 e6ba
00000090: 8abd 8d3d 58cf 22bd 1798 16be 6a98 2ebe
000000a0: 9677 713d 8b53 0d3e cbb6 1a3d 0f27 01be
000000b0: e50a 18be 0296 bfbd c1aa 18be f6b4 2dbe
000000c0: cc66 a2bd decd 32be 8551 03be f47c 2b3d
000000d0: 5092 843c 89bf bd3d bebe 19be 9ea5 e9bd
000000e0: 891b 32be 773b 1a3d 0b3e 2bbe dced 963d
000000f0: 32e2 05be 7233 f7bc 2ee8 a9bd 3e76 d73b
00000100: fb8b cd3d 29b3 efbc 91dd 36bd 1693 76bc
00000110: 342f 8e3d 71d7 203d 1fa9 f83d 1064 16be
00000120: 700b 19be ce12 20bd a7bc 09bd 6ac8 0b3e
00000130: 777a 083e f11d a43d 68d2 8bbd f72a ef3c
00000140: e086 25be 55a5 ec3d 8e14 0abe e000 873d
00000150: c4e3 c83d 7ff1 d73d b2a2 60bc 8069 153e
00000160: 937b 0ebc e85c cbbd 2a33 d53d f544 133e
00000170: 49e9 4fbe 9d8f b4bc 377f edbd 79b7 343e
00000180: bafe 07be 3991 c03c d4fc 21be 33bb c7bd
00000190: 8e2b 5cbd 6ad0 fcbd 7ab4 10be 8dd5 253e
000001a0: 04cb edbb 3938 16be ea60 eebd 694f f83d
000001b0: f6e4 04be 3c4a 1d3e c8d7 adbc 599f 13be
000001c0: b1bf b13c 128c d9bd 713f 24be 2b3d 2d3e
000001d0: 7662 8dbc 8cd6 b9bd fbf4 4bbe e6fd a23d
000001e0: 056d 13be 1ac5 903c 4e1e 6a3b 3a4b 2dbe
000001f0: 0166 1ebb ab18 8e3d 0bef 26be 990c 23bd
00000200: 3cb6 26be 9d8a 203d b221 30be 99d9 fd3d
00000210: 42df a63d 2585 09bd f9ec edbd fbbf ac3d
00000220: 1198 12be cb81 53bd 8ce5 d43d 9087 303e
00000230: 9280 2b3d 7b4c 023e 4dcc 76bd e9bf 2f3e
00000240: d160 c43d 38bb f4bd ee75 b33d b229 b1bc
00000250: 68c4 0f3e d4b2 30be d020 1a3e 301e 143e
00000260: 7e05 72bc 48c4 86bd c884 0bbd 0610 07be
00000270: 638d 2b3d 17db c83d f3e6 dfbd 096d 2fbd
00000280: f663 2dbe f988 f33d 4174 aa3d 6028 16be
00000290: 425b 02be 3ec7 9dbd cc10 2c3e 8525 983c
000002a0: 115b 8cbd e7d8 04be 0b9e c5bd 1734 55bd
000002b0: 2204 2abe 81fc 25be b22d b73d 30cc 59bd
000002c0: db9a b5ba e047 c93d d2c8 67bd eb08 01be
000002d0: 92f6 bbbd 8531 313d c4d1 1f3e 28a9 203e
000002e0: 08b9 61bd d61e a43d d290 adbc 766a abbd
000002f0: eb11 c6bb c37c 113e d112 133e 7fc7 f13d
00000300: 61ae 4c3b 1a28 943c fb68 9a3d 26e1 03be
00000310: f34f 12be 034c 9cbd 43f2 c8bd a249 f7bd
00000320: 631f abbd 072b 1d3e a80a 77bc 3c1a 0a3d
00000330: 09b9 883d f959 1dbd 44e0 2ebe 4a6e 26be
00000340: b5ac 2dbe 24bd e1bc 3a5b b3bc 606f b43d
00000350: 86c1 03be 1c34 9bbc acc9 1fbe c2b5 55bd
00000360: 6b37 463d 4379 dc39 454c e93c f3e1 babd
00000370: 771b 42bd 9e94 c33d a618 053c e1d1 d2bd
00000380: 8755 dbbd 763c 7cbd 6b2b 16be 0cc8 973d
00000390: 4c8d 153e c623 c63b 0062 c43d ac24 fa3d
000003a0: 7298 043e 549a 163e 4c6f 1c3e 7c3b d5bd
000003b0: 3acd 323e a926 febd 75cf dfbd 549d d3bd
000003c0: 42b1 0abe 23fc ff3c 8dfb 0c3e 4f58 d13d
000003d0: 0da7 25be e9bb abbd bd69 163e 3cb0 a2bb
000003e0: 039b 93bd 51c6 3abd 7c4c 9f3c bd85 923d
000003f0: 77c9 223e 3937 15be 1b52 823d 7ae3 163e

GAT_layers.2.f.bias f4 [64]
0.13626792 -0.019050132 0.13689482 0.020227784 -0.012404316 0.14539143 0.15654711 0.10100659
0.09005063 0.13915828 -0.033705734 0.10167299 -0.016674127 -0.08378904 0.16511871 0.14541842
0.17271076 -0.03607325 0.15487239 -0.03843761 0.13414545 -0.013175179 0.11669556 -0.0042414325
0.05626506 0.12736163 0.15781815 -0.024504185 -0.01098029 0.13664608 0.1536046 -0.14906754
-0.045935817 0.09854623 -0.067270555 -0.0016524303 0.104062 0.040276237 -0.047117174 -0.052045047
-0.008299363 -0.09755545 0.12702657 -0.009658406 -0.09018112 -0.008988472 0.13425398 -0.034033056
-0.0061660903 0.17173013 -0.14421639 0.12767458 -0.08155261 -0.028693657 0.080564834 0.1125657
0.09854497 -0.07010576 -0.007802447 0.13990827 -0.027730333 0.081348754 -0.019134281 -0.00897452
00000000: d189 0b3e 060f 9cbc 282e 0c3e bdb4 a53c
00000010: 793b 4bbc 7ee1 143e e34d 203e 8bdc ce3d
00000020: 776c b83d 827f 0e3e 060f 0abd ee39 d03d
00000030: 2e98 88bc 9799 abbd e114 293e 91e8 143e
00000040: 17db 303e 8bc1 13bd de96 1e3e c170 1dbd
00000050: 6d5d 093e b5dc 57bc 15fe ee3d b7fb 8abb
00000060: 3176 663d 166b 023e 159b 213e 00bd c8bc
00000070: ade6 33bc f3ec 0b3e 864a 1d3e 29a5 18be
00000080: 3227 3cbd 9bd2 c93d 25c5 89bd 5c96 d8ba
00000090: 751e d53d b2f8 243d f0fd 40bd 302d 55bd
000000a0: 0dfa 07bc 27cb c7bd 4113 023e 4a3e 1ebc
000000b0: e1b0 b8bd 6244 13bc e079 093e 3f66 0bbd
000000c0: ea0c cabb 06da 2f3e 76ad 13be 20bd 023e
000000d0: 0e05 a7bd f60e ebbc 2dff a43d d988 e63d
000000e0: f2d1 c93d 9c93 8fbd abab ffbb 1d44 0f3e
000000f0: b92a e3bc 2d9a a63d 7fbf 9cbc dd09 13bc

GAT_layers.2.w.weight f4 [1, 128]
-0.17658612 -0.14880879 0.07832183 -0.086049005 0.028172463 0.17074221 -0.0042771474 0.10669593
0.08867854 -0.09903031 0.050093282 0.046344243 0.2014585 -0.18790242 0.15662144 0.12458027
0.14658758 0.054340262 0.12788227 0.18457456 0.113896966 0.20382033 0.10725307 0.2031
0.030150589 -0.058888957 0.042790245 0.06290039 -0.09957505 0.13196692 -0.18815903 0.14779696
0.09271766 -0.16177161 -0.039540652 -0.01724356 0.09040595 -0.16012841 -0.04472568 -0.107579306
-0.18361987 -0.13726333 -0.038029928 -0.025470614 0.1410759 -0.20005478 0.012591446 0.055056054
0.12555973 -0.0028282842 -0.10427676 -0.12008937 -0.18463029 -0.1311311 0.13925667 -0.20401596
-0.22086287 0.019715745 -0.13390669 -0.2179362 -0.0128568085 0.057612535 -0.10246493 0.07645652
-0.0716214 0.09583409 -0.17774494 -0.040434282 0.07340314 -0.20764172 0.17622174 -0.16714388
0.11143198 -0.063806586 -0.12033476 0.21299152 0.05245885 0.11901775 -0.2406063 -0.15716803
-0.13494587 -0.07465948 0.06495256 0.07193564 -0.19408382 0.20689082 -0.17218104 -0.06803075
0.05735473 -0.05208525 0.09227436 -0.115371086 0.011449702 0.09733301 0.022138078 -0.035615325
0.042838175 0.17688632 -0.1195194 -0.03429273 -0.21519053 -0.18538222 -0.02612581 0.16752939
-0.12749942 0.156207 -0.04284822 -0.22767097 0.16653273 -0.03757442 -0.10819244 -0.14965947
0.15338965 0.19689429 0.11862725 0.15014693 0.15786377 0.06640429 -0.0058089327 0.069984816
0.078809194 0.050571036 -0.14613725 0.14613849 -0.09293343 0.10996733 -0.050924703 -0.20380163
00000000: fed2 34be 5561 18be 3267 a03d 763a b0bd
00000010: f0c9 e63c 0cd7 2e3e 5027 8cbb 6583 da3d
00000020: 189d b53d 67d0 cabd 9d2e 4d3d 76d3 3d3d
00000030: 234b 4e3e 7e69 40be 5f61 203e f123 ff3d
00000040: 0e1b 163e e593 5e3d 92f3 023e 1d01 3d3e
00000050: d042 e93d 47b6 503e 7fa7 db3d 72f9 4f3e
00000060: 5efe f63c 8c35 71bd d344 2f3d ebd1 803d
00000070: 01ee cbbd 5622 073e c3ac 40be 1658 173e
00000080: c2e2 bd3d 75a7 25be 61f5 21bd 5e42 8dbc
00000090: c126 b93d b4f8 23be 4632 37bd 8a52 dcbd
000000a0: d906 3cbe c28e 0cbe 45c5 1bbd c0a7 d0bc
000000b0: 3376 103e 29db 4cbe 5a4c 4e3c 7582 613d
000000c0: bb92 003e bc5a 39bb 0e8f d5bd 6af1 f5bd
000000d0: b90f 3dbe 3b47 06be 4d99 0e3e 8fe9 50be
000000e0: e029 62be ea82 a13c d61e 09be ab2a 5fbe
000000f0: 5da5 52bc 1ffb 6b3d 22d9 d1bd 3c95 9c3d
00000100: 3eae 92bd aa44 c43d c502 36be 6b9e 25bd
00000110: 6354 963d 08a0 54be 7973 343e c427 2bbe
00000120: 7336 e43d 07ad 82bd 1272 f6bd 731a 5a3e
00000130: 17df 563d 94bf f33d 7f61 76be a8f0 20be
00000140: 402f 0abe 12e7 98bd d905 853d fe52 933d
00000150: e9bd 46be 30db 533e 3a50 30be b553 8bbd
00000160: cbec 6a3d 5857 55bd 57fa bc3d ad47 ecbd
00000170: 8897 3b3c 8756 c73d ea5a b53c 60e1 11bd
00000180: 1577 2f3d b021 353e 96c6 f4bd 8976 0cbd
00000190: e85a 5cbe d6d4 3dbe cb05 d6bc d38c 2b3e
000001a0: 358f 02be baf4 1f3e 9d81 2fbd 9422 69be
000001b0: 8e87 2a3e a3e7 19bd ff93 ddbd 5540 19be
000001c0: 2d12 1d3e a89e 493e d8f2 f23d 1ec0 193e
000001d0: 0aa7 213e f9fe 873d dc58 bebb 3354 8f3d
000001e0: b766 a13d 9323 4f3d 01a5 15be 54a5 153e
000001f0: e253 bebd 8d36 e13d 6c96 50bd 60b1 50be

MLP_layers.0.weight f4 [32, 64]
0.09357407 -0.03304261 0.008655361 0.022517193 -0.18798494 -0.058396786 0.1178627 0.11041001
0.07604748 -0.03712947 -0.07234785 0.032672867 0.017236188 0.07721266 -0.07353358 0.018162169
-0.06241083 0.096659414 -0.06998795 -0.019308029 0.15047668 -0.07546415 0.089104734 0.005091723
0.09970899 0.15212159 -0.083434515 -0.030165497 -0.010167555 -0.030112717 0.060332816 0.062472057
0.08401783 -0.026930787 -0.017220693 -0.035790678 0.010498679 -0.041101895 0.044558324 0.06818903
-0.015315997 -0.028441558 -0.13322838 0.011094816 -0.011816231 -0.08000935 0.08795745 0.08938507
0.09568537 0.07596267 0.06103533 -0.12059317 0.04092306 0.05532927 -0.078374036 0.11073429
-0.13753842 0.019306228 -0.0534389 -0.0008293784 -0.0012723737 -0.13574007 -0.0003899487 0.0832784
0.039196532 -0.045123324 -0.04092182 0.08130919 -0.09441993 0.057779144 -0.03935188 0.02760918
0.004824971 -0.0709536 -0.03704995 -0.067731 -0.07669047 0.083644144 0.016161038 0.08070132
-0.0112625295 0.029173905 0.06297156 -0.12658893 -0.045183927 0.0012479126 -0.008007827 -0.023814786
-0.028933208 -0.0035435064 -0.014095229 0.092573896 0.09774879 -0.06675945 0.052526362 0.10349019
0.0927064 0.027458847 -0.06085094 0.09592626 -0.112520106 -0.10386654 -0.09226317 0.088832095
-0.06959935 -0.07287365 -0.09403492 0.09883595 -0.060795356 0.03842254 -0.07463424 0.014424593
-0.047011238 -0.025633318 0.07583219 -0.054817792 0.038402915 0.024864433 0.0130301295 -0.023757717
0.11498614 -0.060207717 -0.011914738 0.015010268 -0.05662545 0.045139432 -0.05573039 0.017251115
-0.1385518 -0.052626908 -0.06288661 0.09355046 -0.041490477 0.078299634 -0.061676875 -0.039027233
0.065803885 0.046476375 0.11301128 0.003916508 -0.058466874 -0.12114055 0.0664447 0.0719128
0.08389883 -0.03178502 -0.07704263 0.0600987 0.002336175 0.007920893 -0.08858312 0.034235433
0.09478148 -0.022523066 0.04019687 -0.10908977 -0.113789394 -0.06475912 0.011607211 0.07747389
0.06590531 -0.039516076 0.0500791 -0.10368234 -0.034509253 -0.0122754285 0.109579034 0.040505946
0.10451061 0.09347938 0.10836102 0.10955814 -0.052993663 0.018851368 -0.051342394 -0.052488502
0.096684285 -0.12941128 0.009319616 -0.10132424 0.06613364 -0.069500506 -0.14002328 -0.05690702
0.013868107 -0.011904642 0.017216075 0.057109285 0.022916695 0.03787288 0.10421248 0.07369196
0.094693124 0.10567303 0.014404019 -0.013928163 -0.07382681 0.044345994 0.10958866 0.018111782
-0.02289714 0.09580421 -0.10988376 0.12474149 0.08613679 0.020403238 -0.09037181 -0.042876024
-0.084886886 -0.020825487 0.1033736 -0.08282794 0.056637783 -0.117437676 0.17420478 -0.1310012
0.048989803 -0.051644754 0.017422471 -0.02593528 0.11475913 -0.027616937 0.03486876 -0.0887119
-0.11926783 0.029861558 0.0009791561 0.026660196 0.08417747 -0.08055932 0.040791012 0.030979259
0.03847078 0.0199474 0.107277185 -0.014916483 -0.11417832 -0.11296393 0.046577808 -0.06265904
0.045786925 -0.05526353 -0.09534279 0.10684794 -0.110055745 -0.12402749 0.025546689 0.08727519
-0.12362865 -0.011285228 0.04553325 0.07376568 0.094744824 0.027939858 -0.12663662 0.103544645
00000000: c3a3 bf3d b057 07bd 37cf 0d3c fa75 b83c
00000010: 207f 40be 7831 6fbd 0062 f13d a51e e23d
00000020: c8be 9b3d 1215 18bd 1c2b 94bd fcd3 053d
00000030: e832 8d3c ac21 9e3d c698 96bd d4c8 943c
00000040: 80a2 7fbd 5ff5 c53d d855 8fbd df2b 9ebc
00000050: 8f16 1a3e f38c 9abd 8b7c b63d 78d8 a63b
00000060: 3a34 cc3d c3c5 1b3e b7df aabd a21d f7bc
00000070: d195 26bc f2ae f6bc 8b1f 773d b3e2 7f3d
00000080: 8a11 ac3d f49d dcbc 6912 8dbc 3f99 12bd
00000090: a702 2c3c 765a 28bd ca82 363d b1a6 8b3d
000000a0: f3ef 7abc 45fe e8bc 056d 08be 08c7 353c
000000b0: dd98 41bc f1db a3bd 0923 b43d 850f b73d
000000c0: b1f6 c33d 5192 9b3d 2f00 7a3d 8df9 f6bd
000000d0: f09e 273d f2a0 623d 9182 a0bd a9c8 e23d
000000e0: dfd6 0cbe 1828 9e3c bfe2 5abd a46a 59ba
000000f0: c7c5 a6ba 72ff 0abe 0772 ccb9 de8d aa3d
00000100: 8b8c 203d 3cd3 38bd a39d 27bd 6f85 a63d
00000110: 3c5f c1bd d3a9 6c3d 702f 21bd a62c e23c
00000120: ca1a 9e3b 1f50 91bd b0c1 17bd 8db6 8abd
00000130: e50f 9dbd 9f4d ab3d 2764 843c bc46 a53d
00000140: 7986 38bc 1dfe ee3c 3cf7 803d 87a0 01be
00000150: c812 39bd 0091 a33a 4333 03bc 3a17 c3bc
00000160: 5605 edbc 2c3a 68bb adef 66bc 6297 bd3d
00000170: 8530 c83d 2eb9 88bd e225 573d aaf2 d33d
00000180: dadc bd3d 60f1 e03c d63e 79bd fd74 c43d
00000190: f170 e6bd fbb7 d4bd 79f4 bcbd 9aed b53d
000001a0: 1b8a 8ebd c83e 95bd 6195 c0bd 816a ca3d
000001b0: 8d04 79bd f460 1d3d d6d9 98bd 2155 6c3c
000001c0: db8e 40bd f7fc d1bc e84d 9b3d 9f88 60bd
000001d0: 604c 1d3d 7fb0 cb3c 537c 553c 8b9f c2bc
000001e0: da7d eb3d 5e9c 76bd 0936 43bc a1ed 753c
000001f0: 16f0 67bd 20e4 383d 8d45 64bd 3652 8d3c
00000200: 86e0 0dbe 508f 57bd b2ca 80bd 6297 bf3d
00000210: ebf1 29bd 8f5b a03d e4a0 7cbd 05db 1fbd
00000220: 30c4 863d 035e 3e3d 7572 e73d 0d56 803b
00000230: f67a 6fbd 8918 f8bd 2914 883d 0547 933d
00000240: 26d3 ab3d 0231 02bd 87c8 9dbd 0e2a 763d
00000250: 831a 193b a2c6 013c 116b b5bd 743a 0c3d
00000260: cb1c c23d 4b82 b8bc 79a5 243d 756a dfbd
00000270: 6a0a e9bd 6ea0 84bd 2c2c 3e3c a1aa 9e3d
00000280: 5df9 863d 9cdb 21bd be1f 4d3d 6857 d4bd
00000290: 9359 0dbd e11e 49bc f96a e03d 90e9 253d
000002a0: a909 d63d 1e72 bf3d 62ec dd3d 0560 e03d
000002b0: e20f 59bd 2f6e 9a3c 674c 52bd 2ffe 56bd
000002c0: 6902 c63d 6484 04be 4db1 183c 1583 cfbd
000002d0: 1371 873d 4856 8ebd 4362 0fbe 5617 69bd
000002e0: 0f37 633c b00b 43bc ba08 8d3c 6deb 693d
000002f0: cbbb bb3c 9820 1b3d 5a6d d53d cfeb 963d
00000300: 78ee c13d 1a6b d83d d6fe 6b3c f332 64bc
00000310: 8332 97bd 25a4 353d 0570 e03d 295f 943c
00000320: c892 bbbc ff34 c43d bd0a e1bd 7778 ff3d
00000330: 7c68 b03d b124 a73c db14 b9bd c59e 2fbd
00000340: 2dd9 adbd 369a aabc 8ab5 d33d b2a1 a9bd
00000350: 05fd 673d 2a83 f0bd bd62 323e 2e25 06be
00000360: 88a9 483d 7389 53bd 92b9 8e3c 3976 d4bc
00000370: d606 eb3d ea3c e2bc 8bd2 0e3d 96ae b5bd
00000380: b142 f4bd 3aa0 f43c 0757 803a 7c66 da3c
00000390: 3d65 ac3d 49fc a4bd 7a14 273d 37c8 fd3c
000003a0: 8993 1d3d bb68 a33c 24b4 db3d 4464 74bc
000003b0: 53d6 e9bd a259 e7bd 5fc8 3e3d 6253 80bd
000003c0: 128b 3b3d 035c 62bd 1543 c3bd 18d3 da3d
000003d0: e864 e1bd 2002 febd 4a47 d13c 56bd b23d
000003e0: 0531 fdbd ade5 38bc 1381 3a3d 7612 973d
000003f0: 9309 c23d 21e2 e43c 08ad 01be 370f d43d

MLP_layers.0.bias f4 [32]
-0.004263602 0.043722793 0.05853286 -0.038845185 0.04459198 0.14303051 0.011823812 0.06453015
0.032162014 -0.0740673 0.15807685 0.16717711 0.04387385 -0.060917124 0.0983727 0.1109736
-0.018854877 -0.06781642 0.19388148 0.008304714 -0.014621782 0.0072726565 -0.0026786774 0.07393016
0.0963703 0.122023225 0.09124804 0.14644362 0.07760594 0.013547083 -0.017134981 0.019173514
00000000: b0b5 8bbb ac16 333d 27c0 6f3d 211c 1fbd
00000010: 14a6 363d 9776 123e a9b8 413c 6228 843d
00000020: 51bc 033d 99b0 97bd e6de 213e 7a30 2b3e
00000030: 11b5 333d 3c84 79bd a077 c93d 2046 e33d
00000040: 8b75 9abc 56e3 8abd de88 463e 7f10 083c
00000050: 3390 6fbc 774f ee3b c08c 2fbb b268 973d
00000060: cb5d c53d 50e7 f93d 41e0 ba3d 51f5 153e
00000070: ddef 9e3d 96f4 5d3c a95e 8cbc c611 9d3c

MLP_layers.1.weight f4 [1, 32]
0.0053171245 0.14323895 -0.077566855 0.004825078 -0.13925566 0.13197011 0.013439425 0.10672169
0.014015829 -0.042669132 0.25991833 0.16770546 0.13266295 0.056349684 0.14964151 0.014362083
-0.008188104 -0.023432514 0.1809675 -0.051397715 0.2420408 -0.016658641 8.543166e-05 -0.020327656
0.06480727 0.1727518 0.18213369 0.18730198 -0.09419398 -0.06765308 0.23356578 -0.021302318
00000000: 463b ae3b 3bad 123e 5fdb 9ebd b01b 9e3b
00000010: 0999 0ebe 2c23 073e 0931 5c3c e790 da3d
00000020: a6a2 653c d4c5 2ebd 0414 853e fbba 2b3e
00000030: ccd8 073e edce 663d a03b 193e f14e 6b3c
00000040: 6627 06bc 8bf5 bfbc 8b4f 393e 6986 52bd
00000050: 8bd9 773e b477 88bc c629 b338 2f86 a6bc
00000060: adb9 843d d9e5 303e 4181 3a3e 17cc 3f3e
00000070: c6e8 c0bd b38d 8abd de2b 6f3e 3382 aebc
