SLIC_GAT/best9.pt (torch, 80373 bytes, 12 tensors)

GAT_layers.0.f.weight f4 [32, 124]
0	0xbe48e6e8	-0.19619334
1	0x3e2acb83	0.16679196
2	0x3d58d719	0.052939508
3	0xbe4841ef	-0.19556402
4	0x3e29501d	0.16534467
5	0xbe090c79	-0.13383664
6	0xbe161f32	-0.14660338
7	0x3e126e6a	0.14299932
8	0xbe278ea9	-0.16363014
9	0xbe03d44c	-0.12873954
10	0xbe20a4a0	-0.156878
11	0xbde893a1	-0.11356283
12	0xbd62f2bf	-0.055407282
13	0xbd0345c7	-0.032048967
14	0xbdc42e4f	-0.09579145
15	0x3e08e9d8	0.13370454
16	0x3e308f6e	0.17242214
17	0xbcd7d138	-0.02634488
18	0x3df41e4e	0.11919843
19	0xba7cb50d	-0.0009640016
20	0xbc374fd3	-0.011188465
21	0x3e43847e	0.1909351
22	0x3c4327a9	0.011911311
23	0xbdf3da4e	-0.11906873
24	0xbd8c5404	-0.06851962
25	0xbe1f9bdf	-0.15586804
26	0x3e23298c	0.15933818
27	0xbdddd02a	-0.1083072
28	0x3de17c26	0.110100076
29	0xbb968a76	-0.0045941425
30	0x3e0b7a08	0.1362077
31	0xbe3c8d77	-0.1841334
32	0x3d37f643	0.044912588
33	0xbe088ee7	-0.13335763
34	0xbca6c3af	-0.020356981
35	0xbc76862a	-0.015046636
36	0xbdcf6209	-0.101261206
37	0x3de611e4	0.11233881
38	0x3d4b9007	0.049697902
39	0xbb5397ab	-0.0032286446
40	0x3cc84f2c	0.024451815
41	0xbd6a5e08	-0.05721858
42	0xbd8a39b6	-0.06749289
43	0xbd90a907	-0.070634894
44	0x3bed41c1	0.0072405045
45	0x3d602dcf	0.054731186
46	0xbe3a1869	-0.18173374
47	0xbdbf83af	-0.093512885
48	0xbe35786b	-0.17721717
49	0x3d4144fd	0.047184933
50	0xbe2e6723	-0.17031531
51	0xbe3729d2	-0.17887047
52	0x3e059ac7	0.13047324
53	0x3dd31556	0.10306804
54	0x3b9ec829	0.0048456383
55	0x3e39dd57	0.1815084
56	0xbe200359	-0.15626277
57	0xbe020188	-0.12695897
58	0xbdfdcd5f	-0.12392687
59	0xbc5ab31c	-0.013348367
60	0xbc8c5fb6	-0.017135482
61	0xbe2f86b3	-0.17141227
62	0xbdbb6081	-0.09149266
63	0x3cde8b14	0.027165927
64	0x3e276564	0.16347271
65	0xbde1bb50	-0.11022055
66	0x3e198c0d	0.14994831
67	0x3d95a1ae	0.073062286
68	0x3e3db37f	0.18525504
69	0x3dfe81fb	0.124271356
70	0xbdd99a66	-0.10625152
71	0xbd903583	-0.070414566
72	0x3cdd1f57	0.026992483
73	0x3d16ee7b	0.036848526
74	0x3dccbc4c	0.09996852
75	0x3e38c9a8	0.18045676
76	0x3defc7ee	0.117080554
77	0xbe09ea1c	-0.13468212
78	0x3dc3e819	0.095657535
79	0x3e378451	0.17921568
80	0xbe44d625	-0.19222315
81	0xbcc66f54	-0.024223007
82	0x3da0991a	0.07841702
83	0x3e020550	0.12697339
84	0xbafee6fc	-0.0019447501
85	0xbe336195	-0.17517693
86	0xbdfcda92	-0.123463765
87	0x3cf5b1f6	0.029992085
88	0x3e05470f	0.13015388
89	0x3e0e8c42	0.13920692
90	0xbd014ca2	-0.031567223
91	0xbdf7bb43	-0.12096264
92	0x3e148487	0.1450368
93	0xbd9763ed	-0.07392106
94	0x3d1ceda9	0.038312588
95	0x3dd5063b	0.10401579
96	0x3dd09766	0.10185127
97	0xbe472844	-0.19448954
98	0xbdc73953	-0.097277306
99	0x3ddd4c7f	0.10805606
100	0xbe280380	-0.16407585
101	0x3a13a835	0.000563267
102	0xbd275cd4	-0.040860012
103	0x3c0d5b0e	0.008627666
104	0x3e22f6c5	0.15914448
105	0xbe2160b2	-0.15759543
106	0x3e1b9529	0.15193619
107	0x3df4fc62	0.11962201
108	0x3dd76fd1	0.10519374
109	0xbda06e9b	-0.07833596
110	0x3e03cb94	0.12870628
111	0xbd8ab07d	-0.06771944
112	0xbe1136ee	-0.1418111
113	0x3dfbafa0	0.12289357
114	0xbe480fce	-0.19537279
115	0x3e10228f	0.14075683
116	0x3c49579b	0.012288953
117	0xbe09b369	-0.13447346
118	0x3dbeca2b	0.09315904
119	0x3d7f4e68	0.062330633
120	0x3e2afe90	0.1669867
121	0x3de4f470	0.11179435
122	0x3ca18700	0.019717693
123	0xbdcd0a6d	-0.10011754
124	0xbe267502	-0.16255572
125	0x3df3694a	0.11885317
126	0x3caf5dbf	0.021407006
127	0xbc6a6802	-0.014307024
128	0x3dad5136	0.084627554
129	0x3cfdfe35	0.031005004
130	0x3dbfb599	0.09360809
131	0x3d31c0ba	0.04339669
132	0x3df72211	0.120670445
133	0x3d46b587	0.04851296
134	0xbe0ac1ba	-0.13550463
135	0x3c98d44f	0.018655924
136	0xbd85e0cb	-0.065370165
137	0xbe06b870	-0.13156295
138	0xbcd140b9	-0.025543557
139	0xbca5022a	-0.020142633
140	0xbde5472a	-0.11195214
141	0x3e3e9c14	0.18614227
142	0x3db34ded	0.087550975
143	0xbd0302c5	-0.031985063
144	0xbdb48121	-0.08813692
145	0xbe10356f	-0.14082883
146	0x3e4319fe	0.19052884
147	0x3d7af695	0.061270315
148	0xbe2f56d0	-0.1712296
149	0x3dedf172	0.11618318
150	0x3e183f0a	0.14867797
151	0x3dac8055	0.08422915
152	0xbd544ec3	-0.051832926
153	0x3dcba003	0.09942629
154	0x3d90dd07	0.070734076
155	0x3d9e8a05	0.07741169
156	0x3e301644	0.17195994
157	0x3ca019f4	0.019543625
158	0x3e47d080	0.1951313
159	0x3de4fdd8	0.11181229
160	0xbc1fb3f0	-0.00974749
161	0xbdae5b7e	-0.085135445
162	0xbe2225ac	-0.15834683
163	0xbd86fbc6	-0.06590991
164	0x3c8b0d55	0.01697413
165	0xbe1cd783	-0.15316586
166	0xbe03a5a0	-0.1285615
167	0x3df3fefa	0.11913867
168	0xbcdd7a28	-0.027035788
169	0xbe0a711d	-0.13519712
170	0x3d9f593f	0.07780694
171	0x3dd22ff4	0.102630526
172	0x3d75af4f	0.05998164
173	0xbdfba08c	-0.12286481
174	0xbc233158	-0.009960495
175	0x3e24986c	0.1607377
176	0x3e0f199c	0.13974613
177	0x3df8bec6	0.12145762
178	0xbd69e9e7	-0.057107832
179	0x3ccef453	0.025262987
180	0x3deddc65	0.116143025
181	0xbd11d0b4	-0.035599425
182	0xbda22b81	-0.07918454
183	0xbd9388b2	-0.07203807
184	0xbe35fcc1	-0.17772199
185	0x3cb5b8ee	0.022182908
186	0xbe39b5bc	-0.18135732
187	0x3e40b3bf	0.18818568
188	0xbdcd9d1a	-0.1003973
189	0x3de545ef	0.111949794
190	0x3c6651f9	0.01405763
191	0x3e37b319	0.17939414
192	0x3e209da7	0.1568514
193	0x3d6ab793	0.057303976
194	0xbd11bf73	-0.03558297
195	0xbe2c0e6a	-0.16802374
196	0x3e3dafe8	0.18524134
197	0xbdb1d89f	-0.08683895
198	0xbe10c6ba	-0.14138308
199	0xbd609dc2	-0.05483795
200	0x3d8e2860	0.06941295
201	0xbb39a805	-0.0028328907
202	0xbd92a58a	-0.0716048
203	0xbe146a55	-0.14493687
204	0xbe099e37	-0.1343926
205	0x3e1da1c9	0.15393747
206	0xbb4f5e79	-0.0031642003
207	0xbe289454	-0.16462833
208	0xbd3eada9	-0.046552334
209	0x3d8bdf01	0.06829644
210	0x3e16c499	0.14723434
211	0x3e1bcd28	0.1521498
212	0xbdc23a13	-0.09483733
213	0x3e0de4e8	0.13856852
214	0xbda2d094	-0.07949939
215	0x3ca9a2b4	0.020707466
216	0xbcdac3af	-0.026704637
217	0x3d79807c	0.060913548
218	0xbe2d853d	-0.16945358
219	0xbe3ceddb	-0.1845011
220	0x3e280c87	0.16411029
221	0x3d8ef8f2	0.06981076
222	0xbc4c7151	-0.012478189
223	0xbd14c815	-0.036323626
224	0xbdf3181c	-0.11869833
225	0xbe242291	-0.16028811
226	0x3e04c72b	0.12966602
227	0x3d954a7d	0.07289598
228	0xbe02c38b	-0.12769906
229	0xbc148fa0	-0.009067446
230	0xbba2c5f9	-0.004967448
231	0x3d436a3c	0.047708735
232	0x3d21ae8e	0.03947311
233	0xbc54b2dc	-0.0129820965
234	0x3d153cb8	0.03643486
235	0x3e29a1cd	0.16565628
236	0x3e38c053	0.18042116
237	0x3ca414ba	0.020029414
238	0xbcf59c92	-0.029981885
239	0xbe3db1ba	-0.18524829
240	0xbe3bd524	-0.18343025
241	0xbd844db4	-0.06460133
242	0xbdeeafd3	-0.116546296
243	0x3e027e98	0.12743604
244	0x3e3816b5	0.17977412
245	0x3d2e179d	0.042502988
246	0xbe3cd184	-0.18439299
247	0x3dc4da96	0.096120045
248	0xbddcd735	-0.10783235
249	0xbcfb283c	-0.030658834
250	0xbd8860c1	-0.06659079
251	0xbe158617	-0.14601932
252	0xbda75100	-0.081697464
253	0xbdbae187	-0.09125047
254	0x3e26251e	0.16225097
255	0xbe44289d	-0.19156118

GAT_layers.0.f.bias f4 [32]
0	0xbc16db23	-0.00920752
1	0xbda5cbd3	-0.08095517
2	0x3d79fd47	0.06103256
3	0x3d8feb52	0.07027306
4	0xbd0eb479	-0.03484008
5	0x3d12b065	0.035812754
6	0xbcb53106	-0.022118103
7	0xbce51f67	-0.027969075
8	0x3dadd13e	0.084871754
9	0xbb1d99d1	-0.002404798
10	0x3cf378ea	0.029720742
11	0x3d990cd9	0.074731536
12	0x3d94d8d2	0.07267918
13	0xbcc2012e	-0.023682203
14	0x3ca31483	0.019907242
15	0x3cc86bda	0.02446549
16	0x3bbe97cc	0.0058164354
17	0x38bc6570	8.983433e-05
18	0x3ce3e260	0.027817905
19	0xbc784c7e	-0.015154956
20	0x3d5191be	0.05116438
21	0xbd8fe63f	-0.07026338
22	0x3c3becc3	0.011470023
23	0xbd0aae50	-0.033857644
24	0xbbb24d6e	-0.0054413592
25	0xbd959447	-0.07303672
26	0xbd8a3827	-0.067489915
27	0xbcf3a52d	-0.029741848
28	0xbd70e4a5	-0.058811802
29	0xbcc558fc	-0.024090283
30	0xbda4bceb	-0.08043846
31	0xbd6456e8	-0.055746943

GAT_layers.0.w.weight f4 [1, 124]
0	0xbe38b3b1	-0.18037297
1	0xbd8c8e4d	-0.06863079
2	0x3d9ab028	0.075531304
3	0x3cb8302b	0.022483906
4	0x3e34fdf1	0.17674996
5	0xbe50b13b	-0.20380108
6	0x3db452cc	0.08804855
7	0x3ccd3276	0.025048476
8	0xbd867924	-0.065660745
9	0x3da92c1a	0.08260365
10	0x3e4f0181	0.20215417
11	0xbd84af18	-0.06478709
12	0x3ce90cbb	0.028448453
13	0x3db36055	0.08758608
14	0x3e3f4cbc	0.18681616
15	0x3ccc4f6c	0.024940215
16	0x3d764633	0.06012554
17	0x3db97065	0.09054641
18	0x3db66c67	0.08907395
19	0x3df3f7cb	0.11912497
20	0x3dd8d3e2	0.105872884
21	0x3d629c56	0.055324875
22	0xbdc17a05	-0.094471015
23	0xbd84459b	-0.06458589
24	0x3ddb7cfe	0.107172
25	0x3cc64f3b	0.024207702
26	0x3e172412	0.14759853
27	0xbe53acc4	-0.20671374
28	0x3dfc9e0e	0.12334834
29	0xbaccdc01	-0.0015629531
30	0xbd5af65a	-0.053457595
31	0xbe508259	-0.20362224
32	0xbd15de25	-0.036588807
33	0x3df63738	0.12022251
34	0x3d9d385d	0.07676766
35	0x3d2bdbed	0.041957784
36	0xbdade162	-0.08490254
37	0xbbdce85a	-0.0067415657
38	0xbd8c0e34	-0.068386465
39	0x3d3ca0c1	0.046051744
40	0x3d8fa9df	0.07014822
41	0xbe2cd5af	-0.16878389
42	0xbe095d21	-0.13414432
43	0xbe4df60d	-0.20113392
44	0xbdd924b7	-0.10602706
45	0x3e0a5c9b	0.13511889
46	0x3e57fb64	0.21091992
47	0xbe121927	-0.14267407
48	0xbd8eadd0	-0.06966746
49	0x3e3e06ef	0.18557332
50	0xbd623572	-0.05522675
51	0xbdace7b7	-0.084426336
52	0xbe23b4fe	-0.15987012
53	0x3c4188f3	0.011812436
54	0xbe07851e	-0.13234374
55	0x3d4dde8d	0.05026107
56	0xbdd9206b	-0.10601886
57	0xbbd4490a	-0.0064784335
58	0x3dc44d8d	0.09585104
59	0x3e179026	0.14801082
60	0xbe3bfb86	-0.18357667
61	0xbde52218	-0.111881435
62	0x3c5b59bb	0.013388093
63	0xbd58a12f	-0.05288809
64	0x3bb00ee1	0.0053728675
65	0x3e1f8f96	0.15582117
66	0xbc71add5	-0.014750917
67	0xbe54a100	-0.20764542
68	0xbd9098f6	-0.07060425
69	0x3e3882f1	0.180187
70	0x3d62a0bd	0.055329073
71	0xbe504909	-0.2034036
72	0xbe3e3f46	-0.18578824
73	0xbd80e273	-0.06293192
74	0xbdf069f9	-0.11738963
75	0xbdcc449e	-0.09974025
76	0xbd930fb3	-0.07180729
77	0xbde64566	-0.112437055
78	0x3e295d7d	0.16539569
79	0x3e59fc97	0.21287762
80	0xbc665934	-0.014059354
81	0xbe586d92	-0.21135548
82	0xbc2e2f2b	-0.010631363
83	0x3df591ba	0.11990686
84	0xbc71849a	-0.014741087
85	0x3d9e4ea1	0.07729841
86	0xbd27ca04	-0.04096414
87	0x3e423011	0.18963648
88	0xbdae8245	-0.08520941
89	0x3d182846	0.037147783
90	0xbd7cfbce	-0.061763577
91	0xbe0d16e6	-0.13778266
92	0xbdcfcf19	-0.101469226
93	0x3de654e2	0.11246659
94	0xbe4bb967	-0.19894944
95	0xbdece2b3	-0.11566677
96	0xbc8af5a0	-0.016962826
97	0x3d85167c	0.06498429
98	0xbe5e84d6	-0.2173036
99	0xbd6b2da9	-0.05741659
100	0xbde3dff1	-0.11126698
101	0xbda0cbe2	-0.078513876
102	0x3cb3e716	0.021960776
103	0x3e380ff4	0.17974836
104	0x3e516874	0.20450002
105	0x3d9bcd0c	0.07607469
106	0x3e3407cc	0.175811
107	0xbe1dd74b	-0.15414159
108	0x3dfe9c8f	0.12432205
109	0xbc086ff0	-0.008327469
110	0xbdba77d8	-0.0910489
111	0x3dd868e4	0.10566881
112	0x3dca8901	0.09889413
113	0xbdd34393	-0.10315623
114	0x3e02a556	0.12758383
115	0x3dee23c2	0.11627914
116	0x3abefa7f	0.0014570503
117	0xbdb55951	-0.088549264
118	0x3d4c3e35	0.049864013
119	0x3c54fb97	0.012999437
120	0x3df1c0e7	0.11804371
121	0xbde0bf35	-0.1097397
122	0xbdc131e8	-0.09433347
123	0xbd22734f	-0.039660748

GAT_layers.1.f.weight f4 [64, 64]
0	0xbe047bea	-0.12937894
1	0x3e0352bd	0.12824531
2	0xbe03b2ff	-0.1286125
3	0x3e5a557c	0.21321672
4	0x3e598cdf	0.21245144
5	0x3deea84e	0.11653195
6	0xbbaaa1e8	-0.005207289
7	0xbd6389e5	-0.05555143
8	0x3e274e46	0.16338453
9	0x3c0dce98	0.008655213
10	0x3acf6830	0.0015823897
11	0xbe14412a	-0.14477983
12	0xbe4461ff	-0.19178008
13	0xbd39a888	-0.04532674
14	0xbe4f00b6	-0.20215115
15	0x3dde3fdf	0.10852026
16	0xbe4eed2c	-0.20207661
17	0xbdc5309e	-0.096284136
18	0xbdfd6b76	-0.12374012
19	0x3c9f4e2c	0.019446455
20	0x3e03a10d	0.12854405
21	0xbe022ecf	-0.12713169
22	0xbdd3af41	-0.103361614
23	0xbd7272be	-0.059191458
24	0xbe18f568	-0.14937365
25	0x3e010364	0.1259895
26	0x3dfa9fc4	0.12237504
27	0x3e0e3d9c	0.1389069
28	0x3d7dfc93	0.06200845
29	0x3dad3d50	0.0845896
30	0xbd1beac2	-0.03806568
31	0xbd9f3066	-0.07772903
32	0xbd26db0d	-0.040736247
33	0xbe6213d1	-0.22077872
34	0xbe079b5c	-0.13242859
35	0x3c02e4d1	0.007989124
36	0xbe520a36	-0.20511708
37	0xbe2fe42e	-0.17176887
38	0xbe5189b3	-0.20462684
39	0x3de80ce5	0.113305844
40	0x3d9488af	0.07252633
41	0xbdafbf93	-0.08581462
42	0x3beb789f	0.00718601
43	0x3df970a0	0.12179685
44	0xbe35b720	-0.17745638
45	0xbe5c12ac	-0.21491498
46	0xbce468d8	-0.027882025
47	0x3e537db8	0.20653427
48	0x3d7893f1	0.060687963
49	0x3ca1a855	0.019733587
50	0x3daebd56	0.08532207
51	0x3e0db92d	0.1384017
52	0xbcbdd3e9	-0.023172336
53	0xbe3ef307	-0.18647395
54	0xbe274ed2	-0.16338661
55	0x3d98f495	0.07468525
56	0xbe2522c9	-0.1612655
57	0x3d740f86	0.059585117
58	0xbe5651fd	-0.20929714
59	0x3d0998e3	0.03359307
60	0x3cbd907c	0.023140185
61	0x3e060a6f	0.13089918
62	0xbe01b31f	-0.12665986
63	0x3e01e385	0.12684448
64	0x3e3a7d42	0.18211845
65	0x3e07a987	0.13248263
66	0xbe277269	-0.16352238
67	0xbc844dc9	-0.016150372
68	0xbe2cf811	-0.16891505
69	0x3c4efa24	0.01263288
70	0xbe24b50b	-0.16084687
71	0xbe09d7bb	-0.13461201
72	0x3df8fbfc	0.12157437
73	0x3dfd6ee3	0.123746656
74	0xbd20619a	-0.03915558
75	0x3e2de6bb	0.16982548
76	0xbdaf03fd	-0.085456826
77	0x3e55285d	0.20816179
78	0x3e353bbf	0.17698573
79	0xbc0fa8c7	-0.008768267
80	0x3e5efe05	0.21776588
81	0x3cdbe240	0.026841283
82	0xbc1aa9f5	-0.009439935
83	0x3dee53f8	0.116371095
84	0x3e5b9dda	0.21446934
85	0xbdd067f1	-0.10176075
86	0x3e31d3b8	0.1736592
87	0x3da3530e	0.07974826
88	0xbc1f4bba	-0.009722644
89	0xbddc6dc5	-0.107631244
90	0x3e1bfafb	0.1523246
91	0xbdd3c9c8	-0.10341221
92	0xbb986491	-0.0046506603
93	0xbe0ae6de	-0.13564631
94	0xbde2ab27	-0.11067801
95	0xbc879edf	-0.016555248
96	0x396e307d	0.00022715512
97	0x3d2c30f2	0.042038865
98	0xbd437999	-0.047723386
99	0xbd0c8bae	-0.034312896
100	0x3e0f6a71	0.14005448
101	0x3e3d7faa	0.18505731
102	0xbe3a287d	-0.18179508
103	0x3e05b021	0.13055469
104	0xbe2be616	-0.1678699
105	0xbc67c82a	-0.014146844
106	0x3ddecb5b	0.10878631
107	0xbdf9bace	-0.12193833
108	0xbdadc1a1	-0.084841974
109	0x3cdebce9	0.027189689
110	0xbd9ee8e1	-0.07759262
111	0xbe509889	-0.20370688
112	0x3e34e999	0.17667235
113	0xbe4f88e3	-0.20267062
114	0x3b06db83	0.0020577617
115	0xbe042aae	-0.12906906
116	0xbdf7ab08	-0.120931685
117	0x3d4d7768	0.050162703
118	0xbe31c67d	-0.17360874
119	0xbdd7027d	-0.104985215
120	0xbe4f7b47	-0.2026187
121	0x3db31cb2	0.087457076
122	0x3e3b2d7e	0.18279073
123	0x3d6ac56c	0.057317182
124	0x3e147bc7	0.14500342
125	0x3dba3041	0.09091235
126	0xbd38aca0	-0.045086503
127	0xbe4ca6aa	-0.19985452
128	0x3c797ab1	0.015227006
129	0x3e5562df	0.20838498
130	0xbd6ca420	-0.05777371
131	0x3dd9ec21	0.10640741
132	0xbd406bdb	-0.04697786
133	0xbdab2205	-0.08356098
134	0x3de0d415	0.109779514
135	0xbc59b1d4	-0.013287026
136	0xbe09958d	-0.13435955
137	0xbe2947cc	-0.16531295
138	0x3c981a5a	0.018567253
139	0x3e34a150	0.17639661
140	0xbc106171	-0.008812294
141	0xbdb2014a	-0.08691652
142	0x3e502ad7	0.20328842
143	0x3d480672	0.04883427
144	0xbdf24a19	-0.11830539
145	0xbd99dae1	-0.07512451
146	0x3da203b8	0.079108655
147	0x3e3982fb	0.18116371
148	0x3e126631	0.14296795
149	0x3e513bb3	0.2043293
150	0x3daa9b8b	0.08330449
151	0xbe196bc4	-0.14982516
152	0x3da62302	0.08112146
153	0x3c96dbb5	0.018415311
154	0xbd2bf5a1	-0.041982297
155	0xbe233a40	-0.1594019
156	0xbe446ee0	-0.1918292
157	0xbc4860bd	-0.012230095
158	0xbdf78eca	-0.12087782
159	0x3e068e15	0.13140137
160	0x3db210f1	0.086946376
161	0x3e2807f1	0.1640928
162	0xbe53fdc6	-0.20702276
163	0x3e376e5f	0.17913197
164	0xbdf2789f	-0.11839413
165	0xbd23271b	-0.039832216
166	0xbe25a4cf	-0.1617615
167	0x3d85d6c5	0.06535105
168	0x3e41fcbf	0.18944071
169	0xbe11a878	-0.14224422
170	0x3e557c89	0.20848288
171	0xbe06a9ad	-0.13150664
172	0x3e551072	0.20807055
173	0xbe23af0d	-0.15984745
174	0x3ccfd7bc	0.025371425
175	0xbddabde5	-0.10680751
176	0x3cc8470b	0.024447938
177	0x3e28cc36	0.1648415
178	0xbc83a071	-0.016067715
179	0x3d045e40	0.032316446
180	0xbd8eadd5	-0.069667496
181	0xbe476dc8	-0.19475472
182	0x3dc0fa30	0.094227195
183	0x3dea28a7	0.11433535
184	0x3d503305	0.050829906
185	0x3daef7dd	0.0854337
186	0xbbadb0a1	-0.005300597
187	0x3e4a67c3	0.19766144
188	0xbe496d70	-0.19670653
189	0x3e12b966	0.14328536
190	0x3e4bbea9	0.1989695
191	0x3e11aa59	0.14225139
192	0xbe1719dd	-0.1475596
193	0xbb7f2256	-0.0038930378
194	0xbbf4a617	-0.0074660885
195	0x3cd69d5b	0.02619808
196	0x3e270969	0.16312183
197	0x3e2df440	0.16987705
198	0x3e0b80d6	0.13623366
199	0x3e01ccc6	0.12675771
200	0xbd8a2d67	-0.06746941
201	0xbd97887c	-0.07399079
202	0xbc4b3277	-0.0124021685
203	0xbda4855f	-0.08033251
204	0x3de2bbd6	0.11070983
205	0x3d3880d6	0.045044743
206	0xbdacfb7a	-0.08446403
207	0xbe140625	-0.14455469
208	0xbcce2f2a	-0.025168974
209	0x3dbb0730	0.0913223
210	0x3ddb94f3	0.10721769
211	0xbe2e4ae1	-0.17020752
212	0xbdf179a6	-0.11790781
213	0x3db2a491	0.08722795
214	0x3d41b5c0	0.04729247
215	0xbcbf98cf	-0.023388295
216	0xbe038e8b	-0.12847345
217	0xbdfb7f39	-0.12280125
218	0x3e446b69	0.19181599
219	0xbe1b492a	-0.15164629
220	0xbe392eb4	-0.18084222
221	0xbcd19f28	-0.025588587
222	0xbe560ba2	-0.20902875
223	0x3e2eb869	0.17062534
224	0xbe05e439	-0.13075341
225	0xbe2683c4	-0.16261202
226	0xbdef82a7	-0.11694842
227	0xbd775140	-0.06038022
228	0xbcee0685	-0.029055843
229	0x3dd75d84	0.105158836
230	0xbc98688e	-0.018604543
231	0xbe3b20a1	-0.18274166
232	0x3e44068d	0.19143124
233	0x3e3d1a1c	0.18466991
234	0xbdac9229	-0.08426315
235	0xbe38f436	-0.18061909
236	0xbe4187f7	-0.18899523
237	0x3d9f28b5	0.07771436
238	0xbc9481eb	-0.018128356
239	0x3d2da5f3	0.04239459
240	0xbc17fda8	-0.009276785
241	0x3d205501	0.039143566
242	0xbdaf1979	-0.085497804
243	0x3c2cddae	0.010550899
244	0xbdeed3a9	-0.11661465
245	0x3e099164	0.13434368
246	0xbba7d270	-0.0051215217
247	0x3d895925	0.06706456
248	0x3d1d558b	0.03841166
249	0x3dbab15b	0.09115859
250	0xbe40067f	-0.18752478
251	0xbe1fbd84	-0.15599638
252	0x3deb6849	0.114945
253	0x3d83208d	0.06402693
254	0xbdcb12f6	-0.09915726
255	0x3d979110	0.07400715

GAT_layers.1.f.bias f4 [64]
0	0x3e07bf2c	0.1325652
1	0xbca0c008	-0.019622818
2	0xbdeb7df2	-0.114986315
3	0xbd9ad97e	-0.075610146
4	0xbd109c2d	-0.03530519
5	0x3dccb6c2	0.09995796
6	0x3dbc9449	0.09207971
7	0xbd011d9e	-0.031522386
8	0xbd9eed70	-0.07760131
9	0xbdc03344	-0.09384778
10	0x3e00cb79	0.12577619
11	0xbd2a42aa	-0.041567482
12	0xbd13227c	-0.03592156
13	0xbdc7351c	-0.09726927
14	0x3dbda1c6	0.092593715
15	0xbdde0b58	-0.108420074
16	0xba0ac0bf	-0.00052930036
17	0x3db4f243	0.0883527
18	0xbde06622	-0.1095698
19	0xbd18aa3c	-0.037271723
20	0x3d761e7b	0.060087662
21	0x3ddefbec	0.10887894
22	0x3d5fa7a3	0.05460323
23	0xbd723ce5	-0.059140105
24	0x3ddd5c36	0.108086035
25	0x3d4c65ad	0.049901653
26	0x3d02f5c6	0.03197267
27	0xbdaf1d78	-0.085505426
28	0xbd4bb49f	-0.0497328
29	0xbccc6516	-0.024950545
30	0xbd98d752	-0.07462944
31	0x3c8a07cd	0.016849423
32	0x3dc7b384	0.09751037
33	0x3de21bc9	0.11040456
34	0xbd6b67b4	-0.057471946
35	0xbd51c8cb	-0.05121688
36	0x3df96236	0.121769354
37	0x3dcd6835	0.100296415
38	0xbdd1cea9	-0.102444954
39	0x3dbf5026	0.09341459
40	0x3db90437	0.09034007
41	0x3cc46d22	0.02397782
42	0x3de82970	0.113360286
43	0x3dc65f6b	0.09686168
44	0xbd0cce68	-0.03437653
45	0xbd285bc8	-0.041103154
46	0xbdc9eb22	-0.09859301
47	0x3d9cd735	0.07658235
48	0x3de60366	0.11231117
49	0x3dbe9d8b	0.09307393
50	0xbd88666d	-0.06660161
51	0x3e03bc52	0.12864807
52	0x3d394b2d	0.04523771
53	0xbb8abac0	-0.004233688
54	0xbc5acb57	-0.013354144
55	0xbd0dfa84	-0.03466274
56	0xbdddbdcf	-0.10827219
57	0x3c43612a	0.011925021
58	0x3e03dcdd	0.12877221
59	0xbd8c8242	-0.06860782
60	0x3de85977	0.11345189
61	0x3de95faf	0.11395203
62	0xbdbae404	-0.09125522
63	0xbdc0fe62	-0.0942352

GAT_layers.1.w.weight f4 [1, 64]
0	0x3b407bbf	0.0029370633
1	0x3d7e7f19	0.06213293
2	0x3e488b55	0.19584401
3	0x3dcfa311	0.10138524
4	0xbe851580	-0.25992966
5	0xbd067906	-0.03283026
6	0xbe635ce8	-0.2220341
7	0xbe9488f1	-0.29010728
8	0x3df423cf	0.119208924
9	0x3c75975d	0.014989701
10	0x3d9a53dc	0.07535526
11	0xbe56c18d	-0.20972271
12	0x3d10db06	0.035365127
13	0xbe6d5f22	-0.23180822
14	0x3d3982d4	0.045290783
15	0x3e83d8e4	0.25751412
16	0x3e618b59	0.22025813
17	0x3e6ca247	0.23108779
18	0xbe24a59c	-0.160788
19	0x3e83722e	0.2567305
20	0xbe766993	-0.24063711
21	0xbe10ab6c	-0.14127892
22	0xbe12cb2b	-0.14335315
23	0xbe1f3fa5	-0.15551622
24	0x3e494b6d	0.19657679
25	0xbe5aeb0d	-0.21378727
26	0x3e6f1e03	0.23351292
27	0xbdd24cf6	-0.102685854
28	0x3c2cda51	0.010550098
29	0xbcf6c51f	-0.030123292
30	0x3cd47800	0.025936127
31	0xbddbc8c0	-0.107316494
32	0xbe904a7e	-0.28181833
33	0x3e601cb4	0.2188595
34	0xbcb3bbea	-0.02194019
35	0xbd124ede	-0.035719745
36	0x3e85b9be	0.26118273
37	0xbe7435b7	-0.23848616
38	0xbe61b791	-0.22042681
39	0xbe9bf33d	-0.30459014
40	0x3cfc5c5d	0.030805761
41	0xbe68db37	-0.22739874
42	0x3e4f8c52	0.20268372
43	0x3bf46f71	0.007459574
44	0xbdf8f25d	-0.12155602
45	0xbe923ef0	-0.28563643
46	0x3c796c88	0.01522363
47	0xbe95ac4f	-0.29233024
48	0xbe4aef90	-0.19817948
49	0xbe57a896	-0.21060404
50	0x3d2c80b8	0.042114943
51	0x3e8d2263	0.27565297
52	0xbe028dd3	-0.12749414
53	0x3e85d90c	0.26142156
54	0xbe12ba12	-0.14328793
55	0xbd13ebb4	-0.036113456
56	0x3e079564	0.13240582
57	0x3b61ab1d	0.0034434267
58	0x3e5bcd4e	0.21465036
59	0xbd092679	-0.033483956
60	0xbdeb4bc8	-0.114890635
61	0xbe4e3d33	-0.20140533
62	0xbdb9cd8b	-0.09072407
63	0xbcfdfa38	-0.031003103

GAT_layers.2.f.weight f4 [64, 128]
0	0x3d349105	0.044083614
1	0x3d0d70b0	0.034531295
2	0x3dbaa79d	0.09114001
3	0x3e00f9d9	0.1259531
4	0xbdd0de5e	-0.10198663
5	0x3df7acdf	0.120935194
6	0x3dd65851	0.10466064
7	0x3dabe0b9	0.08392472
8	0x3cab1857	0.02088563
9	0x3d85e66a	0.065380886
10	0x3cd91139	0.02649747
11	0xbdc8c555	-0.09803263
12	0xbe141611	-0.14461543
13	0x3e0360f7	0.12829958
14	0xbda8d9de	-0.0824468
15	0xbcef9e16	-0.029250186
16	0x3e0df2db	0.13862173
17	0x3e01f29d	0.12690206
18	0xbd270dda	-0.040784694
19	0x3d8cd106	0.068758056
20	0xbe1e0291	-0.15430667
21	0xbda55fb7	-0.08074897
22	0xbe15948c	-0.14607447
23	0x3c426b94	0.011866469
24	0xbdfc727f	-0.12326526
25	0x3e28560a	0.16439071
26	0x3d308ea7	0.043104794
27	0xbdeb94f7	-0.11503022
28	0xbd97ad7a	-0.07406135
29	0xbd134f29	-0.035964165
30	0xbe0175af	-0.12642549
31	0x3e1cdd8f	0.15318893
32	0x3cd3ed9f	0.025870143
33	0x3d963bc7	0.073356204
34	0xbda4deb8	-0.08050293
35	0xbd104769	-0.035224352
36	0xbe2338c0	-0.15939617
37	0xbcfb546e	-0.030679908
38	0xbdf7359a	-0.120707706
39	0xbe0571d0	-0.13031697
40	0xbe042c5e	-0.1290755
41	0x3e0ee080	0.13952827
42	0xbe14e2b9	-0.14539613
43	0xbdbbdd30	-0.091730475
44	0xbdfc25ac	-0.12311873
45	0xbd9ca0fa	-0.07647891
46	0xbe188227	-0.14893399
47	0xbda707a4	-0.08155754
48	0xbd6ec5e0	-0.058294177
49	0xbdb46a31	-0.08809317
50	0x3e198dd4	0.1499551
51	0x3c91e4f6	0.017809372
52	0xbd7f1f26	-0.062285565
53	0xbe0fb749	-0.14034761
54	0xbe305c67	-0.17222749
55	0x3cf1f4be	0.029535647
56	0x3e186894	0.14883643
57	0x3cc95398	0.024575993
58	0xbe0ff98d	-0.1406004
59	0x3e132692	0.14370182
60	0x3d8c09c9	0.06837804
61	0x3e123452	0.14277771
62	0x3da983e2	0.08277108
63	0x3d5fa0c7	0.05459669
64	0xbdd23036	-0.10263102
65	0x3e09962b	0.13436191
66	0xbdad7e56	-0.08471362
67	0x3da0fd52	0.07860817
68	0x3e0839d1	0.13303305
69	0xbde9a2a8	-0.11407977
70	0xbc8a2852	-0.01686493
71	0xbde41293	-0.11136355
72	0x3dcabacc	0.0989891
73	0x3db41d42	0.08794643
74	0x3da42a5b	0.08015891
75	0x3d334620	0.04376805
76	0xbe025f7d	-0.12731738
77	0xbd64e1b9	-0.05587933
78	0xbe064eae	-0.13115951
79	0xbd7343bc	-0.05939077
80	0xbb754b03	-0.0037428744
81	0xbe1321f9	-0.14368428
82	0x3e24b458	0.1608442
83	0xbe1e8682	-0.15480998
84	0x3daf02fd	0.08545492
85	0xbd9040ea	-0.070436314
86	0x3c15dfaa	0.009147564
87	0x3de49929	0.111620255
88	0x3dedae9d	0.116055705
89	0x3e24ead5	0.16105206
90	0xbe12dcfc	-0.14342111
91	0xbdb84ff7	-0.08999627
92	0x3e161488	0.1465627
93	0xbd670e88	-0.056410342
94	0xbd8a1466	-0.06742172
95	0xbdb2b271	-0.08725441
96	0x3d962e61	0.07333065
97	0x3db0d1df	0.0863378
98	0xbddca002	-0.107727066
99	0xbe346d2b	-0.1761977
100	0x3d0ba77b	0.03409527
101	0xbdef178a	-0.116744116
102	0x3db24beb	0.087058865
103	0xbd733452	-0.05937607
104	0xbdb06e15	-0.086147465
105	0xbe00e41a	-0.12587014
106	0x3d6ebff5	0.058288533
107	0xbe1c879b	-0.15286104
108	0xbe275ff8	-0.16345203
109	0xbdccff41	-0.10009623
110	0x3d94a203	0.07257464
111	0xbd9c7c83	-0.07640936
112	0xbda869bf	-0.082232945
113	0x3ddb7f91	0.10717691
114	0xbcd32a84	-0.025777109
115	0x3d8649b7	0.06557029
116	0xbda4154f	-0.08011877
117	0x3dfab848	0.1224218
118	0xbd11f03f	-0.035629507
119	0x3d54b0e1	0.051926497
120	0xbe2e80dc	-0.17041343
121	0x3e047a75	0.12937339
122	0x3e07f4a0	0.13276911
123	0xbd723f0d	-0.05914216
124	0xbcf94f90	-0.030433446
125	0x3d78c26f	0.0607323
126	0xbc1f9cf7	-0.009742013
127	0xbca7c773	-0.020480847
128	0xbc9c6807	-0.019092573
129	0xbd91cca2	-0.07119109
130	0xbd6d8645	-0.057989378
131	0x3d0af0b5	0.033920962
132	0x3c448d66	0.011996603
133	0x3e0365df	0.1283183
134	0xbc015732	-0.007894324
135	0x3c82d7d2	0.015972052
136	0xbe10a5f5	-0.14125808
137	0x3c6222b1	0.013802216
138	0xbe1dcd7b	-0.15410416
139	0xbdf5cb52	-0.12001671
140	0x3d117fe3	0.035522353
141	0xbcb34b3e	-0.021886464
142	0xbd391153	-0.045182537
143	0x3dfd9383	0.12381651
144	0xbe33c283	-0.17554669
145	0x3e19ab95	0.1500686
146	0xbde75a48	-0.11296517
147	0xbe316958	-0.17325342
148	0x3e08e169	0.13367237
149	0x3e02bc9a	0.12767258
150	0x3d959d32	0.07305373
151	0x3d2d35e7	0.042287733
152	0x3dad3113	0.08456626
153	0xbc634da4	-0.013873491
154	0xbe396b42	-0.18107322
155	0x3d98df3c	0.074644536
156	0x3e17cdbf	0.1482458
157	0x3e08b452	0.13350037
158	0xbd0284d4	-0.031864956
159	0xbdff3735	-0.12461702
160	0x3ce334f6	0.027735215
161	0x3db386c2	0.087659374
162	0x3e0014d7	0.1250795
163	0x3dfa817a	0.12231727
164	0xbdc9c366	-0.098517224
165	0xbe085482	-0.13313487
166	0xbd7259a4	-0.05916752
167	0xbd5d9a78	-0.05410239
168	0xbc92936b	-0.01789256
169	0xbd96760f	-0.07346737
170	0x3e0c960f	0.13729118
171	0x3e21067d	0.15725131
172	0x3d0d0344	0.034426942
173	0xbdde94da	-0.10868235
174	0xbcee2e9f	-0.029074965
175	0xbd8f4d6f	-0.06997191
176	0x3e1f7934	0.15573579
177	0x3b50d455	0.003186484
178	0xbdb41df8	-0.087947786
179	0x3e1a5ba8	0.15074027
180	0x3df68014	0.12036148
181	0xbdc6cb1d	-0.097067095
182	0x3e24203b	0.1602792
183	0x3d9da10c	0.07696733
184	0xbe02ca4f	-0.12772487
185	0x3d2613e7	0.040546324
186	0x3da9b524	0.08286503
187	0x3d9e13d5	0.077186264
188	0x3d870d22	0.06594302
189	0xbce68f29	-0.028144436
190	0xbbfa06da	-0.0076302113
191	0x3dc5edc8	0.09664494
192	0x3e1a8f87	0.15093814
193	0xbdddb1c9	-0.108249255
194	0xbdb8e92c	-0.09028849
195	0xbe228857	-0.15872322
196	0x3b4313f5	0.0029766534
197	0xbe38f94d	-0.1806385
198	0xbe371f60	-0.17883062
199	0xbdd99df2	-0.10625829
200	0x3e2eb6fa	0.17061988
201	0xbe01ae10	-0.12664056
202	0xbe165e20	-0.14684343
203	0x3e226203	0.15857701
204	0xbe2f20f3	-0.17102413
205	0xbe289d2d	-0.16466208
206	0x3d229c88	0.03970006
207	0xbe1197d0	-0.14218068
208	0xbe025495	-0.12727578
209	0xbe01c21b	-0.12671702
210	0x3dc2224b	0.09479197
211	0x3e1720a2	0.14758542
212	0x3e1c6674	0.15273458
213	0xbd869194	-0.065707356
214	0x3d053736	0.032523356
215	0x3dfb66cd	0.12275467
216	0x3ccdc329	0.025117474
217	0xbdb5410f	-0.088502996
218	0xbe0b83a9	-0.13624443
219	0x3d5845ae	0.052800827
220	0xbdc17681	-0.09446431
221	0x3db8974e	0.09013234
222	0x3e1ea337	0.15491949
223	0x3e1ae0c1	0.151248
224	0xbc21d3f1	-0.009877191
225	0x3b0c0517	0.0021365338
226	0xbbd185f0	-0.0063941404
227	0x3ce255c2	0.027628783
228	0x3ddabc74	0.10680476
229	0xbe152ea6	-0.14568576
230	0x3cfde7ab	0.030994257
231	0xbe223ff2	-0.15844706
232	0x3d3ccfa2	0.04609645
233	0xbdaf758e	-0.08567344
234	0x3b1356ac	0.002248208
235	0xbd5ff881	-0.05468035
236	0xbac0f1c7	-0.0014720493
237	0x3dc7fb67	0.09764748
238	0xbc3966e4	-0.011316035
239	0x3e25fb86	0.1620923
240	0x3d736557	0.059422817
241	0x3dce941c	0.10086843
242	0x3d0ba92c	0.03409688
243	0x3ddf9197	0.10916441
244	0xbd4e4088	-0.05035451
245	0x3dae9233	0.08523979
246	0xbdd75325	-0.105139054
247	0x3e10e3bc	0.14149374
248	0x3e01458d	0.12624188
249	0x3e2f138d	0.17097302
250	0x3e13b195	0.14423211
251	0x3e22b365	0.15888746
252	0x3d4abfad	0.049499203
253	0xbe076596	-0.13222346
254	0xbd00d7d2	-0.031455822
255	0x3db3b384	0.08774474

GAT_layers.2.f.bias f4 [64]
0	0x3d2e7f40	0.042601824
1	0xbd45ab51	-0.048259083
2	0x3db7841e	0.08960746
3	0x3cc5c111	0.024139913
4	0x3d79b94f	0.06096774
5	0x3daf1af9	0.085500665
6	0x3d7599c0	0.05996108
7	0x3d39903c	0.04530357
8	0xbd7d8c9b	-0.06190167
9	0x3d7cf2a8	0.061754853
10	0x3d8225d8	0.06354874
11	0xbda2b398	-0.07944411
12	0x3d51449d	0.051090825
13	0xbd711886	-0.058861278
14	0x3d1297a7	0.03578916
15	0x3cc0a8dd	0.02351802
16	0x3d7141f2	0.05890078
17	0xbda38dae	-0.07986008
18	0xbc70166f	-0.014653786
19	0xbd83f1e0	-0.06442618
20	0xbca3f6f3	-0.020015216
21	0x3d56eafb	0.05247019
22	0xbd930e6e	-0.071804866
23	0xbb79c7c9	-0.0038113466
24	0xbd88b42d	-0.06674991
25	0x3c8cee9f	0.017203627
26	0x3dac9040	0.08425951
27	0xbc51dc0b	-0.01280881
28	0xbd24186d	-0.040062357
29	0x3da500e4	0.080568105
30	0xbdbcf10a	-0.09225662
31	0x3c6e3aec	0.014540415
32	0xbb42a00e	-0.002969745
33	0x3d79a898	0.0609518
34	0xb7acb5dd	-2.0588684e-05
35	0xbd3626be	-0.04447054
36	0xbb9f85a7	-0.0048682275
37	0xbcb25be4	-0.021772332
38	0xbc11b7da	-0.008893931
39	0xbd566483	-0.05234195
40	0x3d5c7eda	0.053831913
41	0xbd7f03ba	-0.062259413
42	0xbd8379e9	-0.06419737
43	0xbcbb5941	-0.022869708
44	0x3d7a59c8	0.06112078
45	0xbc28abc0	-0.010294855
46	0xbd6cf7c5	-0.05785348
47	0x3d5b4e47	0.053541448
48	0x3caacc7e	0.020849463
49	0x3d50cf11	0.050978724
50	0xbcfd53b7	-0.030923707
51	0x3d4afd23	0.049557816
52	0x3d7953ed	0.060871053
53	0x3db879a9	0.0900758
54	0x3d46c940	0.04853177
55	0xbd98a92e	-0.074541435
56	0x3cc44716	0.023959678
57	0x3cf50da8	0.029913738
58	0xbc8b15f8	-0.016978249
59	0xbd80a27d	-0.06280992
60	0xbda4380a	-0.08018501
61	0xbbeb1034	-0.0071735624
62	0x3cf1ccb4	0.029516555
63	0xbcdc7a1b	-0.026913693

GAT_layers.2.w.weight f4 [1, 128]
0	0x3d175aac	0.036951706
1	0x3db2e99a	0.08735962
2	0xbe2164e3	-0.15761141
3	0xbd6ecb9d	-0.05829965
4	0x3c3b75c3	0.011441651
5	0x3c9ec5fe	0.01938152
6	0x3db5e1c1	0.0888095
7	0xbd1f2798	-0.03885612
8	0x3c23f1d5	0.010006388
9	0x3e032f40	0.12810993
10	0x3e32b6bb	0.17452519
11	0xbd9a197c	-0.07524392
12	0xbe081eb0	-0.13292956
13	0xbe221ef3	-0.15832119
14	0xb9c8139e	-0.0003816159
15	0xbe00d5d9	-0.12581576
16	0xbe00a421	-0.1256261
17	0xbe261d40	-0.16222095
18	0xbe05eaea	-0.13077894
19	0x3e2f2e34	0.17107469
20	0xbe0952d5	-0.13410504
21	0x3e48b949	0.1960193
22	0xbcea2dae	-0.028586235
23	0xbd94197b	-0.072314225
24	0x3ddaa339	0.106756635
25	0xbd27cfa9	-0.040969525
26	0x3e0b26b3	0.13588981
27	0xbe0a9517	-0.13533436
28	0xbda28753	-0.07935967
29	0x3e2bb18d	0.16766949
30	0xbd279e46	-0.040922426
31	0xbd4b5f51	-0.049651448
32	0x3e236971	0.15958191
33	0x3da4061a	0.08008976
34	0x3e408a37	0.18802725
35	0xbdd36604	-0.10322192
36	0xbd4a0635	-0.049322326
37	0x3e1cef8f	0.1532576
38	0x3d004bc0	0.03132224
39	0xbe137598	-0.14400327
40	0xbddcf1bf	-0.10788297
41	0x3e32d1c8	0.17462838
42	0xbe4dec35	-0.20109637
43	0xbe2bc52b	-0.16774432
44	0x3e371a36	0.17881092
45	0xbe1cdca8	-0.15318549
46	0xbe09f937	-0.13473974
47	0x3df42789	0.11921603
48	0x3d8e718e	0.069552526
49	0x3d2e9722	0.0426246
50	0xbdc2c78a	-0.09510715
51	0xbdac84d9	-0.08423776
52	0xbe1caea5	-0.15300997
53	0xbe2ad485	-0.16682632
54	0xbe2eb81b	-0.17062418
55	0xbe0d57c4	-0.13803011
56	0xbd81ab18	-0.06331462
57	0x395017f2	0.00019845346
58	0xbd8208b8	-0.06349319
59	0xbdde6e98	-0.10860938
60	0x3dfd9344	0.12381604
61	0xbe50d5e3	-0.20394091
62	0xbe0be07e	-0.13659856
63	0xbde6829d	-0.11255381
64	0xbe4fbd99	-0.2028717
65	0xbdf0ee18	-0.11764163
66	0x3d624d53	0.055249523
67	0x3ce9ebe8	0.028554872
68	0xbdd81810	-0.105514646
69	0xbe3670a2	-0.17816404
70	0xbd9a87e1	-0.07545448
71	0x3d8bc851	0.06825317
72	0x3d71a6d4	0.05899699
73	0x3db48de0	0.08816123
74	0x3d6d4914	0.05793102
75	0x3cbc92c3	0.0230192
76	0x3e0b3e30	0.13597941
77	0x3daa0784	0.08302215
78	0xbe232ad2	-0.15934303
79	0xbe02fcc0	-0.12791729
80	0x3e0f5d06	0.1400033
81	0x3dc107e2	0.09425332
82	0x3dabb5a5	0.08384255
83	0xbbf1e167	-0.0073816064
84	0xbd359b78	-0.04433772
85	0xbda2bb25	-0.07945851
86	0x3d11923d	0.035539854
87	0xbe342b72	-0.17594698
88	0xbda2ddab	-0.07952436
89	0xbdbc6d86	-0.092005774
90	0x3d695aa7	0.05697122
91	0xbe493bc6	-0.19651708
92	0xbd265ed8	-0.040617794
93	0xbcc033ac	-0.02346214
94	0x3d9084d8	0.07056588
95	0x3de42f28	0.11141807
96	0xbe14d061	-0.14532615
97	0xbdf58e2f	-0.1199001
98	0xbd530633	-0.051519584
99	0x3dd40e6f	0.103543155
100	0xbdc5821d	-0.09643958
101	0xbca6d44b	-0.020364901
102	0x3c928295	0.017884532
103	0x3e2828f3	0.16421871
104	0xbcd0a7f1	-0.025470706
105	0x3e3c1aa9	0.18369545
106	0xbd678c86	-0.056530498
107	0xbdb79bc1	-0.089652546
108	0x3dad669d	0.084668376
109	0x3a7a58e6	0.000954999
110	0xbc8a5799	-0.016887473
111	0xbdb4271a	-0.087965205
112	0x3de3795e	0.11107133
113	0x3aa6f3d6	0.0012737464
114	0x3db86ee9	0.090055294
115	0x3e48988a	0.19589439
116	0xbe27cdfb	-0.16387169
117	0x3e2dc0a8	0.16968024
118	0x3cca0b1b	0.024663499
119	0x3e30288b	0.17202966
120	0xbe21d7e6	-0.15805015
121	0xbd86eac5	-0.065877475
122	0xbdb0d19c	-0.0863373
123	0xbe355126	-0.17706737
124	0x3e4f7113	0.20257978
125	0x3e0f17a9	0.1397387
126	0xbe1bc3cc	-0.1521141
127	0xbd501527	-0.050801422

MLP_layers.0.weight f4 [32, 64]
0	0x3d8eb7e6	0.069686696
1	0x3c9c60c0	0.019089103
2	0xbde2a71e	-0.11067031
3	0x3ce3f660	0.027827442
4	0xbd8a02ba	-0.06738801
5	0xbd0d4564	-0.034490004
6	0x3dff270e	0.12458621
7	0xbcfafa98	-0.03063707
8	0xbd42c820	-0.047554135
9	0x3d549950	0.051904023
10	0xbd8a5016	-0.067535564
11	0x3c636650	0.013879374
12	0x3c974280	0.018464327
13	0xbd011398	-0.031512827
14	0x3dc8364a	0.0977598
15	0xbb6a3580	-0.0035737455
16	0xbdac3f8a	-0.084105566
17	0xbc13e720	-0.009027272
18	0x3bba67e0	0.0056886524
19	0x3c3bd8e0	0.011465281
20	0x3d794dac	0.06086509
21	0x3daaebe6	0.08345775
22	0x3b221100	0.002472937
23	0x3d90b1a4	0.07065132
24	0x3dd38b2e	0.10329281
25	0x3cffbf38	0.03121911
26	0xbb491500	-0.0030682683
27	0xbc67da90	-0.01415123
28	0xbd9d32a8	-0.076756775
29	0x3d918f98	0.071074665
30	0xbb3b9500	-0.0028622746
31	0xbd3d6ed4	-0.046248272
32	0x3dc6fa50	0.09715712
33	0x3c83d8a0	0.016094506
34	0xbd208cd4	-0.039196804
35	0x3d13aef8	0.036055535
36	0xbda3cd16	-0.079981014
37	0x3d9c2232	0.0762371
38	0xbcea2ee8	-0.02858682
39	0x3d694d9c	0.05695878
40	0xbdac6c64	-0.08419111
41	0xbd68a2b4	-0.05679579
42	0x3ddcc0ea	0.10778983
43	0x3dd09fda	0.10186739
44	0xbdfa12d8	-0.122106254
45	0xbd0a9a88	-0.03383878
46	0xbcf02458	-0.029314205
47	0x3d03fe20	0.032224774
48	0xbdb59ae8	-0.08867437
49	0xbd551494	-0.052021578
50	0x3c99a118	0.018753573
51	0x3d2a6214	0.04159744
52	0xbde55054	-0.11196962
53	0x3bbea200	0.0058176517
54	0xba2e7000	-0.00066542625
55	0x3dee0a28	0.11623031
56	0x3ccace98	0.024756715
57	0xbdd47d46	-0.103754565
58	0xbc3e47b0	-0.011613771
59	0xbc4be3b0	-0.012444422
60	0xbd222cd8	-0.039593548
61	0x3d9eb16a	0.07748683
62	0x3da0ea26	0.0785716
63	0xbda4bf4c	-0.080442995
64	0xbcf9ae88	-0.03047873
65	0x3d498a74	0.049204305
66	0xbd39cef5	-0.045363385
67	0xbc5f9888	-0.013647206
68	0x3db6b54f	0.089213006
69	0x3d000877	0.031258073
70	0xbddc8ae5	-0.107686795
71	0x3d0e086e	0.034676008
72	0x3ddd68e8	0.10811025
73	0xbdae0a92	-0.0849811
74	0xbd0a5978	-0.03377673
75	0x3d9527ac	0.072829574
76	0x3df2221e	0.118229136
77	0x3d6a255d	0.05716454
78	0x3d9968f2	0.0749072
79	0x3c89929c	0.016793542
80	0x3d3cf6a2	0.046133645
81	0xbc630e8e	-0.013858451
82	0xbba18fb1	-0.0049304594
83	0x3ca00e58	0.01953809
84	0xbde70538	-0.11280292
85	0x3d3181f9	0.043336842
86	0xbcfc04d0	-0.030764014
87	0x3d9739e3	0.07384088
88	0x3d84fef2	0.064939395
89	0xbb4fdadb	-0.0031716141
90	0xbddf49a9	-0.109027214
91	0x3d8181bf	0.06323575
92	0x3d4b0022	0.049560674
93	0xbd91768b	-0.071026884
94	0xbdf9e8bc	-0.12202594
95	0x3c471b2b	0.012152473
96	0xbd40186e	-0.046898298
97	0xbe057fa0	-0.13036966
98	0x3d1e508e	0.03865104
99	0x3d862edc	0.065519065
100	0xbd358b08	-0.044322044
101	0xbd9f91a1	-0.077914484
102	0x3de90120	0.11377168
103	0x3db70a15	0.0893747
104	0xbd972c18	-0.07381457
105	0x3c6e328f	0.014538421
106	0x3dd4ad1f	0.10384583
107	0x3d854834	0.06507912
108	0xbe01ee9f	-0.12688683
109	0x3d97799e	0.073962435
110	0xbdd85f69	-0.10565073
111	0xbda460b6	-0.08026259
112	0xbda5046c	-0.08057484
113	0xbc79e94e	-0.015253378
114	0x3df5137e	0.119666085
115	0x3c9c6b49	0.019094126
116	0x3dd72c1c	0.1050646
117	0x3c9afebf	0.0189203
118	0xbcfe57e8	-0.031047776
119	0x3ddcd137	0.10782092
120	0xbcf10545	-0.029421458
121	0x3cd7c1a2	0.026337449
122	0xbcf67c85	-0.030088672
123	0x3d3bca7c	0.0458474
124	0xbdf679ce	-0.12034951
125	0xbd9c5148	-0.07632691
126	0xbd75844d	-0.059940625
127	0xbd27ea68	-0.04099503
128	0x3c56f3b7	0.01311963
129	0x3cf8afae	0.030357208
130	0x3cd5bd9a	0.026091386
131	0x3ddba120	0.107240915
132	0x3d97d475	0.0741357
133	0xbd3b4674	-0.045721486
134	0xbd05c7ab	-0.03266112
135	0xbd316d60	-0.0433172
136	0xbd7ed5ad	-0.062215496
137	0xbc79f149	-0.015255281
138	0xbd83679d	-0.06416247
139	0x3d34e68c	0.04416518
140	0xbdf0e5ec	-0.11762604
141	0xbd9c6a64	-0.0763748
142	0xbc9332bf	-0.017968534
143	0x3dac8cb9	0.08425278
144	0xbcf5c7e5	-0.030002544
145	0x3d53e85f	0.05173528
146	0xbdd77aca	-0.10521467
147	0x3dcaa9ad	0.09895644
148	0xbe0246ce	-0.12722322
149	0x3d959f81	0.073058136
150	0xbd4b6370	-0.049655378
151	0x3d9053f6	0.07047264
152	0xbdaea78a	-0.08528049
153	0xbdab9c34	-0.08379403
154	0xbd5468ea	-0.051857866
155	0x3da19b49	0.078909464
156	0x3d8519fe	0.06499098
157	0xbcc068ed	-0.023487533
158	0x3dec6731	0.1154312
159	0x3d9429a0	0.07234502
160	0xbe01cea8	-0.1267649
161	0xbde651ab	-0.11246046
162	0x3d8c2649	0.0684324
163	0x3d7a8fca	0.061172284
164	0x3cb34484	0.021883257
165	0x3d4bf340	0.04979253
166	0xbbffc3d7	-0.0078053284
167	0xbda09cc3	-0.078424
168	0xbcd0d337	-0.02549134
169	0xbd8f95e7	-0.070110135
170	0xbdad083a	-0.08448835
171	0xbb33a01e	-0.002740867
172	0x3c92d108	0.01792194
173	0x3cb179ab	0.021664461
174	0x3c6b6983	0.014368418
175	0xbda43d03	-0.080194496
176	0xbc83fa6f	-0.016110627
177	0xbdf4ae76	-0.11947338
178	0xbdee405f	-0.116333716
179	0x3dd57ec5	0.1042457
180	0xbc9e33b5	-0.019311765
181	0xbdb51076	-0.0884103
182	0x3d89222c	0.06695971
183	0xbd42d0fa	-0.047562577
184	0x3daa1f22	0.08306719
185	0xbcbdf440	-0.023187757
186	0x3db0effe	0.08639525
187	0xbca47d94	-0.020079412
188	0xbb4ed874	-0.0031562122
189	0xbdc23ec0	-0.09484625
190	0xbd442859	-0.04789004
191	0xbdd0dee6	-0.101987645
192	0xbdb06148	-0.08612305
193	0x3d1724e4	0.036900416
194	0xbd53ac90	-0.05167824
195	0x3d05c850	0.032661736
196	0xbdafaca4	-0.085778505
197	0xbdaf2d3c	-0.0855355
198	0x3dd2e69a	0.1029789
199	0xbc50c030	-0.012741134
200	0x3d5e6edc	0.054304942
201	0xbda03b9a	-0.07823868
202	0xbcc46e20	-0.023978293
203	0xbbda3ca0	-0.006660059
204	0xbd3a21b8	-0.045442313
205	0x3d8e2102	0.069398895
206	0x3d33d1f4	0.0439014
207	0x3cb85e60	0.022505939
208	0x3d4d84c4	0.050175443
209	0x3dde7dd4	0.108638436
210	0x3d08d0b0	0.033402145
211	0x3ca68a18	0.02032952
212	0x3c3f0870	0.0116597265
213	0xba7e6c00	-0.00097054243
214	0xbd1342b8	-0.0359523
215	0x3ced7bd8	0.028989717
216	0x3dc3b15a	0.095553115
217	0xbd33a10c	-0.04385476
218	0xbdd6d682	-0.10490133
219	0xbd38e32c	-0.045138523
220	0xbdebf2fe	-0.115209565
221	0xbce54cc0	-0.027990699
222	0xbd5de9a4	-0.054177895
223	0xbd5f2348	-0.054477006
224	0xbd5927ec	-0.053016588
225	0x3dff4730	0.1246475
226	0xbc8b52b0	-0.017007202
227	0xbb0f4d40	-0.0021866113
228	0x3cc0c4e0	0.023531377
229	0xbdbb864a	-0.09156473
230	0xbded79ce	-0.11595498
231	0xbcc52af8	-0.02406834
232	0xbd909444	-0.070595294
233	0xbde96ca4	-0.11397675
234	0x3c0c4e80	0.008563638
235	0xbd1e81f0	-0.038698137
236	0xbab64a80	-0.0013907701
237	0xbdaf745e	-0.08567117
238	0xbdac92cc	-0.08426437
239	0x3df3b8f6	0.11900513
240	0x3ddcf4a0	0.10788846
241	0xbc90d4d0	-0.017679602
242	0xbc484c50	-0.012225226
243	0xbd9f7916	-0.07786767
244	0xbdc9ae1c	-0.09847662
245	0xbdbbe920	-0.091753244
246	0xbdfdb80c	-0.1238862
247	0x3c881410	0.016611129
248	0xbddd3064	-0.108002454
249	0x3d8b1306	0.06790738
250	0xbd9aa83c	-0.075516194
251	0xbd02c408	-0.03192523
252	0xbdd26592	-0.10273279
253	0xbd8a0a06	-0.06740193
254	0x3d97b028	0.07406646
255	0x3d7092dc	0.058733806

MLP_layers.0.bias f4 [32]
0	0x3d2e3c18	0.04253778
1	0xbd8b93ba	-0.06815286
2	0xbd91500c	-0.07095346
3	0x3d1dc444	0.03851725
4	0xbd1453bf	-0.03621268
5	0xbdf2e1ee	-0.11859499
6	0xbdfde376	-0.123969
7	0x3db418fa	0.087938264
8	0xbdcf420c	-0.10120019
9	0x3de41040	0.11135912
10	0xbdcd5d86	-0.10027604
11	0x3d68fe20	0.056882977
12	0xbdb9c237	-0.09070247
13	0x3d0341c8	0.032045156
14	0x3d29c8fa	0.04145143
15	0x3d58e2a8	0.05295053
16	0x3d5c13ff	0.053730007
17	0x3dce4e6c	0.100735515
18	0x3cae9a40	0.021313787
19	0xbc8dd4a7	-0.017313315
20	0xbd7aa0b5	-0.06118842
21	0x3a3f6520	0.00073011406
22	0x3e0568cd	0.1302826
23	0x3c60a370	0.013710842
24	0x3db65197	0.08902281
25	0xbd9f13d6	-0.07767455
26	0x3bd5a4a9	0.006519873
27	0x3db7f766	0.089827344
28	0xbd6b09c0	-0.057382345
29	0xbd7022ae	-0.058626823
30	0x3c8966cb	0.016772648
31	0x3da8d90e	0.08244525

MLP_layers.1.weight f4 [1, 32]
0	0x3dcffe6c	0.10155949
1	0xbd49223f	-0.049104925
2	0xbddb0755	-0.10694758
3	0x3b542d1d	0.0032375522
4	0xbd4775c4	-0.048696294
5	0x3c4cbeff	0.012496709
6	0xbdf34394	-0.11878124
7	0xbcbbbda1	-0.02291757
8	0xbe311079	-0.1729144
9	0x3e09ab8d	0.13444348
10	0xbdc2cbc4	-0.095115215
11	0xbe13bf90	-0.14428544
12	0xbe1e9fff	-0.15490721
13	0xbdf62569	-0.12018854
14	0xbcafe2ab	-0.021470388
15	0x3e48ef43	0.19622521
16	0xbcafb4b5	-0.021448473
17	0x3d3579dd	0.04430567
18	0xba53d56f	-0.00080808153
19	0x3dd4ee03	0.1039696
20	0x3e44a6f5	0.19204314
21	0x3e2a77fa	0.1664733
22	0x3cc006de	0.023440775
23	0x3dc9a16a	0.098452404
24	0x3e340f4f	0.17583965
25	0x3c8ffefa	0.017577637
26	0xbe1111e6	-0.14166984
27	0x3d37a84f	0.044838246
28	0x3e1a6179	0.15076245
29	0xbe108029	-0.14111389
30	0x3e27c9ef	0.16385625
31	0xbdf460b8	-0.1193251
