SLIC_GAT/best8.pt (torch, 80373 bytes, 12 tensors)

GAT_layers.0.f.weight f4 [32, 124]
-0.11482171 -0.14797914 0.016022602 0.160508 0.05002486 0.093990475 0.031436592 -0.1825565
0.17258203 -0.0022435223 0.17414652 -0.062227763 0.012435807 0.1838307 0.051985133 0.11129315
-0.14460403 0.15144563 -0.012254247 0.14525011 0.1279897 0.17021775 0.15309805 0.12982236
-0.15974386 -0.024688285 -0.03746315 -0.10782643 0.07345382 -0.09897954 -0.03662613 0.12120893
-0.10709419 -0.12798472 -0.007153188 0.15293291 0.04332008 -0.124099925 -0.13464859 0.086658135
-0.06268643 -0.14829431 -0.18153477 -0.18263821 0.10083029 -0.034120753 0.12143385 -0.07202835
-0.029221835 -0.15378894 -0.09520477 -0.14161086 0.0091839535 0.093282945 0.18683793 0.058601778
0.11526422 -0.07226338 0.15270181 -0.1428759 -0.01906435 0.072809815 0.10563433 0.08753236
0.18532012 0.091827996 -0.08558159 -0.09557624 0.16622888 -0.17479338 0.15098004 0.19585624
0.006262007 0.10951084 0.111122884 0.1903195 -0.10947089 0.04802307 0.11242458 -0.12430764
-0.18023919 0.13322893 -0.046594314 -0.10275743 -0.03224815 0.09216853 0.15864101 0.05919603
-0.035508446 -0.07983385 0.16817756 0.15303113 -0.057328828 0.09741726 0.10761373 -0.031452257
-0.18220648 -0.087911926 -0.065955356 0.0013686923 -0.18614185 0.1320933 0.16560097 0.052949317
0.11933054 -0.12966384 0.1666161 -0.00048001486 0.08150179 -0.071400665 -0.01363241 0.09819059
0.17008314 -0.05098801 0.010681287 0.18875587 0.071196 -0.057517298 0.052627243 0.08555366
0.16214694 -0.0004895587 -0.017795822 0.039381657 -0.014288499 -0.009263157 -0.15213332 0.07507739
-0.01364681 -0.16019495 -0.18243621 0.03742744 0.12212964 0.09881705 0.16324547 0.1714824
0.024436915 0.14623201 0.16947031 -0.10265793 0.09461433 -0.15430076 -0.18452188 -0.16391289
-0.08786898 0.10666476 0.0017743629 -0.18989368 0.1981561 -0.120099686 -0.17627792 0.18641677
0.07391059 -0.15703185 -0.010219019 0.16729614 -0.179112 0.13696124 0.15700439 -0.14057374
-0.059252612 -0.13750906 -0.102461286 -0.027474537 -0.097105354 -0.15799844 0.057399277 0.026561126
0.050035495 0.06768694 -0.0032006134 0.15125641 -0.09347741 0.15026669 -0.16979639 -0.17636524
-0.18936116 -0.11555323 -0.090815544 0.088636376 0.18086986 -0.03745643 0.16497783 0.004436377
-0.057919815 0.1748958 -0.07966264 0.0044652987 0.04443601 0.031508002 -0.050547168 0.120904975
0.03067784 0.120038636 -0.09361852 -0.08805458 0.18239394 -0.043917418 0.08913653 0.024934944
-0.06572388 0.061332468 0.015732994 0.12250721 0.17714192 0.013436594 0.057712127 -0.13576114
-0.05021191 0.11573684 -0.06882162 -0.1655687 -0.09051319 -0.17244671 -0.022834994 0.086687
-0.043961193 0.19112395 0.07685329 -0.082569905 0.0502427 -0.10861935 0.116409704 0.11162134
0.055050705 0.081406005 0.10975606 0.06694351 -0.14368317 -0.042085696 -0.05420259 0.18111408
0.07238578 -0.046245195 -0.1735047 0.119120315 0.099009514 0.13855816 0.19828203 0.08684481
-0.17885411 0.14024994 0.064909875 -0.0450405 0.1952452 -0.18256041 0.11191227 -0.09320805
-0.12551549 0.124512754 -0.098574296 -0.14810014 0.006841621 0.041024156 0.1685529 0.04174859
00000000: a527 ebbd d887 17be d541 833c 365c 243e
00000010: dee6 4c3d 147e c03d a8c3 003d 17f0 3abe
00000020: 58b9 303e 0f08 13bb 7753 323e 8ae2 7ebd
00000030: 8ebf 4b3c 1d3e 3c3e 5dee 543d aaed e33d
00000040: 1413 14be 9014 1b3e 0ac6 48bc 72bc 143e
00000050: bb0f 033e 904d 2e3e bcc5 1c3e 27f0 043e
00000060: e593 23be 163f cabc f672 19bd 1ad4 dcbd
00000070: f56e 963d c9b5 cabd 4805 16bd 633c f83d
00000080: 3354 dbbd 6d0e 03be 4a65 eabb 729a 1c3e
00000090: 6570 313d 1a28 febd 52e1 09be d279 b13d
000000a0: be61 80bd 77da 17be 40e4 39be 8305 3bbe
000000b0: 1c80 ce3d 34c2 0bbd 4fb2 f83d 9983 93bd
000000c0: a162 efbc d97a 1dbe b8fa c2bd 7002 11be
000000d0: 4b78 163c 210b bf3d 7152 3f3e 6b08 703d
000000e0: a60f ec3d d3fe 93bd dd5d 1c3e 0f4e 12be
000000f0: d72c 9cbc 501d 953d d056 d83d 2a44 b33d
00000100: 8fc4 3d3e 5110 bc3d 6745 afbd 7abd c3bd
00000110: e737 2a3e 09fd 32be 839a 1a3e 8a8e 483e
00000120: 8631 cd3b 3847 e03d 6594 e33d 1de3 423e
00000130: 4632 e0bd d7b3 443d dc3e e63d 0195 febd
00000140: 9f90 38be 2a6d 083e aed9 3ebd 7d72 d2bd
00000150: a316 04bd dbc2 bc3d ca72 223e 8977 723d
00000160: 4e71 11bd ee7f a3bd bd36 2c3e 31b4 1c3e
00000170: a2d1 6abd b382 c73d 9664 dc3d 15d4 00bd
00000180: 5694 3abe 2b0b b4bd 9a13 87bd b165 b33a
00000190: f89b 3ebe 7743 073e 4d93 293e 62e1 583d
000001a0: 9263 f43d 99c6 04be 699d 2a3e 81aa fbb9
000001b0: 69ea a63d 833a 92bd 795a 5fbc 2618 c93d
000001c0: 462a 2e3e ced8 50bd 9100 2f3c 3849 413e
000001d0: 35cf 913d 4297 6bbd aa8f 573d c236 af3d
000001e0: d909 263e ba55 00ba 8bc8 91bc a94e 213d
000001f0: 4f1a 6abc 7fc4 17bc d6c8 1bbe 2dc2 993d
00000200: df96 5fbc 250a 24be 8fd0 3abe 844d 193d
00000210: 1b1f fa3d 9860 ca3d d229 273e 1599 2f3e
00000220: ed2f c83c d8bd 153e a089 2d3e 523e d2bd
00000230: 28c5 c13d 0501 1ebe 4ef3 3cbe c8d8 27be
00000240: a7f4 b3bd 0e73 da3d bd91 e83a 7d73 42be
00000250: 6fe9 4a3e d3f6 f5bd 3382 34be 0ae4 3e3e
00000260: 6f5e 973d f5cc 20be ac6d 27bc ae4f 2b3e
00000270: 2369 37be 913f 0c3e c2c5 203e 90f2 0fbe
00000280: deb2 72bd 2dcf 0cbe 39d7 d1bd 4812 e1bc
00000290: 2cdf c6bd 58ca 21be 811b 6b3d b896 d93c
000002a0: 05f2 4c3d 739f 8a3d 62c1 51bb f6e2 1a3e
000002b0: 1671 bfbd 83df 193e 1bdf 2dbe 1799 34be
000002c0: e4e7 41be 2ca7 ecbd 80fd b9bd fd86 b53d
000002d0: f335 393e ea6b 19bd f3ef 283e 075f 913b
000002e0: 543d 6dbd e217 333e 2b26 a3bd a451 923b
000002f0: 8902 363d 890e 013d 8c0a 4fbd 079d f73d
00000300: 1850 fb3c d1d6 f53d 11bb bfbd f655 b4bd
00000310: 7ac5 3a3e c0e2 33bd 378d b63d 5e44 cc3c
00000320: 3e9a 86bd c137 7b3d 7be2 803c 0fe5 fa3d
00000330: b164 353e 2925 5c3c 8d63 6c3d f804 0bbe
00000340: 01ab 4dbd 7007 ed3d 59f2 8cbd d78a 29be
00000350: fb5e b9bd df95 30be 7410 bbbc f488 b13d
00000360: a710 34bd ffb5 433e 4265 9d3d 691a a9bd
00000370: 4acb 4d3d d273 debd 3668 ee3d bb99 e43d
00000380: d97c 613d 31b8 a63d c9c7 e03d ae19 893d
00000390: ae21 13be 0d62 2cbd 8903 5ebd f875 393e
000003a0: ff3e 943d 9a6b 3dbd 37ab 31be 5af5 f33d
000003b0: 80c5 ca3d 31e2 0d3e 720a 4b3e b1db b13d
000003c0: 8825 37be ae9d 0f3e 78ef 843d 637c 38bd
000003d0: 5cee 473e 1ef1 3abe 4332 e53d dde3 bebd
000003e0: 2287 00be 8b00 ff3d 52e1 c9bd 90a7 17be
000003f0: ad2f e03b f208 283d 2299 2c3e 9200 2b3d

GAT_layers.0.f.bias f4 [32]
-0.00089554756 0.06931915 -0.0073324866 0.0039750743 -0.005875707 -0.057960175 -0.061150078 -0.0065777185
-0.056723017 0.082619056 -0.058047812 0.06320412 0.068646885 -0.08967201 0.015144543 -0.03487563
0.024362728 -0.016793527 0.010142456 -0.08150996 0.0027627838 0.051455338 -0.010135456 0.008398511
-0.026498811 -0.042994417 -0.016231373 0.06817331 0.054604255 0.0549897 0.055479534 0.06842572
00000000: 2ec3 6aba 33f7 8d3d 5b45 f0bb 5741 823b
00000010: 0189 c0bb a667 6dbd 8178 7abd e789 d7bb
00000020: 6556 68bd 2e34 a93d 8bc3 6dbd 2971 813d
00000030: bd96 8c3d f5a5 b7bd d120 783c c0d9 0ebd
00000040: 5894 c73c 9492 89bc 8b2c 263c b2ee a6bd
00000050: d20f 353b d5c2 523d 2f0f 26bc e999 093c
00000060: 0914 d9bc ea1a 30bd a8f7 84bc 739e 8b3d
00000070: b6a8 5f3d e13c 613d 823e 633d c922 8c3d

GAT_layers.0.w.weight f4 [1, 124]
-0.15154476 0.14520556 -0.14613749 0.12632503 0.07058451 0.027900541 -0.069286995 -0.04510104
0.14793707 0.052147433 -0.0612044 -0.16581962 -0.19476612 -0.12484414 0.16619277 0.19975623
-0.12682787 0.006686563 -0.13136314 0.06167222 0.21513884 0.13334356 -0.12717852 -0.19930428
0.03055595 0.12561084 0.1045256 -0.025337895 -0.14589582 -0.046072952 0.024621416 0.07656593
-0.07900005 -0.1252558 0.103867665 0.18506978 0.20955493 0.049436092 0.16888343 0.2101924
0.12192379 0.052764267 -0.001588672 0.054240163 0.12019826 -0.04022259 -0.19089922 -0.11385057
-0.08843381 -0.032345742 -0.13839094 0.11089136 0.14529969 -0.12641202 -0.15503187 0.054051507
-0.030550068 0.019967413 0.13645457 -0.116367474 0.1161683 0.05642389 0.09489166 0.1390363
-0.062385574 -0.14833874 -0.1647479 -0.10174683 0.20157157 -0.057133254 0.19691323 -0.10431323
0.14599873 0.11755405 0.14961286 -0.017384 -0.043134604 0.20386624 0.022049433 -0.076526985
0.17798308 0.1798672 -0.15049794 0.04944525 0.1918189 0.07206154 -0.012207303 0.045032736
-0.022561291 0.12756811 -0.0864848 -0.17001775 0.015559164 0.046318408 0.09842071 0.14535277
0.14430988 0.16216911 0.16591612 -0.057966236 0.21201341 -0.21693705 0.07008298 -0.13251355
-0.02488943 0.16643423 -0.08603416 0.16204645 0.18612462 0.20967828 0.034085087 -0.02285868
-0.07973824 -0.077155456 0.21325493 0.124916345 -0.084533155 -0.104826495 0.10837449 -0.18021427
0.029568046 0.04465776 0.03630611 0.040851366
00000000: 8d2e 1bbe c4b0 143e 11a5 15be 595b 013e
00000010: 9d8e 903d ad8f e43c 57e6 8dbd debb 38bd
00000020: d17c 173e 8c98 553d 77b1 7abd 9ecc 29be
00000030: c570 47be 49ae ffbd 702e 2a3e e68c 4c3e
00000040: 2adf 01be f51a db3b 0f84 06be 029c 7c3d
00000050: 5b4d 5c3e 378b 083e 163b 02be 6c16 4cbe
00000060: 7950 fa3c 21a0 003e 8511 d63d 6b91 cfbc
00000070: b765 15be feb6 3cbd dab2 c93c 99ce 9c3d
00000080: c7ca a1bd 0e43 00be 92b8 d43d ef82 3d3e
00000090: 9195 563e 807d 4a3d c7ef 2c3e ad3c 573e
000000a0: 2eb3 f93d 581f 583d fd3a d0ba ef2a 5e3d
000000b0: 812a f63d 71c0 24bd 167b 43be 7d2a e9bd
000000c0: c91c b5bd f87c 04bd 5bb6 0dbe 021b e33d
000000d0: 71c9 143e 2772 01be adc0 1ebe 1d65 5d3d
000000e0: 2344 fabc b392 a33c bfba 0b3e 1252 eebd
000000f0: a5e9 ed3d bd1c 673d 8f56 c23d 885f 0e3e
00000100: 0488 7fbd 1ce6 17be acb3 28be a460 d0bd
00000110: c768 4e3e 8f04 6abd 9fa3 493e 2da2 d5bd
00000120: b180 153e 2ec0 f03d 1d34 193e e468 8ebc
00000130: e9ad 30bd 50c2 503e 03a1 b43c 2eba 9cbd
00000140: 3241 363e 1b2f 383e 221c 1abe 1a87 4a3d
00000150: 2c6c 443e 0095 933d 2401 48bc 3f74 383d
00000160: 75d2 b8bc 37a1 023e f11e b1bd 2219 2ebe
00000170: ddeb 7e3c 5fb8 3d3d cc90 c93d 5bd7 143e
00000180: f8c5 133e a90f 263e eae5 293e 016e 6dbd
00000190: 0b1a 593e bf24 5ebe aa87 8f3d a2b1 07be
000001a0: ebe4 cbbc bc6d 2a3e ad32 b0bd 81ef 253e
000001b0: 7497 3e3e e7b5 563e ce9c 0b3d 2042 bbbc
000001c0: cd4d a3bd ae03 9ebd 805f 5a3e 24d4 ff3d
000001d0: b81f adbd 46af d6bd 72f3 dd3d 178a 38be
000001e0: b038 f23c 0eeb 363d b7b5 143d c353 273d

GAT_layers.1.f.weight f4 [64, 64]
-0.12488785 -0.0361498 0.03506864 -0.01834828 -0.07973485 0.079608336 0.20210132 0.15109923
-0.116812296 -0.19108815 0.05035128 -0.07373561 -0.032075513 0.11482429 -0.051250406 -0.0677121
-0.05639938 -0.2056017 0.018439865 -0.11148216 0.06705122 0.18635413 0.16595674 -0.16166486
-0.10411283 -0.13437535 -0.053197242 0.13955429 0.16357668 -0.09107693 -0.17623933 -0.0047304234
0.00033526824 -0.060491417 -0.033588417 0.031650867 0.03809681 -0.15900621 -0.15560247 0.17193313
0.13627586 0.0891623 0.03792886 -0.1111654 -0.15732177 -0.081823066 -0.06825541 -0.1783884
-0.18536945 -0.0714868 0.04752324 0.10949195 0.038353845 -0.028598562 -0.13599701 -0.10337437
-0.18581294 0.20737278 0.0379871 -0.045890804 -0.15473671 0.13042326 0.14291172 0.191186
0.19205028 0.10389932 -0.19022651 0.19131552 -0.0024430947 0.15427728 -0.1515886 -0.19048549
0.089410484 0.1127573 0.0050088107 -0.07823445 -0.01846479 0.2143194 -0.010290653 0.19726373
0.13123706 0.0858228 0.19120187 -0.044671766 -0.078493476 -0.19773394 -0.11398504 0.07084414
-0.19185787 0.15171649 0.047837075 -0.03869306 -0.18629906 0.17282274 0.066647016 0.18288983
0.0049571404 0.21268116 -0.17767993 0.19784436 0.0017363129 -0.029489083 0.18761243 -0.03553216
0.0838501 0.069720626 -0.1449129 0.09388582 0.1981345 -0.022792146 0.11724241 -0.1095235
-0.04358322 -0.15164097 -0.20031264 0.061035164 0.18582855 0.11331964 -0.058869354 0.072857626
-0.15561889 -0.15555331 -0.10584346 0.005814199 -0.19557899 -0.059197288 0.1428615 -0.14198977
-0.09149163 -0.0028569035 -0.16659293 -0.15930393 -0.16237713 0.005644846 -0.15749554 -0.050595954
-0.13358074 0.016142646 -0.05336924 -0.16533569 0.10270063 -0.13267834 -0.20534642 -0.0041535855
-0.12067163 -0.0093348045 -0.066817455 0.038672592 -0.14342757 -0.16420718 0.19459213 -0.10539878
-0.20720169 0.13331063 0.212176 -0.07244049 0.16709203 -0.047952008 -0.015969936 -0.16013706
0.15330403 0.14758846 -0.014771616 0.09231352 0.145798 -0.21769603 -0.10364433 0.12912619
-0.20033157 0.2008929 0.21081659 0.080246486 -0.070994966 0.10238325 0.107745014 0.10896802
0.1804703 -0.20167617 0.1241664 -0.13427167 0.10883131 0.19401659 0.17468326 -0.20038052
0.12186736 -0.1280943 0.16529913 -0.04009612 0.20045449 -0.16381754 -0.17611296 0.08115654
-0.21275237 0.20599806 0.05029272 0.20893197 -0.062542744 0.11930647 0.014328719 -0.020561593
-0.1639366 -0.07616161 -0.14832951 -0.123906754 0.029260866 0.12624325 0.03650077 -0.024583098
-0.080937386 -0.1371712 0.073902026 -0.18362834 -0.069224 -0.15620346 -0.1705927 -0.02118443
-0.1744749 0.14280328 0.18852021 0.18756126 -0.014992585 -0.20675865 0.21216509 -0.13073169
-0.011913686 0.09067707 0.073045835 0.19657925 0.017030753 0.016454184 -0.002849933 0.13411437
-0.1530097 -0.060810775 -0.1686654 -0.19387606 0.07894233 0.13900334 0.17982492 0.11634832
0.2098459 -0.14299017 0.2035405 -0.12968503 -0.16249332 -0.16263801 -0.09849027 -0.12406757
-0.08484996 0.06818461 -0.14905998 -0.0139522655 -0.002022632 -0.14998882 0.096100524 0.0686017
00000000: 33c5 ffbd d011 14bd 22a4 0f3d 224f 96bc
00000010: 064c a3bd b209 a33d a6f3 4e3e c2b9 1a3e
00000020: 493b efbd 9dac 43be 253d 4e3d b202 97bd
00000030: 9d61 03bd ff28 eb3d f2eb 51bd a4ac 8abd
00000040: 0903 67bd 4189 52be 330f 973c c250 e4bd
00000050: 2652 893d 9ed3 3e3e 90f0 293e 798b 25be
00000060: 1b39 d5bd b199 09be 5ae5 59bd 52e7 0e3e
00000070: a580 273e 8b86 babd 1578 34be ab01 9bbb
00000080: f1c6 af39 d9c5 77bd 0294 09bd 57a4 013d
00000090: 670b 1c3d 86d2 22be 4156 1fbe 3d0f 303e
000000a0: e68b 0b3e b99a b63d 4b5b 1b3d afaa e3bd
000000b0: f518 21be da92 a7bd 7ec9 8bbd 73ab 36be
000000c0: 7dd1 3dbe ac67 92bd bba7 423d 513d e03d
000000d0: ec18 1d3d 8847 eabc cd42 0bbe f1b5 d3bd
000000e0: bf45 3ebe 8859 543e 5d98 1b3d fff7 3bbd
000000f0: 4d73 1ebe ad8d 053e 7357 123e 43c6 433e
00000100: d4a8 443e 2bc9 d43d bdca 42be 37e8 433e
00000110: 541c 20bb ddfa 1d3e 0b3a 1bbe a10e 43be
00000120: d81c b73d 4ded e63d f320 a43b 6239 a0bd
00000130: 7943 97bc 8b76 5b3e 219a 28bc 81ff 493e
00000140: 0263 063e ddc3 af3d 6cca 433e bef9 36bd
00000150: 30c1 a0bd c47a 4abe fd70 e9bd bc16 913d
00000160: 6476 44be 915b 1b3e cff0 433d 9d7c 1ebd
00000170: 2ec5 3ebe 72f8 303e 3b7e 883d 7947 3b3e
00000180: 826f a23b 17c9 593e baf1 35be b697 4a3e
00000190: fe94 e33a 1793 f1bc 791d 403e 2c8a 11bd
000001a0: 9ab9 ab3d b0c9 8e3d 0c64 14be 3547 c03d
000001b0: c5e3 4a3e 98b6 babc ca1c f03d db4d e0bd
000001c0: 5284 32bd c547 1bbe c21e 4dbe 0200 7a3d
000001d0: d749 3e3e 2114 e83d fe20 71bd 6136 953d
000001e0: 8f5a 1fbe 5e49 1fbe 75c4 d8bd 0985 be3b
000001f0: dc45 48be db78 72bd 494a 123e c465 11be
00000200: f75f bbbd e33a 3bbb 5697 2abe 9220 23be
00000210: 3146 26be 66f8 b83b 8346 21be b43d 4fbd
00000220: 64c9 08be 953d 843c b499 5abd c24d 29be
00000230: b554 d23d d5dc 07be 5546 52be cd1a 88bb
00000240: b022 f7bd 02f1 18bc 97d7 88bd 2767 1e3d
00000250: adde 12be ed25 28be 2943 473e 51db d7bd
00000260: ae2c 54be 9582 083e aa44 593e ae5b 94bd
00000270: 2c1a 2b3e 5369 44bd 62d3 82bc f8fa 23be
00000280: bbfb 1c3e 6e21 173e a604 72bc df0e bd3d
00000290: 124c 153e b5eb 5ebe 7a43 d4bd a839 043e
000002a0: b823 4dbe deb6 4d3e 4ee0 573e 4558 a43d
000002b0: cf65 91bd 4fae d13d 6ba9 dc3d a02a df3d
000002c0: 35cd 383e 3384 4ebe f44a fe3d 837e 09be
000002d0: f3e2 de3d 49ac 463e 2be0 323e 8d30 4dbe
000002e0: 9895 f93d 272b 03be 2d44 293e d43b 24bd
000002f0: f143 4d3e c9bf 27be f556 34be 6635 a63d
00000300: c2db 59be 28f1 523e bdff 4d3d 43f2 553e
00000310: 6916 80bd f356 f43d 01c3 6a3c c970 a8bc
00000320: ffde 27be 9efa 9bbd b1e3 17be d3c2 fdbd
00000330: 7cb4 ef3c e945 013e d581 153d 7e62 c9bc
00000340: 80c2 a5bd 9b76 0cbe f259 973d 1109 3cbe
00000350: 50c5 8dbd cdf3 1fbe daaf 2ebe f88a adbc
00000360: 8ca9 32be 063b 123e 710b 413e 0f10 403e
00000370: 76a3 75bc 8ab8 53be ce41 593e 87de 05be
00000380: 9f31 43bc e6b4 b93d 0e99 953d 124c 493e
00000390: 1484 8b3c edca 863c f1c5 3abb 4755 093e
000003a0: 93ae 1cbe b814 79bd 9fb6 2cbe 7287 46be
000003b0: 84ac a13d e456 0e3e 0624 383e 0748 ee3d
000003c0: d8e1 563e 046c 12be ec6c 503e 27cc 04be
000003d0: a664 26be 948a 26be 44b5 c9bd 2317 febd
000003e0: d1c5 adbd 5fa4 8b3d 2ea3 18be 0b98 64bc
000003f0: 228e 04bb ab96 19be 5ad0 c43d 0c7f 8c3d

GAT_layers.1.f.bias f4 [64]
-0.010777623 -0.012112729 -0.018666865 -0.10256229 -0.005129951 -0.0062058656 -0.123328775 -0.009718994
-0.12104753 -0.07795212 0.0633371 0.03965627 -0.06259812 -0.108710036 -0.03291438 -0.041810185
0.05690272 0.11582658 -0.015207112 0.10513303 -0.05697263 0.051126856 0.08934151 0.112647355
0.08575462 0.12448624 0.044420768 -0.09425914 -0.016785912 -0.089853294 -0.051885687 -0.12523513
0.113695204 -0.08502144 0.061839845 -0.0332191 -0.021576801 0.024019172 0.08703887 -0.11482461
0.104523145 0.027570559 0.11115264 0.13915187 -0.09656827 0.020676067 0.008368793 0.058095828
-0.077336505 -0.007784328 -0.07533118 -0.09305021 0.022991858 0.023888145 -0.016708832 0.08588842
0.10765224 -0.10287216 -0.020521805 0.009867219 -0.046705756 -0.07771393 -0.10233183 -0.04695216
00000000: a194 30bc 7874 46bc 41eb 98bc 2e0c d2bd
00000010: 2619 a8bb 935a cbbb cc93 fcbd 6a3c 1fbc
00000020: c4e7 f7bd 5ca5 9fbd e2b6 813d 9d6e 223d
00000030: 7133 80bd 5ea3 debd 3bd1 06bd 2841 2bbd
00000040: d412 693d 7c36 ed3d 4027 79bc fc4f d73d
00000050: 225c 69bd 656a 513d aef8 b63d a8b3 e63d
00000060: 1ea0 af3d a4f2 fe3d 8df2 353d f00a c1bd
00000070: 9c82 89bc 0105 b8bd 1686 54bd a33d 00be
00000080: 08d9 e83d b91f aebd c74b 7d3d c010 08bd
00000090: d5c1 b0bc dbc3 c43c 6f41 b23d 2a29 ebbd
000000a0: 3b10 d63d a7db e13c ffa3 e33d d47d 0e3e
000000b0: 96c5 c5bd db60 a93c 431d 093c e4f5 6d3d
000000c0: 9a62 9ebd ad13 ffbb 3c47 9abd 1c91 bebd
000000d0: 6c59 bc3c 12b1 c33c f6e0 88bc 45e6 af3d
000000e0: c778 dc3d a4ae d2bd 581d a8bc 1eaa 213c
000000f0: 894e 3fbd 7b28 9fbd 5a93 d1bd e850 40bd

GAT_layers.1.w.weight f4 [1, 64]
-0.07736299 -0.119216114 -0.22787638 -0.15178722 -0.109927624 -0.072220415 0.20607886 0.12208185
-0.21622945 -0.22706017 0.121293984 0.13273689 -0.24855205 -0.27786583 -0.26342013 -0.024903579
-0.18396018 0.014727481 -0.21324697 -0.02897572 0.25871566 -0.25909862 -0.25239533 -0.023484327
-0.18372114 -0.18410403 0.057132352 -0.20115389 -0.14384969 -0.23051374 0.10659495 0.092448905
0.12651122 -0.030136637 -0.18119681 -0.19700739 -0.26505136 0.14656748 -0.13053507 -0.24827196
0.26658475 -0.15593454 0.05482355 -0.11227039 0.28128278 0.22338922 0.13484381 -0.023389433
0.19256556 -0.10951015 -0.24659885 -0.19780245 -0.07233383 0.12878963 0.028995566 0.28272122
-0.13530423 0.21894994 -0.09504545 0.03574772 -0.21708825 -0.28710142 0.2730707 -0.25487405
00000000: 7d70 9ebd 9427 f4bd 6d58 69be 1c6e 1bbe
00000010: bc21 e1bd 4ce8 93bd 5606 533e 0d06 fa3d
00000020: 416b 5dbe 7682 68be fb68 f83d 2eec 073e
00000030: 6e84 7ebe 6e44 8ebe 01df 86be 9702 ccbc
00000040: 0f60 3cbe 884b 713c 6a5d 5abe 7d5e edbc
00000050: 6176 843e 93a8 84be f639 81be 3462 c0bc
00000060: 6521 3cbe c485 3cbe 9d03 6a3d 49fb 4dbe
00000070: 554d 13be cb0b 6cbe 744e da3d da55 bd3d
00000080: 288c 013e 1ce1 f6bc a88b 39be 4ebc 49be
00000090: d0b4 87be c915 163e fcaa 05be 013b 7ebe
000000a0: cc7d 883e 4ead 1fbe a98e 603d 05ee e5bd
000000b0: 4c04 903e 25c0 643e 7f14 0a3e 329b bfbc
000000c0: e82f 453e dc46 e0bd 6984 7cbe ba8c 4abe
000000d0: c223 94bd 6ee1 033e 1c88 ed3c d6c0 903e
000000e0: 318d 0abe 6a34 603e 30a7 c2bd 346c 123d
000000f0: 624c 5ebe f5fe 92be eccf 8b3e da7e 82be

GAT_layers.2.f.weight f4 [64, 128]
0.08541283 0.13200839 -0.03403415 0.039253037 0.0038544862 -0.16242453 -0.09600401 -0.04691234
-0.11121177 -0.022096476 0.052679155 -0.05153186 0.08252313 0.0005477697 -0.14781165 0.11811994
-0.15313928 0.07439502 0.017976874 -0.090472735 0.032765135 -0.14164138 0.08407055 0.15850061
0.09768094 0.003606972 -0.04412001 0.13948578 0.15854749 0.0075902515 -0.090301745 0.07165525
0.015892984 -0.015217056 0.1917868 0.0690511 -0.075069316 0.12510933 0.11544604 0.08584118
-0.008478863 0.0066638426 -0.0966529 0.17216595 -0.006594446 -0.105635755 0.16855998 0.0110994745
-0.11156085 -0.119316235 -0.099058114 -0.060967628 -0.060307607 0.19517478 -0.11961465 -0.12445484
0.01667433 -0.13076955 -0.15766595 -0.0077820923 0.08807226 -0.11712653 0.13838641 -0.015339114
-0.11807226 -0.0633536 0.15578231 0.07768322 -0.08748709 -0.10933775 0.02919728 -0.108910285
-0.14113627 0.16324314 0.015487909 -0.0036240031 -0.08352899 0.08881666 0.13124052 -0.06782025
-0.11219336 0.09872725 0.1481394 0.025547976 0.09273339 0.18357457 0.16482398 -0.014538828
-0.051100757 -0.018930933 -0.03179626 -0.008896565 0.019282248 0.037385948 -0.09096115 -0.12317542
0.06844622 0.09418703 0.15527038 0.07089566 -0.039032884 -0.10076679 0.13977629 0.034042347
0.1452558 -0.15745926 0.1137113 0.029244713 -0.012569446 0.07683833 0.07007517 0.108649254
-0.0741515 0.0057770805 0.07638408 -0.014290542 0.039661318 -0.057701908 -0.0017723601 0.063355066
0.058368236 0.17400527 0.058236435 -0.0759297 0.07117518 0.09794223 -0.08950978 0.13984513
-0.16059227 -0.07590157 -0.06200459 -0.15817577 0.027620513 -0.0192521 -0.08586478 0.12939681
-0.03868127 -0.08296057 -0.10387454 -0.16518222 -0.077553794 0.13256176 0.030249014 0.16561532
0.15461935 -0.123446055 -0.13187325 -0.03717146 0.16866252 -0.058092672 -0.08997645 -0.06387936
-0.006319031 0.112461895 0.016232638 -0.04163122 -0.066801235 0.10937304 0.057050623 -0.08749479
0.10081258 -0.09687169 -0.16126159 -0.005716103 -0.011703257 -0.09355447 -0.024404055 -0.16318601
-0.0765767 -0.048611265 -0.06217695 0.04824686 -0.050565436 0.102830045 -0.01531105 -0.1717789
0.08713719 0.027165119 0.11428128 0.15768701 0.03380584 0.1080708 0.13869742 -0.04116869
-0.033256445 -0.078616306 0.049494375 0.12725985 -0.029360563 -0.039626513 -0.092319086 0.17640984
0.16440028 0.12903298 0.120155364 0.10698669 0.123395525 0.007927108 -0.055272546 0.033397764
0.056181785 0.17202307 -0.17292465 0.14479923 0.114553794 0.035465304 -0.11734972 -0.028170303
-0.012722509 -0.08156144 -0.10132203 -0.048113532 0.03789608 -0.035937 0.036195002 -0.02375828
-0.15121025 -0.04761923 0.10397676 -0.05197996 -0.16004504 0.17672276 -0.10682093 -0.06030918
0.011422881 -0.0048654517 0.15765034 0.09042743 0.09627998 0.09812083 -0.012892966 0.11665499
0.016228907 0.14120929 0.077426955 -0.039382976 -0.086052194 0.10300014 0.042854387 -0.06766926
0.12573823 -0.13600874 -0.15853645 0.020307004 0.1617636 -0.14037478 0.15493922 0.0021561072
0.15564016 -0.10823182 -0.022750447 0.0019208337 0.10244306 -0.005533974 0.04642101 0.022769772
00000000: ecec ae3d 352d 073e 6567 0bbd cbc7 203d
00000010: 8c9b 7c3b 9e52 26be c09d c4bd 2727 40bd
00000020: ffc2 e3bd ab03 b5bc 19c6 573d 1213 53bd
00000030: e301 a93d 3498 0f3a f05b 17be dee8 f13d
00000040: 8bd0 1cbe 6b5c 983d 3d44 933c c549 b9bd
00000050: bc34 063d 700a 11be 2e2d ac3d fc4d 223e
00000060: f20c c83d f362 6c3b 2fb7 34bd 5cd5 0e3e
00000070: 465a 223e a5b7 f83b 1ff0 b8bd fdbf 923d
00000080: 0132 823c f550 79bc c263 443e aa6a 8d3d
00000090: f1bd 99bd a91c 003e f96e ec3d 80cd af3d
000000a0: eeea 0abc 5d5c da3b f5f1 c5bd 454c 303e
000000b0: 3916 d8bb 8f57 d8bd fd9a 2c3e 92da 353c
000000c0: 047a e4bd 125c f4bd fbde cabd 31b9 79bd
000000d0: 1c05 77bd e6db 473e 87f8 f4bd 2ee2 febd
000000e0: 9b98 883c 74e8 05be 2f73 21be ec00 ffbb
000000f0: 3b5f b43d 09e0 efbd 2bb5 0d3e e850 7bbc
00000100: decf f1bd 88bf 81bd 6685 1f3e 6118 9f3d
00000110: 6e2c b3bd 78ec dfbd 222f ef3c 5b0c dfbd
00000120: 0786 10be 3629 273e 00c1 7d3c af80 6dbb
00000130: 3f11 abbd 82e5 b53d ea63 063e 58e5 8abd
00000140: a2c5 e5bd 8331 ca3d dbb1 173e fd49 d13c
00000150: 01eb bd3d f9fa 3b3e 9ec7 283e 4434 6ebc
00000160: 074f 51bd 0b15 9bbc cc3c 02bd e6c2 11bc
00000170: cef5 9d3c 0222 193d d749 babd 6543 fcbd
00000180: 882d 8c3d 21e5 c03d 33ff 1e3e be31 913d
00000190: f2e0 1fbd d25e cebd 8421 0f3e fd6f 0b3d
000001a0: f0bd 143e 003d 21be 78e1 e83d 9c92 ef3c
000001b0: 14f0 4dbc 6a5d 9d3d 9283 8f3d 8083 de3d
000001c0: bedc 97bd aa4d bd3b 426f 9c3d e122 6abc
000001d0: e873 223d d658 6cbd 894e e8ba 4dc0 813d
000001e0: 8813 6f3d 702e 323e 5489 6e3d 0881 9bbd
000001f0: 4bc4 913d f095 c83d e750 b7bd 9033 0f3e
00000200: 4d72 24be 4872 9bbd 86f8 7dbd d4f8 21be
00000210: 6a44 e23c 94b6 9dbc e0d9 afbd 9980 043e
00000220: 4070 1ebd 3be7 a9bd 2dbc d4bd 8725 29be
00000230: 86d4 9ebd 45be 073e c8cc f73c 1097 293e
00000240: 8954 1e3e 49d1 fcbd c809 07be 1a41 18bd
00000250: deb5 2c3e 95f2 6dbd 9345 b8bd 2fd3 82bd
00000260: e00f cfbb 6c52 e63d 4ffa 843c 8085 2abd
00000270: 16cf 88bd f9fe df3d eaad 693d 7830 b3bd
00000280: d376 ce3d aa64 c6bd c221 25be 264e bbbb
00000290: 05bf 3fbc 7c99 bfbd 03eb c7bc 3c1a 27be
000002a0: 3fd4 9cbd 9b1c 47bd 42ad 7ebd 809e 453d
000002b0: b41d 4fbd 8f98 d23d 33db 7abc cfe6 2fbe
000002c0: fc74 b23d 6289 de3c 4e0c ea3d b478 213e
000002d0: fe77 0a3d 3954 dd3d b206 0e3e 80a0 28bd
000002e0: e937 08bd 9601 a1bd 9dba 4a3d 6850 023e
000002f0: 9085 f0bc 694f 22bd ca11 bdbd c8a4 343e
00000300: 8c58 283e 3921 043e 0414 f63d d61b db3d
00000310: cbb6 fc3d b3e0 013c 7765 62bd 18cc 083d
00000320: df1e 663d d126 303e 2913 31be 4046 143e
00000330: 2e9b ea3d 1144 113d 0d55 f0bd 68c5 e6bc
00000340: 1272 50bc af09 a7bd ed81 cfbd b212 45bd
00000350: ec38 1b3d ad32 13bd 3641 143d b9a0 c2bc
00000360: dcd6 1abe 620c 43bd c4f1 d43d f0e8 54bd
00000370: d9e2 23be d0f6 343e efc4 dabd c206 77bd
00000380: 0927 3b3c 5e6e 9fbb 176f 213e 0432 b93d
00000390: 702e c53d 93f3 c83d 053d 53bc d0e8 ee3d
000003a0: 7cf2 843c 2b99 103e 0692 9e3d 0b50 21bd
000003b0: 223c b0bd bdf1 d23d 1588 2f3d 2e96 8abd
000003c0: 86c1 003e e045 0bbe 6157 22be e05a a63c
000003d0: 5ba5 253e 68be 0fbe 63a8 1e3e 7a4d 0d3b
000003e0: 2260 1f3e a5a8 ddbd 255f babc 7cc4 fb3a
000003f0: abcd d13d 5756 b5bb f523 3e3d ac87 ba3c

GAT_layers.2.f.bias f4 [64]
0.09115784 0.05026569 -0.085765876 0.031844646 -0.044333804 0.0053858906 0.037165523 0.0785987
0.085840784 0.022552958 -0.08482211 0.10048949 0.054880455 0.011467883 0.05216778 -0.067965604
-0.07950535 -0.07050593 0.02224099 0.06882307 0.004988111 -0.049140826 0.0666846 0.05643775
-0.042657014 -0.07592918 -0.06618577 -0.0103770485 -0.06905879 0.028884426 0.085474014 -0.023995342
-0.023756392 0.050914552 0.018721065 0.023627702 0.050697412 0.007265046 0.0059025935 0.02539271
0.04952669 -0.073123544 0.03779468 0.077185206 -0.017499171 0.018812487 -0.013475691 -0.0379968
-0.049804624 -0.0005651558 0.029671898 0.046989545 -0.08728684 0.09225661 -0.047927257 0.04468375
-0.04969717 0.044272512 0.08451692 -0.035307497 0.08534918 0.041044246 -0.016004896 -0.004177492
00000000: f6b0 ba3d 65e3 4d3d 05a6 afbd 886f 023d
00000010: 5d97 35bd 207c b03b e03a 183d 5bf8 a03d
00000020: 4bcd af3d fbc0 b83c 37b7 adbd 6fcd cd3d
00000030: 54ca 603d cae3 3b3c e2ad 553d 8d31 8bbd
00000040: b3d3 a2bd 6a65 90bd bd32 b63c 1cf3 8c3d
00000050: 4f73 a33b e447 49bd f091 883d 452b 673d
00000060: 1fb9 2ebd c280 9bbd 688c 87bd 7f04 2abc
00000070: b26e 8dbd 089f ec3c 000d af3d e191 c4bc
00000080: c49c c2bc c78b 503d eb5c 993c e28e c13c
00000090: 17a8 4f3d 9f0f ee3b 8b6a c13b 5f04 d03c
000000a0: 80dc 4a3d ccc1 95bd 98ce 1a3d 4713 9e3d
000000b0: 6c5a 8fbc a51c 9a3c 25c9 5cbc 88a2 1bbd
000000c0: efff 4bbd f726 14ba 7b12 f33c 1c78 403d
000000d0: 71c3 b2bd 09f1 bc3d 5f4f 44bd 4f06 373d
000000e0: 428f 4bbd 1857 353d 3517 ad3d 989e 10bd
000000f0: 8dcb ae3d 031e 283d b31c 83bc 58e3 88bb

GAT_layers.2.w.weight f4 [1, 128]
-0.2122854 -0.037276477 -0.14356004 0.067596994 0.113104485 0.14979362 -0.050270583 -0.094580986
0.052243073 0.04136069 0.21134804 -0.0048456476 0.17895474 0.0048188274 -0.1998635 0.19846155
-0.04691835 0.09614008 0.06504195 -0.08444304 0.15931727 0.034816433 0.086178444 -0.04311896
-0.1309525 -0.20688061 -0.18912278 -0.011190704 0.0052988315 0.026355976 -0.11563815 -0.16647713
0.05784541 -0.18414393 0.024775678 0.02198778 -0.12452204 0.06417093 -0.018090125 -0.13178791
-0.05520638 -0.046817828 0.042857822 -0.18438314 0.17408054 0.20633872 -0.1957581 -0.06231928
0.012575953 0.0044067437 0.122080244 -0.14052366 -0.05483316 0.0053414283 -0.12786984 -0.118132845
0.0055973143 0.19438398 0.10794915 0.09522099 0.09901226 -0.16539979 0.17433043 0.051053345
0.13197075 -0.018639227 0.20903319 0.05214785 -0.20645025 0.20646271 -0.021764655 -0.21420492
0.034257382 -0.035388518 0.17650157 -0.14625522 -0.1001603 0.12606958 0.053094283 -0.21857683
-0.09912846 -0.03187541 -0.025956891 -0.05936283 0.16718426 -0.08720155 -0.08349318 -0.054363515
0.2111532 0.1946825 0.08831902 0.16956623 0.02340362 -0.14071928 -0.14481205 0.023966506
-0.014481264 0.10174131 0.17964642 0.1338387 -0.21234791 0.0488086 -0.018240998 -0.17213434
-0.16553828 0.10760232 -0.1926661 -0.14561376 -0.036988165 -0.115811475 0.118566155 -0.15787207
0.19508229 0.0771466 0.05992767 0.18207797 0.11529448 0.08054887 -0.18035492 0.18540893
-0.100698106 -0.17787339 -0.04327373 -0.071126714 -0.17660233 0.14459935 0.18992902 0.20603445
00000000: 5861 59be 38af 18bd 6701 13be 4b70 8a3d
00000010: 53a3 e73d 8063 193e 87e8 4dbd adb3 c1bd
00000020: d5fc 553d d469 293d 9f6b 583e 3dc8 9ebb
00000030: e93f 373e 41e7 9d3b 04a9 4cbe 8139 4b3e
00000040: 752d 40bd 17e5 c43d b734 853d 79f0 acbd
00000050: 1124 233e ad9b 0e3d 537e b03d 829d 30bd
00000060: 6a18 06be 83d8 53be 67a9 41be 3759 37bc
00000070: d2a1 ad3b 7de8 d73c b2d3 ecbd fb78 2abe
00000080: 4fef 6c3d 3a90 3cbe 5df6 ca3c b81f b43c
00000090: 6905 ffbd 0c6c 833d be31 94bc 69f3 06be
000000a0: 1620 62bd 0dc4 3fbd af8b 2f3d efce 3cbe
000000b0: 2b42 323e 754a 533e d074 48be 8042 7fbd
000000c0: 5f0b 4e3c 7266 903b 3505 fa3d 6fe5 0fbe
000000d0: bc98 60bd 2607 af3b 50f0 02be a2ef f1bd
000000e0: ad69 b73b 980c 473e 7214 dd3d 3903 c33d
000000f0: f1c6 ca3d 905e 29be ad83 323e 501d 513d
00000100: 5723 073e 4bb1 98bc cc0c 563e fc98 553d
00000110: b267 53be f66a 533e ca4b b2bc 8958 5bbe
00000120: 7851 0c3d 8df3 10bd d4bc 343e eec3 15be
00000130: d820 cdbd 6218 013e 6479 593d 9bd2 5fbe
00000140: dd03 cbbd ca8f 02bd 8ca3 d4bc 7026 73bd
00000150: 5a32 2b3e ba96 b2bd 79fe aabd 47ac 5ebd
00000160: 8b38 583e d95a 473e 9ae0 b43d c5a2 2d3e
00000170: f3b8 bf3c b718 10be 9c49 14be 6855 c43c
00000180: d342 6dbc bf5d d03d 3bf5 373e 030d 093e
00000190: bb71 59be 87eb 473d 256e 95bc fc43 30be
000001a0: de82 29be 9b5e dc3d 434a 45be c61b 15be
000001b0: e780 17bd 912e edbd d0d2 f23d 37a9 21be
000001c0: a7c3 473e 09ff 9d3d b776 753d a672 3a3e
000001d0: 831f ec3d cef6 a43d f6ae 38be d7db 3d3e
000001e0: cf3a cebd 7124 36be cb3f 31bd e2aa 91bd
000001f0: 3ed7 34be da11 143e c17c 423e b2fa 523e

MLP_layers.0.weight f4 [32, 64]
-0.030823499 -0.068193376 -0.056570977 -0.053671524 -0.11958423 0.069734365 -0.10912463 -0.06833278
0.03018874 0.026258305 0.0093497485 0.008084819 0.08166632 -0.038293406 -0.11101532 0.074658155
-0.002638489 0.10643971 0.110373184 -0.081484154 -0.09377809 0.08613023 0.08396831 -0.10515331
-0.006194234 -0.037861884 0.102970675 0.018207759 -0.10789423 0.021675065 -0.09601097 -0.055650935
-0.037010938 -0.09471209 0.057908386 0.07777308 -0.05016391 0.0061532855 -0.032387763 0.11894369
0.05970025 -0.0925405 -0.045860603 0.061066702 -0.0054618865 0.059195757 -0.07670556 -0.08039999
0.039028496 -0.055571333 0.02909939 -0.09601925 0.114960775 -0.10305226 0.035129085 0.06252107
-0.009626374 -0.064517766 0.012827963 0.055033162 -0.116453364 0.02667275 -0.019557074 0.09956558
0.026902325 -0.12731819 0.043757267 -0.032229472 0.116936505 0.052802864 -0.008874059 -0.07888278
0.018672682 0.058691014 0.029541232 0.035086147 -0.024809508 -0.0426058 -0.06803938 -0.020077527
0.040392444 0.018913258 -0.04426645 -0.013873197 0.09441494 0.082116626 0.024065841 -0.010542388
-0.047575817 -0.06617563 -0.040186673 0.024108429 0.08143813 -0.08800259 0.08201436 -0.01248154
0.03597615 -0.04826306 -0.052461848 0.015273481 -0.13141233 -0.10280423 0.0144633865 -0.12942193
-0.002447946 0.053437725 0.107752085 -0.102835014 0.05989106 0.0544662 -0.034266938 -0.05429728
0.08704087 0.10563281 0.1008361 0.071400456 0.08143741 0.04414508 0.09733334 0.05683168
0.054309484 0.08680422 -0.0976438 0.08835391 0.02627121 -4.8213653e-05 -0.022608818 -0.05659629
0.060324274 -0.072644636 -0.013267398 0.11047594 -0.03670074 0.12488196 -0.0689069 0.10066038
0.09281618 0.09355453 -0.025045544 0.09695762 -0.04069959 -0.08951358 -0.02378767 0.024326429
0.005743012 -0.09294468 0.08675848 0.051074516 -0.105989315 0.1045184 0.038031362 0.017347513
0.039043948 -0.059841722 -0.05406487 -0.015124789 0.06461264 -0.08214163 -0.058719918 -0.09472652
-0.08831346 -0.010394964 0.046957348 -0.08474869 0.009220947 0.1357658 0.031132085 0.11979391
-0.076913066 -0.07143591 0.086792804 -0.10420168 0.08451569 -0.08745599 -0.12140033 0.110142335
0.13642746 0.04633195 0.054909945 -0.046502773 0.014458239 -0.029586451 0.0366233 -0.085021056
-0.0032105595 -0.03766964 0.12845504 -0.07749611 -0.059077155 -0.056116045 0.074307725 0.08089918
0.051891718 -0.054193128 -0.05164471 0.13091297 0.05257228 0.04460941 0.05052957 -0.02285651
0.038762964 0.04408962 -0.07928998 -0.03879416 -0.012196991 0.020944903 0.10748704 -0.0761269
-0.12001485 0.019270789 0.02754366 0.115700364 0.043570448 0.14476743 -0.029774146 0.0416062
0.026643664 -0.05828345 0.040036827 -0.04836509 0.07248778 -0.025088858 0.06715178 0.06431408
-0.0723846 0.08865531 0.057844926 -0.009778049 0.112928845 -0.07082334 0.012528663 0.12611516
0.08462719 -0.04948362 0.054408323 0.13547897 0.10506068 -0.10495173 -0.06841082 -0.010948213
-0.07264135 -0.043179166 0.08442811 -0.06842965 0.08965187 -0.015042782 -0.07364793 0.088613965
-0.06790138 0.08147827 0.058946215 0.049023293 0.0488255 -0.094256096 -0.016558632 -0.008322543
00000000: 9081 fcbc f8a8 8bbd f8b6 67bd acd6 5bbd
00000010: 94e8 f4bd e4d0 8e3d bc7c dfbd 0ef2 8bbd
00000020: 604e f73c a81b d73c b02f 193c 3076 043c
00000030: ac40 a73d 8cd9 1cbd 005c e3bd 60e6 983d
00000040: 80ea 2cbb 10fd d93d 560b e23d 2ae1 a6bd
00000050: ba0e c0bd 0c65 b03d 94f7 ab3d 9e5a d7bd
00000060: 00f9 cabb 1015 1bbd 4ae2 d23d 7028 953c
00000070: a6f7 dcbd e88f b13c 66a1 c4bd 3cf2 63bd
00000080: c898 17bd 6af8 c1bd 5831 6d3d 7e47 9f3d
00000090: ac78 4dbd 80a1 c93b 08a9 04bd c098 f33d
000000a0: 4088 743d e085 bdbd 54d8 3bbd 1421 7a3d
000000b0: a0f9 b2bb 4077 723d ce17 9dbd c0a8 a4bd
000000c0: 58dc 1f3d c49e 63bd d861 ee3c bea5 c4bd
000000d0: 8e70 eb3d 100d d3bd 84e3 0f3d 0c0b 803d
000000e0: f0b7 1dbc e421 84bd 602c 523c 746a 613d
000000f0: 1a7f eebd d080 da3c 2836 a0bc 0ae9 cb3d
00000100: 4462 dc3c b35f 02be d23a 333d 0d03 04bd
00000110: 687c ef3d d147 583d 8064 11bc 4c8d a1bd
00000120: 74f7 983c fd65 703d 7400 f23c 7eb6 0f3d
00000130: 4f3d cbbc 6b83 2ebd 3b58 8bbd a079 a4bc
00000140: 8c72 253d faef 9a3c bd50 35bd 684c 63bc
00000150: 9f5c c13d c32c a83d ba25 c53c fbb9 2cbc
00000160: dcde 42bd 1787 87bd c89a 24bd 0a7f c53c
00000170: 09c9 a63d b43a b4bd 25f7 a73d 607f 4cbc
00000180: ba5b 133d 7daf 45bd 3ce2 56bd 9f3d 7a3c
00000190: f490 06be 068b d2bd d7f7 6c3c 2f87 04be
000001a0: b86d 20bb 84e1 5a3d 20ad dc3d 2a9b d2bd
000001b0: 5450 753d f317 5f3d 7d5b 0cbd d366 5ebd
000001c0: 7c42 b23d 0456 d83d 2883 ce3d 673a 923d
000001d0: a8c8 a63d 79d1 343d b456 c73d 56c8 683d
000001e0: 9f73 5e3d 69c6 b13d 79f9 c7bd e5f2 b43d
000001f0: b836 d73c 0439 4ab8 2136 b9bc 83d1 67bd
00000200: 9616 773d b6c6 94bd 805f 59bc 3641 e23d
00000210: 8453 16bd 1dc2 ff3d 101f 8dbd 0827 ce3d
00000220: 6916 be3d 8499 bf3d 502c cdbc b791 c63d
00000230: 9db4 26bd e552 b7bd 5cde c2bc 3848 c73c
00000240: e02f bc3b c859 bebd 6eae b13d 8333 513d
00000250: ed10 d9bd be0d d63d c6c6 1b3d 5f1c 8e3c
00000260: 8cec 1f3d 981c 75bd 2073 5dbd f7cd 77bc
00000270: a253 843d df39 a8bd 4c84 70bd faff c1bd
00000280: b0dd b4bd a44f 2abc 5956 403d b990 adbd
00000290: 7413 173c 3106 0b3e b708 ff3c 8256 f53d
000002a0: 9984 9dbd fe4c 92bd 6dc0 b13d b167 d5bd
000002b0: 9016 ad3d 201c b3bd bca0 f8bd 4e92 e13d
000002c0: a4b3 0b3e 92c6 3d3d 40e9 603d b179 3ebd
000002d0: 40e2 6c3c 495f f2bc 5002 163d 851f aebd
000002e0: 4068 52bb 7b4b 1abd b889 033e 48b6 9ebd
000002f0: e3fa 71bd f0d9 65bd a62e 983d 78ae a53d
00000300: 698c 543d 9df9 5dbd 6789 53bd 0d0e 063e
00000310: 0856 573d 5bb8 363d 18f8 4e3d 933d bbbc
00000320: eac5 1e3d 5197 343d c962 a2bd a0e6 1ebd
00000330: e3d5 47bc a594 ab3c 2a22 dc3d 6ce8 9bbd
00000340: 58ca f5bd c6dd 9d3c 3ea3 e13c 50f4 ec3d
00000350: ed76 323d ea3d 143e e9e8 f3bc 436b 2a3d
00000360: d043 da3c a0ba 6ebd a8fd 233d 791a 46bd
00000370: 7974 943d 2687 cdbc df86 893d 1ab7 833d
00000380: 613e 94bd ea90 b53d cdee 6c3d 1c34 20bc
00000390: 3d47 e73d d40b 91bd 0545 4d3c 5524 013e
000003a0: 0551 ad3d 56af 4abd 43db 5e3d 00bb 0a3e
000003b0: 0e2a d73d eff0 d6bd f91a 8cbd 2260 33bc
000003c0: fdc4 94bd a3dc 30bd a5e8 ac3d d824 8cbd
000003d0: 669b b73d 0076 76bc bad4 96bd 3d7b b53d
000003e0: e10f 8bbd 14de a63d 9671 713d a6cc 483d
000003f0: 3ffd 473d 5709 c1bd f8a5 87bc 475b 08bc

MLP_layers.0.bias f4 [32]
-0.087855324 0.07601742 -0.023851907 -0.06729411 0.093399934 0.12919837 -0.046360373 -0.04773371
0.09511089 -0.115635656 0.04741926 0.08728145 -0.028002622 0.10301176 -0.10996187 -0.012515813
-0.07079701 0.075388476 -0.043451697 -0.10035758 -0.049799934 0.0805746 -0.1167607 0.045947447
0.006262452 0.00059229136 0.0058221817 0.08446592 0.013358728 0.018530518 0.10250365 -0.10647246
00000000: 7eed b3bd 05af 9b3d 1365 c3bc 7fd1 89bd
00000010: 7748 bf3d 944c 043e 60e4 3dbd 6c84 43bd
00000020: 80c9 c23d 63d2 ecbd b33a 423d 9ec0 b23d
00000030: c165 e5bc d4f7 d23d b033 e1bd 200f 4dbc
00000040: 06fe 90bd 4665 9a3d 68fa 31bd 4688 cdbd
00000050: 04fb 4bbd 4c04 a53d 3c20 efbd 6433 3c3d
00000060: 4135 cd3b 0044 1b3a 00c8 be3b 78fc ac3d
00000070: 91de 5a3c 50cd 973c 6fed d13d 3c0e dabd

MLP_layers.1.weight f4 [1, 32]
0.13617224 -0.16825667 0.11214497 0.15749727 -0.13319428 0.066278964 -0.12768203 0.085246004
0.022171618 -0.030161878 -0.025240337 -0.15747645 -0.0077027124 0.13177949 0.17451294 -0.009053438
0.056895148 -0.019790601 -0.089145996 -0.10750327 0.15770791 -0.15496428 -0.1604671 -0.12150652
0.17506568 0.16015732 -0.102048874 -0.056390535 -0.106476165 0.027709845 -0.1434881 -0.11515415
00000000: bc70 0b3e 7a4b 2cbe 43ac e53d f746 213e
00000010: 1564 08be 44bd 873d 14bf 02be 7595 ae3d
00000020: 41a1 b53c 0b16 f7bc d3c4 cebc 8241 21be
00000030: 0967 fcbb 34f1 063e 85b3 323e df54 14bc
00000040: e30a 693d e61f a2bc 2d92 b6bd ad2a dcbd
00000050: 2f7e 213e f5ae 1ebe 7d51 24be 69d8 f8bd
00000060: 6b44 333e 4800 243e 00ff d0bd c3f9 66bd
00000070: 2d10 dabd c2ff e23c 8bee 12be f0d5 ebbd
