SLIC_GAT/last0.pt (torch, 580781 bytes, 30 tensors)

GAT_layers.0.GAT_heads.0.f.weight f4 [32, 124]
00000000: 8d35 f73c c79b 84bd 6d16 c2bd dacf 5c3d
00000010: 09b8 00be 9e14 3f3e d671 24be b0e8 313e
00000020: f72e 2abe 400f fa3d 4be7 21be 071c 3ebe
00000030: 841e 083e 35e0 23bd 137c 203e a413 bc3c
00000040: 63f0 2ebe 7af4 44bd 5637 55bc faf8 dabd
00000050: 2001 1dbe e40d 1d3d 9e14 2bbe 4cc5 1b3e
00000060: a186 81bd aa63 393d 19f5 023e b82d a3bb
00000070: cc8d 503d 4ec9 d9bd cbfe 013e ab1d c43d
00000080: 024c 513c a58a 4d3d d931 1e3e 6283 1c3d
00000090: a874 3b3e 35a5 cb3c fad2 183e 62ec e73d
000000a0: 6ffe a53d b806 31be e9b1 f23d 0851 0bbe
000000b0: ea3d d43d 7b06 303e 00a7 43be faf4 a93d
000000c0: dff4 99bc 5db2 0f3d 5db6 1b3e 5a16 343e
000000d0: e9e3 9cbd c96c ab3d a9bc 0bbe a5f1 b33d
000000e0: 07eb 2b3e 14d8 2abd 7f8c a43d dd0c dc3d
000000f0: 94dc 6b3d 51d0 853d 2c9b 4e3d f4b0 03bc
00000100: 1845 d83d 0161 95bd b939 523d 4824 0bbe
00000110: 2ab1 f5bd c454 c9bd b070 20be b14d f13c
00000120: 1b43 d5bd 5d3c 013e dcbc e9bd d014 dd3d
00000130: ea2d 453e 1d93 3bbe 2d56 b3bd 7b69 8fbd
00000140: 68c3 e7bc 4120 8fbd 06f4 6d3b 04dd 3ebe
00000150: 11ea 18be 5043 dcbc 1102 083b b0e5 513d
00000160: 873c 183e 3b80 cebd 6f44 203e ed60 3dbe
00000170: ee99 ae3d 6b06 253e 6b24 263e d197 0cbe
00000180: c72b 8a3d 3464 3ebd ab6d 873d 6945 303e
00000190: 2ae6 7e3d 1b45 ddbd f8bd 033e 8383 173e
000001a0: 7f43 a0bc d699 f7bd bed0 b23d 1693 8b3d
000001b0: dc12 dabd 2d3d 0e3c e3c2 eb3c fa09 273e
000001c0: 6ad4 d0bd fdb5 0bbe 83bd 13bd 7512 fe3d
000001d0: 95cc 18be 9f88 6cbc 97aa 323e 4b02 273e
000001e0: 9d5e 1a3e c3a8 173e 77a3 293e c649 1dbe
000001f0: 6d8d 9f3d 7964 a83d 5ce8 843d ef29 0e3d
00000200: d759 ac3d 21e7 a7bd 0fb3 e8bb 4998 5d3d
00000210: 0838 283e 4017 df3d 3d95 b13d 6af4 033e
00000220: e303 8cbd 0d8f 86bd 3983 073e f13d b83d
00000230: 87e1 03be d005 ffbd d5a8 3dbe 0c2d f33d
00000240: bfff 513b 6978 38be 7d72 23be 563c fb3c
00000250: a055 f43c 5e90 eebd db78 9a3c 2645 0a3e
00000260: 23ab c83d 4a37 a03c c884 393e 01f8 e03d
00000270: 8263 fb3b 4f0e 3fbd fdcb 16be 7fb2 43be
00000280: 366f 44be 504b fd3d 4108 27bd f863 8b3c
00000290: 52d1 1e3e fcc9 5fbd 2eab f9bd 9939 2bbe
000002a0: 95e9 3d3d 9178 103e 95b6 9e3d f480 373e
000002b0: 9d19 3dbe 6a78 af3d 6a3d f43d 9962 193e
000002c0: 5b1b 92bd 4884 153d 893c a0bc d1a7 443e
000002d0: 145f 27be b132 26be ebc5 2b3d 39e4 573d
000002e0: e3c7 b13d 1401 ffbd fe71 e43d 0d0f af3d
000002f0: ad96 9ebd 17ee 163e 94ab ecbc 82e2 38be
00000300: 6670 45bd 64fb 5c3d f3eb f2bd 43d7 e23c
00000310: 18b3 cf3d 24d5 21be 579d c9bd 13f1 21be
00000320: 21d2 46be c681 3abe d794 733d d7ac fa3d
00000330: 5153 ba3d c0b6 103e 51ce 0ebe 1b3f 3a3e
00000340: 0c47 2e3d 09ae ac3d e4ac f1bd 3a0a 47be
00000350: 05aa 263d 0232 123e 6cac 34bd 0058 9d3c
00000360: 8a8f 163e 416e 0fbe 8726 303e c9c3 e43d
00000370: b9c6 c9bd 9325 d23d 23ef c53d 526e 3fbe
00000380: 3a56 ccbd 7b8d 423d 06fa c0bd f2be 4fbd
00000390: 13fe 7bbd eada 9a3c c249 44bc 1a92 26be
000003a0: 31b2 2c3d bdf5 213e 1f42 10be 059b 87bd
000003b0: 9d80 11be b3ea 34be a695 213e 608d d8bc
000003c0: c575 02bd 4bbd 3abd 2f8e 3a3e aecd abbd
000003d0: 9ba2 5dbd d76e 2bbe 261f 1d3e 4402 0bbe
000003e0: c6f7 3dbe bdee a2bd 4c69 263e 8ddb f8bd
000003f0: 5811 a5bd c9c5 bc3d 0b5a 17bd a181 0abe
0.030176902 -0.06475025 -0.09476934 0.05390916 -0.12570204 0.18660209 -0.1605905 0.1737392
-0.16619478 0.1220994 -0.15810888 -0.18565379 0.13292891 -0.040008742 0.1567233 0.022958584
-0.17083888 -0.048084714 -0.013013681 -0.1069202 -0.1533246 0.038343325 -0.16707084 0.15211982
-0.063245066 0.045261063 0.1278881 -0.0049798153 0.050916478 -0.10634099 0.12694852 0.09575971
0.012774469 0.05018105 0.15448703 0.038211234 0.1830622 0.02485905 0.14924231 0.11324383
0.0810517 -0.17287719 0.1185034 -0.1360513 0.10363372 0.17189972 -0.19106674 0.08298679
-0.018793521 0.03508221 0.15206285 0.17586651 -0.07660658 0.083703585 -0.13646187 0.087863244
0.16788875 -0.041709974 0.0803461 0.10744641 0.057583407 0.06533874 0.050440952 -0.008037794
0.105600536 -0.07293893 0.05132458 -0.13588059 -0.11996682 -0.09830621 -0.15667987 0.029455991
-0.1041319 0.12620683 -0.11412975 0.10794985 0.19255796 -0.18317838 -0.08756671 -0.07002541
-0.02829142 -0.06988574 0.003630878 -0.18638998 -0.14933039 -0.026887566 0.0020753185 0.051244438
0.1486684 -0.10083052 0.15651105 -0.18494006 0.085254535 0.1611573 0.1622483 -0.13729788
0.06746631 -0.04648228 0.066127144 0.17213978 0.06223122 -0.108041964 0.12865436 0.14796261
-0.019563435 -0.12089889 0.08731221 0.06815164 -0.106481284 0.008681578 0.028779453 0.163124
-0.10196765 -0.13643642 -0.036069404 0.12405864 -0.14921792 -0.01443687 0.17447887 0.16309468
0.15075155 0.14810471 0.16566263 -0.15360174 0.07790647 0.08222289 0.064896315 0.03470796
0.08415573 -0.08198381 -0.0071014236 0.05410031 0.16427624 0.108931065 0.08671043 0.12886205
-0.06836679 -0.065702535 0.13233651 0.089961894 -0.12879 -0.124522805 -0.18521436 0.118738264
0.0032043306 -0.18014683 -0.15961643 0.030668419 0.029825985 -0.116486296 0.018856457 0.1350294
0.09798267 0.019557614 0.18117058 0.10984803 0.0076717744 -0.046644505 -0.14726253 -0.1911106
-0.19183049 0.1236788 -0.040779356 0.017015442 0.15509537 -0.054635987 -0.12190853 -0.1672119
0.04636534 0.14108492 0.077496685 0.17920285 -0.18466802 0.08567889 0.11925776 0.14979018
-0.07134124 0.036503106 -0.019560115 0.19204642 -0.16344863 -0.16230275 0.041936796 0.052707884
0.086807035 -0.124513775 0.11154555 0.085477926 -0.07743583 0.14739262 -0.028890409 -0.18055156
-0.048202895 0.053950682 -0.1186141 0.027690535 0.10141581 -0.15803963 -0.09844463 -0.15814619
-0.19416095 -0.18213567 0.059468117 0.12239998 0.090979226 0.14132214 -0.13945891 0.18188135
0.042548224 0.08431632 -0.118005544 -0.19437495 0.040689487 0.14276889 -0.044109747 0.019207
0.14703193 -0.14006902 0.17202197 0.111701556 -0.098523565 0.10261073 0.09664752 -0.18694428
-0.09977384 0.047498208 -0.09422688 -0.05071921 -0.0615216 0.018903214 -0.011980476 -0.16266671
0.042162124 0.15816398 -0.14087723 -0.066213645 -0.14209218 -0.17667656 0.15779743 -0.0264346
-0.031850595 -0.04559068 0.18218301 -0.0838884 -0.05411015 -0.16741501 0.15343913 -0.13575083
-0.1855155 -0.07955692 0.16251105 -0.12151251 -0.08059949 0.09217412 -0.036951106 -0.13526012

GAT_layers.0.GAT_heads.0.f.bias f4 [32]
00000000: 7cf4 64bc f835 acbd bbb3 84bd 869a 863d
00000010: e171 0dbd d70b 30bd 8abe 703d 7ddd a2bd
00000020: d85d 183d 4773 a23b 3b25 d5bd 4f4f 70bb
00000030: 0976 19bd 7c15 9bbb e677 2fbd 27b2 d8bb
00000040: bda1 9a3d c679 faba de2c 6fbd 19b6 97bc
00000050: ce3e bbbd 8203 b2bd 0692 b7bb 630c b7bd
00000060: 64c6 9ebd b1f9 9f3c 9d6b 50bd 7978 eb3b
00000070: 6a94 5d3c f5a2 533d 3c15 68bd ff83 863c
-0.013974305 -0.08408731 -0.06479593 0.06572442 -0.03453243 -0.04298004 0.058775462 -0.07952402
0.03719887 0.00495759 -0.10407492 -0.0036668365 -0.037466083 -0.0047327857 -0.042838953 -0.0066130343
0.075503804 -0.0019109778 -0.058392398 -0.018519448 -0.091428384 -0.08692075 -0.005602124 -0.089379095
-0.07752684 0.019528242 -0.050883878 0.0071859923 0.013524154 0.05166908 -0.056660876 0.016420363

GAT_layers.0.GAT_heads.0.w.weight f4 [1, 124]
00000000: 01ac 383e dfb6 bbbc 732a d33d a73d 17be
00000010: 2871 5bbe a390 68bd 5432 f3bd 51bb 34be
00000020: 7993 98bc d68b 58bd f40c 513e bc68 473e
00000030: a05c c33d a169 aa3d ccb0 df3d c22c 48be
00000040: 2120 cbbd dcac 28be ab35 85bd 039d 023d
00000050: c78c 1cbd 5408 423e e61a 3dbe d3b2 963d
00000060: d015 023e c019 403c cb35 e43d fadf debd
00000070: 8bbc 403e d6a0 1b3e 6026 2b3e 28de e23d
00000080: 8ddc fd3d 34bd 71bc 0b49 123d 1487 5ebe
00000090: 4298 4f3d d1c7 c83d 5766 c93d e936 3d3d
000000a0: 854b 46be 132f 2d3c 7a2c 4c3e 1cf8 de3d
000000b0: 8015 dd3d aaa0 313e d5ad b03c 3c7d 1b3e
000000c0: 9ee8 923d 74c6 593e 3801 ec3d bf96 093e
000000d0: 8f9d 353c df39 e4bd 1b03 fa3d 6107 543e
000000e0: 273d 0e3e 319d ad3d e040 f93d 64bb 133e
000000f0: 3025 aa3d 75d2 a93d 4329 ac3d 1b89 093e
00000100: 45ad a2bd 4609 8abd 34bc 163c a1d8 1d3b
00000110: d46a 423d 28c5 ba3d bb64 68bb 3935 6abe
00000120: 95b3 943d b0ae d03d 1662 523e 86dd 203e
00000130: 960f 18be 94c2 ff3d 021b 11bd d5a3 0ebe
00000140: c852 01be 4d0e 5a3e 1c8f 2abe 2291 8a3b
00000150: 7998 df3d 6067 d43d ba58 203e 2e13 253e
00000160: f985 fe3d 19e4 3a3e 0619 8d3c 4d03 bd3d
00000170: c12d d8bd 0a9d a53d 27e3 21bc 4ecb 2fbe
00000180: a3ee 47bd 32af 913d 2bab 37be 73ab 9cbd
00000190: 5502 373e 33ff fb3c 9690 cc3d debb c93d
000001a0: be39 c9bc db44 19be f287 043e e452 59be
000001b0: de4d eb3d aad3 3b3e 3966 4c3e 458f 2f3e
000001c0: 73a9 c93d cdda 543e 950a 453d 6d82 0a3e
000001d0: 605a db3c b695 423d 42d2 64be 2df1 37be
000001e0: 03bb 353e fee2 3f3e 2b34 083e 6fbc 6c3d
0.18034364 -0.022914348 0.10310831 -0.14769612 -0.21429884 -0.05677856 -0.11874834 -0.1764958
-0.018625008 -0.052867733 0.20415097 0.19473547 0.09539151 0.08320928 0.10922393 -0.19548324
-0.099182375 -0.1647219 -0.06504377 0.03188802 -0.038220193 0.1894849 -0.18467292 0.07358327
0.12703633 0.011724889 0.11143073 -0.10882564 0.18821923 0.15198073 0.16713858 0.11077529
0.12395582 -0.014754582 0.03571419 -0.21731216 0.050682314 0.09803737 0.09833973 0.046194945
-0.19364746 0.010570305 0.19938841 0.10887167 0.107951164 0.17346445 0.021567265 0.15184492
0.071732745 0.2126711 0.1152367 0.13436411 0.011084928 -0.111438505 0.122076236 0.2070594
0.13890515 0.084772475 0.12170577 0.14426953 0.08307874 0.082920946 0.084063075 0.13431208
-0.07943205 -0.0674005 0.009200145 0.002408542 0.04746516 0.09119636 -0.003546043 -0.22871865
0.07260815 0.10189569 0.2054523 0.15709504 -0.14849696 0.12488285 -0.035426147 -0.13929684
-0.12629235 0.21294518 -0.16656154 0.004228727 0.10917754 0.1037128 0.15658846 0.16120598
0.12427897 0.18251075 0.017223846 0.09229145 -0.10555602 0.080865934 -0.0098808175 -0.17167398
-0.048811566 0.07113494 -0.17936389 -0.07649889 0.17871983 0.030761337 0.09988515 0.09850286
-0.024563666 -0.14967673 0.12942484 -0.21223027 0.11489461 0.18342462 0.1996087 0.17144497
0.09846773 0.20786591 0.048105795 0.13526316 0.026776493 0.047506057 -0.22345832 -0.17963095
0.1774712 0.18738934 0.1330115 0.05779689

GAT_layers.0.GAT_heads.1.f.weight f4 [32, 124]
00000000: 65ac dbbc e8f9 26be b650 b7bd 3420 41bd
00000010: 14ab cbbd 409a 1c3e e59a 853d 16a7 e7bd
00000020: 2ce4 433e 26df 6f3d c989 a73c e039 573e
00000030: 490c d0bd 9edc d1bb f2d7 1a3e cf2a af3a
00000040: e04a 0b3e ddfb 213e b303 83bc 9d8b b4bd
00000050: e19c f93d 9d75 613e 7b53 363e ac59 96bc
00000060: 2ce5 a5bd ac19 483e cde7 13bd d394 163e
00000070: cb56 f6bd 1930 063e 78cc cd3d 4202 0dbd
00000080: 2cf3 023e a999 6bbc 2cd9 bfbc 0774 cb3d
00000090: a881 0b3e 8c0b 84bd 1e6e 1c3e 179e 09be
000000a0: 72e9 093e 5cde 9c3d cbb9 2bbe 2e30 c23d
000000b0: 3a0d 483d 4dfc a5bd 3276 1d3e eb34 36be
000000c0: 1a1b 373e 0d5e 06be a69f dd3d 2825 92bd
000000d0: 3e53 233e 16ea ecbd 464f 2f3b 71e6 213d
000000e0: 383b 41bd d95f 99bd 82e2 2bbd de19 0dbd
000000f0: 01ec 23bc 5297 483e f8f2 e03d 6589 353e
00000100: f153 abbd c84a 1c3d ed10 983d 540b b8bd
00000110: f877 9fbd 4ec8 28bd 9338 c43d 73ab d33c
00000120: 354c c03d c113 1f3e 2fe4 233e e408 c5bd
00000130: 50e1 8c3d c28c 49bd 4cc9 de3d ae1d 0bbd
00000140: 9688 2c3e daf4 ee3d ec02 bf3d 09e3 353e
00000150: 20f3 243e 83b6 2f3e 3f4c 9b3d c4b0 e13c
00000160: a04c 01be 3dce 003e c33d 543d f773 94bc
00000170: fcea a73d dac5 2e3e aeaa 943d 134e 2b3d
00000180: 54dd 00be 6c63 273e 2c44 86bd 47a4 0b3e
00000190: ff1f aebd 8461 813c c334 083d 9341 903d
000001a0: ca26 0dbe 9e15 b6bc 3e23 ecbd 09f4 143c
000001b0: 423b 1c3e 48ca 393c d82c 893d 474a b33d
000001c0: fd32 103d fed4 873d 1bea f13c 0b3e 2fbd
000001d0: 57b7 74bc 19b5 d5bc 9a7d 273e 26c8 103e
000001e0: aa83 b33d 70f3 8bbd 4668 323e c174 383d
000001f0: 09c0 95bd bc33 bc3d 3260 03be d066 203b
00000200: 3235 de3c 069f 47be 6b63 1cbe 74ff 04be
00000210: f205 8ebd f83b 3abe 0dee 3e3e 0dbb fc3d
00000220: d22c d33d 8beb 293d cecf 49be 6959 403e
00000230: e5ed cf3b 7f6a 4b3d 3aa7 5abd afb3 adbc
00000240: 193b 42bd 9a41 ea3d 7c5b f43d 19ea 23be
00000250: 53f9 32be d80f 413d 8e4d 4a3d 7454 db3d
00000260: 559e c1bd 10cb 35be 2b77 b63d 75c9 fa3d
00000270: 3021 333e df37 38bc a122 d63c c941 293e
00000280: 4b91 2c3e ef2d 2c3d 47b7 edbc c8bd bcbd
00000290: d28b ee3b 8a97 8cbd a596 293d 095a 46be
000002a0: c4d1 a53d b428 463e 0e1d 20bc 181d bfbc
000002b0: 4af3 29be 4101 d4bd c52d 0ebe aea7 b5bd
000002c0: dc23 fe3d 89b5 a93d a2c8 3fbd 5ff6 cabd
000002d0: bf57 a33d a8f2 15be 5cc2 0c3d 090a 993d
000002e0: d8aa 9c3d 564e 17be f196 16bc b118 d43d
000002f0: f1f4 25be 2891 8d3d af4d 09be c241 3fbc
00000300: f895 a0bd 56db 003e 399e 853d c4d7 b13d
00000310: 8399 15be a1d6 03be 3d60 893d 0274 62bd
00000320: 2f74 753d 7629 cbbd 79a6 11be 60d9 053e
00000330: 48ae 18bd a41c 103e e6b4 b8bd f363 32be
00000340: 4f3f 403e 215b 25bd f7a0 a23d 3be1 723d
00000350: 9052 3cbe 1713 21be 6bd0 8bbd e61b c3bc
00000360: d23b 8cbc f1a8 403b d5fc b53c 5fd0 88bd
00000370: 241a 1a3e adbe 0d3e 858e 09be 8116 9a3c
00000380: 697b b53d 7d78 39be 57cd b83c 7764 27be
00000390: 0ad1 873a c225 833d c803 1fbe d5be bebd
000003a0: a782 d43d 6047 25be 86dd b63d 1f81 9fbd
000003b0: 8aed 0f3e f8ff 1ebe e6ac 8ebd 32bb 1d3e
000003c0: d41d 9c3d 682d 2f3e 2eba fbbd a4f1 893d
000003d0: bb9e 2dbe 23f7 023e 178e e53d fe74 26bd
000003e0: 4518 fcbd 633e abbd b09f 063e 946e b13d
000003f0: a5f6 c2bd a94f 25bd dacd 29be c9a0 d6bd
-0.026815603 -0.16306269 -0.08950941 -0.047149852 -0.0994474 0.15293217 0.065236844 -0.11311166
0.1913001 0.05856242 0.020451443 0.21018171 -0.10158593 -0.0064044734 0.15121439 0.0013364198
0.13602781 0.15818734 -0.015992975 -0.088156916 0.121881254 0.22017522 0.17805283 -0.018353306
-0.08100352 0.19541043 -0.036109734 0.1470521 -0.12028273 0.13104285 0.10048765 -0.03442598
0.12788075 -0.014379897 -0.023418985 0.0993424 0.13623679 -0.06447515 0.15276381 -0.13439213
0.13467959 0.07659599 -0.16770093 0.09481846 0.04884074 -0.08104763 0.15377119 -0.17793624
0.17881432 -0.13121815 0.10821466 -0.07135993 0.15949723 -0.11568086 0.0026750132 0.039526407
-0.047175616 -0.074889846 -0.04196406 -0.034448497 -0.010004998 0.19588974 0.109838426 0.17728193
-0.0836562 0.038157254 0.07425103 -0.08986536 -0.07786554 -0.04120665 0.09581103 0.02583859
0.09389535 0.1553488 0.16005014 -0.096208364 0.068789124 -0.049206503 0.10878238 -0.03396385
0.16848978 0.116677955 0.09326729 0.17762388 0.1610837 0.17159466 0.07582902 0.027550109
-0.12626886 0.12578674 0.051816713 -0.018121703 0.081991166 0.17067662 0.07259117 0.041822504
-0.1258443 0.1634652 -0.065559715 0.13636886 -0.085021965 0.01579357 0.033253442 0.07043757
-0.13784328 -0.022227105 -0.115301594 0.009091386 0.1525698 0.0113397315 0.066980064 0.08754402
0.035204876 0.06632422 0.029530575 -0.04278378 -0.01493629 -0.02608733 0.16356507 0.1413885
0.08765347 -0.068335414 0.1742259 0.04503322 -0.073120184 0.09189555 -0.12829664 0.0024475344
0.027124975 -0.19494256 -0.152723 -0.12988073 -0.06934728 -0.18186939 0.18645497 0.123403646
0.10311283 0.041484397 -0.19708177 0.18784107 0.006345498 0.04966211 -0.053382136 -0.021203844
-0.04741964 0.11438294 0.11931512 -0.1600727 -0.17477922 0.04713425 0.04939037 0.107094675
-0.094540276 -0.17753243 0.08909448 0.12245456 0.17493129 -0.011243789 0.02613956 0.16529001
0.168523 0.042035993 -0.029018058 -0.092158854 0.0072798515 -0.06864841 0.04140343 -0.19370283
0.0809665 0.19351465 -0.009772552 -0.023329303 -0.16596714 -0.10351802 -0.13884647 -0.08869873
0.124091834 0.08286578 -0.046822198 -0.09910273 0.079757206 -0.14643347 0.034365043 0.07472617
0.07649773 -0.14775977 -0.009191261 0.10356272 -0.16206719 0.06912452 -0.1340854 -0.011673393
-0.07841104 0.1258367 0.06524319 0.08683732 -0.14609341 -0.12874843 0.06707809 -0.055286415
0.059925254 -0.099200174 -0.1422366 0.13071203 -0.037275583 0.14073426 -0.09018879 -0.1742094
0.1877415 -0.04037011 0.07940858 0.059296828 -0.1839087 -0.15729938 -0.06826862 -0.023817014
-0.017118368 0.0029397572 0.022215286 -0.06680369 0.15049034 0.13842268 -0.13433273 0.018809559
0.08861429 -0.18112369 0.022558851 -0.16346918 0.0010361981 0.06403686 -0.15528786 -0.09313742
0.103764825 -0.16140509 0.08928971 -0.077883 0.14055458 -0.15527332 -0.069665715 0.1540344
0.07622877 0.17107165 -0.1229137 0.067355424 -0.16955082 0.12789588 0.11208742 -0.040638916
-0.123093165 -0.08361509 0.13146853 0.08663669 -0.095197 -0.040359173 -0.16582432 -0.10479886

GAT_layers.0.GAT_heads.1.f.bias f4 [32]
00000000: f823 613d 3785 90bd be31 4cbd 1106 80bc
00000010: dc31 843c b8d6 98bd aec5 e0bd 2070 6bbd
00000020: ada7 e3bb 9948 d2bc 7ac4 c93d 9fc2 2dbd
00000030: 9f18 ea39 b977 ccbc 8ee8 aa3d d33a 3a3d
00000040: 36b6 343d 92a8 19bc 898f 063d 8b7c c13c
00000050: 3c52 653d 81d2 50bc 59b2 a03d b943 88bd
00000060: 9ca4 6e3d a842 e8bd ed10 8b3d dd37 ab3d
00000070: 280b a13d ab77 093c 402b 70bd 9300 85bd
0.054965943 -0.07056659 -0.049852125 -0.015627893 0.016137056 -0.07462829 -0.109752044 -0.057479978
-0.0069474787 -0.025669383 0.09851928 -0.042421933 0.00044650302 -0.024959432 0.083451375 0.045466255
0.044119082 -0.009378569 0.03285173 0.023618957 0.055986628 -0.012745501 0.07846517 -0.06653542
0.058262452 -0.11340839 0.06790338 0.083602645 0.07863456 0.0083903475 -0.058634996 -0.0649425

GAT_layers.0.GAT_heads.1.w.weight f4 [1, 124]
00000000: 14cc d63c bf84 3f3e 0c12 b13d 04ff 48be
00000010: 6d4e e53d 44f9 1fbe 83cb 793c ecc2 38be
00000020: 9212 50be aacc c3bd 04f1 3c3e db79 a7bb
00000030: 989c b73c 985c 49be c6b2 0d3e 2ed7 32be
00000040: 13e2 0d3d a511 143e a4b0 e23d 32fe e53d
00000050: 0ed7 c73d 5f5b 21be 6de9 33be 8ab1 39be
00000060: f427 bebc dae8 5bbe c95a 033e 6307 873d
00000070: 92cd 31be 7199 61be e4b8 ba3d 6d91 a6bd
00000080: b6f7 3abe 49c3 9bbd ec9c 13bd 2efd b5bb
00000090: 69b4 4f3e ad3b a9bd 1ec9 0abc e62f 07be
000000a0: 27fd 23be 67c2 053e bad5 8c3d 510a 5d3e
000000b0: 6b22 f23c e90b c13d 6459 b3bd 6f93 9a3d
000000c0: e4d7 39be 3643 1b3e 0e93 3b3d 8aaf 8e3d
000000d0: f21e 2abe 1565 6a3e 0c26 053e 0452 9dbd
000000e0: 2cbe 1ebe ebba 1dbe 9427 543e e5ea b93d
000000f0: bd9a b2bd e91a ba3c f654 7dbd df89 c43d
00000100: 7058 dd3d befb c2bd f842 da3d e065 263e
00000110: 79a8 4dbe bbf5 533e 6951 21be cde9 4ebe
00000120: 834f 99bd 6f38 68bc fa49 9b3d 31d4 38be
00000130: 52a7 6bbb 048c 1bbd 3ab5 733d 2723 fe3c
00000140: 25f9 0f3e 096d f73d 3852 b2bd d209 bd3d
00000150: 90cc 9b3d 26d7 cf3b 9785 453e 8419 34be
00000160: 6410 ccbd 7117 3e3e 20d0 c23d 727c 423e
00000170: defe 1bbe d49e 363d 5b64 32be f85f f33c
00000180: f1f7 4e3e aeb6 0bbe 0007 31bc b696 af3c
00000190: aba1 063e 3faf c23c 6ac6 18be 33d3 41bd
000001a0: 6b60 22bd a874 d43d 8fe5 193e 12d1 dbbc
000001b0: 64e4 09bc a243 ac3d ea13 bcbc 831a 133e
000001c0: ac51 52bc 5366 d3bd da45 f83d 96a9 4b3e
000001d0: f33d b8bc f7ae 023e a03c 603e 6e63 43bd
000001e0: 467c 3dbe 2030 b23d a24f f1bd dc40 c4bd
0.026220359 0.18702982 0.0864602 -0.1962853 0.11196599 -0.15622431 0.015246275 -0.18043107
-0.20319584 -0.09560521 0.18451315 -0.005110962 0.022413537 -0.19664228 0.13837728 -0.17464897
0.03463943 0.14459856 0.11068848 0.112301245 0.09757815 -0.15757512 -0.17569514 -0.18134132
-0.02321241 -0.21475545 0.128276 0.06593206 -0.17363575 -0.2203119 0.09117296 -0.081332065
-0.18258557 -0.07605607 -0.036038324 -0.005553863 0.20283665 -0.082633354 -0.008470802 -0.13201866
-0.16014539 0.1306244 0.068767026 0.21585967 0.029557427 0.094261 -0.08757284 0.07547652
-0.18148762 0.15162358 0.04579454 0.06967075 -0.16613367 0.22890122 0.13002795 -0.07681659
-0.15502232 -0.15403335 0.20718223 0.09078006 -0.0872092 0.02271791 -0.061848603 0.09596609
0.10807884 -0.09520672 0.106573045 0.162498 -0.20083798 0.20699207 -0.15753712 -0.20206375
-0.07485869 -0.014173611 0.07582469 -0.18049695 -0.0035957885 -0.037975326 0.059499003 0.031022621
0.14059885 0.12081344 -0.08707088 0.09230389 0.076073766 0.0063427864 0.19289242 -0.17587858
-0.09964064 0.1856363 0.09512353 0.18992785 -0.15233943 0.044585064 -0.17421095 0.029708847
0.2021177 -0.13643906 -0.010804892 0.02143417 0.13147609 0.023765204 -0.14919439 -0.047320556
-0.039642733 0.10373813 0.15028976 -0.02683309 -0.008416269 0.084113374 -0.022958715 0.14365582
-0.012836855 -0.10322251 0.12122698 0.1988891 -0.022490477 0.12762056 0.21898127 -0.047702245
-0.18504438 0.08700585 -0.11782767 -0.095826834

GAT_layers.1.GAT_heads.0.f.weight f4 [64, 128]
00000000: d069 13be c23b cd3c 7633 19be ae6d 15bc
00000010: caa7 9ebd d503 003e cf1d febc 17f5 25be
00000020: 6ab7 593d 9a72 80bd 29a5 a6bd 1a5f a73d
00000030: cb42 fb3c d78d 0f3e 92c8 df3d 73c9 a03d
00000040: 5d04 ee3d 17e5 2bbe b83e 15be 6142 b23d
00000050: ab55 4c3d 3cf2 8e3d 4ea6 2a3e 0f84 b13a
00000060: 6e02 873d 4103 5abd bdd9 ffbc cf56 133d
00000070: 0c56 f53d 39a3 16be 7be8 f7bb 840a 003e
00000080: f81a 22bd f3c5 0c3e 748b 0f3c 2a23 af3d
00000090: 61c4 bf3d 58b0 15be 6b1b 753c d499 9a3b
000000a0: 4270 22be d50a 77bc 69e1 f93d 3ea7 cc3d
000000b0: 6bb4 24be 52b9 953d 0bea 7ebd 6786 02be
000000c0: 36e8 84bb 3ae8 ec3d 0cd0 823d d136 253d
000000d0: e772 e83d 6527 033d 4a77 08be ec9f 453d
000000e0: e0f4 60bd c829 a73d e70a c43d bd9b b33d
000000f0: de14 e83d 19ab a63d ebed ee3d 5a9a acbd
00000100: 390a d0bd 31e5 003e 317b 39bd 3945 95bd
00000110: 6ec8 b33d d14f 243e 652d afbd b7d7 1a3e
00000120: ca34 313d 6e5c b1bd 033e 2fbd 31b0 a2bd
00000130: f34a 79bd 6cf9 cc3d f7c1 c6bd 54f9 d3bd
00000140: e19e 0f3e 06f9 3fbd a467 09be 7c57 0f3e
00000150: 78ba c53d ec6a d83d 845a e2bc 52b2 af3d
00000160: ad44 83bc 26b9 53ba dbde 513c 2edd 8dbd
00000170: 3eca 443d b32d d23c 8916 24be 4e58 a33c
00000180: 5440 8239 4ece 55bb 3a45 23be 7312 033e
00000190: dc2a e53d 1180 1cbe 5233 7a3c accd 183e
000001a0: bd92 263d 971b ae3c a684 a83d 1d25 2c3e
000001b0: 55ac 53bc 0ce2 d8bd 0f50 ac3c 0cb0 1bbe
000001c0: ab70 47bd 0474 f73c 1821 00be f872 fd3c
000001d0: 1afd 1b3d b425 6f3d 7eeb b43a 7869 1fbe
000001e0: d3c4 34be 0d25 08bd e781 34be b0d0 1ebe
000001f0: 28f4 8cbd 9ba4 b4bd d7fa 0e3e 0b0e 323e
00000200: 8841 7e3b 9556 9fbd f426 55bd 5341 38bd
00000210: 54f2 eebd d280 253d 8639 603d fb72 ccbd
00000220: 8bc7 603d 44bb 223e cbfe 6bbb 0b14 d03d
00000230: 6253 62bc 3469 4abd 3f24 eb3d 36f0 aebc
00000240: 8bb9 d8bd 8651 153e 5e06 36be fb0f 853d
00000250: d456 453d 639d aabd b0b3 16bb 2aec 90bd
00000260: 1883 26bd fd20 17be c6ae 1abe f87d b1bc
00000270: fd3d a03d 0f08 89bd 8c60 153e 450d c8bc
00000280: 779f eb3d d3ff a1bd a3fb 253c 7f15 d33c
00000290: 0d41 14bd 73b6 2ebc dea1 bcbc ebc1 10be
000002a0: 7c8a 193e 26d7 1f3e 519c d23d 1158 c83d
000002b0: 473c 753d 1d3d 0c3d aced 963d e80e 273e
000002c0: 106c 18be d3be b0bd 9ef4 b03c fcc5 a33d
000002d0: bbce 5dbd 3ce1 1bbe 0eb4 a73d 8175 ef3d
000002e0: be5a c8bd 7214 5ebc cae4 d53d bad5 eb3d
000002f0: bcdd b5bd f88f e0bd f44d 4f3d b201 cbbc
00000300: 826b 5ebc d7b0 943d 7e27 2dbe 4ac4 0dbe
00000310: 1839 253e 0792 03be 7889 3a3e f0af edbd
00000320: bdc9 1fbd f905 fe3d 0941 203e 52b3 843d
00000330: c939 f2bd 2cd0 5cbd 27a4 0c3e bbe4 493c
00000340: 3525 14bd ec26 163e 0dad 063e 4309 c0bc
00000350: 0016 5f3d 82e9 e4bd 645b cc3d 31af 80bc
00000360: a464 d93d 0294 f83d a8bf 80bd b7fa 813d
00000370: 27f0 0d3d ccaa 35bd d261 0fbe 17b2 6a3d
00000380: f4ec 813d 2e97 053e 3f5b 2f3e 97b1 adbd
00000390: 244e 1bbc 74eb e6bc 3512 1abe e485 4dbd
000003a0: 1f27 ab3c 2ce9 9dbd 7b8a e63d 4461 263e
000003b0: 96f5 cc3d 37f0 85bd 1297 693d bbdd 2dbe
000003c0: c2ac 67bd 434f 073e 05ba a93d 526a b7bd
000003d0: 8c8b 8ebd a075 41bd 2b14 193e 56e1 373d
000003e0: 901e b2bd bcb5 f73d 5ccd 113d 6cc5 f33d
000003f0: f25b 26be 1a18 d63d 6f19 1c3d f09b 1cbd
-0.14395833 0.025052909 -0.14961037 -0.009120388 -0.07746847 0.12501462 -0.031020073 -0.16206776
0.053153433 -0.062718585 -0.081369705 0.08172436 0.030671498 0.14018951 0.109269276 0.078509234
0.11621926 -0.1678661 -0.14574707 0.08704067 0.049886387 0.06979796 0.16665003 0.0013543385
0.0659226 -0.05322576 -0.031231755 0.03597146 0.11979303 -0.14710702 -0.0075655556 0.12504011
-0.0395765 0.13747387 0.008761276 0.08551629 0.09363628 -0.14618051 0.01496015 0.004718045
-0.15863135 -0.015078266 0.12201197 0.099928364 -0.16084449 0.07310738 -0.06223492 -0.12746583
-0.004056002 0.11567731 0.06387338 0.04033548 0.11350041 0.03201999 -0.13326755 0.048248217
-0.05492103 0.08162266 0.09572392 0.08769939 0.11332105 0.08138103 0.11666473 -0.08427878
-0.101582 0.1258743 -0.0452835 -0.07288594 0.08778463 0.16046073 -0.0855358 0.15121351
0.043263234 -0.08660208 -0.04278375 -0.07943762 -0.060862493 0.10008511 -0.097049646 -0.1035029
0.14025451 -0.046868347 -0.13418442 0.13998216 0.09654707 0.10567269 -0.027631052 0.08578934
-0.016023958 -0.00080766005 0.012809481 -0.06926952 0.048044436 0.025656557 -0.16024221 0.019939568
0.0002484346 -0.0032624188 -0.15944377 0.12800007 0.111898154 -0.15283228 0.015271025 0.14922208
0.040667284 0.02125339 0.08228426 0.16811033 -0.012919505 -0.1058999 0.021034269 -0.15203875
-0.048691433 0.030206688 -0.12512624 0.03093861 0.038083173 0.058385566 0.0013803092 -0.15567577
-0.17653207 -0.03323846 -0.17627679 -0.15509295 -0.068825066 -0.088204585 0.13962875 0.1738817
0.0038796384 -0.07780186 -0.0520391 -0.044984173 -0.11667314 0.040406056 0.05474236 -0.09982868
0.0548778 0.15891749 -0.0036010023 0.10160073 -0.013813825 -0.049416736 0.11481523 -0.021354776
-0.105822645 0.1458188 -0.17775866 0.06497189 0.04817851 -0.083308004 -0.0022995286 -0.07076295
-0.040652364 -0.14758678 -0.15105733 -0.021666512 0.07824323 -0.0669099 0.14587611 -0.02442039
0.11505025 -0.07910123 0.010130796 0.025767086 -0.03619485 -0.0106636165 -0.023026403 -0.14136474
0.14994234 0.15609416 0.10283721 0.09782422 0.059871938 0.03423797 0.07369551 0.1631428
-0.14884973 -0.08630147 0.021601018 0.07996747 -0.05415223 -0.15222639 0.081886396 0.11692334
-0.09782933 -0.013554679 0.10444029 0.115153745 -0.08880183 -0.1096496 0.05061145 -0.024781082
-0.013575437 0.07260292 -0.16909596 -0.1384441 0.16135061 -0.12848674 0.18216503 -0.11605823
-0.039010752 0.12403483 0.15649809 0.06479515 -0.11827428 -0.053909466 0.13734494 0.0123226
-0.036168296 0.14663285 0.13151951 -0.023441916 0.05446434 -0.111773506 0.09978369 -0.015708538
0.10614899 0.12137605 -0.062865555 0.06346648 0.034652855 -0.044352338 -0.14002159 0.057298746
0.06344023 0.13045952 0.17124651 -0.08481138 -0.009479079 -0.028188445 -0.15046008 -0.050176516
0.020892678 -0.0771049 0.11256882 0.16248041 0.10007779 -0.06539958 0.057028838 -0.16979115
-0.05656124 0.1321383 0.082874335 -0.08955826 -0.0696021 -0.047231317 0.149491 0.04489263
-0.086972356 0.1209521 0.035596237 0.119028896 -0.16246012 0.10453816 0.038110193 -0.03823465

GAT_layers.1.GAT_heads.0.f.bias f4 [64]
00000000: 2a50 4b3d b63d 663d 6c15 1a3c 61f4 4fbd
00000010: 6e23 b0bd 8023 f8bd f493 88bd 1fb2 a93d
00000020: 1085 9abd 72f3 acbd 4811 903d 8fef 103d
00000030: 0247 07bd 6c2d 263d 5552 f43c 06af 4abd
00000040: ef16 2cbd ebdc 1fbd 0a69 3a3d 8400 27bd
00000050: 8aaa 183d a4d9 7bbc dcb6 0fbd 6c8b 4cbd
00000060: 915e cc3d 6586 203d 77bc 2dbd 074a 8cbd
00000070: ff61 a8bc df76 843c 8c6c 593b aa5f c53c
00000080: 89ba 02bd 1909 37bc bd85 643d 8d05 ac3b
00000090: e035 babd 3167 d63c f90a 6dbd 1667 9fbd
000000a0: 7451 5c3d 76f8 023d f158 68bc ced3 09bd
000000b0: fa9f 9a3d 13e2 6c3d 47ff e53b 4aae 943a
000000c0: 2582 15bd 8347 e23b e5f2 8a3d a860 5a3c
000000d0: 96c0 103c 05a1 d1bd da71 243d b4b9 26bd
000000e0: 44cb 813c 4808 60bc 7817 1bbd 1f3a d2bd
000000f0: 1334 5abd ca64 173c 8493 c33c 2cfd 7bbd
0.049636997 0.056211196 0.009404521 -0.050770167 -0.08600508 -0.12116146 -0.06668845 0.08285927
-0.07544911 -0.08444871 0.07034546 0.03538471 -0.033026703 0.04057066 0.029824415 -0.04948332
-0.04201406 -0.039029043 0.04551033 -0.040771976 0.037272014 -0.015371714 -0.035086498 -0.04993765
0.099789746 0.03919067 -0.042416062 -0.06850057 -0.02055454 0.016169963 0.0033176271 0.024093468
-0.031916175 -0.011171603 0.055791605 0.005249685 -0.09092307 0.026172252 -0.057871792 -0.07783334
0.053788617 0.031975232 -0.0141813615 -0.03364926 0.07550044 0.05783279 0.007018957 0.0011343446
-0.03650107 0.0069054975 0.0678461 0.013328709 0.008834979 -0.1023579 0.04014764 -0.040704444
0.015843995 -0.013673849 -0.03786418 -0.10264992 -0.053272318 0.009240339 0.023874052 -0.06152074

GAT_layers.1.GAT_heads.0.w.weight f4 [1, 128]
00000000: 475a 013e de17 2bbe 7d02 9d3d 1c2a 103e
00000010: cf6c 59be aa2e 83bd 5592 033e 9be9 b8bc
00000020: 5a47 38be e599 653d c3d1 0a3d 77f0 53be
00000030: a027 d33d 5058 d0bd 49c4 d43d 1021 8dbd
00000040: 2d46 a4bd ed63 563d b57b 59bd 3c74 6b3d
00000050: c8d6 f33c 4ad7 babd b9ce 2abe 45e8 223e
00000060: d056 bebd dcfa 35be f4a7 c13c 99e8 1f3e
00000070: 5077 fdbd ad6c 02be 76b8 a73c 6ac6 97bd
00000080: e24c f6bd dedc 48bd c249 0e3e 22f8 debd
00000090: 02a5 333d 70d6 f3bd 86b7 99bd 54e6 8d3d
000000a0: ab84 e73d ada2 a5bd f9d6 2f3e ea69 3ebe
000000b0: efd0 583e ebbb 403e 006b 473e 4465 3c3e
000000c0: 172a bb3c 0321 4e3e 6871 49bd f427 d8bd
000000d0: 06bf 953d 4558 4ebe 75e9 cbbd feb6 493e
000000e0: a3ab 543e fccc 3d3e a955 2ebe 3c7e dd3d
000000f0: 6bd6 4c3e 39e8 1d3e 1d00 413b b401 563e
00000100: 664d a7bc 99d1 4c3e 22e6 443e 30a2 dcbd
00000110: 0f96 3c3e 1661 20be 74f3 ae3d 0d30 50be
00000120: edd4 43be 3633 57be 9fe0 0bbe f43d 11bd
00000130: c8c3 1a3e d655 32bd 7bcc 9a3d eb8e 25bd
00000140: 15fc 1c3e e403 3a3d 6525 7e3c 68b2 50be
00000150: 7fa5 3dbe cddb 4b3d 5e27 4ebe b9c7 2cbd
00000160: ed40 57be 84db 79bd 0e82 c03b e971 b93d
00000170: 3aac eebd 777f a0bd 5fc2 1abe 1482 38be
00000180: 6e68 0e3e 9a65 85bd 8cb5 443e 22a7 34bd
00000190: 1197 49be 4769 583e 2c37 e2bd 45d4 f8bd
000001a0: 4dfe 2d3e 0e0e f4bd 1113 9bbd 2705 86bd
000001b0: 495e 153d 74a3 06bc d1dc ddbb 33f7 b13d
000001c0: bf94 11be 7bf0 1fbe c39a 693b 53b1 1ebd
000001d0: 6013 313e d3f0 77bd b711 08be bec7 08be
000001e0: 7b09 0ebe 70ff 463d fdea c6bd dd03 45be
000001f0: ab97 cd3b c0f8 1e3e 7d54 f53d 1a8f 003d
0.12632094 -0.16708323 0.0766649 0.14078563 -0.21232913 -0.06405385 0.1284879 -0.02257233
-0.17995968 0.05605497 0.03389145 -0.20697199 0.10310292 -0.10173094 0.10389001 -0.06891072
-0.080211975 0.05234139 -0.05309649 0.057483897 0.029765502 -0.091230944 -0.16680421 0.15908916
-0.09293902 -0.17771477 0.023639657 0.15616073 -0.12376273 -0.12736769 0.0204737 -0.07410891
-0.12026383 -0.04903876 0.13895324 -0.10887171 0.043858536 -0.11906135 -0.075057074 0.06928697
0.11304601 -0.080876686 0.1717185 -0.1859509 0.21173452 0.18821685 0.19474411 0.18398005
0.022847218 0.2012978 -0.04918042 -0.105544955 0.073118255 -0.2015086 -0.09956638 0.19698712
0.20768599 0.18535227 -0.17024864 0.10815093 0.20003669 0.15420617 0.002944953 0.20899087
-0.020422649 0.2000183 0.19228414 -0.10773122 0.18416618 -0.15662035 0.08542529 -0.2033083
-0.19124193 -0.21015629 -0.13659905 -0.035459474 0.15113747 -0.04353889 0.07558533 -0.0404195
0.15330537 0.045413867 0.015511845 -0.20380557 -0.18520163 0.049770165 -0.20132205 -0.042182658
-0.21020861 -0.061000362 0.0058748787 0.0905493 -0.11653943 -0.07836812 -0.15113209 -0.18018371
0.13907024 -0.065135196 0.1920988 -0.044104703 -0.19686534 0.2113391 -0.110456795 -0.12149862
0.1699154 -0.11916743 -0.07571996 -0.065439515 0.03646687 -0.008217681 -0.006770708 0.08689728
-0.14216898 -0.1561908 0.0035645224 -0.03874333 0.17292547 -0.060532402 -0.13288008 -0.13357446
-0.13870804 0.048583448 -0.09712789 -0.19239755 0.0062741837 0.15524578 0.119790055 0.031386472

GAT_layers.1.GAT_heads.1.f.weight f4 [64, 128]
00000000: e6dd c83d 466c 073e e28b 523e 758c 1abe
00000010: a660 98bd 8d05 0a3c 6eec c1bc b3cf 10bd
00000020: 1039 493e 1509 553e 1912 e13c 5340 f83c
00000030: e127 2a3e a7be 5fbd fe26 c73d d290 533d
00000040: 4899 b23d 68ea dc3d c742 2b3e 10af 87bd
00000050: 00a0 2d3e cebb 19be 34ce 4f3e a378 643e
00000060: f0d6 9c3d 0b2c e93d d7fa fb3d f383 89bd
00000070: 9e26 043e c160 113e 79bc a5bb ce1f d53d
00000080: 9aa0 9e3d d28f 413d 7b33 693d 077f b8bd
00000090: e5b6 64bd 1a06 b0bd 9cec 83bd 9fdc 02be
000000a0: a6a0 523d cbd1 983d 0913 223e 045b dfbd
000000b0: cbfd 02be fba1 9c3d 64c9 f0bd 3677 fb3d
000000c0: c608 68bc c728 943d 3fd1 51bd 2199 643d
000000d0: 3983 83bd 9bee c63d de1b 2abd da79 d9bd
000000e0: 5c6d 073e f731 d8bd 26b0 8e3d 7276 323e
000000f0: 536e f33d 6f29 19be 79b2 14bd c812 2d3e
00000100: c25b c83c 164e 3abd 74fb 17bd 647c 623d
00000110: 290e d43c 8465 e93d b5fa 21be e3e4 923d
00000120: da57 83bd 8ff5 99bd 75fa 58bd 83f0 053d
00000130: 9efb 373d cd4a 123e 969f 22bd abaf adbc
00000140: 96fc 32be a602 033e 4247 dbbd bc1f a53d
00000150: ec87 2e3c 3493 97bd b96a c4bd 8914 fdbd
00000160: 9a89 303d d040 8f3c 956b 063e 234e ba3d
00000170: ac62 c3bd 6f2c 0f3d fc5b 653b 9cb4 a23c
00000180: 398c 84bd ec4d 95bd 11cd 0d3e 8328 04bd
00000190: 38f7 303e 3408 c33d ea78 09bd 4ec4 fcbd
000001a0: f050 183e 14b8 0abe e37c c6bc 71c8 e5bd
000001b0: 0941 8abd 2696 183e 0b55 50bd 558b 19be
000001c0: 18c9 6cbc a371 d6bd 3b56 163c 932d 4f3d
000001d0: 784f 8d3b 651a 333d eab3 5f3d 2a77 bebd
000001e0: eae3 3b3e 57eb b2bc 0e59 823d 3d9e a6bd
000001f0: 4c73 b63d 8191 22be 2260 d03b 6e2f b53c
00000200: b386 023e 9f2a a1bd ba2b babd 99a7 fabc
00000210: de9e d93b 4605 a2bd aa42 60bd 93b1 033e
00000220: c85e e2bc b14d 17be b27a 31be 47ff e7bd
00000230: 351c 5ebd 2ead b43c 3f53 0c3e c4f5 063c
00000240: 3449 d5bd 2f68 08be 6dcb 52bd 3d41 673c
00000250: f7f6 98bd 6826 a8bc eb02 d03d 5430 22bd
00000260: 2758 05bd 76ac 23be 268f d23d c757 96bd
00000270: 9bee f73d 2acd 953d 852e 26be 1831 a5bd
00000280: acc3 ce3c 68e6 04be 2b71 b9bd 3317 cc3b
00000290: af16 fabc 2b04 edbd a02a 1a3e 5639 e2bd
000002a0: 31c9 b3bd 6c80 cc3d 3f3d 64bd 0051 24be
000002b0: 58c9 583d 7d28 883d e8e1 f73d b2df c93d
000002c0: e565 72bd 8b77 20bd a9f5 92bc 495f cc3d
000002d0: 8295 3f3e c737 90bc f4ec 05bd b4f4 89bd
000002e0: d18a c33b 658e 3cbe 261b fbbd c2df 733d
000002f0: a600 c2bd 9cec 21bd 9b5b 083e 4974 12be
00000300: a097 5cbd 77f5 0bbe e072 3abe 6a91 cbbc
00000310: f3ee 9c3d fab4 33be dd47 fcbd 7d6d e2bd
00000320: 4c9d a2bc b7fd 15be 9410 0a3e 4336 ef3d
00000330: 07b8 e8bc 1a96 ad3d 9dbe 283d c64e 8bbd
00000340: b463 63bd 0a4f 17be 3dd0 ce3d 64c0 123e
00000350: 6aa8 193e 9d3d a73d 042d ff3d d246 1e3e
00000360: f889 5c3d 0dd9 30be c5fb bc3d ecc8 e23d
00000370: 223a f93d 7051 42bd abc8 173e 9626 1b3e
00000380: 0ade 1abc 5c71 dfbb 2a93 9ebd 24e1 fb3b
00000390: 9ae5 14be 0af9 4d3c 1284 c0bd 1e53 873d
000003a0: c14a 463d 2155 1fbe 19c2 213e 7c06 b13c
000003b0: 89cf 1ebe cba7 dd3d a2d1 5bbd 6e4f 15be
000003c0: f2ec c23c ee84 193e f167 103d 2a2b 363d
000003d0: 03a6 133e c9d1 0dbe 0f3a 17be 293e a6bd
000003e0: 4b43 02be 9261 62bc e198 403e 8fa8 a03d
000003f0: c373 debd 40ef 0fbe 6564 e2bd 3706 26bd
0.09807949 0.13224897 0.20561174 -0.15092643 -0.07440309 0.008424175 -0.023672309 -0.035354327
0.19650674 0.20804246 0.02747445 0.03030411 0.16616775 -0.05462518 0.09724234 0.051651783
0.08720642 0.10786897 0.16724692 -0.066251874 0.16955566 -0.15013048 0.20293504 0.22311644
0.076581836 0.11385354 0.12303703 -0.067146204 0.12905356 0.14197065 -0.005057868 0.10406457
0.07745476 0.0472563 0.05693386 -0.090086035 -0.055838484 -0.08594914 -0.06441614 -0.12779473
0.051422738 0.0746189 0.15827574 -0.10906032 -0.12792127 0.07648083 -0.11757162 0.12278597
-0.014162248 0.0723434 -0.051224943 0.055810098 -0.06421513 0.09713479 -0.041530482 -0.106189445
0.13225311 -0.10556405 0.069671914 0.17427996 0.11886277 -0.14957212 -0.036303017 0.16901696
0.024457816 -0.045484625 -0.03710504 0.05529441 0.025885658 0.11396316 -0.15818293 0.07172563
-0.06413241 -0.0751754 -0.05297323 0.032700073 0.044917695 0.14286347 -0.039702974 -0.02120193
-0.17479166 0.12793979 -0.10706951 0.080626935 0.0106525235 -0.07401124 -0.09590668 -0.123574324
0.043099977 0.01748696 0.13126977 0.09096935 -0.095403045 0.034954485 0.0034997454 0.019861512
-0.06472058 -0.07290253 0.13847758 -0.032265197 0.17281806 0.09523049 -0.03356258 -0.1234213
0.14874625 -0.13546783 -0.024229473 -0.11219872 -0.06750686 0.14901027 -0.050862353 -0.14994557
-0.014452241 -0.10470893 0.009175832 0.050580572 0.004312452 0.043726344 0.05461494 -0.093000725
0.18348661 -0.021840734 0.06364642 -0.0813565 0.0890871 -0.15875818 0.006359116 0.022117343
0.12746696 -0.078694575 -0.090903714 -0.030597495 0.006641253 -0.07911162 -0.054751076 0.12860708
-0.027633086 -0.1477573 -0.17331961 -0.11327987 -0.05422612 0.022055235 0.13703631 0.008237306
-0.10414353 -0.13320993 -0.051463533 0.014114675 -0.0746898 -0.020526126 0.101568066 -0.03959687
-0.03255477 -0.15983757 0.1028121 -0.07340961 0.12106057 0.073145226 -0.16228683 -0.080660045
0.025239788 -0.12978518 -0.09054788 0.0062283515 -0.030528395 -0.115730606 0.15055323 -0.11046092
-0.087786086 0.09985432 -0.05572247 -0.16046524 0.05292639 0.066483475 0.12103635 0.098571196
-0.059179205 -0.039176505 -0.017939406 0.09979112 0.18709376 -0.017604722 -0.03269668 -0.067361265
0.005967476 -0.18413694 -0.122610375 0.059539564 -0.0947278 -0.03953229 0.13316195 -0.14302172
-0.05385554 -0.13667856 -0.18207884 -0.024849612 0.076627634 -0.17549506 -0.12318394 -0.110560395
-0.019850396 -0.14647566 0.13482887 0.116802715 -0.028408064 0.08475895 0.041197408 -0.06802134
-0.055515006 -0.14776245 0.10098312 0.14331204 0.15005651 0.08166049 0.12459758 0.15456703
0.053842515 -0.17270298 0.09227709 0.11073479 0.12169291 -0.047440946 0.14822643 0.15151438
-0.009452352 -0.0068189334 -0.07742913 0.007686751 -0.14540711 0.012571583 -0.094001904 0.0660765
0.048411135 -0.15559818 0.15796699 0.021609537 -0.15508856 0.108230196 -0.05366672 -0.14581081
0.023794625 0.14992115 0.035255376 0.04447476 0.14418797 -0.13849558 -0.14768241 -0.08117325
-0.12720983 -0.013817208 0.18808319 0.0784465 -0.108619235 -0.1405611 -0.11054305 -0.04053327

GAT_layers.1.GAT_heads.1.f.bias f4 [64]
00000000: 9330 bc3d db05 673d a374 46bd c3f0 bd3c
00000010: a4d5 cb3c f1e0 eabc ba05 98bd 7363 103d
00000020: e7ac 56bc 70b8 1bbc da65 3bbc 5d90 a23d
00000030: 0b8d 27bd ef79 86bb cb4d 4f3d f3b8 a1bd
00000040: 3353 8e3d 1972 88bc 3490 0dbb 7037 b6bd
00000050: 2341 d43d 92af 96bc e4ae 023d 9d9b debc
00000060: e6a5 5fbd 1bb9 74bc 7ea9 15bd 86cc 0c3c
00000070: a578 5dbd a627 703d c404 5e3d df6b 28bd
00000080: f15b 8fbd b502 f0bd 42ee 243d 205a 8d3d
00000090: fc9c 8a3c d025 87bd be8e 15bd fe27 253d
000000a0: c261 543d 3082 85bd 2ad3 d63b 4461 4f3d
000000b0: 3e7f fc3c e0f8 b83c 90cb 92bd 7bfe 5e3b
000000c0: ecfb 893d eba8 eebc 54f0 763c 1a3d 85bd
000000d0: d741 8d3d 6390 d13d f82a e0bd c7eb 44bd
000000e0: 5de5 84bd 0078 583d ccbb 63bc 1f6c a63b
000000f0: 45f2 803c 6ad7 78bd 2308 72bd 4586 053d
0.09188952 0.05640207 -0.048451077 0.023186093 0.024882145 -0.028671714 -0.07422967 0.035251092
-0.013102747 -0.009504423 -0.0114378575 0.07937691 -0.040905993 -0.004103891 0.0506113 -0.078966044
0.06949463 -0.016655969 -0.0021600844 -0.088972926 0.10363986 -0.018394265 0.03190507 -0.027173812
-0.054601572 -0.014936711 -0.036538593 0.008593684 -0.054070134 0.05863156 0.054203764 -0.0411185
-0.06999958 -0.11719266 0.040266283 0.069019556 0.01692056 -0.06599009 -0.036513083 0.040321343
0.05185104 -0.06518972 0.0065559344 0.05062987 0.030822393 0.02257961 -0.07167733 0.0034026194
0.067375034 -0.02913328 0.015071947 -0.06505795 0.068973236 0.10232618 -0.10945696 -0.048076417
-0.0648906 0.052848816 -0.013899755 0.005078807 0.015740523 -0.06075231 -0.05908979 0.032598753

GAT_layers.1.GAT_heads.1.w.weight f4 [1, 128]
00000000: a932 dfbd 2b88 fd3d 737b 633e bed7 693d
00000010: 4d1b 44be 9ddd fe3c bbce 08be 3ada 45be
00000020: 325d 6bbd 070e 8fbc acef 5dbd 95cb 033c
00000030: 7b71 26be 6bac 39be 4c22 353e 6c5e 94bc
00000040: f156 dd3c 3155 803d 0da2 cf3d bd1f 51be
00000050: 60ed 22be 8d91 0e3e 90c4 833d f4a2 c33c
00000060: 983f 48bc 9f33 9dbc 755d 713c c6f5 78bd
00000070: cc98 f73d c521 41be 89c9 3cbd 1aea b33d
00000080: e8f4 e2bd 4819 bfbd 093d e53d bbf6 80bd
00000090: 2fa0 4c3e 7d7b 8bbd d1ea 3a3e 7453 9dbd
000000a0: e900 d43d 937c 8a3c e6fa 12be a1d3 19bd
000000b0: 7adf 093e d966 3a3e 1dba 4e3e 3623 523e
000000c0: d9fc 48be b468 adbd ee46 103e 7e00 33be
000000d0: 3707 57bd 06ef 103e f685 e23c f7cf 373c
000000e0: c3a4 843d 2cee 813d 8b1f 373d 17ed c33d
000000f0: 85fc 3bbe db2c e93d 9466 e83d 448a b0bd
00000100: fb2e 443e 3246 19be 8315 9e3d bc3d 423d
00000110: 6b2b 1dbd 5a65 d5bb 0e08 dbbd e2df b83d
00000120: 4e6b 0f3e 5b42 29bd 597b 67bd 8cb1 f8bb
00000130: 02cb fb3d b2a9 d43d 0b4f e03d 2eb6 85bd
00000140: 9efa 04bd 2374 a93d 730a ecbd a7a2 4d3c
00000150: 364f 9fbd 0190 063e 0ec6 ce3d 3279 b7bd
00000160: 82fc bcbd 5de0 b4bd 82e1 6bbd 80e2 383e
00000170: a157 1c3e 1292 013e 92bb 15be a487 6b3d
00000180: f8b0 0d3e 4c21 e23d 1c64 3a3e f45b f3bb
00000190: 2410 b13d 187c 5cbc e78b 2cbe e55a 4fbe
000001a0: e420 6d3d ce5f 17be cb2d b93d 4f3c acbd
000001b0: 83f0 2fbd 9285 503e 5513 213e e0a2 2e3d
000001c0: ab5e 0ebe 4f57 cf3d bcf5 11be aff5 043e
000001d0: 1d84 cf3d 952f 55be fe25 413d 8cea 3b3e
000001e0: b56e 14be 71f1 5bbe 1604 edbd 3a07 42bd
000001f0: 2db2 51bc 79d2 15bd b88c 303e 69c5 88bd
-0.108983345 0.123794876 0.22215061 0.057090513 -0.1915104 0.031111533 -0.13360111 -0.19321528
-0.057461925 -0.017462743 -0.054183647 0.008044143 -0.16254227 -0.18132178 0.17688864 -0.01811143
0.027018996 0.06266249 0.101383306 -0.20422263 -0.15910864 0.1392271 0.06433976 0.023881413
-0.012222193 -0.019189654 0.014731755 -0.060781263 0.120896906 -0.18860538 -0.046090636 0.08784886
-0.110818684 -0.09330994 0.11193282 -0.0629706 0.1998298 -0.06810663 0.18253638 -0.07681933
0.10351736 0.016905105 -0.14353523 -0.03755534 0.13464156 0.18203296 0.20188184 0.20521244
-0.19627704 -0.08467236 0.14089558 -0.17480657 -0.052497115 0.1415368 0.027651768 0.011219016
0.06476738 0.06344256 0.044707816 0.09566706 -0.18358047 0.113855086 0.1134769 -0.08620122
0.19158547 -0.14968184 0.07718947 0.047422156 -0.038371485 -0.006512326 -0.10694896 0.09027077
0.14005777 -0.041323047 -0.056514118 -0.0075895246 0.1229458 0.10383929 0.10952576 -0.06528889
-0.03246557 0.082741044 -0.115254305 0.012550986 -0.0777878 0.1314087 0.1009637 -0.08958663
-0.092278495 -0.088318564 -0.057588108 0.18055153 0.15267803 0.12653378 -0.14622334 0.057502404
0.1383704 0.11041507 0.18202251 -0.007426733 0.08645657 -0.013457321 -0.16850244 -0.20249517
0.057892695 -0.1478264 0.090419374 -0.084099405 -0.04295398 0.20363453 0.15730031 0.0426358
-0.139033 0.10124075 -0.14253896 0.12984346 0.101326205 -0.20818932 0.047155373 0.18351191
-0.14495356 -0.21478821 -0.11573045 -0.047370173 -0.012798828 -0.036577675 0.1724118 -0.06678278

GAT_layers.1.GAT_heads.2.f.weight f4 [64, 128]
00000000: 6bdf 473d a753 04be 68ba 24be 3576 083e
00000010: eddf a2bd 3321 00be 50ba 7d3d 2393 143e
00000020: 5565 fc3c 655f 40be c4a0 46be 9aab 143e
00000030: 2ed2 3cbe 7031 83bd 6148 b7bd 9ddd 273e
00000040: a6ee f63d d281 15be 28ac 0e3d 2913 03bd
00000050: c783 883c 7fcf 1abe 553a 96bd 81f2 103d
00000060: c7e9 2dbe 1c02 22bc 3a77 26be 1ab1 e8bd
00000070: 7488 743d f08e 1c3d 2a71 ddbd d57b c6bd
00000080: 1a29 123e c0b8 0fbe 8551 8abd f681 16bd
00000090: 0e14 913d 69a1 15be 04c3 093d 333c 0dbe
000000a0: da31 93bc fe46 58bc a4e4 953d c423 ac3d
000000b0: 3654 f23d a78f b13d 97c4 dcbd d7e3 1cbc
000000c0: dcba 983d a0fd 1d3d 5e85 0d3d 8383 143e
000000d0: c662 20be d865 9c3d d549 66bd eae3 e23c
000000e0: 1b20 073d 0d63 483d 9aad 10be 1bd7 f6bd
000000f0: c29d 003e d6fa 953d 1e18 b73c 2d22 7ebd
00000100: 5bf4 cfbd e34b a33c b7d9 cd3c 7603 583c
00000110: ed8a 28bd 0314 1dbe de4f e53c dbc1 e1bc
00000120: eaa7 15be 06af bb3d ebda e8bc ba74 303e
00000130: da12 083e 5460 01be ec5a 2abe 9aac 41bd
00000140: a386 c6bc 6350 3ebd 2141 2cbc aa1c c6bd
00000150: 2a97 2c3e 641c e0bd b197 013e c0f0 013e
00000160: e1b3 9abd a639 83bd 00e5 1d3d 0910 e1bd
00000170: c071 e93d 7690 c0bd 1690 80bc a76b f5bd
00000180: c3c1 c1bd 436c 06be c33f a43d 8d90 ed3d
00000190: a757 693d e1a9 a5bc 4da0 2fbe 04e2 ba3d
000001a0: c89b 103e 85d1 a3bd 01c3 e4bd c44c f4bd
000001b0: 56ad 90bd 1d46 a6bd e39f 0bbe 3bc5 023e
000001c0: 883a 143d 7397 adbc ed1f 2cbe b229 53bd
000001d0: 44bd b03d 8492 8dbd 95ff 443d 8b9f 30be
000001e0: 4b17 303e eba4 963d 1be0 423d 8055 fdbd
000001f0: 6b0e 26bd 1c6f 233d c3ee 97bd 764a e43c
00000200: dab2 8dbd 03f7 b5bd ae57 03bd 4533 e2bd
00000210: 3a05 1e3e c180 1b3e ef63 d6bd 4c0d 16bd
00000220: 4039 033e 4bf4 1a3e a00f 1f3e 5bd1 1dbe
00000230: 75ab 91bd 6936 2dbe 224b ccbd 1558 933b
00000240: 9fcc c53a 33e7 22be 2654 153e a563 68bd
00000250: 44ba fabc 9e47 7cbd e7b8 053e 908d bcbc
00000260: 1f47 d83d 77d9 2b3e 270e 53bd 810f 38be
00000270: 5c32 63bc be92 2d3e 7089 c33d 0712 c03d
00000280: 645f 2f3e 8afc 163e 9770 86bd 3c5e bbbb
00000290: bd68 a93d 5213 a93d 3d1f 243e bdf7 2f3c
000002a0: 862b 803c f398 ac3d 7e70 18be 125d 1c3d
000002b0: 00bd 173d 68bf 0fbe 4b64 dc3d a762 9ebc
000002c0: 0912 1c3e 8e33 c5bd fa95 82bc a3c9 103e
000002d0: cde1 d0bd 4534 dfbd 86a1 8e3d b3e7 8bbd
000002e0: fd04 a7bd c839 533d b19a bd3d 8446 0abe
000002f0: 3753 d7b9 af0b 94bd 54ca 40bd 46d2 42bd
00000300: 780e 213e 2e7d f4bd 09f0 f13d 23b8 6b3b
00000310: 34d4 1f3c 576f 09be 726b 33bd 9dd5 063e
00000320: 9670 cc3d 27d2 e4ba ca06 18be cde8 26be
00000330: 2bc1 18be fd32 323e 2e1c 28be 57e7 243e
00000340: aa50 d53c 85b3 21be fb97 eb3c 7dfe 07be
00000350: 2a54 123e ca48 e93d 7c79 1d3d 73fe ca3d
00000360: 6752 783d 7485 e63d d6b5 1abd 0da1 d03d
00000370: 9d78 cd3c 584f 87bd 3b83 593c eed6 02be
00000380: 61c3 983c 3b35 c43d 3c29 993d 2565 013e
00000390: a7ec 993d 0487 e7bc aa2c d1bc 45c0 153e
000003a0: bf27 583d 6624 d6bc 2474 9a3d 371f 5c3d
000003b0: 777f 21be 85e0 263d 6cf4 27bc e862 dbbd
000003c0: 1d2f 2f3e 8148 08be 49fb c2bc 1efe 0fbd
000003d0: 97a9 b63d 9e69 2d3e 477f c83d 1492 143d
000003e0: f315 16be 27d7 8e3d dbac 01be 502b a63d
000003f0: e2cd 6b3c 2db2 2d3e 97d9 8fbd 6578 0fbe
0.048797052 -0.12922536 -0.16086733 0.13326342 -0.07952867 -0.12512664 0.06194526 0.14509253
0.030810038 -0.1878639 -0.19397265 0.14518586 -0.18439552 -0.06405914 -0.08949352 0.16393133
0.12057237 -0.14600304 0.03483215 -0.032000694 0.016664399 -0.15118216 -0.07335345 0.03538752
-0.1698371 -0.009888198 -0.16256419 -0.113619044 0.059700444 0.038222253 -0.108126 -0.09691588
0.14273492 -0.1403532 -0.0675383 -0.036745034 0.07083903 -0.14612354 0.033633247 -0.13792495
-0.017968107 -0.01320052 0.07319 0.08405259 0.11832468 0.08669978 -0.10779684 -0.009575806
0.074575156 0.038571954 0.034551017 0.14503293 -0.15662679 0.07636613 -0.056222755 0.027696569
0.032989603 0.048922587 -0.14128724 -0.12052747 0.1256018 0.07323234 0.022350367 -0.06204431
-0.10154029 0.019933647 0.025128229 0.013184419 -0.041148115 -0.15339665 0.027992185 -0.027558258
-0.14614835 0.091642424 -0.0284247 0.17232028 0.13288441 -0.12634403 -0.16636246 -0.047283746
-0.024234122 -0.04646338 -0.010513575 -0.09673436 0.1685454 -0.10942915 0.12655522 0.12689495
-0.075538404 -0.0640748 0.03854847 -0.109893866 0.11398649 -0.09402554 -0.015693706 -0.11983424
-0.09460785 -0.13127236 0.08019974 0.115998365 0.056968357 -0.020222606 -0.17150994 0.0912514
0.14121926 -0.07998947 -0.111700065 -0.119287044 -0.07064311 -0.08118842 -0.1363521 0.1277055
0.036188632 -0.02119038 -0.16809054 -0.051553436 0.086298496 -0.06912711 0.048095305 -0.17248361
0.17196386 0.07355674 0.047577005 -0.123698235 -0.040541094 0.039900884 -0.07418587 0.027867537
-0.06918879 -0.08885004 -0.03206604 -0.11044935 0.15431681 0.15185834 -0.104682796 -0.036633775
0.12814808 0.15132253 0.15533304 -0.15411894 -0.07112781 -0.16915287 -0.09975268 0.004496584
0.0015090889 -0.15908508 0.14582881 -0.056735653 -0.030606396 -0.061591737 0.13058816 -0.023016721
0.1056044 0.16782175 -0.05152717 -0.17974664 -0.013866987 0.16950509 0.095476985 0.093784384
0.17126232 0.14744774 -0.065644436 -0.0057180207 0.0827193 0.08255638 0.16027541 0.010740218
0.015645754 0.0842761 -0.14886662 0.038174696 0.03704548 -0.1403786 0.10761317 -0.01933415
0.15241255 -0.09628974 -0.015940655 0.14139418 -0.10199318 -0.108986415 0.06964402 -0.068313025
-0.08155248 0.051568776 0.09258021 -0.13503462 -0.00041069995 -0.07228791 -0.047067955 -0.047563814
0.15728176 -0.11937939 0.11813361 0.0035967908 0.009755183 -0.13421379 -0.04380364 0.13167424
0.099824116 -0.001745765 -0.1484634 -0.16299744 -0.14917438 0.17402263 -0.16417 0.16103874
0.02603944 -0.15791138 0.028758993 -0.13280673 0.14289919 0.113908365 0.038445935 0.099118136
0.06062546 0.11255923 -0.03777107 0.10186968 0.025081927 -0.066069305 0.013275917 -0.12777302
0.018647851 0.095804654 0.07478568 0.1263624 0.07515841 -0.028262623 -0.025533993 0.14624126
0.05277228 -0.026140403 0.07541683 0.053740706 -0.1577128 0.040741462 -0.010251146 -0.10712224
0.17107816 -0.13308908 -0.023801463 -0.035154454 0.089190654 0.16934821 0.09789901 0.036272123
-0.1465681 0.06974631 -0.12663595 0.0811373 0.014392348 0.169625 -0.07023924 -0.1401077

GAT_layers.1.GAT_heads.2.f.bias f4 [64]
00000000: 3436 ab3d 3c11 dc3c 9d86 39bd 8113 a13d
00000010: b802 a0bb 4ab4 643d 71fe b13d f0dd 583b
00000020: 419c a33d e076 3f3c 0ddf ee3c 725f c1bd
00000030: d565 963c 65e6 d73c 4af9 32bc ad5a 76bd
00000040: 5029 9cbd b486 8bbc f540 bf3c f808 94bc
00000050: 5d47 8cbd ace7 ac3c 3712 47bd 078c 50bb
00000060: 4813 adbd 1cc3 17bd 46a8 d2bb f0b8 6cbd
00000070: afef d33c d4d5 2dbd 8300 94bd bd7d 1dbc
00000080: cdd2 58bd 8f88 a53d 3dc6 a3bd 06e4 4a3d
00000090: 32ff 6c3d 2779 3f3d 8f6f 07bd 00ec 813d
000000a0: b3b3 05bd edf8 7e3d 8a44 de3c 440e 023d
000000b0: b9c8 9d3d 29ab 033d 9c65 f9ba 856b 76bd
000000c0: 5a3d 553d c467 3e3d 39f0 a2bd 52c0 31bd
000000d0: ae51 eabc 28fc 273c c1df acbc 9b4a 95bd
000000e0: 9c1b 98bd 8fec 6abb fe3e dcbd 4125 7f3d
000000f0: 14d6 97bb 0c9c aebd 6121 e53c 5c05 e73c
0.08359948 0.026863687 -0.045294393 0.07865048 -0.0048831366 0.055836 0.08691109 0.003309127
0.079887874 0.011686057 0.029159093 -0.09442033 0.018359104 0.026354978 -0.010923693 -0.06014507
-0.07625067 -0.017032005 0.023346404 -0.018070683 -0.06849549 0.021106564 -0.048601355 -0.0031821744
-0.08450943 -0.037051305 -0.006428751 -0.057793558 0.025871126 -0.04244025 -0.0722666 -0.009612498
-0.05293541 0.08082687 -0.07996795 0.049533866 0.05786056 0.0467464 -0.033065375 0.063438416
-0.032642078 0.062249113 0.027132291 0.031751886 0.077043004 0.032145653 -0.0019027474 -0.060161132
0.052060463 0.046485677 -0.07955975 -0.0433963 -0.028603401 0.01025299 -0.021102788 -0.072896205
-0.07427141 -0.0035846566 -0.10754202 0.062291387 -0.0046336744 -0.08525857 0.027970018 0.028200798
