SLIC_GAT/last6.pt (torch, 80373 bytes, 12 tensors)

GAT_layers.0.f.weight f4 [32, 124]
000000 ec 3c 0e 3e 8b 25 2e bd 3a e8 49 3c 1c 52 95 bd
       0.13890427 -0.042516273 0.0123234335 -0.07291052
000010 87 e7 cd 3d 8f 47 79 bd 90 b7 77 3d 72 bf 54 be
       0.10053926 -0.06085926 0.060477793 -0.20776156
000020 e1 36 d1 bd c0 5c 98 bd c4 97 f3 3c 1b d1 df 3d
       -0.102155454 -0.07439566 0.029735453 0.109285556
000030 11 08 ff bd 6f a9 a5 3d 2b 3e 3d be 68 9d 25 3d
       -0.124527104 0.080889575 -0.18480746 0.040433317
000040 09 21 97 bc 71 fd 04 3d 47 3e 13 3d 75 c2 01 3e
       -0.01844837 0.032468263 0.035948064 0.12671836
000050 65 c2 8f 3d e8 1e e5 bd e9 3c c5 bc a8 fe 37 be
       0.070195 -0.111875355 -0.024076896 -0.17968237
000060 04 d3 a8 bd f1 cc 83 3a 0e d3 25 3d 09 63 ea bd
       -0.08243373 0.0010055584 0.04048448 -0.11444671
000070 02 9d fa bd a3 01 ee 3d f2 69 eb bd 74 d5 e8 bd
       -0.12236978 0.11621406 -0.11494817 -0.11368838
000080 25 7b bf 3a ec b6 52 be a3 68 81 3d f5 ac b0 bc
       0.0014608843 -0.20577592 0.06318786 -0.021566847
000090 a1 06 8b 3d a3 0f 7e bd 7e c4 b1 3d ee 01 ef 3c
       0.06788374 -0.06202663 0.08680056 0.029175725
0000a0 e8 0c 8b bd c5 15 8e bd 52 27 8e bd 33 a3 02 be
       -0.06789571 -0.06937746 -0.069410935 -0.12757568
0000b0 83 2d ab 3d 8c 16 14 3d 89 58 21 bd 80 e4 7f 3d
       0.0835829 0.036154315 -0.039391074 0.062473774
0000c0 91 9e 16 3e 11 a8 a5 3d e8 16 84 3d 77 11 ba bd
       0.14708926 0.08088697 0.064496815 -0.090853624
0000d0 5b f2 cf 3d f3 60 64 3d c1 b1 95 bd c1 2b 14 be
       0.101536475 0.05575652 -0.073092945 -0.14469816
0000e0 e4 75 20 3e a0 cb 37 3e 7a 90 d5 bd 5d 83 0f 3e
       0.15669972 0.1794877 -0.10427947 0.14014955
0000f0 29 0d d5 bd a1 f2 22 3e b9 3d 20 3e 0c 3c f1 bd
       -0.10402901 0.15912868 0.15648545 -0.11779031
000100 da b3 34 3e 2d 68 da 3d a4 89 db bd 29 8d fa bd
       0.17646733 0.10664401 -0.10719612 -0.122339554
000110 0e 1b 6f 3d 91 bb e4 bc f6 a4 01 3e b9 fa 53 bd
       0.05837541 -0.02792147 0.12660584 -0.05175278
000120 7a b9 31 bd 72 c3 8b bc 14 5f 31 bd f8 93 e2 3d
       -0.043389775 -0.017060969 -0.043303564 0.11063379
000130 96 ac 2e be 0d 99 a7 3d 02 66 d2 3d a8 83 22 be
       -0.17058024 0.08183489 0.10273363 -0.15870535
000140 b7 b6 a9 bc 16 05 55 be 69 df cc 3d 89 d9 86 3d
       -0.020717008 -0.20802721 0.100035496 0.0658446
000150 dc 07 87 3d c1 02 ef 3d 9a e1 23 be 81 2b db 3d
       0.06593296 0.11670447 -0.16004029 0.10701657
000160 82 21 44 be 86 77 12 bd 97 23 af bd c8 3b ba 3d
       -0.19153407 -0.035758518 -0.0855171 0.090934336
000170 db de a1 3b db 6d e4 ba 4b 6a 1f bd d9 49 a2 3d
       0.0049398965 -0.0017427759 -0.03891973 0.079242416
000180 93 04 dd bd 46 59 18 3e 89 68 cb bd 33 99 b1 bd
       -0.10791888 0.14877805 -0.09932048 -0.086717986
000190 ba da a3 3d 68 15 1b bd 91 c4 81 bd d9 76 39 3e
       0.08000703 -0.03786221 -0.0633632 0.18111743
0001a0 fb d6 90 bd 26 1f 31 3e 9d 75 ba 3d 40 d0 dd bd
       -0.07072254 0.17297038 0.09104464 -0.10830736
0001b0 6e 3c 8c bd c3 db 56 3d 63 31 36 3d 9e f0 d4 3d
       -0.068474635 0.052455675 0.044480693 0.103974566
0001c0 1d c6 90 bd ae 9a be bd dc 15 26 be 84 65 3b 3e
       -0.07069037 -0.093068466 -0.16219276 0.18300444
0001d0 b5 54 bc 3d 9c a7 02 3e 33 11 a8 bd 05 34 a8 bd
       0.09195844 0.1275925 -0.082064055 -0.08213047
0001e0 5e 09 75 bd db 18 96 3d 7f a4 13 3e d7 55 f5 bd
       -0.059823386 0.073289596 0.14418219 -0.11979263
0001f0 8b 5d 2c be d7 58 23 3d 7e 4a 8a bb 47 60 0b be
       -0.16832559 0.039879646 -0.004220306 -0.13610946
000200 e8 30 f5 bd 4a 76 96 bc 20 79 d8 3d 1d 16 98 3d
       -0.11972219 -0.018366951 0.10569978 0.07426093
000210 b5 87 6f 3d 42 bd 5e bd db 34 fd 3d 6b 41 a1 3c
       0.05847903 -0.05437971 0.12363597 0.019684514
000220 f6 4b 30 3e 10 b7 0a be 7c 80 c1 3c c2 45 b2 bd
       0.17216477 -0.13546395 0.023620836 -0.087047115
000230 b8 4e c6 bc d8 a5 85 bd f2 1f 36 3e cd 2f 0b 3d
       -0.024207458 -0.06525773 0.17785624 0.033981133
000240 8c 85 e3 3d b3 9c 7f 3d a7 72 3b bd c9 8a a3 bd
       0.111094564 0.0624053 -0.045763638 -0.079854555
000250 94 66 97 3d 88 4a a7 3d b2 61 22 3e 2c a2 2b 3e
       0.07392612 0.081685126 0.1585758 0.16761082
000260 b2 63 a5 bd ff 02 7b 3d 16 96 3c 3e b2 4f df 3d
       -0.08075656 0.061282154 0.18416628 0.109038725
000270 66 86 64 3d af 57 9b bd 3f 16 05 be 07 f6 1d be
       0.055792235 -0.07585084 -0.12996767 -0.15425883
000280 d5 7e bd bd 1a cf 54 bb 35 09 be 3c 3f 2e 40 3e
       -0.09252707 -0.0032472075 0.02319775 0.18767641
000290 c6 31 07 3e 73 e9 00 be f4 dc 23 3e e4 b6 0e 3d
       0.13202581 -0.12589054 0.16002256 0.034842387
0002a0 68 90 ef 3c 37 18 8a bd 3b 6c 2e be b6 73 a9 bb
       0.029243663 -0.067429 -0.17033474 -0.0051712645
0002b0 75 04 d5 bd 3a ec de bc c8 1e ab bd 72 49 32 3d
       -0.10401241 -0.027212251 -0.083554804 0.043527074
0002c0 30 5b 3f 3e 5b f2 e8 3d 52 6b 14 3d 84 76 39 bd
       0.18687129 0.11374351 0.03623516 -0.04527904
0002d0 42 13 e5 bd 50 19 ab bc 6a 4f 34 3e 58 4a 80 3d
       -0.11185314 -0.020886093 0.17608419 0.0626418
0002e0 ef 69 2e 3e dd a8 38 3e 89 03 7b bd 2d 0b 36 3d
       0.17032598 0.18033166 -0.06128267 0.04444425
0002f0 49 b1 1d 3e d2 54 20 be f3 03 82 3d 2a 2a 46 3e
       0.1539966 -0.15657356 0.063484095 0.19352022
000300 bb 62 d3 3d f5 eb 8c 3a 2a 60 26 3e bb be 9e 3d
       0.10321566 0.0010751473 0.16247621 0.07751223
000310 0d 3e 33 be 9f ed 06 3e 82 ef 1a bd a6 6f f7 3d
       -0.17504139 0.13176583 -0.03782607 0.12081842
000320 29 c5 05 be 16 e7 95 bd 28 80 e8 3d a2 29 4b bd
       -0.13063492 -0.07319467 0.11352569 -0.04960025
000330 6e 49 0e 3e be 8e c9 3c 8b f4 ee b9 15 dc 1c be
       0.13895199 0.024604198 -0.00045577096 -0.1531833
000340 2c d8 23 3e c4 47 2f bc 91 50 21 bc 8f 13 0b 3e
       0.16000432 -0.010698263 -0.009845869 0.1358168
000350 20 03 e9 bc 53 bb 20 3e 34 70 44 be 3d 1c 90 3c
       -0.028443873 0.15696459 -0.19183427 0.01759159
000360 10 ad 06 be 4f 7c c9 bd 71 f4 21 be cd 08 03 be
       -0.13151956 -0.09838163 -0.15815903 -0.12796326
000370 2d 95 ea 3d 0f 27 09 be 61 a5 39 3e 97 87 28 3e
       0.11454234 -0.13393806 0.18129493 0.16457973
000380 e5 f6 af bb ce 87 83 bd 3f 08 2e be 6d b8 34 3e
       -0.0053700083 -0.06422387 -0.16995333 0.17648478
000390 55 f1 6e bd 31 4b 32 3e dc 0d f0 3d c0 61 d6 3d
       -0.05833562 0.17411496 0.117213935 0.10467863
0003a0 b0 be 6e bd 02 57 68 3d 91 66 36 3e 5b e5 42 be
       -0.058287323 0.056723602 0.17812563 -0.19032805
0003b0 47 e5 79 bd 0d 2e 0d be c4 11 0a bd 09 a5 7b 3d
       -0.06100967 -0.13787098 -0.03370835 0.061436687
0003c0 98 09 af bc d4 34 41 be 55 1e 2a 3c 82 77 75 bd
       -0.02136688 -0.18867809 0.010383208 -0.059928425
0003d0 e8 28 17 be 89 8b df bd c7 a0 b4 bd e4 cc 47 be
       -0.14761698 -0.10915286 -0.08819728 -0.19511753
0003e0 3e 58 c2 bc ba 4c 2f be 50 bb ee 3d 63 3f 05 be
       -0.023723718 -0.17119113 0.11656821 -0.13012461
0003f0 45 be f9 3d 95 57 00 3e 74 8b 32 3d 94 44 40 be
       0.12194494 0.1253341 0.043590024 -0.1877616

GAT_layers.0.f.bias f4 [32]
000000 47 ab 7e 3d 51 1f 96 3c 0c dd ca 3c 7a 62 dd 3d
       0.06217506 0.01832548 0.024763606 0.108097985
000010 5a a8 86 3c da 3c fa 3c ac c0 8a bc 75 e9 c8 3d
       0.016437698 0.030546594 -0.016937576 0.098101534
000020 a7 77 9c bd ea fc 6d bd 27 16 a0 bc c1 8c 99 bc
       -0.076400094 -0.058102526 -0.019541813 -0.018743875
000030 1e 8e fc bc 84 1a 96 bd 0b ca d1 bc 2d ad f3 bd
       -0.030829486 -0.07329276 -0.025609037 -0.11898265
000040 01 db a7 bd bb 8a 86 3d bf 28 a1 3d c2 a3 a2 bd
       -0.081960686 0.065694295 0.078691 -0.079413906
000050 d1 11 57 bd 45 1f bf bb 82 a1 71 3d e2 0a 7a bd
       -0.052507225 -0.005832585 0.058991916 -0.061045535
000060 95 25 95 3d 2e 19 a1 bd 0f c0 32 3d 71 a5 46 3d
       0.07282559 -0.07866131 0.043640193 0.04849762
000070 67 8c de bd 84 7c a0 bc df 90 27 bd 92 4e 3e bd
       -0.10866623 -0.019590624 -0.040909644 -0.04646165

GAT_layers.0.w.weight f4 [1, 124]
000000 7f a3 f2 3c d3 39 8d bd 73 24 16 3e af 1b 18 be
       0.029618977 -0.06895795 0.14662342 -0.1485431
000010 41 46 96 3b 73 2a 4b 3e 21 68 e0 3d 70 e0 49 3e
       0.0045860116 0.19840412 0.10957361 0.19714522
000020 8c e2 6e 3d 34 14 02 be 3c 7d 79 b8 e0 b9 09 3e
       0.05832152 -0.1270302 -5.948286e-05 0.13449812
000030 b1 07 43 be 7f b2 02 be 7b 36 f8 bd d6 de 0e 3e
       -0.19045903 -0.12763403 -0.12119766 0.13952193
000040 37 41 89 bd 71 c7 e3 3d 34 11 c3 3d 87 4c 13 3e
       -0.06701892 0.11122025 0.095247656 0.14384662
000050 78 e5 2b 3e ea 75 41 3e c3 17 6e be 73 f5 03 3e
       0.16786754 0.18892637 -0.23251252 0.128866
000060 4d a5 15 3e 58 e1 20 bd 4e 50 14 3d 94 6c db 3d
       0.14613838 -0.039277405 0.036209397 0.10714069
000070 dc 7f 35 3e 53 06 34 3d 9b 0b 86 bd 63 7b 69 3d
       0.17724556 0.043951344 -0.06545182 0.057002436
000080 d2 e2 e7 bd 23 da 38 be 5c f3 57 be 5c f1 2d be
       -0.113225594 -0.18051963 -0.21088928 -0.16986603
000090 67 11 90 3d 58 7f d5 bd 86 39 dd bd bd 1e bf 3d
       0.07034569 -0.104246795 -0.10801987 0.09332035
0000a0 b5 4d 59 be 3f 07 2e be f0 c2 45 3e 0e 2b 35 3e
       -0.21221049 -0.16994952 0.19312644 0.17692205
0000b0 82 ef db bd a8 3d 1d 3e 9f e2 e2 3d 9b 27 82 bd
       -0.10739042 0.15355551 0.11078381 -0.063552104
0000c0 f8 90 c4 bd 90 3b 05 3e 6e 6d 00 bd 1d 42 52 3e
       -0.09597963 0.13011003 -0.03135436 0.20533033
0000d0 78 2b 17 3e a3 63 0f be d2 e0 24 3e b6 c3 39 3e
       0.14762676 -0.14002852 0.16101387 0.18141064
0000e0 16 db d6 bd 73 36 32 be 5e 26 ae bd f9 a7 4b bd
       -0.10491006 -0.17403583 -0.08503412 -0.049720738
0000f0 77 ff 15 be 8e 5a 26 be 39 9b 92 bd f5 f7 2c be
       -0.14648233 -0.16245481 -0.071585126 -0.16891463
000100 2d cf 9d bc d6 5c b0 bd 0d c6 7f 3c 34 51 d9 bd
       -0.019263828 -0.08611457 0.015611184 -0.106111914
000110 34 85 cf bd db 33 12 3e e0 55 2d be 45 27 ac 3c
       -0.10132828 0.14277594 -0.1692729 0.021014819
000120 a8 38 be bd 0a 4d 3b be 21 11 2c bd 9a e5 de 3d
       -0.0928815 -0.18291107 -0.042008523 0.10883637
000130 e2 f7 1d 3e 1f 9d a7 bd a8 31 87 bd c3 62 23 3e
       0.15426591 -0.08184265 -0.06601268 0.15955643
000140 3a 4d 58 be 73 2e 09 be 78 a2 ea 3c 0a e4 28 be
       -0.2112321 -0.13396625 0.028641924 -0.1649324
000150 8f cf 99 3d a3 9a 43 3e ac fe df 3d 6e 0e 91 bd
       0.07510292 0.19101958 0.10937247 -0.0708283
000160 8e 85 11 be 54 54 f0 3c 73 ae d8 bd ae 94 40 3e
       -0.14211103 0.029337086 -0.105801485 0.18806717
000170 19 ae bc bd d3 61 f0 bd 26 d9 fc bd c2 7f 43 3e
       -0.09212894 -0.117374085 -0.12346105 0.19091704
000180 da 1d 9e bd 57 91 38 3e 45 35 e0 3d f7 07 b7 3d
       -0.077205375 0.18024193 0.1094766 0.08937066
000190 93 ad 81 3c 21 7c 6c 3d 3b af 76 bd 09 1a 35 be
       0.015829837 0.057735566 -0.060225707 -0.17685713
0001a0 dd ae 46 be 8e 37 84 bc d5 24 fa bd d7 e9 cf bd
       -0.19402643 -0.016139772 -0.122140564 -0.10152023
0001b0 55 98 83 3d e3 d4 62 3d 78 44 ae 3d 73 2f 65 3b
       0.064255394 0.055378806 0.08509153 0.003497091
0001c0 32 f0 3b bd c4 74 dc 3d bc 61 ad bd c2 58 4e 3e
       -0.045883365 0.10764459 -0.08465907 0.20151046
0001d0 3b 85 65 3d 96 69 e9 3d 08 2e fb bd f7 28 9f 3c
       0.05603526 0.11397092 -0.12264639 0.019428713
0001e0 78 22 16 bd b9 de 00 bb 1f f9 26 3e 16 37 2c 3d
       -0.036653966 -0.0019664003 0.1630597 0.04204472

GAT_layers.1.f.weight f4 [64, 64]
000000 d2 5e 44 bd 2d c5 72 3d 1c 57 e8 bd ab 6c 5b 3e
       -0.04794199 0.059270073 -0.1134474 0.21428172
000010 53 b1 64 3c a3 5c f1 bd 94 65 19 bd 06 0e 5b 3e
       0.013958293 -0.11785247 -0.037450388 0.21392068
000020 a9 b9 12 3e dc 5d 48 be 5c 5b 06 3e 85 5a 35 3e
       0.14328636 -0.19567055 0.13120788 0.17710312
000030 fc 29 cc 3c 64 f4 d6 3d e6 a7 21 bc a7 30 3f 3e
       0.024922363 0.104958326 -0.00986669 0.18670903
000040 02 66 93 bd 4b 9f b4 3d 95 9c ba bd 23 ae f6 3b
       -0.07197191 0.08819445 -0.09111897 0.007528083
000050 3a a7 e7 39 0b 10 1d bc c1 3c 18 3e 46 2b dc bd
       0.00044184347 -0.0095863445 0.14866926 -0.10750441
000060 e7 85 48 3e cd 5c 64 3d 0a 87 3b 3e 55 cd 6f bd
       0.1958233 0.055752564 0.18313232 -0.05854543
000070 6d c2 08 be e0 1f 14 3e 93 46 4b 3d a3 59 90 3d
       -0.13355418 0.14465284 0.04962785 0.07048347
000080 c8 d5 bc bd 5f e1 44 3e 9e 0c 70 bd 38 82 c7 bc
       -0.09220463 0.19226597 -0.058605783 -0.024354085
000090 53 06 91 3b 02 4c 1e be 57 f3 5c 3c e5 61 01 be
       0.0044258027 -0.15458682 0.013485751 -0.12635
0000a0 d2 58 e4 3d 28 ee 23 bd 4b a7 0e 3e f1 7b 1b 3e
       0.11149754 -0.040022045 0.13931005 0.15183999
0000b0 34 49 09 bd 55 04 20 3e a1 b9 a1 bd 50 b3 56 be
       -0.033517078 0.15626653 -0.07896734 -0.2096684
0000c0 10 16 33 3e 3e fb 48 3e 2e 46 da bd 3b bf 52 3e
       0.17488885 0.19627091 -0.10657917 0.20580761
0000d0 7e 32 e8 bd da f9 1b be 4b b3 fd bc 0d b0 43 3e
       -0.113377556 -0.1523203 -0.030969283 0.19110127
0000e0 25 29 0e 3e ca 2b 49 3e 78 00 5b 3e 1e bd 8f bd
       0.13882883 0.1964561 0.21386898 -0.07018493
0000f0 b5 0c 0b 3c a4 6c 5a 3e 4f ec ff 3d 3b e6 e4 3d
       0.008486916 0.21330506 0.12496244 0.111767255
000100 c6 52 28 be 88 8c 31 3d a4 9d 43 be c2 f9 1f 3d
       -0.16437826 0.04334691 -0.19103104 0.039056547
000110 4e c0 8e 3d d4 9f 3e 3d e6 a5 93 3d a2 d9 12 be
       0.06970273 0.046539143 0.07209377 -0.14340833
000120 1e b9 f4 bd f1 ec f1 3b e7 fa fc bd a4 6f 50 3d
       -0.11949371 0.007382982 -0.12352543 0.05088772
000130 63 6f 22 3e b4 b4 91 bd e3 7a a2 bd 2b 51 35 3e
       0.15862803 -0.071145445 -0.07933595 0.17706744
000140 71 e9 b6 3d 64 1b 22 be fa b1 5c bd 00 e2 06 be
       0.08931244 -0.15830761 -0.05388067 -0.1317215
000150 e0 18 ba bd de 0a 3d be 66 34 a3 bd b8 62 ff bd
       -0.09086776 -0.18461177 -0.079689786 -0.12470001
000160 fb 36 14 3e 0c ab d3 3d 84 9a 08 3e 9d f7 2d 3d
       0.14474098 0.10335359 0.13340193 0.04247247
000170 38 e4 fb bd 1e 18 80 3d 55 88 e9 3b ec a2 65 3d
       -0.12299389 0.062546 0.0071268477 0.056063578
000180 a1 53 c9 bd 90 8e 38 3e 62 0b 2e bc bd 92 d2 bb
       -0.09830404 0.18023133 -0.010622831 -0.006426184
000190 4b 67 ba 3e 00 7f 28 3e d2 28 00 3e dc 86 3d be
       0.3640693 0.16454697 0.12515572 -0.18508476
0001a0 60 12 a3 3d 90 c4 da bb c0 9a ba 3d be 9b 65 bb
       0.07962489 -0.006676264 0.091115475 -0.0035035457
0001b0 37 9b db 3d 0e 11 97 3d b2 c2 8e 3c c0 12 33 be
       0.10722964 0.073763 0.017426822 -0.17487621
0001c0 48 cd 63 be 83 d0 49 be 55 f0 05 3e 5c 3d b7 3d
       -0.22246277 -0.19708447 0.1307996 0.0894725
0001d0 56 0f 5b be c2 d0 2b be 61 d0 12 3e 4d b3 58 3d
       -0.21392569 -0.16778854 0.14337303 0.05290537
0001e0 d9 ba 66 3c 6f f1 40 3d 12 f0 02 3e 4a 30 1b 3d
       0.014082634 0.04710525 0.12786892 0.03788785
0001f0 f9 4e 25 3d 0b af 81 bd 3b b2 59 3e 3a 04 16 3e
       0.040358517 -0.06332215 0.21259396 0.1465005
000200 09 04 30 be 68 6d 7c bc 04 a8 1f 3e c1 1d a8 bd
       -0.1718904 -0.015406944 0.15591437 -0.082088
000210 6b 75 21 3e d5 6f 66 3d e4 b9 0b be 12 c4 22 3e
       0.15767448 0.056258995 -0.1364513 0.15895107
000220 5b e7 24 3e e0 81 04 3e ec ed 38 be 83 cc 0b 3e
       0.1610388 0.12940168 -0.1805951 0.13652234
000230 b2 47 12 3c f0 68 a8 3d 27 bf 6b 3d 54 d8 8e 3d
       0.008928226 0.0822314 0.057555344 0.06974855
000240 ec 90 bd bc e4 5a 98 3c e9 cc 5c bd 97 df 4b 3d
       -0.023140393 0.018598028 -0.053906355 0.04977378
000250 53 d5 7c bd 7f ef 1b be ac dd 18 3e 21 58 2c be
       -0.06172688 -0.1522808 0.14928311 -0.16830494
000260 7f dc 1f 3e af 65 b5 3d b8 9b 28 be 4f aa 0b 3d
       0.15611456 0.08857285 -0.16465652 0.034097966
000270 cf b5 a0 bb ac 09 0a 3e e3 73 19 bc 04 ca 45 be
       -0.004904486 0.13480252 -0.009366008 -0.19315344
000280 44 21 2a 3b 32 d4 c3 bd 3c aa 32 be e1 33 a5 3d
       0.002595977 -0.095619574 -0.17447752 0.08066536
000290 66 80 50 be 96 b7 d9 3d 03 1f 14 3e 44 cc f0 bb
       -0.2036148 0.10630719 0.14464955 -0.007348569
0002a0 fe d6 74 3d e8 6f 08 be 15 ad a9 bd 5a 9d 1a be
       0.059775345 -0.13323939 -0.08284966 -0.15099087
0002b0 55 77 01 bd e7 c1 51 be 84 40 0d 3e a0 01 49 3e
       -0.031607945 -0.20484124 0.13794142 0.19629526
0002c0 d3 3e 4e bc 40 0e 23 3c cc 14 57 3d 72 e1 84 3d
       -0.012588221 0.009952128 0.052510068 0.06488313
0002d0 92 2d 97 3d a0 56 06 bd 72 a2 2f be 17 22 15 bd
       0.07381739 -0.032797456 -0.17151812 -0.036409464
0002e0 f9 c5 66 be 61 7a 4b be 3c d0 38 be 51 4c 34 3e
       -0.22536458 -0.19870903 -0.18048185 0.17607237
0002f0 43 da 14 be 21 ff 30 be 9f c6 02 3d 02 48 1c 3e
       -0.14536385 -0.17284824 0.0319277 0.15261844
000300 4a f5 8e 3d 8a 02 37 3d fb 2b fb 3d d5 fc 29 be
       0.06980379 0.044680156 0.12264248 -0.16600354
000310 e1 95 26 be 12 cc f1 3d a0 e4 1a be d5 17 50 3e
       -0.16268112 0.118065014 -0.15126276 0.20321591
000320 a8 d9 35 be 66 77 48 be 06 39 45 3e d6 21 15 be
       -0.1775881 -0.19576797 0.19260034 -0.14563689
000330 38 a9 b4 3b 0d 1e 81 bd f1 c5 2b be 8f b2 b4 3d
       0.0055133365 -0.0630456 -0.16774727 0.0882312
000340 c1 2c cc bd b8 2d 55 be c3 f4 fe bd e1 1c a6 3b
       -0.09969474 -0.20818222 -0.12449028 0.0050693606
000350 9a ed 42 3c a1 81 06 3d ac 3d b0 3d 7d 67 09 3e
       0.011897469 0.032838468 0.08605513 0.13418384
000360 ed 5c ef bd 5c 07 a9 bd b4 e8 96 3d 32 26 4f 3e
       -0.11687646 -0.08253357 0.07368603 0.20229414
000370 7f 87 68 be 4f 34 48 be c9 a3 4c be b4 7f 54 3d
       -0.22707938 -0.19551204 -0.19984354 0.0518796
000380 e8 2d 64 bd 5e ed 08 be 58 bb 97 b9 bc 45 fc 3c
       -0.055707842 -0.13371798 -0.00028940546 0.03079497
000390 51 f2 a9 bc 19 6a 33 3e e9 7c 32 3e 27 b0 b6 bd
       -0.020745428 0.17520942 0.17430462 -0.08920317
0003a0 65 f7 18 be 72 b1 42 3e 2c 14 56 3e a5 d5 83 3d
       -0.14938124 0.19013003 0.20906132 0.06437234
0003b0 58 0a 6d 3d dd 4e 94 3d 2f 8a d3 3d c6 a7 32 bd
       0.057871193 0.072416045 0.10329091 -0.043617032
0003c0 3d 74 19 3e be ce d1 bd 2c f6 38 bd ba a2 c3 bd
       0.14985748 -0.10244511 -0.045156643 -0.09552522
0003d0 f3 e7 31 bd f7 37 c7 3d 9a b2 da 3d aa 1d 29 3d
       -0.043434095 0.09727471 0.10678597 0.041288055
0003e0 13 1b 24 be 8e f7 50 3e 7d 35 a0 3d 7d ba 0b 3e
       -0.16025953 0.20406935 0.07822702 0.13645358
0003f0 06 62 2e be 46 f1 06 be 1a 68 22 bd 56 04 e2 bd
       -0.1702958 -0.13177976 -0.03965006 -0.11035983

GAT_layers.1.f.bias f4 [64]
000000 ec 1e d0 bd 55 31 f5 3c f3 80 8c bd 8f 11 bd bd
       -0.10162148 0.02993075 -0.068605326 -0.09231865
000010 26 94 98 bd b5 3a ed bd a7 2e b3 3d 11 0c 0d be
       -0.07450132 -0.11583463 0.087491326 -0.13774134
000020 19 88 05 bd 18 88 8f 3d 11 c3 b2 3d 69 44 02 be
       -0.032600496 0.0700838 0.08728612 -0.12721409
000030 8e bb 22 bd cb 7b fe ba 01 c9 18 bc 85 1b ea 3d
       -0.039729647 -0.0019415555 -0.009325267 0.1143103
000040 ed 09 fe bb d2 92 92 bd f9 f6 f2 bb 17 bd d4 bd
       -0.007752648 -0.0715691 -0.0074146953 -0.103876285
000050 31 51 c1 3c f0 cd a2 bc e1 0c fd bc 61 0b ee bd
       0.023598285 -0.01987359 -0.03088993 -0.11623264
000060 5f e6 8a 3d 83 9d 38 bb e8 79 e3 3d eb 25 8c bd
       0.06782221 -0.0028170056 0.11107236 -0.0684317
000070 b5 bf 5c 3d fa 3a 7c bd f8 0f 51 be 7a 3e 73 3c
       0.053893764 -0.061579682 -0.20416248 0.014846439
000080 3f ed 01 be 27 43 5e 3d 59 12 e1 3d c8 a6 13 3e
       -0.12688158 0.05426326 0.10989828 0.14419091
000090 5e b0 08 3e 21 77 24 bc cd 21 ee 3c a4 e7 a2 3d
       0.13348529 -0.010038168 0.029068852 0.07954338
0000a0 8c 70 56 3d 25 1c f1 3d 3e 66 40 bd e9 d9 43 be
       0.052353427 0.11772946 -0.046972506 -0.19126095
0000b0 87 6b 91 bb 6b 30 ee bd 44 a7 a3 3d 2e ef 05 be
       -0.004437867 -0.11630329 0.07990888 -0.13079521
0000c0 ee 08 ab bc 42 86 de bd d7 fd e0 3d 24 84 03 be
       -0.020878281 -0.108654514 0.10985916 -0.12843376
0000d0 8d 37 b2 3d 53 b1 df bd 9e 11 b8 3d 27 1a 0d 3e
       0.08702002 -0.10922494 0.08987735 0.13779508
0000e0 c3 18 22 3d fc 06 d4 bb d5 e4 14 3e 09 cd fb bd
       0.039574396 -0.006470559 0.14540417 -0.12294967
0000f0 fe 95 50 bd df e0 5f bd 6a f6 41 be 05 06 b5 3d
       -0.050924294 -0.054657813 -0.18941656 0.08839039

GAT_layers.1.w.weight f4 [1, 64]
000000 6b d1 80 be 67 40 20 be a6 54 81 3e 51 b4 8d be
       -0.25159773 -0.15649568 0.25259894 -0.27676633
000010 af fa 24 be 63 cb 4d be c3 b5 83 3c 02 65 66 be
       -0.16111253 -0.20097117 0.016077882 -0.22499469
000020 6b e8 09 be 41 55 0e 3e 3a a2 06 3e 98 ca f2 3d
       -0.13467567 0.1389971 0.13147822 0.11855048
000030 49 e8 6a 3e e6 f8 84 bd e1 74 d1 bd 43 68 97 be
       0.22940172 -0.06492786 -0.10227371 -0.29571733
000040 ac 69 fc bd c7 be f9 bd 12 d2 70 be 2d 9e 3f be
       -0.12324843 -0.12194591 -0.23517635 -0.18712683
000050 10 85 46 3e 04 26 8e be 2d 72 a3 bb e6 25 ed 3c
       0.19386697 -0.2776338 -0.004987976 0.028948735
000060 b7 86 d2 3d 66 a7 2a be 07 1b 80 3e 64 2c dc 3d
       0.10279601 -0.1666542 0.2502062 0.10750654
000070 b9 c6 28 be 56 89 67 be bc 5c ea 3d 4b 9a 70 be
       -0.16482057 -0.22610983 0.11443469 -0.23496358
000080 24 46 32 3e 8d 00 09 3e e5 6d bf 3d 44 26 34 be
       0.17409569 0.13379116 0.093471326 -0.17592722
000090 cb b2 0f 3e a2 d1 a5 3d 4b d8 2f 3e 91 87 84 be
       0.14033048 0.08096625 0.17172353 -0.2588468
0000a0 9e b2 05 3e c6 8a 43 3e 0f 9e fd 3d d4 b2 2c be
       0.13056418 0.19095907 0.12383663 -0.16865093
0000b0 b6 5b ea bd 3d cf 80 3e a5 fa 6a 3e 71 0e 89 3e
       -0.11443274 0.2515811 0.22947176 0.2676883
0000c0 ac f3 69 be 30 c2 9b be 5e ef 90 be 6c 51 4b bd
       -0.2284686 -0.3042159 -0.28307623 -0.049638197
0000d0 1c 3c 8d bc d0 b1 83 3e 36 44 31 be fd d3 31 be
       -0.017240576 0.25721598 -0.17311177 -0.17366023
0000e0 37 a8 ed bd 29 5a 95 3e 13 1b 82 3d db 1e 00 3e
       -0.1160435 0.2917035 0.0635282 0.1251177
0000f0 ed 0b 8a 3e 84 65 e7 3c 02 08 2c 3e 74 3a a4 be
       0.26962224 0.028246649 0.1679993 -0.32075846

GAT_layers.2.f.weight f4 [64, 128]
000000 93 79 a0 3d 25 69 a1 bb 52 df cc bd 45 76 83 bb
       0.078356884 -0.0049258643 -0.100035325 -0.0040119016
000010 c3 5a ca bd 50 95 f2 bd b7 41 24 be e2 be d4 3d
       -0.09880593 -0.11844885 -0.16040693 0.103879705
000020 9e 94 b4 3d 1a 60 89 3c d1 fb f5 bc 25 0c 9f 3d
       0.08817409 0.016769458 -0.030027302 0.07765988
000030 9f 4d 97 3d c1 40 3a 3b ca 93 18 be 8c 57 a0 3d
       0.07387852 0.0028419944 -0.14900127 0.07829198
000040 75 3b 20 3e b0 01 35 3d 51 12 27 be 2c ce 27 be
       0.15647681 0.044191062 -0.16315581 -0.16387242
000050 9b ed 17 3e a6 de a0 bc c6 d1 02 be 24 10 28 be
       0.14836733 -0.019637417 -0.12775335 -0.16412407
000060 e9 23 81 3c f3 66 cc bb 76 95 19 3e 1f cb 2a bd
       0.015764194 -0.0062378584 0.14998421 -0.041697618
000070 ce d0 ee 3d 19 f6 17 3e b2 96 0e bd 72 bd 19 3f
       0.1166092 0.14839973 -0.034811683 0.60054696
000080 76 ca 5d bd fe 3f db bc aa 61 ed bc 04 a7 06 3e
       -0.05414816 -0.026763912 -0.028977234 0.13149649
000090 9d e2 bf bd c8 3b 5d bc d9 15 12 3e e5 4b df 3d
       -0.09369395 -0.0135030225 0.14266147 0.109031476
0000a0 10 3a 80 3e c4 86 71 bd a9 9f 1d be d4 e3 41 3e
       0.25044298 -0.058966413 -0.15392937 0.18934566
0000b0 80 d5 6f bd 52 3a a8 3c d7 fb 8d 3b b3 d2 24 be
       -0.05855322 0.020535622 0.004333 -0.16096
0000c0 16 6c 6f 3c b0 55 db 3c 72 44 33 3e 9d 29 d8 bc
       0.014613172 0.026774257 0.17506579 -0.02638703
0000d0 b6 40 2c be 7a b1 c8 3d ce 2f aa 39 26 87 d6 bd
       -0.1682156 0.09799476 0.00032460544 -0.10474996
0000e0 a9 57 17 be 29 f0 09 be a2 41 23 3e 0a 19 a6 3c
       -0.14779533 -0.1347052 0.15943006 0.020275611
0000f0 bd b9 da bc 6f 16 27 be f9 98 81 bd 32 a3 1c be
       -0.026699895 -0.16317151 -0.06328005 -0.15296629
000100 b8 5f 05 3e b6 2c 19 3e 02 7e 4c 3d 40 31 95 bd
       0.13024795 0.14958462 0.049924858 -0.07284784
000110 88 6f 8d bc ac 4b bd 3d 23 e6 de 3d c9 7d 98 3c
       -0.017265096 0.09242949 0.10883739 0.018614667
000120 e6 b6 ed 3c b0 d0 b9 3d e6 16 83 3c 75 c2 2c bc
       0.029017877 0.09073007 0.01600213 -0.010544409
000130 84 22 22 3e 0b 46 aa bd 3a 07 d2 3d 62 ed 0f 3e
       0.15833479 -0.08314141 0.102552846 0.14055398
000140 25 1c 2c 3e 7a d7 85 3d 00 5d 59 bd 9a d9 62 3c
       0.16807611 0.065352395 -0.053067207 0.013845826
000150 3b 09 95 3d 6b 70 62 bd 4b 3b 70 3c 30 9e 7b bd
       0.07277151 -0.05528299 0.014662574 -0.061430156
000160 77 4c 1d be d6 3e 9f 3d f6 33 1c bd 12 b0 8c bd
       -0.153612 0.07775657 -0.03813549 -0.0686952
000170 80 77 95 3c a8 ff 47 bd ef ae 13 3e 74 fc e4 3e
       0.018245459 -0.048827797 0.144222 0.44723856
000180 c2 24 09 be a2 3f 0b 3d de 9f 84 bd cc be c1 3c
       -0.13392928 0.03399623 -0.06475805 0.02365055
000190 2c c7 15 3d 78 8f ea 3d 32 8b 96 bd a4 e3 03 3e
       0.0365669 0.11453146 -0.07350768 0.12879807
0001a0 1d 7c 69 3d 67 a0 01 be 0c 10 05 3d a5 b9 10 3e
       0.05700313 -0.12658845 0.032486007 0.14133318
0001b0 63 26 d5 3d 96 5b 8c 3d 23 d2 a9 bc 01 e2 48 3e
       0.10407712 0.06853406 -0.020730084 0.19617464
0001c0 99 93 4a 3c 35 02 08 be f9 cd 37 be 77 d4 48 3c
       0.012364292 -0.13282092 -0.17949666 0.012257687
0001d0 8a 92 13 bc 25 3e a3 3d d7 70 a2 3d 12 9b 9d 3d
       -0.009007106 0.079708375 0.07931679 0.07695593
0001e0 87 14 f3 bd 70 0d 17 3e 15 1e bb bd d3 ab af bb
       -0.1186915 0.1475122 -0.09136597 -0.005361059
0001f0 71 2f 24 be e6 be 99 3d 93 98 8d bc fc 24 bc bd
       -0.16033722 0.07507114 -0.017284667 -0.09186742
000200 96 31 8d 3d 2d a6 85 3d fa 88 d2 3d 32 f0 02 bd
       0.068942234 0.06525836 0.102800325 -0.03196735
000210 97 c5 07 3d 70 30 8d 3d ce 5a 38 be 8a 78 1e be
       0.03314742 0.06894004 -0.18003389 -0.1547567
000220 2d 1f e0 bd 0a 33 0f be 37 18 dc 3c f2 cd 6f 3d
       -0.10943446 -0.13984314 0.026867015 0.058546014
000230 fc e4 27 be 55 4a b5 bd 36 c6 d5 bd ff 52 94 bd
       -0.16395944 -0.08852068 -0.10438196 -0.07242393
000240 49 a6 0b be dd 03 23 3c db 42 c3 bd d2 fe a6 bd
       -0.13637652 0.009949652 -0.09534236 -0.08154072
000250 59 a6 f5 3d bd 22 bf bd 25 39 99 bc 55 20 c7 bc
       0.11994619 -0.09332798 -0.018704006 -0.02430741
000260 3c 7a aa bd b2 ad 52 3d 73 ca a5 3d e9 d5 59 3d
       -0.083240956 0.05143518 0.08095255 0.053182516
000270 81 2a fa 3d a2 ad 13 3e d3 2b 3b bc 20 3e 13 3c
       0.12215138 0.14421704 -0.011424023 0.00898698
000280 b9 7a 41 3e be 14 57 bd 05 b5 89 3a e1 09 28 be
       0.18894471 -0.052510016 0.0010506219 -0.16410019
000290 37 67 a6 3c 4f 91 73 bd bb ef 36 bd ad 6b 2b 3e
       0.020312889 -0.05946475 -0.04466222 0.16740294
0002a0 d4 aa 03 be 70 ba db 3d 60 8f 0c 3e 32 7e c4 bd
       -0.12858135 0.107289195 0.13726568 -0.09594382
0002b0 31 0f f9 3d b7 a3 fb 3d 9d 51 2e 3e 98 95 c1 bc
       0.12161101 0.122870855 0.1702332 -0.023630902
0002c0 2e 0a 88 be e2 21 3a 3b f6 34 00 3e bd 71 38 be
       -0.26570266 0.0028401543 0.12520203 -0.18012138
0002d0 c6 b1 98 bd 64 03 ac bd 58 03 e6 3c cc d3 b5 3d
       -0.074557826 -0.08399084 0.028077766 0.08878288
0002e0 5b 70 30 bd 52 82 d7 3b 11 7c f6 bb 58 89 0b 3e
       -0.0430759 0.0065768147 -0.007522114 0.13626611
0002f0 46 ae ca 3d ce 88 1a 3e 1d 21 4f be 00 f0 ca 3d
       0.09896521 0.1509125 -0.20227475 0.099090576
000300 e4 13 b5 3e c2 a9 33 be 54 30 af 3d ba 3f 1b 3e
       0.35366738 -0.17545226 0.0855414 0.15161029
000310 dc 7c 95 bd ae 58 89 3e b9 72 d8 3e 7a 78 31 be
       -0.07299206 0.2682547 0.42275026 -0.17331114
000320 83 db 14 3e 4f b5 4a be 6f b3 3d bd 8e 15 13 be
       0.14536862 -0.19795726 -0.0463137 -0.14363691
000330 0d 7b b9 bd e3 5b 13 be 92 ec a4 bc c5 f6 11 3e
       -0.09056673 -0.14390521 -0.020132337 0.14254291
000340 d4 9f 4b bc 48 ab ea 3d 15 e2 0b 3e 21 db 55 3d
       -0.012428243 0.114584506 0.13660462 0.05221093
000350 0d d4 66 3d fc e1 98 3c 9f 75 19 3c 98 e8 14 3e
       0.05635457 0.018662445 0.009366422 0.14541852
000360 c4 a9 25 be a2 c5 61 3d 74 e3 aa bd d2 72 04 3e
       -0.16178042 0.055120118 -0.083441645 0.12934425
000370 de 02 bc 3d de 9a 2d 3e c3 c5 98 3e a1 9c ea 3d
       0.091802344 0.16953608 0.2983838 0.11455656
000380 0c e1 99 bd 6c 28 e7 bc 74 c7 99 bd 07 8e 63 3d
       -0.075136274 -0.028217517 -0.07508746 0.05555537
000390 a6 2d 15 be a8 67 13 be 01 40 93 bd ed 6b 86 bd
       -0.14568195 -0.1439501 -0.07189942 -0.06563554
0003a0 34 39 11 3e a8 83 fd 3d 99 bc 34 3e 2e fc 51 bd
       0.14181978 0.12378627 0.1765007 -0.051265888
0003b0 92 1e 93 3d ed 45 0b 3e ee 47 c2 39 d1 c0 91 3b
       0.07183565 0.13600893 0.00037056155 0.0044480343
0003c0 e7 f4 e7 bd f7 03 a5 3d 35 c4 99 3d 41 88 10 bd
       -0.11326008 0.08057397 0.07508127 -0.03528619
0003d0 48 fa 18 3e 4b 8e b2 3d f0 34 11 be 84 1c 0d be
       0.14939225 0.087185465 -0.1418035 -0.13780409
0003e0 49 36 bc 3d f6 9c 04 be 66 0e 8a be 39 d7 09 be
       0.091900416 -0.12950501 -0.2696411 -0.13461007
0003f0 67 b0 97 bd 0c 5a 19 be 81 aa 3a 3e 17 de 1d 3d
       -0.07406693 -0.14975756 0.18229105 0.03854188

GAT_layers.2.f.bias f4 [64]
000000 28 85 7c bd 7f 34 21 bd 58 0a 7d 3c 85 5d 83 3e
       -0.061650425 -0.039356705 0.015444361 0.25657287
000010 3f a7 7f bd a4 1a af bc 14 0d bd 3c 39 26 6e bd
       -0.062415358 -0.021375008 0.023077525 -0.05814192
000020 ff 63 62 3e af be 75 3a 2f 17 87 bd 96 2d b1 bb
       0.22108458 0.00093744224 -0.06596219 -0.0054070456
000030 d5 b7 b1 3d e8 3a 18 bc 81 df e0 3d d9 f0 bb 3d
       0.08677641 -0.009291388 0.1098013 0.091767974
000040 99 28 1d bd 9d 2d 15 bd 4c 39 b4 bc ee eb 12 3e
       -0.038368795 -0.036420453 -0.021999978 0.14347813
000050 3b ac 8f bd 56 d4 6b 3a ff 23 ee 3d 4c 53 b8 3d
       -0.07015272 0.0008996179 0.116279595 0.090002626
000060 18 03 29 3d 3d 16 66 bc 4a d0 87 3d 2b 55 8f bd
       0.041262716 -0.014043388 0.06631525 -0.069986664
000070 9d d5 14 3e fd 66 b1 bc 1d 1c ab bd fc 51 19 3e
       0.14534612 -0.021655554 -0.083549716 0.14972681
000080 24 5b d3 3d 5e 0c 9e 3d e3 46 6d 3d df 47 c6 3d
       0.10320118 0.077172026 0.05792893 0.09681677
000090 82 2b 84 bd a5 c9 90 3d 17 e0 66 bb c0 42 67 bd
       -0.06453611 0.07069711 -0.0035228783 -0.056460142
0000a0 5d 6b dc bb 42 1a ef 3d 5f 08 34 bd 2b 27 6b 3d
       -0.006726666 0.1167493 -0.043953296 0.0574104
0000b0 6d 74 fb 3d 8f 76 0e 3e ba 10 43 bc 5d 3c 17 bd
       0.12278066 0.13912414 -0.011905843 -0.0369228
0000c0 61 aa 0d 3e 45 38 9d 3d c3 5c f1 3d dd 80 15 3e
       0.13834526 0.07676748 0.11785271 0.14599939
0000d0 5a c6 94 3d 28 da e6 3d e7 8e f0 bc 76 97 0e bd
       0.07264395 0.11272079 -0.029365016 -0.034812413
0000e0 94 f6 e5 3d b0 79 c8 3d 19 54 e6 3d 27 5f b4 3d
       0.11228672 0.09788835 0.11246509 0.08807211
0000f0 30 b8 90 bd b8 c3 9f 3d 47 b6 a4 3d be 5f af bd
       -0.07066381 0.07801002 0.08042579 -0.08563183

GAT_layers.2.w.weight f4 [1, 128]
000000 86 4e 12 bc ea b4 f0 bd 85 81 14 3d 0f 56 2a be
       -0.008929854 -0.117532566 0.036256332 -0.16634391
000010 51 ea 3a be cf 7a bd 3c ac 2d 70 3e 9f 0d e5 bd
       -0.18253447 0.023129849 0.23454922 -0.11184239
000020 4f 56 24 3e 11 4b ce 3d fb fc 2c 3e 8d 84 1c 3e
       0.16048549 0.100729115 0.1689338 0.15284939
000030 3f d4 29 be 4f 36 eb 3c b9 bf a9 bd 25 b9 6a bc
       -0.16584872 0.02871242 -0.08288521 -0.014326368
000040 03 80 b0 bc 2b ce 3d bc b2 31 42 3c 2d 50 82 3d
       -0.021545416 -0.011584799 0.011852669 0.063629486
000050 aa d2 ff 3d e1 8b 26 be d5 d1 2f be fb a2 e8 bd
       0.12491353 -0.16264297 -0.17169888 -0.11359211
000060 d9 e2 a1 bc c1 5b 19 3d 0f 81 46 bd 2a 5a 53 be
       -0.01976149 0.03744102 -0.048462924 -0.20639864
000070 a5 39 64 3e 63 52 38 be 31 0c 7e be 24 a9 8b bc
       0.22287615 -0.18000178 -0.24809338 -0.017048426
000080 70 80 df 3c bd 71 c6 3c f9 98 d5 3d df ae 43 3e
       0.027282923 0.024224157 0.10429568 0.19109677
000090 84 ca a9 bc b0 ee 27 be ec 1b 9e 3d 5c 9e 78 3d
       -0.02072645 -0.16399646 0.077201694 0.0606979
0000a0 8c 06 29 3e e0 e6 0d be 09 04 89 ba 0c aa 7b 3e
       0.16506404 -0.13857603 -0.0010453473 0.24576586
0000b0 ed d8 67 3d 9b 76 22 3e a3 03 1f be 77 ea a1 bd
       0.05660336 0.15865557 -0.15528731 -0.07906049
0000c0 da 73 cd 3d 95 0d 3d 3e ef 80 db bb 72 08 6c 3d
       0.100318626 0.18462212 -0.0066987197 0.05762524
0000d0 07 2a d6 bd a0 9e 4e 3e 4c 30 49 be b5 48 37 be
       -0.10457235 0.20177698 -0.1964733 -0.1789883
0000e0 ae 39 70 3e 3a 5f 5d be 5f 95 fc 3d 4c 8f ab 3d
       0.23459503 -0.21618357 0.12333178 0.08376941
0000f0 32 22 5f 3d 6e ab ed bd 74 76 ac bc ac 0a f4 3c
       0.05447597 -0.11604963 -0.021052577 0.029790245
000100 e5 35 58 3e aa 4c 90 bc f1 05 c7 3d 09 dd 96 bd
       0.21114309 -0.017614681 0.0971793 -0.07366378
000110 bb bc 12 3e 7a 5c 2c be 6f 7a 2b 3e 62 ac 21 3e
       0.14329807 -0.16832152 0.16745923 0.15788415
000120 6e a0 06 3e 97 06 db 3d d3 bf 2f 3e 9b ff da 3d
       0.13147137 0.10694616 0.17163019 0.10693284
000130 93 8c 2a be 62 f8 32 be 6b 2e 98 3d 99 b9 e5 3d
       -0.16655187 -0.17477563 0.074307285 0.112170406
000140 ee 9a 2c be cf ef 26 3e 23 da b9 bd 44 06 29 3d
       -0.16855976 0.16302417 -0.090748094 0.04126574
000150 27 91 0c be 48 d0 5d be ce 30 b7 3d 91 e3 28 39
       -0.13727246 -0.21661484 0.08944856 0.00016106504
000160 f8 0e 86 3d bb 4d 4c be 6d 67 92 ba 66 b5 8e 3d
       0.06545824 -0.19951527 -0.0011169739 0.06968193
000170 57 5d 88 bd 47 de 4a bb cc af 27 3d 57 a1 b3 3c
       -0.06658428 -0.0030955242 0.040939137 0.021927519
000180 b2 d7 99 3d 31 b9 22 3b 2d 70 04 3e e7 a6 20 3d
       0.07511844 0.002482962 0.12933417 0.03922167
000190 e1 bc 6f bd 54 4b fa ba 40 1b 60 3d 5a 4e 46 be
       -0.05852974 -0.0019095936 0.054713488 -0.19365826
0001a0 00 a7 64 3e 0e f4 4e be c9 02 2d 3e 94 79 55 3d
       0.2232933 -0.20210287 0.16895594 0.0521179
0001b0 a6 3f b6 3d 57 1d a5 bd fa 83 04 be 0b 39 1b 3d
       0.08898859 -0.08062237 -0.1294097 0.037896197
0001c0 b6 8c d7 3d 56 f3 aa 3c 29 bc c8 3d f6 97 1e 3e
       0.10524885 0.020867985 0.09801514 0.15487656
0001d0 1b 04 98 3d e6 6a e4 bd dc 00 c5 bc 26 7e 6d 3e
       0.07422658 -0.11153202 -0.024048261 0.23192653
0001e0 00 87 24 3e 2f 20 4f 3e c4 c9 41 be d4 a3 45 3d
       0.16067123 0.20227121 -0.18924624 0.04825194
0001f0 38 d6 b8 bc f9 11 39 3e a5 dc 3b 3e c8 9d 95 3d
       -0.022563085 0.18073262 0.18345888 0.07305485

MLP_layers.0.weight f4 [32, 64]
000000 cb 48 00 be e4 40 0c 3d e9 9a 09 be c1 31 e7 3e
       -0.12527768 0.034241572 -0.13438 0.45155147
000010 c9 ce 41 3d ec f9 b0 bd e1 3b 71 bd 38 68 0c bd
       0.047316346 -0.08641419 -0.058894996 -0.03427908
000020 a8 ed f3 3e 2e 16 95 3d b8 27 46 3d e4 18 a8 3d
       0.47642255 0.07279621 0.048377723 0.082078725
000030 b8 45 9b bd e3 30 99 bd 18 97 00 3d d4 d1 9a 3d
       -0.07581657 -0.074800275 0.031394094 0.07559553
000040 f6 48 03 3e f1 e6 bd 3d 16 06 c1 3d b7 db e4 3c
       0.12820801 0.09272564 0.09424989 0.0279368
000050 18 1f 83 bc 66 6c d3 3c 9e 33 94 3c c7 c7 9a 3d
       -0.016006038 0.025808524 0.01809102 0.07557636
000060 62 dc 14 3e 1b 23 54 bc 92 5b b5 3d 83 59 86 bd
       0.14537194 -0.012947823 0.08855356 -0.06560042
000070 43 57 c2 3d 5b e6 c2 3c 4b 1e de 3d 7b 08 35 bd
       0.094893 0.023791483 0.10845622 -0.04419754
000080 33 ad c8 bd 7b 52 de 3d 35 f5 e3 3d 66 8b 00 3e
       -0.0979866 0.10855576 0.11130754 0.12553176
000090 bf fa 09 bd 9a 89 c2 3d fa 6e b0 bd 50 bf 8d 3b
       -0.033686396 0.09498902 -0.08614917 0.0043257847
0000a0 54 15 c5 bd 7e 4a cd 3d ad b0 44 3d 8a ca 75 3d
       -0.09623209 0.10023974 0.048020054 0.06000761
0000b0 3d 66 00 3e 7c 97 7c 3d df b8 a0 bd fc 9a d3 bb
       0.12539001 0.061667904 -0.07847761 -0.0064576846
0000c0 bc 48 f8 3d 8a b4 e9 3c 03 91 69 3d 6d d6 99 bd
       0.12123248 0.02852847 0.05702306 -0.075116016
0000d0 31 76 80 bc 65 69 52 3d 7f d4 f5 bd 9d 41 7b bd
       -0.015681358 0.051370043 -0.12003421 -0.06134187
0000e0 62 bf cf bd 71 a3 f5 3d e7 40 6a bd 82 17 b6 3d
       -0.10143925 0.119940646 -0.057190802 0.088912025
0000f0 ca a2 63 bd fe fe d6 3d 66 d3 8f bd a4 28 c8 3b
       -0.05557517 0.10497855 -0.07022743 0.0061083604
000100 8d 32 a4 3d ab 67 73 bd c4 3c 8d 3d 9f 6f 76 bd
       0.08017454 -0.059425037 0.06896356 -0.060165044
000110 7f 22 64 3d e4 d7 a5 3d bb 53 a6 3c b7 ae b9 3d
       0.05569696 0.080978185 0.020303598 0.09066527
000120 f8 86 4a bc 09 4a d9 3d 37 67 ea bd 87 26 9a bc
       -0.012361281 0.10609824 -0.11445468 -0.0188172
000130 3a 01 61 3c dd fa e1 bc 37 0c 71 bd a7 87 e8 3d
       0.013733203 -0.027585441 -0.05884954 0.11353999
000140 35 f4 8d 3d c3 01 be 3d 6b 02 18 3d dc 3d 37 bc
       0.069313444 0.0927768 0.03711168 -0.011184182
000150 a6 74 e1 bd ee 11 a0 3d d9 15 d7 3c c6 5e 47 bc
       -0.11008577 0.0781592 0.026255535 -0.012168592
000160 1f bd 05 be 07 a4 e4 bc 89 e2 d9 bd c5 05 47 bd
       -0.13060425 -0.027910246 -0.10638911 -0.048589487
000170 cb a3 c5 3b c5 29 df 3d 5c 20 07 3b d5 15 ea bd
       0.0060314885 0.10896639 0.0020618653 -0.114299454
000180 63 02 de 39 e0 a8 9e bc e3 8c 4b bd 7e cd 3d 3b
       0.00042344918 -0.019367635 -0.049694907 0.0028961594
000190 0c 05 95 ba 05 fb 6d 3d 1b 14 56 bc 5f a3 95 3d
       -0.0011369302 0.05810072 -0.013066317 0.07306551
0001a0 8c fb 58 3b 30 95 56 3d 88 0a 84 bd b6 47 94 3d
       0.0033108918 0.05238837 -0.06447321 0.0724024
0001b0 55 46 ac bd c0 57 92 3d 4c f3 82 3d 19 8e 12 3e
       -0.08411852 0.07145643 0.063940614 0.14312018
0001c0 19 1e 32 3d 7f ae e6 bd db bf 8b 3d 8f 4b ae 3d
       0.043485735 -0.11263751 0.06823703 0.085105054
0001d0 b4 41 da 3d fb 69 eb bd d0 9b 04 3d 4a 72 e5 bd
       0.10657063 -0.114948235 0.032375157 -0.112034395
0001e0 7a 9e de bd af c4 ea 3d 62 62 0c be 34 96 1f bd
       -0.10870071 0.11463296 -0.13709405 -0.038961604
0001f0 08 ca 88 bd b7 b1 d2 3d 38 d7 3a 3d 20 bc 95 bd
       -0.066791594 0.10287803 0.045615405 -0.073112726
000200 5e 2b 5c 3d d4 92 04 bd 49 62 4b 3d d6 cb 61 3b
       0.053752296 -0.03236659 0.04965428 0.003445377
000210 51 4c dd 3c fc 49 ae 3c 2d fa 1d 3d 47 f6 05 3c
       0.02701393 0.021275513 0.038568664 0.008176393
000220 7a c4 af bd ed f4 c5 bc 0e bd 82 3d 81 85 ca 3c
       -0.08582397 -0.024164641 0.063837156 0.024721863
000230 43 31 50 3d 2d 23 89 bc 7f 6f a5 3d b3 29 bd bd
       0.05082823 -0.016740406 0.08077907 -0.09236469
000240 2a d4 98 bd d4 bf 6a 3d 8e b0 5b 3d 8f 81 00 be
       -0.07462342 0.057311848 0.053635173 -0.12549423
000250 2c 8a 90 bd c3 fd 0f be 5c c7 d6 bd a2 63 bf bd
       -0.07057604 -0.14061646 -0.104872435 -0.09345175
000260 00 d0 78 3d cb 00 cb bd 1d 52 82 bd e6 4b e2 3d
       0.06074524 -0.099122606 -0.06363318 0.11049633
000270 ea 3f ce 3d 3e fc a0 3d 60 81 b1 bd 8b 9b a7 bd
       0.100707844 0.078606114 -0.086672544 -0.08183964
000280 49 c3 3e 3d 10 35 bb 3d ee 24 9b bd c0 4c 8e bd
       0.046572957 0.0914098 -0.07575403 -0.06948233
000290 6c 5d 97 3d 6d 8c 7d bd ba 6f 85 bd e7 1d 6e 3d
       0.07390866 -0.0619015 -0.06515451 0.058133986
0002a0 e6 0a f8 bd b2 e2 a4 3c 8f 99 24 bd ee db c5 3d
       -0.12111454 0.020127628 -0.040185507 0.09661089
0002b0 97 83 66 3d f1 f6 9f 3d 8c 14 a3 bd 00 6b f2 bc
       0.056277838 0.07810772 -0.079629034 -0.029592037
0002c0 da 02 1e 3d ab af 3e bd 73 46 8c bd 08 f4 b9 3c
       0.03857694 -0.04655425 -0.068493746 0.022699371
0002d0 91 c3 7d 3d 51 c6 c1 3c 8d ae 5b 3c 9b db 90 3d
       0.061954085 0.023654135 0.013408315 0.070731364
0002e0 01 0f ca bd 07 4c bf 3c 91 ff 97 3d 08 1b ba 3c
       -0.09866143 0.023351682 0.07421792 0.022717968
0002f0 91 cc 77 3d 73 84 76 bd f8 47 11 be 28 7c e6 3d
       0.060497824 -0.060184907 -0.1418761 0.1125415
000300 40 40 c7 3b 30 a4 32 bc b4 69 af 3d c8 0a d9 bc
       0.0060806572 -0.010903403 0.08565083 -0.026494399
000310 a0 ed ed 3d 6e ef b8 bd dc 90 95 3d 2e bf ee bd
       0.11617589 -0.090300426 0.0730302 -0.116575584
000320 d8 27 fb bc 1c 3b e6 bd 80 d0 ee 3a 72 d3 b6 bd
       -0.030658647 -0.11241743 0.0018220097 -0.08927049
000330 50 04 31 bc ce 82 9e 3d f8 b6 c4 bc 9c 9f 14 bd
       -0.010804251 0.07739793 -0.024013028 -0.036285028
000340 60 95 10 bc 98 bb ad bd 96 f7 8b bd c6 87 e8 bd
       -0.008824676 -0.08483046 -0.06834333 -0.11354022
000350 d4 01 20 3d b4 e7 b7 3d 70 bf 0a bd 84 34 8e bd
       0.039064243 0.08979741 -0.033873975 -0.0694361
000360 94 1d a9 bd 40 3f 88 3d 80 47 45 bb ea 6a ad 3d
       -0.08257595 0.06652689 -0.0030102432 0.08467658
000370 d8 97 e9 bc ec f8 ef 3d 96 2f fd bd a2 6b 8c 3d
       -0.028514788 0.117174 -0.12362592 0.06856467
000380 38 80 06 bd ac de 9e 3d c8 cd c2 3d ba bd fa bd
       -0.032837123 0.07757315 0.09511906 -0.12243219
000390 48 3b a0 bd 52 d0 e6 3d 18 37 8a 3d d6 9b c2 bd
       -0.07823807 0.11270203 0.067487895 -0.095023796
0003a0 a0 9d 40 3c b8 a0 a0 bc 2c 42 a4 bd 8c 27 db bd
       0.011756331 -0.019607887 -0.08020434 -0.10700902
0003b0 a2 27 e7 3d 80 60 95 bd e8 da dd 3d 92 4c de bd
       0.11286856 -0.072937965 0.10832769 -0.108544484
0003c0 fc 0e 27 bd b8 37 2e bd 20 da 9c 3d 94 b9 25 bd
       -0.040785775 -0.042533606 0.076587915 -0.040460184
0003d0 06 ec 92 3d ac 09 f6 bd a2 1a fb 3d 90 86 12 3c
       0.07173924 -0.120135635 0.12260939 0.008943215
0003e0 14 b6 ea 3d 10 c3 4a 3c 80 a2 5e 3c 2a ed dd bd
       0.1146051 0.012375608 0.013588548 -0.10836251
0003f0 38 2a 73 3d 50 29 f6 bd e8 4e 8f bc b0 d0 04 3c
       0.059366435 -0.120195985 -0.01749368 0.008106396

MLP_layers.0.bias f4 [32]
000000 bd 99 50 3e 92 08 0b be 64 fe df bb 0c 19 58 bd
       0.20371147 -0.13577488 -0.0068357456 -0.05275826
000010 6f 97 08 3e 01 ca 33 bd 3b b5 65 3e 5c ad 80 3e
       0.13339017 -0.043893818 0.22432415 0.25132263
000020 09 94 ae 3d c9 9b 05 bc b1 74 79 3e ac 11 c0 3e
       0.08524329 -0.008154818 0.2436092 0.37513483
000030 68 49 28 3e a1 e7 32 3e 5e fb 56 3e 1c a5 32 bd
       0.16434252 0.17471172 0.20994326 -0.04361449
000040 cc 75 4c bd 46 ec 04 3e 5d 6e 02 bd ff bb b4 bd
       -0.049917027 0.12980756 -0.031843532 -0.0882492
000050 b8 af 1d be c4 f8 46 be f7 55 1e 3e 0f 6c 08 3d
       -0.15399063 -0.19430834 0.1546248 0.033306178
000060 9a 6b 1f 3e a7 d5 dd bd 7c 6d 92 bd 19 29 1c 3e
       0.1556839 -0.108317666 -0.07149789 0.15250053
000070 83 c0 d0 bd e2 c1 79 3d b7 cc 0a 3e 2d c7 23 3e
       -0.10192969 0.060975917 0.13554655 0.15993948

MLP_layers.1.weight f4 [1, 32]
000000 ac 46 33 3e 50 d1 c8 bd e7 0e cf bd 6b 75 34 be
       0.17507428 -0.09805548 -0.10110264 -0.17622916
000010 d5 d9 16 3e 00 25 21 bd e1 52 13 3e 00 f3 26 3e
       0.14731534 -0.039341927 0.14387085 0.16303635
000020 08 5a 4b 3e 04 a3 d2 bd 97 ab 0e 3e 06 e5 1e 3d
       0.19858563 -0.10284999 0.13932644 0.038792633
000030 f1 ef 79 3e f3 12 c9 3d e8 91 3c 3e 81 1c 17 bd
       0.24407937 0.098180674 0.18415034 -0.036892418
000040 c9 7f ee bd 50 77 5a 3e 70 c9 1a bd 7b 6c 0d bd
       -0.11645467 0.21334577 -0.037789762 -0.034527283
000050 97 bd 2e be f1 8c 5d bd ad 32 80 3d c6 ad dd bb
       -0.1706451 -0.05408949 0.06259666 -0.0067651
000060 bd 56 02 3e 34 cc 13 bd b2 bd cf bd 36 1d 2c 3e
       0.127284 -0.036083415 -0.101436034 0.16808018
000070 03 e6 c6 bd da bd ca bb e0 d0 b7 3d a8 cf 23 3e
       -0.0971184 -0.006187183 0.089753866 0.15997183
