SLIC_GAT/last8.pt (torch, 80373 bytes, 12 tensors)

GAT_layers.0.f.weight f4 [32, 124]
0	0xbde71f7f	-0.11285304
1	0xbe1580d6	-0.14599928
2	0x3c94b2d8	0.018151686
3	0x3e25e453	0.1620038
4	0x3d52ad68	0.051434904
5	0x3dc4b6bd	0.09605167
6	0x3d081861	0.033226375
7	0xbe391af4	-0.18076688
8	0x3e30e633	0.17275314
9	0xb9abf368	-0.00032797013
10	0x3e345009	0.17608656
11	0xbd765c3f	-0.060146566
12	0x3c6ff017	0.014644644
13	0x3e3e7f51	0.18603255
14	0x3d5df89e	0.054192178
15	0x3de86c3f	0.11348771
16	0xbe11d42d	-0.14241095
17	0x3e1d52a0	0.1536355
18	0xbc248efa	-0.010043854
19	0x3e16fc52	0.1474469
20	0x3e0551e5	0.13019522
21	0x3e308fc4	0.17242342
22	0x3e1f0696	0.15529856
23	0x3e073225	0.13202722
24	0xbe216b42	-0.15763572
25	0xbcb8fedf	-0.02258247
26	0xbd1068b5	-0.035256106
27	0xbdd98144	-0.106203586
28	0x3d98cb18	0.07460612
29	0xbdc639e2	-0.09679009
30	0xbd0d8a82	-0.03455592
31	0x3dfc7ee1	0.12328888
32	0xbdd6ced5	-0.10488669
33	0xbe00e901	-0.12588884
34	0xbba581c0	-0.005050868
35	0x3e1edc70	0.15513778
36	0x3d317065	0.04332008
37	0xbdfe281a	-0.124099925
38	0xbe09e152	-0.13464859
39	0x3db179d2	0.086658135
40	0xbd8061be	-0.06268643
41	0xbe17da77	-0.14829431
42	0xbe39e440	-0.18153477
43	0xbe3b0583	-0.18263821
44	0x3dce801c	0.10083029
45	0xbd0bc234	-0.034120753
46	0x3df8b24f	0.12143385
47	0xbd938399	-0.07202835
48	0xbcdd600a	-0.027023334
49	0xbe1bca9a	-0.15214005
50	0xbdc2fab8	-0.09520477
51	0xbe0ec087	-0.13940631
52	0x3c375791	0.011190311
53	0x3dc38c53	0.09548249
54	0x3e419489	0.18904318
55	0x3d786f23	0.060652863
56	0x3df090d8	0.11746377
57	0xbd8f7b46	-0.070059344
58	0x3e1e9fa8	0.15490592
59	0xbe100b74	-0.14066869
60	0xbc8a1146	-0.01685394
61	0x3d99a423	0.0750201
62	0x3ddc6be9	0.1076277
63	0x3db75fc1	0.089538105
64	0x3e3ff388	0.18745244
65	0x3dbe5c6a	0.0929497
66	0xbdad0cb2	-0.08449687
67	0xbdbf8beb	-0.09352859
68	0x3e2c2a4a	0.16813007
69	0xbe311653	-0.17293672
70	0x3e1ac75e	0.15115115
71	0x3e4a955d	0.1978354
72	0x3c073f57	0.0082548475
73	0x3de4ab5c	0.11165497
74	0x3de81a31	0.113331206
75	0x3e452496	0.19252238
76	0xbddbad8f	-0.10726463
77	0x3d4daf12	0.05021579
78	0x3deabc32	0.11461677
79	0xbdfa1c5f	-0.122124426
80	0xbe364e78	-0.17803371
81	0x3e0aacd1	0.13542487
82	0xbd35ce26	-0.04438605
83	0xbdcdeccf	-0.10054933
84	0xbcf61f22	-0.030044142
85	0x3dc14786	0.0943747
86	0x3e2498a2	0.1607385
87	0x3d7b1718	0.06130132
88	0xbd086754	-0.033301666
89	0xbda0e5a1	-0.07856298
90	0x3e2d6c13	0.16935758
91	0x3e1ef0a0	0.15521479
92	0xbd62500f	-0.05525213
93	0x3dcbbedd	0.09948514
94	0x3de0e9f5	0.10982124
95	0xbcf08106	-0.029358398
96	0xbe386dfa	-0.18010703
97	0xbdaf8680	-0.08570576
98	0xbd87139a	-0.065955356
99	0x3ab365b1	0.0013686923
100	0xbe3e9bf8	-0.18614185
101	0x3e074377	0.1320933
102	0x3e29934d	0.16560097
103	0x3d58e162	0.052949317
104	0x3df46392	0.11933054
105	0xbe04c699	-0.12966384
106	0x3e2a9d69	0.1666161
107	0xb9fbaa81	-0.00048001486
108	0x3da6ea69	0.08150179
109	0xbd923a83	-0.071400665
110	0xbc3b5df3	-0.011435973
111	0x3dcc4081	0.09973241
112	0x3e2e2a46	0.17008314
113	0xbd47cdfb	-0.048780423
114	0x3c4f22c2	0.012642564
115	0x3e4389cd	0.19095536
116	0x3d9654be	0.07340382
117	0xbd633d5d	-0.055478442
118	0x3d609197	0.054826345
119	0x3db3ba51	0.087757714
120	0x3e284ba9	0.16435112
121	0x3ae19e89	0.0017213385
122	0xbc7f5b4e	-0.015585734
123	0x3d2a5d8f	0.04159313
124	0xbc48bbf0	-0.012251839
125	0xbbec86a9	-0.007218201
126	0xbe1995a4	-0.1499849
127	0x3d9d2b09	0.07674224
128	0xbc458482	-0.012055518
129	0xbe21e2a0	-0.15809107
130	0xbe38ddf6	-0.18053421
131	0x3d211755	0.03932889
132	0x3dfa5d93	0.12224879
133	0x3dce7742	0.100813404
134	0x3e293a10	0.16526055
135	0x3e31c317	0.17359577
136	0x3cda3e73	0.026641106
137	0x3e17feb3	0.14843254
138	0x3e2fcaeb	0.17167251
139	0xbdcdbf72	-0.10046281
140	0x3dc6433a	0.09680791
141	0xbe1bc246	-0.15210828
142	0xbe3ab21e	-0.18232009
143	0xbe2598b0	-0.16171527
144	0xbdaf71e7	-0.08566647
145	0x3ddef5eb	0.10886749
146	0x3b82464f	0.0039756666
147	0xbe403234	-0.18769151
148	0x3e4d1950	0.20029187
149	0xbdf198c5	-0.117967166
150	0xbe3240e8	-0.17407572
151	0x3e40b402	0.18818668
152	0x3d9a2683	0.07526877
153	0xbe1e8e36	-0.15483937
154	0xbc04dd64	-0.008109424
155	0x3e2d7a16	0.16941103
156	0xbe3527da	-0.17690983
157	0x3e0e6d37	0.1390885
158	0x3e22f416	0.15913424
159	0xbe0db147	-0.13837157
160	0xbd72b2de	-0.059252612
161	0xbe0ccf2d	-0.13750906
162	0xbdd1d739	-0.102461286
163	0xbce11248	-0.027474537
164	0xbdc6df2c	-0.097105354
165	0xbe21ca58	-0.15799844
166	0x3d6b1b81	0.057399277
167	0x3cd996b8	0.026561126
168	0x3d4cf205	0.050035495
169	0x3d8a9f73	0.06768694
170	0xbb51c162	-0.0032006134
171	0x3e1ae2f6	0.15125641
172	0xbdbaf1cd	-0.09128151
173	0x3e1bb511	0.1520579
174	0xbe2ddf1b	-0.16979639
175	0xbe3257f4	-0.17416364
176	0xbe3fcb0e	-0.18729803
177	0xbde825f6	-0.113353655
178	0xbdb57ab8	-0.08861297
179	0x3db9d1a1	0.09073187
180	0x3e3b768a	0.18306938
181	0xbd106699	-0.035254095
182	0x3e2b3136	0.16717991
183	0x3bd9a31e	0.0066417595
184	0xbd64359e	-0.055715196
185	0x3e355994	0.17709953
186	0xbd9ef121	-0.077608354
187	0x3bd5f261	0.006529138
188	0x3d3ed447	0.046589162
189	0x3d067e40	0.032835245
190	0xbd49c068	-0.04925576
191	0x3dfbe704	0.12299922
192	0x3d05cb77	0.032664742
193	0x3df9d6a9	0.12199146
194	0xbdbf7c99	-0.09349937
195	0xbdb0263f	-0.08601045
196	0x3e3cdfb0	0.18444705
197	0xbd2b08d2	-0.04175646
198	0x3dbb1034	0.0913395
199	0x3cde4f71	0.02713749
200	0xbd8217a4	-0.06352165
201	0x3d82190a	0.06352432
202	0x3c92d3fd	0.01792335
203	0x3dff600d	0.12469492
204	0x3e37a5d7	0.17934357
205	0x3c801394	0.015634336
206	0x3d756a2b	0.059915703
207	0xbe08c3a8	-0.13355887
208	0xbd44a776	-0.048011266
209	0x3df18a00	0.117938995
210	0xbd88967b	-0.06669327
211	0xbe275bdf	-0.1634364
212	0xbdb4dc61	-0.088310964
213	0xbe2f158a	-0.1709806
214	0xbcafb90e	-0.021450546
215	0x3db603f2	0.08887471
216	0xbd2b68b3	-0.041847896
217	0x3e45de13	0.19322996
218	0x3da1e804	0.079055816
219	0xbda4c0b0	-0.08044565
220	0x3d568500	0.052372932
221	0xbdd9f142	-0.106417194
222	0x3dee6836	0.116409704
223	0x3de499bb	0.11162134
224	0x3d617cd9	0.055050705
225	0x3da6b831	0.081406005
226	0x3de0c7c9	0.10975606
227	0x3d8919ae	0.06694351
228	0xbe1321ae	-0.14368317
229	0xbd2c620d	-0.042085696
230	0xbd5e0389	-0.05420259
231	0x3e3975f8	0.18111408
232	0x3d943eff	0.07238578
233	0xbd3d6b9a	-0.046245195
234	0xbe2f6ca5	-0.17131288
235	0x3df77254	0.12082353
236	0x3dcac580	0.099009514
237	0x3e102353	0.14075975
238	0x3e4d1e9c	0.20031208
239	0x3db65ce2	0.08904435
240	0xbe34e438	-0.17665184
241	0x3e11c0ad	0.14233656
242	0x3d8970a9	0.06710941
243	0xbd2f770f	-0.042838152
244	0x3e4a2fa2	0.19744733
245	0xbe38af72	-0.18035677
246	0x3de9b57a	0.11411567
247	0xbdba6024	-0.091003686
248	0xbdfd9a42	-0.12382938
249	0x3e013f5b	0.12621824
250	0xbdc5c50b	-0.096567236
251	0xbe16a0f7	-0.1470984
252	0x3bfdea7c	0.0077489
253	0x3d2fbb54	0.04290326
254	0x3e2e0493	0.16993932
255	0x3d30aa86	0.043131374

GAT_layers.0.f.bias f4 [32]
0	0x3aa407d6	0.0012514542
1	0x3d92647a	0.07148071
2	0xbbad0098	-0.005279612
3	0x3b824157	0.0039750743
4	0xbbfafea1	-0.0076597487
5	0xbd64bb04	-0.055842414
6	0xbd71968b	-0.05898146
7	0xbb9b3738	-0.004736807
8	0xbd685665	-0.056723017
9	0x3da9342e	0.082619056
10	0xbd7692b9	-0.06019852
11	0x3d817129	0.06320412
12	0x3d90fbb2	0.07079257
13	0xbdb7a5f5	-0.08967201
14	0x3c5678a8	0.01309029
15	0xbd0ed9c0	-0.03487563
16	0x3cc79458	0.024362728
17	0xbc899294	-0.016793527
18	0x3c48545f	0.012227147
19	0xbda6eeb2	-0.08150996
20	0x3b350fd2	0.0027627838
21	0x3d49d826	0.0492784
22	0xbc260f2f	-0.010135456
23	0x3c2cfc17	0.01055815
24	0xbcd91409	-0.026498811
25	0xbd272e52	-0.04081566
26	0xbc66cefc	-0.014087435
27	0x3d8b9e73	0.06817331
28	0x3d56bbc5	0.052425165
29	0x3d613ce1	0.0549897
30	0x3d5aed9b	0.053449254
31	0x3d90881f	0.07057213

GAT_layers.0.w.weight f4 [1, 124]
0	0xbe18edbb	-0.14934437
1	0x3e16f1d5	0.14740689
2	0xbe136429	-0.14393677
3	0x3dfe3911	0.12413228
4	0x3d8c1420	0.06839776
5	0x3cd28539	0.025698291
6	0xbd8967de	-0.06709264
7	0xbd2fbebb	-0.042906504
8	0x3e22a01e	0.15881392
9	0x3d5e9895	0.054344732
10	0xbd71b0bf	-0.05900645
11	0xbe278bab	-0.16361873
12	0xbe49afa7	-0.19695912
13	0xbe0217f6	-0.12704453
14	0x3e2c712a	0.16840044
15	0x3e4a4c80	0.19755745
16	0xbe041d2a	-0.1290175
17	0x3b933c70	0.0044932887
18	0xbe0442fa	-0.12916175
19	0x3d7386c6	0.0594547
20	0x3e5a72dd	0.2133288
21	0x3e06500d	0.13116474
22	0xbe047c30	-0.12937999
23	0xbe49d56e	-0.19710323
24	0x3ce850d7	0.02835886
25	0x3dfd52e9	0.123693295
26	0x3dda97e2	0.106735006
27	0xbce187b1	-0.027530523
28	0xbe1345b8	-0.14382064
29	0xbd45b30f	-0.048266467
30	0x3cdb8d98	0.026800916
31	0x3d9859a5	0.07438973
32	0xbda57fc4	-0.0808101
33	0xbe02840c	-0.12745684
34	0x3dd09c2e	0.10186039
35	0x3e3fc3ed	0.18727084
36	0x3e569591	0.20955493
37	0x3d4a7d80	0.049436092
38	0x3e2cefc7	0.16888343
39	0x3e573cad	0.2101924
40	0x3df9b32e	0.12192379
41	0x3d581f58	0.052764267
42	0xbad03afd	-0.001588672
43	0x3d5e2aef	0.054240163
44	0x3df62a81	0.12019826
45	0xbd24c071	-0.04022259
46	0xbe437b16	-0.19089922
47	0xbde92a7d	-0.11385057
48	0xbdb99b78	-0.090628564
49	0xbd0d6e7f	-0.034529205
50	0xbe0db65b	-0.13839094
51	0x3de79b66	0.11308937
52	0x3e1285e6	0.1430889
53	0xbe03a32a	-0.12855211
54	0xbe20fee5	-0.15722235
55	0x3d54575d	0.05184113
56	0xbd05e5f5	-0.032690007
57	0x3c92e51e	0.017931517
58	0x3e09609d	0.13415761
59	0xbdf2d3fd	-0.1185684
60	0x3df28b2b	0.118429504
61	0x3d5e2af4	0.054240182
62	0x3dc6d85b	0.09709235
63	0x3e10a088	0.14123738
64	0xbd76843e	-0.06018471
65	0xbe1a26c8	-0.15053856
66	0xbe2af3e5	-0.16694601
67	0xbdd4e2d4	-0.103948265
68	0x3e50a985	0.20377167
69	0xbd6102ce	-0.054934315
70	0x3e54c6ec	0.20779008
71	0xbdd1207f	-0.10211276
72	0x3e17c18e	0.14819929
73	0x3df54218	0.11975497
74	0x3e16f38e	0.14741346
75	0xbca06f9f	-0.019584475
76	0xbd27a656	-0.040930115
77	0x3e4e817b	0.2016658
78	0x3ca2a64d	0.019854689
79	0xbda13b43	-0.078726314
80	0x3e388235	0.1801842
81	0x3e35ed30	0.17766261
82	0xbe1c30e1	-0.15253021
83	0x3d418d82	0.047254093
84	0x3e422b25	0.18961771
85	0x3d9816f2	0.074262515
86	0xbc6c09b0	-0.014406607
87	0x3d2ff14e	0.042954735
88	0xbca6c239	-0.020356284
89	0x3e006078	0.125368
90	0xbdacb99b	-0.08433839
91	0xbe3059e2	-0.17221788
92	0x3c916a3a	0.017750848
93	0x3d34bfae	0.044128112
94	0x3dc56730	0.09638822
95	0x3e12967c	0.14315218
96	0x3e119b05	0.14219292
97	0x3e2850a3	0.1643701
98	0x3e29e5ea	0.16591612
99	0xbd6d6e01	-0.057966236
100	0x3e591a0b	0.21201341
101	0xbe5e24bf	-0.21693705
102	0x3d8f87aa	0.07008298
103	0xbe07b1a2	-0.13251355
104	0xbccbe4eb	-0.02488943
105	0x3e2a6dbc	0.16643423
106	0xbdb032ad	-0.08603416
107	0x3e25ef81	0.16204645
108	0x3e3e9774	0.18612462
109	0x3e56b5e7	0.20967828
110	0x3d029b95	0.031886656
111	0xbccd3a1d	-0.025052125
112	0xbda34dcd	-0.07973824
113	0xbd9981e1	-0.074954756
114	0x3e581dec	0.21105164
115	0x3dfb5fe5	0.1227415
116	0xbdb19f72	-0.0867299
117	0xbddb328f	-0.10703003
118	0x3dd97f33	0.106199645
119	0xbe3ab856	-0.18234381
120	0x3cdfda0d	0.027325654
121	0x3d2de734	0.04245682
122	0x3d1dd4d6	0.038533054
123	0x3d1e579c	0.03865777

GAT_layers.1.f.weight f4 [64, 64]
0	0xbdfd7e37	-0.12377589
1	0xbd10a991	-0.03531796
2	0x3d145623	0.03621496
3	0xbc964f22	-0.01834828
4	0xbda05392	-0.0782844
5	0x3da50666	0.08057861
6	0x3e4f6272	0.20252398
7	0x3e1c1013	0.15240507
8	0xbdef3b49	-0.116812296
9	0xbe43ac9d	-0.19108815
10	0x3d51a9e2	0.051187404
11	0xbd9702b2	-0.07373561
12	0xbd0206bf	-0.031744715
13	0x3deb28ff	0.11482429
14	0xbd515187	-0.05110314
15	0xbd8aaca4	-0.0677121
16	0xbd670309	-0.05639938
17	0xbe528941	-0.2056017
18	0x3ca1eb9f	0.019765673
19	0xbde450c2	-0.11148216
20	0x3d895226	0.06705122
21	0x3e4058e7	0.18783914
22	0x3e29f090	0.16595674
23	0xbe256903	-0.1615334
24	0xbdd5391b	-0.10411283
25	0xbe080573	-0.13283329
26	0xbd52bc2b	-0.051448982
27	0x3e0ee752	0.13955429
28	0x3e27f52b	0.16402118
29	0xbdba868b	-0.09107693
30	0xbe3343d4	-0.17506343
31	0xbb87e62b	-0.004147311
32	0x3b263680	0.0025362074
33	0xbd6ec202	-0.05829049
34	0xbd009028	-0.031387478
35	0x3d01a457	0.031650867
36	0x3d250f41	0.04029775
37	0xbe209192	-0.1568053
38	0xbe1d1550	-0.15340161
39	0x3e325032	0.17413405
40	0x3e0b8be6	0.13627586
41	0x3db69ab9	0.0891623
42	0x3d245f21	0.040129784
43	0xbde3aaaf	-0.1111654
44	0xbe1ed805	-0.15512092
45	0xbda792da	-0.081823066
46	0xbd8747b3	-0.066054724
47	0xbe36ab73	-0.1783884
48	0xbe3dd17d	-0.18536945
49	0xbd9267ac	-0.0714868
50	0x3d4bab95	0.04972418
51	0x3de03d51	0.10949195
52	0x3d1d18ec	0.038353845
53	0xbcd83fd5	-0.026397625
54	0xbe0b42cd	-0.13599701
55	0xbdcf342a	-0.101173714
56	0xbe3e45bf	-0.18581294
57	0x3e569a7d	0.2095737
58	0x3d249c37	0.04018804
59	0xbd3bf7ff	-0.045890804
60	0xbe1c325b	-0.15253584
61	0x3e058dad	0.13042326
62	0x3e149868	0.14511263
63	0x3e460736	0.19338688
64	0x3e43b088	0.1911031
65	0x3dd3635d	0.103216864
66	0xbe43cbe5	-0.19120748
67	0x3e43e837	0.19131552
68	0xbb74fe4c	-0.0037383018
69	0x3e1d2650	0.15346646
70	0xbe1b9046	-0.15191755
71	0xbe443a24	-0.19162804
72	0x3db71cd8	0.089410484
73	0x3de6ed4d	0.1127573
74	0x3b8da334	0.004322434
75	0xbda03962	-0.07823445
76	0xbc995931	-0.018719288
77	0x3e5b768b	0.2143194
78	0xbc2a6aaf	-0.010401412
79	0x3e49ff81	0.19726373
80	0x3e066302	0.13123706
81	0x3dafc3dd	0.0858228
82	0x3e42997d	0.19003864
83	0xbd36f9be	-0.044671766
84	0xbda0c130	-0.078493476
85	0xbe4bd817	-0.1990665
86	0xbde970fd	-0.11398504
87	0x3d90e2fb	0.07074543
88	0xbe447664	-0.19185787
89	0x3e19edcd	0.1503212
90	0x3d3d4367	0.046206858
91	0xbd1e7c9d	-0.03869306
92	0xbe3f201e	-0.18664595
93	0x3e30f872	0.17282274
94	0x3d866c78	0.065636575
95	0x3e3ace11	0.1824267
96	0x3ba26f82	0.0049571404
97	0x3e59c917	0.21268116
98	0xbe35f1ba	-0.17767993
99	0x3e4a97b6	0.19784436
100	0x3ae394fe	0.0017363129
101	0xbcf19317	-0.029489083
102	0x3e401d79	0.18761243
103	0xbd118a2c	-0.03553216
104	0x3dabb99a	0.0838501
105	0x3d8ec9b0	0.069720626
106	0xbe14640c	-0.1449129
107	0x3dc04735	0.09388582
108	0x3e4ae3c5	0.1981345
109	0xbcbab698	-0.022792146
110	0x3df01cca	0.11724241
111	0xbde04ddb	-0.1095235
112	0xbd328452	-0.04358322
113	0xbe1b47c5	-0.15164097
114	0xbe4d1ec2	-0.20031264
115	0x3d7a0002	0.061035164
116	0x3e3e49d7	0.18582855
117	0x3de81421	0.11331964
118	0xbd7120fe	-0.058869354
119	0x3d953661	0.072857626
120	0xbe1f5a8f	-0.15561889
121	0xbe1f495e	-0.15555331
122	0xbdd8c475	-0.10584346
123	0x3bbe8509	0.005814199
124	0xbe4845dc	-0.19557899
125	0xbd7278db	-0.059197288
126	0x3e124a49	0.1428615
127	0xbe1165c4	-0.14198977
128	0xbdbd8d50	-0.09255469
129	0xbb6ec343	-0.0036432303
130	0xbe2bb701	-0.16769029
131	0xbe232092	-0.15930393
132	0xbe27b6b8	-0.16378295
133	0x3b9abf53	0.0047225147
134	0xbe21ad90	-0.15788865
135	0xbd546524	-0.051854268
136	0xbe08c964	-0.13358074
137	0x3c843d95	0.016142646
138	0xbd5dd6a0	-0.05415976
139	0xbe294dc2	-0.16533569
140	0x3dd1b408	0.10239416
141	0xbe07dcd5	-0.13267834
142	0xbe5269d1	-0.20548178
143	0xbb881acd	-0.0041535855
144	0xbdf722b0	-0.12067163
145	0xbc18f102	-0.0093348045
146	0xbd8b75e8	-0.06809598
147	0x3d1e6727	0.038672592
148	0xbe12dead	-0.14342757
149	0xbe299fc8	-0.16564858
150	0x3e474329	0.19459213
151	0xbdd81ab4	-0.10551968
152	0xbe542cae	-0.20720169
153	0x3e06f94b	0.13181035
154	0x3e5782fa	0.21046057
155	0xbd945bae	-0.07244049
156	0x3e2aadb6	0.16667828
157	0xbd446953	-0.047952008
158	0xbc8c0f16	-0.017097037
159	0xbe248a06	-0.16068277
160	0x3e1abac7	0.15110312
161	0x3e14e07b	0.14538758
162	0xbc8b0a00	-0.016972542
163	0x3dbd0edf	0.09231352
164	0x3e130b1d	0.14359708
165	0xbe612ca9	-0.21989693
166	0xbdd8c55a	-0.10584517
167	0x3e01f8b3	0.12692527
168	0xbe4d23b8	-0.20033157
169	0x3e4db6de	0.2008929
170	0x3e559f5b	0.2086157
171	0x3da45845	0.080246486
172	0xbd95e7aa	-0.07319577
173	0x3dd1ae4f	0.10238325
174	0x3dd827a2	0.10554434
175	0x3ddf2aa0	0.10896802
176	0x3e38cd35	0.1804703
177	0xbe4e8433	-0.20167617
178	0x3df9c90a	0.12196548
179	0xbe097e83	-0.13427167
180	0x3ddee2f3	0.10883131
181	0x3e446b54	0.19181567
182	0x3e32e02b	0.17468326
183	0xbe4f7170	-0.20258117
184	0x3df99598	0.12186736
185	0xbe056c1c	-0.13029522
186	0x3e270338	0.16309822
187	0xbd243bd4	-0.04009612
188	0x3e4b0300	0.19825363
189	0xbe27bfc9	-0.16381754
190	0xbe3697ea	-0.17831388
191	0x3da1b381	0.07895566
192	0xbe5bbed0	-0.21459508
193	0x3e513e62	0.20433953
194	0x3d466034	0.04843159
195	0x3e55f243	0.20893197
196	0xbd842d10	-0.064539075
197	0x3df0bd2d	0.117548324
198	0x3c571ba9	0.013129153
199	0xbcb8503a	-0.022499193
200	0xbe27deff	-0.1639366
201	0xbd9bfa9e	-0.07616161
202	0xbe199760	-0.14999151
203	0xbdfdc2d3	-0.123906754
204	0x3ce7343c	0.02822315
205	0x3e0145e9	0.12624325
206	0x3d131b8c	0.035914943
207	0xbcc9627e	-0.024583098
208	0xbda5c280	-0.080937386
209	0xbe0c769b	-0.1371712
210	0x3d935d8f	0.07195579
211	0xbe3c0911	-0.18362834
212	0xbd8dc550	-0.069224
213	0xbe220275	-0.1582125
214	0xbe2eafda	-0.1705927
215	0xbcb1ee03	-0.021719938
216	0xbe32a98c	-0.1744749
217	0x3e102715	0.14077409
218	0x3e3ee695	0.18642648
219	0x3e40100f	0.18756126
220	0xbc84ecbe	-0.016226169
221	0xbe53b88a	-0.20675865
222	0x3e5755f0	0.21028876
223	0xbe075283	-0.1321507
224	0xbc5a8f3a	-0.013339812
225	0x3db759b9	0.0895266
226	0x3d929d11	0.07158864
227	0x3e494c12	0.19657925
228	0x3c7b02df	0.015320509
229	0x3c786b51	0.015162305
230	0xbb661195	-0.0035105695
231	0x3e07b344	0.13251978
232	0xbe1cae93	-0.1530097
233	0xbd7914b8	-0.060810775
234	0xbe2de562	-0.16982034
235	0xbe468772	-0.19387606
236	0x3da09544	0.0784097
237	0x3e0e56e4	0.13900334
238	0x3e37e1d9	0.17957248
239	0x3dee4807	0.11634832
240	0x3e56e1d8	0.2098459
241	0xbe126c04	-0.14299017
242	0x3e4ec698	0.20192945
243	0xbe04cc27	-0.12968503
244	0xbe2664a6	-0.16249332
245	0xbe2851d5	-0.16437466
246	0xbdc9b544	-0.09849027
247	0xbdfe8dff	-0.12429427
248	0xbdadc5d1	-0.08484996
249	0x3d87ff6a	0.06640513
250	0xbe1a9bbf	-0.15098475
251	0xbc64980b	-0.0139522655
252	0xbb31c560	-0.0027125701
253	0xbe1996ab	-0.14998882
254	0x3dc1c68f	0.094617
255	0x3d8ab878	0.06773466

GAT_layers.1.f.bias f4 [64]
0	0xbc0c85c5	-0.008576815
1	0xbc49581f	-0.012289076
2	0xbcaaf2a5	-0.020867655
3	0xbdd3bab4	-0.10338345
4	0xbbf83102	-0.0075742016
5	0xbbd30cea	-0.0064407485
6	0xbe008acb	-0.12552945
7	0xbc2a6288	-0.010399468
8	0xbdfc69a2	-0.12324835
9	0xbd9fa55c	-0.07795212
10	0x3db779ca	0.08958776
11	0x3d8bafc8	0.06820637
12	0xbd84b53b	-0.064798795
13	0xbddf7c8c	-0.10912427
14	0xbd0fa017	-0.035064783
15	0xbd3444f1	-0.04401106
16	0x3dae5b95	0.08513562
17	0x3e146062	0.14489892
18	0xbc792740	-0.015207112
19	0x3e09300d	0.13397236
20	0xbd60589c	-0.054772004
21	0x3da3de0f	0.08001339
22	0x3df2a0d4	0.11847082
23	0x3e10ed9b	0.1415314
24	0x3de9a1f9	0.11407847
25	0x3e1d46b5	0.15359004
26	0x3d8f83bc	0.07007548
27	0xbdc58ca8	-0.09645969
28	0xbc9b8795	-0.018985549
29	0xbdb3833c	-0.08765265
30	0xbd5d89a8	-0.054086357
31	0xbe027e93	-0.12743597
32	0x3e1262f4	0.1429556
33	0xbda99de1	-0.08282066
34	0x3d76a767	0.06021824
35	0xbd0810c0	-0.0332191
36	0xbcc2c96c	-0.023777686
37	0x3d57844b	0.0526164
38	0x3ded9798	0.1160118
39	0xbdeb292a	-0.11482461
40	0x3e07cf7e	0.13262746
41	0x3d1b49ce	0.037912183
42	0x3e0e689a	0.1390709
43	0x3e2997ef	0.16561864
44	0xbdc5d066	-0.096588895
45	0x3d3ec0f1	0.046570722
46	0x3c8dd1b9	0.017311918
47	0x3db1faa1	0.08690382
48	0xbd9e629a	-0.077336505
49	0xbc113138	-0.008861832
50	0xbd9a473c	-0.07533118
51	0xbdbe911c	-0.09305021
52	0x3d4f18c4	0.050560728
53	0x3d4869bc	0.04892896
54	0xbc9ae7f8	-0.01890944
55	0x3dab2a93	0.0835773
56	0x3e08e0a0	0.13366938
57	0xbdd2aea4	-0.10287216
58	0xbc9615db	-0.018320968
59	0x3d004a3f	0.031320807
60	0xbd48522f	-0.0489065
61	0xbd9f2369	-0.07770426
62	0xbdd61517	-0.10453241
63	0xbd4050e8	-0.04695216

GAT_layers.1.w.weight f4 [1, 64]
0	0xbda2bd17	-0.07946222
1	0xbdf86014	-0.121277004
2	0xbe6b7fcc	-0.2299797
3	0xbe1b6e1c	-0.15178722
4	0xbde57cfa	-0.11205478
5	0xbd982987	-0.07429796
6	0x3e510cc6	0.20415029
7	0x3df5af6b	0.11996349
8	0xbe5d6b41	-0.21622945
9	0xbe688276	-0.22706017
10	0x3df42e00	0.11922836
11	0x3e07ec2e	0.13273689
12	0xbe803454	-0.25039923
13	0xbe8e446e	-0.27786583
14	0xbe87acc9	-0.26499012
15	0xbccc0297	-0.024903579
16	0xbe3c600f	-0.18396018
17	0x3c714b88	0.014727481
18	0xbe5c88dc	-0.21536583
19	0xbced5e7d	-0.02897572
20	0x3e847661	0.25871566
21	0xbe85bf86	-0.26122683
22	0xbe8139f6	-0.25239533
23	0xbcccde1f	-0.02500826
24	0xbe3c2165	-0.18372114
25	0xbe3eb416	-0.18623385
26	0x3d613f59	0.054992054
27	0xbe4dfb49	-0.20115389
28	0xbe154dc6	-0.1458045
29	0xbe6c0bcb	-0.23051374
30	0x3dd5fff2	0.10449208
31	0x3db942bb	0.09045931
32	0x3e03cbf4	0.1287077
33	0xbce4e905	-0.027943144
34	0xbe374bcb	-0.17900006
35	0xbe49bc4e	-0.19700739
36	0xbe8694a5	-0.26285282
37	0x3e18553c	0.14876264
38	0xbe036f04	-0.12835318
39	0xbe7bfad6	-0.24607405
40	0x3e887dcc	0.26658475
41	0xbe1fad4e	-0.15593454
42	0x3d698ac2	0.057017095
43	0xbde5ee05	-0.11227039
44	0x3e91216f	0.2834582
45	0x3e64c025	0.22338922
46	0x3e0c4535	0.13698275
47	0xbcbf9b32	-0.023389433
48	0x3e452fe8	0.19256556
49	0xbde046dc	-0.10951015
50	0xbe7a4435	-0.24440081
51	0xbe4a8cba	-0.19780245
52	0xbd9423c2	-0.07233383
53	0x3e0621d1	0.13098837
54	0x3ced881c	0.028995566
55	0x3e91d828	0.28485227
56	0xbe0a8d31	-0.13530423
57	0x3e6274e1	0.22114898
58	0xbdbe25e2	-0.09284569
59	0x3d126c34	0.03574772
60	0xbe5c101e	-0.21490523
61	0xbe92fef5	-0.28710142
62	0x3e8cefe1	0.27526763
63	0xbe816003	-0.25268564

GAT_layers.2.f.weight f4 [64, 128]
0	0x3db36b4f	0.08760702
1	0x3e0877ce	0.13326952
2	0xbd0267a3	-0.031837117
3	0x3d278842	0.04090143
4	0x3bcf4048	0.0063248016
5	0xbe252a6c	-0.16129464
6	0xbdc023d6	-0.09381835
7	0xbd3aae0a	-0.045576133
8	0xbddf4445	-0.10901693
9	0xbcb503ab	-0.022096476
10	0x3da64775	0.08119098
11	0xbcb5d985	-0.022198448
12	0x3dad8132	0.08471908
13	0x3b060dda	0.0020455034
14	0xbe151fa9	-0.14562859
15	0x3df665f2	0.12031163
16	0xbdfdf4db	-0.12400218
17	0x3dd39791	0.103316434
18	0x3c93443d	0.017976874
19	0xbd7be95f	-0.061501857
20	0x3d0e9fb7	0.034820285
21	0xbde666a2	-0.112500444
22	0x3de7aa6e	0.11311804
23	0x3e400cb3	0.18754844
24	0x3e0198c7	0.12655936
25	0x3d0543b2	0.032535262
26	0xbc752960	-0.014963478
27	0x3e11153d	0.14168258
28	0x3e2499bf	0.16074274
29	0x3c2018bd	0.009771523
30	0xbdb482b4	-0.08813992
31	0x3d971f4c	0.07379016
32	0x3d37ea43	0.044901144
33	0xbc5555e4	-0.013020966
34	0x3e5f85c9	0.21828379
35	0x3d8d6aaa	0.0690511
36	0xbd954587	-0.07288652
37	0x3e1e76a5	0.15474947
38	0x3e13d230	0.14435649
39	0x3dafcd80	0.08584118
40	0x3ca76aa2	0.020436589
41	0x3cff2567	0.031145765
42	0xbd8a88e7	-0.06764393
43	0x3e4dbb02	0.20090869
44	0xbbb27c81	-0.005446971
45	0xbd9d02d0	-0.07666552
46	0x3e3e12e8	0.185619
47	0x3d2539f0	0.040338457
48	0xbde47a04	-0.11156085
49	0xbdf0e88d	-0.117631055
50	0xbdcadefb	-0.099058114
51	0xbd79b931	-0.060967628
52	0xbd01623d	-0.031587828
53	0x3e6486c9	0.22317041
54	0xbdf079cc	-0.11741981
55	0xbdc852d8	-0.09781426
56	0x3d38a966	0.045083426
57	0xbe05e874	-0.13076955
58	0xbe1f37ef	-0.1554868
59	0x3c9aea35	0.018910507
60	0x3db8cb09	0.09023101
61	0xbdece8c0	-0.11567831
62	0x3e0fefef	0.14056371
63	0xbc7b50e8	-0.015339114
64	0xbded4df1	-0.11587132
65	0xbd7ea733	-0.062171172
66	0x3e21c65b	0.15798323
67	0x3da2c724	0.07948139
68	0xbdae146f	-0.08499991
69	0xbddd745a	-0.10813208
70	0x3d009b66	0.0313982
71	0xbddc7849	-0.1076513
72	0xbe0e4512	-0.13893536
73	0x3e272936	0.16324314
74	0x3d32fde8	0.043699175
75	0x3ccfd722	0.025371138
76	0xbda68f52	-0.08132805
77	0x3db8d172	0.090243235
78	0x3e08a4dd	0.1334414
79	0xbd86636e	-0.065619335
80	0xbdaabe7d	-0.08337114
81	0x3e026c67	0.12736665
82	0x3e17b1db	0.1481394
83	0x3d5e23db	0.054233413
84	0x3dc26cc1	0.094933994
85	0x3e597daf	0.2123935
86	0x3e463960	0.19357824
87	0x3c691176	0.014225354
88	0xbcb86ffd	-0.022514338
89	0x3c1f2fbb	0.00971597
90	0xbb42905c	-0.0029688096
91	0xbbdb66ec	-0.006695619
92	0x3caffd82	0.021483187
93	0x3d2225d8	0.03958687
94	0xbdb5c7f4	-0.08876029
95	0xbdf7c188	-0.1209746
96	0x3dc7000d	0.097168066
97	0x3dc5670e	0.09638797
98	0x3e39e423	0.18153434
99	0x3d9131be	0.07089566
100	0xbd16dd1b	-0.036831956
101	0xbd927119	-0.07150478
102	0x3e2c6e8f	0.1683905
103	0x3d0b6ffd	0.034042347
104	0x3e320f4c	0.17388648
105	0xbe087793	-0.13326864
106	0x3e11db2d	0.14243765
107	0x3d6c64aa	0.05771319
108	0xbc3980e0	-0.01132223
109	0x3dd7ea88	0.1054278
110	0x3db1c9dc	0.0868108
111	0x3e0cdff2	0.13757303
112	0xbd97dcbe	-0.0741515
113	0x3bf292a9	0.007402737
114	0x3d9c6f42	0.07638408
115	0xbc6a22e1	-0.014290542
116	0x3d8b474a	0.06800707
117	0xbcf649e6	-0.030064534
118	0x39e0b3f4	0.00042858685
119	0x3db7d586	0.08976273
120	0x3db1264f	0.08649885
121	0x3e322e70	0.17400527
122	0x3d778d29	0.060437355
123	0xbd4b579e	-0.049644105
124	0x3d96462e	0.073376045
125	0x3dcba265	0.09943084
126	0xbdb2cf00	-0.08730888
127	0x3e0f3390	0.13984513
128	0xbe2235de	-0.15840861
129	0xbd98bf5e	-0.074583754
130	0xbd74ff25	-0.059813637
131	0xbe203d8d	-0.1564848
132	0x3ccf0f33	0.025275802
133	0xbc93fb17	-0.018064065
134	0xbdab6b99	-0.08370132
135	0x3e05ed4a	0.130788
136	0xbd157caf	-0.03649586
137	0xbda9e73b	-0.08296057
138	0xbde59845	-0.11210684
139	0xbe334e42	-0.17510322
140	0xbd9a593e	-0.07536553
141	0x3e0953ee	0.13410923
142	0x3d04bb24	0.032405034
143	0x3e2bd1d4	0.16779262
144	0x3e14f3b7	0.14546095
145	0xbe072463	-0.13197474
146	0xbe0709c8	-0.13187325
147	0xbd3b7e19	-0.045774553
148	0x3e2eb8ce	0.17062685
149	0xbd883da0	-0.06652379
150	0xbdca1e86	-0.09869103
151	0xbd9470ad	-0.07248054
152	0xbc6d02f4	-0.014466036
153	0x3dd4e5ce	0.10395394
154	0x3bda3864	0.0066595543
155	0xbd218c7b	-0.039440613
156	0xbd8454a3	-0.06461456
157	0x3de466c8	0.111524165
158	0x3d725161	0.05915964
159	0xbdaf0352	-0.08545555
160	0x3dbcdf3a	0.092222646
161	0xbdc1e946	-0.094683215
162	0xbe2c97bf	-0.16854762
163	0xbbbb4e26	-0.005716103
164	0xbc1c7022	-0.009548219
165	0xbdd81975	-0.105517305
166	0xbd071226	-0.032976292
167	0xbe271a3c	-0.16318601
168	0xbdae6679	-0.08515639
169	0xbd6280cc	-0.05529861
170	0xbd90ebc5	-0.070762195
171	0x3d23305a	0.039841034
172	0xbd4a2dbf	-0.049360033
173	0x3dc11268	0.09427339
174	0xbcae9922	-0.021313254
175	0xbe39322c	-0.18085545
176	0x3db274fc	0.08713719
177	0x3cecacf5	0.028891066
178	0x3dea0c4e	0.11428128
179	0x3e2178b4	0.15768701
180	0x3cd944ca	0.026522059
181	0x3dce66a2	0.100781694
182	0x3e10438f	0.14088272
183	0xbd470946	-0.04859283
184	0xbd281c2b	-0.041042488
185	0xbda10196	-0.078616306
186	0x3d53852e	0.051640682
187	0x3df85b2c	0.12126765
188	0xbcdf4b5f	-0.02725762
189	0xbd1c2ab0	-0.038126647
190	0xbdb8ae13	-0.09017577
191	0x3e34a4c8	0.17640984
192	0x3e2a9981	0.1666012
193	0x3e05664b	0.13027303
194	0x3dfa95f1	0.1223563
195	0x3ddedc48	0.10881859
196	0x3df7fb7b	0.12108513
197	0x3c169296	0.009190222
198	0xbd59619f	-0.053071614
199	0x3d0e2f93	0.03471334
200	0x3d6f22b9	0.058382723
201	0x3e3026d1	0.17202307
202	0xbe398f14	-0.18120986
203	0x3e0a0610	0.13478875
204	0x3def1d1b	0.11675473
205	0x3d1752c3	0.036944162
206	0xbdebd325	-0.11514882
207	0xbcd4bdb8	-0.025969371
208	0xbcb3ca4c	-0.021947049
209	0xbdb89a7f	-0.09013843
210	0xbdcf81ed	-0.10132203
211	0xbd688454	-0.056766823
212	0x3d243c7e	0.040096752
213	0xbd35fd57	-0.044431057
214	0x3ce0ae64	0.027426906
215	0xbd04bf05	-0.032408733
216	0xbe233ba8	-0.15940726
217	0xbd661282	-0.056169994
218	0x3dc13690	0.09434235
219	0xbd4be516	-0.04977902
220	0xbe21a1e4	-0.15784413
221	0x3e3737c3	0.17892365
222	0xbdd6430a	-0.104620054
223	0xbd6e02fc	-0.058108315
224	0x3b36f31b	0.0027915898
225	0xbb2e9ef0	-0.0026645027
226	0x3e19f277	0.15033899
227	0x3db93204	0.09042743
228	0x3dc9b058	0.09848088
229	0x3db02760	0.0860126
230	0xbcb0318d	-0.021508003
231	0x3deee8d0	0.11665499
232	0x3bf906e5	0.007599699
233	0x3e09ba7e	0.13450047
234	0x3d8ce36c	0.06879315
235	0xbd43e948	-0.047829896
236	0xbdad9079	-0.084748216
237	0x3dc144cf	0.09436952
238	0x3d16ce5a	0.036817886
239	0xbd9d4e81	-0.07680989
240	0x3e00c186	0.12573823
241	0xbe099039	-0.13433923
242	0xbe225761	-0.15853645
243	0x3ca65ae0	0.020307004
244	0x3e1e2111	0.15442301
245	0xbe1746aa	-0.1477305
246	0x3e20e958	0.15714014
247	0xbbad90cf	-0.0052968035
248	0x3e175d15	0.14781602
249	0xbddda8a5	-0.10823182
250	0xbca8577c	-0.020549528
251	0xbb8800b2	-0.0041504735
252	0x3dd64f8e	0.104643926
253	0xbb82eac7	-0.003995273
254	0x3d4727ca	0.04862193
255	0x3cba87ac	0.022769772

GAT_layers.2.f.bias f4 [64]
0	0x3df56fcc	0.11984214
1	0x3d2cd575	0.042195756
2	0xbdb3de3d	-0.08782623
3	0x3d75d7da	0.060020305
4	0xbd35975d	-0.044333804
5	0x3d06b3b9	0.03288624
6	0x3da60fb8	0.08108467
7	0x3db73895	0.08946339
8	0x3de45732	0.11149444
9	0x3d3bb05b	0.045822483
10	0xbdb2391e	-0.087023005
11	0x3e032e7a	0.12810698
12	0x3da19bef	0.0789107
13	0x3be0d426	0.0068612276
14	0x3d9e7fd4	0.07739225
15	0xbd8b318d	-0.067965604
16	0xbda2d3b3	-0.07950535
17	0xbd94e748	-0.07270676
18	0x3dee1fc0	0.116271496
19	0x3dc66ae2	0.09688355
20	0x3ce1e3f2	0.027574513
21	0xbca3df05	-0.020003805
22	0x3db9f97f	0.09080791
23	0x3d61d1d6	0.055131756
24	0xbd2eb91f	-0.042657014
25	0xbd96feea	-0.0737284
26	0xbd830a88	-0.06398493
27	0x3c11a5af	0.0088896
28	0xbd910edc	-0.07082912
29	0x3d456182	0.048188694
30	0x3de4698c	0.11152944
31	0xbd2855ea	-0.04109756
32	0xbcd4a46c	-0.025957309
33	0x3d307132	0.0430767
34	0x3c5bf115	0.013424178
35	0xba32f588	-0.0006826748
36	0x3d9d2579	0.07673163
37	0x3ca898ae	0.020580616
38	0x3d834758	0.06410092
39	0x3d58ea06	0.052957557
40	0x3da0b49b	0.07846948
41	0xbd9a43a6	-0.07532434
42	0x3d80831a	0.06275006
43	0x3dd876af	0.10569512
44	0xbc8f5a6c	-0.017499171
45	0x3c35b326	0.011090076
46	0xbc806c19	-0.015676545
47	0xbc3a5b5c	-0.011374321
48	0xbcb726cf	-0.022357373
49	0x3b18257a	0.0023215697
50	0x3d6eecca	0.05833129
51	0x3d9b4db4	0.0758318
52	0xbdb2c371	-0.08728684
53	0x3df00378	0.117194116
54	0xbd444f5f	-0.047927257
55	0x3d9750f6	0.07388489
56	0xbd54931a	-0.0518981
57	0x3d9037e4	0.0704191
58	0x3de55fe2	0.11199929
59	0xbd19a26e	-0.03750842
60	0x3de9f258	0.114231765
61	0x3d135b50	0.035975754
62	0xbc95245c	-0.018205814
63	0xbbed52f0	-0.007242553

GAT_layers.2.w.weight f4 [1, 128]
0	0xbe57207a	-0.21008483
1	0xbd17fd3b	-0.037106734
2	0xbe10c07f	-0.14135931
3	0x3d8b4f3b	0.068022214
4	0x3dec0003	0.1152344
5	0x3e198b47	0.14994536
6	0xbd44e580	-0.04807043
7	0xbdc14e56	-0.094387695
8	0x3d5f005e	0.05444371
9	0x3d2969d4	0.04136069
10	0x3f86bd0a	1.052644
11	0x3f58977e	0.8460616
12	0x3e3980ce	0.18115541
13	0x3ba65c8c	0.0050769504
14	0xbe4a6849	-0.19766344
15	0x3e4d7a56	0.20066199
16	0x3f4c6663	0.7984373
17	0x3f6e009a	0.9296967
18	0x3d8534b7	0.06504195
19	0x3f402098	0.75049734
20	0x3e256227	0.16150723
21	0x3f62036d	0.8828648
22	0x3f6c9cb4	0.9242661
23	0x3f4ab1a9	0.7917734
24	0x3f350442	0.7070962
25	0x3f1ef3e4	0.620909
26	0x3f247e32	0.6425506
27	0xbc134aa0	-0.00898996
28	0x3bf5be57	0.007499497
29	0x3ce9ee11	0.028555902
30	0xbde852e0	-0.11343932
31	0xbe2838f0	-0.1642797
32	0x3f61c997	0.88198227
33	0xbe3a4f55	-0.18194325
34	0x3f553436	0.8328279
35	0x3cb41fb8	0.02198778
36	0xbdfa83ff	-0.122322075
37	0x3f6a2eb6	0.91477525
38	0x3f4e62dc	0.806196
39	0xbe06f369	-0.13178791
40	0x3f475e48	0.77878237
41	0x3f466f66	0.7751373
42	0x3f609612	0.8772899
43	0x3f24741e	0.6423968
44	0x3e326bf3	0.17423992
45	0x3f860ea1	1.0473214
46	0x3f2694c2	0.65070736
47	0x3f48a03a	0.78369486
48	0x3c4e0b5f	0.012575953
49	0x3b9c9ee3	0.004779683
50	0x3dfa0535	0.122080244
51	0xbe0fe56f	-0.14052366
52	0x3f4a39f8	0.78994703
53	0x3f5d58aa	0.86463416
54	0xbe00af6e	-0.12566921
55	0x3f322a6f	0.69596
56	0x3f56606a	0.83740866
57	0x3e470c98	0.19438398
58	0x3de195cd	0.110149
59	0x3f76fcdf	0.964796
60	0x3dcf47ab	0.101210915
61	0xbe291b49	-0.16514315
62	0x3e34c452	0.17653015
63	0x3d511d50	0.051053345
64	0x3e04e264	0.12976986
65	0xbc98b0e5	-0.018639037
66	0x3e53cbd8	0.20683229
67	0x3d522d49	0.05131272
68	0xbe544737	-0.20730291
69	0x3e5337ed	0.20626803
70	0xbcc4535f	-0.023965536
71	0xbe5b587d	-0.21420474
72	0x3d034da1	0.032056455
73	0xbd10f38d	-0.035388518
74	0x3e411d71	0.18858887
75	0xbe05429b	-0.13013689
76	0xbdd1a2c0	-0.1023612
77	0x3e011874	0.12606984
78	0x3d50759c	0.05089341
79	0xbe62138e	-0.22077772
80	0xbdaefe45	-0.08544592
81	0xbca53d16	-0.02017073
82	0xbcd4a38c	-0.025956891
83	0xbd425a50	-0.04744941
84	0x3e28f1a3	0.16498427
85	0xbd95250a	-0.07282455
86	0xbd91b949	-0.071154185
87	0xbd2e5151	-0.042558018
88	0x3e64bdaa	0.22337976
89	0x3e4540b2	0.1926296
90	0x3db0812a	0.08618386
91	0x3e2b61d1	0.16736533
92	0x3cadb14a	0.021202702
93	0xbe1259a8	-0.14292014
94	0xbe168a84	-0.14701277
95	0x3cb24e51	0.02176586
96	0xbc87e841	-0.01659024
97	0x3dcbdbd7	0.099540405
98	0x3e35dd80	0.17760277
99	0x3e090d03	0.1338387
100	0xbe5bb2ac	-0.21454877
101	0x3d3f3c6d	0.046688486
102	0xbca6d087	-0.020363105
103	0xbe3043fc	-0.17213434
104	0xbe289213	-0.16461973
105	0x3dd7faf1	0.1054591
106	0xbe3940d2	-0.18091133
107	0xbe172997	-0.14761959
108	0xbd1875d3	-0.03722174
109	0xbdf19483	-0.117959045
110	0x3e0167b9	0.12637223
111	0xbe22318c	-0.15839213
112	0x3e47c3a7	0.19508229
113	0x3d9dff45	0.077147044
114	0x3d7576b7	0.05992767
115	0x3e3a72a6	0.18207797
116	0x3de7beb0	0.11315668
117	0x3dc50ad5	0.09621207
118	0xbe3aefe9	-0.18255581
119	0x3e46bdb7	0.19408308
120	0xbdd22b8b	-0.102622114
121	0xbe362471	-0.17787339
122	0xbd3a438f	-0.045474585
123	0xbd530c2a	-0.051525272
124	0xbe371826	-0.17880306
125	0x3e13cbb4	0.14433175
126	0x3e403bd1	0.18772818
127	0x3e52fab2	0.20603445

MLP_layers.0.weight f4 [32, 64]
0	0xbcfc8190	-0.030823499
1	0xbd8ba8f8	-0.068193376
2	0xbd67b6f8	-0.056570977
3	0xbd5bd6ac	-0.053671524
4	0xbdf4e894	-0.11958423
5	0x3d8ed0e4	0.069734365
6	0xbddf7cbc	-0.10912463
7	0xbd8bf20e	-0.06833278
8	0x3cf74e60	0.03018874
9	0x3cd71ba8	0.026258305
10	0x3c192fb0	0.0093497485
11	0x3c047630	0.008084819
12	0x3da740ac	0.08166632
13	0xbd1cd98c	-0.038293406
14	0xbde35c00	-0.11101532
15	0x3d98e660	0.074658155
16	0xbb2cea80	-0.002638489
17	0x3dd9fd10	0.10643971
18	0x3de20b56	0.110373184
19	0xbda6e12a	-0.081484154
20	0xbdc00eba	-0.09377809
21	0x3db0650c	0.08613023
22	0x3dabf794	0.08396831
23	0xbdd75a9e	-0.10515331
24	0xbbcaf900	-0.006194234
25	0xbd1b1510	-0.037861884
26	0x3dd2e24a	0.102970675
27	0x3c952870	0.018207759
28	0xbddcf7a6	-0.10789423
29	0x3cb18fe8	0.021675065
30	0xbdc4a166	-0.09601097
31	0xbd63f23c	-0.055650935
32	0xbd1798c8	-0.037010938
33	0xbdc1f86a	-0.09471209
34	0x3d6d3158	0.057908386
35	0x3d9f477e	0.07777308
36	0xbd4d78ac	-0.05016391
37	0x3bc9a180	0.0061532855
38	0xbd04a908	-0.032387763
39	0x3df398c0	0.11894369
40	0x3d748840	0.05970025
41	0xbdbd85e0	-0.0925405
42	0xbd3bd854	-0.045860603
43	0x3d7a2114	0.061066702
44	0xbbb2f9a0	-0.0054618865
45	0x3d727740	0.059195757
46	0xbd9d17ce	-0.07670556
47	0xbda4a8c0	-0.08039999
48	0x3d1fdc58	0.039028496
49	0xbd639ec4	-0.055571333
50	0x3cee61d8	0.02909939
51	0xbdc4a5be	-0.09601925
52	0x3deb708e	0.114960775
53	0xbdd30d10	-0.10305226
54	0x3d0fe384	0.035129085
55	0x3d800b0c	0.06252107
56	0xbc1db7f0	-0.009626374
57	0xbd8421e4	-0.064517766
58	0x3c522c60	0.012827963
59	0x3d616a74	0.055033162
60	0xbdee7f1a	-0.116453364
61	0x3cda80d0	0.02667275
62	0xbca03628	-0.019557074
63	0x3dcbe90a	0.09956558
64	0x3cadf19b	0.02123337
65	0xbe05cf70	-0.13067412
66	0x3d2a4681	0.041571144
67	0xbd1da070	-0.038483083
68	0x3def7c68	0.116936505
69	0x3d3ed850	0.04659301
70	0xbc3573f6	-0.0110750105
71	0xbdac8c93	-0.0842525
72	0x3c544972	0.012956964
73	0x3d5785b1	0.052617732
74	0x3cdff8c1	0.027340295
75	0x3ced8d0c	0.02899792
76	0xbcfea3f4	-0.031084038
77	0xbd321c1d	-0.043483842
78	0xbd99901c	-0.0749819
79	0xbca479a0	-0.020077527
80	0x3d25728c	0.040392444
81	0x3c88e845	0.016712317
82	0xbd3e5497	-0.04646739
83	0xbca492b1	-0.02008948
84	0x3daa526b	0.08316501
85	0x3d9a347e	0.07529543
86	0x3c980f14	0.018561877
87	0xbc3bac46	-0.011454647
88	0xbd42dedc	-0.047575817
89	0xbd8c0904	-0.06837657
90	0xbd2d9e98	-0.042387575
91	0x3c8e6b33	0.017385101
92	0x3da359d5	0.079761185
93	0xbdbf9c15	-0.09355942
94	0x3d9bcd83	0.076075576
95	0xbc8a48ad	-0.016880358
96	0x3d0a57e0	0.03377521
97	0xbd559dbf	-0.05215239
98	0xbd689463	-0.056782138
99	0x3c563043	0.01307303
100	0xbe0c9544	-0.13728815
101	0xbddd4fc3	-0.10806229
102	0x3c48f1c7	0.012264675
103	0xbe0b3374	-0.13593847
104	0xbc1fa844	-0.0097447075
105	0x3d51ddaa	0.051236786
106	0x3dd0664f	0.10175764
107	0xbdde8d3d	-0.10866783
108	0x3d755054	0.05989106
109	0x3d4c2cdc	0.04984747
110	0xbd155f57	-0.036467876
111	0xbd7bac4d	-0.061443616
112	0x3da5e086	0.08099465
113	0x3dd1e42a	0.10248597
114	0x3dc1aa5b	0.09456321
115	0x3d85ad99	0.06527252
116	0x3da6c8a8	0.08143741
117	0x3d1d70fb	0.038437825
118	0x3dc756b4	0.09733334
119	0x3d4f648a	0.05063299
120	0x3d556fc5	0.052108545
121	0x3da27312	0.07932104
122	0xbdd4d967	-0.10393029
123	0x3db070f8	0.08615297
124	0x3ca627e9	0.020282703
125	0xba8ee361	-0.0010901504
126	0xbccb3dce	-0.024809744
127	0xbd6b777f	-0.057487007
128	0x3db3be81	0.0877657
129	0xbd876e27	-0.06612807
130	0xbc595f80	-0.013267398
131	0x3e0e989f	0.13925408
132	0xbd165384	-0.03670074
133	0x3e1a0cc7	0.15043937
134	0x3e9c42c3	0.30519685
135	0x3e00ae0c	0.12566394
136	0x3df6e3ed	0.12055192
137	0x3df63b82	0.12023069
138	0xbccd2c50	-0.025045544
139	0x3e00f87f	0.12594794
140	0xbc3bd17a	-0.011463517
141	0xbdb00df8	-0.08596414
142	0x3bbe802e	0.00581362
143	0x3cc74838	0.024326429
144	0x3bbc2fe0	0.005743012
145	0xbdbe59c8	-0.09294468
146	0x3f398a9d	0.7247713
147	0x3da38845	0.07984976
148	0xbdbb0631	-0.0913204
149	0x3e090bf6	0.13383469
150	0x3d8021bb	0.062564336
151	0x3c9feb26	0.019521307
152	0x3d1fec8c	0.039043948
153	0xbd751c98	-0.059841722
154	0xbd5d7320	-0.05406487
155	0x3c3fa767	0.011697627
156	0x3d87689e	0.06611751
157	0xbd645d4d	-0.05575304
158	0xbcfdf5f5	-0.03100107
159	0xbd9dfdad	-0.077144004
160	0xbdb4ddb0	-0.08831346
161	0x3b040d70	0.002014961
162	0x3d7e401b	0.062072854
163	0xbd8d29b4	-0.0689272
164	0x3d1a177e	0.03762006
165	0x3e228b8a	0.15873542
166	0x3eb8b4e5	0.36075512
167	0x3e19055a	0.14943448
168	0xbd4266bf	-0.047461268
169	0xbd924cfe	-0.07143591
170	0x3dec944c	0.11551723
171	0xbd9c222e	-0.07623707
172	0x3dad1690	0.08451569
173	0xbda0f277	-0.078587465
174	0xbdf8a0bc	-0.12140033
175	0x3e0d4c41	0.1379862
176	0x3e2910cc	0.16510314
177	0x3d63539b	0.055499654
178	0x3da9f569	0.082987614
179	0xbc98ded5	-0.018660942
180	0x3c6ce240	0.014458239
181	0xbb1ec445	-0.0024225872
182	0x3d160250	0.0366233
183	0xbd6760d3	-0.056488823
184	0xbb526840	-0.0032105595
185	0xbc01fde9	-0.007934072
186	0x3e21bea4	0.1579538
187	0xbd9eb648	-0.07749611
188	0xbcfe3f01	-0.031035902
189	0xbd562304	-0.052279487
190	0x3d982ea6	0.074307725
191	0x3dad6243	0.084660076
192	0x3da21419	0.079139896
193	0xbd43abda	-0.047771312
194	0xbd4a9797	-0.049460974
195	0x3e237cfc	0.15965647
196	0x3d575608	0.05257228
197	0x3d8f8e15	0.07009522
198	0x3e00d2b8	0.12580383
199	0x3af2e1a3	0.001853038
200	0x3d87d2bc	0.06631991
201	0x3d90b877	0.07066434
202	0xbd9de0dd	-0.07708905
203	0xbc217c83	-0.009856346
204	0x3c8c0ad3	0.017095005
205	0x3cc8797d	0.024471993
206	0x3e0c979d	0.13729711
207	0xbd9be86c	-0.0761269
208	0xbdf5ca58	-0.12001485
209	0x3cafe57b	0.02147173
210	0x3c9a317c	0.018822424
211	0x3e13e739	0.14443673
212	0x3d6f1231	0.058366958
213	0x3e326d48	0.174245
214	0xbbb4119a	-0.0054952623
215	0x3d32d638	0.043661326
216	0x3cda43d0	0.026643664
217	0xbd65b6c6	-0.05608251
218	0x3d2d0177	0.042237725
219	0xbcae3b32	-0.02126846
220	0x3d97962b	0.07401689
221	0x3a8d28ca	0.0010769602
222	0x3dc207da	0.09474154
223	0x3da72937	0.08162158
224	0xbd8fbc74	-0.070183665
225	0x3dce539e	0.100745425
226	0x3d94ea85	0.072712936
227	0x3bb5926b	0.005541136
228	0x3e109e19	0.1412281
229	0xbd452cba	-0.048138358
230	0x3eaa4d80	0.33262253
231	0x3e1f9b4e	0.15586588
232	0x3dea1a3c	0.11430785
233	0xbd41ab7c	-0.04728268
234	0x3daa1c6c	0.08306202
235	0x3e273f88	0.16332829
236	0x3dd72a0e	0.10506068
237	0xbdc4dcc9	-0.09612424
238	0xbd87990c	-0.06620988
239	0x3c8b26d7	0.016986294
240	0xbd343de9	-0.044004355
241	0xbd0b8ce5	-0.034069914
242	0x3de659b4	0.11247578
243	0xbd267703	-0.040640842
244	0x3db79b66	0.08965187
245	0x3c43ecc3	0.011958304
246	0xbd96d4ba	-0.07364793
247	0x3deff470	0.11716545
248	0xbd868df4	-0.06570044
249	0x3de44334	0.111456305
250	0x3db53f63	0.08849981
251	0x3d51d080	0.05122423
252	0x3d9d3164	0.07675436
253	0xbdb93e0b	-0.09045037
254	0xbc6b3c89	-0.014357694
255	0xbb96bb70	-0.004599981

MLP_layers.0.bias f4 [32]
0	0xbdb3ed7e	-0.087855324
1	0x3d9108c3	0.07081749
2	0x3d0fc501	0.035099987
3	0xbc36c291	-0.011154787
4	0x3dbb88af	0.0915693
5	0x3e473cb2	0.19456747
6	0xbd46e83a	-0.048561312
7	0xbd43846c	-0.04773371
8	0x3e3fecdb	0.18742697
9	0xbdf8c217	-0.12146395
10	0x3d33c29f	0.043886777
11	0x3db2c09e	0.08728145
12	0xbcf76d25	-0.030203411
13	0x3e247bf0	0.16062903
14	0xbde133b0	-0.10996187
15	0xbc7a23d5	-0.015267332
16	0xbd90fe06	-0.07079701
17	0x3d9a6546	0.075388476
18	0xbd31fa68	-0.043451697
19	0xbdcd8846	-0.10035758
20	0xbd4bfb04	-0.049799934
21	0x3da5044c	0.0805746
22	0xbdef203c	-0.1167607
23	0x3d2552a5	0.04036202
24	0x3d7ceb93	0.0617481
25	0x3a1b4400	0.00059229136
26	0x3bbec800	0.0058221817
27	0x3da9eba4	0.08296898
28	0x3c428593	0.011872667
29	0x3c97cd50	0.018530518
30	0x3dce37aa	0.10069211
31	0xbdda0e3c	-0.10647246

MLP_layers.1.weight f4 [1, 32]
0	0x3e0b70bc	0.13617224
1	0xbe2935e8	-0.1652447
2	0x3e107290	0.14106202
3	0x3e3eebe1	0.18644668
4	0xbe06cb0a	-0.13163391
5	0x3dc32bb8	0.09529823
6	0xbe007e1f	-0.12548111
7	0x3dae9575	0.085246004
8	0x3d528ba4	0.051402703
9	0xbcd47639	-0.02593528
10	0xbcb75a14	-0.02238182
11	0xbe214182	-0.15747645
12	0xbbb44824	-0.005501764
13	0x3e25bfd9	0.16186465
14	0x3e32b385	0.17451294
15	0xbbe44109	-0.0069657606
16	0x3d690ae3	0.056895148
17	0xbca21fe6	-0.019790601
18	0xbdb6922d	-0.089145996
19	0xbddc2aad	-0.10750327
20	0x3e217e2f	0.15770791
21	0xbe1eaef5	-0.15496428
22	0xbe24517d	-0.1604671
23	0xbdf1b08f	-0.11801254
24	0x3e515788	0.20443547
25	0x3e240048	0.16015732
26	0xbdd0ff00	-0.102048874
27	0xbd618a6e	-0.055063657
28	0xbdd768aa	-0.1051801
29	0x3ce2ffc2	0.027709845
30	0xbe117ab2	-0.14206961
31	0xbdebd5f0	-0.11515415
