SLIC_GAT/last2.pt (torch, 580781 bytes, 30 tensors)

GAT_layers.0.GAT_heads.0.f.weight f4 [32, 124]
0.025754461 -0.012172651 -0.14997452 -0.14919256 -0.084787615 -0.0973838 0.19244614 0.18593174
-0.13746607 0.08929845 0.075789884 -0.1443501 0.022634108 0.19267759 0.15893771 0.00068820367
0.08229014 -0.08471874 0.02258202 -0.025427882 -0.06341543 -0.09646515 0.06734359 0.0908325
0.1481179 0.124725804 0.16977729 0.08161747 -0.021258986 -0.1404386 0.18537296 -0.15539141
-0.1635782 0.027110951 -0.16380423 0.19339892 0.055674966 -0.16658755 0.09381592 0.061619908
0.07573868 0.12236821 0.14254794 0.04035795 -0.008594375 0.03599029 -0.19377151 0.045460343
-0.060981337 0.024382215 -0.073839575 0.12695344 -0.013440136 -0.19377553 0.10525897 -0.061410412
-0.09295182 -0.11043437 -0.1903117 0.10434705 -0.17596954 -0.1908384 0.15579143 0.10032649
-0.087325044 0.03504258 0.0027110132 -0.12298003 -0.092406414 0.12995979 -0.0035361703 0.09273465
0.14773796 -0.068882085 -0.10693975 0.022942428 -0.13900904 0.13283719 0.10366135 -0.022602687
-0.18129069 0.12464131 -0.104183964 -0.16604516 0.024950182 -0.15720175 -0.16860996 -0.17045109
-0.19255042 -0.17303783 0.10784689 -0.038978647 -0.14469464 -0.05558823 -0.04818246 0.18670572
-0.14824373 0.037332773 -0.0899564 -0.08659401 -0.16658597 -0.097342186 0.09099529 0.021037519
-0.07940933 -0.021631762 0.041581087 -0.10150416 -0.00038243146 -0.120892555 -0.1047011 0.1134592
-0.0904302 -0.05143334 -0.17153794 -0.108844094 -0.04631096 0.14746022 -0.11506137 0.12986389
0.020717438 -0.08976091 -0.14470454 -0.14271095 -0.13686207 -0.16462064 0.033635948 0.18136846
0.07018634 -0.03574686 -0.05363871 0.0746756 -0.17610878 -0.012549679 -0.19021301 -0.030012004
0.17627792 -0.069351755 -0.014436748 0.0036005767 -0.19154505 -0.15668115 0.16075858 0.18594372
-0.07493413 -0.101942584 -0.15676458 -0.16638242 0.05005762 -0.0016827 -0.09559739 -0.14109126
-0.03239646 0.011001739 -0.0021651592 0.094656624 -0.027048046 0.031073911 -0.17150511 -0.07912983
0.14211147 -0.17008297 -0.04202054 -0.017899163 0.18342401 -0.07098567 -0.0852919 0.00794519
-0.14291412 -0.16051802 0.118963026 -0.08283733 0.19593321 -0.1368039 -0.14745544 -0.14136685
-0.17288624 0.18361275 0.08729097 -0.063069545 -0.10548928 0.004235125 -0.15451087 0.08238973
0.12784821 -0.16222881 0.06196466 0.13693628 0.18048376 -0.17379104 -0.07188354 0.0051885443
0.14738756 0.008614706 0.057809506 0.12355531 -0.16659811 -0.017461995 -0.10695324 -0.076712124
0.1866212 -0.17416815 -0.12456481 0.09315465 0.1423681 -0.07439618 -0.13844945 -0.069484115
0.011765977 -0.073928386 0.040782172 0.104291625 0.091373846 0.19090208 -0.10457817 -0.055276062
0.19077517 -0.077844895 0.100155 -0.028049976 0.113179415 -0.03217177 0.011691069 -0.09251847
-0.11545809 -0.02292639 0.039849207 -0.10403263 0.062329363 0.10500426 0.035305664 0.1604081
0.120286696 0.048643164 0.068859756 -0.15044022 0.19315019 0.064790994 0.0889837 0.096864365
-0.027206447 0.04945595 0.07960658 0.115863845 -0.08040062 -0.10599628 -0.13490093 0.17846838
0.06293012 0.17833596 -0.08661895 -0.110816926 -0.09829265 -0.15074363 -0.12875314 0.080014944
00000000: 05fb d23c cc6f 47bc ec92 19be efc5 18be
00000010: 21a5 adbd 2871 c7bd 9a10 453e e464 3e3e
00000020: e8c3 0cbe 1be2 b63d ba37 9b3d 83d0 13be
00000030: 2a6b b93c 464d 453e 91c0 223e 9168 343a
00000040: bc87 a83d 0581 adbd eefd b83c 224e d0bc
00000050: f3df 81bd 858f c5bd 70eb 893d 6406 ba3d
00000060: 38ac 173e 3e70 ff3d 19da 2d3e 0f27 a73d
00000070: 5327 aebc 23cf 0fbe 69d2 3d3e ed1e 1fbe
00000080: 0b81 27be c917 de3c 4cbc 27be 5e0a 463e
00000090: 6f0b 643d ed95 2abe 9022 c03d 2865 7c3d
000000a0: e21c 9b3d 2f9c fa3d 16f8 113e 614e 253d
000000b0: 6ccf 0cbc 8e6a 133d 0a6c 46be a034 3a3d
000000c0: 91c7 79bd 36bd c73c 3439 97bd 1500 023e
000000d0: 0434 5cbc 186d 46be 0492 d73d 7c89 7bbd
000000e0: 865d bebd 6a2b e2bd 12e1 42be e8b3 d53d
000000f0: 5c31 34be 246b 43be ca87 1f3e fa77 cd3d
00000100: 79d7 b2bd cf88 0f3d 41ab 313b f4dc fbbd
00000110: 933f bdbd 2e14 053e 18bf 67bb aaeb bd3d
00000120: 9f48 173e 0d12 8dbd 3a03 dbbd c2f1 bb3c
00000130: 6358 0ebe 7906 083e 674c d43d 4529 b9bc
00000140: 44a4 39be f143 ff3d 675e d5bd be07 2abe
00000150: 5364 cc3c 7ff9 20be 17a8 2cbe bb8a 2ebe
00000160: f02b 45be d430 31be d5de dc3d 13a8 1fbd
00000170: d52a 14be 7cb0 63bd f95a 45bd c92f 3f3e
00000180: 34cd 17be 40ea 183d 103b b8bd 3358 b1bd
00000190: 8395 2abe 575b c7bd bd5b ba3d e056 ac3c
000001a0: 5ca1 a2bd 1835 b1bc ee50 2a3d 6ae1 cfbd
000001b0: 1581 c8b9 8496 f7bd 886d d6bd 4c5d e83d
000001c0: 7833 b9bd c4ab 52bd a4a7 2fbe a7e9 debd
000001d0: 90b0 3dbd d0ff 163e 4ca5 ebbd 0afb 043e
000001e0: 9eb7 a93c 91d4 b7bd 6d2d 14be d222 12be
000001f0: 9225 0cbe 5092 28be d9c5 093d a7b8 393e
00000200: dbbd 8f3d 4d6b 12bd 44b4 5bbd 85ef 983d
00000210: dc55 34be 2b9d 4dbc 33c7 42be bcdb f5bc
00000220: 3382 343e 4b08 8ebd 1c88 6cbc a7f7 6b3b
00000230: 6324 44be 0671 20be e69d 243e 0868 3e3e
00000240: 1177 99bd 46c7 d0bd e586 20be 2760 2abe
00000250: 3809 4d3d 0b8e dcba 90c8 c3bd 3a7a 10be
00000260: 27b2 04bd a340 343c 58e5 0dbb 55db c13d
00000270: dd93 ddbc b78e fe3c 099f 2fbe d20e a2bd
00000280: ab85 113e 3b2a 2ebe bb1d 2cbd 44a1 92bc
00000290: 81d3 3b3e ef60 91bd 85ad aebd 8b2c 023c
000002a0: 1458 12be d65e 24be e3a2 f33d 9ea6 a9bd
000002b0: b7a2 483e 5216 0cbe 8ffe 16be 79c2 10be
000002c0: 1709 31be fb04 3c3e 9cc5 b23d 9b2a 81bd
000002d0: c30a d8bd cec6 8a3b 1938 1ebe f2bb a83d
000002e0: a4ea 023e 4f1f 26be a8ce 7d3d 0639 0c3e
000002f0: bcd0 383e 47f6 31be ad37 93bd aa04 aa3b
00000300: c4ec 163e b224 0d3c a9c9 6c3d 910a fd3d
00000310: b298 2abe 750c 8fbc 4d0a dbbd 3f1b 9dbd
00000320: a119 3f3e 2359 32be d61b ffbd ddc7 be3d
00000330: f1c8 113e 065d 98bd b1c5 0dbe b04d 8ebd
00000340: 16c6 403c c467 97bd 350b 273d d996 d53d
00000350: 3622 bb3d d67b 433e 142d d6bd 2769 62bd
00000360: 915a 433e 256d 9fbd 111e cd3d 10c9 e5bc
00000370: 9cca e73d 8cc6 03bd e68b 3f3c 537a bdbd
00000380: 4b75 ecbd 20d0 bbbc ec38 233d 0f0f d5bd
00000390: 134d 7f3d 790c d73d ac9c 103d 0542 243e
000003a0: df58 f63d 0e3e 473d 5806 8d3d 000d 1abe
000003b0: 2ac9 453e 24b1 843d 163d b63d d360 c63d
000003c0: 0ee0 debc 5292 4a3d c608 a33d 064a ed3d
000003d0: 15a9 a4bd 9414 d9bd 7823 0abe 6ac0 363e
000003e0: 82e1 803d b49d 363e 4765 b1bd fcf3 e2bd
000003f0: a84d c9bd 8a5c 1abe ddd7 03be e0de a33d

GAT_layers.0.GAT_heads.0.f.bias f4 [32]
0.05627209 -0.018180737 0.03155586 0.019691968 -0.051092155 0.072479494 -0.0066455835 -0.08524361
-0.029005898 -0.058149107 -0.07152769 -0.09171371 0.004535829 -0.013293604 -0.07420522 -0.00927841
-0.04003858 0.023903217 -0.069304846 0.0451817 -0.08733283 0.042918094 -0.07721882 -0.0489937
0.07828009 -0.0063592964 -0.041088812 0.010493382 0.072765894 -0.066393435 0.058058925 0.016455336
00000000: 907d 663d c5ef 94bc b840 013d 0d51 a13c
00000010: 0246 51bd 2170 943d 32c3 d9bb 3494 aebd
00000020: c79d edbc c22d 6ebd 1c7d 92bd 66d4 bbbd
00000030: 4ba1 943b 6bcd 59bc e8f8 97bd 7904 18bc
00000040: 7eff 23bd aed0 c33c b3ef 8dbd 7210 393d
00000050: 8edb b2bd e2ca 2f3d e724 9ebd 9ead 48bd
00000060: 5051 a03d a561 d0bb be4c 28bd 6fec 2b3c
00000070: 4906 953d 48f9 87bd 32cf 6d3d 57cd 863c

GAT_layers.0.GAT_heads.0.w.weight f4 [1, 124]
-0.08384225 0.09439963 -0.055388905 -0.06393588 -0.08809498 0.15458408 0.1623593 0.10217355
0.18405132 -0.20996135 -0.15482324 0.09314727 -0.10519076 -0.20138025 0.11522854 0.15436685
-0.21530788 -0.011082599 0.15249535 -0.09144574 -0.15673769 0.010030986 0.20034088 -0.093725756
-0.12644288 0.21262665 0.08790353 -0.06977783 0.053401355 0.1676665 0.13901322 -0.03947618
0.17060232 -0.01715743 -0.20306732 -0.13302828 0.17821985 -0.16594195 0.014927086 -0.1991593
0.02448931 -0.20207946 -0.04336418 0.0669545 -0.18080755 -0.016690407 0.09356933 0.20681207
-0.1240247 -0.15398434 -0.13172242 0.11445364 0.18315277 -0.061721124 0.08264129 -0.21303335
0.08558213 -0.20241623 0.01012084 0.09553875 -0.21745603 0.15967408 0.16264588 -0.19057953
-0.14831895 0.20610473 -0.10818115 -0.06092456 -0.12877375 -0.051762164 0.03270808 0.12551855
0.016489578 -0.09321167 0.17889565 0.11799768 0.10660921 -0.06340515 0.08772283 -0.107113466
-0.025294665 -0.014403444 -0.16736749 0.120473705 0.0935381 0.18769926 0.15264885 -0.20324627
0.0041872035 -0.09672568 -0.2017918 -0.08103316 0.0031782945 -0.15194377 -0.0745209 0.1369594
0.12701638 -0.19795077 0.14225107 -0.14225344 0.20875427 -0.20370668 -0.016245365 0.038038414
0.19262834 -0.19797233 -0.010900247 0.20939712 0.00865049 0.19556996 -0.043358035 -0.027488383
0.050927635 -0.06335231 -0.025053173 0.049100187 -0.1355612 -0.13410716 0.19453217 0.117703624
-0.08316402 0.016790468 -0.14262663 0.20546916
00000000: 7cb5 abbd 9854 c13d 7adf 62bd d1f0 82bd
00000010: 246b b4bd 4a4b 1e3e 8441 263e 5e40 d13d
00000020: f377 3c3e 1c00 57be fc89 1ebe ffc3 be3d
00000030: 416e d7bd a036 4ebe f1fc eb3d 5812 1e3e
00000040: ab79 5cbe ca93 35bc be27 1c3e e747 bbbd
00000050: d87f 20be 0159 243c 2926 4d3e 4af3 bfbd
00000060: 3e7a 01be cdba 593e c406 b43d aee7 8ebd
00000070: 61bb 5a3d c4b0 2b3e 7b59 0e3e c6b1 21bd
00000080: 60b2 2e3e bd8d 8cbc e1f0 4fbe 9138 08be
00000090: 447f 363e b0ec 29be bd90 743c 6af0 4bbe
000000a0: ce9d c83c ebed 4ebe a39e 31bd 711f 893d
000000b0: 9d25 39be 52ba 88bc 47a1 bf3d 8bc6 533e
000000c0: a900 febd 12ae 1dbe 3ee2 06be ac66 ea3d
000000d0: 668c 3b3e 4acf 7cbd d63f a93d 6a25 5abe
000000e0: af45 af3d 3346 4fbe e1d1 253c d2a9 c33d
000000f0: cbac 5ebe 9a81 233e a48c 263e 4827 43be
00000100: ece0 17be 1e0d 533e 148e ddbd 088c 79bd
00000110: 44dd 03be 9004 54bd e8f8 053d ef87 003e
00000120: 2715 873c c3e5 bebd 6c30 373e c5a8 f13d
00000130: ee55 da3d 8fda 81bd 07a8 b33d 4e5e dbbd
00000140: c236 cfbc 6cfc 6bbc 6262 2bbe ebba f63d
00000150: e790 bf3d 3c34 403e fb4f 1c3e ca1f 50be
00000160: cf34 893b 1d18 c6bd 82a2 4ebe b7f4 a5bd
00000170: ef4a 503b 2697 1bbe 6a9e 98bd 163f 0c3e
00000180: 9510 023e 9bb3 4abe 44aa 113e e3aa 11be
00000190: aec3 553e 7c98 50be 0015 85bc 2bce 1b3d
000001a0: 5d40 453e 42b9 4abe f396 32bc 336c 563e
000001b0: c9ba 0d3c 7e43 483e 3298 31bd 512f e1bc
000001c0: 7f99 503d dbbe 81bd 503c cdbc 471d 493d
000001d0: 8ed0 0abe 6353 09be 7133 473e 990e f13d
000001e0: e651 aabd 2a8c 893c b70c 12be 8266 523e

GAT_layers.0.GAT_heads.1.f.weight f4 [32, 124]
0.054016706 -0.16788323 0.1272378 -0.0072239055 -0.083664306 -0.096537836 -0.0050212657 -0.1411431
0.09281007 -0.13654056 0.08443911 -0.006084817 0.16432755 -0.15465453 -0.0011089063 0.05507032
0.1122868 0.1276729 -0.029151715 -0.0130949 -0.19552884 0.13441995 0.007838677 -0.04309445
0.06983456 -0.17729466 0.18602766 -0.13490082 -0.13833708 -0.12300213 0.1730012 -0.116389245
0.0035895207 0.1626266 -0.048703577 -0.120827116 -0.009297822 -0.098044224 0.012632582 0.06883201
-0.048863534 -0.1057925 0.1880317 -0.06520938 -0.16664055 -0.054528937 0.10850753 -0.11401346
-0.1093784 -0.14339899 0.17731261 -0.17587796 -0.082599774 0.0026477734 -0.18715198 0.020238241
-0.011883687 -0.106545575 0.14297095 -0.086685024 -0.12600076 -0.03860414 0.16280006 0.111309536
-0.11669743 -0.10904471 0.085685365 0.100967705 0.107718565 0.014362946 0.15216614 -0.014870057
0.0035577489 -0.053191196 0.013274496 -0.02412035 0.044671282 -0.017308075 0.06994208 -0.13971719
-0.14459696 0.14999518 -0.059674505 0.0862807 0.045444727 -0.089194365 -0.038591843 -0.18464673
-0.00597503 -0.16598536 -0.15768015 0.10498665 0.14326188 -0.07532502 0.16826922 0.015019752
0.08693412 0.10576692 -0.051659647 -0.06498768 -0.06345365 0.08397616 0.17649285 -0.030020285
0.031291466 -0.048416484 0.10307358 0.14253986 -0.085228704 0.16096608 -0.0043612337 0.020134814
0.13054319 0.13781759 -0.12696104 -0.13973716 -0.09393911 0.027022766 -0.007617208 -0.069026545
-0.009000489 -0.03678003 -0.17768747 -0.07675922 0.14818223 -0.007876225 0.06380982 -0.057671275
0.17649603 0.007940751 -0.028068596 -0.1304421 -0.10939937 0.03230488 -0.14787242 0.040803954
0.04628508 -0.039848164 -0.0698458 -0.05603081 -0.050449938 -0.124375515 0.05093197 -0.008195654
0.0037813396 -0.043759517 0.16420993 -0.17199366 -0.012245799 -0.14308815 0.08038837 -0.16450357
-0.096070066 -0.16004482 0.010682935 0.010155288 0.1430474 0.010195403 0.18057077 0.081813194
-0.06528319 0.0133660715 -0.040576756 -0.09818623 0.02350151 0.1231687 0.064972535 0.08406563
0.1784989 0.15097922 -0.17419845 0.16683146 0.027690358 -0.19540456 0.05297957 0.120096296
0.022339622 -0.014577369 -0.09431613 -0.19298239 -0.008766533 -0.114880726 -0.16765021 0.1793367
-0.06147727 -0.08650857 0.14996569 0.1099355 -0.19402048 -0.12892587 -0.03545617 -0.06858267
-0.11178636 0.18035741 0.1653126 0.14613597 -0.11765177 -0.20801179 0.021725949 0.070353664
-0.019479856 0.022586998 -0.09767742 0.120619886 0.038055312 0.10742475 0.13898075 -0.12434417
0.009266955 -0.17448671 0.02629693 -0.0038244808 -0.1620958 0.13985382 -0.1722419 -0.08305546
0.15182462 -0.060011648 -0.00729956 -0.041096285 -0.115721606 0.02236548 0.060788486 -0.091540486
0.1939729 0.17607845 0.13823245 -0.19237563 0.07773746 0.10661382 0.004671565 -0.18136592
0.073491834 -0.073393434 -0.15467674 0.14046545 0.1883005 0.029014103 -0.059909955 -0.08510348
-0.07883747 -0.096759975 0.15887046 -0.024647739 -0.10789427 -0.03188386 -0.15972437 0.10920848
-0.02885651 0.18049587 0.11523155 0.07761966 0.010540431 -0.18904275 -0.19385459 -0.06732148
00000000: 9f40 5d3d 95e9 2bbe a04a 023e 83b6 ecbb
00000010: 3158 abbd a1b5 c5bd 6e89 a4bb d187 10be
00000020: 3513 be3d 4ad1 0bbe 69ee ac3d 2563 c7bb
00000030: 7b45 283e c25d 1ebe b958 91ba 6a91 613d
00000040: 9ff6 e53d afbc 023e 94cf eebc fe8b 56bc
00000050: b638 48be 62a5 093e cb6d 003c ce83 30bd
00000060: 6c05 8f3d bb8c 35be 097e 3e3e 7123 0abe
00000070: 3ca8 0dbe 8ae8 fbbd 3a27 313e 7c5d eebd
00000080: 2a3e 6b3b 9687 263e 677d 47bd 3574 f7bd
00000090: e455 18bc 69cb c8bd e4f8 4e3c ccf7 8c3d
000000a0: 2125 48bd bda9 d8bd 628b 403e 7f8c 85bd
000000b0: d2a3 2abe bc59 5fbd 3239 de3d e47f e9bd
000000c0: c801 e0bd 2fd7 12be 7091 353e 5a19 34be
000000d0: 122a a9bd 4486 2d3b c5a4 3fbe abca a53c
000000e0: ccb3 42bc 9134 dabd fa66 123e eb87 b1bd
000000f0: 5806 01be 601f 1ebd 0fb5 263e 41f6 e33d
00000100: 10ff eebd d552 dfbd cf7b af3d 28c8 ce3d
00000110: 8d9b dc3d 9052 6b3c 71d1 1b3e 8aa1 73bc
00000120: 1f29 693b 03df 59bd 467d 593c 0a98 c5bc
00000130: 3cf9 363d aac9 8dbc cb3d 8f3d 0612 0fbe
00000140: 3a11 14be 5698 193e 416d 74bd f0b3 b03d
00000150: 4024 3a3d 89ab b6bd 7b12 1ebd 0814 3dbe
00000160: 2fca c3bb 11f8 29be e876 21be 3e03 d73d
00000170: 3eb3 123e 0144 9abd c44e 2c3e 6815 763c
00000180: 840a b23d 549c d83d 1199 53bd 4318 85bd
00000190: fdf3 81bd b1fb ab3d 8bba 343e 1aed f5bc
000001a0: 7b2b 003d 5d50 46bd 3e18 d33d f8f5 113e
000001b0: 638c aebd 4bd4 243e aee8 8ebb c4f1 a43c
000001c0: 1dad 053e 0e20 0d3e 1302 02be 4217 0fbe
000001d0: 2663 c0bd d95e dd3c c699 f9bb ca5d 8dbd
000001e0: c976 13bc a8a6 16bd b4f3 35be f033 9dbd
000001f0: 15bd 173e 480b 01bc b9ae 823d b738 6cbd
00000200: 60bb 343e ec19 023c 1df0 e5bc 9d92 05be
00000210: c70c e0bd 1f52 043d de6b 17be 0c22 273d
00000220: 6d95 3d3d d437 23bd 510b 8fbd 9080 65bd
00000230: 98a4 4ebd 97b8 febd 0b9e 503d 1047 06bc
00000240: 5ad0 773b 2e3d 33bd a626 283e 1b1f 30be
00000250: 9ba2 48bc b385 12be a8a2 a43d a073 28be
00000260: 62c0 c4bd cae2 23be 7a07 2f3c 5d62 263c
00000270: 057b 123e 9f0a 273c 8be7 383e ad8d a73d
00000280: 31b3 85bd 5efd 5a3c d033 26bd dd15 c9bd
00000290: 3d86 c03c df3f fc3d 5210 853d 9a2a ac3d
000002a0: 6ac8 363e 4c9a 1a3e 1461 32be ded5 2a3e
000002b0: e4d6 e23c 2218 48be 1b01 593d 0cf5 f53d
000002c0: 9501 b73c ebd5 6ebc d128 c1bd 2d9d 45be
000002d0: 81a1 0fbc 9646 ebbd 7fac 2bbe 0aa4 373e
000002e0: 97cf 7bbd 682b b1bd 9b90 193e dd25 e13d
000002f0: 4ead 46be 2505 04be 7d3a 11bd 1275 8cbd
00000300: 3ff0 e4bd 9daf 383e b547 293e aba4 153e
00000310: 69f3 f0bd 0b01 55be 9efa b13c 9515 903d
00000320: 3894 9fbc 5e08 b93c 190b c8bd 8f07 f73d
00000330: e3df 1b3d 8201 dc3d f850 0e3e 28a8 febd
00000340: 6dd4 173c a5ac 32be a96c d73c 24a4 7abb
00000350: 71fc 25be d735 0f3e 2e60 30be fb18 aabd
00000360: ea77 1b3e c6ce 75bd 2631 efbb 9454 28bd
00000370: 73ff ecbd d037 b73c 59fd 783d 9479 bbbd
00000380: d5a0 463e e94d 343e cf8c 0d3e 1efe 44be
00000390: d134 9f3d 5958 da3d ed13 993b fdb7 39be
000003a0: e382 963d 4c4f 96bd 9463 1ebe 2dd6 0f3e
000003b0: d9d1 403e fcae ed3c 2464 75bd bc4a aebd
000003c0: 8a75 a1bd 182a c6bd f0ae 223e 0eea c9bc
000003d0: acf7 dcbd a698 02bd c98e 23be b2a8 df3d
000003e0: 7d64 ecbc e9d3 383e 85fe eb3d 0ef7 9e3d
000003f0: c6b1 2c3c 6c94 41be d181 46be d8df 89bd

GAT_layers.0.GAT_heads.1.f.bias f4 [32]
0.08631987 0.016852254 -0.07801093 0.035521187 -0.008067608 -0.027895031 -0.031261165 -0.07375331
-0.049241535 0.018356685 0.016634254 0.03399292 0.028416464 0.054284006 -0.09109419 0.0010526237
-0.02087828 -0.06964712 -0.04332165 0.050319154 -0.05288753 -0.024877893 0.04818215 -0.017557468
0.06968625 -0.06191247 -0.048065946 0.06428101 0.014100096 -0.018009074 0.030901339 0.0525089
00000000: 79c8 b03d bd0d 8a3c 32c4 9fbd aa7e 113d
00000010: 002e 04bc 1f84 e4bc b50b 00bd fa0b 97bd
00000020: 7eb1 49bd c260 963c 8f44 883c 293c 0b3d
00000030: a5c9 e83c e858 5e3d 978f babd 31f8 893a
00000040: ed08 abbc 26a3 8ebd 0b72 31bd 751b 4e3d
00000050: 98a0 58bd b9cc cbbc a55a 453d aed4 8fbc
00000060: aab7 8e3d ee97 7dbd cce0 44bd c3a5 833d
00000070: 1704 673c c487 93bc ce24 fd3c 9313 573d

GAT_layers.0.GAT_heads.1.w.weight f4 [1, 124]
-0.20044087 -0.16321468 0.14635773 0.2138592 -0.21380208 -0.06369789 0.07965889 0.09032238
-0.15524866 -0.1305666 0.09164385 0.026316853 0.018026287 0.12458873 0.0898747 -0.18353298
0.15183805 0.1232575 -0.17920287 -0.079009086 0.20630114 -0.07387842 -0.20872138 0.15571213
0.15665177 0.0436188 0.17576456 -0.16296327 0.2180778 -0.07101966 0.2014295 -0.16526425
-0.20134838 -0.014691481 0.15609463 0.16425753 -0.08928022 -0.10483572 -0.07795193 -0.10177005
-0.10547834 0.03999213 0.101138815 0.08728735 -0.16368255 0.0019996562 0.021939646 -0.14275375
0.011268033 -0.15413848 0.078956515 0.047556736 -0.10898228 -0.1266784 0.20572107 -0.19770838
-0.108699426 -0.009036087 -0.02066765 -0.0015832395 0.20162258 -0.20059828 -0.12396881 0.1659117
-0.06224584 0.16797091 0.15141812 -0.037070267 0.17655317 0.15537159 -0.15177014 -0.149355
0.017062398 -0.19505435 -0.19911262 0.20475025 -0.19933803 -0.029268308 -0.16342175 -0.12790081
-0.030675385 0.14096479 -0.101324745 -0.05448473 -0.20097424 0.13018844 -0.21356207 0.08681805
-0.15318102 0.033606257 0.21306624 -0.13362843 0.21656816 -0.16628325 -0.057080254 0.008162251
0.15223086 0.15703799 -0.10879094 0.1884129 -0.14403899 0.1685721 -0.08261737 0.1154851
0.18737507 0.021703912 0.20812948 0.15006562 -0.1743981 0.107289165 -0.15122719 -0.04268032
-0.070794396 -0.12448008 0.17091359 -0.070677854 0.11473522 -0.16174395 -0.19182499 0.16310716
0.012579912 0.19095556 -0.12322229 0.14911881
00000000: 5f40 4dbe c021 27be cdde 153e e8fd 5a3e
00000010: efee 5abe 0a74 82bd 3324 a33d f1fa b83d
00000020: 81f9 1ebe 40b3 05be c5af bb3d 7196 d73c
00000030: ddab 933c 6028 ff3d 3a10 b83d 12f0 3bbe
00000040: 6f7b 1b3e 6e6e fc3d f580 37be 84cf a1bd
00000050: 9b40 533e 924d 97bd 0fbb 55be 0073 1f3e
00000060: 5269 203e a0a9 323d a0fb 333e d8df 26be
00000070: c94f 5f3e c172 91bd 8943 4e3e 083b 29be
00000080: 452e 4ebe 8ab4 70bc 45d7 1f3e 2033 283e
00000090: 8cd8 b6bd 1cb4 d6bd 43a5 9fbd d16c d0bd
000000a0: 0705 d8bd cace 233d de21 cf3d b6c3 b23d
000000b0: 669c 27be aa0c 033b c6ba b33c 0a2e 12be
000000c0: 8e9d 383c 7ad6 1dbe f4b3 a13d daca 423d
000000d0: 1a32 dfbd fcb7 01be 8ba8 523e 1174 4abe
000000e0: ce9d debd 190c 14bc 344f a9bc b484 cfba
000000f0: 2676 4e3e a369 4dbe 5ce3 fdbd c2e4 293e
00000100: 7ef5 7ebd 9100 2c3e 5a0d 1b3e fed6 17bd
00000110: 5bca 343e bb19 1f3e a269 1bbe 84f0 18be
00000120: 71c6 8b3c 54bc 47be 2ee4 4bbe 0daa 513e
00000130: 451f 4cbe 17c4 efbc 0858 27be 6ef8 02be
00000140: f24a fbbc 1359 103e 5983 cfbd 612b 5fbd
00000150: 31cc 4dbe 1e50 053e 04b0 5abe a9cd b13d
00000160: 7cdb 1cbe b7a6 093d 092e 5a3e e4d5 08be
00000170: 0bc4 5d3e 2846 2abe fccc 69bd f6ba 053c
00000180: 68e2 1b3e 91ce 203e c9cd debd 50ef 403e
00000190: f57e 13be 2a9e 2c3e 4c33 a9bd 7483 ec3d
000001a0: 40df 3f3e 67cc b13c e51f 553e cdaa 193e
000001b0: 6a95 32be 6cba db3d 4ddb 1abe 8fd1 2ebd
000001c0: a7fc 90bd 6aef febd f903 2f3e 8dbf 90bd
000001d0: 4dfa ea3d 35a0 25be c56d 44be 9005 273e
000001e0: fa1b 4e3c db89 433e f85b fcbd 9ab2 183e

GAT_layers.1.GAT_heads.0.f.weight f4 [64, 128]
-0.0012800208 -0.15238328 0.10004492 -0.07596584 0.030186541 0.1295812 -0.074517526 0.029663162
0.0063433326 0.041064855 0.04007925 -0.10431302 0.16276373 -0.07453771 0.15608734 -0.17589095
-0.05285708 0.0822941 -0.085430205 0.14490995 -0.016411414 0.06748534 0.11330558 -0.053157184
0.07055546 0.10963906 0.13288273 0.07813307 -0.078744076 -0.07686845 0.059980884 0.1364219
-0.09895045 -0.11645545 -0.13671419 -0.16959533 -0.052808672 -0.17649667 0.03130514 -0.064666435
-0.0160193 0.16766575 -0.052737467 0.03832946 -0.00914713 -0.0055389176 0.06575161 0.027765395
0.12422906 0.07589581 0.023030492 0.08422742 0.14852998 0.06777186 0.0015794742 0.02523829
-0.13705343 0.14436865 0.13056941 -0.083184704 0.17622651 -0.063841514 0.10361866 0.015171306
0.061065536 0.08196612 0.14466055 0.12966152 0.04985481 -0.121697105 0.128983 0.15407267
-0.14430077 0.04442286 -0.09557518 -0.0054840003 -0.14057778 0.0104706045 -0.013349825 0.13830644
-0.029549133 0.051129818 0.16695167 -0.044799548 -0.031313907 -0.056849882 0.16957965 -0.07284726
-0.004426009 0.16619475 0.07597604 0.024248304 -0.08340257 0.10097816 0.17215687 0.023349544
-0.16555722 0.17609361 0.040885434 -0.12920149 0.17422059 -0.15315926 -0.043159153 0.13598771
-0.12327376 -0.11426185 -0.13503131 0.12357037 0.09560604 0.049289726 -0.035323568 0.15579806
-0.037887525 0.17723383 -0.103693195 0.1330559 0.05160755 -0.15882634 0.09185123 0.01953618
0.09558062 -0.08415133 -0.073213354 -0.07434771 0.06092566 0.085008495 0.05177342 0.16566704
-0.11747905 0.050790153 -0.08605455 -0.13530578 0.10643105 0.16026177 -0.023917452 -0.11125931
-0.1683012 0.09555089 -0.12567191 0.12490265 -0.06220449 -0.14508238 0.060332518 0.025689537
0.12431166 0.06484615 -0.028046198 -0.11412983 0.015394263 -0.070176505 -0.17094782 0.029493963
0.010898395 -0.1233394 0.08925733 -0.13742602 0.09957361 0.134639 0.092011 0.08435609
-0.051358633 0.011875907 0.007708722 -0.0010424812 0.023651926 0.047773663 0.086592995 -0.04617512
0.15453947 0.03623394 0.1608767 -0.079882145 -0.101200715 -0.15911843 -0.11916747 -0.06119779
0.019287473 0.1354095 0.12373191 0.10795317 -0.013187748 0.15390459 -0.048971727 -0.16633753
-0.00339162 0.0045369607 0.15256691 -0.12840323 -0.031167636 -0.06962396 0.09903926 -0.05695689
0.018441143 0.110359706 0.14255385 -0.09160257 -0.014238217 0.09113858 -0.09624241 0.07894189
-0.030641222 -0.10356212 -0.17627327 -0.010367893 -0.16890274 -0.048219662 -0.14876588 -0.12456311
0.04982415 0.14669135 0.15495244 -0.15883143 0.06946854 0.13565052 0.11836114 0.0143585885
-0.13226916 0.15517491 -0.0064886967 0.15262207 0.050226443 -0.03134592 0.027149903 0.08104655
0.16498242 -0.05029613 -0.11355043 0.10970098 -0.07128836 -0.03671789 -0.052036963 -0.13363697
-0.1628548 -0.039220233 -0.009135983 0.09370751 0.17545366 0.11539503 0.019732121 0.11607191
-0.0986217 0.12529305 0.16012868 -0.16677599 0.09683331 -0.12958752 0.105457544 0.009271864
0.010177262 0.088203825 -0.1283006 0.08324917 -0.08646242 -0.018493721 -0.099997126 0.068569526
00000000: 5fc6 a7ba 5d0a 1cbe 5ae4 cc3d fa93 9bbd
00000010: c449 f73c efb0 043e a59c 98bd 2900 f33c
00000020: bbdb cf3b 9f33 283d 242a 243d 11a2 d5bd
00000030: 89ab 263e 3aa7 98bd 5cd5 1f3e c21c 34be
00000040: aa80 58bd cf89 a83d 08f6 aebd 4663 143e
00000050: 3b71 86bc c135 8a3d c20c e83d 59bb 59bd
00000060: 627f 903d 728a e03d 6912 083e 3b04 a03d
00000070: 9344 a1bd 356d 9dbd 84ae 753d 2fb2 0b3e
00000080: 89a6 cabd 3280 eebd cefe 0bbe 66aa 2dbe
00000090: e84d 58bd 8bbb 34be d239 003d d66f 84bd
000000a0: e83a 83bc 92b0 2b3e 3e03 58bd 5aff 1c3d
000000b0: d8dd 15bc cf7f b5bb c8a8 863d 4174 e33c
000000c0: ce6b fe3d 436f 9b3d 71aa bc3c 6d7f ac3d
000000d0: 3e18 183e f9cb 8a3d 5c06 cf3a 88c0 ce3c
000000e0: bc57 0cbe 60d5 133e fdb3 053e be5c aabd
000000f0: b974 343e 57bf 82bd 0536 d43d 1291 783c
00000100: db1f 7a3d dadd a73d e521 143e fdc5 043e
00000110: 8f34 4c3d 553c f9bd 1f14 043e 3ac5 1d3e
00000120: 95c3 13be bff4 353d ecbc c3bd 21b3 b3bb
00000130: 9ff3 0fbe e68c 2b3c 39b9 5abc 34a0 0d3e
00000140: 0611 f2bc 806d 513d 61f5 2a3e bb7f 37bd
00000150: 0343 00bd 6cdb 68bd 4aa6 2d3e f230 95bd
00000160: 0e08 91bb f52e 2a3e 5399 9b3d 61a4 c63c
00000170: f7ce aabd a3cd ce3d e449 303e 8b47 bf3c
00000180: d587 29be e251 343e 7c77 273d 654d 04be
00000190: e266 323e c8d5 1cbe a7c7 30bd 5d40 0b3e
000001a0: f476 fcbd 1e02 eabd a645 0abe 7612 fd3d
000001b0: 19cd c33d 06e4 493d 72af 10bd 8789 1f3e
000001c0: f32f 1bbd c97c 353e 195d d4bd ce3f 083e
000001d0: 7062 533d 5fa3 22be 7f1c bc3d 570a a03c
000001e0: c6bf c33d 8857 acbd e2f0 95bd 9d43 98bd
000001f0: 2f8d 793d ef18 ae3d 5e10 543d 9fa4 293e
00000200: db98 f0bd 5609 503d 5e3d b0bd 998d 0abe
00000210: 86f8 d93d a91b 243e 88ee c3bc ecdb e3bd
00000220: 2657 2cbe 2fb0 c33d 23b0 00be f6cc ff3d
00000230: 23ca 7ebd 7a90 14be 3b1f 773d dd72 d23c
00000240: 1d97 fe3d 0fce 843d 24c1 e5bc e6bc e9bd
00000250: 3838 7c3c b3b8 8fbd f20c 2fbe 539d f13c
00000260: 2f8f 323c 5e99 fcbd 8ccc b63d 68b9 0cbe
00000270: 40ed cb3d cede 093e 4370 bc3d e3c2 ac3d
00000280: 6e5d 52bd 2a93 423c 7299 fc3b dda3 88ba
00000290: afc1 c13c 51ae 433d ab57 b13d 1f22 3dbd
000002a0: 983f 1e3e 0a6a 143d ddbc 243e 4099 a3bd
000002b0: 5242 cfbd f1ef 22be 130e f4bd 89aa 7abd
000002c0: c300 9e3c caa8 0a3e 2867 fd3d 8d16 dd3d
000002d0: 6d11 58bc 2a99 1d3e 9496 48bd 6354 2abe
000002e0: f145 5ebb c9aa 943b 803a 1c3e 237c 03be
000002f0: 4553 ffbc 0297 8ebd 18d5 ca3d a14b 69bd
00000300: e111 973c 4504 e23d a3f9 113e 219a bbbd
00000310: 6947 69bc dda6 ba3d be1a c5bd 49ac a13d
00000320: 4d03 fbbc 6018 d4bd fb80 34be 18de 29bc
00000330: d7f4 2cbe fb81 45bd 1556 18be f21a ffbd
00000340: 6814 4c3d 4236 163e daab 1e3e b5a4 22be
00000350: 8645 8e3d f8e7 0a3e 5367 f23d 4940 6b3c
00000360: 9171 07be 2ce6 1e3e 229f d4bb f648 1c3e
00000370: 3eba 4d3d 9464 00bd 7969 de3c bcfb a53d
00000380: 27f1 283e 5103 4ebd 218d e8bd e8aa e03d
00000390: a2ff 91bd 8065 16bd b624 55bd 21d8 08be
000003a0: 69c3 26be 65a5 20bd 17af 15bc b9e9 bf3d
000003b0: 20aa 333e 3b54 ec3d 42a5 a13c 1cb7 ed3d
000003c0: 2dfa c9bd d24c 003e c6f8 233e 53c7 2abe
000003d0: 8b50 c63d 97b2 04be 20fa d73d 04e9 173c
000003e0: 88be 263c 35a4 b43d 3c61 03be 8a7e aa3d
000003f0: 3613 b1bd 2580 97bc 4bcb ccbd 2e6e 8c3d

GAT_layers.1.GAT_heads.0.f.bias f4 [64]
-0.051811 -0.009711519 0.12223254 0.1573916 0.057632346 -0.07002968 -0.05471786 0.12981664
0.12655425 0.14819337 0.14506099 0.13948877 -0.02174413 0.13696595 -0.065427616 -0.009881698
0.180215 0.09977216 0.101287335 0.16915178 0.1284788 -0.059347834 -0.032467254 -0.04932742
-0.031947114 -0.06158352 0.17020798 -0.070374526 -0.01633463 0.122503825 -0.043080475 0.11607106
-0.08490807 0.13965248 -0.026567772 -0.023216685 -0.06217468 0.08992699 -0.05022056 0.112499125
-0.078868926 0.14101423 0.12805821 -0.0041115014 0.10741377 0.15699868 0.13632485 -0.07252633
0.12359904 -0.02902606 -0.095128216 -0.061281256 -0.05022233 0.116740115 0.16454183 0.15686949
-0.06406143 -0.07142886 0.13260938 -0.005848689 -0.014724685 0.16681267 0.17357306 -0.019955644
00000000: c537 54bd 101d 1fbc 0e55 fa3d 432b 213e
00000010: e50f 6c3d b96b 8fbd d61f 60bd a7ee 043e
00000020: 7097 013e 01c0 173e de8a 143e 25d6 0e3e
00000030: bf20 b2bc cd40 0c3e eafe 85bd d8e6 21bc
00000040: 488a 383e 5955 cc3d bc6f cf3d 2036 2d3e
00000050: f28f 033e b716 73bd 62fc 04bd 8c0b 4abd
00000060: fada 02bd 003f 7cbd 004b 2e3e 8520 90bd
00000070: 34d0 85bc 49e3 fa3d 2775 30bd aab6 ed3d
00000080: 48e4 adbd 0f01 0f3e a8a4 d9bc eb30 bebc
00000090: e1aa 7ebd a42b b83d 13b4 4dbd f165 e63d
000000a0: 0886 a1bd 0966 103e b121 033e c6b9 86bb
000000b0: c0fb db3d 43c4 203e be98 0b3e af88 94bd
000000c0: 7e21 fd3d 0fc8 edbc 95d2 c2bd 0e02 7bbd
000000d0: eeb5 4dbd 7115 ef3d a77d 283e 65a2 203e
000000e0: a432 83bd 4b49 92bd c1ca 073e 5ca6 bfbb
000000f0: ce3f 71bc f1d0 2a3e 23bd 313e 057a a3bc

GAT_layers.1.GAT_heads.0.w.weight f4 [1, 128]
0.1668627 0.11465277 0.15153313 0.114132516 0.05724423 0.0753525 0.1285997 0.072051756
0.067598 -0.08299393 -0.20268953 -0.19805476 0.1684286 0.019576786 -0.20531674 -0.13730338
0.13927211 -0.14064743 -0.05065644 0.046388566 -0.08273435 -0.18536124 0.1052505 0.17988522
0.14180645 -0.19131368 0.019006321 0.091826245 0.09316835 0.115935326 0.09674694 -0.123322725
0.16782337 0.116491884 -0.012078246 -0.12749833 -0.07470323 0.0039559472 -0.16800895 0.12098644
0.07418627 -0.003842492 -0.13189091 -0.05633435 -0.20927416 -0.14952093 -0.14755975 -0.0632116
0.17806412 -0.17029418 0.05739648 -0.10151031 0.06606443 -0.2101248 -0.10106713 -0.016042858
-0.16991203 0.107121885 -0.12263937 -0.16573198 -0.037761025 0.029810157 0.16850051 -0.06418516
0.16040929 0.17251714 -0.14021088 0.062293287 0.11061018 0.14307937 0.028969692 -0.10328821
0.034821395 0.07961976 -0.034071863 -0.050076697 -0.04884486 0.18717296 0.12755989 0.15883009
-0.16352987 -0.1669477 -0.026477918 0.110998824 -0.16026047 -0.014817757 -0.0749982 0.21400075
-0.041365553 -0.19065584 -0.07642034 -0.15129325 0.051369853 0.038041797 0.14458443 0.06655882
-0.21266486 -0.14747891 -0.08276299 0.1920833 -0.17990196 -0.20524532 0.16675238 0.0011537579
0.20446056 0.088391684 0.010490978 0.08953583 0.083575346 -0.0921255 0.098458804 0.07107356
0.014857797 0.19696297 0.121648125 0.1797476 -0.061553217 0.15297985 0.09430942 0.19157405
0.17702436 -0.07482383 0.087847725 0.09995865 -0.087881096 0.18198675 -0.055241782 0.13985197
00000000: 0ede 2a3e 12cf ea3d 802b 1b3e 4fbe e93d
00000010: ed78 6a3d 6952 9a3d a4af 033e df8f 933d
00000020: d270 8a3d b9f8 a9bd d88d 4fbe dece 4abe
00000030: 8c78 2c3e 7f5f a03c 8d3e 52be 4299 0cbe
00000040: 599d 0e3e e105 10be 217d 4fbd f001 3e3d
00000050: a070 a9bd 56cf 3dbe 938d d73d d533 383e
00000060: b635 113e bce7 43be 25b3 9b3c 660f bc3d
00000070: 0ccf be3d 806f ed3d 4223 c63d a090 fcbd
00000080: e4d9 2b3e 4c93 ee3d d6e3 45bc ec8e 02be
00000090: 02fe 98bd e4a0 813b 8a0a 2cbe bdc7 f73d
000000a0: f9ee 973d 51d2 7bbb 690e 07be d9be 66bd
000000b0: f74b 56be 041c 19be e719 17be 1575 81bd
000000c0: 7156 363e 9961 2ebe 9218 6b3d a3e4 cfbd
000000d0: ca4c 873d f52a 57be 49fc cebd 506c 83bc
000000e0: 6bfd 2dbe b862 db3d 5a2a fbbd a5b5 29be
000000f0: 4eab 1abd 6e34 f43c 668b 2c3e 8273 83bd
00000100: 5542 243e 55a8 303e 7193 0fbe 3f27 7f3d
00000110: 9787 e23d 6683 123e d951 ed3c c588 d3bd
00000120: e1a0 0e3d af0f a33d f08e 0bbd 391d 4dbd
00000130: 8c11 48bd 45aa 3f3e 0f9f 023e 5ba4 223e
00000140: 6074 27be 56f4 2abe 38e8 d8bc 5a53 e33d
00000150: 521b 24be 2dc6 72bc a898 99bd 0323 5b3e
00000160: ed6e 29bd 493b 43be 4482 9cbd 9eec 1abe
00000170: 3269 523d b7d1 1b3d f10d 143e fe4f 883d
00000180: d1c4 59be b604 17be a47f a9bd 7cb1 443e
00000190: 3838 38be d42b 52be 23c1 2a3e b139 973a
000001a0: 1c5e 513e b306 b53d 5ae2 2b3c 905e b73d
000001b0: 8d29 ab3d 4bac bcbd c5a4 c93d 048f 913d
000001c0: 1e6e 733c a9b0 493e a722 f93d c10f 383e
000001d0: 3a1f 7cbd c0a6 1c3e 4c25 c13d fd2b 443e
000001e0: e045 353e 3c3d 99bd 82e9 b33d 1fb7 cc3d
000001f0: 01fb b3bd bc5a 3a3e 3545 62bd 5b35 0f3e

GAT_layers.1.GAT_heads.1.f.weight f4 [64, 128]
0.010355312 0.14282821 -0.016178846 0.03883425 -0.12219444 0.15279754 -0.06899644 -0.100445755
-0.05121021 0.08160852 0.020677792 -0.123942286 0.05416713 -0.12042191 -0.005468701 0.06748678
0.14720836 -0.13906905 -0.115909375 -0.14799134 0.035553858 0.1729044 0.14732252 0.034896914
0.019847436 -0.045320462 0.05633118 -0.119124524 0.033248764 0.119905464 -0.13063064 0.095737875
0.13687989 -0.051127624 -0.046819057 -0.101597674 0.033152774 0.11472844 -0.047071222 -0.11497357
-0.12050679 0.1432403 -9.942441e-05 -0.13936952 -0.087791294 -0.17352633 0.09349815 -0.14893362
0.10079707 -0.0073432242 -0.15976533 0.10190552 0.14381029 0.08979635 0.10052461 -0.16785328
0.0055816337 -0.17390896 -0.13366576 0.112790294 -0.003056363 -0.11819002 0.011808472 -0.06487993
-0.06245577 -0.033200443 -0.13810162 -0.07692187 -0.13417406 -0.1590442 -0.10851275 -0.07403178
0.034097325 -0.041930594 -0.123013645 -0.1605775 -0.059494257 -0.031389266 0.15366448 -0.14030406
-0.14255467 -0.12819834 0.0898182 -0.14684786 0.110109545 0.096936256 0.060089078 -0.053191155
0.015447852 -0.14145203 0.14179167 0.14540918 0.14579712 0.04213351 -0.094782546 0.033720933
0.1693993 0.042488217 -0.039116446 0.11352468 -0.031246893 0.016445173 -0.022669356 0.15585314
-0.15458384 0.14041813 -0.12545584 -0.048678767 0.1473499 0.12028167 0.10479829 0.008157733
-0.111338906 0.13449797 -0.04443736 0.14612697 0.1575795 -0.08220338 -0.14972231 -0.1528143
-0.06297009 -0.08730064 0.0873948 -0.11750278 0.1463266 -0.101955436 -0.13698581 0.08898344
-0.08027792 -0.11400881 0.1654134 -0.15867485 -0.16673426 -0.10114394 -0.13502835 -0.036811985
0.07272198 -0.0013388578 0.06018077 0.020229602 -0.12224778 0.16480197 -0.10092244 0.16814527
0.042815108 0.14586005 0.15794937 -0.04782698 0.07669723 -0.07571532 -0.15115246 -0.16586567
0.070893064 0.05728945 -0.11539274 -0.0088342745 -0.16928795 -0.09571994 -0.15207194 0.14076278
0.12041207 -0.021455253 0.090773985 -0.16815698 -0.10566573 0.10520494 -0.16633458 0.1648627
0.15921076 -0.020486213 -0.08864806 0.14832981 -0.16348124 0.0022789643 -0.027925448 -0.17493625
-0.08792311 0.15972519 0.0600997 0.03844233 -0.06237603 0.07860796 -0.1286528 -0.07987348
0.076771855 -0.057168007 -0.16976292 -0.13834117 -0.05493439 0.023473855 0.11487983 -0.14065668
0.018233927 0.12297619 -0.10556641 0.16184913 -0.1055921 0.029829705 -0.016382731 0.13449234
0.06659221 0.1573249 0.09439579 -0.10601285 -0.10965065 -0.044867728 -0.1403892 0.092214055
-0.088670515 0.026984852 -0.085329644 -0.019043695 -0.048884593 -0.08686242 -0.056578867 0.007074917
-0.060965303 0.123948246 0.17394271 0.15757298 -0.07758463 0.1355033 -0.00037257187 -0.06074404
0.054148372 0.10704152 -0.16307107 0.06417186 0.072227664 -0.14373982 -0.123965405 -0.024685873
0.104655236 -0.025572494 -0.0044284747 -0.04237011 0.0050972607 -0.0020387273 -0.062015135 0.06709289
-0.028966729 0.011235276 0.07882348 -0.1426693 -0.11886943 -0.03716687 -0.07638101 0.0023585376
-0.09426729 -0.07060071 -0.040345408 -0.06398589 0.05324669 0.048683748 -0.054646824 0.11343491
00000000: 54a9 293c 8f41 123e 8089 84bc aa10 1f3d
00000010: 1441 fabd f576 1c3e 014e 8dbd 81b6 cdbd
00000020: ccc1 51bd 5e22 a73d 7964 a93c 74d5 fdbd
00000030: 5ade 5d3d c39f f6bd ca32 b3bb 8236 8a3d
00000040: cabd 163e 1e68 0ebe e561 edbd 0b8b 17be
00000050: eca0 113d da0d 313e b7db 163e 11f0 0e3d
00000060: 1797 a23c f3a1 39bd 86bb 663d 8ff7 f3bd
00000070: db2f 083d ff90 f53d 0ac4 05be 3812 c43d
00000080: 3e2a 0c3e 336b 51bd 57c5 3fbd 7112 d0bd
00000090: 34cb 073d bff6 ea3d c1cd 40bd 4377 ebbd
000000a0: 44cc f6bd 96ad 123e 1382 d0b8 e2b6 0ebe
000000b0: eccb b3bd e3b0 31be f57b bf3d 0e82 18be
000000c0: b26e ce3d 6e9f f0bb 8699 23be d7b3 d03d
000000d0: 0143 133e 26e7 b73d d9df cd3d bbe1 2bbe
000000e0: 23e6 b63b 3115 32be addf 08be 99fe e63d
000000f0: 434d 48bb 9c0d f2bd 5278 413c c5df 84bd
00000100: 9fd1 7fbd 30fd 07bd 836a 0dbe 3789 9dbd
00000110: ed64 09be 7cdc 22be ef3b debd f99d 97bd
00000120: a3a9 0b3d 6abf 2bbd 94ee fbbd 6e6e 24be
00000130: 40b0 73bd 0892 00bd 395a 1d3e deab 0fbe
00000140: daf9 11be 6d46 03be 9bf2 b73d 495f 16be
00000150: 1d81 e13d 8486 c63d f71f 763d f8de 59bd
00000160: fd18 7d3c cdd8 10be d631 113e 25e6 143e
00000170: d74b 153e 3094 2c3d 5a1d c2bd f61e 0a3d
00000180: 0377 2d3e 2008 2e3d 9138 20bd a17f e83d
00000190: 7cf9 ffbc 07b8 863c 16b5 b9bc f797 1f3e
000001a0: 3a4b 1ebe c5c9 0f3e 7f77 00be 6363 47bd
000001b0: e4e2 163e 3c56 f63d 7ca0 d63d 03a8 053c
000001c0: a705 e4bd d6b9 093e f303 36bd 4fa2 153e
000001d0: 855c 213e 3f5a a8bd ce50 19be 5a7b 1cbe
000001e0: 76f6 80bd aeca b2bd 0bfc b23d 4ca5 f0bd
000001f0: a4d6 153e 03ce d0bd 0246 0cbe f33c b63d
00000200: c068 a4bd 737d e9bd 2162 293e a97b 22be
00000210: 63bc 2abe 8e24 cfbd df44 0abe 2ac8 16bd
00000220: 43ef 943d 9d7c afba 1c80 763d 8db8 a53c
00000230: 0b5d fabd d9c1 283e 6db0 cebd 462e 2c3e
00000240: e55e 2f3d 565c 153e 7bbd 213e 39e6 43bd
00000250: 7013 9d3d a210 9bbd b6c7 1abe b1d8 29be
00000260: 6230 913d 58a8 6a3d 0753 ecbd a2bd 10bc
00000270: d259 2dbe d108 c4bd bfb8 1bbe 1e24 103e
00000280: 9a9a f63d edc2 afbc b6e7 b93d 5831 2cbe
00000290: 4667 d8bd b075 d73d 9d53 2abe c5d1 283e
000002a0: 2508 233e b4d2 a7bc 1d8d b5bd c5e3 173e
000002b0: a067 27be ad5a 153b e9c3 e4bc 7d22 33be
000002c0: 0811 b4bd 008f 233e 1a2b 763d b475 1d3d
000002d0: 027e 7fbd 36fd a03d 8fbd 03be b594 a3bd
000002e0: 903a 9d3d 0029 6abd 55d6 2dbe 4fa9 0dbe
000002f0: e202 61bd 3e4c c03c 1e46 eb3d 4e08 10be
00000300: 515f 953c f1da fb3d 3433 d8bd c7bb 253e
00000310: ac40 d8bd 6d5d f43c 1435 86bc 5cb8 093e
00000320: 7f61 883d c719 213e 9452 c13d 441d d9bd
00000330: 8590 e0bd 39c7 37bd 30c2 0fbe b9da bc3d
00000340: e398 b5bd 560f dd3c 4fc1 aebd 8601 9cbc
00000350: 363b 48bd ede4 b1bd 3ebf 67bd b5d4 e73b
00000360: c1b6 79bd 94d8 fd3d 0a1e 323e d05a 213e
00000370: b1e4 9ebd 61c1 0a3e c055 c3b9 bece 78bd
00000380: afca 5d3d 9638 db3d 1afc 26be 896c 833d
00000390: 19ec 933d 8830 13be 93e1 fdbd 073a cabc
000003a0: 7c55 d63d 687d d1bc bd1c 91bb 488c 2dbd
000003b0: ec06 a73b 2b9c 05bb 9503 7ebd ff67 893d
000003c0: a24b edbc 2a14 383c 346e a13d e717 12be
000003d0: d171 f3bd 4a3c 18bd a66d 9cbd b291 1a3b
000003e0: 350f c1bd 1b97 90bd 3a41 25bd 090b 83bd
000003f0: 3419 5a3d 9c68 473d 59d5 5fbd 9050 e83d

GAT_layers.1.GAT_heads.1.f.bias f4 [64]
-0.07794225 -0.020628817 -0.006124068 -0.03718613 -0.0298512 -0.04268517 0.022246867 0.056975447
-0.06733718 0.036664724 0.052459825 0.030957174 0.04792639 0.031625215 -0.04635872 0.065888844
-0.033954583 0.050183065 -0.038850944 -0.034684353 -0.07860266 -0.07440906 0.046477467 0.030535422
-0.055990983 0.053417977 0.038440067 -0.015582507 0.05294702 -0.04625571 0.07250244 -0.07986301
0.03653607 -0.017230744 -0.077373065 0.060444735 0.07179909 0.0464626 -0.079335 0.037266694
-0.037643388 0.042668164 0.07823843 0.0819292 0.05391095 -0.0021467707 0.07276615 -0.021914577
0.03900314 -0.09405395 -0.0363529 -0.009530789 0.052822523 -0.037695356 -0.080132194 -0.03972826
-0.07336548 0.060294617 0.03285004 0.0227874 -0.08028841 0.06889087 -0.0825509 -0.00023294923
00000000: 30a0 9fbd c4fd a8bc 68ac c8bb 7c50 18bd
00000010: 818a f4bc a5d6 2ebd 103f b63c 165f 693d
00000020: 13e8 89bd c02d 163d 1de0 563d e699 fd3c
00000030: 764e 443d 7189 013d a4e2 3dbd bbf0 863d
00000040: f613 0bbd c28c 4d3d 2b22 1fbd 2e11 0ebd
00000050: 6efa a0bd c763 98bd 285f 3e3d 6c25 fa3c
00000060: cd56 65bd cfcc 5a3d 5573 1d3d c54d 7fbc
00000070: f9de 583d a176 3dbd 297c 943d 388f a3bd
00000080: d9a6 153d 7d27 8dbc c575 9ebd e694 773d
00000090: 670b 933d 914f 3e3d 637a a2bd f6a4 183d
000000a0: f42f 1abd d0c4 2e3d 783b a03d 7fca a73d
000000b0: bad1 5c3d d6b0 0cbb 6b06 953d 3386 b3bc
000000c0: c2c1 1f3d 5b9f c0bd c7e6 14bd 0727 1cbc
000000d0: 6e5c 583d 7266 1abd 591c a4bd 1aba 22bd
000000e0: a440 96bd 7df7 763d c38d 063d a4ac ba3c
000000f0: 406e a4bd a816 8d3d 7210 a9bd d543 74b9

GAT_layers.1.GAT_heads.1.w.weight f4 [1, 128]
-0.064981066 0.06307079 0.18515281 0.16452841 -0.022503408 0.19353645 0.11341705 0.04836947
-0.149943 0.0075046583 0.03261934 0.093591526 -0.023167763 -0.14230368 0.050535865 -0.17491797
-0.07886709 -0.09038919 -0.0044038296 0.14761835 -0.04450474 0.1261973 0.12952575 0.18441442
0.20642163 -0.17199007 0.031056236 0.021276481 0.0632997 0.1920184 -0.17043298 0.18543474
-0.11396895 0.0074404622 0.020649534 -0.035373066 -0.0622421 0.059664402 0.12500162 0.11319302
-0.14151946 0.010322839 -0.06682319 -0.21384685 0.117212825 0.1489496 -0.15456106 -0.19250049
0.029279182 0.014171295 -0.17257917 -0.07183124 -0.10713209 0.024118777 0.0183224 0.20991161
-0.026593609 0.08416756 -0.20081511 0.14810087 0.13441852 0.1833075 0.10977388 0.20376943
-0.18848854 -0.11230054 -0.00321804 0.032590132 0.079571076 -0.021053454 -0.025952592 0.04917198
0.15522425 -0.061795272 0.032549795 0.19237769 -0.069988914 0.063499875 0.14104718 0.05327926
0.13176563 -0.10714244 -0.07112216 -0.12629935 0.023294182 -0.18802266 -0.19750193 -0.031535845
0.11925379 -0.19625543 -0.07162079 0.08196673 0.06834986 0.18839665 0.025236104 -0.17254964
0.15806131 -0.07318308 0.14128573 -0.14026529 0.16660848 0.050664876 -0.044310223 0.07000146
0.1493568 0.14676632 0.09952372 0.10088031 -0.14782399 -0.007950021 0.09703893 -0.101119034
-0.18441927 0.22151549 0.20540811 0.109670185 -0.16036667 0.12766957 0.15607214 0.17789029
0.14040941 0.1203389 0.059818275 0.1705641 0.15290713 0.18703 0.20102285 0.04266859
00000000: cb14 85bd 422b 813d b398 3d3e 237a 283e
00000010: 1159 b8bc 6b2e 463e 3347 e83d 111f 463d
00000020: a88a 19be a3e9 f53b db9b 053d eaac bf3d
00000030: 52ca bdbc 0eb8 11be b2fe 4e3d b21d 33be
00000040: 1285 a1bd f81d b9bd 004e 90bb 4429 173e
00000050: 9a4a 36bd dd39 013e 66a2 043e 22d7 3c3e
00000060: 3160 533e 2a1e 30be a669 fe3c 044c ae3c
00000070: 46a3 813d 79a0 443e fc85 2ebe 9be2 3d3e
00000080: 8e68 e9bd 1fcf f33b 3629 a93c 59e3 10bd
00000090: 92f1 7ebd a962 743d 6d00 003e bed1 e73d
000000a0: 7aea 10be 2021 293c 99da 88bd abfa 5abe
000000b0: 470d f03d 3e86 183e 4145 1ebe d91e 45be
000000c0: e5da ef3c b82e 683c 98b8 30be 421c 93bd
000000d0: 1268 dbbd be94 c53c dc18 963c 12f3 563e
000000e0: d7da d9bc 0b60 ac3d 7aa2 4dbe c1a7 173e
000000f0: 02a5 093e f6b4 3b3e 21d1 e03d efa8 503e
00000100: 2403 41be d3fd e5bd c1e5 52bb 3b7d 053d
00000110: 29f6 a23d 4b78 acbc 889a d4bc 8f68 493d
00000120: 1bf3 1e3e 0a1d 7dbd ef52 053d a8fe 443e
00000130: 5956 8fbd 390c 823d ac6e 103e 5a3b 5a3d
00000140: 92ed 063e 7f6d dbbd 7fa8 91bd 9e54 01be
00000150: 71d3 be3c 0389 40be f23d 4abe bb2b 01bd
00000160: 553b f43d 2ff7 48be ecad 92bd 2cde a73d
00000170: 03fb 8b3d 0deb 403e f2bb ce3c dab0 30be
00000180: d3da 213e 03e1 95bd 35ad 103e b4a1 0fbe
00000190: 6a9b 2a3e f985 4f3d a37e 35bd ed5c 8f3d
000001a0: fdf0 183e e949 163e 18d3 cb3d 569a ce3d
000001b0: 2c5f 17be ce40 02bc 59bc c63d 7f17 cfbd
000001c0: 68d8 3cbe f5d4 623e 8156 523e c39a e03d
000001d0: 2937 24be d0bb 023e 60d1 1f3e df28 363e
000001e0: 7cc7 0f3e 3e74 f63d 0204 753d 5ba8 2e3e
000001f0: b093 1c3e cb84 3f3e efd8 4d3e 42c5 2e3d

GAT_layers.1.GAT_heads.2.f.weight f4 [64, 128]
-0.12088123 -0.091314286 -0.1365767 -0.09874832 0.15851274 0.077350676 -0.06358364 0.16443877
-0.13210076 0.12585363 0.1209435 -0.026565285 0.09470713 -0.13693285 -0.10680155 0.03148319
-0.14865802 -0.08268777 0.052567612 -0.095381476 0.082613304 -0.021580977 0.085424155 -0.0104083745
-0.15686046 -0.1252384 0.046857286 -0.14947782 0.028302262 -0.17397241 -0.056127504 0.050532594
-0.09419901 -0.09189014 -0.019936828 0.02314825 -0.035131738 0.012982114 -0.07009788 0.06763496
0.13007718 0.16756636 -0.017748501 -0.082174234 -0.00064193865 -0.14177445 0.10754805 -0.01919869
-0.120980375 -0.1547884 0.06082355 -0.05451231 0.15594576 -0.16792075 0.008443826 -0.072720446
0.10489842 -0.10576943 0.11749911 -0.009550897 -0.15855893 0.0013193649 -0.0710952 0.021977833
-0.10185654 -0.010191888 0.16608882 -0.049968142 -0.14361227 0.15616114 0.04543521 0.014758393
-0.04622034 0.037542935 0.13929133 -0.15103719 -0.041556455 -0.122312956 -0.16979793 -0.08741804
0.060466375 0.12855893 0.016606027 0.1122262 0.060462605 0.0131829865 -0.17291465 0.055622816
-0.073468216 -0.038467027 0.077270344 0.103543386 -0.14021172 -0.11982541 -0.09820955 -0.024579914
-0.1057228 0.13412096 0.08803326 0.03504348 -0.14438409 -0.0991984 -0.1004312 -0.00448748
0.039479755 -0.028255837 0.0707949 -0.081333764 -0.15707678 0.07660731 -0.012482759 0.06573007
0.08538614 -0.119393826 -0.11935458 0.07148816 0.1101781 0.07464485 -0.043914128 -0.16848126
-0.14112099 0.15557607 0.09575528 -0.045155164 0.17636153 0.086063124 -0.07347837 -0.117149584
0.12670381 -0.17402317 0.08521373 0.06575353 -0.03493244 -0.11057061 0.10584872 0.094490275
-0.17391677 -0.050661985 -0.13591966 0.017220294 -0.15120022 0.052456334 0.05894207 -0.11665023
0.0018126399 0.063107744 -0.079252996 0.17146882 -0.07568607 0.0062118554 -0.0637281 -0.006533225
-0.14249302 -0.073927954 0.17479154 0.09556422 -0.041485175 0.09173408 -0.15043058 0.05235178
-0.09050701 0.0625793 0.10495229 -0.10596262 0.08073172 -0.16478562 -0.16810623 0.01255464
0.161675 -0.17273268 0.15712065 0.041648902 0.083278164 0.06768632 -0.17584552 -0.17751984
0.02350183 -0.06991986 0.06134086 0.0715846 0.100868404 -0.08798909 -0.12218387 -0.1599526
0.13818236 0.013589682 0.1240195 0.16316412 -0.1546611 0.14027597 0.11202952 0.107258774
-0.16389237 -0.0682357 -0.10953483 0.17183356 -0.09965007 0.17307562 -0.10563825 0.10308
-0.0041333623 0.17482242 -0.052269995 -0.022232905 -0.15138862 0.02166959 0.17392129 0.11016451
0.09218409 -0.031165065 -0.03781453 -0.16238154 -0.14990662 0.1197853 0.08427102 -0.04070201
-0.08295075 -0.08696937 -0.13486359 0.1316285 -0.036594063 0.14945687 -0.040782828 -0.11516371
0.10843851 0.13669972 -0.14058033 -0.010866827 0.013059559 0.009273192 0.11073888 0.17669095
-0.09354512 -0.05906063 -0.15513293 0.10062343 -0.013149585 -0.054414615 -0.12829272 0.14690876
-0.018122343 0.0020141345 -0.14455494 0.08305163 0.05730104 -0.17237274 -0.055420723 -0.03969017
-0.037251364 -0.15397145 0.15407842 0.04212114 -0.095841676 -0.053843483 0.04565745 0.10422058
00000000: 9490 f7bd fc02 bbbd c3da 0bbe 8f3c cabd
00000010: 2a51 223e 086a 9e3d 2438 82bd a362 283e
00000020: 6c45 07be c6df 003e 3ab1 f73d 719f d9bc
00000030: d0f5 c13d 2038 0cbe c5ba dabd 84f4 003d
00000040: cf39 18be 3558 a9bd 2351 573d 5d57 c3bd
00000050: 2a31 a93d 97ca b0bc dcf2 ae3d e387 2abc
00000060: 07a0 20be 7f3e 00be 6ded 3f3d b710 19be
00000070: 25da e73c d325 32be f4e5 65bd 44fb 4e3d
00000080: 69eb c0bd e630 bcbd 8f52 a3bc 66a1 bd3c
00000090: 4ce6 0fbd efb2 543c 7a8f 8fbd 3384 8a3d
000000a0: f432 053e 8496 2b3e 4e65 91bc f74a a8bd
000000b0: c647 28ba 522d 11be 2742 dc3d 9246 9dbc
000000c0: 8fc4 f7bd da80 1ebe 1d22 793d 4d48 5fbd
000000d0: 3fb0 1f3e 6bf3 2bbe f957 0a3c 75ee 94bd
000000e0: fcd4 d63d a59d d8bd 60a3 f03d 5e7b 1cbc
000000f0: 465d 22be 8aee ac3a 5c9a 91bd db0a b43c
00000100: 299a d0bd e0fb 26bc 3013 2a3e 65ab 4cbd
00000110: 180f 13be b5e8 1f3e 451a 3a3d 30cd 713c
00000120: 8a51 3dbd 9fc6 193d 63a2 0e3e 7ea9 1abe
00000130: 1a37 2abd 377f fabd 82df 2dbe 3b08 b3bd
00000140: 97ab 773d f4a4 033e 5d09 883c dad6 e53d
00000150: a3a7 773d 74fd 573c 8a10 31be c0d4 633d
00000160: 8176 96bd 9a8f 1dbd ea3f 9e3d 8e0e d43d
00000170: a993 0fbe 0667 f5bd 1722 c9bd d15b c9bc
00000180: 3285 d8bd 0157 093e c84a b43d c189 0f3d
00000190: 6cd9 13be 8828 cbbd dfae cdbd b60b 93bb
000001a0: 86b5 213d c978 e7bc ebfc 903d 5192 a6bd
000001b0: bcd8 20be 4be4 9c3d 7c84 4cbc 7d9d 863d
000001c0: eede ae3d c084 f4bd 2d70 f4bd 6268 923d
000001d0: 0ea5 e13d 66df 983d 4ddf 33bd 5a86 2cbe
000001e0: 0582 10be 554f 1f3e 581b c43d 9ff4 38bd
000001f0: 1e98 343e dd41 b03d d47b 96bd 1fec efbd
00000200: a5be 013e 2133 32be 8984 ae3d c9a9 863d
00000210: 5115 0fbd d872 e2bd 37c7 d83d 1e84 c13d
00000220: 3d17 32be f182 4fbd 862e 0bbe 9311 8d3c
00000230: 3bd4 1abe 74dc 563d 3d6d 713d 51e6 eebd
00000240: 1a96 ed3a a23e 813d 654f a2bd 8695 2f3e
00000250: 4c01 9bbd d28c cb3b e183 82bd aa14 d6bb
00000260: b1e9 11be 8a67 97bd 8efc 323e 2cb7 c33d
00000270: 5cec 29bd 14df bb3d 790a 1abe d26e 563d
00000280: bd5b b9bd 9329 803d 3af1 d63d ee02 d9bd
00000290: ac56 a53d 90bd 28be 0a24 2cbe fab1 4d3c
000002a0: 228e 253e d6e0 30be 3ce4 203e 0a98 2a3d
000002b0: be8d aa3d 209f 8a3d d910 34be c3c7 35be
000002c0: e986 c03c 2532 8fbd 8e40 7b3d f29a 923d
000002d0: 1894 ce3d a033 b4bd 893b fabd 9dca 23be
000002e0: ad7f 0d3e 42a7 5e3c f0fd fd3d 7f14 273e
000002f0: 7b5f 1ebe 81a4 0f3e bc6f e53d 7daa db3d
00000300: 67d3 27be 29bf 8bbd cc53 e0bd 23f5 2f3e
00000310: 5615 ccbd bc3a 313e de58 d8bd 9b1b d33d
00000320: 2871 87bb a604 333e 1019 56bd c821 b6bc
00000330: 9e05 1bbe 6d84 b13c 6c18 323e ee9d e13d
00000340: 03cb bc3d e14d ffbc 69e3 1abd 5947 26be
00000350: 1f81 19be ff51 f53d 4996 ac3d 27b7 26bd
00000360: 15e2 a9bd ff1c b2bd ae19 0abe 9fc9 063e
00000370: a8e3 15bd 390b 193e e50b 27bd f4da ebbd
00000380: 0215 de3d 03fb 0b3e 4af4 0fbe c70a 32bc
00000390: c3f7 553c 96ee 173c 11cb e23d 79ee 343e
000003a0: 9594 bfbd 8fe9 71bd 2bdb 1ebe a813 ce3d
000003b0: 5b71 57bc dce1 5ebd 2b5f 03be 406f 163e
000003c0: 4f75 94bc 92ff 033b 3606 14be f916 aa3d
000003d0: 7fb4 6a3d 7b82 30be d700 63bd 2992 22bd
000003e0: e394 18bd b1aa 1dbe bcc6 1d3e 3787 2c3d
000003f0: a448 c4bd fc8a 5cbd 4e03 3b3d 9971 d53d

GAT_layers.1.GAT_heads.2.f.bias f4 [64]
-0.065247074 -0.016320154 -0.06287247 0.083220065 0.00494745 -0.033917557 -0.06161888 -0.027405323
0.03786511 0.00606961 -0.0013482566 0.009146513 -0.028849734 0.023083068 -0.028325813 0.01900042
-0.037161436 0.034307167 0.023720011 -0.032087237 -0.049940564 0.0077567366 0.078408234 0.055499658
-0.011288985 -0.08835644 0.06647681 -0.019177586 -0.043231003 0.02661711 -0.08194509 3.1093838e-05
0.025831064 -0.042500596 -0.019649189 -0.0197674 0.0022297313 -0.048805322 0.022215713 0.012068665
-0.0650844 0.047457088 0.006198231 0.03672134 0.012694694 0.02548148 -0.068485044 -0.081761375
0.04824797 -0.032692652 -0.013909595 0.06989707 0.08103162 0.073524594 -0.049545884 -0.034876652
0.08674216 0.043846052 -0.024030026 -0.011054523 0.07463584 0.009283855 0.07382273 0.08009799
00000000: 42a0 85bd d8b1 85bc 48c3 80bd 486f aa3d
00000010: 381e a23b 23ed 0abd 1464 7cbd 2181 e0bc
00000020: 7218 1b3d 94e3 c63b fcb7 b0ba 42db 153c
00000030: 4756 ecbc b418 bd3c 890b e8bc c5a6 9b3c
00000040: 9736 18bd ac85 0c3d 7850 c23c e86d 03bd
00000050: 7a8e 4cbd 392c fe3b 7f94 a03d 9c53 633d
00000060: 6ff5 38bc 39f4 b4bd fe24 883d 501a 9dbc
00000070: fe12 31bd 200c da3c d4d2 a7bd c16a 0238
00000080: ab9b d33c 1b15 2ebd 56f7 a0bc 3eef a1bc
00000090: af20 123b 17e8 47bd bafd b53c a6bb 453c
000000a0: f84a 85bd 5d62 423d 881a cb3b 1e69 163d
000000b0: 68fd 4f3c 89be d03c e341 8cbd 8272 a7bd
000000c0: aa9f 453d bbe8 05bd 12e5 63bc 3226 8f3d
000000d0: e8f3 a53d 1094 963d a0f0 4abd d2da 0ebd
000000e0: e0a5 b13d eb97 333d 9eda c4bc 081e 35bc
000000f0: adda 983d 4f1b 183c 5f30 973d 6a0a a43d
