SLIC_GAT/last5.pt (torch, 80373 bytes, 12 tensors)

GAT_layers.0.f.weight f4 [32, 124]
00000000: 04a5 38be 5ca3 8fbd 6de3 4b3d 03ce 343e
00000010: b5dd 0bbe 3c9b 883d 4d6b b93d 8952 493b
00000020: a86a 493c 2547 40be 2123 1a3e f6ef 2d3e
00000030: 48a3 853d f132 c3bd 48cc b03d 6fa0 303e
00000040: 6683 013e 01b4 333e 96c4 a7bd eb9e 933d
00000050: b22b 4cbc 1744 2b3e aa52 08be 8c4d 1bbc
00000060: 5046 b3ba 4de1 2b3c c41a a3bd 1cad a83d
00000070: a7eb d53d 816c 37bd 44ab 94bd 0479 31be
00000080: 1682 823d dfd1 c1bd c4a8 06be 0857 80bd
00000090: 2a9a 29be 104f 5e3d 50c4 75bc cd9b 69bd
000000a0: e56f f0bd 5fcb f03c 72d3 dcbd 9201 89bd
000000b0: 511c 143e 34ed 9fba f084 36bd 5fe0 123e
000000c0: 1008 193e fa56 3a3e ec9d 453c caab 193e
000000d0: b0aa d0bd 7d5d 003d cab4 bf3d 9f0c ce3c
000000e0: 39bd f93c 6f85 32be 123f 1b3e 1aec 0ebe
000000f0: f784 b63d a85c 42be 0261 243e 6a58 80bd
00000100: 4cd3 443e aa6c 853d 17c6 cc3d b06f 153c
00000110: eedb b43d d4ad 4e3d 1340 093e 4a8b 75bd
00000120: 2937 3c3d 9ad4 d6bd ff10 30be 114a 02be
00000130: 1332 06be ab0a 59bd 6dad c5bd 0fdf 933d
00000140: add9 463e a6e0 533d fdee e6bd b10f 87bd
00000150: 7d6b 043e 1b0e 043e 1512 1abe 3d52 6fbd
00000160: 58e5 903d c7b3 333e 6b34 03be 1ef6 2a3e
00000170: 340f 2e3d 4469 953d c96b 08be b006 01be
00000180: df42 03be 27a4 2ebd 0416 143e 3131 6a3c
00000190: d68d 3e3e f91f d7bd aee5 cfbd 0a57 c5bd
000001a0: 6df6 103e 8246 0c3e fba9 f03c a2d3 623c
000001b0: 7f73 013e 19a0 6abd 0bb3 823d 6d6d a9bd
000001c0: a015 1cbe 18b0 f93d 193d 2abe 1d09 0e3e
000001d0: 29bb b53c 96db a33d 32cd 3a3e 55b9 82bd
000001e0: f2ab 1b3e 6624 99bc 9b93 103e c32a 3b3e
000001f0: b6c9 de3a 8bba ab3d 8d36 383e 0248 08bd
00000200: f24e 233e 658a d8bd af81 d9bc 75c6 73bd
00000210: 2459 853d 341f 193d 2236 c13d 4a7f 473e
00000220: 8330 d8bc 3944 16be be35 a03d 580e f33d
00000230: cf62 f8bd 3078 2d3e de29 e6bd 0d8f 073e
00000240: 4e36 16bd 9d15 523d c8c2 7dbc 673c 86bc
00000250: d969 52bd 4107 bb3c 0c50 1a3e 805a b53d
00000260: 8a66 2b3e 1e5c 05be ca9b 8ebd 3b5a 3a3c
00000270: 2af3 413d 50b1 283d cc8d 7b3d 3656 44b9
00000280: d971 6cbd 3544 25be 7b0f 7cbd 8a22 00be
00000290: 3918 713d 0bfa c9bd 930d 05be 2a7d d2bd
000002a0: fd79 a9bb 1e06 213e 478c 143e f723 a63d
000002b0: b5b6 a83d 839f 073e 8123 1fbe 4f47 c23d
000002c0: 8461 99bd 191c 24be ddba 9fbd 9fb8 2abe
000002d0: b5ad 70bd dda1 52bd 965d 2cbe a968 503d
000002e0: e944 5dbc 5f8c 393e 8d7c 2dbe c8fe b23d
000002f0: ea94 093d 8fcf 99bc e257 23bd df9b 1bbd
00000300: 94fb b93d 6216 073e 9c80 28be 0c74 14bd
00000310: a367 183d b9a8 003d f8d4 463e 529c 8a3d
00000320: c843 443e a619 3abe e32c b2bc 35e1 6abc
00000330: fc2a e9bd 5510 dcbd 44af 263d f6c4 403e
00000340: 915e f8bd 218c 0abe 9450 223e b19d 30be
00000350: 69e0 c8bd 52b9 43bb ee35 ddbd 2ed9 323e
00000360: 2ae9 943d b976 e4bd 868c 21be bb38 5e3d
00000370: 4a2f 45be fd00 3ebe e18d 243e 12fc ca3d
00000380: c454 83bd c05e d4bd 3aa0 40bb 453e 193e
00000390: f001 44be 1d9b 513d d5d1 8e3d c52b 1bbe
000003a0: 9872 d6bb 736f 38be a581 a83d eda4 09be
000003b0: bf0e 2d3e af3e dd3c 4001 75bd 70a2 273e
000003c0: e458 bebd 0eb0 47be c595 103e cd14 933d
000003d0: 1485 b93d 583e e53d 2727 4f3d c6e2 803c
000003e0: 5ea2 dfbd 2321 a93d 4d3f a43c 37f8 2d3e
000003f0: 247b 283e fc27 393e e37d ea3d b8df 233d
-0.18031698 -0.0701358 0.049777437 0.17656712 -0.13658793 0.066702336 0.09053669 0.003071936
0.012293495 -0.1877714 0.15052463 0.16986069 0.06525284 -0.09531201 0.086327136 0.172487
0.12647781 0.17549135 -0.08191793 0.072080456 -0.01246159 0.16725193 -0.13312784 -0.009478938
-0.0013677571 0.010490728 -0.079640895 0.08236143 0.10445338 -0.04478121 -0.07259229 -0.1733132
0.06372468 -0.09463858 -0.13150316 -0.062666 -0.16562715 0.05427462 -0.015000418 -0.05703335
-0.11740092 0.02939385 -0.107825175 -0.06689753 0.14463927 -0.0012201429 -0.044560373 0.14343403
0.14944482 0.18197241 0.012061577 0.15006939 -0.10188806 0.031339157 0.09360655 0.025152503
0.030485736 -0.17433713 0.15160778 -0.13957253 0.0891208 -0.18980658 0.1605263 -0.06266864
0.19221228 0.06514867 0.0999872 0.009120867 0.08831011 0.050458744 0.13403349 -0.05994729
0.045951042 -0.10489769 -0.17193983 -0.12723567 -0.1310504 -0.05298869 -0.09652219 0.072202794
0.19418974 0.051727913 -0.11276052 -0.0659479 0.12931629 0.12896006 -0.1504596 -0.058428038
0.07074994 0.17549048 -0.12812965 0.16695449 0.042494968 0.072954684 -0.13322367 -0.12600207
-0.12818478 -0.042637017 0.14461523 0.014293955 0.18608794 -0.10504145 -0.1015123 -0.09635742
0.14156504 0.13698772 0.029377928 0.0138444025 0.12641715 -0.057281587 0.06381806 -0.082728244
-0.15242624 0.1219179 -0.1662487 0.13870664 0.022183971 0.08000867 0.18242338 -0.063830055
0.1520231 -0.018694114 0.14118807 0.18278031 0.001699737 0.083851896 0.1798956 -0.033271797
0.15948084 -0.10573272 -0.026551096 -0.059515435 0.06511143 0.037383273 0.09434153 0.1948215
-0.02639032 -0.14674462 0.078227505 0.1186797 -0.12128221 0.16940379 -0.11238454 0.13238163
-0.036672883 0.051290143 -0.015488334 -0.016386224 -0.051370475 0.022830607 0.15069598 0.08855152
0.16738334 -0.13023421 -0.06963308 0.011374052 0.04735104 0.041184723 0.061414525 -0.00018724133
-0.05772576 -0.161393 -0.0615382 -0.12513176 0.05886099 -0.09862145 -0.1299346 -0.102777794
-0.005172013 0.1572499 0.14506637 0.081123285 0.082379736 0.13244443 -0.15540887 0.09486257
-0.07489303 -0.16026343 -0.07799313 -0.1667199 -0.05875941 -0.051423896 -0.16832575 0.05088106
-0.013505199 0.18119954 -0.16942044 0.08740002 0.03358928 -0.01877573 -0.039878733 -0.037990447
0.09081188 0.13192132 -0.1645531 -0.036243483 0.03720821 0.031410906 0.19417179 0.06768097
0.19166481 -0.18173847 -0.02174992 -0.01433592 -0.11385152 -0.107453026 0.04069449 0.18825135
-0.12127412 -0.13530017 0.1585105 -0.17247654 -0.09808428 -0.0029865098 -0.10801302 0.1746566
0.07271035 -0.11155457 -0.15776262 0.05425332 -0.1925632 -0.18555064 0.16069748 0.0991136
-0.06412652 -0.10369635 -0.0029392377 0.1496516 -0.19141364 0.05117332 0.06973616 -0.15153416
-0.0065444224 -0.18011265 0.08227853 -0.1344182 0.16900156 0.027007429 -0.059815645 0.16370559
-0.09294298 -0.19500753 0.14119633 0.07181702 0.09058586 0.11193532 0.050574448 0.015733134
-0.10919641 0.082582735 0.020049715 0.16989218 0.16453224 0.18081659 0.11449792 0.040008277

GAT_layers.0.f.bias f4 [32]
00000000: fe5d b7bd 4234 82bd 5601 bebb 1efd a53d
00000010: c286 42bd 938d 503d e8f9 9dbc db60 b63d
00000020: 0c46 00bc 7148 cc3c 21f7 033c b7b5 a7bd
00000030: 406d 78bd a7dd 043c c4f8 b5bd 59b8 93bd
00000040: c42f 30bd 745e 93bc 4754 023d 90b9 afbd
00000050: 584a b9bc b873 2fbd 7b26 81bd 689e 81bd
00000060: 147c 71bd 5488 543c 4837 8b3c 9fbc ec3c
00000070: 1963 803d d72e 5d3d e345 cdbc 8009 8e3c
-0.089534745 -0.06357624 -0.005798499 0.08104919 -0.047491796 0.050916266 -0.019284204 0.089051925
-0.0078292005 0.024936887 0.008054526 -0.08188956 -0.060651064 0.008109487 -0.08885339 -0.07212896
-0.043014303 -0.017989375 0.031818654 -0.08580315 -0.022618458 -0.042834967 -0.06306168 -0.06329042
-0.05895622 0.012971956 0.016994134 0.028898535 0.062689014 0.053999748 -0.025057739 0.017338514

GAT_layers.0.w.weight f4 [1, 124]
00000000: 15ca 143e d714 593e 81e2 59be ed1f 773d
00000010: e4c9 ddbd f8cc 4c3e a244 b6bd 34bb 50be
00000020: e3cc fa3d 5b25 bf3d cd54 52be 3056 0e3e
00000030: 34f6 293d 6731 78bd d1cc 413d e4a2 bfbd
00000040: 2e64 5dbe c08e 253e 5212 55bd ac01 58be
00000050: 83cc 3bbd a594 01be 6beb 29be 693b 31be
00000060: 9726 bbbd 1d80 253e 9845 8cbd 5dc9 2a3e
00000070: dfa9 0bbe 4b5c 0b3d 3b8c 383e 7838 39be
00000080: c788 2bbe 60b3 64bc 1f77 acbd f42a 253e
00000090: 6457 14be 53ed 0ebe 3094 90bd 12f0 5abe
000000a0: 2406 3f3e 3b64 a6bd dfc6 e33d f4d9 6cbd
000000b0: d736 30be ead2 623b efbd 7fbd 7471 21be
000000c0: c4d6 e5bd eaeb 66bc 41af 6b3c 50c9 e93c
000000d0: 00a1 2dbc a639 7dbd 8fd4 fb3d 1d14 d3ba
000000e0: 6bfe 1bbe 0618 963d 4eb2 99bd 6585 50bd
000000f0: 618e 4b3e 4d4a 42bd 9c77 2abe 1b1a 4ebe
00000100: 9658 ca3c c676 57be 55c4 2ebd 7a34 08be
00000110: aea0 1bbd 42c8 413e f9dd 483e 422b 493e
00000120: ebbc 133e dcde 443e 3a31 ce3c b82e dfbd
00000130: 563a 5b3d f3c3 33be 7c57 2abe b188 25be
00000140: 14bb 07bd 60e2 153d 085e 2e3e 3cac 74bb
00000150: 58af 08be 5f82 2a3e 6f26 46be be94 cdbc
00000160: 7e16 61bd 6033 d5bd e8e3 d03c 379a f4bc
00000170: 119a 63bc 7dbe 32be de5d 89bd 00a6 343e
00000180: 3faa 243e 18da d1bd 831a 193e e395 46be
00000190: 5396 3e3e dcfc b83d 37be 4fbc d5c7 0fbb
000001a0: 9db8 f43c 5b8f c23d 2305 efbd 4732 32bd
000001b0: 9f20 e03d c289 4b3e c3bd d63d 207c f0bc
000001c0: 41c5 123e 0b2b edbb 0ac7 223e 4ffa f83d
000001d0: ea98 5abe 0ba7 ddbd 1a49 75bb 46cc 34be
000001e0: 4dee 333e f98c 50be 188e 8e3c 4f98 523e
0.14530213 0.21199356 -0.2127781 0.06033318 -0.10829523 0.20000064 -0.088998094 -0.20383912
0.1224611 0.09333297 -0.20540161 0.13900065 0.041494563 -0.06059399 0.04731447 -0.09357241
-0.21620247 0.16167736 -0.052019425 -0.21094388 -0.045849334 -0.1265436 -0.16593711 -0.1730782
-0.0913822 0.16162153 -0.068492115 0.16678376 -0.1363902 0.034023564 0.18022244 -0.18087947
-0.16751395 -0.013958782 -0.08421158 0.16129667 -0.14486462 -0.1395772 -0.070595145 -0.21380642
0.18654686 -0.08124586 0.11121916 -0.057825044 -0.1720842 0.0034610578 -0.062436994 -0.15765935
-0.11222604 -0.014094332 0.0143850455 0.028538376 -0.010597467 -0.061822556 0.12296402 -0.0016104017
-0.15233772 0.07328801 -0.07504712 -0.050908465 0.19878532 -0.04743414 -0.1664719 -0.20127146
0.024700444 -0.21041402 -0.042667706 -0.13301268 -0.037995033 0.18924049 0.19615926 0.19645408
0.14427535 0.19225639 0.025169957 -0.10897583 0.05352243 -0.17555217 -0.16634935 -0.16165425
-0.033137396 0.03659284 0.17028058 -0.0037334105 -0.13348138 0.16651295 -0.19350599 -0.02509534
-0.05495309 -0.1041019 0.0254993 -0.029858692 -0.013891713 -0.17455478 -0.06707357 0.17641449
0.16080569 -0.10246676 0.1495152 -0.19393115 0.18612032 0.09032604 -0.012679628 -0.0021939178
0.029873187 0.09499999 -0.116709016 -0.04350498 0.10943722 0.19876769 0.10485413 -0.029356062
0.14333059 -0.007237797 0.1589624 0.121571176 -0.21347395 -0.108228765 -0.0037427605 -0.17656049
0.17571373 -0.20366277 0.01740174 0.20565914

GAT_layers.1.f.weight f4 [64, 64]
00000000: cf55 efbd 5de9 86bc a6f1 c0bd cf74 a13d
00000010: 0186 cd3d 5ec2 893d 6413 07be ec1d 503e
00000020: 7f69 20be 06df 2abd 4071 bbbd 9969 1f3e
00000030: bd27 733d b25b ff3d 88d2 53bd 5e30 113e
00000040: 4bd7 ac3d 533a f73d 300c bcbc 62c0 553e
00000050: 15bf efbd 00c4 573e 8e77 cdbd 5a9a e63a
00000060: 05d7 8cbd a714 e7bd aabf 193d 3af8 2e3e
00000070: 5126 af3d e7f7 143e 54ce 53be da42 53bd
00000080: 04d2 3b3e 403f a93d 1de3 463e 9523 00bd
00000090: 2375 42be 76d5 9bba bed6 cebc 3bea babd
000000a0: 32d8 c23d 04e1 bfbd 6167 fbbc 1368 e7bd
000000b0: 7f52 273e fd55 cebd a258 11be 76d7 593d
000000c0: 2d16 183e 857e d43a 9c4f 3b3e 2cfd 883d
000000d0: 5a29 09bd 74e7 30be ec55 01be 90d3 d13d
000000e0: 0443 ff3d 7086 aebd a809 ebbd 9799 01be
000000f0: 0376 bb3d 41c9 e9bd fc06 4cbe 2cd3 813d
00000100: 7f66 c63d 641d 64bc 279c 44bd 3b6d 40bd
00000110: 0360 e2bd f79e eb3d 36a3 7c3d 44e3 333e
00000120: 57f2 bbbd 0932 b7bc 78e7 6b3d 419b 153e
00000130: 30d8 11be aed3 653d bb9e 36bd 1987 00be
00000140: d533 083e 172b 43bd c8c0 903d f721 15be
00000150: 5e67 4fbe 8b93 90bc 465a 323e 0de5 1e3d
00000160: c49b a63d 4093 babb 402b 05bd 04b3 953d
00000170: 56fd 473e 3842 ebbb bfcc 66bd 0302 3c3c
00000180: f2f6 e53d c18b e63d c48a f3bd b9b9 103e
00000190: a101 363e 621a 513e 1528 38be 1c34 b0bd
000001a0: 223c 7b3d 48e8 443e 1dd7 da3d 1592 57be
000001b0: 1a05 03be 681c f43d a372 51bd 7f6a 2f3e
000001c0: 841d 55be 31b4 39be fa03 3a3e 9d88 39be
000001d0: 53b0 223e cea9 3fbe a0dc be3d 8f63 883d
000001e0: df4c 763d 307d d8bd 79a0 263e 3dba 943d
000001f0: 4ce8 01be 19b1 033d ea9f 053e 809e 243e
00000200: d454 d4bd 99b7 dcbd c46f 753d b047 2c3e
00000210: f162 4abe e380 bdbd 5978 e63d 6ec0 d9bc
00000220: af10 dcbd 302f 4c3e 1762 3dbe da76 8a3c
00000230: a528 10be 0612 df3d 9bc4 e5bc 067e 483d
00000240: 0c4a 22be 133d e53d 39b9 4dbe 70d4 3e3e
00000250: a1ee cfbd cd90 9e3d 7c06 d2bd 3f35 9ebc
00000260: 8906 893d df66 2cbe 9ae6 9dba f30c 58be
00000270: e516 5d3e d0c0 1d3e e9e3 81bd 19f3 d23d
00000280: 9fb0 0cbe c38b 383e 67d8 29bd 8959 ba3d
00000290: fedf d53d eea0 c73d bec8 4d3e 176a 413e
000002a0: 9c5a 10be 72e1 49bd db2d f83d ba3d adbd
000002b0: bc33 0bbe 54c3 453e 4e1c 59be 05ee 6b3c
000002c0: d319 28be e602 7e3d a1bd 9dbd 71c5 b8bd
000002d0: bb70 b53d c3e3 ee3d a08e 553e 1498 5d3e
000002e0: 93b5 92bc 104e 343e 7c28 783c 4b6b 913c
000002f0: ccb0 a23d 7d48 8e3d 45fe 01be 485d 333e
00000300: 4152 18be 199f 85bd 2558 58be ac70 56be
00000310: 09af 373e 892a 3d3e 3781 abbd daa0 0c3e
00000320: 0952 f73c 7ada e3bd a190 e23d 9b71 193e
00000330: 5644 403d 987a adbc 2104 c03d 32dd 3cbe
00000340: d29e 9bbd bb07 2cbe e223 503e f205 e53d
00000350: d736 d43d 6762 573d 176f 373d 0bc8 0a3e
00000360: be69 c1bd 2445 0bbe 14f5 c6bd b17d c9bd
00000370: 90ba 8cbd 733d 153e 12cf af3d 6920 cdbd
00000380: cda7 023e 0cd0 4f3d 6a2b 853c 5a72 4cbc
00000390: bcfc 803c c0bc 42bd 3777 263d e628 193e
000003a0: 99f0 6abb 37cf 9cbd 6008 e9bb 48d8 01be
000003b0: 4081 c9bd 064d 4dbe d05e 93bd 6917 41be
000003c0: 7c86 49bd 128c 2ebd 1e52 ffbd 0e5b 40be
000003d0: 6684 b93c 67d6 1fbe 7855 f4bd 43e2 fe3d
000003e0: e20e a33d 7298 843d ce63 783c 6c14 aebd
000003f0: 7cc6 b63a f133 1f3e e000 f0bc 31a9 b63d
-0.116862886 -0.016468698 -0.09421091 0.078836076 0.10035325 0.06726526 -0.1319099 0.20323914
-0.15665244 -0.041716598 -0.0915246 0.15567626 0.05936407 0.12468661 -0.05171445 0.14178607
0.084395014 0.12071671 -0.02295503 0.2087417 -0.11706368 0.21070862 -0.10032569 0.0017593608
-0.06876949 -0.11283236 0.0375363 0.17086878 0.0855223 0.14547692 -0.20684177 -0.051577426
0.18341833 0.08264017 0.19422574 -0.031283934 -0.18989997 -0.0011889178 -0.025248881 -0.09126707
0.09513892 -0.0936909 -0.030688943 -0.112991475 0.16340064 -0.10074995 -0.14193967 0.053183995
0.1485221 0.0016212022 0.18292087 0.06688914 -0.0334867 -0.17275792 -0.12630433 0.102454305
0.12463954 -0.08521736 -0.11476451 -0.12656246 0.09153368 -0.11415339 -0.1992454 0.06339106
0.09687518 -0.013923023 -0.04800048 -0.04697917 -0.11053469 0.115049295 0.061679088 0.17567164
-0.09177082 -0.022362726 0.057593793 0.14610006 -0.14242625 0.056110077 -0.04458497 -0.12551536
0.13301022 -0.047648516 0.0706802 -0.14563738 -0.20254275 -0.017648479 0.17417249 0.03879266
0.08135179 -0.005693823 -0.03251195 0.07309535 0.19530234 -0.0071795247 -0.056347605 0.011475089
0.11228742 0.11257125 -0.11891702 0.14133348 0.17774059 0.2042022 -0.1798404 -0.08603689
0.061336644 0.19229233 0.10685561 -0.2105182 -0.12794915 0.119194806 -0.051134717 0.17130469
-0.2081204 -0.18135144 0.1816558 -0.1811852 0.15887575 -0.18717119 0.09319425 0.06659614
0.060131904 -0.105707526 0.16272153 0.07262085 -0.1268627 0.032151315 0.13049284 0.16076088
-0.10367742 -0.10777206 0.05992104 0.16824222 -0.19764306 -0.09253099 0.11253423 -0.026581015
-0.1074537 0.19939876 -0.1849445 0.016902376 -0.14078005 0.108921096 -0.02804785 0.04894831
-0.15848559 0.111932896 -0.20090188 0.18635726 -0.10152937 0.07742462 -0.10255143 -0.0193125
0.066906996 -0.16836117 -0.0012046874 -0.2109869 0.21590765 0.15405583 -0.063422985 0.103002734
-0.1373925 0.18022065 -0.041466143 0.09099109 0.10443114 0.09747492 0.20096108 0.18888126
-0.14097065 -0.049287267 0.12118121 -0.08459039 -0.13593954 0.19312793 -0.21202204 0.01440001
-0.16416101 0.062014483 -0.077021845 -0.09022034 0.08859392 0.11664536 0.20855188 0.21640044
-0.017908847 0.17607903 0.015146371 0.017751357 0.079438776 0.0694742 -0.12694652 0.17516053
-0.14875127 -0.06524486 -0.21127374 -0.20941418 0.17937864 0.18473257 -0.08374255 0.13733235
0.030190485 -0.111256555 0.11062742 0.14984743 0.04694017 -0.021176621 0.093757875 -0.18443754
-0.07598652 -0.16799824 0.20326188 0.111827746 0.10362022 0.05258408 0.044783678 0.13552873
-0.09443997 -0.13600594 -0.09714714 -0.09838427 -0.068715215 0.14574222 0.085844174 -0.10015947
0.12759323 0.05073552 0.016256053 -0.012478435 0.015745513 -0.047543287 0.040641036 0.14957008
-0.0035848974 -0.076567106 -0.007111594 -0.12680161 -0.098391056 -0.20048913 -0.071958184 -0.18856587
-0.04920052 -0.04261405 -0.124668345 -0.18784735 0.02264614 -0.15609132 -0.11930364 0.124455
0.07961823 0.06474389 0.015160514 -0.08499989 0.0013944651 0.15547158 -0.029297292 0.089189894

GAT_layers.1.f.bias f4 [64]
00000000: 4499 64bd 27ad 013e 0eb8 af3d 440f c13d
00000010: 4ed0 093e 08c3 bbbd 5f4f a93d 80c7 3bbc
00000020: a4b0 973d c699 93bd f2ca adbd ea95 97bd
00000030: 7092 10bc 92c3 ac3d 807a 00bb 78a8 57bd
00000040: e935 1e3e 9e0b 323d 6841 cebc 92b5 92bd
00000050: c201 febd a5ec 6e3d 80b0 96bc 9195 ed3d
00000060: 30b4 d23d 3d5c 6e3d 7c0e 143d 7c42 77bd
00000070: a06f 9abd 7cc7 03bd 4c10 953d c20d 173c
00000080: 0d50 9f3d 28e8 c0bd fdd6 243d d089 76bc
00000090: d33c 203e 90d7 3abc abc6 b73d 3174 273d
000000a0: 4a6d b4bd 1ec7 9cbd 939e 773d ca6b bebd
000000b0: a69c 123e 7de3 453d 7e6e 5c3d 6fac aa3d
000000c0: 218d c63d c0c0 25bd c8d3 b5bd 1b51 233d
000000d0: c691 a4bd 68ca 1ebd e0cd 26bd 4017 97bd
000000e0: f0f0 70bc 7075 68bd 180c f0bc 16ad eabd
000000f0: 12e3 d9bd 2371 b63d f8e5 cfbc a504 ab3d
-0.055810228 0.12663709 0.085800275 0.0942674 0.13458368 -0.09168059 0.08267092 -0.011461139
0.074067384 -0.07207064 -0.08485974 -0.07401641 -0.008823976 0.084357396 -0.0019604266 -0.0526509
0.15450253 0.04346811 -0.025177673 -0.07163538 -0.12402679 0.05833115 -0.018394709 0.11600793
0.10288274 0.058193434 0.036146626 -0.06036614 -0.07540822 -0.032172665 0.07278499 0.009219589
0.0777894 -0.0941928 0.04024409 -0.0150475055 0.15648203 -0.011403933 0.0897344 0.040882293
-0.08809908 -0.07655166 0.060453963 -0.09297903 0.14317569 0.048312653 0.05381631 0.0833367
0.09694887 -0.040467024 -0.08878285 0.03987227 -0.080356166 -0.03876725 -0.04072368 -0.073774815
-0.0147058815 -0.056752622 -0.029302642 -0.11458795 -0.10639013 0.08908298 -0.025378212 0.08350495

GAT_layers.1.w.weight f4 [1, 64]
00000000: daf0 1e3e 71f0 84be 22cc a53c fecd 853e
00000010: 48f0 243d fff2 95be cf33 843e 9c37 6cbe
00000020: 12ef ebbd 9a50 eabd 9d55 d43d db11 51bb
00000030: 2d86 fc3d 35a6 62be 358b 493d 370d ae3d
00000040: 4da3 843e 6140 afbc ebe6 d2bd 8c16 3fbe
00000050: c399 8a3e e171 603e 0650 1e3e b379 d0bd
00000060: 7261 d2bd b1bb 69be 26a3 7bbe dd39 fc3d
00000070: 9359 94be 6cdd f1bd 7086 473e c3ac 1b3d
00000080: ba3c 8a3e d230 2cbe f65e 9dbd 86d4 8b3e
00000090: 4866 5c3e 57d9 d43d 3047 86be 1655 ed3d
000000a0: b24c d03d 6d3a 73be ca98 993e cf6d 183e
000000b0: 6f75 583e e7fb 3abe 474d f1bd 4a83 6d3e
000000c0: dbb5 6c3e 3ef0 743e 8cf7 573e 8298 833e
000000d0: 72af 35be 37ff 2a3e cac7 28be 4a31 debc
000000e0: f9d1 53be 6e1c 37be 3a0d c8bd 1bd6 17be
000000f0: c8d2 2abe 192e 1fbe 7c93 393e b0b6 7f3e
0.15521565 -0.25964692 0.02023894 0.26133722 0.040268213 -0.29286954 0.25820777 -0.23068088
-0.115202084 -0.11441155 0.10367892 -0.0031901512 0.123302795 -0.22133715 0.049205024 0.08498614
0.2590584 -0.021393003 -0.1029795 -0.18660945 0.27070436 0.21918441 0.15460214 -0.10179462
-0.102724925 -0.22825505 -0.24573955 0.12315724 -0.2897459 -0.11809811 0.19484878 0.038006555
0.26999456 -0.16815498 -0.07684128 0.2731058 0.21523392 0.10393017 -0.26226187 0.115884945
0.101708785 -0.23752756 0.2999938 0.14885639 0.21138547 -0.18260156 -0.117823176 0.23194614
0.23116247 0.2391977 0.21090525 0.25702292 -0.17742708 0.16698919 -0.16482463 -0.027123112
-0.20685567 -0.17881939 -0.09768148 -0.14827769 -0.16681969 -0.15544929 0.18122667 0.24972034

GAT_layers.2.f.weight f4 [64, 128]
00000000: 0e6a 9ebd aeb8 933d 0c54 c93d d039 63bd
00000010: 1c05 06bd 6bd0 0cbe 4e7f c4bd 087c fcbd
00000020: f4e7 0ebe 4036 cebc dc34 bf3d aa4d 1b3e
00000030: b492 26be 941c e33d b4a0 ccbd 11eb 2d3e
00000040: fbb0 d33d 41e4 d03d d759 07be e021 c83d
00000050: d8c9 963d a58d fdbd b323 f83d 01c5 bd3c
00000060: 7baa fabd 134d 923d 8a9e 3e3e 9606 24bd
00000070: 105f bbbd c4cc 843d 0c6a 893d 3572 0c3e
00000080: 88c9 0d3e afcc 0abe daab e73d 325f ca3d
00000090: 1973 4a3e c097 013e 82a1 b23d 1c8a 18bd
000000a0: 3720 a7bd b3e0 8a3d 4006 053c 7e1c b53d
000000b0: 2d24 033e d528 1abd 9ba9 13be a18e 24bd
000000c0: b66c e43d 7deb 353d 2a74 0b3e 62ce c0bb
000000d0: 71f2 dcbd 9b0d dcbb 9ea8 c73d 3b8c 30be
000000e0: dcda fd3d 2170 2f3d 980e 9abd 7dd2 27be
000000f0: c97a 3bbc d0ea 2f3c 1d86 dcbd e133 b3bc
00000100: 4914 223e df0a d73d 6b17 533d 9a88 6e3d
00000110: 7364 023e e5b9 263e 3fcb b2bd 646e 22be
00000120: 1d41 0bbe a09b 53bc 04e2 cd3c bc26 f0bc
00000130: 4e15 97bd 0d41 a0bd 58a7 16be 8791 3abc
00000140: 7bfd 05be 4212 59bd 9b84 14be d8cf f03d
00000150: f4fc cf3d 2689 253e 050f 75bd d122 6d3d
00000160: 30ad 93bc 8865 d73d 7725 983d 1570 213e
00000170: bafd 19be 2486 e53c 6428 20be 357c 063e
00000180: 311b ad3b ea6f 473d d8f8 283e 3cb5 06be
00000190: 5fbe 69b9 429c 1a3d 3540 28be c0a4 83bd
000001a0: b1aa 9b3d d6ba a7bd d26d 15be 4176 14be
000001b0: 6c18 91bd 8fea 343d 9476 30be c339 0ebe
000001c0: 8548 13be 2ea8 25be a3c6 8a3d 15bd ffbd
000001d0: 7a52 c8bc 0bbe 94bd 6e86 50bd cfb7 f33d
000001e0: f4a5 49bd 37d8 e8bd 357f 4b3d fe3a d43d
000001f0: 135d 04be 1f33 c2bd e11e 9c3d 5745 9abd
00000200: 6a42 e13d aa41 363e c0c3 58bc 6a38 443a
00000210: 008f 113e 8510 c33d 558c 91bc 4230 183d
00000220: 90b9 023d b9ef efbd 08fe 84bd 8e73 9e3d
00000230: ea0a 0bbe 4e8c 5ebd 1a06 3d3d 01f9 6d3d
00000240: 8537 b2bb c437 13be 96af a83d d947 30be
00000250: cf3a c43b 1bcd a03c 514b 723d b2c2 bb3d
00000260: d9e8 f0bd dfa0 b93d 33b6 06bd 716e 8dbd
00000270: eb80 a1bd 69ac dbbd 827e 37bc 0e6e e5ba
00000280: cff8 343e c893 683d d3e5 24bc 4681 943d
00000290: 442b 0bbd 6e38 f53d 33fa b1bd c638 b6bd
000002a0: eb55 0ebb ed68 173e 0bc0 103e a6f3 3c3d
000002b0: 1b83 063e 0728 1e3e 8c56 213e 18a0 0d3d
000002c0: d076 95bd 25ab 803d b66f 1e3d b193 2e3e
000002d0: 1709 f93d 38f2 58bd 4751 623d 5010 e23d
000002e0: 3570 983c 157a 0e3e 5fa9 29be c4fe fbbd
000002f0: 78af a1bc 57c3 b83d bd76 9a3d 4300 b6bc
00000300: c378 f6bd 0b9e a6bd bdca f1bd 474f ef3d
00000310: 674e ebbb 8d0a b73c 0958 17bd 7155 7abc
00000320: 9218 1f3e bcef 133e 3318 56bb 6cd1 b13d
00000330: 889a fbbc 5fa4 06be 6d12 dbbd e75d fa3d
00000340: 7888 edbd fb9a 29be a2fd 993d 3ce8 5c3d
00000350: fe76 303e 1ee2 a6bd c48f d63d a394 28be
00000360: 1eb9 c6bd fc06 973d ae75 0f3e 1971 cd3c
00000370: 62c6 83bd 4908 f43d 5d39 4d3d 35b1 29be
00000380: c7cf 1abe fb54 133e 1515 2b3e 01ba e53d
00000390: d597 b9bd b97f 3d3d 071e 7c3d 0b5c f7bd
000003a0: 6bbd f4bd 7eb1 ec3d e616 c5bc 272c 14be
000003b0: 1e59 c63d 0593 1fbd a500 f03d fcf6 2abe
000003c0: 5c06 1ebe 9ca8 0c3e e8af c33d 73d0 19be
000003d0: 31bf e43d 5a18 353d 8ee6 32be 1160 eebd
000003e0: f3fa 16be 7078 ad3d c483 8dbd bf46 58bd
000003f0: a4c5 4d3d 4de2 b2bd af65 0fbe ea8e 9d3d
-0.07735072 0.07212959 0.09830484 -0.055475056 -0.032719716 -0.1375138 -0.09594594 -0.123283446
-0.1395567 -0.025172353 0.09336254 0.15166345 -0.162669 0.11089435 -0.09991589 0.16984202
0.10336491 0.10199786 -0.13217865 0.09772086 0.073627174 -0.12380532 0.12116184 0.023165228
-0.12239548 0.07143607 0.18615165 -0.040045343 -0.09148991 0.064843684 0.0670968 0.13715442
0.1384641 -0.13554643 0.11312075 0.09881438 0.19770469 0.12655544 0.087222114 -0.037241086
-0.08160441 0.06781139 0.008119166 0.08843325 0.12806769 -0.037636597 -0.14420168 -0.040175084
0.111535475 0.044414032 0.13618532 -0.0058839777 -0.107884295 -0.006715489 0.09748958 -0.17240994
0.1239526 0.042831544 -0.07522315 -0.16388889 -0.0114428485 0.010737136 -0.107677676 -0.021875324
0.1582805 0.1050012 0.051536005 0.058235742 0.12733631 0.1628185 -0.08730172 -0.15862423
-0.13599057 -0.012915522 0.025132187 -0.029315345 -0.073771104 -0.078249075 -0.14712274 -0.0113872355
-0.13084976 -0.052995928 -0.1450371 0.11758393 0.10155669 0.16165599 -0.059828777 0.05789453
-0.018026918 0.105174124 0.07429021 0.15765412 -0.15038195 0.028018065 -0.15640408 0.13133319
0.0052827825 0.048690714 0.16501176 -0.13155073 -0.0002229153 0.037746675 -0.16430743 -0.06427908
0.07600916 -0.08189933 -0.14592674 -0.14498235 -0.07084736 0.044169005 -0.17232734 -0.13889222
-0.14383133 -0.16177437 0.06776168 -0.124872364 -0.02445339 -0.0726281 -0.050909452 0.11900293
-0.04923053 -0.11369365 0.04968186 0.10362814 -0.1292613 -0.09482407 0.07623077 -0.07532757
0.109989956 0.17798486 -0.013230264 0.0007485213 0.14214706 0.09524635 -0.01776711 0.037155397
0.031915247 -0.11715645 -0.06493765 0.07736884 -0.13578382 -0.054333024 0.046148397 0.058098797
-0.0054387474 -0.14376742 0.08236615 -0.17214908 0.005988456 0.019629052 0.05915386 0.091679946
-0.11763162 0.09063887 -0.032888602 -0.06905831 -0.07885917 -0.10726244 -0.011199595 -0.0017504112
0.17673038 0.05678156 -0.01006456 0.072512195 -0.03397681 0.11973654 -0.086903 -0.088975474
-0.0021718692 0.1478612 0.14135759 0.0461308 0.1313595 0.15444957 0.15755671 0.034576505
-0.07298052 0.06282643 0.038680755 0.17048527 0.12159937 -0.052965373 0.055253293 0.110382676
0.018608192 0.13913758 -0.16568516 -0.12304452 -0.01973699 0.09021633 0.07542179 -0.022216922
-0.12034752 -0.08135613 -0.118062474 0.11685043 -0.007180977 0.022343898 -0.03694919 -0.01527916
0.15536717 0.1444692 -0.0032668232 0.08682522 -0.030713335 -0.1314864 -0.10696874 0.12224942
-0.11598295 -0.16563027 0.0751908 0.053932413 0.17232892 -0.08148597 0.1047664 -0.1646295
-0.09703277 0.07374379 0.14009735 0.025078343 -0.06434323 0.11915643 0.050103534 -0.16571505
-0.15118323 0.14387886 0.16707261 0.11217118 -0.09062163 0.046264384 0.061552074 -0.12078103
-0.11950191 0.115572914 -0.02405877 -0.14469968 0.096849665 -0.038958568 0.11718873 -0.1669578
-0.15432113 0.13736194 0.09555036 -0.15020923 0.11169279 0.044212677 -0.17470762 -0.11639417
-0.14744167 0.08470237 -0.06909898 -0.052801844 0.050237313 -0.0873457 -0.14003633 0.07693274

GAT_layers.2.f.bias f4 [64]
00000000: 2988 da3c a0e3 0c3d 4dd4 24bd f596 8e3c
00000010: e412 abbd d709 85bc b2f1 a43d d951 5a3d
00000020: 6eda 33bd 917d a2bd f077 b73c 7fe3 73bc
00000030: db95 89bd ab0f da3d c768 96bd bf0e 343c
00000040: 9ba4 c83c 69ed 3c3d b5e2 fb3d e175 793d
00000050: 89ce 92bd c9d5 ec3d 73ef 62bd 365e 903d
00000060: 1686 8fbd 16b0 8d3d 9758 bd3d b47c ba3c
00000070: 5817 653d 7455 e63d c99e 9b3d ca4d 6cbd
00000080: b471 b2bd df44 853d 5720 6d3d 3480 2e3c
00000090: 234f 0f3d 2ad8 293c fc14 573d a1bf c13d
000000a0: 10bb cfbc c8bd 853d f69f a53c 1d45 3f3d
000000b0: 0962 aebc d16d b3bd 1e61 97bc 105c 9fbd
000000c0: 6238 8ebb c6c1 713c 312e 9ebc 9460 2c3d
000000d0: 4f16 3fbd da0f 5a3d 48a7 8abd 0acf b4bd
000000e0: 04f0 873d 64a7 a43d eb90 25bd 0157 bc3d
000000f0: 59a8 b13d 90df 70bc ba89 97bb 0a8d ec3c
0.026676254 0.034396768 -0.04024153 0.017405966 -0.083532125 -0.016240044 0.08053912 0.053300712
-0.043909483 -0.07934106 0.022396058 -0.014885782 -0.06718036 0.1064752 -0.073442034 0.010989844
0.024492553 0.04612485 0.122991 0.060903434 -0.071683 0.11564214 -0.055404138 0.07049219
-0.07007997 0.06918351 0.09245413 0.022764541 0.055930465 0.11246768 0.07598645 -0.057691373
-0.087130934 0.06507277 0.05789217 0.010650683 0.03498758 0.010366479 0.052510247 0.094603784
-0.025357753 0.065303385 0.020217877 0.04669677 -0.021286981 -0.0876118 -0.018478926 -0.077812314
-0.0043402174 0.014755672 -0.019309135 0.04208429 -0.046652135 0.053237773 -0.067701876 -0.08828552
0.06637576 0.0803974 -0.040421408 0.09196282 0.08674688 -0.014701739 -0.0046245726 0.028875846

GAT_layers.2.w.weight f4 [1, 128]
00000000: cf8a 033e fba8 293e 92c4 b83e 9d1f 843c
00000010: 07f3 123e 194e 0abe c966 433e 5fe5 c03b
00000020: 3fd1 ca3c 1516 3e3e 2202 5dbd 99ae 3e3e
00000030: 57cf 11bd 753c 6d3e d34a 00be 7f2c 5a3e
00000040: 6be7 ad3e ceb3 373e a65d 23bd 8080 94bd
00000050: 9ffe 2e3e 8a94 b83e 13b1 5bbe 98b2 773e
00000060: 8bf2 8b3e d34e 623e e74c 7b3e 7589 4ebe
00000070: 13e0 adbd 7222 c43c 7cb5 963e 39bd 9d3e
00000080: 9fb1 b83e bd83 4c3e 02c5 533e fa80 093e
00000090: 448f 883e aaf7 15be 589f ca3e 793c 033e
000000a0: 6f56 c7bd 5d6b 2e3e ccf6 283e e0c1 533e
000000b0: f79f a93e 9c8f d43e 1665 9a3e 57d8 e83d
000000c0: 4962 a03e 4421 4cbe 393b 45be 2cc9 8f3e
000000d0: 6cc2 573e 05a1 203e cc5b 1c3d 5e26 25be
000000e0: 2151 4b3e 7ba9 88bc 4ba3 263c 9f9f 24be
000000f0: 41f4 153d b07d 843e a6b6 f23c 3e0d a93e
00000100: 2d81 ef3c 1e61 6cbd d3b0 0ebe 6230 933a
00000110: c3a7 12be b042 2dbe ca47 c63d f4fa 22be
00000120: 9614 143e b7b1 00be 98a8 433e c3ae df3c
00000130: ca00 513c 0204 95bd ac8e 27be f070 513d
00000140: 9157 333e cc32 d83d f35d 223d 57dc 90bc
00000150: 7912 1abe 03b9 61bd 2aac a3bd 2dd9 35be
00000160: 054b ed3c 7b69 c1bd 1bba 56bd aca9 98bd
00000170: 9e64 05bd b093 7c3d ca89 fe3d ed0d e1bd
00000180: 137c 923d 83dc 9ebd 9c27 213e 1fc4 0b3e
00000190: ba9d e23d 7cb3 a33b e1e9 a23d 653b 413d
000001a0: 4d9d ebbd 409d bfbd be51 debd a966 edbc
000001b0: 9a90 e93d 526a 093e 2e8e 4f3e 1160 bebd
000001c0: cf7b 833d 43f6 28be 1391 0fbc dc76 383e
000001d0: a2e9 eebd 7e5c 87bb 70f0 403e c85b dabd
000001e0: 0f72 b0bd 18c6 c73d 26ec 563e 20f2 8f3b
000001f0: abfc 943d 085d 5dbe e156 ea3d 8e97 29bd
0.1284592 0.16568367 0.3608747 0.016128356 0.1435052 -0.13506354 0.19082178 0.005886718
0.02475798 0.18563111 -0.053957112 0.18621291 -0.035598125 0.23167594 -0.12528543 0.21306036
0.3396562 0.17939684 -0.039884232 -0.07251072 0.17089318 0.36050826 -0.21454267 0.24189222
0.27333483 0.22100382 0.24541055 -0.20169623 -0.084900044 0.023942206 0.29435337 0.30808428
0.36073014 0.19972129 0.20680621 0.13428107 0.26671803 -0.14645258 0.39574695 0.12816037
-0.09733283 0.17033143 0.16500396 0.20679426 0.33129856 0.41515815 0.30155247 0.113693886
0.31324986 -0.19934565 -0.19260873 0.2808317 0.2107026 0.15686424 0.03817348 -0.16127917
0.19855167 -0.016682377 0.010170768 -0.16076516 0.03660989 0.25877142 0.02962811 0.33017915
0.0292364 -0.057709806 -0.1393464 0.0011229629 -0.14321809 -0.1691997 0.096816614 -0.15916044
0.14460978 -0.12567793 0.19107282 0.027305013 0.012756536 -0.07276155 -0.16363019 0.051133096
0.17513873 0.10556564 0.03964038 -0.017683191 -0.1504611 -0.05510808 -0.07991822 -0.17758627
0.028966436 -0.09443947 -0.052423578 -0.07454237 -0.03256666 0.061664283 0.12428625 -0.10988984
0.071525715 -0.07756903 0.15737766 0.13649033 0.1106524 0.0049957614 0.07954765 0.047175784
-0.11504612 -0.09356165 -0.10855435 -0.028979616 0.11404534 0.13419464 0.20269081 -0.09295667
0.06420099 -0.16500191 -0.008762616 0.18014091 -0.11665656 -0.004130899 0.1884172 -0.10662037
-0.08615505 0.0975458 0.20988521 0.004392877 0.07274755 -0.2161752 0.11442352 -0.0414043

MLP_layers.0.weight f4 [32, 64]
00000000: 04c4 4a3d 1027 9c3c c810 963c 8833 a0bd
00000010: d854 d63d 6c3f 83bd 406e f63b c0a6 18bb
00000020: 9241 fc3d d027 533d 7cfc 4b3d 00e7 67bc
00000030: 9452 773d 2e03 c8bd b0b1 203c 5051 3c3d
00000040: 70b4 9e3d c0e5 6fbd 987b c4bc 20ec 8fbc
00000050: 68b4 e1bd 2866 e03c b0ad f53d 867f e9bd
00000060: 6081 e83c a09d de3c 66e6 f1bd 58f4 893d
00000070: c8b2 c6bd be4d 98bd a0ee 313c 46f6 fabd
00000080: d488 f43d 243b a9bd 241b c7bd 70b8 913c
00000090: 3a27 943d 2c20 763d 0812 803c 120a e7bd
000000a0: 0c93 b93d 788c 43bd 3690 b8bd 4a74 afbd
000000b0: b083 7f3c fe14 8c3d 0ab5 b7bd 0055 ce3a
000000c0: c4a6 cd3d d2ed fcbd dcbb 233d 6676 f23d
000000d0: 225a 9bbd 6078 72bc 7c41 d2bd 2811 523d
000000e0: 7085 3f3d 9e25 a0bd f89c abbc f4b7 943d
000000f0: a402 fdbd 4eea ea3d becb e4bd 1e17 e53d
00000100: 20db 8dbc 2819 8dbd c875 df3d 8475 3cbd
00000110: 2c9f 4ebd dce7 503d 0029 f7ba 5cc3 363d
00000120: 802a ff3a acb2 2ebd 9a9d d83d 30cd 753c
00000130: e055 f8bc a43b a73d 207c 14bc a091 dcbd
00000140: 609b 343d 46fe f9bd ae59 db3d d4d0 e03d
00000150: 806c cfbc 286b 25bd 88ab ebbc 5663 a3bd
00000160: 58bb d4bc b8d3 3e3d d616 983d b454 8cbd
00000170: 2074 0cbd dcaa 58bd 68a1 93bd 4467 1cbd
00000180: 66e0 9f3d 98f9 5cbd 9887 ccbd e886 8fbd
00000190: 741a 89bd 8406 9fbd 92cc cfbd 040b 5dbd
000001a0: 40b7 c03b 6448 f7bd a245 dc3d 02ae f6bd
000001b0: 50dc babc 66d3 d7bd b452 73bd c8ef b3bc
000001c0: 7869 563d c4b4 ea3d f8e6 ae3d 8816 86bd
000001d0: 0885 3cbd eaeb 913d d459 a43d ec36 623d
000001e0: 40db a23d 4044 213b f012 99bd 348d 9dbd
000001f0: 50d8 44bd d091 533c b0e7 69bc 7ae9 cebd
00000200: 4336 0d3e 83bc 92bd 656b c53b a681 c13d
00000210: 10dd 8ebc d6ab d33d a287 86bd bc9d 99bd
00000220: 3867 f53c 4809 81bc ebc0 383d 9c1a e6bd
00000230: 0d3f e3bd cea8 1e3e 04c4 503d b0e0 dc3b
00000240: 86c5 e63d 25de b5bc 8c7a abbd 78c5 203e
00000250: 18d1 d53c b368 8dbd 20cb 78bc 777a 213e
00000260: 3cc3 643d b8fa 173e f687 973d fb1a 48bd
00000270: 6670 5e3d 0cbf 843d dcdd 43bd 5494 b2bd
00000280: c135 043e ce21 243e 46b5 96bd a18b e1bc
00000290: 9738 433d 3019 f93d 5082 233e 758f 063e
000002a0: 0227 fabc ea3b 37bc f754 a03d dac8 4fbd
000002b0: 5cd2 7dbc 6310 813d c072 6fbc f8f2 ad3d
000002c0: bd26 9c3d d034 73bd 803c f23c 9c92 00bd
000002d0: 982a f4bd ec14 213e d143 86bd 7016 3bbc
000002e0: c780 243e cbc4 193a 3002 a9bc c22e 043d
000002f0: f1ad 113e b0ed 2f3d 7c0e e73b cddc bd3d
00000300: 285c 32bd 3ea1 42bd 76ef ecbd 5aa6 253e
00000310: 761a cd3d 0ccc d73d 3506 833c 59b8 a33d
00000320: 5015 b9bd c057 db3b 53c7 5a3d 0445 44bd
00000330: 300f e23c c1cb 333d 4886 96bd 2f58 19bd
00000340: feb1 263e 4eea cebc c1bc bb3b 6ad6 d43d
00000350: 20fe e3bc 54e4 043e feb4 e43d 371c 7c3d
00000360: bd23 18bd f4be e2bc d4fa 7e3d 0f44 cdbd
00000370: 7659 093e 0332 85bd cb99 a03d 62cf 8ebd
00000380: 8210 f73d 41bf 983d 3092 c13d 55bc d53d
00000390: a0e9 893d af20 fc3d c874 533d 827c 0abd
000003a0: 992a 0f3e 8ee3 0b3e db58 90bd 690a 1bbd
000003b0: 2540 b73c 42a6 c73d 74f0 303d 603f bf3c
000003c0: 81b9 e03d d8a0 cb3a 3825 cb3c 5f4a 013d
000003d0: d071 b03d 9839 de3d 561a 9cbd f0e1 953c
000003e0: 528a fb3d abb9 26bd 86d6 933d 77e1 54bd
000003f0: 9069 783d e27c 9a3d f444 eb3d a8cc 1e3d
0.04950334 0.019061595 0.018318549 -0.07822329 0.104654014 -0.06408581 0.007520467 -0.002329275
0.12317194 0.05155164 0.049801335 -0.014154196 0.060381487 -0.097662315 0.009807989 0.045975983
0.077492595 -0.058568716 -0.023984715 -0.017568648 -0.11020738 0.027392462 0.11996019 -0.11401276
0.028382003 0.02717477 -0.11811523 0.06736058 -0.097020686 -0.07436703 0.010860115 -0.12254004
0.119401604 -0.08263233 -0.097219735 0.017788142 0.072340444 0.060089275 0.015633598 -0.11281218
0.0906125 -0.047741383 -0.09011881 -0.08567102 0.015595362 0.068399414 -0.08970077 0.0015741885
0.10041574 -0.12350048 0.03997408 0.11838989 -0.07585551 -0.014799207 -0.102663964 0.051285893
0.046758115 -0.07819675 -0.020948872 0.07261649 -0.12354019 0.11470471 -0.11171673 0.1118605
-0.017316401 -0.06889564 0.10911137 -0.04601051 -0.050444767 0.05100237 -0.0018856823 0.044619903
0.0019467622 -0.042650864 0.10576935 0.015002534 -0.030314386 0.081656724 -0.009062797 -0.10769963
0.04409349 -0.12206702 0.107104644 0.10977331 -0.025320292 -0.040385395 -0.028768316 -0.07977931
-0.025968239 0.04658863 0.074262306 -0.06852093 -0.034290433 -0.05289732 -0.0720852 -0.03818442
0.078064725 -0.05394897 -0.099868 -0.07008153 -0.06694499 -0.07764915 -0.101464406 -0.053965583
0.00588122 -0.12074354 0.10755469 -0.12044908 -0.022810131 -0.10538368 -0.059405044 -0.021964923
0.052346677 0.114602596 0.085401475 -0.06547266 -0.046025306 0.07125075 0.08024946 0.05522816
0.07951975 0.002460733 -0.07474315 -0.07692948 -0.048057854 0.012913182 -0.01427643 -0.10103126
0.1379023 -0.07164862 0.0060247653 0.094485566 -0.017439395 0.103355095 -0.06568839 -0.075007886
0.029956445 -0.015751496 0.045105856 -0.11235544 -0.1109601 0.15494081 0.050968185 0.006740652
0.11268143 -0.022200653 -0.08372983 0.15700328 0.02610068 -0.069047354 -0.0151851475 0.15769373
0.055850253 0.14841735 0.07398979 -0.048853856 0.05430641 0.06481752 -0.047819003 -0.087196976
0.1291113 0.1602852 -0.07358794 -0.0275324 0.04766139 0.12163007 0.15967679 0.13140662
-0.030536178 -0.011183718 0.07828706 -0.050728656 -0.015492048 0.06301954 -0.014614761 0.08493608
0.07624576 -0.059376538 0.029569864 -0.031389818 -0.119221866 0.15730637 -0.06555904 -0.011418924
0.1606475 0.0005865811 -0.020630926 0.032271154 0.1422651 0.042951286 0.007051287 0.0927063
-0.04354492 -0.047517054 -0.11569111 0.1617674 0.10014813 0.10536966 0.01599417 0.07994146
-0.09037268 0.00669381 0.053412747 -0.04791738 0.027595133 0.043895487 -0.07349831 -0.037437614
0.16278836 -0.02525821 0.0057292883 0.10392459 -0.027831137 0.12977725 0.11167334 0.061550345
-0.037143458 -0.027678944 0.062250927 -0.10022747 0.13413033 -0.065036796 0.07841834 -0.06973149
0.120636955 0.07458354 0.09451711 0.10436312 0.067340136 0.123109214 0.051625043 -0.033810146
0.13981093 0.13661024 -0.07048198 -0.037851725 0.022369454 0.09748508 0.043198064 0.02334565
0.10972882 0.0015535606 0.02479802 0.031565066 0.08615458 0.10850829 -0.07622211 0.018296212
0.12282242 -0.04070441 0.072186515 -0.051972833 0.060647547 0.07543351 0.11487761 0.038769394

MLP_layers.0.bias f4 [32]
00000000: 14bd 243d fa17 a13d 8997 01bc 11dd a93d
00000010: bcf5 2f3e b315 e0bd d8e5 dd3d 347e 973d
00000020: 3e6d 3cbd 6389 933c 5fb9 823d 1089 41bb
00000030: eaa8 d63d eb79 1bbd 4882 aebd c828 b13b
00000040: 02e9 12bd 787e 1ebd 8bcf c1bd 30db fa3d
00000050: ffaa 273e fabf f33d a886 34bd b67c 613d
00000060: 503b 59bc 8005 f5ba 0048 34bd 68a3 c9bd
00000070: 0f01 d937 fb07 e83d c076 50bc d6fc 973d
0.04021938 0.07865901 -0.007909664 0.08294118 0.17183584 -0.10941639 0.10834855 0.07397118
-0.04600262 0.018009847 0.06383013 -0.0029531159 0.104814366 -0.037958067 -0.08520943 0.005406473
-0.035866745 -0.03869483 -0.09463414 0.12248838 0.16373824 0.11901851 -0.04407373 0.055050574
-0.01325877 -0.0018693656 -0.044013977 -0.098456204 2.5868909e-05 0.11329647 -0.012723625 0.074212715

MLP_layers.1.weight f4 [1, 32]
00000000: ccdc 80bd 8625 e73d 7b13 953d 2ca6 103e
00000010: 180a 313e 3780 74bd f936 8e3d bd24 f33d
00000020: fb34 24be 8230 983d b6ba 87bd bfd6 0d3e
00000030: 8abc 03be e0aa bf3c 2bcf 2f3d e9f2 c1bd
00000040: 8355 fb3d 044c b9bd 7951 04bd 5be3 d13d
00000050: 5676 613d 5bfa 10bd 5ce2 17be ec9b d1bd
00000060: 714d 9b3d 4295 883d 7f30 d4bd 5a28 aa3d
00000070: 11ab d83d cb9b 533e b2c2 c8bd d751 033e
-0.06292114 0.11286454 0.07279106 0.1412589 0.17289007 -0.059692588 0.06944079 0.11872242
-0.16035835 0.07431127 -0.06627409 0.1385145 -0.1286489 0.02339691 0.04292218 -0.094701596
0.122721694 -0.09047702 -0.03230426 0.10248443 0.055044495 -0.035395008 -0.14832443 -0.10234818
0.0758313 0.06669094 -0.103608124 0.08308478 0.10579503 0.20664899 -0.0980276 0.12824188
