SLIC_GAT/last1.pt (torch, 580781 bytes, 30 tensors)

GAT_layers.0.GAT_heads.0.f.weight f4 [32, 124]
00000000: a210 db3d a57a 36bd ff1c 203e 564a e8bc
00000010: 026e 1b3e 4ca6 29be 36ce 443d eb67 67bc
00000020: f9e7 0fbd b69a adbd 5201 363e a369 22be
00000030: 8a8d 123e 8b25 093e 97b9 07be 8aa7 8fbd
00000040: 61b0 86bd a843 afbd cf89 ca3d b105 f1bd
00000050: 738c e3bd 6767 903d 8262 473e b4f1 2bbd
00000060: 9b67 1b3e 998a 03be 14a3 72bd 8abc dfbd
00000070: 3022 3ebd d571 38be 1d76 053e 5fa6 3dbe
00000080: a19a 2fbe c541 343e 364c 4e3c 4cc9 0b3e
00000090: b0d5 793c 1730 9bbd 8793 e23d 38e3 27bd
000000a0: 1ba7 38be fddd 773d c760 e13b e712 7abd
000000b0: 5180 243e 528e 43be 32c3 d63b 3ce6 163e
000000c0: 9a82 3dbe f2b8 083e df28 a2bd 59ca f13d
000000d0: f303 1f3e 668a 5bbd 1dd0 993d c514 2e3e
000000e0: 64b5 d0bc b1f2 e4bd 23b2 e7bd def8 2cbe
000000f0: b938 12be 85b3 9c3d de4e 3abe 0c65 953c
00000100: cfde 233b 7c92 2a3d 6e1b ebbd a58f d9bd
00000110: 3c2a e6bd 6823 833d 3f78 b73a 9a81 1d3e
00000120: f363 11bd f07c d6bc 966d 32be 0f84 32bc
00000130: e46d bf3d adae b63d 65e3 8bbc 56ca 6abd
00000140: 2a62 bd3d 1f51 87bc ef1f 6a3c cf44 2fbe
00000150: ea27 853d 0d20 303e becd ba3a 4d93 05bc
00000160: a8d8 00be a16b 8b3d aace c4bd 6022 e83d
00000170: 0a31 b9bd bc03 313e a0cb 92bc 0754 173e
00000180: ff19 f53d 37ae 313e 9277 213e 970d c23c
00000190: f24e ed3c e561 f93d ef96 f2bd 7904 97bd
000001a0: e06c 4bbc 325f 88bd 8575 97bd c1fa 9e3c
000001b0: 0774 43be 24b0 17be f583 c9bc 0277 60bd
000001c0: d2f1 1cbd d253 203e 02cc 9ebd 3f8d 5c3d
000001d0: 3cae 48be 68c6 1ebe e5fd 1d3e 230f 26bd
000001e0: 7cdb f6bd f8ac 14be f736 fdbd 0b90 1fbe
000001f0: bb47 7c3d 449a c3bd cd42 54bd 9f8f 123e
00000200: 71b2 dfbd a365 8fbd 4183 54bd 6547 3d3e
00000210: 8d41 133d 0a05 0d3e 3760 393e 8c9d 55bd
00000220: a58e 9fbd 4dce 4bbe 1877 babd 0902 b63d
00000230: e811 6c3d 1be4 1ebe 2915 65be f47b 09be
00000240: 02a2 e1bd 649a d13d 1a4c b7bd 7648 00be
00000250: 20e6 163e e4cd 693d d419 563d e8c4 373e
00000260: c76d 66bd c6f9 5c3c aa12 f6bd 0121 813d
00000270: a128 02bc 263a 27be edd5 6dbd 0a62 37be
00000280: d1a2 a23d 1cb5 44be 260d 19be f0fa b83c
00000290: 2d33 183d 49ac eb3d 71f6 19bd d661 f0bd
000002a0: c277 a73d 00b3 863d 207a 94bd 06aa 98bc
000002b0: 76b5 043e c917 2a3e 8c91 17be ab8d 2cbe
000002c0: 6316 893c 6a4e c93d d530 fa3b 6f58 1fbe
000002d0: c8a8 cfbd a26e e53d b7ec 57bd 4482 bd3d
000002e0: 3f1d 0d3c 1809 37be 21b7 2cbe 14e0 babd
000002f0: bdc6 24be ce8a f9bd 5315 62be e280 343e
00000300: 1caa 1ebc 7de9 fcbd a37d 0c3e 3075 52be
00000310: d575 dc3d 7589 323d c071 ef3d 0f55 53be
00000320: 5dcb 6bbd d3b3 2dba b3eb 293d 8efe e93d
00000330: 331e 1bbe 8c43 9cbc 914e a4bd f883 9a3d
00000340: 5e13 423d 58dc 8e3d 4277 153e 6717 2fbe
00000350: 50d1 f6bb 252b c43c 3c92 62be da60 0a3d
00000360: 869c 39be 1ec4 66bd 3e5b a93d 8b48 5abc
00000370: 126b e3bd 7ba6 64bc f274 c0bd 49c0 39be
00000380: 580b 0abd 1ff6 193e 1ab4 efbc e9e9 38be
00000390: a367 13bd 40eb c73d 86fd c4bd fe48 e7bd
000003a0: 3186 2dbd 3c36 083c 93c4 f13c 84b4 53be
000003b0: d587 a8bd 6abf be3d 5239 333e 59db 573c
000003c0: 1504 39bd 78be c0bc 93c4 ec3c 0bcc 11be
000003d0: 234a fdbd 5f4c eabd 120a 15be 43de cd3d
000003e0: bdd1 f73a b988 efbd 4338 edbc 6e43 cd3d
000003f0: cf90 c43d 3a46 c83d b9a7 dd3c c5ee ce3d
0.10696532 -0.044550557 0.15636061 -0.028355759 0.15178683 -0.16567343 0.04804822 -0.014123897
-0.035133336 -0.084767744 0.17773941 -0.1586061 0.14311805 0.13393228 -0.1325439 -0.070143774
-0.0657661 -0.08557826 0.09889566 -0.11768664 -0.11110773 0.070509724 0.19471171 -0.041978553
0.15176241 -0.1284584 -0.059237555 -0.10924633 -0.046419322 -0.18012173 0.13033338 -0.18520497
-0.1714883 0.17603214 0.012591412 0.13651007 0.015248701 -0.07577532 0.11063295 -0.040988177
-0.18032496 0.06051444 0.006877992 -0.061053183 0.16064574 -0.1909726 0.006554031 0.14736265
-0.18506852 0.13351801 -0.07917952 0.11806173 0.1552885 -0.053598784 0.075103976 0.1700011
-0.025477119 -0.11179102 -0.11313274 -0.1689181 -0.1427945 0.07651428 -0.18194148 0.01823666
0.002500463 0.041643605 -0.11479841 -0.10623101 -0.11238524 0.064032376 0.0013997628 0.1538147
-0.03549571 -0.026182622 -0.17424616 -0.010895743 0.09347132 0.089200355 -0.017076204 -0.05732187
0.09247239 -0.016518174 0.01428984 -0.17116092 0.06501754 0.17199726 0.001425199 -0.008152795
-0.12582648 0.06807638 -0.096097305 0.113346815 -0.090425566 0.17286581 -0.017919362 0.14778148
0.11967849 0.17351614 0.15768269 0.02368812 0.028968308 0.12176875 -0.118451945 -0.073739
-0.012416095 -0.06658782 -0.07395462 0.019406678 -0.1908723 -0.14813286 -0.024599055 -0.054800995
-0.038316555 0.15656975 -0.07753755 0.05384564 -0.19597715 -0.15505373 0.15428884 -0.04054178
-0.12053582 -0.14519107 -0.12363999 -0.15582292 0.061591845 -0.09550908 -0.05182152 0.143126
-0.10922707 -0.070018075 -0.051882986 0.18484266 0.035951186 0.13771453 0.1810311 -0.0521522
-0.07790879 -0.19902916 -0.091047466 0.08887107 0.057634264 -0.15516703 -0.22371353 -0.1342619
-0.11017229 0.10234526 -0.08950062 -0.12527642 0.14736223 0.05708112 0.052270725 0.17946208
-0.056257036 0.013487285 -0.12015279 0.06305123 -0.007944257 -0.16330776 -0.058065344 -0.17908493
0.07941211 -0.19209713 -0.14946422 0.022580594 0.03715818 0.1150747 -0.03758854 -0.11737411
0.08177139 0.0657711 -0.07249856 -0.018635761 0.12959847 0.16610636 -0.14801615 -0.16850917
0.016734308 0.098294094 0.0076352158 -0.15561078 -0.10139614 0.11202742 -0.052715983 0.09253362
0.00861293 -0.17874563 -0.16866733 -0.09124771 -0.16091438 -0.12184678 -0.22078447 0.1762729
-0.009684112 -0.12349222 0.13719802 -0.20552516 0.10764662 0.04358812 0.11691618 -0.20637916
-0.05756699 -0.0006626222 0.041484546 0.114255056 -0.15148239 -0.019075178 -0.08022798 0.07544702
0.04738175 0.06975621 0.14596274 -0.17098771 -0.007532276 0.023946354 -0.22126096 0.03378377
-0.18126115 -0.056339376 0.08269356 -0.01332296 -0.111044064 -0.013955708 -0.093973055 -0.18139757
-0.033702224 0.15035294 -0.029260684 -0.1805798 -0.035987508 0.09761667 -0.09618668 -0.11293219
-0.042364303 0.008313712 0.02951268 -0.2067433 -0.08229033 0.09313853 0.17502335 0.013174855
-0.04516991 -0.023528323 0.028902328 -0.14237992 -0.12367656 -0.11440348 -0.14554623 0.10052159
0.0018907111 -0.11696 -0.028957492 0.10022627 0.095979325 0.0977902 0.027057515 0.101041354

GAT_layers.0.GAT_heads.0.f.bias f4 [32]
00000000: 60b6 5dbc 07db fdbb a8c7 873d ea01 13bd
00000010: 89f0 fbbd 0148 ccbd 513f 14be 1333 9d3d
00000020: 91c9 c9bd cd09 3fbd 3def 8b3d d330 06bd
00000030: 318e 14bc 58e5 b83d 6e4b ee3c 9592 3fbd
00000040: 6849 3a3d 5ca8 ebbd 6f7b 963d 6acc 943c
00000050: d365 7ebc 1803 fe3c 1250 f1bc 4176 253d
00000060: b35b 2aba 6c4f 5d3d 1103 553d cfb8 31bc
00000070: 5704 04bd 0ce0 7a3d d640 023e 2646 eabd
-0.013532251 -0.0077470574 0.06629878 -0.035890497 -0.12301738 -0.09974671 -0.14477278 0.07675757
-0.09852899 -0.046640206 0.068327405 -0.032761406 -0.009067104 0.09028119 0.029088702 -0.04677065
0.045480162 -0.115067214 0.07347762 0.018163878 -0.0155272065 0.031007335 -0.029457126 0.04039598
-0.00064986496 0.05403082 0.052004877 -0.010847284 -0.0322307 0.061248824 0.12720045 -0.11439161

GAT_layers.0.GAT_heads.0.w.weight f4 [1, 124]
00000000: a0e2 6f3d 6f86 193e 8db7 413e b95f 5fbc
00000010: b859 993d 5af5 363d df54 ecbd c72d b63d
00000020: 9229 3cbe e541 b7bd f001 2bbe 004d 453e
00000030: 1894 b9b9 2e81 aa3b b513 c73c 6ad5 bf3d
00000040: 2bfc 5b3c 0891 c7bd fcf4 1ebe 8314 b6bd
00000050: d650 a33d 6ce3 a63d 4cdc 8f3c d71a 833d
00000060: 082b 5e3e c0c2 0fbc ab63 c03d c0cd 05be
00000070: 45b1 cf3b b748 313e a2b7 59bc e6c2 0f3e
00000080: 3f84 68be aebb 553e 183e 05be 79a6 083e
00000090: e9d3 bc3c f38d 80bd ab60 d7bd 6a6e b9bd
000000a0: 9603 90bd 469f 32bc 83b8 12bd 8ede 4d3e
000000b0: c57c d0bd ded9 54be 876c e93c a737 5bbc
000000c0: fee7 f0bd 2c79 56be a228 3fbe b26c 8fbd
000000d0: fb0e f23c 5c60 6dbd 8499 213d 475c 3d3e
000000e0: c5bb 7abd 2978 e43d 28ef 7b3e 9aa3 c13c
000000f0: 82d7 383e c95b 70bd c626 d83d eb01 ff3d
00000100: a0f5 29be 6e3a 303e 6cc0 efbd 2021 1bbe
00000110: f0ee 2f3d 5ef5 193e fe72 37bd 4f22 a8bc
00000120: d458 dabd 17ec f4bd f71d 7cbd 5077 b53d
00000130: 3a59 c63b 2b71 e2bd a7e5 23be 26c0 3d3e
00000140: 4d81 183d b1a0 5bbe 3c1d 68be a712 753c
00000150: f170 993c 96e5 143e 7911 06bd 80d1 203e
00000160: ecc1 24bd bf73 0c3e 26a9 913c 6b99 5fbd
00000170: 7123 093e 8940 33be 4226 143e 0eee e2bd
00000180: ef6a 17be bd85 82bd aa2e 22be 7e10 c8bc
00000190: c75e 39be c934 1c3c 853a cd3d 2e93 24be
000001a0: b3f3 40be 4e16 833d 239b a33d d3e7 8bbd
000001b0: 228c bc3d b941 e4bd fe39 11bd 555a 08be
000001c0: fdc0 073e 9ed6 51be 33e3 1cbe fe98 183e
000001d0: ec47 95bd 4c54 f2bc 37fb 2f3d eacd aebd
000001e0: 7ca6 ce3d 9d0a 80be 6a39 32be 6f8e adbb
0.058565736 0.14992689 0.18917675 -0.013633662 0.074878156 0.04466758 -0.115396254 0.0889545
-0.18375233 -0.08948115 -0.16699958 0.19267654 -0.00035396288 0.0052033877 0.02430139 0.093668774
0.013426821 -0.097444594 -0.15523142 -0.08890631 0.079744026 0.08148846 0.0175611 0.06401604
0.21696103 -0.008774459 0.0939401 -0.13066769 0.006338271 0.17312895 -0.01328841 0.14039192
-0.22706698 0.20872375 -0.13011968 0.13344754 0.023050265 -0.06277075 -0.10516485 -0.09054263
-0.07031934 -0.010902232 -0.035820495 0.20104429 -0.10180048 -0.20786235 0.028494133 -0.013379968
-0.11762999 -0.20944661 -0.18667844 -0.07003154 0.029548159 -0.057953224 0.039453045 0.18492232
-0.061214227 0.11155731 0.2460295 0.023637582 0.1805096 -0.058681283 0.105542704 0.12451538
-0.16597605 0.17209789 -0.117066234 -0.15149355 0.042952478 0.15035006 -0.0447874 -0.020524172
-0.10661474 -0.11959093 -0.061552014 0.08860648 0.006053117 -0.11056741 -0.16005574 0.1853033
0.037232686 -0.21448018 -0.22667402 0.01495806 0.018730612 0.14540705 -0.032731507 0.15704918
-0.040224 0.13716029 0.017780852 -0.05458967 0.13392426 -0.17505087 0.14467719 -0.110805616
-0.14786886 -0.06373165 -0.15838113 -0.024421927 -0.18102561 0.009534069 0.10020927 -0.1607177
-0.18842964 0.06400739 0.07988574 -0.06831326 0.09206416 -0.11145348 -0.035455696 -0.13315709
0.13257213 -0.20492026 -0.15321045 0.14902112 -0.07289109 -0.029581212 0.042964187 -0.08535369
0.10090348 -0.25008097 -0.17404714 -0.0052965204

GAT_layers.0.GAT_heads.1.f.weight f4 [32, 124]
00000000: 7286 033d 6d22 03be 2067 2fbe a3a5 17be
00000010: 8d05 213c 26a1 9abd 7cd0 44be 3a2b 92bd
00000020: e2c7 483d 8ee6 023e 2aa4 ff3d 3dd8 3bbd
00000030: b2ff 1fbe 2e4e 22be 73f5 a8bd 9ecc 323e
00000040: 4742 f83c bc93 2a3e 5bd7 2dbe 490a 8eba
00000050: efb2 413e dd56 12bd 2dd5 70bd 2bd6 3a3e
00000060: c4f8 18bd bcce 403e cc76 e93d 8e01 f7bd
00000070: 692e 1e3e 9b02 0dbc 9be9 ce3d 8f07 b83c
00000080: 8aea 423e 6cee 253e c4e6 aa3b 867c 1e3e
00000090: d2f6 44be 99b4 103e 0338 363d 7d27 073e
000000a0: c1c2 fa3d 0500 19bd adf5 d9bd db25 4b3d
000000b0: baf2 303e 304f d7bd 8169 613d 27ee babc
000000c0: 7d67 b23d 491c 0fbe c1eb 84bd a585 1f3e
000000d0: 0d69 103e 8799 f43c 85a6 22be e969 183e
000000e0: f240 7bbd 3811 3cbe a20e 973d 7fc7 863c
000000f0: d48c dcbd f2d4 31be b16b 08be adcf 273e
00000100: c999 223e b699 353e db49 1abe 20d8 e8bb
00000110: 6750 0f3d 3a18 8dbd 2ee4 b43d cbb1 5b3d
00000120: 7259 30bd c72c a63d dfc5 41be 46c8 25be
00000130: c773 8dbd e8ed 1dbe 552e 143e 00b8 dc3d
00000140: 2083 3c3e 22b7 1cbe d376 71bd 47b0 323e
00000150: 1987 f7bd 7175 74bc 832d d1bd 0626 87bc
00000160: ef42 2abd 8afa 153c 477c 433e 5f8d c23d
00000170: 9d80 33be 348b f53d df2f 323e 1ae0 06be
00000180: 1b0d a6bd da72 823d 1fa6 463e e117 41be
00000190: 32ae 1b3e 2147 ff3d faf9 82bb cfe7 c5bd
000001a0: bedd e63d e2d5 573d a4a7 cebd f7b6 ffbd
000001b0: 75d6 963d afcd f23d a505 04be 62d6 a9bd
000001c0: 1389 95bd 3d80 87bc 7c5d 41be 82ef ec3d
000001d0: c112 10be 5dfc 97bd d19f 7bbc b00c 213e
000001e0: c1e1 f53d d73f 15be 183e ad3b 001c a4bb
000001f0: 9f60 c93c 471e 013d a4f0 d53d bc64 2dbe
00000200: a2d1 243e de96 8dbc 8330 05be a6d0 03be
00000210: 41ff 1c3e c40f d4bb ccd1 2bbd 1d5c 77bd
00000220: 8f1b 213e 1f65 053b fa8e 52bd 4367 7fbd
00000230: 7126 013e 298f c8bd d0ed 1bbc 6fb6 13bd
00000240: 20db 043d abe2 9dbd f483 56bb 3020 143e
00000250: aa7b 96bd 1f7f e03d 0d93 febd 8e8d ca3c
00000260: c58d 35be 6fe8 b03d 60bd cb3c cf8e 0ebe
00000270: a637 833d 6fe3 36bd 55e9 86bd 1087 893d
00000280: b4ab 2b3e 4dfd 183e 086f 803d cc50 0bbc
00000290: 6956 113e 8b4f 053c 5fc5 9dbd f649 15be
000002a0: 97ff 243e 3c42 19bd 8800 3c3e bee7 b1bd
000002b0: 006b fbbc 5ed0 2dbe 0d69 203e e3c8 613d
000002c0: 3075 1a3e 86bf 853d 7fc7 eebd 6f37 d8bc
000002d0: 5fd9 f1bd 593f 52bc 55e8 643d b94e 86bd
000002e0: d35b 21bd b607 18bd a4ca 3fbd 5aaa 1dbe
000002f0: de41 0c3e 612e 8b3d 2939 33ba a055 ac3d
00000300: befa 0f3e 3503 febc ca98 c73b 140f 333d
00000310: 2db4 1cbe 583c be3b b229 47bd 3433 9dbd
00000320: 9e6c 43be f84c 8bbd 46a2 2abe 3866 c63d
00000330: c2a3 353d 1dba ce3b 21c0 1fbd 8880 cd3d
00000340: 2932 b4bd 042f 64bd 1412 41be def1 40bd
00000350: 535d b5bc 402d 183d eb7b 853d 94bf a33d
00000360: 06c5 0cbe c342 efbd a135 f03c 73aa 3abd
00000370: e323 aebd 0881 b93d 21d2 b73d f129 413e
00000380: 986e b13d 33b0 21bd 0bad 30be 9b60 1fbe
00000390: 556c 113b ba32 fb3d 7a37 b73d 64ff 7a3d
000003a0: 7742 c9bd 9922 a5bb 21bf 313d d438 54be
000003b0: 9a4a 01be 3fee 05be 8db3 8dbd 5804 dc3d
000003c0: 5c59 eabd 89de 3ebe fe0d eabd 8ace a8bc
000003d0: d7fa a0bd 7172 67bd b2b6 053e 6f89 143e
000003e0: 6402 4e3d fcd8 473e 0e5a 4abe eb7c 31be
000003f0: 76ab 47be d22c 183e 91ca c4bd 2e52 4dbd
0.03211064 -0.12806101 -0.17129183 -0.14809279 0.009827984 -0.07550268 -0.19220155 -0.07137151
0.049018748 0.12783262 0.12482484 -0.045860518 -0.15624884 -0.15850136 -0.08249941 0.17460868
0.030305041 0.16657919 -0.16976683 -0.0010836805 0.18915914 -0.03572737 -0.05879705 0.18245761
-0.037346616 0.18828863 0.11399612 -0.120608434 0.15447392 -0.008606578 0.101031505 0.022464542
0.19034782 0.16204232 0.0052154977 0.1547719 -0.1923478 0.14131393 0.04448701 0.13198657
0.122441776 -0.037353534 -0.10642562 0.04959665 0.17280093 -0.10513151 0.055032257 -0.022818638
0.08711145 -0.13975634 -0.06490279 0.15578325 0.14102574 0.029858364 -0.15883835 0.14884152
-0.061341234 -0.18365943 0.07375838 0.016452549 -0.10769048 -0.17366388 -0.13322331 0.16387816
0.15878977 0.17734417 -0.15067236 -0.007105842 0.034988787 -0.068893865 0.08832584 0.053636353
-0.04305405 0.08114009 -0.18923138 -0.1618968 -0.069068484 -0.15422785 0.144708 0.10777283
0.18409395 -0.15304235 -0.05895121 0.17450057 -0.12086315 -0.014920578 -0.10213759 -0.016497623
-0.04156774 0.009153971 0.19090377 0.09499621 -0.17529531 0.119894415 0.17401074 -0.13171425
-0.081079684 0.063695624 0.19399308 -0.18856765 0.15203169 0.12464739 -0.0039970847 -0.096633546
0.11272763 0.05269421 -0.10090569 -0.1248607 0.07365123 0.11855637 -0.12892778 -0.082928434
-0.073015355 -0.016540641 -0.18883318 0.1156912 -0.14069654 -0.07421181 -0.015357927 0.15727496
0.1200595 -0.14575134 0.005286943 -0.0050082207 0.024582205 0.031523015 0.10446289 -0.16932958
0.16095594 -0.017283853 -0.13006787 -0.12872562 0.15331747 -0.006471606 -0.041948125 -0.06039058
0.15733169 0.0020354462 -0.051405884 -0.062354337 0.1261232 -0.09792931 -0.009517148 -0.036062654
0.032435536 -0.07709249 -0.0032732459 0.14465404 -0.07347806 0.109617464 -0.124303915 0.024725702
-0.17729862 0.08638083 0.024870574 -0.13921665 0.064070985 -0.04465049 -0.06587473 0.06715214
0.16764718 0.14940377 0.062711775 -0.00850315 0.14193119 0.00813664 -0.07703661 -0.14578995
0.16113125 -0.03741668 0.18359578 -0.086867794 -0.03069067 -0.16974017 0.15665074 0.05512322
0.15083766 0.06530671 -0.116591446 -0.02639362 -0.11809038 -0.012832486 0.05588563 -0.06557984
-0.03939421 -0.03711673 -0.046824113 -0.15397015 0.13697001 0.067959554 -0.00068368256 0.08414769
0.14060494 -0.031007389 0.006091212 0.04371555 -0.15303107 0.0058055334 -0.048623748 -0.07675782
-0.19084403 -0.0680179 -0.16663465 0.096874654 0.044345625 0.0063088075 -0.039001588 0.10034281
-0.0879863 -0.0557089 -0.18854553 -0.047105663 -0.022139227 0.03715253 0.06517776 0.07995525
-0.13747033 -0.11682656 0.029322447 -0.04557271 -0.085029386 0.09057814 0.08975626 0.18863656
0.08663672 -0.039474677 -0.1725351 -0.15564196 0.0022189815 0.12265535 0.08946128 0.061278716
-0.0982713 -0.0050395248 0.043395165 -0.20724803 -0.12626114 -0.13079165 -0.06919012 0.10743016
-0.11442825 -0.18639578 -0.1142845 -0.020606298 -0.07860344 -0.056505624 0.13057974 0.14505552
0.05029525 0.19516367 -0.19760916 -0.17332809 -0.19499001 0.14860848 -0.09608949 -0.0501272

GAT_layers.0.GAT_heads.1.f.bias f4 [32]
00000000: 398c 643a 0113 b7bd 9699 9cbd d60a 6c3d
00000010: abb2 1c3c 7a38 6a3c b6f9 89bc 9476 8cbd
00000020: 4904 d73d e1b1 3cbc c411 e63c 96cb 8a3d
00000030: bf3e c6bd 7b66 4bbd c879 223d 8311 80bc
00000040: 8314 d8bd 0579 b3bb fb65 04bd 2403 26bd
00000050: 7770 b2bd 5d07 bb3b 9613 90bd de82 9bbd
00000060: 57ae d93c 2eab 313d 4bd4 803c de6b 553d
00000070: 4ea8 bc3d 443c 443d fab3 3ebd fa1c 8a3d
0.00087184046 -0.089391716 -0.07646482 0.05762752 0.009564082 0.014295692 -0.016842704 -0.068585545
0.10498864 -0.011517019 0.028084643 0.06777112 -0.096799366 -0.04965828 0.03966692 -0.01563335
-0.10550787 -0.005477073 -0.03232382 -0.04053034 -0.08712857 0.005707665 -0.07034986 -0.0759332
0.02657239 0.04337614 0.01572623 0.052104823 0.09211789 0.047909036 -0.046558358 0.06743808

GAT_layers.0.GAT_heads.1.w.weight f4 [1, 124]
00000000: 1cae 4ebd 4cff 80be 29ce 553e a17b 30bc
00000010: 5f5b 6ebe 6a45 1dbd 4caa 93ba ef3d 51be
00000020: c53f 46be 74eb 13be 5cf7 bebc 7671 72bd
00000030: 60e2 753e b5f1 923d 4a99 fe3a 5957 fe3c
00000040: 4494 bc3d ac9c 0f3e 8f28 27be 92ff 8abc
00000050: 3b11 38bd 2ab9 3a3e 8d2b 20be 41ef 36be
00000060: 9e01 27be 2afc 1fbe 9582 c83d 4235 593d
00000070: 0e30 afbd 0f3b 933d b0c5 8f38 0cf5 c4bb
00000080: 4174 3abe d65d 23be a99b 1dbe b45f 393d
00000090: 38e4 03be 5af7 2fbe 604a 6dbc 66cc 373e
000000a0: c907 fc3d 3ff7 413e 701d cb3c 77f7 bb3d
000000b0: 7d08 463d 07fe 583e 7f88 5abe 8a14 f8bd
000000c0: 08c1 37be 8cc8 e5bc 2816 5cbe ed2d 3b3e
000000d0: aa6a 653e b3c1 2cbe 1a4f e3bd 58f0 543d
000000e0: 771e 03be f912 8c3d 0974 03be f03d a9bd
000000f0: 45fb bb3d 021e fbbd 0024 8ebd 94d6 263e
00000100: 0ed1 413e 565f 6ebd 2ed1 6ebe efa0 033d
00000110: 374e 133b 163c 33be b7f4 68be 1ae3 a9bb
00000120: 063e bc3c 884b 40bd 6d61 e83d 1443 06be
00000130: 1f6f 58bd bced e2bd 1f84 9cbd 95bb d03d
00000140: c413 36be 6cce bdbc 6478 303c 45ea 863d
00000150: 5033 633c ccaf fa3d 9798 c43d 3263 3dbe
00000160: e942 343e 1c95 77bd 7779 0b3e e34f 43be
00000170: 1fbf bc3d 5779 3a3d 325a 29be 3252 e83d
00000180: 4798 81bd 0f0a 153e 8018 51be 3a61 bebb
00000190: 454e e2bd aad0 83bd 2e7f 06bd a90d 283d
000001a0: ef55 5a3d 2c93 5a3d e6cc b23d b196 3fbc
000001b0: a313 9fbd ffdf af3c 351c 37be f4e9 413e
000001c0: dcb5 623d bf83 2d3e 6c57 4fbe 63ae 82bd
000001d0: cf89 be3d 8e97 2fbe 7ced 20bd 4926 95bd
000001e0: 5351 4abc 7928 f43b bf22 5a3d f5c5 60be
-0.050459012 -0.25194776 0.20879425 -0.010771663 -0.23277043 -0.038396277 -0.0011265962 -0.20433782
-0.19360264 -0.14445287 -0.02331131 -0.059190236 0.24012136 0.07175008 0.0019424346 0.03104751
0.09207967 0.1402461 -0.16324066 -0.016967569 -0.044938307 0.18234697 -0.15641613 -0.17864706
-0.1630921 -0.15623537 0.097905315 0.053029306 -0.085540876 0.07188999 6.8555935e-05 -0.006010657
-0.1820841 -0.15953764 -0.15391411 0.045257285 -0.12880027 -0.17184201 -0.014483064 0.17949066
0.123061724 0.18941973 0.02479431 0.091780595 0.04834794 0.21190654 -0.21341132 -0.121132925
-0.1794473 -0.02804973 -0.21492827 0.18279238 0.2240397 -0.16870765 -0.11099072 0.051987022
-0.1280459 0.06839556 -0.12837233 -0.08263767 0.09178785 -0.12261583 -0.0694046 0.16292793
0.18927404 -0.05819639 -0.23321983 0.0321359 0.002247704 -0.1750339 -0.22749601 -0.0051845433
0.022978794 -0.046947032 0.113467075 -0.13111526 -0.05284035 -0.110805005 -0.076423876 0.101920284
-0.17780977 -0.023169719 0.010770891 0.06587652 0.013867214 0.12240562 0.09599417 -0.18494871
0.17603649 -0.060444936 0.13620554 -0.19073443 0.09216141 0.045525875 -0.16538313 0.113438025
-0.06327873 0.14554618 -0.20419502 -0.00580993 -0.11050085 -0.06436284 -0.03283613 0.041028652
0.05330461 0.05336301 0.087304875 -0.0116936425 -0.07767417 0.021469114 -0.17881854 0.18936902
0.055349216 0.16944788 -0.20248193 -0.06380918 0.09303629 -0.17147657 -0.039288983 -0.07282693
-0.012348491 0.007451114 0.053255793 -0.21950515

GAT_layers.1.GAT_heads.0.f.weight f4 [64, 128]
00000000: 5ae8 a4bc da32 d7bd c6da 7a3d ee09 02be
00000010: a730 48bd a200 0f3e f50d 3ebe 2793 4f3d
00000020: e258 80bd a57d 1b3e 6801 12be 9053 38be
00000030: 09f1 003e 14a4 763d 1ee8 49bd 5ec7 17be
00000040: 37bc 793d c95f 33be f126 e0bd 5dfc ffbd
00000050: db5e bfbd 6403 263e 6253 5a3c 2104 12be
00000060: 872e 98bd c675 7ebd 1885 d2bd 657d 86bd
00000070: 7be1 a8bd 37ed 563d fe1b 80bd 4b93 cd3d
00000080: 3a19 1a3e 8e7b 08bd a2ee cebd 3752 cbbd
00000090: 3a2a cbbd e753 b73c 6694 00bd 4575 12bd
000000a0: 2532 063e d7be 0c3e 1384 eebd e213 323e
000000b0: 96d0 283e 9eee 043e 57a4 9fbc 5b4a cabd
000000c0: e7aa 3d3e 6b1e 18bd 0017 bd3d b08c 84bd
000000d0: 6da8 d83d 8297 f23d 3f21 503d 24d7 183e
000000e0: ffcd 343d 14d3 1a3e 51b3 e63b 6eb1 3fbd
000000f0: 5f71 ff3d 579d 1c3c afb7 823d ddff 74bd
00000100: 1c8b 043e 9a38 09be 065d b13d 4a8c bc3c
00000110: 8c52 91bd 0f50 45be 0775 1bbe 0ffa 0d3c
00000120: 2c98 e4bd 75f9 273c c3d3 08be eee8 cf3d
00000130: 729b a7bd c516 a0bd a337 0b3d 32e9 343d
00000140: acb2 ffbd beab d0bd 1402 02bd 22b6 a63c
00000150: 6398 963d d73b d0bd 670b cbbd 6095 1abc
00000160: d1f4 083e bc9c fdbd 5c31 ba3d 1930 ba3d
00000170: 24b2 e4bc e4c1 22be e16b 0b3e 2690 883d
00000180: cb1c ddbd 61fa bbbc 577f 333d f8c5 7e3c
00000190: 331e 9f3d 180a d13d 5970 cbbd 46f4 303e
000001a0: 5636 ab3d 2f76 ee3d 2cd0 e03c d5fe 2dbe
000001b0: 2453 01bd d3c0 00be eeb2 243e f9f5 a23c
000001c0: c835 97bd a9aa 943a 3369 0d3e e64b 473d
000001d0: f7b0 3b3c 8b68 173d cc60 8c3d be43 5cbd
000001e0: 184e 0c3b 9269 ce3d 005a 1d3e 3e1a b93d
000001f0: f3b0 c1bc 941b bcbd fa83 a83d fcd7 cdbc
00000200: 63a6 2d3d ca65 b1bd 453e 87bd e8da 3fbe
00000210: 24f8 e23d 2818 e1bd 6d8b b6bb f2d6 a6bc
00000220: 35d7 91bd caf8 053e 6a66 0ebe cc88 b1bd
00000230: 4ab6 57bd c6d3 0f3e d7a8 233e 9288 e6bc
00000240: f9ab eabd 7366 b13d 57fc ce3d 43ab 31bd
00000250: bfd4 33be d695 22bd f4a1 c1bd cd5c c13d
00000260: 0f50 403d 3577 febd bcc5 313e ee47 a9bd
00000270: d22e d33d e285 e83d 2776 c0bd 6ea3 fd3d
00000280: 9a53 ba3d 7a72 b03d 236e 0c3e b1ae cd3c
00000290: 4341 11be 9d6b 373d c9bc 07be 35ff 6f3b
000002a0: 9c13 a0bd c4e5 4ebd 0110 c93d fce2 6ebc
000002b0: b83b c03c b9e2 003e 2304 56bc 7123 1b3e
000002c0: 72d8 d5bd 63ce 933d 88ac c03d e9ce 21be
000002d0: f1d0 e9bd 791d 9fbd be8f a33c cc5b efbd
000002e0: 2f08 afbc d89a 7fbd 8b5e da3d a8bc 053e
000002f0: 2307 f33d 1756 32be 397a da3d ea2d ec3c
00000300: f028 5cbd c53d 4a3d d268 2f3d 8611 28bd
00000310: 1797 f63d 42cd 233e 9b4d 3d3d 3c9c b43d
00000320: 73e8 f03d 4277 103e 9bbc 833c 7e91 9bbd
00000330: 11ba 0abd b990 c4bd 5630 ae3d 6d5b 073d
00000340: 8378 3d3e 9e56 253e 8dc4 7dbc 2997 31be
00000350: a523 223e d54c a2bd 3d8c e43d adf6 cb3d
00000360: 9e84 183e acfa 253e 278f ba3d 0370 3abd
00000370: b1c7 08be 251a ef3d e0dc 063e ce30 1bbe
00000380: b753 0a3e 6495 303d f3b2 3ebd 4267 253d
00000390: 1787 17bd ecdc 063e d03a 1dbe c82b fcba
000003a0: d080 9fbd 42b2 97bc c9e3 2b3e 3a14 bcbd
000003b0: 6956 4ebc 8a41 bdbd 7258 aabd cf71 ffbc
000003c0: 2dff ac3c a5e6 0ebe f6c1 393d cb0d 713d
000003d0: 82d9 e43d 8107 01be 4f19 343d d863 eabc
000003e0: 40fa 5a3c d665 253e 9154 0c3e 6058 85bd
000003f0: a3fd 20bd efa9 e93d 3130 e83d f705 1c3e
-0.020130325 -0.10507746 0.061243795 -0.126991 -0.048874523 0.13965085 -0.18560012 0.050677445
-0.06266953 0.15184648 -0.14258349 -0.18000627 0.12591948 0.06021507 -0.04929363 -0.14822146
0.06097051 -0.17517008 -0.109449275 -0.12499306 -0.09344264 0.16212231 0.013325544 -0.14259388
-0.074307494 -0.062124036 -0.10279292 -0.06566886 -0.08246132 0.05247232 -0.06255339 0.100378595
0.15048686 -0.033320956 -0.10104109 -0.099277906 -0.099201635 0.022378875 -0.031391524 -0.03575637
0.13105066 0.13744675 -0.11646285 0.17390397 0.16485819 0.1298165 -0.019487543 -0.098774634
0.18522225 -0.037138384 0.092329025 -0.064721465 0.10579 0.11845304 0.050812956 0.1492582
0.044141766 0.15119582 0.007040419 -0.04680007 0.12472796 0.009558997 0.06382691 -0.059814323
0.12943691 -0.13400498 0.08660321 0.023016114 -0.07095823 -0.19268821 -0.15181361 0.008665576
-0.11161837 0.010252346 -0.1336203 0.1015185 -0.08183946 -0.07816843 0.033988606 0.044167705
-0.12485251 -0.10189007 -0.031740263 0.02035052 0.07353284 -0.101676635 -0.09914284 -0.009435028
0.1337464 -0.1238341 0.09091446 0.09091205 -0.027916975 -0.15894276 0.13615371 0.06668119
-0.107965074 -0.022946538 0.043822613 0.015550129 0.07769432 0.10207003 -0.09933538 0.17280683
0.08359973 0.116436355 0.027443014 -0.16991742 -0.03157343 -0.12573557 0.16083881 0.01989268
-0.07383305 0.0011342365 0.13809662 0.048656367 0.011455766 0.036964934 0.068544 -0.05377554
0.0021408852 0.1007873 0.15366364 0.090382084 -0.023643946 -0.091849476 0.082282975 -0.025127403
0.042395007 -0.08661993 -0.06603674 -0.1873585 0.11082485 -0.109909356 -0.00557082 -0.020366166
-0.071211256 0.13083187 -0.13906255 -0.0866867 -0.05266408 0.14045629 0.15982376 -0.028141294
-0.114585824 0.08662119 0.10106724 -0.04337622 -0.17561625 -0.039693676 -0.09454718 0.094415285
0.04695135 -0.12425081 0.17360586 -0.082656726 0.10311665 0.11353661 -0.09397536 0.12384687
0.09097977 0.08615585 0.13713889 0.025107713 -0.14185052 0.044780362 -0.1325561 0.003662062
-0.0781624 -0.05051209 0.09817506 -0.0145804845 0.023465976 0.12586488 -0.01306251 0.15150239
-0.10441674 0.072170995 0.09407908 -0.15801586 -0.114168055 -0.07769293 0.019966003 -0.11687431
-0.021366207 -0.06240353 0.10662564 0.13060248 0.118665956 -0.17415653 0.10667843 0.028830487
-0.05374998 0.049375314 0.042824574 -0.041032337 0.12040537 0.15996268 0.04621659 0.08818862
0.11763086 0.14107993 0.016081145 -0.0759611 -0.033868853 -0.09597916 0.08505313 0.033046175
0.18503003 0.16146323 -0.015488756 -0.1734282 0.1583391 -0.07924811 0.11159561 0.09959159
0.1489434 0.16208905 0.091093354 -0.04551698 -0.13357426 0.116749085 0.13170195 -0.15155336
0.13508497 0.04311122 -0.046557378 0.040381677 -0.036994066 0.13170213 -0.15354466 -0.0019239122
-0.07788241 -0.018517617 0.16786112 -0.091835454 -0.012593844 -0.09241016 -0.08317651 -0.031182198
0.021117771 -0.13955171 0.04535099 0.058851045 0.11174299 -0.12600519 0.04396945 -0.028612062
0.013365328 0.16152129 0.13704135 -0.06510997 -0.039304387 0.114093654 0.11337317 0.1523665

GAT_layers.1.GAT_heads.0.f.bias f4 [64]
00000000: b674 533d 914c 2fbd 1715 773d 542d b7bd
00000010: 15d4 e2bd 1b91 0dbd 21ff c33c 89e0 e1bc
00000020: f22a 30bd 46f1 513d 142f 303d 323e 6d3c
00000030: a36a c9bc d452 97bd 8560 e23c b39e f63c
00000040: d206 fabb 1f5f 2abd f7cd c13d a602 853d
00000050: 33a5 783d ea3c b2bb 53df bd3c 5dc7 8cbd
00000060: 387d 6bbd 398b 853d 7c36 0b3d cd82 3e3d
00000070: 48a9 efbd 3933 69bd efd4 063d bf46 233c
00000080: 9998 94bb a619 11bd ce37 5bbd decd ab3c
00000090: 209d 0b3d c4aa a63c 3d67 ad3d 189f e13c
000000a0: 8c07 283d f8e9 833d b01d ca3c dc35 ad3d
000000b0: b758 28bd 3350 9f3d 569f 7f3d 7e3b 6abd
000000c0: 3bca 1f3d bf4e bc3c 488b e2bd 88ca 1c3d
000000d0: 29ae fdba 59c5 a03d f523 cd3c 4b81 03bd
000000e0: 9f27 5e3d 0dbc 56bd cedf 923d de50 1f3d
000000f0: 725b 99bd 6748 7d3c 70d5 493d e334 923d
0.051624976 -0.04279763 0.060322847 -0.089441925 -0.11075608 -0.03456221 0.023925366 -0.027572887
-0.043009706 0.051255487 0.043013647 0.014480161 -0.024586981 -0.07388845 0.027633915 0.03010497
-0.0076302076 -0.04159462 0.09463113 0.06494646 0.06070442 -0.0054393904 0.023177778 -0.06873963
-0.057492465 0.06520695 0.033987507 0.04651146 -0.1170221 -0.056933615 0.032917913 0.009965598
-0.0045347926 -0.03542485 -0.053520016 0.020972189 0.034085393 0.0203451 0.08466957 0.027541682
0.041022822 0.064411104 0.02467236 0.084575385 -0.04110023 0.07778969 0.062407814 -0.057185642
0.03901122 0.022986768 -0.11061722 0.038279086 -0.0019354272 0.07850141 0.02504156 -0.032105725
0.054237004 -0.052425433 0.071715936 0.03889548 -0.07488145 0.015459157 0.049275815 0.071389936

GAT_layers.1.GAT_heads.0.w.weight f4 [1, 128]
00000000: 5a66 2d3e 7a90 a3bd 0e5c 253e 141b d8bc
00000010: b88c d8bd a23f 00bd a8b8 ad3c d11d c53c
00000020: 02eb cfbd 6490 ebbd 99d4 9abd 4cae 743e
00000030: 68b2 5bbd f30c ad3d 5435 083d 5088 613d
00000040: 3539 66bd 87b8 42bc 50bf 333e ab03 cf3d
00000050: ffe3 6c3e 2569 4b3e 17fa 883c 8e57 343d
00000060: 8a86 4ebe 9558 11be 7d85 503e 1791 3ebc
00000070: 8c1e e53d a70c 52be 4f68 163e ad15 e73d
00000080: d697 e7bd ba90 bf3b ad2f 02be 1969 3cbd
00000090: 8a07 e0bd 1a85 833d d447 00be e608 463e
000000a0: 5210 2a3e a3f7 2d3e fe4f 31be 4a2f ab3c
000000b0: 3deb 1a3d c79b 833d 6225 c73d e1a9 363e
000000c0: 7396 3d3e e4df d4bd c0c7 a83d fdc8 0dbe
000000d0: c1df 423d 788f 6ebd 6e43 f43c f45b f33b
000000e0: c9ab 1c3c 309f b8bd 4cfe 173e 67c4 e6bb
000000f0: 8174 173e 2a7f aa3d 9004 0bbd c315 063d
00000100: 8410 48be eb5a 37be 0a3a 423e e99e 3fbe
00000110: 3785 4fbe d86a 613e ef07 bdba 7db8 c83d
00000120: 5311 d6bd 65be 4d3e bdfd 903c c80b 18be
00000130: 1525 44bd b285 373e 9019 923c 4ed5 58ba
00000140: 4ce6 d13a 8155 423e 38c7 38bc 5269 f2bd
00000150: c841 b439 7b3c 1abe 55bd c3bd 8b43 503d
00000160: 5945 57be b036 0fbe dda0 f53d 39f5 343e
00000170: 652c 69bd 4572 8ebd de92 06be c29d 723e
00000180: e991 15be 99e8 f93d 661c 1bbe 40fa 35bc
00000190: 5a84 2c3e 8734 13be 9f39 4f3d 4e06 f03d
000001a0: 5111 403e 0b89 f83d f8c4 e3bd 089c 45be
000001b0: 09f4 333e c24b 50be 3735 02be 441f 83bc
000001c0: f9db 80bd 39f4 38be 9958 a93d ff13 3a3e
000001d0: d100 00be 42c8 d03d f69d 583d b891 66bd
000001e0: bff8 43be c308 4dbe 460d 2f3e 2e9c e3bd
000001f0: 2958 1e3e c982 343d f022 3ebe 7941 19be
0.16933575 -0.07986541 0.16148397 -0.0263801 -0.10573715 -0.031310685 0.021206215 0.02406207
-0.10152246 -0.1150215 -0.07560081 0.23894614 -0.05363694 0.084497355 0.033253983 0.05506164
-0.0562069 -0.011884815 0.17553449 0.101081215 0.23133849 0.19864328 0.016720815 0.04402881
-0.2016851 -0.14193948 0.20363422 -0.011631272 0.11187467 -0.20512639 0.14688228 0.11283431
-0.11308257 0.00584611 -0.127135 -0.045998666 -0.10938938 0.064218715 -0.125274 0.19339332
0.16607788 0.16988997 -0.17315671 0.020896573 0.037821997 0.064261965 0.09723927 0.17838241
0.18514423 -0.10394266 0.08241224 -0.13846202 0.04757667 -0.05824229 0.02981731 0.007426733
0.009562441 -0.090147376 0.148431 -0.007042456 0.14790536 0.08325036 -0.033939898 0.032735597
-0.1953755 -0.17905776 0.18967453 -0.18712963 -0.20265661 0.22013414 -0.001442192 0.09800813
-0.10452523 0.20092161 0.017699117 -0.14848244 -0.047886927 0.17922094 0.017834455 -0.0008271531
0.0016014068 0.1897793 -0.011277966 -0.118364945 0.00034381286 -0.15062134 -0.095575966 0.050845664
-0.21022548 -0.13985705 0.11993573 0.1767167 -0.056927104 -0.06955389 -0.13141963 0.23692992
-0.14606442 0.122025676 -0.15147552 -0.0111070275 0.16847363 -0.14375506 0.05059206 0.117199525
0.18756606 0.12135514 -0.11121553 -0.19297802 0.17573561 -0.203414 -0.12715612 -0.01600612
-0.062919565 -0.18061914 0.08268852 0.1817169 -0.12500311 0.10194446 0.05288502 -0.056291312
-0.19137858 -0.20022874 0.17094907 -0.11113773 0.15463318 0.04407004 -0.18568015 -0.14966382

GAT_layers.1.GAT_heads.1.f.weight f4 [64, 128]
00000000: 5d93 dbbc 4bde 39bd b7e1 743d ab5f 06bd
00000010: c166 0b3e 6012 19be ab87 57bd 4330 58be
00000020: 0a06 50bc e1ae ed3d 36b3 0cbc 0331 10bc
00000030: 6563 8dbd a939 cb3d a9c0 0b3d 35d5 3bbd
00000040: 2307 853c 8348 c93d e0a2 dd3d 5b07 41be
00000050: 4738 f33d a717 09be 2e9b 823d c40d dfbc
00000060: 1289 d7bd 14e7 1abe 7be9 063c 17b8 05be
00000070: 9f3c abbd 6db6 3dbd c8ca eebc 5f04 283b
00000080: c5fd 40bd a308 b33d 921a 373d b48e 6e3d
00000090: e17b 1cbe 5bf0 19be 2ea4 2a3d 327f 09be
000000a0: 2143 e3bd 6914 08be f3a8 603d d25b 35be
000000b0: d7cf d0bc cd06 e2bd da7f 293e 0dbd c4bd
000000c0: 3672 2a3d a4f2 4cbe 0446 29be d8c3 ce3d
000000d0: 14e9 08be c27f 5c3d 01b7 053e f810 03be
000000e0: aaea 203e 2197 d13c e73b bebd f708 10be
000000f0: 5f8a 77bc 4829 863d 8576 aa3d 2c55 d73d
00000100: 1b51 81bd 1b05 b63d 158c 31be 5cbf fe3d
00000110: 2dd5 dc3d c46f 2abe 2359 fa3d 614e 7b3d
00000120: d3b7 f2bc de15 1b3e e2c5 ecbd d91c 2cbc
00000130: 4cdd 11bd 7dd3 f8bd bd77 1a3d 2f67 c2bc
00000140: 7792 07be 67fd c23d 618e 2bbe 2d02 f8bc
00000150: e25c 36bd 22a6 14be 0d92 563d 4ad5 67bc
00000160: 6392 6cbc 2f22 ecbd 4cf5 4f3d 782f 953d
00000170: 3611 68bd 79d2 f13c 1951 1d3e 3841 f8bc
00000180: 8c4b 14bd d054 07bd 2e4a fcbd ac15 c53d
00000190: 25db 9cbd 374f 17be 35ab b8bd 2b7d ddbd
000001a0: fef6 863d 82ac a9bb 3428 ee3d 5b83 e13c
000001b0: 8b0a 20be f566 063d 37c6 1bbd 3d8a db3d
000001c0: ec66 1f3e 5073 2f3e 6c0a 343d 016d d2bc
000001d0: fcd5 f9bb 0b7c dfbd 988a 0d3e 7ad4 083c
000001e0: 4e12 06be 6da7 643d 4c67 623d aedc d3bb
000001f0: f8fe 9cbd b39d aabd 6924 b2bd b527 9abd
00000200: cb64 1abd 26ac 983d ca29 0e3e 86ff 023d
00000210: 6fdc 2ebd 4f12 dd3d a6d3 b1bd 0046 32be
00000220: 8d84 25be 4c68 22be 9b33 0a3e 04f5 f0bd
00000230: c9cc fcbc 00b0 153e 1910 86bd 7940 0dbe
00000240: 642e e0bc 5d61 c9bc 48a8 c83d 1127 40bc
00000250: 86d2 88bd 26ed 933d e8ad 27bc 3dce fc3d
00000260: c20e 213e e554 efbd 6ce4 22be 9c40 a33d
00000270: f4c2 e33d 07a5 c53b 1a82 193e da07 40be
00000280: 6948 89bd 986a ee3d 853d 33bd 6ea1 043d
00000290: 7458 18be e28c 0abe 99e2 fcbd 02ea c43d
000002a0: a25d da3d c05d 28be 1dc5 51bd 2874 6c3d
000002b0: fd4c 33bc 762f 663d 5261 22be f385 4fbd
000002c0: a674 183d b368 2dbe 231a 283e 0f96 5c3c
000002d0: 3365 efbd d80b 0b3d 7afd 83bd 6747 853d
000002e0: cbd3 86bd fe84 dd3c e415 953c 2122 273e
000002f0: d031 353d 204f 3bbe 3b26 febd 1b69 9e3c
00000300: b1ce 5cbd 77db 043d f5f9 433d ceeb 273e
00000310: 764f 183e 7619 1bbe 9e60 1dbe 5749 adbd
00000320: 8ed1 2a3e 2d0b 7dbd e80b 353d aa49 f63d
00000330: eddc df3d e0f4 a53d 12ae 10be 7246 14be
00000340: b5b8 b73d fe20 073e 337a 193e dc06 75bd
00000350: 59fe 96bd 091f 79bd 3ba6 cc3d fe81 89bd
00000360: 7b51 853d 07bb 423c 4f57 333e f344 39be
00000370: a59f ae3d 2ac1 d6bd fbeb 133e e6d2 dd3c
00000380: c6ac d1bd 872d d8bd 6380 f53d 6d58 3b3e
00000390: 3b0c 6abd ac10 e1bd 8fec 48be 2b80 ec3d
000003a0: 6af4 97bd 24a9 d7bd 0fd9 f0bc d009 e1bd
000003b0: c0e8 243a 21be 15be 73de eabd 961b ca3d
000003c0: 22e3 093e 0c6d 43bd 480a d4bd 0221 dd3c
000003d0: 19cb c33d 17c9 bc3d 1644 9dbd e8e9 dd3d
000003e0: 7e2e 07bd c0e4 8fbd 8852 12be 37cc 193d
000003f0: a034 e2bb 5e37 a3bd c052 a93d c0ac 27be
-0.026803667 -0.04537801 0.05978557 -0.03280608 0.13613416 -0.14948416 -0.052619617 -0.2111216
-0.012696752 0.11605621 -0.008587649 -0.008800748 -0.069037236 0.09923107 0.034119282 -0.045857627
0.016238755 0.09828284 0.108220816 -0.18850462 0.118759684 -0.13387929 0.063772544 -0.027228244
-0.10524191 -0.15127212 0.008234377 -0.13058506 -0.08361172 -0.046316553 -0.029149428 0.002563737
-0.047117013 0.08741882 0.044703074 0.05824156 -0.15281631 -0.15033095 0.04166048 -0.13427427
-0.11096788 -0.13289036 0.054848623 -0.17710808 -0.02548973 -0.110364534 0.16552678 -0.09606371
0.041612826 -0.20014435 -0.16530615 0.10095948 -0.13370162 0.053832777 0.13058092 -0.12799442
0.15714517 0.02558476 -0.09288769 -0.1406592 -0.015108674 0.065508425 0.08323387 0.10514292
-0.06314298 0.088876925 -0.17338593 0.12438843 0.107828476 -0.16644198 0.12224033 0.061354045
-0.02962867 0.1514506 -0.11561181 -0.010504925 -0.035611436 -0.12149713 0.037711848 -0.023730842
-0.13239466 0.09520989 -0.16753532 -0.030274475 -0.044522174 -0.145165 0.05238538 -0.014149973
-0.014439198 -0.115299575 0.050771043 0.072844446 -0.05665704 0.029519306 0.15362968 -0.030304536
-0.03620486 -0.033039868 -0.12318836 0.09623274 -0.07658986 -0.14776312 -0.0901703 -0.108148895
0.06590079 -0.0051780352 0.11628762 0.027528455 -0.15629022 0.03281303 -0.03803083 0.10719726
0.15566605 0.17133832 0.04395525 -0.025686743 -0.007624386 -0.10912331 0.138224 0.00835144
-0.1309292 0.055823732 0.055274293 -0.006465516 -0.07665819 -0.0833086 -0.08698351 -0.07527105
-0.03769378 0.0745471 0.13883129 0.031981967 -0.04269069 0.10794508 -0.08682947 -0.17409515
-0.16163845 -0.15860099 0.13496248 -0.11765483 -0.030859368 0.1461792 -0.06546039 -0.13794126
-0.02736587 -0.02458256 0.09797722 -0.011728064 -0.06680779 0.07222967 -0.010234334 0.12344024
0.15728286 -0.11686114 -0.15907449 0.07971308 0.11121169 0.0060316357 0.14991036 -0.18752995
-0.06703264 0.11641425 -0.04375984 0.032380514 -0.14877492 -0.13530305 -0.123479076 0.09614946
0.1066239 -0.16442013 -0.051213372 0.057727963 -0.010943648 0.056197606 -0.15857437 -0.050664853
0.03722062 -0.16934471 0.1641622 0.013463511 -0.11689224 0.033946842 -0.06444831 0.065077595
-0.06583365 0.027040955 0.018198915 0.16321613 0.044236958 -0.18291903 -0.12409636 0.019337228
-0.053908054 0.03243586 0.0478458 0.16398546 0.14874062 -0.15146431 -0.15368888 -0.08461254
0.16681501 -0.061778236 0.044200808 0.12025769 0.1093081 0.08103347 -0.14128903 -0.14479998
0.08970777 0.1319618 0.14988022 -0.059820995 -0.07372732 -0.060820613 0.099926434 -0.06714247
0.06509682 0.011885411 0.17513774 -0.18092708 0.085265435 -0.10486062 0.14445488 0.027078103
-0.10238032 -0.10555559 0.119873784 0.1829545 -0.05714057 -0.10989508 -0.1962149 0.115478836
-0.07419665 -0.10530308 -0.029400377 -0.109882 0.0006290786 -0.1462331 -0.1146821 0.09868543
0.1346555 -0.047711417 -0.103535235 0.026993278 0.09560222 0.09218042 -0.07679002 0.1083563
-0.033003323 -0.070260525 -0.14289296 0.03754827 -0.006903246 -0.07969545 0.082677364 -0.16374493

GAT_layers.1.GAT_heads.1.f.bias f4 [64]
00000000: 84f8 90bd 32db d43c 54f5 3fbd 99f8 413d
00000010: 7b82 02bd 6851 91bd 3141 b4bd 4ca5 be3d
00000020: bc57 673d fc83 8d3d 263b 083c 006f cbbd
00000030: dea4 10bd 9e0a 5dbc 9dd8 92bd 8851 afbd
00000040: 86a9 66bd 288f bcbc ca4d 29bd 1279 a23b
00000050: 63e7 8bbd 1f3e 49bd ef03 563c 8730 053d
00000060: 09e3 e6bc 6e4f 8fbd cfb3 aebd 4b3d 2d3d
00000070: 8741 ba3d 38e5 26bc fd1e 4e3d 0223 1cbd
00000080: 1791 aabd ea9c 1f3b 1e4d b03d 20fb 90ba
00000090: 948b 8b3b ed3f 763d 6e18 8e3d 5bda 093d
000000a0: 27b1 ccbc fff6 903d 770b 9fbd 186d bcbd
000000b0: 0075 bd3d 9038 263b 846a bebd 8229 4b3d
000000c0: 09ff edba 718c e53c ce21 b1bc 4368 b2bd
000000d0: 25bb b4bd 3a7c af3d c03f 0b3d 3a8f b8ba
000000e0: 9110 5b3d 62a2 bfbc 9a96 b63c 588d 03bd
000000f0: 3ca0 64bd c032 bb3d 3b3c d9bd 974a 98bc
-0.070786506 0.025983427 -0.046864823 0.04735622 -0.031862717 -0.07095605 -0.08801497 0.093088716
0.056480154 0.0690994 0.008314883 -0.09933281 -0.03531348 -0.013491301 -0.07170222 -0.08560473
-0.056314014 -0.023017481 -0.04133395 0.0049582804 -0.06831243 -0.04913151 0.013062461 0.032516982
-0.02818443 -0.06997572 -0.085303895 0.04229478 0.090945296 -0.010186486 0.05032252 -0.038119324
-0.08328455 0.0024355003 0.08608459 -0.0011061169 0.0042585824 0.060119558 0.06938253 0.033655506
-0.024986817 0.07078361 -0.077658586 -0.092004955 0.092508316 0.0025363304 -0.0929766 0.04960013
-0.0018157671 0.02802107 -0.021622565 -0.087112926 -0.088247575 0.08568616 0.033996344 -0.0014080771
0.053482596 -0.02339286 0.02228861 -0.032117218 -0.055816874 0.09140539 -0.10607191 -0.018590255

GAT_layers.1.GAT_heads.1.w.weight f4 [1, 128]
00000000: c2eb d93d 6bdc 2d3e 689c f23d bbc8 523e
00000010: 1722 afbd 0481 21be cbb4 8cbd 311a d6bd
00000020: fa0f eabb 3ca1 2d3e 1319 9f3d a22c 423e
00000030: 40dd b5bd ed20 833d 6edf 08be 64db 153e
00000040: 3f67 44bd 362e 09be 294c 21bd e3d3 48bc
00000050: ad32 ba3d f88f 4c3e d4af aebd b43e b4bd
00000060: 5adf 553e da35 41bd 8b5f 2c3e b6b6 ac3d
00000070: 86c6 3c3e cd97 2dbd 9024 1d3e ec79 23be
00000080: 8c97 7bbd 3287 b33d ef27 2abe 455f 2fbe
00000090: 415d 0ebe 0170 e3bc 349c 2d3d 7062 87bd
000000a0: 17e7 023e 4561 57bd 04b6 1ebe 1d17 bcbd
000000b0: 2d14 37be 00dc eebd 437a 313d bea8 1dbe
000000c0: c259 aa3c 946b d23d 047f 36be c6db 043e
000000d0: a3ff bcbd b3a3 46be 7974 353d 9632 323e
000000e0: b3c2 1b3e dacd 823d be36 5b3e 48b8 64bd
000000f0: 2afe 163e 1cfc 98bd 3e27 443c b752 50be
00000100: 30ce 063e 5557 c63d 41d4 373e 642d 053e
00000110: 5344 18be d384 bebd ab7b 043e e17b 9b3d
00000120: d0ce 13be 3dfc 90bc 9638 5ebd 77d6 3f3d
00000130: d683 7bbb 54b6 193d eb56 153e 8d72 08be
00000140: 1617 aebd a37e 19be 68cd b8bd 1c30 33bd
00000150: 9933 b43d e4ba ce3a 190d 5b3e 64af d4bd
00000160: 3557 6e3e f93d 073e 8dfb 473c 67ca 65bd
00000170: 42c2 e3bd 3284 0fbe aca3 25bd cf2d 683e
00000180: d7c2 8fbd 0b6b 053e 8297 80bb 53c5 91bb
00000190: 6b18 01be c845 37be 155c 663d 1204 ac3c
000001a0: e6dd a43d d23c c2bd 9f98 b0bc be83 99bd
000001b0: 5ed0 d5bd 1db0 043e 3012 d73d 5a94 32bb
000001c0: 4761 febc a106 7ebd 3a7a ae3c 9b0a 71be
000001d0: bb1c c43d 766f 42be 882f 4a3d 5748 2cbe
000001e0: 1669 dc3c fe16 013e 0801 dd3d e9dd ea3d
000001f0: 3260 27be 5214 66be afaf c83c d990 23be
0.1064067 0.16978614 0.118462384 0.20584385 -0.08551424 -0.15771872 -0.06870421 -0.10454214
-0.007143018 0.16956037 0.077684544 0.18962339 -0.08880091 0.064027645 -0.13366482 0.14634472
-0.047950026 -0.13396534 -0.039379273 -0.012257549 0.09091697 0.19976795 -0.0852963 -0.08801022
0.20885983 -0.047170497 0.16833322 0.08433287 0.18435106 -0.042381097 0.15345979 -0.15964478
-0.061423823 0.08766021 -0.16616796 -0.17126186 -0.13902761 -0.027763369 0.042385295 -0.06610572
0.12783466 -0.052582998 -0.15499121 -0.09184096 -0.1787879 -0.116630554 0.04332949 -0.15396401
0.020794753 0.10274425 -0.1782189 0.12974462 -0.09228446 -0.19398384 0.04430053 0.1740211
0.1521099 0.06386919 0.21407601 -0.055839807 0.14745393 -0.07469961 0.011972247 -0.20344053
0.13164592 0.09684626 0.17952062 0.13005596 -0.14869814 -0.09302678 0.129378 0.075919874
-0.14434361 -0.017698402 -0.054253183 0.04683539 -0.003837814 0.037527397 0.14583938 -0.13324948
-0.08500497 -0.14989714 -0.09023553 -0.043747053 0.08798904 0.001577225 0.21391715 -0.103850156
0.23275454 0.13207234 0.0122059705 -0.05610123 -0.11121036 -0.14015272 -0.040439293 0.22673725
-0.070195846 0.13029115 -0.003924311 -0.0044485717 -0.12606971 -0.17897713 0.05624016 0.020998035
0.08050136 -0.09484257 -0.02155715 -0.07495831 -0.104401335 0.12957807 0.10501516 -0.002724907
-0.031052245 -0.06201804 0.021298517 -0.23539202 0.095757924 -0.18987831 0.049361736 -0.1682447
0.026905578 0.12606427 0.10791212 0.11468107 -0.1634529 -0.22468689 0.024497835 -0.15973224

GAT_layers.1.GAT_heads.2.f.weight f4 [64, 128]
00000000: 643e 0cbe 4bdc 533c 3bf9 893c 92a7 3e3e
00000010: f8ff 083e 2726 6d3d af49 5d3d 454a d13d
00000020: f3e1 82bd 07ba a53d 16fa 02be 8cdf 863c
00000030: 8348 b23d 04e9 18bd 3d57 0e3e b100 fbbc
00000040: a21f 97bc 7de7 0bbe 2caf adbd e15f 85bd
00000050: 6b4e b9bd b723 4e3d a774 bb3d fb61 3c3e
00000060: 5704 b43d 50b3 b3bd 9a19 283e d5f8 663d
00000070: 618d 74bc 77b7 2c3e 96bc 373d 4158 e23d
00000080: c242 aabd 3e82 54be 07eb 85bd 861b 83bc
00000090: f1d8 e03d c874 ab3c 4053 8d3d cb28 94bd
000000a0: e4a5 3dbe 1328 5dbd bff0 8f3b e314 6d3d
000000b0: 7ff1 c23d 53e5 a1bd 263a 263d 2359 043e
000000c0: dca3 52be 2118 023e cc3e 47bc 5db0 a93d
000000d0: 2add f5bb a508 213e 882e 25be c4f4 11be
000000e0: 451a 2abe 2595 483d bcd2 843c bcc4 733d
000000f0: 09ab d93c 8327 55bd 2205 b83d 052b 2dbd
00000100: 72e6 0c3d 521e f4bd 13f2 6abd d128 43bc
00000110: 83c1 e1bd 5023 2bbe 8d8c d93d 4255 063e
00000120: c459 8dbd 0a33 283e fcd0 58ba 93e1 16be
00000130: 2261 243d 0696 043d 7696 a8bd 0aa1 163e
00000140: ebd1 1a3e c241 ef3d 63e4 283e a69b 33bc
00000150: 5a2a f33d 622d 13be 8d18 963d e575 83bd
00000160: f703 26bd de1c 11be 7fba 42bd 282a 023e
00000170: 71b0 cdbd f69f 0f3d a1c2 1abe e8e3 263e
00000180: e025 e7bb c4fa 2abe 3b69 f13d d112 f33d
00000190: 635b 123e 23c8 903c db89 cbbc 7eb8 d83b
000001a0: 8ddd cf3d 4fe1 bc3d 554f e9bd cec6 75bd
000001b0: 606e 89bc 6c9f 1fbc 015c 65bd d4bf 413d
000001c0: da3f 023e 0e2e 833d 0087 1ebd 0b4f 63bd
000001d0: cc02 1bbe 18b3 a73d bdf0 1dbe 6914 bf3c
000001e0: 0dbb e8bd 3718 1b3e 83e8 19bd 03d8 223e
000001f0: 88e7 483e 8a23 25be d54f 11be 0cf1 223d
00000200: 11fe 1e3e 169f 9cbc fe6d 2abe 7911 a0bd
00000210: 80f5 8bbd bd96 20be 1c75 e53d 2724 30be
00000220: de3f b2bd fd10 f23d 2c49 7a3d 2836 18be
00000230: d511 f4bd fb6c 6dbd 4a3f 7cbd 9023 0abe
00000240: a1bf 303d 6519 6a3d 7e9a 82bd d34c 6ebe
00000250: 07f2 ebbb c223 11be 61dd 52bc 3738 d23c
00000260: 6e4b 133c 7f5a 203e 4c46 34bd 9bc0 983d
00000270: a2e0 5c3d fa15 f4bd 08ae c0bd 0cc3 263d
00000280: 7373 153e 4414 1abd fe6d 22be f3af 18be
00000290: 06a0 a6bd 5c37 ac3e 73fa 78bc 10a2 143e
000002a0: c4c8 23bc 92ae 1c3e fee6 db3d d0e9 15be
000002b0: 5255 b5bd f915 653e c898 143e d075 503d
000002c0: c5b6 993d ef59 2e3e cbdf a1bb fadd 023e
000002d0: c498 f03d 79d3 193e 0cd1 9c3d 5190 0c3e
000002e0: 836d d7bc be71 c43c 3b41 99bc 5a36 1b3e
000002f0: 3898 4e3e 056f ce3d acfe 8a3d b37a b63d
00000300: 5574 2ebc eba9 20bb 66e7 a0bc f1c4 8f3c
00000310: 859b 0dbd 41c7 5d3d 3e8b fcbc 4817 953c
00000320: aaa2 843d 7589 a3bc d6aa 14be 7ed6 25ba
00000330: 552c 0e3e 4cb1 66be c408 89bd 4484 cebd
00000340: 0038 cabd 2af8 b43d 9785 283e ca5f 003e
00000350: 2718 0c3d 5920 333d f7d7 a2bd cad8 423d
00000360: 5c6b f33d f028 5b3c 7318 1a3e 2a93 e9bd
00000370: 178f 153e f9bd 8abc afd9 073e ea48 b83d
00000380: c7c4 52bd c3b9 003d 1591 b9bc ff7a dcbc
00000390: f40b 383e 0183 8c3e c3a8 d2bd 0d03 f83d
000003a0: 5992 acbd e0d4 d43b 8721 1e3e b176 5d3d
000003b0: bb07 f7bd bb44 12be 54bf 33bb 85a8 19be
000003c0: 1e52 ecbd c8d7 22bd 912c 993d 680f 18be
000003d0: dd8f 80bd f9bb c3bc d869 18be 8327 3d3d
000003e0: 41eb d73d 0676 2a3e 2ca4 19bd 2dc0 053e
000003f0: 0ef1 6d3e 6565 78bd a1be 9abd e26c c83d
-0.13695675 0.01293094 0.016842475 0.1861861 0.13378894 0.057897713 0.05402535 0.10219244
-0.06390753 0.080921225 -0.12790713 0.016464017 0.08705237 -0.037331596 0.13900466 -0.030639978
-0.0184477 -0.13662525 -0.08480677 -0.06512428 -0.0904816 0.05032703 0.09153109 0.18396752
0.0878989 -0.087744355 0.16416016 0.05638965 -0.0149262855 0.16866861 0.044857584 0.11051989
-0.08313514 -0.20752808 -0.065389685 -0.016004335 0.10978878 0.02092971 0.06900644 -0.07234343
-0.18520314 -0.053993296 0.004392713 0.057881247 0.09518718 -0.07905068 0.0405828 0.12924628
-0.2057032 0.12704517 -0.012160968 0.08285592 -0.0075031715 0.15725954 -0.16131032 -0.14253527
-0.16611584 0.04897036 0.016213767 0.059513792 0.026570814 -0.052039634 0.08985354 -0.042277355
0.034399457 -0.11919846 -0.057359766 -0.011911587 -0.110232376 -0.1671269 0.10622511 0.13118461
-0.06901887 0.1642572 -0.0008270887 -0.14734487 0.040131696 0.032369636 -0.08231823 0.14709869
0.1511914 0.11682464 0.16493373 -0.010962402 0.11873312 -0.14372781 0.073289014 -0.06418971
-0.040531125 -0.14171168 -0.047541138 0.12711394 -0.10043419 0.03506466 -0.15113308 0.16297877
-0.0070540756 -0.16697222 0.11787649 0.11868823 0.14292674 0.017673558 -0.024846008 0.00661379
0.10149679 0.09222662 -0.113920845 -0.060004048 -0.016776264 -0.009742599 -0.055995945 0.047302082
0.1271967 0.064052686 -0.038702965 -0.055495303 -0.15137786 0.08188456 -0.15423866 0.023325162
-0.11363802 0.15145956 -0.037575256 0.15902714 0.19619572 -0.16126838 -0.1419061 0.03978066
0.15526606 -0.019118827 -0.16643521 -0.07815833 -0.06833935 -0.15682502 0.112039775 -0.17201291
-0.08703588 0.118196465 0.06110494 -0.14864409 -0.11917464 -0.05796526 -0.061583795 -0.13490129
0.0431515 0.057153124 -0.06377123 -0.23271494 -0.0072004828 -0.14173797 -0.012870164 0.025661571
0.008990152 0.15659522 -0.044012353 0.074586116 0.053925164 -0.11918254 -0.09408194 0.040713355
0.14594822 -0.037616983 -0.15862271 -0.1491087 -0.08135991 0.33635986 -0.0151964305 0.14514947
-0.009996597 0.15300968 0.10737418 -0.14639974 -0.08854164 0.22371663 0.14511406 0.050893605
0.07505564 0.17026494 -0.0049400083 0.1277999 0.11747888 0.15022077 0.0765706 0.13726927
-0.026297336 0.023980018 -0.018707862 0.15157452 0.20175254 0.10079769 0.06786856 0.08910122
-0.010647853 -0.0024515342 -0.01964159 0.017549964 -0.034572143 0.0541451 -0.030828115 0.018199578
0.06476338 -0.019963006 -0.14518294 -0.00063262123 0.13884099 -0.22528571 -0.06691125 -0.100838214
-0.098739624 0.08836396 0.1645721 0.1253654 0.03420272 0.04373202 -0.07951348 0.047570027
0.118857116 0.0133764595 0.15048389 -0.114050224 0.14605366 -0.01693629 0.13266633 0.08998282
-0.051457193 0.031427156 -0.022652188 -0.026914118 0.1797331 0.27443698 -0.10286095 0.12109957
-0.08426351 0.0064951032 0.15442477 0.05406827 -0.12062021 -0.14284031 -0.0027427273 -0.15005691
-0.115391 -0.039756566 0.074792035 -0.14849627 -0.0627744 -0.023893343 -0.14884126 0.04618026
0.10542918 0.16646585 -0.037510082 0.1306159 0.23236486 -0.060643572 -0.07555891 0.09786393

GAT_layers.1.GAT_heads.2.f.bias f4 [64]
00000000: 26c8 61bd 96ef 6b3d 86b1 433c 1b2d 0cbc
00000010: 4f84 233c e593 b0bd 8acb d4bd c7be 94bc
00000020: a7f6 353d 2887 c8bb c2a7 8abd 977e b53c
00000030: 1b08 61bd 4675 debb 66e0 f3bd 7f1f 1abc
00000040: ed58 1cbd d4dc c43b 9077 1f3d 856b 9f3d
00000050: b16c 9c3d 3c68 7b3d f8aa 273d 0d0e 053d
00000060: cc2a dc3c 5092 8fbc 0ff0 12bd 2caa 4b3c
00000070: 0861 df3c 5d8c 91bd eb0c 41bd be3e 0a3d
00000080: cfda 0a3b 99bc 013d 5531 af3c 75ec be3c
00000090: 12b0 8f3a 4107 b0bd ac48 03be d653 95bc
000000a0: da45 e5bc 6331 a33d 806b b63c b539 b0bd
000000b0: e5d7 7c3c 096e 4cbc fb9e 8dbd 82d6 40bc
000000c0: cd9e 553c 3999 ce3c 471a 15bc 5679 96bd
000000d0: 0982 113d 549b 54bc 2f54 213d 1d22 b2bd
000000e0: 9e48 a3bd cf7b e0bc 177b 703d 2a1e fd3c
000000f0: 887c d3bd 37d8 513d 01a1 e73c 287a 0ebd
-0.055122517 0.057601534 0.01194418 -0.008555676 0.009980275 -0.08621959 -0.103903845 -0.018157376
0.04442468 -0.0061196275 -0.067702785 0.02215509 -0.05493937 -0.0067888824 -0.11908035 -0.009406923
-0.038170744 0.00600777 0.038932383 0.077841796 0.07637919 0.061378703 0.040934533 0.032484103
0.026875876 -0.017525822 -0.03587347 0.012430709 0.027267948 -0.0710685 -0.04713146 0.033751242
0.002118755 0.031674 0.021385828 0.02330611 0.0010962507 -0.085951336 -0.12820691 -0.018228453
-0.02798741 0.07968404 0.022268057 -0.08604757 0.015432333 -0.012477406 -0.06915089 -0.011769893
0.013038349 0.025219547 -0.009100503 -0.07347362 0.0355244 -0.012976486 0.039386924 -0.08697913
-0.07972835 -0.027402787 0.058711138 0.030898172 -0.10326487 0.05123159 0.028275015 -0.034784466
