SLIC_GAT/last4.pt (torch, 580781 bytes, 30 tensors)

GAT_layers.0.GAT_heads.0.f.weight f4 [32, 124]
00000000: ebf1 a33d 7a72 8d3b 3477 313d 9591 783d
00000010: 9a8c fe3d 124d ec3d 11d3 bc3c 04b3 50be
00000020: 42ac 3fbe 4fb1 18bd c375 113e 2ea2 693d
00000030: bb90 2cbe c0c4 b33d 045c 30be 8abf 9b3c
00000040: 2f95 1bbe 4750 0bbd a449 883c 3ac4 dc3d
00000050: f5c4 d83d 5026 18be eeea 35be 3d9a 34be
00000060: d0c7 413c 2c98 1bbe 7a45 4d3d 85fa 22be
00000070: 3345 03be ce09 50bc 330d 1a3e 4898 a23d
00000080: ad6c 213d ace4 973d 084a 15bd def0 fb3c
00000090: 20b6 3d3d 45f4 1a3e 5b72 3fbe f919 6e3d
000000a0: 40f2 c2bd 8830 22bb 4cea 043d 4ee0 3a3e
000000b0: 3510 02bc 8ca7 2b3c 09cc 9abd 5d0a 163e
000000c0: 8bf4 79bc 3768 09be ee5e bb3d 5244 a33d
000000d0: 9a3b 123e 5739 25be c42d 193e 48f6 ea3d
000000e0: 6e89 a1bc 364a 39be d965 96bd 50c7 f5bd
000000f0: 17a1 943d 965e 553b 5eac b63d 9852 21be
00000100: 56d2 1abe a7a6 04be 5144 5bbc 644a f6b9
00000110: 310f 333e d3fc d93c a915 d93d a3a4 62bd
00000120: c512 bebd 4ee9 6d3d 4c74 da3c 54b8 c2bd
00000130: 4ed4 963d 2a48 2d3c 4470 253e e3bb 29bd
00000140: 011f 8eba 4ee2 213d bcd5 39be 65f6 28be
00000150: 0c94 06be 9ba3 273d e2f7 12be 8785 183d
00000160: a01f 1f3e 118d 31be d508 e53d c028 9bbd
00000170: d6dd d4bc c29b 5bbd af1c 1fbe 95d8 ebbc
00000180: 4214 36be 4dd8 cf3d 0159 2a3e a855 1f3e
00000190: 6f03 1e3e 61e9 45bd fa99 f83d a981 673d
000001a0: 7e17 d7bd da09 0d3e 4cb2 ab3d 0645 423e
000001b0: dba4 4ebc 08f2 153e 1eb1 a53d af17 aa3d
000001c0: a478 1bbe 92d6 343e 41d2 c3bd e2ca 47be
000001d0: 121a b0bd 9d4f 833d be18 f8bd 515f 58be
000001e0: f593 2f3d a066 89bc 1553 fabc fa16 193c
000001f0: 2fbb 0b3e c9ea 3dbe b06f 09be 0448 d4bd
00000200: 68f2 2fbd 489e 2c3e 23c3 cabd 0ac3 e0bc
00000210: 7320 413e 7057 853d 9849 bb3d f979 a63d
00000220: e0ec 323e 6b7d 18be 48fa 663d 706a 48be
00000230: 2f29 1e3e 7ee3 d53d 4457 43be 5c11 26be
00000240: f7e4 15be 67b7 31be 2159 1fbc f472 20be
00000250: d225 64bd 9caa 023c 0230 c4bc b79c 0fbe
00000260: 43e4 3abe 9555 16bd 8c6a 2d3e 623b c1bc
00000270: 3610 2d3e 5c5b 19be e0d7 343e 2457 033d
00000280: 993d 9b3d d681 2b3e dbd1 e4bd 8698 3d3e
00000290: 266f 283d 9797 48be 7703 773d 4f2e be3d
000002a0: ae3f d23a f135 12be 4c05 413d 4e68 7ebc
000002b0: 424e 07be 12d0 033e e263 f7bd 181e b03d
000002c0: 91a9 efbd e697 21be 5e3b 39be 16c3 2ebe
000002d0: e958 3a3e 0063 3fbe 8736 33bd 4de0 31be
000002e0: 0862 cbbc fd71 b43d 7041 9ebd b63a 0d3e
000002f0: 4212 943d 5cea 91bd 0d86 223d 65c0 31be
00000300: 9180 3c3c 0a28 54bd 6b78 1c3e 8156 033c
00000310: f9fd f93d 9a3d 343e c481 0a3e 341e b1bd
00000320: f92b 7ab9 fa80 973d 65e9 613c f11c 2fbd
00000330: f4cf 983d 2c48 15be 418c 7bbd b4a4 773c
00000340: b0b0 3a3e 3a32 1d3e dd98 b33d efa0 eabd
00000350: 7735 b73d bb93 3a3e a1b7 23be 690e d3ba
00000360: 00f9 d8bd 17af 003e 0157 09be d982 313d
00000370: 8bbb 26be 5185 06be f86a 40be 517a 93bb
00000380: 84cb 253e 051f 773d b455 45be 1acd ab3d
00000390: 1a22 d63d e89c 243e 5196 d2bc f139 873d
000003a0: fb16 84bc aa68 adbd 7392 20be cd35 48be
000003b0: 3dc2 df3c d5df acbd 2c83 b83d d37e 1b3c
000003c0: e7e3 82bc b984 e73a 5e55 3cbe 3352 49be
000003d0: b9ec 50be eb69 a1bc 9545 ee3b db8f 6a3d
000003e0: 8544 543d b7f4 1a3e 7b1e 8dbc e273 2f3c
000003f0: 9da1 e73d bc11 36be 7938 05bd d1f1 713d
0.080051266 0.004316625 0.04332657 0.060685713 0.12429161 0.115381375 0.023049863 -0.20380789
-0.18718055 -0.03727847 0.14205079 0.057039432 -0.16852085 0.087777615 -0.17222601 0.019012231
-0.15193628 -0.034012105 0.016636677 0.10779615 0.105844416 -0.14858365 -0.177654 -0.17636962
0.011827424 -0.15194768 0.050115086 -0.15915878 -0.12819366 -0.01269765 0.15044098 0.079392016
0.039410282 0.074166626 -0.036447555 0.030754503 0.046316266 0.15132244 -0.18695967 0.05813024
-0.09518862 -0.0024748165 0.032450005 0.18249628 -0.007938434 0.010476958 -0.07558448 0.14652391
-0.0152560575 -0.13418661 0.09148966 0.079720154 0.14280549 -0.16135155 0.14958864 0.11472756
-0.019718852 -0.18094715 -0.07343645 -0.120009065 0.07257288 0.0032557598 0.08919595 -0.15754163
-0.151193 -0.12954198 -0.013382987 -0.00046976202 0.17486264 0.026609814 0.105998345 -0.05533279
-0.09280924 0.058083825 0.026666783 -0.09507814 0.07364713 0.010576287 0.16156107 -0.04143895
-0.001084298 0.03952246 -0.1814794 -0.16500242 -0.13142413 0.04092751 -0.14352372 0.037236717
0.15539408 -0.17338969 0.11183325 -0.07576132 -0.025984686 -0.05361534 -0.15538286 -0.028789798
-0.17781165 0.10148678 0.16635515 0.15560019 0.15430997 -0.04831827 0.12138744 0.056520138
-0.10502528 0.1377329 0.08383617 0.18971643 -0.012612547 0.14643109 0.08090423 0.083052985
-0.1518274 0.17659977 -0.09561587 -0.19510987 -0.085987225 0.064116694 -0.12114094 -0.2113011
0.042865712 -0.016772568 -0.030557195 0.009343857 0.13645624 -0.18546595 -0.13421512 -0.103652984
-0.042955786 0.16857255 -0.099005006 -0.027436752 0.18860035 0.06510818 0.09144896 0.08128733
0.17473173 -0.14891593 0.05639103 -0.19571853 0.15445398 0.10443781 -0.19076258 -0.1621756
-0.14638124 -0.17355119 -0.00972584 -0.15668851 -0.05570013 0.007975247 -0.023948673 -0.14024626
-0.18251137 -0.03670271 0.16935176 -0.023587886 0.16900715 -0.14976257 0.17660475 0.032065526
0.07580108 0.16748747 -0.11172839 0.18515214 0.041121624 -0.19589077 0.06030604 0.092861764
0.0016040707 -0.1427839 0.047124192 -0.015527798 -0.13213447 0.12872341 -0.12079598 0.0859949
-0.11702264 -0.15780601 -0.18089053 -0.17066607 0.18197979 -0.18690109 -0.043753173 -0.1737072
-0.024827018 0.08810804 -0.07727325 0.13791928 0.07230045 -0.07124779 0.039678622 -0.17358549
0.011505262 -0.051795997 0.15280311 0.00801623 0.122066446 0.17601624 0.13526064 -0.08648339
-0.00023858239 0.07397647 0.013788556 -0.04275221 0.07461539 -0.14578313 -0.061413053 0.015114952
0.18231463 0.15351191 0.08769391 -0.11456477 0.089457445 0.18220417 -0.15988018 -0.0016102317
-0.10594368 0.12566791 -0.13412096 0.043337677 -0.1628248 -0.13136794 -0.18790805 -0.0045006652
0.16190916 0.060332317 -0.19270974 0.083887294 0.10455723 0.1607548 -0.025706442 0.06602848
-0.01612424 -0.08467229 -0.15680866 -0.19551773 0.0273143 -0.0844113 0.09009394 0.0094906865
-0.015977813 0.0017663456 -0.1839194 -0.19660263 -0.20402803 -0.019703826 0.0072714784 0.057266098
0.051823158 0.15132414 -0.017226448 0.010708781 0.11310122 -0.17780203 -0.03252456 0.059068505

GAT_layers.0.GAT_heads.0.f.bias f4 [32]
00000000: fd8b cfbd 5370 91bd fbbd b93c d8af 44bd
00000010: 6543 8e3d eb6f 6d3d d742 f83c ab40 9cbd
00000020: 616d a5bd e7a7 a33b 8aa6 393d 0415 103d
00000030: c254 39bd 1dfc 543d 57aa a4bc f32c 8b3d
00000040: 3925 313c 7782 20bd 1968 c3bd a641 b5bd
00000050: 2793 75bd 3ad4 85bc 8da2 8cbd d3cd bf3c
00000060: 9239 6d3d cb7e 943d 4277 80bd cc15 6abd
00000070: 1166 113d eecc c2bd a076 ffbc a317 9b3b
-0.101341225 -0.07101502 0.022673598 -0.04801926 0.06946448 0.05796806 0.03030531 -0.07629522
-0.08077503 0.0049943808 0.04532484 0.035176292 -0.045246847 0.051998246 -0.020100756 0.06795683
0.010812097 -0.03918692 -0.095413394 -0.08850412 -0.05995479 -0.01633655 -0.068669416 0.023413574
0.05791623 0.07250746 -0.062727466 -0.057149693 0.03549773 -0.095117435 -0.031184494 0.0047330423

GAT_layers.0.GAT_heads.0.w.weight f4 [1, 124]
00000000: e095 1cbe 944f 6c3e e277 2cbd 09da c33c
00000010: ca78 26be eb44 25bd dada 553e 52c0 acbd
00000020: e833 57bd aa98 e43c 731d e13d cfeb efbc
00000030: 0639 c13d c8a5 03be 9fac 26be 3c23 3e3c
00000040: 8f56 2a3e d93b cf3d c01a 03bd 8f23 41be
00000050: f3e2 ff3d 7d00 6abe 2ac5 dabd 10ec f0bc
00000060: 7c21 0cbe 5a37 353d 28de e73d a8ef 80bd
00000070: b0a1 233d d93e a9bd 3c08 2cbe 1cad 63be
00000080: 8888 2e3e ea03 333e de74 bc3d 2f9b 35be
00000090: 96c3 19be 202c 91bc 749e 273e 5681 44be
000000a0: fce4 5cbe c47f 41be 8548 00be eb10 8abd
000000b0: be19 4fbe 80be c73d f8d8 e73a 96b3 4d3e
000000c0: d4be 353e 87f7 473e 47bd eebd 814b 113e
000000d0: e42b 413e 5956 1c3d 9c6d e8bd 8b54 d63d
000000e0: 5477 0bbe 2d42 123e dd0b 61be 369d 47be
000000f0: aaeb c93d d70a 523e 760a 1c3e 7764 403e
00000100: 4bb2 493a 5f09 3e3c 7f86 40be 28fe aebd
00000110: 4d7f f13d 8698 a4bc 6e04 0abe c0d3 e6bd
00000120: 2bda 23bc b0c7 5d3b df13 fd3d d8af 97bd
00000130: 1488 223e 3e76 4c3e 4f03 323e f5e5 f7bd
00000140: 477a 32bd 9ba6 0ebe c1c9 e23d 4918 243d
00000150: 1d80 9dbd 24bf 4ebe 6a22 56bd 56d8 40be
00000160: 2b59 853d 51c7 0ebe 6564 383e 2062 33be
00000170: 2442 543e 0646 81bd db27 343e 7b7b 433d
00000180: a4b1 3e3e 5d62 0c3e bab9 63bc 9243 75bd
00000190: 34f9 b8bd cb61 5b3e 8978 8fbd 0e33 053e
000001a0: 30f9 3dbd e1ba 5fbe ab24 603e 8459 8ebb
000001b0: a493 22be b038 f83d c169 06be 8cba b4bd
000001c0: cc64 55be 2c02 b63d c711 0c3d 7d3c 313e
000001d0: 628c 35be 1739 2d3e acef 09be 72bf 1dbe
000001e0: 05be bebd 234f b83d 704b edbd 4252 55be
-0.15291548 0.23077232 -0.042106517 0.023907678 -0.16257015 -0.04034893 0.20884266 -0.0843512
-0.052539736 0.027904827 0.10991945 -0.029287247 0.094347045 -0.1285621 -0.16276787 0.01160508
0.16634582 0.10118837 -0.032007933 -0.18861221 0.12494459 -0.22851749 -0.10682137 -0.029409438
-0.13684648 0.04424224 0.1132167 -0.06295711 0.03994912 -0.0826394 -0.16800016 -0.22234005
0.1704427 0.17481962 0.09201978 -0.17734979 -0.15016016 -0.017721236 0.16369039 -0.19189963
-0.21571726 -0.18896395 -0.12527664 -0.06741508 -0.20224664 0.09753132 0.0017688563 0.20088038
0.17748576 0.19528018 -0.116571955 0.14188959 0.18864399 0.038168285 -0.11349031 0.10465344
-0.13619739 0.14283057 -0.21977182 -0.19493565 0.098594025 0.20511948 0.15238366 0.18788324
0.0007694109 0.011598914 -0.18801306 -0.0854457 0.11791859 -0.02009226 -0.13478252 -0.11270857
-0.010000746 0.0033840947 0.12357306 -0.074065864 0.15872222 0.19966981 0.17384075 -0.12104408
-0.043573644 -0.13930742 0.11073638 0.040062223 -0.07690451 -0.20190102 -0.052278914 -0.18832526
0.06511148 -0.1394322 0.18007047 -0.175179 0.20728356 -0.06312184 0.17593329 0.047725182
0.18622452 0.13709398 -0.013899261 -0.059878893 -0.09031907 0.21424024 -0.07005412 0.13007757
-0.04638022 -0.21848632 0.21888988 -0.004344167 -0.15876633 0.12120187 -0.1312628 -0.088246435
-0.20839232 0.08887133 0.03419664 0.1730823 -0.17729333 0.1691631 -0.13470334 -0.15405062
-0.09313587 0.08999469 -0.11586654 -0.2083216

GAT_layers.0.GAT_heads.1.f.weight f4 [32, 124]
00000000: 5b9a e73d e522 d6bd 0d45 ef3c 5092 c53c
00000010: b714 18be fa5b a93c 7b0a d3bd e1b2 68bd
00000020: 9957 103d a767 e2bd f570 ed3d b412 50bb
00000030: 0d7b 12be 624b 2b3e 11b4 c53d 0f67 bdbd
00000040: c5cb 35bc 7968 c03d e2e1 3b3e def5 9abd
00000050: 92eb ae3d 3b4e 693c ec40 ccbc 0a21 1a3d
00000060: f846 223e 94c2 10be 171c 1cbe 6e2c f53d
00000070: adbe 783c ef68 1f3e a054 26bd 6170 3bbb
00000080: 0bd5 78bc 56cf a33c a9ce b83d 0ef1 cc3d
00000090: 429f 053e 27fb b73c f947 753c 9348 d33d
000000a0: 045d aa3d 5a65 9ebd 4894 c4bc 426a 2e3e
000000b0: 0d6a cfba 669a 09be 99a8 3e3e 7501 89bc
000000c0: 0358 f8bd 05c9 113e 5e0d 9b3c 112d 2a3d
000000d0: 9caa bf3d 429d 4fbe 896d babb 51bd e43c
000000e0: c1cf 6fbd 8c2b d43d 093e 10be c63e 083e
000000f0: a876 df3d 479a 9ebc 5242 53be 850d 32be
00000100: 5558 e1bd 62e3 41bc 3a6c 363e 2ec5 9e3d
00000110: dd92 fd3d 6dc7 98bd 0466 2abe 1296 f93d
00000120: f23c 3cbe fec5 5b3d aeae 8e3d 9cd5 73bd
00000130: a2b8 30bc c4e3 a1bd 857f 2a3c 9101 643d
00000140: fb66 f23c 8696 35be e7fd b83d 0766 943d
00000150: 2e27 073e ddfb 073e c8cb c5bd 0512 e2bd
00000160: 7267 5f3c 2536 b93d 5e2b 253e 66cc 4e3d
00000170: fba8 febd 8fdb 243e d9b5 3abe 5146 60bd
00000180: 9bf3 f3bc 8175 b9bd 3a82 dcbd 1c22 c7bd
00000190: b6c1 b63d 08b1 44be 82df 8dbd 7dbc c4bc
000001a0: 73bb 9cbc 7d76 aabc 04de 3e3e 1b63 1c3e
000001b0: 86bc febd 49d3 13be 7916 04be 1bae 18bc
000001c0: b15d f03d e06f 4a3c d06f b73c f50b fcbd
000001d0: 018f ac3d 2119 71bd b971 4ebe d57c 223c
000001e0: c27b 1abe 6c91 223e 36d9 32be 0928 b13d
000001f0: 960f 183e 743a 56bc 3a55 f13d e2fc d3bd
00000200: 311e 913d d5ca cb3c 8b5a e43d 880c 4fbe
00000210: 4189 1abe 504a 263e 5074 0cbe b3b2 ac3d
00000220: 6a4a fdbd f8af fb3d 5637 a53d 463f c63d
00000230: 985c 303e 0fe6 2fbe ab8d 3abd 8147 34be
00000240: f9a3 c4bd a585 323e b59f 1abe 88f7 1ebe
00000250: 444f 28be af04 ebbd 493d 0c3e ed76 fc3c
00000260: 4459 283e 10e9 afbd fe3c 013e 1539 86bd
00000270: 2c00 673a 10c5 4bbe 49f8 293e 99cd 8f3d
00000280: 5cd2 453e 26db 78bd f717 1fbe cfd1 26bd
00000290: dbbb 48be bd87 c3bd 8540 75bc 6b2a ed3a
000002a0: c5ef a93d a962 18bd 54c0 f33d 2614 11be
000002b0: 90ee 8b3d dce4 cf3d 6d4c 89bd 38f5 1ebe
000002c0: b799 85bd b9c4 283e 4f4f 16bd 0ee7 2abe
000002d0: c28c 3e3e eb7f 143d 5dfc 24bd 01c1 1d3e
000002e0: bf26 1bbe 84ae 303e 37dc eeba 0390 34be
000002f0: 2700 113e 4d99 a9bb 333e bb3d 951a 8d3d
00000300: de3b 0b3e 0083 8b3d fb4a fe3d 322c b0bc
00000310: 42a4 50be d309 dbbc be83 293e 084c 99bb
00000320: 4989 7dbc d411 833d 3ac8 163d b0da 12be
00000330: b41f 0fbd 7a94 8abd 8d76 c73d 75ef 273e
00000340: 08d2 033d b680 64bd c595 02bd dc9a 813b
00000350: 7698 b8bd b589 0ebe 6f86 f7bd 10b1 86bd
00000360: 2680 833d c03b 053e 2c9e 43be 148a a13d
00000370: b0fa a0bd 938f 1d3e ec46 06be 0dd5 4ebd
00000380: cb49 04be fe15 1fbd c6de 013e c51a 823d
00000390: 5427 88b9 90fc 3c3e 4a49 403e 46be 98bc
000003a0: d37e 7cbd e69f 9abd ffc6 4fbe 9ffc 1f3e
000003b0: 8599 23be 6649 44be 7a4c cd3d 465b 3e3e
000003c0: 3a81 24be 6b11 d43d e5c8 c93d a17b 013e
000003d0: fee4 23be f226 6b3d 0ce1 44be 5c49 a03d
000003e0: 6aac 0a3e 1200 d3bd a155 d1bd 36d2 463e
000003f0: b218 aabc 2740 04be 15c0 f7bd 94e3 463e
0.11308738 -0.10455874 0.02920773 0.024117619 -0.14851652 0.02067374 -0.10304733 -0.056811217
0.03523979 -0.11054926 0.115938105 -0.003174943 -0.14304753 0.16727975 0.096534856 -0.092481725
-0.011095946 0.093949266 0.18347886 -0.07566427 0.08541025 0.014239843 -0.0249333 0.037629165
0.15847385 -0.14136726 -0.1524509 0.11971365 0.015182179 0.15567373 -0.04060805 -0.0028600919
-0.015187512 0.019996326 0.09023792 0.10006915 0.13049033 0.022458626 0.014970773 0.10316577
0.083185226 -0.07734175 -0.023996487 0.17032722 -0.0015824452 -0.13437805 0.18619002 -0.016724328
-0.12126162 0.14236839 0.018927272 0.041546885 0.09358713 -0.20274833 -0.005689327 0.027922304
-0.05854774 0.103598684 -0.14086165 0.13305196 0.10911304 -0.019360675 -0.20630768 -0.1738797
-0.11003176 -0.011833997 0.17814723 0.07752453 0.123815276 -0.074599124 -0.16640478 0.12186827
-0.18382624 0.053655617 0.06966911 -0.059529886 -0.010786207 -0.07904771 0.01040638 0.055665556
0.02959012 -0.17733201 0.09032803 0.07246023 0.1319854 0.13279672 -0.09658009 -0.11038593
0.013635503 0.090435304 0.16129825 0.0504879 -0.12434574 0.1609938 -0.18233432 -0.05475456
-0.029779246 -0.09055615 -0.10767026 -0.09723303 0.08923666 -0.19208157 -0.06927396 -0.02401566
-0.019132352 -0.020808453 0.1863938 0.1527218 -0.12438302 -0.14436068 -0.12899198 -0.009318854
0.1173662 0.012355775 0.022392184 -0.12306968 0.08425713 -0.058861855 -0.20160569 0.009917458
-0.15086272 0.15875787 -0.17465672 0.08650214 0.14849696 -0.01307546 0.11783834 -0.10350968
0.07085837 0.024876991 0.11150082 -0.20219624 -0.1509142 0.16239285 -0.13716245 0.08432522
-0.12367709 0.12289423 0.08067195 0.09680037 0.17222822 -0.17177604 -0.04554526 -0.17605402
-0.09601588 0.17433794 -0.15099986 -0.15524113 -0.16436487 -0.11475503 0.13695253 0.030818427
0.16440302 -0.08589375 0.12620923 -0.06553856 0.00088119763 -0.19899392 0.1659862 0.070216365
0.19318527 -0.06075587 -0.15536486 -0.040727433 -0.19602911 -0.095473744 -0.014968996 0.0018094307
0.082976855 -0.037203465 0.11901918 -0.14167842 0.068326116 0.10151073 -0.0670403 -0.15523231
-0.065234594 0.16481294 -0.03669673 -0.16689703 0.18608382 0.036254805 -0.040279735 0.15405656
-0.15151499 0.17254072 -0.0018223588 -0.17633061 0.14160214 -0.0051757456 0.09142723 0.06889836
0.13597056 0.06812096 0.12416645 -0.021505449 -0.2037516 -0.026738083 0.16554162 -0.004678253
-0.015474626 0.06399885 0.036812045 -0.14341235 -0.034942344 -0.06766601 0.09739409 0.1639994
0.032182723 -0.05578681 -0.031881113 0.0039552283 -0.090134546 -0.13919719 -0.12086188 -0.06576741
0.06420927 0.13011074 -0.19103307 0.078876644 -0.07860315 0.153868 -0.13112992 -0.05049615
-0.12918775 -0.038839333 0.12682638 0.06352762 -0.00025969243 0.1845572 0.18777958 -0.018645417
-0.061644387 -0.075500295 -0.20290755 0.15623711 -0.15976532 -0.19168624 0.10024352 0.18589506
-0.16064921 0.10354885 0.09852771 0.12644817 -0.16005322 0.057410188 -0.19226474 0.07826492
0.13542333 -0.10302748 -0.102214105 0.19416127 -0.020763729 -0.12915097 -0.120971836 0.19422752

GAT_layers.0.GAT_heads.1.f.bias f4 [32]
00000000: fac6 a8bd 95fe f03a 5aa8 8ebd 0ab7 9b3b
00000010: 8607 cebc 59d1 4a3d 00c6 923d e8e0 563d
00000020: c19d 79bd a2af 88bd 5e24 6bbd 1ede a23d
00000030: 6c71 02bd 3c65 183c 0805 453d 2f61 d1bc
00000040: b9ad eabc 9db1 9fbd 70be 51bd d073 a43b
00000050: fd71 2a3c cebd 4f3c ba7f a33d 5aef 573d
00000060: 843a d73b 229e 823d 76dd 4abd fdcc 4e3d
00000070: fb68 773d ecf5 d7bb 711e 123d 87b2 4abd
-0.08241077 0.0018386418 -0.06965704 0.0047520446 -0.025150072 0.049516056 0.07166672 0.05246058
-0.06094146 -0.06674124 -0.05740773 0.07952522 -0.03184645 0.00930148 0.0481005 -0.025559036
-0.02864729 -0.07797549 -0.051207006 0.0050186887 0.0104031535 0.01267953 0.07983346 0.052718498
0.006568255 0.06377818 -0.049527608 0.05048846 0.06040285 -0.0065905955 0.035673562 -0.049486663

GAT_layers.0.GAT_heads.1.w.weight f4 [1, 124]
00000000: 8a60 a53d e9bb 4c3e 7a23 06bc 1e7d 92bd
00000010: f7fb 4b3e 488c 22be 6c03 ad3d f290 773d
00000020: 9808 5abe aa22 1bbe d598 8ebd c01e db3d
00000030: 17ce f1bd bbae 493e ea56 8abd 066e 2b3d
00000040: 129b a4bc cdf6 24be e357 acbd 2c03 453e
00000050: e410 55bd b9df de3c 25a3 d9bd 81e2 3e3e
00000060: e394 293e 2bfc c2bd 3d11 2bbd 1fd1 63be
00000070: d9bc 253e 0bb3 4e3d 2865 ba3c d5e5 f4bd
00000080: dd0b f13d fa8e 2a3e 54bd 3abe 8d47 b33d
00000090: d860 43be 87ef 7a3c 1e1d 7ebc aee7 63bd
000000a0: ba3e 3bbe 2402 033e f593 383e f4a2 3bbe
000000b0: 2d15 48be d287 063e 139f 5cbe 72b3 7a3d
000000c0: 15b6 d63a 72f7 6e3c 862c 063e cddb 463d
000000d0: 330f 943d 99a8 4dbd 61e2 16be 9167 43bd
000000e0: f489 e73b 9d35 40bb 36d1 b33d 6427 df3d
000000f0: 4efc 59be 379d be3d c212 093e 8295 2abe
00000100: a00b a83c 547a 26bd 0350 d7bd a48d d63b
00000110: c675 e5bd 421b 2b3e d427 c23d 5517 95bd
00000120: 9d2a 44be bb32 d73d 601f 10be f043 b23a
00000130: f28d 243e 7daa 063e 5a7c 1e3e 7bee 35be
00000140: 6bc5 0ebe ff60 f63d a377 9d3d 3e8f 39be
00000150: 81c5 043e a65e 01be 3e68 8739 a92a 21be
00000160: b27d f6bd 0075 1cbe 9666 173d 3b96 bebd
00000170: 7577 333e 56be 4d3e bf02 bc3d 9fdb f4bd
00000180: 1a50 cd3d 071b 1cbe 8840 553e efbd 163e
00000190: d12e e2bd bb2f 173e 5ca1 49be 1e4e 2bbd
000001a0: 4faa 0f3e a0d0 4bbd 6647 5bbd 10b9 b83d
000001b0: fd99 213e 87dc 293e bb99 36bc 1822 9fbd
000001c0: ea65 883d f091 2fbe a3a7 443e ec8f c4bd
000001d0: 0cc1 30bd 0678 863c 19b5 493e 7a96 1bbe
000001e0: 30d4 973d aaab 423e 4ddf 6d3d 7bb5 9c3c
0.08075054 0.19993557 -0.008187169 -0.071527705 0.19920336 -0.15873826 0.08447918 0.060440965
-0.21292341 -0.15149942 -0.06962744 0.106992245 -0.11806887 0.1969556 -0.06754859 0.041852973
-0.020093475 -0.16109772 -0.084152006 0.19239491 -0.05201806 0.027206289 -0.106268205 0.18641092
0.16560702 -0.095207535 -0.041764487 -0.22247742 0.16185321 0.050463717 0.022753313 -0.119578995
0.11769841 0.16656104 -0.18236285 0.087538816 -0.19079912 0.015315897 -0.015509872 -0.05564087
-0.18285647 0.12793785 0.18025191 -0.1832388 -0.19539328 0.13137749 -0.21545057 0.06120629
0.0016381169 0.014585363 0.13102922 0.048549462 0.072294615 -0.050209615 -0.14734794 -0.04770619
0.007066006 -0.002932883 0.08780138 0.10896185 -0.21287653 0.0930733 0.13386062 -0.16658595
0.020513356 -0.040644005 -0.10513308 0.0065476466 -0.11204104 0.16709617 0.09480253 -0.07279841
-0.1915688 0.10507723 -0.14074469 0.0013600569 0.16069773 0.13150974 0.15477124 -0.17766754
-0.13942496 0.12030219 0.076888345 -0.18121049 0.12965967 -0.12633762 0.00025826873 -0.1573893
-0.12035693 -0.15279007 0.036963068 -0.09305998 0.17526038 0.20092139 0.09180211 -0.11955952
0.10025044 -0.15244685 0.20825398 0.14720891 -0.11044086 0.14764301 -0.1969046 -0.041822545
0.14029811 -0.049759507 -0.053534888 0.09019673 0.15781398 0.16588031 -0.011145051 -0.07770175
0.066600636 -0.17145514 0.19204573 -0.095977634 -0.043152854 0.016414654 0.1969799 -0.15194121
0.074135184 0.19010797 0.058074284 0.019129505

GAT_layers.1.GAT_heads.0.f.weight f4 [64, 128]
00000000: 60eb 64bd 1508 4f3d 6315 90bc 7a3e 1d3e
00000010: fb1f 023e f165 c0bd 2803 fdbc 0ab7 94bd
00000020: dff0 43bd e193 e23c 2141 d13c 037a 80bc
00000030: b4e6 4cbd b05c 7a3d 7fd8 22bd 3dc8 1d3c
00000040: 879e 5a3c 66b0 bebd 0c8c 71bd b157 1e3d
00000050: 3f9f b63c 26c2 ed3d 295b 203e ade1 c2bd
00000060: 34ca 15bd 971e 90bd 648f 2ebe 51a5 553d
00000070: 06ae 51bd 158d ac3d 56b5 81bc e0fb 113d
00000080: a4ba c83d b4af 1a3d 2fd9 1b3e c9e4 003d
00000090: 6a25 033e da2e c7bd 9f23 f2bd b2fb 1bbe
000000a0: 6934 2e3e d423 2f3e 3e0e dbbd 7416 6fbd
000000b0: 7366 b8ba 4c33 f03d e5c8 2fbd 8b4b 8e3d
000000c0: 3880 e5bc c7fc a93d 2b7e 203e 3405 ec3d
000000d0: 99e1 33be c01e edbd 608b d9bb 06c0 143e
000000e0: c8ce 2dbe b0c7 12be 2c0a 24be 9145 a33c
000000f0: ba79 993c 8790 cc3d a69e 18be 6a0e 2b3e
00000100: 334c 1c3e def0 8dbd 22a3 ddbb f083 12be
00000110: 58d4 fe3d bc54 8c3c e64d fb3c 9059 183e
00000120: 16d4 093e 91e0 e2bd 2321 31be 4a3c db3d
00000130: f6eb fbbd 6761 06be 3e77 1fbd 189f 79bd
00000140: 8221 9abd 0d43 ab3c 2e05 593d 7ba5 d33d
00000150: 2bb1 ed3d 55c0 103e 17f2 d1bd bfe2 d93d
00000160: 1a9f 023d 3336 4fbd 799c 563d 9548 2dbe
00000170: 3b3a 233e 90ad d4bd 7b5e c1bd fdb0 d6bd
00000180: 688f a53c 3ce8 90bb 605a 68bd c2ef f53d
00000190: 1aca 93bd d7a4 3ebd 42ef 2e3d 049b 493d
000001a0: d61f 0cbe baf5 a73d fe6b c13c 6e8e 1f3e
000001b0: e3b7 0c3e 9d57 873d 7da8 033e 875b 01be
000001c0: 55e6 09be 4b76 bcbd 7d9e c03c ac7d 943d
000001d0: bc73 0f3e 7078 333c 3718 12be ad9a 033d
000001e0: d4a8 22be d2d2 1f3e 356f c73d d3d7 e9bd
000001f0: 86c5 87bc b279 a5bd 8e2f 1bbe 5a00 b53b
00000200: cfad 233e 34cb c23c d630 2e3e 4966 15be
00000210: 65e0 32be 1687 283e c231 34be 9c2e 983d
00000220: 13fe f43b a329 a33d 8ad1 0c3c ff19 553b
00000230: df25 873d 13c6 a53b 88f8 0e3d ffcb bcbd
00000240: bb6c 28be 7b77 0f3e 03de 113e a9a2 0abc
00000250: 1451 2c3e bc31 253d 02ec 1bbe 32af 443d
00000260: 3693 4a3d ef67 93bd e513 fb3d e5cd 233e
00000270: b1a4 e53d c4d1 8d3d e04b d83d 77d9 013e
00000280: a976 2c3e 368c a4bd d2d3 e6bd 379b 323b
00000290: 3ede 23be beb8 df3d 1c52 d03c df12 133d
000002a0: 879b 04be ac0b a1bd 9b1a 1fbe 714b 193e
000002b0: 124e b2bd 6426 063e 8237 1fbe 8812 713d
000002c0: 8d6c 113e 148c da3d aa6e 453c eac6 c8bd
000002d0: 3478 cfbb 1f1d e63d b61d fa3c 65d8 133b
000002e0: 16f8 1bbd f558 053e da3e c2bd b15d a23d
000002f0: 5660 1cbe c3a9 1f3e a5d5 6a3d f018 acbc
00000300: f808 d5bd 66a4 28be 6e39 2f3e 660d d5bc
00000310: acc8 be3d 859d 4aba 9078 fabd 53cc 43bd
00000320: 0d81 3f3d 030b 663d 2e1a 753b 7d6c c1bd
00000330: 8875 10be c34e 193e c7bd 293e 6d4a d43d
00000340: c05f 0fbe db92 303d 99e6 92bd f271 2fbe
00000350: f98f 653d 72b9 6abd a686 9e3d c2dc 2bbd
00000360: 680c 2abd f61e 973d cb71 823c 9ab2 af3d
00000370: e8bb 15bd 4943 84bd c0f8 88bd 32bd 243d
00000380: e9a2 b53d 9fec eabc 9fdb fb3d 1140 053d
00000390: 75d3 243e b47d 0b3e d214 e0bd f93a 143e
000003a0: d098 02be 8feb 7cbd c112 233e e6eb f03d
000003b0: df73 65bd c152 633d acf7 fc3d f166 d4bd
000003c0: 7942 9a3d 1615 5a3c f8a3 ff3d 276c 063e
000003d0: c50f d83d 6fde 203e 262f 7ebd dc6e 993d
000003e0: 8e3d 5ebd 650d b43d 0f15 5e3d 5f1b 32be
000003f0: d510 dcbd f953 01be 33b6 ea3d 9418 d8bd
-0.055888534 0.050544817 -0.017588323 0.15355864 0.12707512 -0.09394444 -0.030885294 -0.072614744
-0.047837134 0.027658405 0.025543751 -0.01568318 -0.050024703 0.06112355 -0.039757248 0.00963026
0.01334346 -0.09310989 -0.05897145 0.038657848 0.022292731 0.116092965 0.15659775 -0.095157005
-0.03656979 -0.070370845 -0.17046887 0.05215961 -0.051191352 0.08425347 -0.015833538 0.035640597
0.09801224 0.03776522 0.15219568 0.031468187 0.12807241 -0.09725733 -0.118232004 -0.15232733
0.1701218 0.17103511 -0.10696076 -0.058371022 -0.0014068618 0.11728534 -0.042916197 0.069480024
-0.028015241 0.083001666 0.1567313 0.1152443 -0.17566527 -0.11578131 -0.0066389292 0.14526376
-0.16973412 -0.14333987 -0.16019505 0.019930633 0.018734802 0.09988504 -0.1490427 0.16704717
0.15263443 -0.069307074 -0.0067638317 -0.14308143 0.12442845 0.017130248 0.030676793 0.14877915
0.1345981 -0.11077989 -0.17297797 0.107048586 -0.12300865 -0.13123094 -0.038932078 -0.06094274
-0.07525922 0.020905996 0.052983455 0.10334297 0.11606058 0.14135869 -0.10251253 0.106389515
0.031890012 -0.050588798 0.052395318 -0.16922219 0.15940182 -0.10384667 -0.09441849 -0.104829766
0.020209983 -0.0044222157 -0.056726813 0.12008621 -0.07216282 -0.046543922 0.042708643 0.0492201
-0.1368402 0.082011655 0.023611065 0.15581676 0.13742022 0.06608508 0.12857242 -0.12632571
-0.13466771 -0.0920225 0.023513073 0.072505325 0.14008993 0.0109540075 -0.1426705 0.032129932
-0.15884715 0.15607765 0.09738008 -0.11418118 -0.016573679 -0.08079852 -0.1515486 0.0055237236
0.15984271 0.023778535 0.17010817 -0.145898 -0.17468412 0.16457781 -0.17597106 0.07430765
0.007476577 0.07966926 0.00859488 0.0032516716 0.0659902 0.0050590127 0.034904987 -0.09218597
-0.16447727 0.14010422 0.14244847 -0.008461633 0.16827804 0.040330634 -0.15226749 0.04801864
0.049456798 -0.07197558 0.12259654 0.15996511 0.11213053 0.06924775 0.10561347 0.12680613
0.1684214 -0.080345556 -0.1127087 0.002725316 -0.16002747 0.10923909 0.025429778 0.03590667
-0.12949954 -0.07863554 -0.15537493 0.14970185 -0.08706297 0.13100582 -0.15548518 0.058855563
0.14201565 0.10671249 0.01205031 -0.09803565 -0.006331468 0.11236023 0.030531745 0.00225594
-0.03807839 0.13022216 -0.09484644 0.079280265 -0.15271124 0.15592103 0.057332654 -0.021007985
-0.10402101 -0.16468963 0.17111751 -0.026007365 0.09315619 -0.0007729161 -0.12230027 -0.04780228
0.04675393 0.056162845 0.0037399638 -0.094445206 -0.14107335 0.14971451 0.165763 0.10365758
-0.1400137 0.043108802 -0.07172889 -0.1713331 0.056045506 -0.05730576 0.07740526 -0.041958578
-0.041515738 0.07378952 0.015923401 0.085789874 -0.036556154 -0.06458146 -0.0668807 0.040219493
0.08868963 -0.028677283 0.12297749 0.0325318 0.1609629 0.1362217 -0.10941471 0.14475621
-0.12753606 -0.061748084 0.15925123 0.11763744 -0.056018706 0.055498842 0.12351927 -0.10371197
0.0753221 0.013310691 0.124824464 0.13127194 0.10549883 0.15709852 -0.062056683 0.07491848
-0.054257922 0.08791617 0.0542193 -0.17393254 -0.10745398 -0.1262969 0.11460533 -0.10551563

GAT_layers.1.GAT_heads.0.f.bias f4 [64]
00000000: a7e8 2abd 07c4 013c 5a27 6cbd b395 313c
00000010: 3eff a2bd 6d96 dfbb 7e41 6c3d 4597 883d
00000020: 0e6f 50bd 78de 373d 1527 32bd 7669 f03c
00000030: e42f 803d 166e eebb 6429 d13c 5135 a5bd
00000040: 4016 57bd 94c1 8c3c b0f3 3d3d 171a 2e3d
00000050: cf82 803d d296 003d ccf1 023d a81a 92bd
00000060: 25e7 a0bd 3f20 003d 88f8 683d 4bbb 9d3d
00000070: c52a 4fbd 5306 9b3c 1070 00bc 7ce8 b6bb
00000080: f19c d23c d202 473c 6be0 943d ffbd 343d
00000090: bc02 53b9 f52d 19bd 7e80 7abd ec77 5dbd
000000a0: a5d6 84bc 8331 fbbc 9451 a8bc ff73 a13d
000000b0: 637a 923d 4c82 393d d343 3b3d 24f7 953c
000000c0: 7bc0 34bd 8d06 0bbd 7864 a0bd 14be 7fbd
000000d0: 7ea4 0e3d a5c9 873d 9183 003d 3337 533d
000000e0: d14d 2b3d 654c aa3d 15fc 44bd 9712 a1bd
000000f0: 0b7e 2fbc 4e40 3dbd 88f9 723d 9136 c4bc
-0.04172578 0.007920272 -0.057654716 0.010838914 -0.0795884 -0.006823352 0.057679646 0.066694774
-0.05088716 0.044889897 -0.043494303 0.029347163 0.062591344 -0.007276307 0.025532432 -0.0806681
-0.052511454 0.017182149 0.046374977 0.04250535 0.0627495 0.031393833 0.031968877 -0.071339905
-0.07856587 0.031280752 0.056877643 0.07701739 -0.050577898 0.018923914 -0.007839218 -0.0055819135
0.025709601 0.0121466685 0.07269367 0.044126507 -0.00020123547 -0.037397344 -0.061157696 -0.054069445
-0.016215632 -0.030663257 -0.020546712 0.078834526 0.0715225 0.045290276 0.04571898 0.018306322
-0.044128876 -0.033941794 -0.07831663 -0.062437132 0.03482484 0.066302575 0.03137547 0.051566314
0.04182226 0.08315352 -0.048091967 -0.07864874 -0.010711203 -0.046203904 0.059320003 -0.0239518

GAT_layers.1.GAT_heads.0.w.weight f4 [1, 128]
00000000: b570 2a3e a94d 353e 7675 37be 85b3 2c3e
00000010: 7d9c 3b3e a292 0f3e b90d d03d 13aa 083d
00000020: 0728 ffbc 8c19 4b3e 5221 323e c7e8 ef3d
00000030: 36e7 913d 9c25 ddbd ad58 883d 7e9c 4d3d
00000040: 05a8 243e 0a5a a23c 0414 763c 6166 b9bd
00000050: a2be d0bd 2b34 f23c 4e9c a7bd 49c4 1c3e
00000060: c4e2 1abe fe0a e73d 7dea 173e 9b34 05bd
00000070: cb35 a2bd e896 2f3e a12a 183e 34ef 463e
00000080: 7d1d 4b3e 5aac f03d 1345 a63d db17 2c3e
00000090: 1897 1b3e 8aa3 3c3e 73a8 423e fe96 683d
000000a0: 9184 4ebe 270a 533e 7f29 a4bd c2ca 023e
000000b0: bd2c ca3d 1636 f13d 8169 b2bd febc a73d
000000c0: 2e3b 5bbe bb3e 21be 492a 383c c35a 3fbd
000000d0: a22a e33d a8c2 edbd 2430 49bd faeb 2abe
000000e0: 82ef 263e 454c 50be 0f9d 8d3c 781d 0dbe
000000f0: 3729 193e af69 c53c 79f9 563e b880 233e
00000100: d48c 15be 7c4d e8bd 1c65 f33c 0552 2e3e
00000110: 5506 f93d 6670 c83d 0297 9c3d 7b6b 4f3e
00000120: 925f edbc e253 19be 47b5 243e bc4c bdbd
00000130: ea01 a73d 85ad 5a3e d860 89bd 4cc1 5cbd
00000140: d903 a63d 3682 a5bd d04f dfbb 2db1 3f3d
00000150: c624 033e e96a 03bd 4b9d 8ebd ca1c adbc
00000160: 30c9 4abe 51b9 07be 010e 1bbe 8cb3 ae3d
00000170: 84ac 823d 1944 f6bd bca6 22be 30c9 073c
00000180: e529 003e 3fa3 febd 4fbb 01be 9f08 9d3d
00000190: 8555 54be dd2d 893d cbcd 073e b130 563e
000001a0: 7add 6bbd 2f4b 4e3d cf07 a4ba e00c 083e
000001b0: 2d58 0a3e c46d 833b 3e88 89bd 8c5a e43d
000001c0: d665 d7bd 86fa 1c3e 0c5f 9dbd 5b1a e5bd
000001d0: f4d1 b73d 507c 183e f4fd 593e c968 bcbd
000001e0: 6987 ccbd 92d7 923d 0ea8 173d 17f3 32be
000001f0: 43c5 5cbe eb92 68bd 1834 953d e3d8 e5bd
0.16644557 0.17705406 -0.17915902 0.16865356 0.18321414 0.1402078 0.101588674 0.03336532
-0.031147016 0.19833964 0.17395523 0.11714321 0.07124178 -0.10798189 0.066575386 0.05019807
0.1607972 0.019818325 0.015019421 -0.0905273 -0.1019261 0.029565891 -0.0818411 0.15309252
-0.15125567 0.112813935 0.14835544 -0.03252087 -0.079204164 0.1714741 0.14860012 0.19427186
0.19835468 0.117516235 0.081186436 0.16805975 0.15194356 0.1842176 0.19009571 0.056784622
-0.20167758 0.20609342 -0.08015727 0.12772658 0.098718144 0.11777894 -0.087115295 0.08190344
-0.21409294 -0.15746586 0.01124055 -0.046717416 0.11092116 -0.11609393 -0.049118176 -0.1669158
0.16302302 -0.20341595 0.017286805 -0.13780773 0.14957128 0.024098245 0.20993604 0.15967071
-0.14604503 -0.11342904 0.029711299 0.17023475 0.12159411 0.09787063 0.0764599 0.20255844
-0.028976236 -0.14973405 0.16084777 -0.092431515 0.08154662 0.21355255 -0.067079246 -0.05389528
0.08106203 -0.080814764 -0.0068149343 0.046799827 0.12806997 -0.03208438 -0.06963595 -0.021131892
-0.1980331 -0.13254286 -0.15142061 0.085303396 0.06380561 -0.12024707 -0.15883917 0.008287713
0.12515981 -0.124334805 -0.12669109 0.0766766 -0.20735748 0.06698201 0.13262098 0.20917012
-0.057584263 0.05036467 -0.0012514534 0.13286161 0.13510199 0.004010888 -0.06715439 0.11150083
-0.105174705 0.15329942 -0.076841444 -0.111866675 0.08975592 0.14891171 0.21288282 -0.09199674
-0.09986765 0.07170023 0.037025504 -0.17475544 -0.21559624 -0.056780737 0.07285327 -0.112230085

GAT_layers.1.GAT_heads.1.f.weight f4 [64, 128]
00000000: ea83 0cbe e71d 4dbd a71c c53d fb9d 0bbe
00000010: 7426 0abd be02 30be 0a04 4bbd 414b 99bd
00000020: 439d be3b bc21 163e e0f0 1ebe f310 213e
00000030: 1c84 07be c09c 0ebe 487c b8bd bb89 063e
00000040: 5e43 4bbd 0dee 1cbd 86e1 0ebe 3344 2b3d
00000050: 9a40 f63c 362e ef3d 106d 2fbe a7db 96bc
00000060: ecf8 b73d 7994 9d3d 9700 6d3c 1961 b4bd
00000070: a8d1 ca3c c809 c5bd c32e 8a3d a4fa a13d
00000080: 4ea4 c3bd 31d9 063e ec22 27bd ab18 ecbd
00000090: ed67 823b 0769 95bd eed7 6c3b 18ec 6e3d
000000a0: 6c77 5dbd 890b fc3d 914a e5bc ae0b 8d3d
000000b0: b6d5 593d 5488 aa3d 3aac 1c3e 2045 babd
000000c0: 08cc 1ebe d935 26be 157f d0bd 1bdc 3e3d
000000d0: 07a7 0b3e 30e3 c03d efd8 ba3d 0872 223e
000000e0: 0122 23be c864 08be 3527 003e b0ed 95bd
000000f0: 733d 12be 4ce6 80bd 996a ce3d 41a9 fc3d
00000100: a8d0 7e3d 87dd b4bc 4ea7 04be b340 d7bc
00000110: 7e5d 5fbd bdb4 d13d 9710 0cbc 7b8c 55bd
00000120: a679 a13d bd2d 793d 9d1b d43b 436b a83c
00000130: 254f 1d3a 18db 99bd ef5d b13d ea1c 48bd
00000140: 2ad3 243e 86d5 913d 0050 093d 57f9 a3bd
00000150: c243 163e 729a 443d 08d2 873b 7425 1abe
00000160: 40ce adbc 915b 6c3c 4d03 3cbd 2780 223c
00000170: 7bfd 92bd 34a9 90bd 11c4 24bc 50e6 10be
00000180: be6d 2abe a0d5 86bd 3078 5fbd 4b3c a0bd
00000190: cc27 b1bc c280 c4bd 2eea 90bd c3b5 583d
000001a0: 268e 19be 3b7d e43d cdbd 1f3e ac04 22be
000001b0: 63f7 763c 017e 273e 7f02 c63c 5767 15bd
000001c0: a3d8 3ebd 40a7 983d 8406 3ebd 8ed7 afbd
000001d0: 110f 8e3d f280 1cbe 4f22 823d 8a26 2d3e
000001e0: 132e f8bb 89ed 063e 607b e43d 93a5 743d
000001f0: 8dfd 483d 0dab fd3c 9f9a 7b3d ce21 c2bd
00000200: 5a40 15be 6d8d 623c 4974 df3b 2abe b8bd
00000210: 1f18 d4bc 623e 3abe 8c78 bcbd 00ec 933d
00000220: 0302 19be a6ce f9bc 63fc 64bc e293 edbd
00000230: 47cb fabd 9213 0dbe ed57 d2ba 5818 043d
00000240: 55f5 6a3d b2c3 c23c 94d3 0abe e463 6c3d
00000250: 9547 253e 4d6c 97bb e0aa 22be ae29 b0bd
00000260: 7ebd 153e e3dd 57bb bc64 b93d 632a bebd
00000270: 0031 e33d 35a7 03bd e94c 0e3e 7ef0 8bbd
00000280: 889c 153e dddf 0cbe 2390 b13d 2135 05bd
00000290: 869f eb3c 15aa f03c 2d7f 2bbe 7719 eabc
000002a0: f4ea 903d 4b16 313d 9163 3ebd 49f1 06be
000002b0: 102c 343e f623 893d 425e febd 3b97 0c3e
000002c0: 89cc 0ebd 1ec5 e33d 2ec5 05bb 6b51 84bc
000002d0: 02cb 563d 9af9 c73c 38e4 26be 2e17 07be
000002e0: cd5f 1ebd 9bc6 f9bb ec8c 2dbe 8553 dabd
000002f0: 8f56 883d cc2c debc fd1d 0abd c016 203e
00000300: 91ea 203e 7dab 053e fae1 fc3d e233 03be
00000310: 54a8 b03d 7a07 05bd 8c0c cfbc 9821 a33c
00000320: a401 1f3d 504d 643d 3cf0 813d 43fb 233e
00000330: 37bd 15be 3dc5 b93d 4984 b93d 69c8 d43c
00000340: 4228 923d c59c fe3d 63a0 16bd 8e71 31be
00000350: b467 823c 04a6 df3d c910 303e e911 02be
00000360: 17c6 f6bd 1a98 94bd ded5 25be 0316 13be
00000370: d5d3 5d3c 736e 25be b363 c2bc fd62 dabd
00000380: cdb4 31bd f942 6b3d 6357 013e d556 c2bd
00000390: 4b2a 073d 0b14 ed3d 3229 973d ed61 e93d
000003a0: 36dc febc a717 0b3e 5dfb e2bc 31f2 2cbe
000003b0: eeb6 753d 7ba5 22be e853 febd eb8d dd3c
000003c0: 2c9b 0b3e f395 17be 84eb 0c3e c0dd bf3d
000003d0: c7d0 90bd 2af1 a9bd bb7f bebd 1994 32bd
000003e0: a9b6 313d d9a1 403d da7e 043e cde3 b9bc
000003f0: 383b 313d ca57 2abe 1279 0fbd 2d7e 053e
-0.13722196 -0.050077345 0.096246056 -0.13634484 -0.033728078 -0.17188546 -0.0495644 -0.07485057
0.005817087 0.14661306 -0.15521574 0.15729122 -0.1323399 -0.13926983 -0.0900808 0.13138478
-0.049624793 -0.03831296 -0.13953218 0.041813087 0.030060101 0.11678736 -0.17131448 -0.018415285
0.08983025 0.076943345 0.014465473 -0.088075824 0.024758175 -0.09621006 0.067472 0.07909134
-0.09552823 0.1316879 -0.04080479 -0.115281425 0.003979674 -0.07295423 0.0036139446 0.058330625
-0.054068968 0.12306888 -0.027989658 0.06886993 0.053182326 0.08326784 0.15300074 -0.09095216
-0.15507519 -0.16231479 -0.10180489 0.046596628 0.13637935 0.094183326 0.09123408 0.15863812
-0.1593094 -0.13319695 0.12514956 -0.07320726 -0.14281254 -0.06293926 0.10078926 0.1233697
0.06221071 -0.022078289 -0.12954447 -0.026275968 -0.05453252 0.10239551 -0.008548877 -0.052135926
0.07884531 0.060834635 0.0064730183 0.020558959 0.0006000868 -0.07512492 0.086604945 -0.0488557
0.16096178 0.071208045 0.03352356 -0.08006542 0.14674285 0.047998853 0.0041449107 -0.1505335
-0.021216512 0.014426128 -0.045901585 0.009918249 -0.07177254 -0.07063523 -0.0100565115 -0.14150357
-0.16643426 -0.065837145 -0.05455798 -0.07824 -0.021625422 -0.09594871 -0.07075916 0.052907716
-0.14995632 0.11156698 0.15599747 -0.15822095 0.01507363 0.1635666 0.024171112 -0.036475506
-0.04659332 0.074537754 -0.046392933 -0.08586036 0.069364674 -0.15283564 0.063542 0.16909233
-0.007573852 0.1317655 0.111563444 0.059728216 0.04906993 0.030965352 0.061426755 -0.09479104
-0.1457533 0.013827664 0.006819282 -0.09020646 -0.025890408 -0.1818786 -0.0920268 0.07222748
-0.14942174 -0.030494045 -0.013976189 -0.11600472 -0.12245803 -0.13776997 -0.0016047932 0.03224978
0.057362873 0.023774955 -0.13557273 0.05771245 0.16140588 -0.0046210648 -0.15885496 -0.086017
0.14623067 -0.0032938651 0.09052417 -0.092854284 0.110933304 -0.032141883 0.13896526 -0.068329796
0.14610493 -0.13757272 0.0867007 -0.03252137 0.02876259 0.029377976 -0.16747732 -0.028576596
0.07076064 0.04323415 -0.046481673 -0.1317798 0.17594934 0.06696312 -0.12420322 0.13729565
-0.03486303 0.111215815 -0.0020411718 -0.016152104 0.052439697 0.024411011 -0.16297996 -0.13192436
-0.03866558 -0.0076225526 -0.16948289 -0.10660461 0.06657135 -0.02712097 -0.033720005 0.15633678
0.1571448 0.13053699 0.12347789 -0.1281276 0.08625856 -0.032477833 -0.025274538 0.01991348
0.038819924 0.055737793 0.06344649 0.16013817 -0.14622961 0.09070823 0.090584345 0.02597447
0.07136585 0.12432245 -0.03677405 -0.17328474 0.01591859 0.10920337 0.17193903 -0.12702145
-0.120495014 -0.072555736 -0.16194865 -0.14363866 0.013539274 -0.16155414 -0.02372918 -0.10663412
-0.043385316 0.057436917 0.12630992 -0.09489218 0.032999318 0.115760885 0.07380904 0.11395631
-0.031110864 0.13583241 -0.02770775 -0.16889264 0.05998891 -0.15883438 -0.124183476 0.02704521
0.13633412 -0.14803295 0.13761717 0.09368467 -0.07071071 -0.082979515 -0.093017064 -0.04359827
0.04338709 0.04702935 0.12939015 -0.022691632 0.043269366 -0.16635051 -0.03502757 0.13036413

GAT_layers.1.GAT_heads.1.f.bias f4 [64]
00000000: d59f 2abd 7461 73bd f249 95bd d957 173c
00000010: 9510 053d ea56 913c 085a e1bb ec37 91bd
00000020: 5b77 3e3d 4cdb 873c de45 c73c 9125 95bd
00000030: 4c5b 5c3c bbed 6abb 7f66 8abc 9548 b1bd
00000040: d019 0a3d 81cf 993b b6ef a0bd 20d3 553d
00000050: 164d 9f3d e17e 013e 1328 8ebd 3fb5 013c
00000060: a040 953d 964e 373d 5a01 92bc 370e 45bd
00000070: 1744 51bc 42dc b2bd 0ebe 8bbd cb01 8bbd
00000080: 456d 983d eecf 80bd 061d b1bd 6c8f 673d
00000090: 67de 453d 6c4c 20bc f1e4 2eb8 24ae 13bd
000000a0: 4f78 febc 1338 fa3c 1ffd 9c39 1ed5 403d
000000b0: 39ad 313d 70b5 073d f81a ff3b 6353 aebd
000000c0: f4ec a1bd 3199 743d d56e e9bb 9f83 373d
000000d0: 8a6f 01bd f5f9 b73c 5ad6 6e3d 8c6d cb3c
000000e0: 71a6 9f3d d938 6bbd a07c 7e3d 3710 82bd
000000f0: d6c9 15bc 02bb 63bb f63c 1fbd ed56 c23b
-0.041656334 -0.05941911 -0.072894946 0.009237253 0.032486517 0.01774164 -0.0068771876 -0.070907444
0.046500545 0.016584061 0.024325307 -0.07282556 0.013449501 -0.0035847265 -0.016894577 -0.08656422
0.033716023 0.004693926 -0.07858221 0.052203298 0.07778375 0.12646057 -0.06941237 0.007916748
0.07287717 0.04475268 -0.01782291 -0.04810926 -0.012772582 -0.08733417 -0.068233594 -0.06787451
0.074427165 -0.062896594 -0.08648114 0.056533262 0.048307803 -0.009783845 -4.169805e-05 -0.036054745
-0.031063227 0.030544316 0.0002994323 0.047078244 0.04337809 0.033132017 0.0077851973 -0.085119985
-0.07906523 0.059716407 -0.007123808 0.044803258 -0.031600513 0.022458056 0.05830989 0.02483251
0.07795418 -0.05742726 0.06213057 -0.06350749 -0.00914236 -0.0034748917 -0.038876496 0.0059307725

GAT_layers.1.GAT_heads.1.w.weight f4 [1, 128]
00000000: f8ee 4ebe 1dc4 213d 4a07 0dbe c708 4e3e
00000010: 7e69 f23d 4f2f 143e 33d1 2d3e 26dc f73c
00000020: 51dc 463e bb4f 2f3e 4429 1ebc b22f 3cbe
00000030: 9868 3fbe ab6d 6ebd 0811 373e e713 59be
00000040: 979a 3a3e c421 04bb 92b9 063e 8764 12be
00000050: 4711 1d3e f3cf 133e 4655 febd 6552 02be
00000060: 48f3 8f3d 9ada 983d a646 333e b1fe f53d
00000070: 1b98 27be 2205 613d 1c4c 93bd 96a2 27be
00000080: 09c0 153e 233a bfbc 2a82 093e 75e6 b43d
00000090: 64a3 823d 0820 0b3e feab 533d 11fd 01be
000000a0: 8f40 42be 0661 1cbd dab1 093e e6a3 2a3e
000000b0: ccaf 2ebe 9e68 0b3e bea8 023e 3346 323e
000000c0: ec3d 4d3d 7d26 34bd c02c 82bd b438 593e
000000d0: 3dd2 3c3e c076 1a3e 3c35 0e3e 1e5b 45be
000000e0: a791 1d3b 21b7 bf3d 835c 57be 3a7a a83d
000000f0: fa0d 4bbd e5b2 0a3e eb75 51be 1104 56be
00000100: 9fea 313c 0ea7 c9bc e88e f3bd ec85 9b3d
00000110: 782a 713c ac77 50be 7584 b0bd aff0 4a3e
00000120: 1f13 a6bc 497a 4bbe daf2 25be 49a7 24be
00000130: fb53 31bd 0639 fcbd 7444 83bd 14d4 1d3b
00000140: 9d4c 0e3e 95aa 21be 7bb0 2dbe 2062 6e3d
00000150: 8b3e aabd 97ce f13d 10a0 9dbd 7c22 023e
00000160: 86bb 623d 214f 3c3d 6c44 2fbe 42a6 213e
00000170: 8450 543e 51cf 523e c15d 0b3e 759b 75bc
00000180: 264a 213e a566 e83d 5b8f 1ebd 70d8 37be
00000190: d04c 3fbe e96f 1b3d c6f4 0e3d e509 4c3e
000001a0: 2152 e03b 6c14 39be 2bb9 4bbe b574 1ebe
000001b0: 8889 213e dc01 393e b37d 233d 6583 c53d
000001c0: 9021 2dbe d90d 6abd 488d 963d 9b22 f53d
000001d0: 482f 21be 9f88 c3bb 228a 13be b686 59be
000001e0: 3338 433e ec80 04be e68e 59be 77b4 673d
000001f0: 0f2e 7bbd 91d3 d0bd c3bf 1bbd 970e 11bb
-0.20208347 0.03949367 -0.13772312 0.20120536 0.11836527 0.14471172 0.16974334 0.030256342
0.19419982 0.17120259 -0.009653393 -0.1837757 -0.18692243 -0.058210056 0.1787759 -0.21198998
0.18223034 -0.0020161727 0.13156727 -0.1429616 0.15338622 0.14434795 -0.12418608 -0.12726744
0.07028824 0.0746357 0.17507419 0.12011469 -0.16366617 0.054936536 -0.07192251 -0.16370615
0.14624037 -0.023343151 0.1342856 0.08833019 0.063788205 0.13586438 0.051677696 -0.12694193
-0.1896994 -0.038178466 0.13446751 0.16664085 -0.17059249 0.13614127 0.12759683 0.17409591
0.05010788 -0.043982018 -0.06356192 0.21213037 0.18439575 0.15084362 0.13887495 -0.1927304
0.0024043114 0.09361101 -0.21031384 0.08226438 -0.049573876 0.13544805 -0.20455138 -0.20899989
0.010859161 -0.02461579 -0.118924916 0.07593903 0.014719598 -0.20358151 -0.08619014 0.19818376
-0.02027279 -0.19870867 -0.16205922 -0.16079439 -0.04329298 -0.12315564 -0.06409541 0.0024082707
0.13896413 -0.15787728 -0.16961853 0.058199048 -0.083127104 0.11806982 -0.07696545 0.12708467
0.055354618 0.0459739 -0.17115945 0.15786079 0.2073384 0.20586897 0.13609983 -0.014990677
0.15750942 0.11347703 -0.038710933 -0.17953658 -0.18681645 0.037948523 0.034901403 0.1992565
0.006845728 -0.18074197 -0.19894855 -0.15474208 0.1577512 0.18067116 0.039914798 0.09644202
-0.16907334 -0.057142112 0.07351166 0.11969491 -0.15740693 -0.0059672142 -0.14408162 -0.21242794
0.19064407 -0.12939805 -0.21245918 0.05656859 -0.06132322 -0.10196603 -0.038024675 -0.002213394

GAT_layers.1.GAT_heads.2.f.weight f4 [64, 128]
00000000: b69a 30be f162 9b3d e5d1 6d3d d90b 04be
00000010: 0424 f93d 17ee 883d b3f7 1abe 9c3f 03be
00000020: 3625 ccbd e97b 34be aa27 bd3d b6c3 6cbd
00000030: 0804 c8bc dccd 303e 90fe 073e d7c3 cbbc
00000040: 86ed 74bd 463a 0d3e c099 d7bc fad5 0dbe
00000050: 3d43 2a3e e149 323e dc0d 90bd a2cb c03d
00000060: 8b96 8c3c b27a 2c3e 2b47 a1bd a8a7 f33b
00000070: 84f6 e3bd bd60 08be 6a62 ef3d 0931 03be
00000080: e3ab cbbd d98b 24bd a9de ecbd f63d 713d
00000090: 0ced 0d3e d46d b33d 13e8 07be f3f0 06bd
000000a0: e8f1 dc3d e8e6 a63d 6ca4 053e a810 b2bd
000000b0: 4d94 8d3d bc9f 143d 5d00 973d 8595 1e3e
000000c0: c326 8d3d 6d06 253d 3103 abbd a06c ddbd
000000d0: 6764 10bd 88be 33bd 14b0 be3d 220b 2abe
000000e0: 23ed b33c 1c41 0e3c e0ff 153c 33a9 b9bc
000000f0: a4a5 0fbd 95e1 13be 904d c33d dac8 53bd
00000100: f40e b2bc 3277 08be 8d2b 35bd 5d1f 6a3d
00000110: adf2 253e 4d10 193e c6c8 1c3e 9e07 a1bb
00000120: dade 2f3e 482d e03d 3aa9 babd 65b9 2b3e
00000130: d361 343d 35b5 283e f4a3 a43d c980 883d
00000140: d26b 00be b0dc 173e dcc3 f9bd 21a1 f83d
00000150: cb95 d63d 6fef 33bd 6422 0ebe ccee a3bd
00000160: 3cb0 4a3b 881a c43d 0e68 c9bd e200 b2bd
00000170: 5e49 ae3d 4890 153e eacc 24be 041c afbd
00000180: e6f4 103e dea6 bbbd a582 02be 0956 893d
00000190: 6554 b83d e15f cebc ea78 39bd afc1 1a3e
000001a0: 8e00 39bd 95b3 24bd 5256 f0bd 0c8f bbbd
000001b0: 3b6d 6fbd 26da 77bd 5947 30be 2a18 04be
000001c0: 2c0a 28be 1e4b 1abe 9bb7 0bbd bcd8 513d
000001d0: 775c 11bd b5ec 02bd 9fe3 e3bc 6443 1dbd
000001e0: 0d2f 0abc d77b ecbd 7244 d9bd 8701 0abb
000001f0: 6bb5 10be de71 0f3e 29b8 c33d 7f7d a53d
00000200: d327 94bd 4788 123e 5376 efbd 06d5 963c
00000210: 691b d53d a0e2 4f3d 1fdb 27be 00f6 2dbe
00000220: 809c 33be 5551 4bbd ebd6 06bd c490 afbc
00000230: a04f 1b3e e2d9 303e bd27 133e 21bc 713d
00000240: b59c 15be 56fd e03d 24f8 b73c 1ec0 27be
00000250: 52b1 d4bd f9cf 3abd e2ee 76bd 43bb 9cbd
00000260: d2e6 a3bd 3f4f 22be d7ac d73c 055f 7c3c
00000270: 6579 4bbd 3090 5e3d 13c1 0dbd 455b a9bd
00000280: a755 06be 7d7a cd3d 986f e93d e40d 463d
00000290: d569 09bd 3a02 c63d f769 39bd 786b d9bd
000002a0: b948 10bd 7ca6 a7bd ebdb dcbd dd0b 103e
000002b0: d890 1c3e 3e0f 113e cfd9 12be 324b a03d
000002c0: 1bef ad3d 1226 18be ce41 ccbd 69b2 e93d
000002d0: 2a1e 02be e078 5a3d 6142 f8bd 08e9 f43d
000002e0: 8dc9 d6bd fc8d e2bd f67c 263e 8e22 4f3d
000002f0: 9ac2 cbbd edeb 1f3e bfd4 10be 5a95 dd3d
00000300: 812a d93b bf1f 473c 1144 c1bd 4816 9abd
00000310: b23d 013e 4570 2abe 2906 2bbe c03c 0bbe
00000320: 4e62 f93d ac6c 07be cead fa3d c887 9d39
00000330: 2821 09be 1144 22be 6e50 2dbe 7728 493c
00000340: 1714 b53d 1fb9 093e ad8b d3bd 236b ec3d
00000350: 5872 19be 6025 1abe 57b1 f3bd 5e35 ebbd
00000360: 80ab fcbb 6c40 48bd 1f49 cdbd 3ec0 1dbe
00000370: aa1d af3d 62d2 073d 181b 133e bdb0 323e
00000380: 0631 a2bd e187 18be 625e b63d 49f9 ad3d
00000390: b123 6fbd 25a5 c5bd a1cb 883d 4a9f fa3c
000003a0: b289 163e d049 bebd 1dbb 473d 70fe 27be
000003b0: e1a2 01be 8559 0ebe 1cce 483d 38e1 0abe
000003c0: 65f7 2dbe bdb1 db3d 6de5 43bc 095f 60bd
000003d0: e8f2 843d dd42 463d 7f8e bbbc 7dc9 663d
000003e0: 58ee 863b 0128 33be 2b14 b0bd 6f3a fdbd
000003f0: 5821 24be ced0 2d3e 8197 abbc 1229 15bd
-0.17246518 0.07587231 0.0580615 -0.12895145 0.121650726 0.06686037 -0.15133552 -0.12817234
-0.09968035 -0.17625393 0.09236081 -0.057803832 -0.024415985 0.17266029 0.13280702 -0.024873657
-0.059796833 0.13791761 -0.02631843 -0.13851157 0.16627212 0.17410995 -0.070338935 0.0941384
0.017161628 0.1684368 -0.07874902 0.0074357577 -0.111310035 -0.13318153 0.11688693 -0.12811674
-0.09944894 -0.04017243 -0.115659066 0.05889698 0.13859957 0.087611824 -0.13272123 -0.03294463
0.107883275 0.081495106 0.13051003 -0.08694583 0.06913052 0.036285147 0.07373116 0.15486725
0.06892159 0.04028933 -0.08350218 -0.10811734 -0.035252 -0.043882877 0.09310928 -0.1660581
0.021963662 0.0086825155 0.009155244 -0.022663688 -0.035070077 -0.14441521 0.09536278 -0.05170522
-0.021735646 -0.1332672 -0.044230986 0.057158817 0.16205855 0.14947625 0.15310964 -0.004914238
0.17174855 0.10946137 -0.09114309 0.16769941 0.044038605 0.16475375 0.08039084 0.06665189
-0.1254113 0.1483028 -0.1219556 0.12140108 0.104777895 -0.043929514 -0.13880306 -0.08004531
0.0030927798 0.09575373 -0.098343 -0.08691575 0.085100874 0.1460582 -0.16093794 -0.085502654
0.14155921 -0.09162687 -0.1274515 0.06705863 0.09000472 -0.025192203 -0.04528133 0.15112947
-0.045166545 -0.040210325 -0.11735214 -0.091581434 -0.05845378 -0.060510777 -0.17214717 -0.12899843
-0.1641013 -0.15067717 -0.034110647 0.051232085 -0.035488572 -0.031964023 -0.0278185 -0.038394347
-0.008434069 -0.11547058 -0.10608758 -0.002105804 -0.14131705 0.1400828 0.0955661 0.08080577
-0.07234158 0.14309798 -0.116924904 0.018412124 0.10405619 0.050753236 -0.16392182 -0.16988373
-0.17540169 -0.04963811 -0.032919805 -0.021431334 0.15167093 0.17270616 0.14370628 0.059017304
-0.1461056 0.1098582 0.02245719 -0.1638188 -0.10385384 -0.045608494 -0.06028641 -0.07652905
-0.0800301 -0.15850542 0.026327534 0.015403514 -0.049676318 0.054336727 -0.034607958 -0.082693614
-0.13118611 0.100331284 0.11398238 0.04835309 -0.033548195 0.096683934 -0.04526707 -0.10616201
-0.035225604 -0.08186051 -0.107841335 0.14067025 0.15289629 0.1416597 -0.143409 0.07826842
0.084928714 -0.14858273 -0.09973489 0.11410982 -0.12706819 0.05333793 -0.12122036 0.1195851
-0.104876615 -0.110622376 0.16258606 0.050570063 -0.09949227 0.15617342 -0.14143656 0.10819502
0.0066273813 0.012153565 -0.09436811 -0.07523781 0.12621191 -0.1664439 -0.16701569 -0.13597393
0.12176953 -0.13225049 0.12240182 0.00030046538 -0.13391554 -0.15846278 -0.16925213 0.012277714
0.088417225 0.13449524 -0.103293754 0.11543872 -0.14985025 -0.1505332 -0.11899059 -0.11484788
-0.007710874 -0.048889562 -0.10023712 -0.15405366 0.0855058 0.03315962 0.14365804 0.17450233
-0.07919507 -0.14895584 0.08904721 0.08494813 -0.058383647 -0.096506394 0.06679464 0.030593533
0.14700964 -0.09291422 0.04876243 -0.16405654 -0.1265979 -0.13901336 0.049024686 -0.13562477
-0.16988905 0.1072726 -0.011956555 -0.054778133 0.06491643 0.04840361 -0.022895096 0.056344498
0.0041177683 -0.17495729 -0.08597597 -0.12364661 -0.16028345 0.16974184 -0.020946266 -0.03641612

GAT_layers.1.GAT_heads.2.f.bias f4 [64]
00000000: 74d4 b23c d710 67bd 7c19 5ebd eef5 0e3d
00000010: d24c 8abd 9132 b0bd 0b97 74bd b61f db3c
00000020: 2854 5e3d f3f1 acbd 28f4 a13d 626c 2dbd
00000030: 9f71 873d a257 843d 19cf 8fbd 4697 92bd
00000040: d757 503d 5f01 a23d 98a9 dfbc cf74 6cbc
00000050: b79c a9bb 268b 823d 203a 483c 85e5 973d
00000060: 1847 d4bc 6845 db3b f180 a4bd 3b23 de3c
00000070: 4609 4a3d 7b92 8e3d e1d3 f1bc 3bae 3cbd
00000080: 3bf0 463d d2ce 8cba d02f 893d 683a 853d
00000090: 9a3e 713d f465 0bbd b45d 81bd c041 463d
000000a0: 2a16 283d dd43 a03d 8195 5ebd e84a b4bd
000000b0: 3444 5dbd 6b04 52bd eb57 e03c a4c8 483d
000000c0: dbc0 5ebd 4e16 6e3b 898b aebc 2f02 883c
000000d0: 932b 86bd 3aca ed3c a06f 0cbc 0e94 9c3d
000000e0: 2810 1f3d 93e5 83bd 4c4a 223d 8cb9 2a3d
000000f0: 16de 7cbd cf1c b2bc bdef e23c dd36 8e3d
0.021829821 -0.056412544 -0.054223523 0.034902506 -0.067529336 -0.08603395 -0.05971436 0.02674852
0.054279476 -0.08444586 0.07907897 -0.04233969 0.066134684 0.06462027 -0.070219226 -0.07157759
0.05086502 0.07910418 -0.027302548 -0.014432146 -0.0051761526 0.06374197 0.012220889 0.07416824
-0.025912806 0.0066916235 -0.08032406 0.027116409 0.04932525 0.06961533 -0.029519977 -0.046064597
0.048568945 -0.001074279 0.06698573 0.06505281 0.058897592 -0.034032777 -0.063167006 0.048402548
0.041036762 0.07825444 -0.054341797 -0.0880335 -0.05402012 -0.051273745 0.027385673 0.04901947
-0.05438314 0.0036329213 -0.02130677 0.016602604 -0.0655128 0.029027093 -0.008571535 0.07645427
0.038833767 -0.06440272 0.039621636 0.041680858 -0.061735235 -0.021742253 0.027702207 0.06944058
