SLIC_GAT/last9.pt (torch, 80373 bytes, 12 tensors)

GAT_layers.0.f.weight f4 [32, 124]
-0.1846692 0.17644058 0.050237007 -0.15776734 0.19990434 -0.134891 -0.14512242 0.1419802
-0.15152636 -0.12039512 -0.149773 -0.13209292 -0.024831 0.019939994 -0.08193354 0.18046238
0.2033863 0.011508123 0.12911558 0.04640967 -0.0060999366 0.21723755 0.06723472 -0.10758398
-0.026250886 -0.13866106 0.17319623 -0.062354222 0.14757663 0.033258904 0.17026109 -0.1744371
0.050001238 -0.09230079 -0.0045866505 -0.0035620795 -0.101261206 0.11233881 0.049697902 -0.0032286446
0.024451815 -0.05721858 -0.06749289 -0.070634894 0.0072405045 0.054731186 -0.18173374 -0.093512885
-0.13267346 0.087623455 -0.17031531 -0.15229256 0.13345534 0.089486025 0.038191464 0.22343239
-0.16984448 -0.11932421 -0.11871476 5.839025e-05 0.0023546703 -0.17788908 -0.082752585 0.034640264
0.16254275 -0.0651545 0.19202487 0.070700675 0.18394986 0.122069225 -0.09014516 -0.06478564
0.032201633 0.03520716 0.12726776 0.21596555 0.1286614 -0.080178544 0.13703309 0.22504805
-0.18395178 -0.01707081 0.08214543 0.15004441 0.030292837 -0.16574106 -0.086194694 0.04555089
0.14173472 0.19656362 0.018501583 -0.0751305 0.17156328 -0.06554036 0.042041063 0.13841544
0.11575935 -0.18505366 -0.097277306 0.10805606 -0.16407585 0.000563267 -0.040860012 0.008627666
0.15914448 -0.15759543 0.15193619 0.11962201 0.10519374 -0.07833596 0.18028131 -0.006734385
-0.1418111 0.13995717 -0.2431936 0.13465674 0.03895512 -0.099955164 0.08705926 0.070246294
0.17155218 0.12512976 0.042019192 -0.099677786 -0.16664416 0.11468628 0.015371081 -0.016222587
0.08271555 0.027244205 0.08888558 0.038755458 0.13454987 0.04400031 -0.14009231 0.009375225
-0.065289974 -0.13203005 -0.029448463 -0.02175016 -0.11342976 0.18412453 0.08922081 -0.032160718
-0.092367545 -0.13848986 0.19035839 0.05709744 -0.1725235 0.112499595 0.1447732 0.08257058
-0.05401404 0.09740875 0.06868701 0.07356444 0.16772941 0.018846687 0.19133353 0.10763934
-0.00974749 -0.085135445 -0.15834683 -0.06590991 0.01697413 -0.15316586 -0.1285615 0.11913867
-0.027035788 -0.13519712 0.07780694 0.102630526 0.05832446 -0.12451833 -0.009960495 0.15927601
0.1388592 0.11796017 -0.057696313 0.025516821 0.112645574 -0.0378632 -0.08332308 -0.07547798
-0.18141952 0.016771853 -0.18618546 0.18336637 -0.10480135 0.108894244 0.010986982 0.1763379
0.15161021 0.0520236 -0.039960444 -0.17294787 0.18034656 -0.09068921 -0.14266148 -0.055209193
0.06518213 -0.00596985 -0.07565687 -0.1480956 -0.1349208 0.15452488 -0.0076520583 -0.16569193
-0.04643831 0.06406558 0.14538366 0.14852737 -0.09906815 0.13479799 -0.08251372 0.017548637
-0.027462883 0.057052054 -0.17394122 -0.18617071 0.16051595 0.06557995 -0.012478189 -0.036323626
-0.11869833 -0.16028811 0.12966602 0.07289598 -0.12769906 -0.009067446 -0.004967448 0.047708735
0.03947311 -0.0129820965 0.03279066 0.16667214 0.18042116 0.019448308 -0.03391703 -0.18906651
-0.18473528 -0.06376492 -0.12036481 0.12516823 0.17590109 0.0390957 -0.18810393 0.091608405
-0.10783235 -0.030658834 -0.06659079 -0.14601932 -0.081697464 -0.09125047 0.16225097 -0.19156118
00000000: ec19 3dbe d7ac 343e 52c5 4d3d c38d 21be
00000010: b9b3 4c3e de20 0abe f99a 14be 4263 113e
00000020: ba29 1bbe b791 f6bd 185e 19be 5e43 07be
00000030: 626a cbbc 3359 a33c c6cc a7bd 21cb 383e
00000040: 8044 503e 918c 3c3c e036 043e 1118 3e3d
00000050: fae1 c7bb 8573 5e3e 5bb2 893d fd54 dcbd
00000060: 190c d7bc 2afd 0dbe 5a5a 313e 2467 7fbd
00000070: 541e 173e 7d3a 083d ec58 2e3e a49f 32be
00000080: 19ce 4c3d 3208 bdbd 9d4b 96bb c771 69bb
00000090: 0962 cfbd e411 e63d 0790 4b3d ab97 53bb
000000a0: 2c4f c83c 085e 6abd b639 8abd 07a9 90bd
000000b0: c141 ed3b cf2d 603d 6918 3abe af83 bfbd
000000c0: 8ddb 07be ed73 b33d 2367 2ebe 95f2 1bbe
000000d0: 84a8 083e 7344 b73d a76e 1c3d 76cb 643e
000000e0: b6eb 2dbe 4060 f4bd b920 f3bd 0ee8 7438
000000f0: d050 1a3b 8e28 36be 307a a9bd f3e2 0d3d
00000100: 9b71 263e b96f 85bd 2ba2 443e 84cb 903d
00000110: 5a5d 3c3e 6eff f93d 079e b8bd 55ae 84bd
00000120: dce5 033d 6235 103d 7b52 023e 1326 5d3e
00000130: d0bf 033e a634 a4bd 6752 0c3e ff72 663e
00000140: db5d 3cbe 15d8 8bbc dd3b a83d 3ea5 193e
00000150: af28 f83c 06b8 29be d886 b0bd 9293 3a3d
00000160: e822 113e f947 493e a290 973c 05de 99bd
00000170: 49ae 2f3e 063a 86bd 4033 2c3d c7bc 0d3e
00000180: 3d13 ed3d b57e 3dbe 5339 c7bd 7f4c dd3d
00000190: 8003 28be 35a8 133a d45c 27bd 0e5b 0d3c
000001a0: c5f6 223e b260 21be 2995 1b3e 62fc f43d
000001b0: d16f d73d 9b6e a0bd aa9b 383e 1eac dcbb
000001c0: ee36 11be ef50 0f3e be07 79be 75e3 093e
000001d0: 678f 1f3d 4bb5 ccbd 204c b23d 4add 8f3d
000001e0: 60ab 2f3e 0422 003e 511c 2c3d de23 ccbd
000001f0: c4a4 2abe a4e0 ea3d fdd6 7b3c 3be5 84bc
00000200: c566 a93d 3d2f df3c a509 b63d 0bbe 1e3d
00000210: 71c7 093e ab39 343d 5c74 0fbe 8b9a 193c
00000220: c0b6 85bd e332 07be e73d f1bc 642d b2bc
00000230: dd4d e8bd 248b 3c3e 66b9 b63d f5ba 03bd
00000240: 322b bdbd 49d0 0dbe 4fed 423e 01df 693d
00000250: 00aa 30be 3066 e63d 6d3f 143e c41a a93d
00000260: d33d 5dbd 3d7e c73d c6ab 8c3d f4a8 963d
00000270: 42c1 2b3e 5e64 9a3c f0ec 433e 0472 dc3d
00000280: f0b3 1fbc 7e5b aebd ac25 22be c6fb 86bd
00000290: 550d 8b3c 83d7 1cbe a0a5 03be fafe f33d
000002a0: 287a ddbc 1d71 0abe 3f59 9f3d f42f d23d
000002b0: a1e5 6e3d 7703 ffbd 5831 23bc 4019 233e
000002c0: 1b31 0e3e 1a95 f13d f852 6cbd a708 d13c
000002d0: b9b2 e63d 7116 1bbd 4aa5 aabd 3394 9abd
000002e0: 0ac6 39be 2065 893c 67a7 3ebe 65c4 3b3e
000002f0: 17a2 d6bd f203 df3d be02 343c ec91 343e
00000300: b53f 1b3e b316 553d 90ad 23bd 3f19 31be
00000310: c5ac 383e 44bb b9bd da15 12be 0923 62bd
00000320: 357e 853d bb9e c3bb fdf1 9abd 5fa6 17be
00000330: ae28 0abe c53b 1e3e 1ebe fabb 25ab 29be
00000340: 1936 3ebd d134 833d 74df 143e 8f17 183e
00000350: 3ee4 cabd 7c08 0a3e f4fc a8bd 29c2 8f3c
00000360: d7f9 e0bc 6aaf 693d a61d 32be 89a3 3ebe
00000370: 4b5e 243e c84e 863d 5171 4cbc 15c8 14bd
00000380: 1c18 f3bd 9122 24be 2bc7 043e 7d4a 953d
00000390: 8bc3 02be a08f 14bc f9c5 a2bb 3c6a 433d
000003a0: 8eae 213d dcb2 54bc 804f 063d 1aac 2a3e
000003b0: 53c0 383e 0f52 9f3c 95ec 0abd a79a 41be
000003c0: 3f2b 3dbe 2f97 82bd d381 f6bd 1a2c 003e
000003d0: 6a1f 343e d022 203d 519e 40be 309d bb3d
000003e0: 35d7 dcbd 3c28 fbbc c160 88bd 1786 15be
000003f0: 0051 a7bd 87e1 babd 1e25 263e 9d28 44be

GAT_layers.0.f.bias f4 [32]
0.0182611 -0.084290825 0.06103256 0.06613056 -0.035725806 0.035812754 -0.021171808 -0.02721798
0.084871754 -0.002404798 0.028696703 0.074731536 0.15503822 -0.023802128 0.019606387 0.027798805
0.006491881 0.0063931574 0.0269389 -0.018785352 0.052444827 -0.07034677 0.011470023 -0.033857644
-0.0054413592 -0.0808272 -0.06971117 -0.024376681 -0.06053203 -0.02197031 -0.08043846 -0.064427756
00000000: 4d98 953c aba0 acbd 47fd 793d 766f 873d
00000010: 3955 12bd 65b0 123d 8070 adbc 3ef8 debc
00000020: 3ed1 ad3d d199 1dbb 5915 eb3c d90c 993d
00000030: 57c2 1e3e aefc c2bc 939d a03c 52ba e33c
00000040: d8b9 d43b b17d d13b f8ae dc3c bde3 99bc
00000050: 63d0 563d f811 90bd c3ec 3b3c 50ae 0abd
00000060: 6e4d b2bb bb88 a5bd bbc4 8ebd 9bb1 c7bc
00000070: 6ff0 77bd 14fb b3bc ebbc a4bd b3f2 83bd

GAT_layers.0.w.weight f4 [1, 124]
-0.1844995 -0.07109395 0.08844989 0.025217546 0.18017493 -0.21015762 0.08031457 0.017328111
-0.066839695 0.07929025 0.20016962 -0.05451554 0.03755564 0.08314134 0.18318094 0.03334171
0.06739831 0.09512803 0.09357071 0.12054205 0.09714528 0.05900051 -0.09870576 -0.0677231
0.12209063 0.025663393 0.14396332 -0.19815548 0.12847255 0.0030186696 -0.03735743 -0.20836246
-0.045316238 0.1297297 0.07796597 0.038820487 -0.08490254 -0.0067415657 -0.068386465 0.046051744
0.07014822 -0.16878389 -0.13414432 -0.20113392 -0.10602706 0.13511889 0.21091992 -0.14267407
-0.059397824 0.1735819 -0.05522675 -0.07740805 -0.15303616 0.016712552 -0.12589157 0.042696618
-0.101118915 -0.028046783 0.11088308 0.1618067 -0.18532707 -0.09350655 0.025610927 -0.03929223
0.015220801 0.16687521 -0.0047379625 -0.21368636 -0.07176866 0.18021308 0.057077367 -0.19584915
-0.17616452 -0.05784069 -0.110809416 -0.102476336 -0.057897016 -0.09200865 0.16141912 0.22275479
-0.018013308 -0.21551907 -0.010008767 0.11776917 -0.015210245 0.08706144 -0.035697427 0.20869194
-0.071299225 0.053530928 -0.05518448 -0.12790549 -0.103011996 0.11860197 -0.19832668 -0.11795053
-0.0006328067 0.07474732 -0.2173036 -0.05741659 -0.11126698 -0.078513876 0.021960776 0.17974836
0.20450002 0.07607469 0.175811 -0.15414159 0.12432205 -0.008327469 -0.06858938 0.093014404
0.09889413 -0.10993791 0.13149825 0.12202298 0.0012749325 -0.08496486 0.05560795 -0.008930024
0.12880294 -0.09552 -0.10091538 -0.031261604
00000000: 70ed 3cbe b499 91bd 3725 b53d 0795 ce3c
00000010: c77f 383e 8f33 57be f77b a43d aff3 8d3c
00000020: 40e3 88bd ed62 a23d 44f9 4c3e b04b 5fbd
00000030: f1d3 193d 0246 aa3d c993 3b3e 5191 083d
00000040: 2008 8a3d 7cd2 c23d 00a2 bf3d c0de f63d
00000050: 1bf4 c63d 85aa 713d 3f26 cabd 69b2 8abd
00000060: a70a fa3d 093c d23c 1f6b 133e 45e9 4abe
00000070: 4f8e 033e dfd4 453b 1b04 19bd f85c 55be
00000080: 859d 39bd ddd7 043e 9fac 9f3d 3b02 1f3d
00000090: 62e1 adbd 5ae8 dcbb 340e 8cbd c1a0 3c3d
000000a0: dfa9 8f3d afd5 2cbe 215d 09be 0df6 4dbe
000000b0: b724 d9bd 9b5c 0a3e 64fb 573e 2719 12be
000000c0: 224b 73bd 74bf 313e 7235 62bd 1d88 9ebd
000000d0: 83b5 1cbe c3e8 883c b8e9 00be a6e2 2e3d
000000e0: 6f17 cfbd 5ec2 e5bc ab16 e33d a8b0 253e
000000f0: 61c6 3dbe 5d80 bfbd 02ce d13c e4f0 20bd
00000100: ab60 793c 56e1 2a3e e940 9bbb 99d0 5abe
00000110: 72fb 92bd c789 383e f5c9 693d ae8c 48be
00000120: 7964 34be 5cea 6cbd 0cf0 e2bd 1ddf d1bd
00000130: 6c25 6dbd 086f bcbd 0e4b 253e d519 643e
00000140: a590 93bc 08b1 5cbe d0fb 23bc f630 f13d
00000150: 6434 79bc 454d b23d 7737 12bd 57b3 553e
00000160: 5405 92bd 3f43 5b3d 1f09 62bd a8f9 02be
00000170: f4f7 d2bd 97e5 f23d 2616 4bbe 0c90 f1bd
00000180: f0e2 25ba 1f15 993d d684 5ebe a92d 6bbd
00000190: f1df e3bd e2cb a0bd 16e7 b33c f40f 383e
000001a0: 7468 513e 0ccd 9b3d cc07 343e 4bd7 1dbe
000001b0: 8f9c fe3d f06f 08bc 9778 8cbd 567e be3d
000001c0: 0189 ca3d 2127 e1bd 7aa7 063e 2fe7 f93d
000001d0: a31b a73a 0e02 aebd 29c5 633d 3c4f 12bc
000001e0: ebe4 033e fd9f c3bd b9ac cebd 2b0c 00bd

GAT_layers.1.f.weight f4 [64, 64]
-0.09129546 0.052012462 -0.1286125 0.16909808 0.16368552 0.11653195 -0.09768119 -0.039777245
0.16338453 0.008655213 -0.023509225 -0.14477983 -0.07740447 -0.0860514 -0.20132731 0.090845235
-0.25388417 0.03417611 -0.124671884 -0.050954714 0.084904164 -0.1268379 -0.103361614 -0.059191458
-0.14937365 0.086479925 0.10725664 0.08448196 0.10910538 0.060470212 -0.03806568 -0.09123903
-0.026905319 -0.2657033 -0.13242859 -0.015958091 -0.23254229 -0.17176887 -0.27370214 0.12181012
0.07252633 -0.08581462 -0.007243513 0.12179685 -0.14567061 -0.23795359 -0.027059946 0.19520599
0.034701746 0.0724274 0.08431784 0.09589654 -0.047299918 -0.18614358 -0.16338661 0.07468525
-0.1612655 0.037776094 -0.22048904 0.00014954661 0.031694178 0.11673489 -0.12665986 0.11709341
0.08941423 0.22347386 -0.16352238 0.010181427 -0.14288518 0.01263288 -0.022491237 -0.20473242
0.12157437 0.123746656 -0.041564833 0.16982548 -0.2930059 0.22103585 0.17698573 -0.021297911
0.27210844 -0.10111899 -0.008463831 0.18557233 0.23846124 -0.10176075 0.1736592 0.07974826
-0.009722644 -0.09105151 0.16762656 -0.07367806 -0.097958714 -0.1410923 -0.11067801 -0.026680643
-0.07341139 0.06437468 -0.047723386 -0.018015152 0.15576002 0.18505731 -0.14884023 0.12827931
-0.1678699 -0.014146844 0.12142321 -0.12193833 -0.23319347 0.041916903 -0.07759262 -0.19322462
0.19928578 -0.2607263 0.0010486521 -0.1082997 -0.10515608 0.050162703 -0.17360874 -0.104985215
-0.2026187 0.10220381 0.19083923 0.07228435 0.12719764 0.103368156 -0.045086503 -0.18802068
-0.011469243 0.29726967 -0.05777371 0.17313375 0.021557184 -0.08356098 0.20776051 -0.03321297
-0.13435955 -0.16531295 0.06742174 0.17639661 -0.10802873 -0.024852108 0.20328842 0.0896587
-0.04580348 -0.1791996 0.07805908 0.26543835 0.20815006 0.20432699 0.08330449 -0.14982516
0.08112146 0.07644682 0.001642493 -0.08517988 -0.21666254 0.034034524 -0.12087782 0.1652497
0.07591474 0.18281357 -0.20702276 0.19525309 -0.10490921 -0.039832216 -0.12553413 0.055077907
0.18944071 -0.14224422 0.22339422 -0.13150664 0.21512315 -0.14519767 0.025371425 -0.09307707
0.048589084 0.17402355 -0.017124023 0.04897361 -0.05510728 -0.19475698 0.094227195 0.11433535
0.050829906 0.09779812 0.010884925 0.20910081 -0.1871014 0.1579104 0.1989695 0.15705656
-0.1475596 -0.0038930378 -0.0074660885 0.02619808 0.16312183 0.16987705 0.13623366 0.12675771
-0.06746941 -0.07399079 -0.0124021685 -0.08033251 0.11070983 0.045044743 -0.08446403 -0.14455469
-0.025168974 0.0913223 0.10721769 -0.17020752 -0.11790781 0.08722795 0.04729247 -0.023388295
-0.12847345 -0.12280125 0.19181599 -0.15164629 -0.18084222 -0.025588587 -0.20902875 0.17062534
-0.13075341 -0.16261202 -0.11694842 -0.06038022 -0.029055843 0.105158836 -0.018604543 -0.18274166
0.19143124 0.18466991 -0.08426315 -0.18061909 -0.18899523 0.07771436 -0.018128356 0.04239459
-0.009276785 0.039143566 -0.085497804 0.010550899 -0.11661465 0.13434368 -0.0051215217 0.06706456
0.03841166 0.09115859 -0.18752478 -0.15599638 0.114945 0.06402693 -0.09915726 0.07400715
00000000: 1df9 babd 050b 553d ffb2 03be 0c28 2d3e
00000010: 2d9d 273e 4ea8 ee3d 130d c8bd 77ed 22bd
00000020: 464e 273e 98ce 0d3c 6b96 c0bc 2a41 14be
00000030: 3c86 9ebd b73b b0bd bf28 4ebe 110d ba3d
00000040: 1bfd 81be 40fc 0b3d f953 ffbd e4b5 50bd
00000050: 3ce2 ad3d cbe1 01be 41af d3bd be72 72bd
00000060: 68f5 18be 631c b13d 5fa9 db3d e104 ad3d
00000070: a472 df3d 9daf 773d c2ea 1bbd 87db babd
00000080: 8b68 dcbc 430a 88be 5c9b 07be 8bba 82bc
00000090: 911f 6ebe 2ee4 2fbe b022 8cbe 9677 f93d
000000a0: af88 943d 93bf afbd fe5a edbb a070 f93d
000000b0: ad2a 15be 1baa 73be d2ac ddbc 14e4 473e
000000c0: 6b23 0e3d d154 943d d5ae ac3d 6865 c43d
000000d0: 8fbd 41bd 6c9c 3ebe d24e 27be 95f4 983d
000000e0: c922 25be 1bbb 1a3d e1c7 61be 9dcf 1c39
000000f0: c1d1 013d b412 ef3d 1fb3 01be abce ef3d
00000100: cf1e b73d 55d6 643e 6972 27be 00d0 263c
00000110: 7e50 12be 24fa 4e3c 8b3f b8bc 60a5 51be
00000120: fcfb f83d e36e fd3d e33f 2abd bbe6 2d3e
00000130: df04 96be 3957 623e bf3b 353e f578 aebc
00000140: cc51 8b3e 7917 cfbd e1ab 0abc ac06 3e3e
00000150: 2f2f 743e f167 d0bd b8d3 313e 0e53 a33d
00000160: ba4b 1fbc 3779 babd 4ca6 2b3e 86e4 96bd
00000170: 949e c8bd 807a 10be 27ab e2bd 5d91 dabc
00000180: b658 96bd dfd6 833d 9979 43bd 8394 93bc
00000190: 8e7f 1f3e aa7f 3d3e 9369 18be a75b 033e
000001a0: 16e6 2bbe 2ac8 67bc bbac f83d ceba f9bd
000001b0: 45ca 6ebe 0fb1 2b3d e1e8 9ebd addc 45be
000001c0: 9211 4c3e eb7d 85be ed72 893a 3ccc ddbd
000001d0: 125c d7bd 6877 4d3d 7dc6 31be 7d02 d7bd
000001e0: 477b 4fbe 3b50 d13d 5c6b 433e d109 943d
000001f0: 1940 023e afb2 d33d a0ac 38bd 7e88 40be
00000200: 7ee9 3bbc bb33 983e 20a4 6cbd f949 313e
00000210: b198 b03c 0522 abbd 2cbf 543e 530a 08bd
00000220: 8d95 09be cc47 29be 6914 8a3d 50a1 343e
00000230: 2b3e ddbd a696 cbbc d72a 503e fb9e b73d
00000240: 6e9c 3bbd 1a80 37be 70dd 9f3d 89e7 873e
00000250: 4a25 553e 183b 513e 8b9b aa3d c46b 19be
00000260: 0223 a63d 2690 9c3d eb48 d73a ca72 aebd
00000270: c9dc 5dbe c967 0b3d ca8e f7bd 3837 293e
00000280: 3079 9b3d 7b33 3b3e c6fd 53be 6df0 473e
00000290: a4da d6bd 1b27 23bd 058c 00be 5f99 613d
000002a0: bffc 413e 78a8 11be 74c1 643e ada9 06be
000002b0: 3e49 5c3e b3ae 14be bcd7 cf3c 319f bebd
000002c0: 5905 473d 3b33 323e ae47 8cbc 8d98 483d
000002d0: 2cb8 61bd 606e 47be 30fa c03d a728 ea3d
000002e0: 0533 503d 614a c83d af56 323c 861e 563e
000002f0: 8297 3fbe 44b3 213e a9be 4b3e 6fd3 203e
00000300: dd19 17be 5622 7fbb 17a6 f4bb 5b9d d63c
00000310: 6909 273e 40f4 2d3e d680 0b3e c6cc 013e
00000320: 672d 8abd 7c88 97bd 7732 4bbc 5f85 a4bd
00000330: d6bb e23d d680 383d 7afb acbd 2506 14be
00000340: 2a2f cebc 3007 bb3d f394 db3d e14a 2ebe
00000350: a679 f1bd 91a4 b23d c0b5 413d cf98 bfbc
00000360: 8b8e 03be 397f fbbd 696b 443e 2a49 1bbe
00000370: b42e 39be 289f d1bc a20b 56be 69b8 2e3e
00000380: 39e4 05be c483 26be a782 efbd 4051 77bd
00000390: 8506 eebc 845d d73d 8e68 98bc a120 3bbe
000003a0: 8d06 443e 1c1a 3d3e 2992 acbd 36f4 38be
000003b0: f787 41be b528 9f3d eb81 94bc f3a5 2d3d
000003c0: a8fd 17bc 0155 203d 7919 afbd aedd 2c3c
000003d0: a9d3 eebd 6491 093e 70d2 a7bb 2559 893d
000003e0: 8b55 1d3d 5bb1 ba3d 7f06 40be 84bd 1fbe
000003f0: 4968 eb3d 8d20 833d f612 cbbd 1091 973d

GAT_layers.1.f.bias f4 [64]
0.14939155 0.0155806495 -0.07690927 -0.075610146 0.020627966 0.10621295 0.10764742 -0.04386344
-0.036528338 -0.026387226 0.14010678 -0.06999935 -0.03814767 -0.09840418 0.10810755 -0.12157495
-0.004724899 0.10121556 -0.04609154 -0.06217357 0.065693274 0.12547885 0.071466394 -0.03608702
0.124975525 0.06668534 0.026900744 -0.0671602 0.0016214723 0.0058489866 -0.07462944 0.03315245
0.11372177 0.12741765 -0.057471946 -0.118842505 0.13816532 0.08316979 -0.0448311 0.10727224
0.10767264 0.040962707 0.12679768 0.107382484 -0.050739795 -0.041103154 -0.07501403 0.09144218
0.12943825 0.108840704 -0.12636735 0.1449021 0.033992376 -0.004233688 -0.013131485 -0.06829018
-0.12571065 0.027108042 0.14654523 -0.026288763 0.101617984 0.129503 0.003661112 -0.03031077
00000000: 19fa 183e fb45 7f3c 9b82 9dbd 7ed9 9abd
00000010: fbfb a83c 2d86 d93d 4076 dc3d 27aa 33bd
00000020: bd9e 15bd 062a d8bc 2778 0f3e d25b 8fbd
00000030: bb40 1cbd 2188 c9bd 7e67 dd3d 4afc f8bd
00000040: 53d3 9abb 1b4a cf3d 7cca 3cbd b7a9 7ebd
00000050: 328a 863d 877d 003e f95c 923d fccf 13bd
00000060: 2bf3 ff3d 5392 883d f35e dc3c 498b 89bd
00000070: 9587 d43a dba8 bf3b 52d7 98bd ddca 073d
00000080: f6e6 e83d c679 023e b467 6bbd b363 f3bd
00000090: 367b 0d3e ec54 aa3d d1a0 37bd 8cb1 db3d
000000a0: 7983 dc3d 83c8 273d 40d7 013e 59eb db3d
000000b0: 88d4 4fbd c85b 28bd f5a0 99bd 0a46 bb3d
000000c0: 768b 043e e0e7 de3d 7166 01be 3761 143e
000000d0: 973b 0b3d c0ba 8abb 7125 57bc b9db 8bbd
000000e0: 4bba 00be af11 de3c f40f 163e 885b d7bc
000000f0: 171d d03d 6f9c 043e 44ef 6f3b 4b4e f8bc

GAT_layers.1.w.weight f4 [1, 64]
-0.0017768958 0.08924479 0.19584401 0.10351854 -0.24149153 -0.03283026 -0.07062477 -0.305524
0.119208924 0.014989701 0.06257802 -0.20972271 -0.15184888 -0.22660577 0.04529011 0.23220244
0.1995596 0.013233192 -0.16026483 0.2832515 -0.23385821 -0.14130689 -0.14335315 -0.15551622
0.19657679 -0.20415537 0.18932769 -0.07261793 -0.08355811 -0.048219677 0.025936127 -0.1446289
-0.29356045 0.21675618 -0.02194019 -0.037443437 0.25939232 -0.23848616 -0.2208404 -0.31159374
0.030805761 -0.22739874 0.2006218 0.007459574 -0.13958207 -0.28736532 0.015213013 -0.29430315
-0.19986857 -0.25211895 0.042752665 0.27374607 -0.12919106 0.26142156 -0.14328793 -0.036113456
0.13240582 0.0013117119 0.21198636 -0.034957074 -0.12061547 -0.20325549 -0.09072407 -0.033595927
00000000: bbe6 e8ba f9c5 b63d 558b 483e 8701 d43d
00000010: 8e49 77be 0679 06bd b8a3 90bd a46d 9cbe
00000020: cf23 f43d 5d97 753c e828 803d 8dc1 56be
00000030: 467e 1bbe 580b 68be 1f82 393d 7ac6 6d3e
00000040: 5a59 4c3e 08d0 583c 771c 24be 5706 913e
00000050: 8778 6fbe c1b2 10be 2bcb 12be a53f 1fbe
00000060: 6d4b 493e 1b0e 51be 1edf 413e b6b8 94bd
00000070: 8420 abbd ff81 45bd 0078 d43c 9919 14be
00000080: 8e4d 96be 55f5 5d3e eabb b3bc 4a5e 19bd
00000090: 12cf 843e b735 74be fc23 62be 3789 9fbe
000000a0: 5d5c fc3c 37db 68be cd6f 4d3e 716f f43b
000000b0: 9aee 0ebe 8c21 93be 0040 793c e7ae 96be
000000c0: 59aa 4cbe bc15 81be 6b1d 2f3d 7228 8c3e
000000d0: a94a 04be 0cd9 853e 12ba 12be b4eb 13bd
000000e0: 6495 073e bfed ab3a f412 593e 262f 0fbd
000000f0: 3e05 f7bd 3522 50be 8bcd b9bd e29b 09bd

GAT_layers.2.f.weight f4 [64, 128]
0.0485128 0.093376406 0.123881266 0.1259531 -0.20649047 0.11182839 0.09184525 0.058357183
0.070362166 0.090593226 0.019866595 -0.05948779 -0.14461684 0.12730293 -0.09050139 0.10986297
0.13339226 0.116148956 -0.18943122 0.075609036 -0.11304776 -0.08310057 -0.15890115 0.051674377
-0.12843709 0.18737341 0.042093884 -0.07264381 -0.03759215 0.024741912 -0.12642549 0.079767264
0.045538865 0.09200146 -0.08050293 -0.0023833187 -0.16915728 -0.013517466 -0.1101885 -0.12804057
-0.13767184 0.14527743 -0.15130924 -0.07058113 -0.18461478 -0.07647891 -0.096414424 -0.07344243
-0.048846453 -0.09995536 0.17143233 0.011041292 -0.04017916 -0.14034761 -0.13363603 0.09643933
0.14492741 0.04990184 -0.1472257 0.20097904 0.059645854 0.13882472 0.10453828 0.12693956
-0.10330705 0.18267678 -0.073144004 0.07860817 0.023786303 -0.14593953 -0.030993331 -0.110914536
0.15756762 0.092540994 0.05444384 0.05164833 -0.12731868 -0.055871837 -0.15794864 -0.073772095
0.0063753994 -0.17709354 0.12820607 -0.14350632 0.103760354 -0.06580057 -0.0032753139 0.13570596
0.096351504 0.16969505 -0.14138363 -0.07731495 0.15571526 0.14978819 -0.06742172 -0.24344324
0.086380154 0.09490664 -0.107727066 -0.16208373 0.0020675256 -0.10830498 0.095319785 -0.061712068
-0.118340105 -0.13177353 0.028968869 -0.13084257 -0.2119669 -0.10009623 0.0852348 -0.06714744
-0.07627167 0.104958646 -0.018246692 0.036594562 -0.06133047 0.1224218 -0.020608062 0.10666757
-0.17129074 0.13784827 0.10368847 -0.0466196 -0.04848587 0.03411141 -0.00046823747 0.000315969
-0.010761799 -0.106700875 -0.08463751 0.033920962 0.021125842 0.13565186 0.00083797437 0.0014528123
-0.21186486 -0.0051833508 -0.14555629 -0.13668025 0.035522353 -0.02293412 -0.03647689 0.114969775
-0.17037167 0.15741035 -0.1019988 -0.18514536 0.13998924 0.13624157 0.081973396 0.0063177836
0.09315528 -0.006115154 -0.17596453 0.05348713 0.1410969 0.10395665 -0.031864956 -0.11661405
0.035659064 0.09548074 0.1250795 0.089682385 -0.09011245 -0.125113 -0.08298737 -0.046755962
-0.0097552 -0.06387782 0.14496017 0.1651314 0.016930431 -0.10868235 -0.05556682 -0.062691934
0.16394426 0.011665203 -0.11205906 0.15909168 0.12676257 -0.097067095 0.14212897 0.069483876
-0.12946863 0.04768659 0.091570735 0.048352063 0.073964775 -0.019619087 -0.018806346 0.06526037
0.15883787 -0.11886943 -0.10222186 -0.15872322 -0.1024288 -0.17340867 -0.17046195 -0.11640949
0.13178681 -0.12737578 -0.1384384 0.15555882 -0.17101651 -0.16570719 0.04819881 -0.11793791
-0.12214768 -0.119480036 0.13939132 0.12814607 0.15899727 -0.05742643 0.04114679 0.08527289
0.033542305 -0.08283873 -0.13267414 0.047454096 -0.0837425 0.030088168 0.15491949 0.1560382
-0.0027911435 0.008252744 -0.0063941404 0.0033125419 0.11506441 -0.1382343 0.0026706976 -0.15218985
0.05411213 -0.07892851 0.009797665 -0.046888463 -0.036853492 0.09764748 -0.014499818 0.16974473
0.06704055 0.10827387 0.017514095 0.11738206 -0.046260316 0.08523979 -0.11060907 0.17139459
0.12464747 0.17098355 0.15265559 0.15897079 0.05734086 -0.12382964 -0.12206355 0.09560561
00000000: 5cb5 463d 213c bf3d 76b5 fd3d d9f9 003e
00000010: 3d72 53be 4806 e53d 5d19 bc3d f107 6f3d
00000020: 0a1a 903d f188 b93d 45bf a23c 78a9 73bd
00000030: 7016 14be b35b 023e cb58 b9bd d6ff e03d
00000040: fb97 083e 81df ed3d 42fa 41be e9d8 9a3d
00000050: 9685 e7bd a230 aabd fcb6 22be 83a8 533d
00000060: 0385 03be d1de 3f3e a36a 2c3d 47c6 94bd
00000070: 3afa 19bd 8daf ca3c af75 01be 055d a33d
00000080: f686 3a3d 436b bc3d b8de a4bd 7431 1cbb
00000090: 9137 2dbe 5d78 5dbc 82aa e1bd 111d 03be
000000a0: d9f9 0cbe 9bc3 143e cff0 1abe d78c 90bd
000000b0: a80b 3dbe faa0 9cbd ed74 c5bd fc68 96bd
000000c0: 3813 48bd 65b5 ccbd f58b 2f3e 89e6 343c
000000d0: e792 24bd 49b7 0fbe e2d7 08be fc81 c53d
000000e0: da67 143e df65 4c3d 55c2 16be 73cd 4d3e
000000f0: 364f 743d 1128 0e3e 2a18 d63d 72fc 013e
00000100: a692 d3bd 9f0f 3b3e 86cc 95bd 52fd a03d
00000110: 7edb c23c 2c71 15be bae5 fdbc 2927 e3bd
00000120: 6859 213e 2286 bd3d 8100 5f3d 338d 533d
00000130: d45f 02be ded9 64bd 4abd 21be d315 97bd
00000140: bae8 d03b 0258 35be 7448 033e 52f3 12be
00000150: 4f80 d43d 73c2 86bd a6a6 56bb 81f6 0a3e
00000160: f053 c53d 8ac4 2d3e dfc6 10be 4d57 9ebd
00000170: d273 1f3e 1362 193e 6614 8abd 2f49 79be
00000180: 14e8 b03d 6a5e c23d 02a0 dcbd 47f9 25be
00000190: 537f 073b 00cf ddbd 0537 c33d cbc5 7cbd
000001a0: 4c5c f2bd a4ef 06be 1f50 ed3c 98fb 05be
000001b0: da0d 59be 41ff ccbd 958f ae3d 9984 89bd
000001c0: 5234 9cbd 8ff4 d63d 167a 95bc 2ee4 153d
000001d0: a935 7bbd 48b8 fa3d 3dd2 a8bc 8774 da3d
000001e0: d766 2fbe 1928 0d3e 9f5a d43d 32f4 3ebd
000001f0: 1f99 46bd 68b8 0b3d c57d f5b9 a4a8 a539
00000200: 4252 30bc fd85 dabd 6e56 adbd b5f0 0a3d
00000210: 1a10 ad3c 52e8 0a3e 82ab 5b3a 4b6c be3a
00000220: 1af3 58be 19d9 a9bb b50c 15be e8f5 0bbe
00000230: e37f 113d 56e0 bbbc cb68 15bd 4675 eb3d
00000240: e975 2ebe 2e30 213e bfe4 d0bd bf96 3dbe
00000250: 5759 0f3e e982 0b3e abe1 a73d 6905 cf3b
00000260: 32c8 be3d a161 c8bb 0c30 34be 5215 5b3d
00000270: b57b 103e 39e7 d43d d484 02bd 59d3 eebd
00000280: 3d0f 123d 688b c33d d714 003e 66ab b73d
00000290: e08c b8bd 9f1d 00be 48f5 a9bd 2e83 3fbd
000002a0: 46d4 1fbc 60d2 82bd 7070 143e 3518 293e
000002b0: b0b1 8a3c da94 debd 099a 63bd a164 80bd
000002c0: 01e1 273e 681f 3f3c 387f e5bd eee8 223e
000002d0: 0cce 013e 1dcb c6bd 428a 113e 904d 8e3d
000002e0: 6d93 04be 0453 433d 7089 bb3d d00c 463d
000002f0: d87a 973d 35b8 a0bc c40f 9abc 3ba7 853d
00000300: 65a6 223e d171 f3bd b259 d1bd 5788 22be
00000310: 31c6 d1bd 0b92 31be 948d 2ebe 1968 eebd
00000320: 1ff3 063e cc6e 02be ccc2 0dbe d04a 1f3e
00000330: f41e 2fbe 25af 29be 1e6c 453d 6e89 f1bd
00000340: 9028 fabd f3b1 f4bd 99bc 0e3e b938 033e
00000350: 2ed0 223e fa37 6bbd 8989 283d 8ea3 ae3d
00000360: a863 093d 5aa7 a9bd bbdb 07be 3a5f 423d
00000370: 3081 abbd 767b f63c 37a3 1e3e 7ac8 1f3e
00000380: 9eeb 36bb 8436 073c f085 d1bb 3b17 593b
00000390: e4a6 eb3d 4b8d 0dbe df06 2f3b a8d7 1bbe
000003a0: aea4 5d3d 45a5 a1bd 6386 203c 1e0e 40bd
000003b0: b0f3 16bd 67fb c73d a590 6dbc 90d1 2d3e
000003c0: 8e4c 893d b1be dd3d b879 8f3c 0166 f03d
000003d0: 757b 3dbd 3392 ae3d 0287 e2bd 1082 2f3e
000003e0: 2c47 ff3d 5016 2f3e bf51 1c3e 3dc9 223e
000003f0: 40de 6a3d 659a fdbd 74fc f9bd e0cc c33d

GAT_layers.2.f.bias f4 [64]
0.036118142 -0.039886013 0.10824577 0.04335883 0.08053533 0.10556921 0.047826126 0.058449257
0.01045848 0.062433302 0.066326804 -0.0822975 0.086387634 -0.049040694 0.05480964 0.04292915
0.07945123 -0.046325784 -0.01911262 -0.0013070755 0.019259363 0.07097968 -0.07439193 0.005431999
-0.050695814 0.036834214 0.10463469 0.0050007175 -0.02311591 0.09168895 -0.064132564 0.033753198
0.29374292 0.080954425 -0.001742727 -0.047393784 -0.007494233 -0.00433261 -0.016350098 -0.03552541
0.052878175 -0.050409067 -0.085528865 -0.028963884 0.076555625 -0.014230394 -0.039999824 0.3506679
0.020473732 0.048434082 -0.04751807 0.04949409 0.05674636 0.1102311 0.061248675 -0.07598645
0.020432895 0.049012028 0.00077419804 -0.06843429 -0.06796003 0.0795079 0.049007047 -0.02795652
00000000: 9ef0 133d 845f 23bd f5af dd3d 0799 313d
00000010: b5ef a43d ac34 d83d 54e5 433d 7d68 6f3d
00000020: 0b5a 2b3c 10ba 7f3d 59d6 873d 978b a8bd
00000030: 00ec b03d e5de 48bd 1380 603d 7ad6 2f3d
00000040: 54b7 a23d 1bc0 3dbd 1292 9cbc 2d52 abba
00000050: d0c5 9d3c cb5d 913d cc5a 98bd e9fe b13b
00000060: 6aa6 4fbd 79df 163d b64a d63d 0fdd a33b
00000070: 945d bdbc 6bc7 bb3d ef57 83bd cb40 0a3d
00000080: 7965 963e 6fcb a53d 376c e4ba fc1f 42bd
00000090: 2f92 f5bb 91f8 8dbb a4f0 85bc 1883 11bd
000000a0: c996 583d bd79 4ebd c229 afbd ab45 edbc
000000b0: 32c9 9c3d 9926 69bc dbd6 23bd be8a b33e
000000c0: 87b8 a73c d162 463d 4fa2 42bd 51ba 4a3d
000000d0: df6e 683d d8c0 e13d e4df 7a3d c99e 9bbd
000000e0: e362 a73c d6c0 483d 8df3 4a3a 4727 8cbd
000000f0: a12e 8bbd 0ad5 a23d 9dbb 483d 1205 e5bc

GAT_layers.2.w.weight f4 [1, 128]
0.0668771 0.09636091 -0.18134332 -0.05829965 -0.059420448 0.14319198 0.17457362 -0.07653409
0.09246553 0.11906958 0.32399884 -0.085815385 -0.1335161 -0.15935807 0.1805045 -0.1024076
-0.12223159 -0.040380582 -0.2543866 0.15805256 -0.14607075 0.19522075 -0.019527294 -0.09514624
0.202292 -0.053791773 0.12079589 -0.15363885 -0.0900052 0.37427062 -0.040922426 -0.090433575
0.14534184 0.067638405 0.18802725 -0.13704662 0.10660966 0.13974251 -0.001612909 -0.15076223
0.025981102 0.16001648 -0.08070651 -0.1416477 0.15484005 -0.15318549 -0.15417543 0.11242494
0.06069706 0.03518927 -0.11597453 0.05883807 -0.17504025 -0.16682632 -0.19528864 -0.13041188
-0.06494057 -0.013914672 0.11364383 -0.11889703 0.18426567 -0.095761985 -0.15489309 -0.12545002
-0.19817808 -0.1206808 0.04870277 0.028554872 -0.17976642 -0.22410063 -0.15814143 0.061698362
0.080838 0.08087626 0.0031066036 0.01515072 0.13597941 0.0830222 -0.21549523 0.05866426
0.13505584 0.052034866 0.1489731 -0.020990746 -0.05180383 -0.08837787 0.034138147 -0.18083596
-0.13644508 -0.10010835 0.050368443 -0.20380256 -0.047399547 0.12214434 0.07056588 0.12654981
-0.15434529 -0.12768231 -0.051519584 0.09310192 -0.0845367 -0.028413177 0.010600682 0.15990284
-0.07208939 0.16227888 -0.106278025 -0.102522664 0.0805281 0.000954999 -0.022899352 -0.09682759
0.10361694 -0.0038529907 0.08205746 0.14180918 -0.17375782 0.16968024 0.01771544 0.18217018
-0.1599638 -0.074700594 -0.14592917 -0.18515506 0.17540295 0.08851806 -0.16435423 -0.05876945
00000000: dcf6 883d de58 c53d 10b2 39be 9dcb 6ebd
00000010: db62 73bd eba0 123e 6dc3 323e e8bd 9cbd
00000020: 915e bd3d c1da f33d 2de3 a53e fabf afbd
00000030: 72b8 08be c32e 23be 2cd6 383e 13bb d1bd
00000040: 8e54 fabd 1c66 25bd f63e 82be 88d8 213e
00000050: 9293 15be f3e7 473e b4f7 9fbc 08dc c2bd
00000060: a225 4f3e c354 5cbd d663 f73d 8153 1dbe
00000070: a554 b8bd 66a0 bf3e 469e 27bd 3d35 b9bd
00000080: 7ed4 143e 0186 8a3d 378a 403e f355 0cbe
00000090: 2a56 da3d a918 0f3e 3f68 d3ba 6a61 1abe
000000a0: 52d6 d43c 5cdb 233e 7449 a5bd 180c 11be
000000b0: 648e 1e3e a8dc 1cbe 2ae0 1dbe 0c3f e63d
000000c0: 7b9d 783d a022 103d 0e84 edbd 3000 713d
000000d0: c03d 33be 85d4 2abe bff9 47be b18a 05be
000000e0: 90ff 84bd 5dfa 63bc 19be e83d 4980 f3bd
000000f0: 24b0 3c3e dc1e c4bd 4b9c 1ebe f875 00be
00000100: 32ef 4abe 7f27 f7bd 8e7c 473d e8eb e93c
00000110: b014 38be a37a 65be d4ef 21be 6cb7 7c3d
00000120: 658e a53d 74a2 a53d 2998 4b3b ba3a 783c
00000130: 303e 0b3e 8b07 aa3d c8aa 5cbe ef49 703d
00000140: 144c 0a3e 8322 553d 688c 183e c9f4 abbc
00000150: 4130 54bd 75ff b4bd 71d4 0b3d 102d 39be
00000160: 42b8 0bbe 9b05 cdbd 244f 4e3d 9eb1 50be
00000170: 0726 42bd d026 fa3d d884 903d 4696 013e
00000180: b10c 1ebe 27bf 02be 3306 53bd 38ac be3d
00000190: 9421 adbd c0c2 e8bc 7cae 2d3c 92bd 233e
000001a0: 9aa3 93bd 6f2c 263e 4ba8 d9bd 67f7 d1bd
000001b0: ebeb a43d e658 7a3a 6c97 bbbc 8b4d c6bd
000001c0: 1e35 d43d 7582 7cbb be0d a83d 6d36 113e
000001d0: 92ed 31be a8c0 2d3e f81f 913c d28a 3a3e
000001e0: 8dcd 23be a0fc 98bd 756e 15be 4a99 3dbe
000001f0: d59c 333e f548 b53d 7a4c 28be 3cb8 70bd

MLP_layers.0.weight f4 [32, 64]
0.097120464 0.009383474 -0.11627608 0.021063486 -0.07349745 -0.040534668 0.11955546 -0.039364774
-0.021694593 0.04390412 -0.07212613 0.015753744 0.2180842 0.040697385 0.09108841 -0.009341248
-0.09081918 0.028321119 -0.15534894 0.30775928 -0.07439257 0.076794334 -0.004362733 0.045802467
0.096795864 0.024356978 -0.00891983 -0.022236144 -0.08338967 0.0660073 -0.0005562309 -0.052323338
0.170146 0.010075346 0.014004455 0.0736565 -0.047336448 0.06944434 -0.0075723813 0.04954487
-0.04659579 -0.105207905 0.10434748 0.12089538 -0.049666755 -0.029532557 -0.03483006 0.11533978
-0.08250431 -0.015146585 0.011481814 0.09869694 -0.111627534 0.00012185961 0.061709877 0.25564253
0.06833078 -0.11027317 -0.018531952 -0.008184695 -0.07234039 0.21800706 0.07194884 -0.080442995
-0.032922838 0.048051294 -0.04652831 -0.014843373 0.08804596 0.030105123 -0.110130996 0.03352501
0.10811025 -0.08612915 -0.034931175 0.072829574 0.11578503 0.054720283 0.073991895 0.01563242
0.044981673 -0.016302707 -0.0060827816 0.01953809 -0.11280292 0.04218269 -0.030764014 0.07139664
0.0637247 -0.0043118275 -0.1101972 0.06209373 0.048399687 -0.07219267 -0.12446996 0.010989768
-0.049342494 -0.13152325 0.037519865 0.065519065 -0.044322044 -0.07906612 0.11377168 0.08819967
-0.07495332 0.01209417 0.10140159 0.06507912 -0.12933101 0.07280773 -0.10680632 -0.0827067
-0.08301906 -0.016391559 0.119666085 0.017960664 0.10391925 0.017762156 -0.033492032 0.106717296
-0.0302558 0.025176782 -0.032509997 0.0458474 -0.12279346 -0.07632691 -0.061093073 -0.04099503
0.060099296 0.048142828 0.029026851 0.10879984 0.07773788 -0.04978834 0.008590975 -0.036681782
-0.017822638 -0.008403015 -0.061230045 0.04549639 -0.44480586 -0.09203379 -0.017664619 0.0890834
-0.030152451 0.08188464 0.0033837536 0.1175729 -0.15890099 0.07040442 -0.05189105 0.08607612
-0.08062011 -0.08445081 -0.04920597 0.079408854 0.06738936 -0.020476574 0.1420619 0.076182604
-0.37073576 -0.111808665 0.1817431 0.08532269 0.04807827 0.050003253 -0.009341283 -0.07359106
-0.11650856 -0.045005735 -0.07830327 0.04264923 0.008329394 0.027979357 0.015172065 -0.37647852
0.00024197173 -0.19413495 -0.111469604 -0.0887258 0.010166153 -0.08994226 0.0217764 -0.06180676
0.14919895 -0.01581366 0.09825502 -0.021325048 0.012859144 -0.22786355 -0.045977853 -0.10064787
-0.10324319 0.017356444 -0.07167687 0.007838218 -0.10733452 -0.10782856 0.086584836 -0.03194928
0.03591304 -0.09621869 -0.042459484 -0.006660059 -0.06253734 0.051725633 0.018603854 0.0013975336
0.029779453 0.0904674 0.014223881 0.013653893 0.0051775808 -0.022641566 -0.0359523 0.011523982
0.07257484 -0.06811839 -0.1260636 -0.06976294 -0.13926627 -0.04796184 -0.06996191 -0.0764094
-0.07019853 0.103067584 0.009511189 0.022075403 0.0065081925 -0.11598242 -0.11595498 -0.04634734
-0.088061444 -0.11527927 0.008563638 -0.06259562 -0.018557344 -0.069125846 -0.10631344 0.10224305
0.09074005 -0.03454715 -0.012225226 -0.09451604 -0.1153131 -0.112893134 -0.1395545 0.013704617
-0.1185441 0.046289314 -0.09630405 -0.03192523 -0.09271882 -0.08305281 0.051616453 0.058733806
00000000: 18e7 c63d 24bd 193c 2722 eebd 558d ac3c
00000010: d585 96bd ae07 26bd 7ed9 f43d f53c 21bd
00000020: dcb8 b1bc ced4 333d ddb6 93bd ff0d 813c
00000030: 7751 5f3e 4db2 263d 8f8c ba3d 090c 19bc
00000040: 68ff b9bd b101 e83c cb13 1fbe a092 9d3e
00000050: 225b 98bd 5946 9d3d 42f5 8ebb 5e9b 3b3d
00000060: e93c c63d 4988 c73c 7b24 12bc 9328 b6bc
00000070: 34c8 aabd d62e 873d 06d0 11ba ff50 56bd
00000080: c13a 2e3e 1013 253c f172 653c 38d9 963d
00000090: dde3 41bd d638 8e3d bd21 f8bb 90ef 4a3d
000000a0: 3adb 3ebd 3e77 d7bd 22b4 d53d ff97 f73d
000000b0: 5e6f 4bbd 43ee f1bc f7a9 0ebd 4337 ec3d
000000c0: 05f8 a8bd 6229 78bc 381e 3c3c 9f21 ca3d
000000d0: fa9c e4bd e18e ff38 7fc3 7c3d 94e3 823e
000000e0: 02f1 8b3d e6d6 e1bd 52d0 97bc 1919 06bc
000000f0: 3327 94bd 3e3d 5f3e ea59 933d 4cbf a4bd
00000100: 19da 06bd 6fd1 443d 7894 3ebd 9e31 73bc
00000110: 7151 b43d 059f f63c 5c8c e1bd 8551 093d
00000120: e868 dd3d 7b64 b0bd fe13 0fbd ac27 953d
00000130: b420 ed3d 6022 603d 1089 973d 900f 803c
00000140: b43e 383d 418d 85bc 1252 c7bb 580e a03c
00000150: 3805 e7bd c2c7 2c3d d004 fcbc 6738 923d
00000160: 1882 823d 3b4a 8dbb 12af e1bd ff55 7e3d
00000170: c03e 463d c0d9 93bd 1bea febd 6e0e 343c
00000180: 5b1b 4abd 08ae 06be 6eae 193d dc2e 863d
00000190: 088b 35bd 6bed a1bd 2001 e93d 07a2 b43d
000001a0: 2081 99bd a026 463c a3ab cf3d 3448 853d
000001b0: 596f 04be 381c 953d 46bd dabd 2162 a9bd
000001c0: e605 aabd 9747 86bc 7e13 f53d 3e22 933c
000001d0: 9ed3 d43d f181 913c f12e 09bd 998e da3d
000001e0: 03db f7bc 8a3f ce3c 3429 05bd 7cca 3b3d
000001f0: 237b fbbd 4851 9cbd bb3c 7abd 68ea 27bd
00000200: ae2a 763d 6a31 453d b8c9 ed3c 73d2 de3d
00000210: 0a35 9f3d dcee 4bbd 29c1 0c3c a33f 16bd
00000220: c800 92bc cdac 09bc 5bcc 7abd 6c5a 3a3d
00000230: 98bd e3be 367c bcbd 64b5 90bc 5c71 b63d
00000240: 4602 f7bc 22b3 a73d f7c1 5d3b 10ca f03d
00000250: f1b6 22be 3130 903d b68b 54bd ad48 b03d
00000260: 281c a5bd 8cf4 acbd 338c 49bd 1ca1 a23d
00000270: 6f03 8a3d 7dbe a7bc ad78 113e a005 9c3d
00000280: 14d1 bdbe f1fb e4bd dd1a 3a3e aabd ae3d
00000290: b8ed 443d 36d0 4c3d 2e0c 19bc e9b6 96bd
000002a0: 0a9c eebd ef57 38bd 775d a0bd f6b0 2e3d
000002b0: 0378 083c f734 e53c 4194 783c cbc1 c0be
000002c0: cbb9 7d39 50cb 46be 2d4a e4bd dfb5 b5bd
000002d0: f08f 263c a633 b8bd 6c64 b23c 1629 7dbd
000002e0: 9cc7 183e a68b 81bc ee39 c93d deb1 aebc
000002f0: 29af 523c 1055 69be 4653 3cbd 7820 cebd
00000300: 2a71 d3bd 1a2f 8e3c 53cb 92bd de6b 003c
00000310: 33d2 dbbd 38d5 dcbd 6453 b13d 40dd 02bd
00000320: 8d19 133d 4e0e c5bd ffe9 2dbd a03c dabb
00000330: 9413 80bd 42de 533d 1c67 983c 722d b73a
00000340: 0af4 f33c f946 b93d 480b 693c 94b4 5f3c
00000350: b2a8 a93b ce7a b9bc b842 13bd 15cf 3c3c
00000360: 1ea2 943d a881 8bbd d116 01be dfdf 8ebd
00000370: d19b 0ebe a273 44bd 3148 8fbd 887c 9cbd
00000380: 3fc4 8fbd 1915 d33d d1d4 1b3c 7ad7 b43c
00000390: ad42 d53b 3188 edbd ce79 edbd b5d6 3dbd
000003a0: 8f59 b4bd 8a17 ecbd 804e 0c3c 2232 80bd
000003b0: 9205 98bc da91 8dbd dcba d9bd ce64 d13d
000003c0: ebd5 b93d 5081 0dbd 504c 48bc a091 c1bd
000003d0: 4629 ecbd 8434 e7bd 60e7 0ebe 5489 603c
000003e0: 40c7 f2bd dd99 3d3d 0f3b c5bd 08c4 02bd
000003f0: 5de3 bdbd 9717 aabd c66b 533d dc92 703d

MLP_layers.0.bias f4 [32]
0.039469272 -0.06930448 -0.26775268 0.019917296 -0.03732742 -0.12928256 -0.13805349 0.07847084
-0.40569478 0.084544525 -0.10027604 0.047586318 -0.09299564 0.028555553 0.03652109 0.1030744
0.045109175 0.16754074 0.002770186 0.03680601 -0.011292212 0.051590636 0.21600528 0.4726274
0.13974832 -0.07767455 0.0018334608 0.15585598 -0.057382345 -0.061088394 0.06928218 0.062797524
00000000: 88aa 213d 82ef 8dbd e116 89be 9929 a33c
00000010: a3e4 18bd a662 04be e55d 0dbe 52b5 a03d
00000020: 3ab7 cfbe ae25 ad3d 865d cdbd dfe9 423d
00000030: 8074 bebd 56ed e93c 2397 153d ac18 d33d
00000040: 66c4 383d cd8f 2b3e 028c 353b e6c1 163d
00000050: f802 39bc b450 533d 7d30 5d3e 38fc f13e
00000060: 2f1a 0f3e d613 9fbd bc50 f03a b698 1f3e
00000070: c009 6bbd d337 7abd d1e3 8d3d fd9b 803d

MLP_layers.1.weight f4 [1, 32]
0.0811559 -0.04806684 -0.177011 -0.009486964 -0.04417785 0.015576374 -0.10836432 0.004049178
-0.2337538 0.10761903 -0.095115215 -0.14169948 -0.15311989 -0.13050082 -0.01712862 0.21526688
-0.019929636 0.06271743 0.026696354 0.12255602 0.2102128 0.18455315 0.042026743 0.2738491
0.19541048 0.017577637 -0.13700543 0.063592955 0.15076245 -0.13950604 0.18261333 -0.10305812
00000000: 1135 a63d bce1 44bd 5f42 35be 366f 1bbc
00000010: d5f3 34bd 0c34 7f3c 1dee ddbd f8ae 843b
00000020: 285d 6fbe 5e67 dc3d c4cb c2bd ab19 11be
00000030: 76cb 1cbe 02a2 05be 5251 8cbc ec6e 5c3e
00000040: 7a43 a3bc ff71 803d 50b2 da3c a7fe fa3d
00000050: 0642 573e 80fb 3c3e 3c24 2c3d f335 8c3e
00000060: af19 483e fafe 8f3c 274b 0cbe 063d 823d
00000070: 7961 1a3e acda 0ebe fdfe 3a3e 2310 d3bd
