SLIC_GAT/last7.pt (torch, 80373 bytes, 12 tensors)

GAT_layers.0.f.weight f4 [32, 124]
000000 ad d8 28 be 42 f9 dc 3c f6 0f 62 3d 1b e1 f3 3d
       -0.16488905 0.026974324 0.055191003 0.1190817
000010 1c 60 ab bd 4e b4 ad bd 08 81 fa bd ef 51 46 bd
       -0.08367941 -0.08481656 -0.12231642 -0.04841798
000020 74 11 5d 3d 22 66 2d be e9 20 64 bd 6f d7 9c 3d
       0.053971723 -0.16933492 -0.055695448 0.07658278
000030 db 20 88 3b 53 ee dc 3b db ce d9 3d fd 19 8c 3d
       0.0041543073 0.0067422776 0.10635158 0.06840894
000040 f8 c5 0e 3e c4 03 c1 bd bd 1c 9e 3d 4a c4 02 bd
       0.13942707 -0.09424546 0.07720325 -0.031925477
000050 f8 48 43 3e 02 aa 1a be cb c1 dc bd 9e 58 a8 3d
       0.19070804 -0.15103915 -0.107791506 0.082200274
000060 aa c9 25 be 33 9f 0e be 60 79 c8 bd cb bc 32 3e
       -0.1619021 -0.13927917 -0.097887754 0.17454831
000070 45 49 83 3d f9 d4 f6 3d a5 e1 e0 3c 61 75 41 3d
       0.064104594 0.1205234 0.027451346 0.047231082
000080 fb 07 3e 3c a5 08 47 3e 84 b8 27 3e af 1a 51 3c
       0.011598582 0.19436891 0.16378981 0.0127627095
000090 b2 99 7d bd 6c 05 96 3b b0 cb 6b 3d 4e 0b 91 3d
       -0.061914153 0.004578283 0.0575673 0.07082234
0000a0 e4 57 08 be 85 99 05 be 8d 0e ad 3d 28 2c f6 3c
       -0.13314778 -0.13046844 0.08450041 0.030050352
0000b0 d3 a2 06 be 6f a8 26 3e 6b 35 a6 bd 36 f4 42 3e
       -0.1314805 0.1627519 -0.081156574 0.19038472
0000c0 6b 04 ae bc 20 6b 47 be cc 36 99 bd 76 5e f2 3d
       -0.021242341 -0.19474459 -0.07481155 0.11834423
0000d0 34 81 be 3d f5 6b b1 bc d3 82 48 3d a4 98 ee 3d
       0.09301987 -0.021657923 0.04895289 0.11650208
0000e0 8f e2 06 3e 85 f6 15 3b ee 00 0b be fc ab 18 bc
       0.13172363 0.0022882533 -0.13574573 -0.009318348
0000f0 68 22 1b 3e 37 06 ee bc 72 59 46 be 9e 25 20 3e
       0.15149844 -0.029055698 -0.19370058 0.1563935
000100 ac 0e e7 3d 07 c8 c3 bc cf 9a 09 3e ea 34 21 bc
       0.11282095 -0.023899091 0.13437961 -0.009839276
000110 ae ff 44 bd 65 82 9f 3d bd 90 30 3e 5a 0f 03 3d
       -0.048095398 0.07788543 0.17242713 0.031997062
000120 96 3f 0d 3e d9 10 9b bd 96 41 2f 3d 78 ed fe bc
       0.13793787 -0.07571573 0.042787157 -0.031119093
000130 66 13 12 3e 7f 59 11 be 6a 1e 4d 3d 55 64 79 3d
       0.14265212 -0.14194296 0.050077833 0.0608867
000140 68 d2 8b 3d 75 1d 00 3e 96 65 2d bd 80 2e 86 3d
       0.06827241 0.12511237 -0.042333208 0.06551838
000150 05 53 80 3c 73 58 1f be 04 79 d6 bc 75 46 3c be
       0.015664587 -0.15561084 -0.026180752 -0.18386252
000160 fc 4f 26 3e 66 67 1d be a1 2d 2a 3b 5a c3 4e 3c
       0.16241449 -0.15371475 0.0025967138 0.012619818
000170 f0 ef 13 be a1 1a 38 bd 6c 85 2b 3d 09 b9 03 3e
       -0.14446998 -0.04494727 0.041875288 0.12863554
000180 bd 4c 26 be 48 09 ea bc d7 7f 29 3e 34 30 77 bd
       -0.16240211 -0.028568879 0.16552673 -0.060348704
000190 7a c6 bf bd bc 76 1c 3e 80 34 56 3d 3d 99 53 3d
       -0.09364028 0.15279669 0.05229616 0.05165981
0001a0 9c ca b4 bd 92 d4 91 bd dc 38 12 3e d7 76 38 3e
       -0.08827707 -0.07120623 0.14279503 0.18014084
0001b0 ba 97 3e 3e 8e 2b 22 bd 56 19 b4 3a 26 b2 27 be
       0.18612567 -0.03959232 0.0013740461 -0.16376552
0001c0 1b f0 00 be 39 89 93 3c 9a 35 04 be 1b c2 89 3d
       -0.12591593 0.018009769 -0.12911072 0.06726476
0001d0 e7 21 05 3e 39 08 b6 3d f2 47 ce 3c bd 1a ea ba
       0.13001214 0.08888287 0.02518079 -0.0017860752
0001e0 ea 94 43 be 96 6d b3 bd b6 fb 23 3d dc 6c 9a bd
       -0.19099775 -0.08761136 0.040034972 -0.075402945
0001f0 39 74 40 be cb a2 2a be 62 bf eb 3d 86 60 41 3e
       -0.18794335 -0.16663663 0.11511113 0.18884477
000200 03 d8 07 3e d3 2d a5 bd dc 74 9c bd 53 f7 c2 bd
       0.13265996 -0.08065381 -0.07639477 -0.095198296
000210 ae 85 98 3d f6 58 ce bd 5c 75 ac bd fe 28 3c 3e
       0.074473724 -0.10075562 -0.08420822 0.18375012
000220 06 99 93 3d 7d 6c 73 3d 97 77 09 be 74 c5 8e bd
       0.07206921 0.059429634 -0.13424526 -0.06971255
000230 f5 28 d2 bd cb ab e2 3b 98 49 e0 3d ba 89 c8 3d
       -0.10261718 0.006917452 0.10951537 0.09791894
000240 17 10 02 3d f4 ab 12 bd 97 f4 3c be 30 8f 9d bd
       0.031753626 -0.03580852 -0.18452679 -0.076933265
000250 d1 d2 85 bd 80 08 05 3d 9c f0 76 3d 76 a9 de bd
       -0.06534351 0.03247881 0.060288057 -0.10872166
000260 19 ed 34 3e b3 16 ca 3c b0 b0 0f be 3e 57 3f bd
       0.1766857 0.024669027 -0.14032245 -0.04671406
000270 ab 3b b6 3d 3f 42 ed 3d 2d 50 ee bd 03 f9 ae 3b
       0.088980995 0.11584901 -0.11636386 0.005339743
000280 c9 e2 0f be 98 b7 45 be 13 29 2e 3e 49 29 76 3d
       -0.14051355 -0.19308317 0.17007856 0.060097966
000290 0a 2c d3 3d fa cb 0c 3e 2f 2f 45 3e 44 09 a6 3d
       0.10311134 0.13749686 0.1925628 0.08107236
0002a0 56 69 0b 3e e3 05 16 3d 0e 51 11 3e 6b ad c1 3d
       0.13614401 0.036626708 0.14191076 0.09456905
0002b0 2f 2e 45 bd 73 d1 40 bd c6 c1 2d be 2c 64 45 be
       -0.048139747 -0.047074746 -0.1696845 -0.19276494
0002c0 f0 c3 c4 bd 6d 28 26 be ff af d2 bd 95 55 32 3d
       -0.096076846 -0.16226359 -0.10287475 0.04353865
0002d0 33 0a 2d bd fb 5d 6f bc be 40 14 3e 76 f9 46 bd
       -0.042246055 -0.014609809 0.14477822 -0.04857775
0002e0 5b fa bc 3d 2a 87 1c 3e 7b b9 41 3d 89 aa 0e be
       0.09227439 0.15285936 0.04729603 -0.13932241
0002f0 23 0f 69 3c de f4 00 be c3 17 18 be fb 4d ad bc
       0.0142248 -0.1259341 -0.14852814 -0.021155348
000300 bd 2e fa 3d 58 4f a6 3c d1 1c be bc ce f4 1f 3d
       0.12215946 0.020301506 -0.0232071 0.039051823
000310 c0 5b bf bd c1 20 5e bd 1e b4 2a bd 1c bc 35 be
       -0.09343672 -0.054230455 -0.04167568 -0.1774754
000320 e7 6a 62 3d 8d f3 8b bd 24 a1 b8 bd 1d ba a3 3d
       0.05527773 -0.06833563 -0.0901511 0.07994483
000330 82 54 44 be 56 92 e4 bd 29 74 31 bd 2b 4b b8 3d
       -0.19172862 -0.11160724 -0.04332367 0.08998712
000340 7a 2e f0 3d 54 a0 22 be 3c b0 8b 3d 46 06 70 3d
       0.11727615 -0.15881473 0.068207234 0.058599733
000350 56 32 a0 3d ad 3c 98 3d 6b e1 1b 3d 7d e1 b0 bd
       0.07822101 0.07433448 0.038056772 -0.086367585
000360 02 6e 23 3e 7a 0b a4 3d 75 3b 05 be 76 ca f4 3c
       0.15959933 0.080100015 -0.13010962 0.029881697
000370 b6 a7 19 be e6 44 41 be b2 80 9b 3d 3d 5f 26 be
       -0.15005383 -0.18873939 0.07592906 -0.16247268
000380 85 06 0f 3e 1a 49 20 3e 23 34 bd 3d 82 3f 13 3d
       0.13967331 0.15652886 0.0923846 0.035949238
000390 02 9a 06 3e 6c c5 c9 3d 71 52 a3 bc db 72 83 bd
       0.13144687 0.09852108 -0.019936772 -0.06418391
0003a0 80 1d 42 bd c7 7a 25 3e 07 4d a4 bd 13 c2 46 be
       -0.047391415 0.16160117 -0.08022504 -0.19409971
0003b0 f3 3d 45 3e 5f 32 e3 bd e9 22 a4 3c 7d 3b bf bc
       0.19261913 -0.11093592 0.020036178 -0.023343796
0003c0 c8 8d 36 3e 48 92 d4 bb 1b 8d e2 3d c8 51 10 be
       0.17827523 -0.0064871646 0.1106207 -0.14093697
0003d0 30 d4 91 3b f0 15 94 3d e7 d5 26 3e c3 b8 eb bd
       0.0044503435 0.07230747 0.16292535 -0.1150985
0003e0 e5 35 0f be 49 11 93 bd 57 b8 6a 3d 8e 11 18 3e
       -0.13985403 -0.07181031 0.057304706 0.14850447
0003f0 1f d1 3e be 35 5b a6 bb 28 fc 4f 3c 10 f2 e1 3d
       -0.18634461 -0.0050767907 0.012694396 0.11032498

GAT_layers.0.f.bias f4 [32]
000000 bb 46 af bd 57 78 73 3d df ae b2 bd 50 a3 c2 3d
       -0.08558413 0.059440937 -0.0872476 0.09503806
000010 40 88 3d 3d 91 11 89 3c 4b 49 ab bd 43 8d 03 3d
       0.046272516 0.01673201 -0.08363589 0.03211714
000020 7e 8b a0 bd 3d 62 af 3d 23 c2 38 3d 88 95 75 3d
       -0.07839106 0.08563659 0.04510702 0.059957057
000030 8d c7 92 bd 50 b8 5a 3d 85 84 4a 3d 8d 70 d3 3b
       -0.071669675 0.05339843 0.049442787 0.006452626
000040 34 1b a1 bd d9 0b 33 3d b9 ca fa 3c 08 d4 88 bb
       -0.07866517 0.04371247 0.030614244 -0.0041756667
000050 92 8c 81 3d 84 50 9e 3d 1a 03 8a bd a3 ec 43 3d
       0.0632564 0.07730201 -0.06738873 0.047833096
000060 54 77 aa 3d 4e 78 57 3d e5 7d 5c bd 93 ee b5 3c
       0.08323541 0.052604966 -0.053831 0.022208488
000070 f6 e5 83 bd f7 6e 57 bd 49 6a 59 bc 69 97 5e bd
       -0.06440346 -0.05259606 -0.013269969 -0.054343615

GAT_layers.0.w.weight f4 [1, 124]
000000 53 ee 23 be 22 4a 74 3d 2b 9b 83 bd 7d 8e d5 3d
       -0.16008882 0.05964101 -0.0642608 0.10427568
000010 6d 40 0f be 97 01 8a 3d 16 e2 ea bd 7b ee 4b 3d
       -0.1398942 0.067385845 -0.11468904 0.04978798
000020 96 8c 66 3c f1 4c 18 bc e2 2a a0 bd 96 bf fa 3d
       0.014071604 -0.009295688 -0.07820679 0.12243573
000030 bc 50 2a be 21 a7 e7 bd 85 93 38 3d 7f e6 27 be
       -0.1663236 -0.11311174 0.04506256 -0.16396521
000040 46 b8 b2 3d 62 59 ba 3c a9 9c 1e be 46 14 53 3e
       0.087265536 0.0227477 -0.15489449 0.20613202
000050 e9 50 e1 bb bf fd ac bd 33 ee 86 bc f0 63 18 3e
       -0.0068761003 -0.08446836 -0.016471004 0.14881873
000060 64 cd 09 be 10 fb 03 bd 8d 73 0e 3c 71 01 f2 3d
       -0.13457257 -0.032221854 0.008694542 0.11816681
000070 a0 5f 4f be 58 f6 00 3e b3 e6 5e 3d 84 71 07 bd
       -0.20251322 0.12593973 0.05441923 -0.03306724
000080 8f 76 a4 3d 52 25 38 3d 48 b9 7a 3d f4 9b 05 3e
       0.08030426 0.044957466 0.061211854 0.13047773
000090 4f a3 d9 3d ea 96 b6 bc e9 88 3f be 4b 97 a1 bb
       0.10626852 -0.022288758 -0.18704571 -0.0049313656
0000a0 3d 17 0e 3c cd a7 c5 bd fa 76 18 3e f9 35 7c bd
       0.008672533 -0.09651146 0.14889136 -0.06157491
0000b0 73 ea 5f 3a 4b 13 b3 bd 81 1d 83 3d 84 0d 01 be
       0.00085417106 -0.08743914 0.06402112 -0.12602812
0000c0 d0 6d fa 3d ba f6 43 be e6 b5 07 be b2 52 dc 3d
       0.12227976 -0.19137087 -0.13252982 0.107579604
0000d0 ee b8 82 3d f7 7a 37 be 2a 30 cb bb 85 88 3c be
       0.06382929 -0.17918001 -0.00620081 -0.18411453
0000e0 8f 1f 5a 3e e6 8c 6f 3c fd 76 f7 3d 0f f3 1f 3e
       0.21301101 0.014620995 0.12083242 0.15620063
0000f0 a8 d4 38 be db ba b6 bd 63 1b c9 3d 60 eb 93 3d
       -0.18049872 -0.089223586 0.09819677 0.072226286
000100 55 19 c2 3c 4d 86 24 be 89 d6 10 be a6 b7 5c be
       0.02369372 -0.16066857 -0.14144339 -0.21554431
000110 36 ec 56 bc a4 03 3a 3e 78 8d 2b 3e 98 d5 28 be
       -0.0131178405 0.18165451 0.16753185 -0.1648773
000120 86 56 4a 3e b9 d6 dd 3c 73 dc 22 bc 09 40 54 3d
       0.19759569 0.027079927 -0.0099402545 0.05181888
000130 6f 23 76 3e 1e 00 42 bb 50 07 c4 bd d7 b5 ce bb
       0.24036954 -0.002960212 -0.09571707 -0.006308298
000140 96 4c e3 bd 7a 76 e5 bd fd 7b 18 3e d3 67 22 be
       -0.11098592 -0.11204238 0.14891048 -0.15859918
000150 09 63 1f be 02 92 f1 bc 3a d7 0b be 8b ff 1e 3e
       -0.15565123 -0.029488567 -0.13656321 0.1552717
000160 1f 2a 05 3e 71 cf 31 bd e0 3d 28 be b9 d4 54 bc
       0.13004349 -0.043410722 -0.16429853 -0.01299017
000170 8d 8b 4f 3e 35 2b 91 3d 7d 41 8b bd 1e bf 6a be
       0.20268078 0.07088319 -0.067996 -0.22924468
000180 55 e6 1c bd b4 98 46 3e f5 b7 d6 3c bb cf b9 bd
       -0.0383056 0.19394189 0.026210764 -0.090728246
000190 17 6c 36 3e 2f 49 0b 3e d6 a1 c4 bc b0 32 97 3d
       0.1781467 0.13602136 -0.02400295 0.07382715
0001a0 c7 7e 16 bd f6 cb d6 3d aa 0b 09 3e f1 ef ba 3c
       -0.036741998 0.10488121 0.13383356 0.022819491
0001b0 f7 65 07 bc 9b d0 a7 3d 3f a3 2d 3d 61 6f 67 3d
       -0.008264056 0.08194085 0.04239201 0.056502704
0001c0 2a e2 03 be bf af a3 3d 3c 9b b8 bd 43 fb 27 3e
       -0.12879243 0.07992505 -0.090139836 0.16404442
0001d0 b4 17 4f 3d 7b 86 04 3e 5e b1 73 bd e7 9c 9b bc
       0.050559714 0.12941925 -0.059495322 -0.018995715
0001e0 4b 85 65 be 2a 27 ba 3c 4c 34 34 bd f4 88 cc bd
       -0.22414128 0.022723753 -0.043995187 -0.09987059

GAT_layers.1.f.weight f4 [64, 64]
000000 ac 53 24 3e 72 2a 5d 3e ba 55 c3 3d ff ad 95 bd
       0.16047543 0.21598223 0.095378354 -0.07308578
000010 54 5a 0e 3e 73 55 3c 3e 6c 6c 44 be 18 fe 79 bd
       0.13901645 0.18391971 -0.19181985 -0.06103334
000020 33 ba e7 3d da 6c 21 3e 15 ff 09 3e 79 2a 21 3e
       0.113148116 0.1576418 0.13476212 0.15738858
000030 ca e6 1b be f7 de 62 3d 3a 3f aa 3d fc 86 08 3e
       -0.15224758 0.055388417 0.08312841 0.13332742
000040 f1 49 c4 3c 17 0c 35 3e 44 37 21 3e 7d 33 15 3e
       0.02396104 0.17680393 0.15743738 0.14570422
000050 15 fc 22 be e4 84 05 be 46 81 3a 3e f9 09 61 3e
       -0.15916474 -0.13038975 0.18213376 0.2197646
000060 2c af 31 3d 49 e5 b7 bc d5 5f f4 bd bd 61 f5 3c
       0.043379948 -0.022448199 -0.11932341 0.029953832
000070 d4 d0 30 be 57 09 5c 3e 22 74 5c 3e 20 4b 23 3e
       -0.17267162 0.21487938 0.21528676 0.15946627
000080 83 24 59 be a9 89 8f 3d a0 08 08 3e cd 7b f4 3c
       -0.21205334 0.070086785 0.1328454 0.029844189
000090 f7 eb 99 3d fe af 43 3e 7d 5d 14 3b 9d 78 cc 3c
       0.0751571 0.19110104 0.0022638731 0.024959857
0000a0 4e 64 4a be 50 7d 9d 3d 29 62 25 3e df 12 8c bc
       -0.19764826 0.07689917 0.16150726 -0.017098842
0000b0 fe c5 b8 bd 66 28 22 3e 39 31 2a 3d 9c f6 98 3d
       -0.09022139 0.15835723 0.04155085 0.07468912
0000c0 0c d0 c0 3d cb 28 1d be 63 0b 35 be aa 11 1a be
       0.09414682 -0.15347593 -0.17680125 -0.15045801
0000d0 9e 35 43 be c6 57 2d 3b a2 cd 1d 3e 78 6a de 3d
       -0.19063422 0.0026450022 0.15410474 0.10860151
0000e0 9e cf 91 3d 54 b6 b1 3d 0c 14 c9 bc 42 10 39 3e
       0.07119678 0.086773545 -0.024545692 0.18072608
0000f0 5f 8d 4b 3d 18 d7 95 3c 33 9c f7 3d a4 70 c3 bd
       0.04969537 0.018291041 0.120903395 -0.09542969
000100 56 81 a6 3c 35 e2 e1 3d 5b f5 15 3e 63 2b 44 be
       0.020325344 0.11029474 0.14644377 -0.19157176
000110 d2 2c 05 3c 78 6d de bd 2b 1a bc bd 39 2e 6a bd
       0.008128362 -0.10860723 -0.09184679 -0.057172988
000120 41 3e 3b be 0b 57 d1 bd 22 b3 04 3e 1d e5 82 bc
       -0.18285467 -0.1022168 0.12958959 -0.01597839
000130 fd f6 3f bc d1 ad 48 3c 68 a3 11 3e 9d 13 b9 bd
       -0.011716601 0.012248472 0.14222491 -0.09036944
000140 17 1d c0 3c 39 2b c5 bd 81 ab 54 3e 21 1e cb bc
       0.023451371 -0.09627385 0.20768549 -0.02479464
000150 54 9f 0d be 6e df 97 bd f6 91 c7 bc c8 f7 f9 3c
       -0.1383031 -0.07415663 -0.024361592 0.03051366
000160 de e0 7b 3d 97 c7 35 3e 8c f4 13 3e 0e 49 ba 3d
       0.061493747 0.17751919 0.14448756 0.09095965
000170 7c 80 df 3d 54 77 a6 3c 46 22 b0 bd 6b d5 5e 3d
       0.10913178 0.020320572 -0.08600287 0.05440275
000180 0b d3 d0 bc d1 e5 b6 3c c2 e5 09 be b6 42 62 bc
       -0.025491258 0.022326382 -0.13466552 -0.01380985
000190 09 b9 9f 3d 4b 17 25 3e 13 4f 2a 3e 55 b5 8c 3d
       0.077989645 0.16122167 0.16631727 0.06870524
0001a0 91 3d 8e 3d 1e bd 8c 3d e4 21 e3 3d fb 2b 28 be
       0.069453366 0.06872009 0.110904485 -0.16423027
0001b0 be d5 7e 3c de c4 2f bd 71 58 4b 3e 77 fa d3 3d
       0.01555389 -0.042912357 0.19857956 0.10350507
0001c0 12 18 48 3d 7e f1 07 3e 0b dc 34 3e 30 93 ab 3d
       0.04885108 0.13275716 0.17662065 0.08377683
0001d0 d4 d1 be bd 15 33 0f be 23 0e 34 3e b0 94 13 3c
       -0.09317365 -0.1398433 0.17583518 0.009007618
0001e0 88 ce 4c 3e 6a 16 e1 3b cc a4 5b bd ac 8e 20 be
       0.2000066 0.006869127 -0.05362396 -0.15679425
0001f0 4a 58 b2 bd 7c 50 7f bc 7f c7 19 3b 45 09 cd 3d
       -0.08708246 -0.015583154 0.0023464856 0.10011534
000200 5f 36 ec 3d 52 cd a8 bc 2a 03 f6 3d 3f d7 0f be
       0.11533808 -0.020605717 0.12012322 -0.14046954
000210 3e d9 46 bd 37 74 41 3e ab 9c 5f 3e 68 de aa ba
       -0.048547022 0.18891989 0.21837108 -0.0013036253
000220 8e b7 04 3e e2 16 91 3d fd f0 c8 bd 33 da 50 3e
       0.12960646 0.07084443 -0.0981159 0.20395736
000230 b3 e5 fd 3b 53 f3 9e 3d 45 8e 3a bb 62 c1 6c bd
       0.0077483295 0.07761254 -0.0028466147 -0.05780161
000240 93 e9 1a 3e 33 2b 12 be 3d 97 bc 3c 64 f4 45 3e
       0.15128164 -0.14274292 0.023021335 0.19331509
000250 c3 3d 06 3e cb ad f3 bc ed bd ae 3d f9 ea 15 be
       0.13109498 -0.029745957 0.08532319 -0.14640416
000260 44 2f 4f be ad 7f 22 3d b2 01 fb 3c 89 c4 3f 3e
       -0.20232874 0.039672542 0.030640457 0.18727316
000270 f8 ef fb 3d 05 e6 f5 3d 47 7c 49 be 4d 8b 60 bd
       0.1230163 0.12006763 -0.19676314 -0.054820348
000280 9e df 41 3d 23 bd 20 3e 66 76 29 be db 85 9e 3d
       0.0473324 0.1569715 -0.16549072 0.07740375
000290 d6 37 0d be 70 05 06 3e 26 9e d6 bd fb ae 04 3e
       -0.13790831 0.13088012 -0.10479383 0.12957375
0002a0 c9 0f d3 bd 26 c0 24 be 4c ba d8 3c 3b a4 5f 3d
       -0.10305745 -0.16088924 0.02645602 0.05459998
0002b0 cf 43 b1 bd 86 3a 8e 3c 7e 22 23 3e 32 f3 9f bb
       -0.086555116 0.01736189 0.15931126 -0.004881286
0002c0 54 73 2e 3e 6e d0 25 be 41 0d 19 be 9c 7e ff 3d
       0.17036182 -0.16192791 -0.14946462 0.12475321
0002d0 d6 42 86 3d a0 e0 9d 3c a5 0a 1b 3e cc 78 fb 3d
       0.06555717 0.019272149 0.1514078 0.122788996
0002e0 d1 11 bc 3a 70 c2 5e be 53 e1 c3 3d 83 b6 41 3e
       0.0014348571 -0.2175386 0.095644616 0.18917279
0002f0 49 97 04 be 4b 34 62 3c ab 18 b1 3d 4e 20 3f 3e
       -0.12948336 0.013806413 0.08647283 0.18664667
000300 7e b1 24 be b2 2d 41 be 58 85 df 3d 2b 4b 82 3c
       -0.16083333 -0.18865088 0.10914105 0.015904984
000310 86 5e 72 3d d0 54 12 be 04 54 5b be bb 67 14 3e
       0.059172176 -0.14290166 -0.21418768 0.14492695
000320 e5 7f db bd 4c ea 1d be 98 00 36 be 9d f7 f5 3d
       -0.10717753 -0.15421408 -0.17773664 0.12010119
000330 1d ba 73 be 60 fc 0e 3e 11 b0 c1 3b 14 c4 53 3e
       -0.23801465 0.13963461 0.0059108813 0.20680267
000340 7f c0 50 bc 9a 32 4f be 7c 14 58 be 51 4f d5 3d
       -0.012741207 -0.20234147 -0.21101564 0.10415519
000350 8e e6 cf 3d dd 8b c0 3d f7 2a 4f bd 80 37 04 be
       0.10151397 0.09401677 -0.050578084 -0.12911797
000360 ed ef a0 bd bc 29 b6 3b 47 ab 20 3e b6 c1 cc bc
       -0.07858262 0.0055591743 0.15690337 -0.024994712
000370 96 34 55 be 5e b5 6c be fc 7e 1e 3e 86 53 53 be
       -0.20820841 -0.23116061 0.15478128 -0.2063733
000380 6a fd 8d bc 3d 2e 4f 3d 4c 1b 47 3e b1 0d e7 bd
       -0.017332751 0.050581206 0.19444007 -0.11281908
000390 c1 9b d3 bd d0 7f 2d 3e c7 48 60 be 28 37 3d be
       -0.10332442 0.16943288 -0.21902762 -0.18478072
0003a0 4b 19 ef 3d a1 da 0a be 08 25 93 3d fd b6 f2 3d
       0.11674746 -0.13559963 0.071847975 0.118513085
0003b0 79 35 12 be a2 21 12 3e 5a 92 5b bd de cc ca bc
       -0.1427821 0.14270642 -0.05360637 -0.024755891
0003c0 ed 10 fc bb 31 2e 7f bd a8 38 1e bd 0b a0 1a 3e
       -0.0076924474 -0.06229991 -0.03862825 0.15100114
0003d0 af ca 47 bd 8a 08 b0 bd c6 f8 2e bc c4 0a 23 be
       -0.04877728 -0.08595379 -0.010679429 -0.15922076
0003e0 4b f0 4f 3e 04 92 66 bd 30 71 18 be ec 02 26 3e
       0.20306508 -0.056291595 -0.14886928 0.16212052
0003f0 a8 ca b1 3d 4b 01 3f 3e 1e 3d 3d 3e ba bd 31 3e
       0.08681232 0.18652837 0.18480346 0.17357531

GAT_layers.1.f.bias f4 [64]
000000 38 00 7d bd 75 00 3e 3c a3 f7 99 3d 04 a0 02 be
       -0.061767787 0.011596789 0.07517936 -0.12756354
000010 35 cd aa bd 38 59 84 bd ed 4d fa bd 55 9f d0 3d
       -0.083399214 -0.064623296 -0.122218944 0.1018664
000020 e6 7c 23 bd 40 12 8b bd ca 1a fd bd 98 4c c3 3c
       -0.039914034 -0.0679059 -0.12358625 0.023840234
000030 0e 15 ab bd 18 de d6 bc 7d 79 ba bd fa bb 13 bd
       -0.08353625 -0.02622895 -0.09105203 -0.03606794
000040 b8 61 9c 3c d3 ee a1 bd 60 98 c6 bb 32 f1 b3 bd
       0.019089565 -0.0790688 -0.006060645 -0.08786239
000050 e0 93 9b 3d b4 42 db 3d a9 22 eb ba a0 e9 95 bd
       0.07596564 0.10706082 -0.0017939407 -0.07319951
000060 67 6d 87 3d ef 62 a3 bd 63 46 c4 bd c2 77 67 3d
       0.06612664 -0.079778545 -0.09583738 0.056510694
000070 54 09 02 3e f0 96 ce 3c 46 20 b7 bd 10 fb 6f 3d
       0.12698871 0.025218457 -0.089417025 0.05858904
000080 5f 37 e0 bc 63 67 a6 bd 10 55 27 3b 54 b4 3f bd
       -0.027370153 -0.08125188 0.002553288 -0.046802834
000090 dc de 89 3d e0 3b 81 3c 2b 1c 4c 39 b0 eb b6 bc
       0.0673196 0.015775621 0.0001946545 -0.022329181
0000a0 e5 e6 bf bd 20 c4 5f 3c ea 04 b9 3d 50 f3 18 3d
       -0.093702115 0.0136576 0.090341404 0.037341416
0000b0 90 ea c5 bd 58 a8 92 3d b4 21 ed 3d f3 83 d1 bd
       -0.0966388 0.07161015 0.11578694 -0.102302454
0000c0 47 bc 55 3d 80 9c 59 3c 9c 11 07 bd 66 5b 0c bd
       0.05218151 0.013281941 -0.032975778 -0.03426685
0000d0 de 41 9d 3d 07 0b a1 bd 63 b7 16 be f5 dd 1e 3d
       0.07678579 -0.078634314 -0.14718394 0.038785893
0000e0 d3 1d 97 bd 8f 77 26 3d 91 8f 4d bd 2b c3 51 bd
       -0.073787354 0.040641364 -0.050185744 -0.051211517
0000f0 c1 54 9b bc e7 ed 6a bc 98 d5 50 bd 3b 22 6c 3d
       -0.018961312 -0.014338947 -0.05098495 0.057649832

GAT_layers.1.w.weight f4 [1, 64]
000000 0e 24 94 be b6 ef 35 3e a8 02 74 be 62 dc 86 3e
       -0.28933758 0.17767224 -0.23829138 0.26340014
000010 d7 1f 6f bd 67 1f af bd 28 e4 48 3b bd 59 83 be
       -0.058379974 -0.085509114 0.003065357 -0.25654402
000020 06 4d 8d be 25 35 c1 3d 7e 94 4a be 67 ed 5f 3e
       -0.27597827 0.09433965 -0.19783208 0.21867906
000030 13 ce 96 3e f3 9f 6f 3e da ba 4a 3e d5 6e a6 bd
       0.29454097 0.2340086 0.1979784 -0.08126608
000040 c5 f7 82 be 75 38 a5 bd d0 26 04 3e 9c 25 06 3e
       -0.25579658 -0.08067409 0.12905431 0.13100284
000050 5b 63 6f 3e 4e 90 76 be e7 07 4a 3e d5 c3 d1 bd
       0.23377745 -0.24078485 0.19729577 -0.1024243
000060 07 81 c4 bd 36 a8 58 3e 68 9e 8e be 35 96 9b 3e
       -0.095949225 0.21157917 -0.2785523 0.30388036
000070 cb f0 ea bc 2d 38 8a 3e 5f a6 94 bd c6 e6 2c 3e
       -0.028679272 0.26995984 -0.07258295 0.16884908
000080 c0 f5 93 bd 96 e7 34 3e e6 c0 2c be 63 a9 7c 3e
       -0.072246075 0.17666468 -0.1687046 0.24673991
000090 8c 18 94 be 72 d6 85 be a9 5c b5 3d cf 9a 92 bd
       -0.28924978 -0.2614017 0.08855564 -0.07158434
0000a0 bd 42 c8 3c 7b 72 1d 3e f3 44 15 3e c5 99 8c 3e
       0.024445886 0.15375702 0.14577083 0.27461067
0000b0 2e a3 8c be a2 4d 52 be 4a 01 85 be b2 90 28 3e
       -0.27468246 -0.20537427 -0.25977546 0.16461447
0000c0 18 0b 2c be ea 90 6c 3d d2 ac b1 bd 53 1a 60 3e
       -0.16801107 0.05775539 -0.08675541 0.21885042
0000d0 e7 a8 86 3e 70 16 99 3e e2 79 ca bd dd 4c 8e 3e
       0.26300737 0.2989993 -0.098865286 0.27793017
0000e0 f6 09 96 be 2d cb 3a 3d 50 26 5f 3d a9 74 55 3d
       -0.29304475 0.04560392 0.054479897 0.05211321
0000f0 5c d3 30 be e4 7a 37 3e 76 cf 60 be 3a 77 92 be
       -0.17268127 0.17917973 -0.2195414 -0.28606588

GAT_layers.2.f.weight f4 [64, 128]
000000 d7 4b ff 3d ad 11 2d bd 1a 45 df 3c d9 9e 0c be
       0.12465637 -0.042253185 0.02725463 -0.1373247
000010 0a b7 05 3e 92 7d 47 3d 4f b1 29 be ca d9 13 bd
       0.13058105 0.048703738 -0.16571544 -0.03609637
000020 31 07 59 bd 0a b6 0c 3e 1f 6d 32 be 71 7e 16 be
       -0.052985374 0.13741317 -0.17424439 -0.14696671
000030 f6 70 fc bb af 11 f7 3d 07 86 59 3d 3e 7d 81 3d
       -0.0077038957 0.1206392 0.053106334 0.06322716
000040 e4 92 07 3d f0 5b 2b 3e eb ce f6 3d 97 a9 ee bd
       0.03309907 0.1673429 0.12051185 -0.116534404
000050 77 ee d4 3c 14 07 1a bd b4 96 74 bd 2e aa 6e 3c
       0.025992615 -0.037604406 -0.059714034 0.014566941
000060 14 0b 02 3e 6b c2 3f be 05 b2 f9 bd 00 78 c3 bb
       0.12699538 -0.18726508 -0.12192158 -0.005965233
000070 46 d6 6e 3c df d6 6c 3d 40 b5 fd 3d 13 4a 8e 3d
       0.014577454 0.057822105 0.12388086 0.06947722
000080 52 2c c1 3d 5f 8d f7 3d 64 c4 0b be ea d4 e6 ba
       0.094322816 0.12087511 -0.13649136 -0.0017611061
000090 9b bd 8d 3d d1 ce 22 bd 17 98 16 be 6a 98 2e be
       0.0692093 -0.039748017 -0.14706455 -0.17050329
0000a0 54 45 71 3d 8b 53 0d 3e fa a9 1a 3d 84 31 01 be
       0.058904007 0.138014 0.03775976 -0.12616545
0000b0 e5 0a 18 be 4a a6 bf bd 82 b7 18 be ae cf 2d be
       -0.14847906 -0.09357889 -0.14913753 -0.16973755
0000c0 cc 66 a2 bd de cd 32 be 85 51 03 be 3f 7d 2b 3d
       -0.07929763 -0.17461345 -0.12824066 0.04186749
0000d0 34 95 84 3c d0 c0 bd 3d 69 bb 19 be aa a8 e9 bd
       0.016184427 0.09265292 -0.15012898 -0.11409123
0000e0 b9 1d 32 be 71 3c 1a 3d 4e 51 2b be a2 e9 96 3d
       -0.17394151 0.037655298 -0.16730234 0.07368781
0000f0 d0 e1 05 be 55 2f f7 bc 2e e8 a9 bd 3a 5b d6 3b
       -0.13074422 -0.030173937 -0.08296238 0.006541637
000100 32 95 cc 3d c1 b2 ef bc bd ed 37 bd 16 93 76 bc
       0.09989394 -0.029260041 -0.04490446 -0.015049716
000110 da 20 8e 3d 75 92 1e 3d 39 8e f8 3d 4b 04 18 be
       0.0693986 0.03871389 0.12136502 -0.14845388
000120 67 0b 19 be ce 12 20 bd a7 bc 09 bd 6a c8 0b 3e
       -0.14945756 -0.039080434 -0.03362718 0.1365067
000130 77 7a 08 3e f1 1d a4 3d 33 10 8c bd f7 2a ef 3c
       0.13327967 0.08013523 -0.06839027 0.029195292
000140 cf 5f 26 be 74 56 ec 3d 8e 14 0a be bd 01 87 3d
       -0.16247486 0.11539927 -0.13484403 0.065921284
000150 c4 e3 c8 3d 7f f1 d7 3d b2 a2 60 bc d7 07 0f 3e
       0.09809068 0.105441086 -0.013710665 0.13967834
000160 93 7b 0e bc d8 0b cc bd 2a 33 d5 3d f5 44 13 3e
       -0.008696455 -0.099631965 0.104101494 0.14381774
000170 40 e9 4f be 9d 8f b4 bc 37 7f ed bd 79 b7 34 3e
       -0.20303822 -0.022041136 -0.1159653 0.17648114
000180 ba fe 07 be e2 1a c0 3c ca fc 21 be 33 bb c7 bd
       -0.13280764 0.023450319 -0.15819088 -0.09752502
000190 70 2b 5c bd 6a d0 fc bd 7a b4 10 be 8d d5 25 3e
       -0.053752363 -0.12344439 -0.14131346 0.16194744
0001a0 4d 89 f6 bb 39 38 16 be e8 8f ee bd ce be f7 3d
       -0.0075236917 -0.14669885 -0.11648542 0.1209694
0001b0 f6 e4 04 be d7 1b 1d 3e c4 04 b1 bc a7 4a 14 be
       -0.12977967 0.15342651 -0.021608718 -0.14481603
0001c0 b1 bf b1 3c 12 8c d9 bd 71 3f 24 be 32 3d 2d 3e
       0.02169785 -0.106224194 -0.16039826 0.16917875
0001d0 52 62 8d bc 16 e4 b9 bd 22 f2 4b be 23 f8 a2 3d
       -0.017258797 -0.09076707 -0.19916585 0.079574846
0001e0 9a 83 13 be 45 c5 90 3c 7d 24 4d 3b 59 78 2d be
       -0.14405671 0.01767219 0.0031302266 -0.1694044
0001f0 c3 51 1e bb 47 19 8e 3d 0b ef 26 be 29 32 23 bd
       -0.002415762 0.06938415 -0.16302125 -0.03984276
000200 3c b6 26 be 9d 8a 20 3d b2 21 30 be 99 d9 fd 3d
       -0.16280454 0.039194692 -0.17200354 0.12395019
000210 42 df a6 3d 25 85 09 bd f9 ec ed bd fb bf ac 3d
       0.08148052 -0.033574242 -0.116174646 0.08435055
000220 11 98 12 be cb 81 53 bd 8c e5 d4 3d 90 87 30 3e
       -0.14315821 -0.051637452 0.10395345 0.17239213
000230 92 80 2b 3d 7b 4c 02 3e 4d cc 76 bd e9 bf 2f 3e
       0.04187066 0.12724487 -0.06025343 0.17163052
000240 d1 60 c4 3d 38 bb f4 bd ee 75 b3 3d b2 29 b1 bc
       0.09588779 -0.11949772 0.08762728 -0.021626327
000250 68 c4 0f 3e d4 b2 30 be d0 20 1a 3e 30 1e 14 3e
       0.14039767 -0.17255718 0.1505158 0.1446464
000260 7e 05 72 bc 48 c4 86 bd c8 84 0b bd 06 10 07 be
       -0.014771817 -0.065804064 -0.034062177 -0.13189706
000270 63 8d 2b 3d 17 db c8 3d f3 e6 df bd 09 6d 2f bd
       0.041882884 0.09807413 -0.10932722 -0.042828593
000280 f6 63 2d be f9 88 f3 3d 41 74 aa 3d 60 28 16 be
       -0.16932663 0.1189136 0.08322955 -0.1466384
000290 42 5b 02 be 3e c7 9d bd cc 10 2c 3e 85 25 98 3c
       -0.12730125 -0.07704018 0.16803282 0.018572578
0002a0 11 5b 8c bd e7 d8 04 be 0b 9e c5 bd 17 34 55 bd
       -0.06853307 -0.12973367 -0.09649285 -0.05205163
0002b0 22 04 2a be 81 fc 25 be b2 2d b7 3d 30 cc 59 bd
       -0.16603139 -0.16209604 0.089442626 -0.053173244
0002c0 db 9a b5 ba e0 47 c9 3d d2 c8 67 bd eb 08 01 be
       -0.0013855355 0.09828162 -0.056588 -0.12601058
0002d0 92 f6 bb bd 85 31 31 3d c4 d1 1f 3e 28 a9 20 3e
       -0.09177889 0.043260116 0.15607363 0.15689528
0002e0 08 b9 61 bd d6 1e a4 3d d2 90 ad bc 76 6a ab bd
       -0.0551081 0.08013694 -0.02118722 -0.08369915
0002f0 eb 11 c6 bb c3 7c 11 3e d1 12 13 3e 7f c7 f1 3d
       -0.0060446165 0.14207749 0.14362647 0.11805629
000300 61 ae 4c 3b 1a 28 94 3c fb 68 9a 3d 26 e1 03 be
       0.0031231868 0.018085528 0.07539555 -0.12878856
000310 f3 4f 12 be 03 4c 9c bd 43 f2 c8 bd a2 49 f7 bd
       -0.1428831 -0.076316856 -0.09811833 -0.12074591
000320 63 1f ab bd 07 2b 1d 3e a8 0a 77 bc 3c 1a 0a 3d
       -0.08355596 0.15348445 -0.015078224 0.033716425
000330 09 b9 88 3d f9 59 1d bd 44 e0 2e be 4a 6e 26 be
       0.06675918 -0.038415883 -0.17077738 -0.1625301
000340 b5 ac 2d be 24 bd e1 bc 3a 5b b3 bc 60 6f b4 3d
       -0.16960414 -0.02755601 -0.021894086 0.088103056
000350 86 c1 03 be 1c 34 9b bc ac c9 1f be c2 b5 55 bd
       -0.12866792 -0.018945746 -0.15604275 -0.05217529
000360 6b 37 46 3d 43 79 dc 39 45 4c e9 3c f3 e1 ba bd
       0.048392694 0.00042052017 0.028478751 -0.09125128
000370 77 1b 42 bd 9e 94 c3 3d a6 18 05 3c e1 d1 d2 bd
       -0.047389474 0.09549831 0.008123552 -0.102939375
000380 87 55 db bd 76 3c 7c bd 6b 2b 16 be 0c c8 97 3d
       -0.107096724 -0.061581098 -0.14665 0.07411203
000390 4c 8d 15 3e c6 23 c6 3b 00 62 c4 3d ac 24 fa 3d
       0.14604682 0.006046745 0.095890045 0.12214026
0003a0 72 98 04 3e 54 9a 16 3e 4c 6f 1c 3e 7c 3b d5 bd
       0.12948778 0.14707309 0.15276831 -0.10411736
0003b0 3a cd 32 3e a9 26 fe bd 75 cf df bd 54 9d d3 bd
       0.174611 -0.124097176 -0.10928241 -0.10332742
0003c0 42 b1 0a be 23 fc ff 3c 8d fb 0c 3e 4f 58 d1 3d
       -0.13544181 0.031248158 0.13767834 0.10221922
0003d0 0d a7 25 be e9 bb ab bd bd 69 16 3e 3c b0 a2 bb
       -0.16177006 -0.083854504 0.14688773 -0.0049648564
0003e0 03 9b 93 bd 51 c6 3a bd 7c 4c 9f 3c bd 85 92 3d
       -0.072073005 -0.045599286 0.01944565 0.07154415
0003f0 77 c9 22 3e 39 37 15 be 1b 52 82 3d 7a e3 16 3e
       0.15897165 -0.14571847 0.063633166 0.14735213

GAT_layers.2.f.bias f4 [64]
000000 7e 09 0b 3e 06 0f 9c bc de 62 0b 3e 25 66 8e 3c
       0.1357784 -0.019050132 0.13611934 0.01738269
000010 26 70 39 bc 4e 54 14 3e 03 b3 1f 3e c5 87 cc 3d
       -0.011318242 0.14485285 0.15595631 0.099868335
000020 d2 7d b5 3d 11 10 0e 3e f1 d6 02 bd 12 31 ce 3d
       0.08861889 0.13873316 -0.031943265 0.10067953
000030 85 a0 87 bc 41 fa a8 bd 6c 7c 28 3e 76 2c 14 3e
       -0.016556034 -0.08250857 0.16453713 0.14470086
000040 51 49 30 3e 7e c1 13 bd 76 0a 1e 3e ac c3 ec bc
       0.17215468 -0.0360732 0.15433678 -0.028901897
000050 8f 55 08 3e 74 a4 ca bb d8 6c ed 3d 7f 52 04 bb
       0.13313888 -0.006184155 0.11593026 -0.0020190773
000060 42 dc 60 3d e8 db 01 3e b5 09 21 3e ff bc c8 bc
       0.054897554 0.12681544 0.15726359 -0.024504183
000070 13 f9 13 bc dd 04 0b 3e 24 b5 1c 3e c4 98 18 be
       -0.009031552 0.13576074 0.15303475 -0.14902025
000080 32 27 3c bd bc 20 c8 3d d2 64 87 bd f9 7e 18 bb
       -0.045935817 0.097718686 -0.06611027 -0.002326904
000090 7d a2 d3 3d cc d0 21 3d 40 a5 3e bd a8 9b 43 bd
       0.103337266 0.039505765 -0.046544313 -0.047755867
0000a0 38 e0 07 bc 47 9a ee bc 6f 74 01 3e 86 17 1e bc
       -0.008293204 -0.0291263 0.12642072 -0.009649163
0000b0 53 90 bb bd 98 47 13 bc 8a a8 08 3e e5 e7 06 bd
       -0.09158387 -0.008989237 0.13345543 -0.032935996
0000c0 15 ff c9 bb 7b 27 2f 3e 36 b9 13 be 86 2d 02 3e
       -0.0061644414 0.17104904 -0.14426121 0.12712678
0000d0 1e f2 9a bd f6 41 df bc 1e c0 a2 3d 5f 7a e5 3d
       -0.075657114 -0.027253132 0.079468 0.11204981
0000e0 c8 e6 c7 3d 31 79 86 bd ab ab ff bb f6 92 0e 3e
       0.09760815 -0.06566084 -0.007802447 0.13923249
0000f0 c3 ec c6 bc 1c 01 a4 3d b8 52 88 bc c8 ff 6d bb
       -0.024282819 0.08008024 -0.016641006 -0.0036315788

GAT_layers.2.w.weight f4 [1, 128]
000000 de 96 34 be 5a 61 18 be c8 f5 a0 3d 08 6d b0 bd
       -0.17635676 -0.14880887 0.07859379 -0.08614546
000010 64 e0 e6 3c ed 0e 2f 3e 89 bd 8a bb 00 19 dd 3d
       0.02818317 0.17095537 -0.00423402 0.10795784
000020 a4 2e b5 3d 67 d0 ca bd 9d 2e 4d 3d 76 d3 3d 3d
       0.088467866 -0.09903031 0.050093282 0.046344243
000030 23 4b 4e 3e 7e 69 40 be a2 70 20 3e 5f f1 fe 3d
       0.2014585 -0.18790242 0.15667966 0.12448382
000040 fd a0 17 3e e0 4b 5f 3d 92 f3 02 3e 28 f5 3c 3e
       0.14807506 0.05451572 0.12788227 0.18452895
000050 d0 42 e9 3d 47 b6 50 3e 7f a7 db 3d c2 65 50 3e
       0.113896966 0.20382033 0.10725307 0.20351318
000060 5e fe f6 3c d4 53 70 bd e4 60 2b 3d eb d1 80 3d
       0.030150589 -0.058673695 0.04184045 0.06290039
000070 01 ee cb bd 56 22 07 3e c3 ac 40 be 16 58 17 3e
       -0.09957505 0.13196692 -0.18815903 0.14779696
000080 c2 e2 bd 3d 28 1d 25 be 61 f5 21 bd 5e 42 8d bc
       0.09271766 -0.16124403 -0.039540652 -0.01724356
000090 c1 26 b9 3d 89 fb 23 be 46 32 37 bd 8a 52 dc bd
       0.09040595 -0.16013922 -0.04472568 -0.107579306
0000a0 ed 87 3a be c2 8e 0c be 85 42 1b bd b8 ec ce bc
       -0.18215914 -0.13726333 -0.037905235 -0.02525936
0000b0 33 76 10 3e 73 a6 4c be b0 00 51 3c 31 bb 65 3d
       0.1410759 -0.1998537 0.012756512 0.056086723
0000c0 83 86 00 3e bc 5a 39 bb 0e 8f d5 bd cd f6 f5 bd
       0.12551312 -0.0028282842 -0.10427676 -0.12009964
0000d0 c0 0f 3d be ef 49 06 be f4 5d 0e 3e e8 e0 50 be
       -0.1846304 -0.13114141 0.13903028 -0.20398295
0000e0 69 13 62 be 92 6e a1 3c 9a f1 07 be 10 04 5f be
       -0.22077717 0.019706044 -0.13275757 -0.21778893
0000f0 9e 50 53 bc 1f fb 6b 3d 22 d9 d1 bd 37 20 9c 3d
       -0.012897639 0.057612535 -0.10246493 0.07623332
000100 5d c6 92 bd 65 2c c4 3d d7 0e 36 be 5e f8 25 bd
       -0.07166741 0.0957878 -0.17779098 -0.040520065
000110 26 3c 96 3d db ab 54 be 5d 67 34 3e cd 33 2b be
       0.07335691 -0.20768683 0.17617555 -0.16718979
000120 2e 1e e4 3d 07 ad 82 bd 12 72 f6 bd 73 1a 5a 3e
       0.11138569 -0.063806586 -0.12033476 0.21299152
000130 17 df 56 3d 94 bf f3 3d 92 6d 76 be c6 08 21 be
       0.05245885 0.11901775 -0.24065235 -0.15726003
000140 ff 3a 0a be 21 ff 98 bd d9 05 85 3d b9 3a 93 3d
       -0.13499068 -0.07470537 0.06495256 0.07188935
000150 e9 bd 46 be 30 db 53 3e 3a 50 30 be d8 6b 8b bd
       -0.19408382 0.20689082 -0.17218104 -0.06807679
000160 cb ec 6a 3d a5 87 55 bd 57 fa bc 3d ad 47 ec bd
       0.05735473 -0.052131314 0.09227436 -0.115371086
000170 89 94 3b 3c 87 56 c7 3d ea 5a b5 3c 60 e1 11 bd
       0.011448988 0.09733301 0.022138078 -0.035615325
000180 cf 78 2f 3d 98 15 35 3e b1 c6 f4 bd 89 76 0c bd
       0.04283982 0.17684019 -0.1195196 -0.03429273
000190 e8 5a 5c be 2f d4 3d be cb 05 d6 bc d3 8c 2b 3e
       -0.21519053 -0.18537973 -0.02612581 0.16752939
0001a0 47 9b 02 be ba f4 1f 3e ee b1 2f bd a4 2e 69 be
       -0.12754546 0.156207 -0.042894296 -0.22771698
0001b0 8e 87 2a 3e f8 17 1a bd b5 ab dd bd 5e 4c 19 be
       0.16653273 -0.037620515 -0.10823766 -0.14970538
0001c0 2d 12 1d 3e a8 9e 49 3e d8 f2 f2 3d e9 c2 19 3e
       0.15338965 0.19689429 0.11862725 0.15015759
0001d0 ea 9a 21 3e be e6 87 3d 45 dd bf bb f6 3b 8f 3d
       0.15781751 0.066358075 -0.005855235 0.069938585
0001e0 7c 4e a1 3d 0f f3 4e 3d 0d b1 15 be 3a 99 15 3e
       0.07876298 0.050524767 -0.14618321 0.14609233
0001f0 34 54 be bd 8d 36 e1 3d 6c 96 50 bd 60 b1 50 be
       -0.09293404 0.10996733 -0.050924703 -0.20380163

MLP_layers.0.weight f4 [32, 64]
000000 e9 fd bd 3d b0 57 07 bd f6 43 fe 3b 40 0b ae 3c
       0.09276945 -0.03304261 0.0077595664 0.021245599
000010 73 ba 40 be 43 82 6f bd c8 30 f1 3d 01 ad df 3d
       -0.18821125 -0.058473837 0.117768824 0.1092167
000020 25 8b 9b 3d a7 b5 18 bd 62 a1 94 bd 8d dc 04 3d
       0.07594899 -0.037282612 -0.07257344 0.032436896
000030 ed 32 8d 3c 65 ac 9d 3d e2 99 97 bd 65 da 92 3c
       0.017236197 0.07698897 -0.07402398 0.017926404
000040 28 4f 80 bd 5f f5 c5 3d 42 4d 90 bd 6d f4 9f bc
       -0.06265098 0.096659414 -0.07045986 -0.019525731
000050 f0 10 19 3e 3f 02 9b bd 7b f9 b5 3d 26 6c 9f 3b
       0.14947867 -0.07568788 0.08885475 0.004865187
000060 74 96 c8 3d 51 e6 1a 3e 23 77 ac bd a2 1d f7 bc
       0.09794322 0.15126921 -0.08421161 -0.030165497
000070 72 42 2a bc 20 8a fe bc d5 d1 73 3d 40 b2 7f 3d
       -0.010391818 -0.031071723 0.059526283 0.06242585
000080 8a 11 ac 3d 1c 9b e5 bc 52 12 8d bc ce 7d 13 bd
       0.08401783 -0.028028063 -0.01722065 -0.03600865
000090 52 d7 2a 3c 8f 47 29 bd aa 99 35 3d 53 30 8b 3d
       0.010427313 -0.04132801 0.044336 0.067963265
0000a0 6a 9a 7e bc 75 f8 39 be 94 b0 08 be 19 1b 32 3c
       -0.015539745 -0.18161185 -0.13348609 0.010870718
0000b0 6c cd 42 bc 54 41 a4 bd 4f 3d b2 3d 7e 9c b6 3d
       -0.011889797 -0.08020273 0.087031 0.08916567
0000c0 26 81 c3 3d 78 d4 9a 3d c1 cf 79 3d c1 77 f7 bd
       0.095461175 0.075600564 0.060989145 -0.12083388
0000d0 c1 17 20 3d da b3 61 3d 64 e9 a2 bd 4a 38 e2 3d
       0.039085153 0.05510316 -0.07954672 0.110458925
0000e0 e0 13 0d be 52 c7 9d 3c bf e2 5a bd cd 9d de ba
       -0.13777113 0.019260082 -0.0534389 -0.0016984284
0000f0 5a 6d c4 ba da 3e 0b be fc c7 21 ba 81 19 aa 3d
       -0.0014986203 -0.13598195 -0.00061714626 0.08305646
000100 5e 9e 20 3d 3c d3 38 bd 9e 85 27 bd 0c 8c a6 3d
       0.03921353 -0.045123324 -0.04089891 0.081321806
000110 3c 5f c1 bd a8 bb 6c 3d 82 1f 21 bd 80 3e e2 3c
       -0.09441993 0.05779615 -0.03933669 0.027617693
000120 0f 84 9e 3b 09 48 91 bd b0 c1 17 bd ee b1 8a bd
       0.00483752 -0.07093818 -0.03704995 -0.06772219
000130 e5 0f 9d bd 9f 4d ab 3d 88 7f 84 3c 13 4e a5 3d
       -0.07669047 0.083644144 0.016174093 0.08071532
000140 5b 4e 38 bc 1d fe ee 3c 58 ff 80 3d 87 a0 01 be
       -0.01124915 0.029173905 0.06298703 -0.12658893
000150 c4 07 39 bd 00 91 a3 3a 06 a0 02 bc 3a 17 c3 bc
       -0.04517342 0.0012479126 -0.007972723 -0.023814786
000160 4f e5 ec bc ae e2 66 bb 94 b0 66 bc 62 97 bd 3d
       -0.028917937 -0.0035230326 -0.014080185 0.092573896
000170 85 30 c8 3d 5a b1 88 bd 56 36 57 3d aa f2 d3 3d
       0.09774879 -0.06674452 0.052542053 0.10349019
000180 da dc bd 3d 6b 77 e1 3c d6 3e 79 bd fd 74 c4 3d
       0.0927064 0.027522763 -0.06085094 0.09592626
000190 2f 63 e6 bd 6e b5 d4 bd 79 f4 bc bd 9a ed b5 3d
       -0.112493865 -0.103861675 -0.09226317 0.088832095
0001a0 1b 8a 8e bd c8 3e 95 bd a2 89 c0 bd 81 6a ca 3d
       -0.06959935 -0.07287365 -0.094012514 0.09883595
0001b0 8d 04 79 bd f4 60 1d 3d 8a cc 98 bd 21 55 6c 3c
       -0.060795356 0.03842254 -0.07460888 0.014424593
0001c0 db 8e 40 bd 6e e1 d1 bc e8 4d 9b 3d 6d 75 60 bd
       -0.047011238 -0.025620189 0.07583219 -0.054799486
0001d0 60 4c 1d 3d 7f b0 cb 3c da 96 55 3c 0e 64 c2 bc
       0.038402915 0.024864433 0.013036454 -0.02372935
0001e0 5f 82 eb 3d 5e 9c 76 bd 09 36 43 bc 94 28 76 3c
       0.11499476 -0.060207717 -0.011914738 0.015024323
0001f0 16 f0 67 bd 76 cc 39 3d 8d 45 64 bd 36 52 8d 3c
       -0.05662545 0.045361005 -0.05573039 0.017251115
000200 68 b1 0d be 50 8f 57 bd c1 58 80 bd 51 c9 bf 3d
       -0.13837206 -0.052626908 -0.062669285 0.0936457
000210 38 c9 2a bd b3 66 a0 3d 81 87 7c bd 49 72 1f bd
       -0.041695803 0.07832088 -0.061652664 -0.03892735
000220 84 cc 86 3d 0f 9f 3e 3d 46 03 e7 3d 97 79 72 3b
       0.06581977 0.04653841 0.11279921 0.0036998743
000230 34 7a 6f bd eb 8b f8 bd 0d 50 88 3d df d4 92 3d
       -0.05846615 -0.12136062 0.066558935 0.07169508
000240 d6 63 ab 3d 02 31 02 bd 52 89 9d bd 1d d5 75 3d
       0.083686516 -0.03178502 -0.076922074 0.060017694
000250 11 6c 21 3b 38 4e fc 3b 6a da b5 bd ee 63 0b 3d
       0.0024631063 0.007699754 -0.0887955 0.034030847
000260 f8 88 c2 3d 1c b4 b6 bc 43 51 25 3d 75 6a df bd
       0.09498781 -0.02230268 0.0403607 -0.10908977
000270 13 7c e9 bd b7 44 84 bd 59 08 41 3c 1a c3 9e 3d
       -0.114006184 -0.06458419 0.011781775 0.077520564
000280 5d f9 86 3d 51 d4 1d bd 5f 21 4d 3d 23 c5 d4 bd
       0.06590531 -0.03853256 0.050080653 -0.10389163
000290 f7 47 0d bd 5a c0 4c bc 67 fd df 3d 9c 0c 25 3d
       -0.03449246 -0.012497032 0.109370045 0.04029523
0002a0 6e 99 d5 3d 0a 2a 13 3e 56 b8 dd 3d b7 ec df 3d
       0.10429655 0.14371505 0.10826175 0.10933822
0002b0 c5 34 59 bd f2 1d 99 3c 0b 3b 51 bd fe 5f 57 bd
       -0.05302884 0.018691037 -0.0510817 -0.05258178
0002c0 c3 90 c5 3d 24 76 04 be 2f 73 19 3c 72 ed cf bd
       0.09646752 -0.12935692 0.009365841 -0.10152711
0002d0 fe 0d 91 3d 37 a7 8e bd d8 4d 0f be f5 e8 69 bd
       0.07082747 -0.069654875 -0.13994539 -0.05710693
0002e0 a3 2d 60 3c a2 3d 42 bc ba 08 8d 3c 0e a7 6a 3d
       0.013682756 -0.011855515 0.017216075 0.057288222
0002f0 83 19 ba 3c 37 40 1a 3d 4b 07 d5 3d b2 8d 96 3d
       0.022717243 0.037658896 0.10401782 0.07351245
000300 4f 29 bb 3d 1a 6b d8 3d 69 8e 33 3c 8f ed a4 bc
       0.09138738 0.10567303 0.010959246 -0.020132808
000310 b0 84 98 bd 64 89 33 3d c8 21 df 3d 6a be 69 3c
       -0.07447183 0.043832198 0.10895115 0.01426659
000320 8a 71 bf bc 46 ca c1 3d 4c 41 e1 bd d6 74 fd 3d
       -0.02336957 0.09462409 -0.109987825 0.123758
000330 7c 68 b0 3d 42 1b a7 3c ee 71 be bd 7e 8e 3d bd
       0.08613679 0.02039874 -0.09299074 -0.04627847
000340 c3 fb b0 bd 36 9a aa bc 1e 1d cd 3d bb ad a9 bd
       -0.0864177 -0.020825487 0.10015319 -0.082850896
000350 dc 5b 59 3d 1a f7 f9 bd 59 b8 2e 3e e2 33 07 be
       0.05306612 -0.12205334 0.1706251 -0.13203385
000360 80 a4 35 3d 96 63 61 bd 44 18 68 3c 39 76 d4 bc
       0.044346333 -0.055026613 0.014165942 -0.02593528
000370 04 06 eb 3d c2 1d ff bc d3 4c 01 3d d8 b3 b5 bd
       0.11475757 -0.03114212 0.031567406 -0.08872193
000380 b1 42 f4 bd 2e b7 d5 3c 4d 54 80 3a bc 60 da 3c
       -0.11926783 0.026088323 0.0009790749 0.026657455
000390 b6 81 ab 3d 3f a3 a5 bd 7e 13 27 3d ea 82 fc 3c
       0.0837435 -0.08087777 0.040790074 0.030824143
0003a0 67 93 1d 3d 37 91 ff be 31 0a da 3d c6 7c 92 bc
       0.038470652 -0.49915478 0.10646475 -0.017881762
0003b0 26 d7 e9 bd a2 59 e7 bd 5d 7c 30 3d f4 57 80 bd
       -0.114179894 -0.11296393 0.043087352 -0.06266776
0003c0 fa 87 3b 3d 9e 48 6a bd 15 43 c3 bd b1 50 d9 3d
       0.045783974 -0.05719816 -0.09534279 0.10611094
0003d0 75 fa e5 bd 3c 02 fe bd d8 f9 b2 3c 18 a8 ab 3d
       -0.112294115 -0.1240277 0.02184765 0.08381671
0003e0 65 f3 fd bd 7c 42 39 bc 13 81 3a 3d be 1b 90 3d
       -0.123999394 -0.011307355 0.04553325 0.070365414
0003f0 50 09 c2 3d 7b b8 dd 3c 94 1f 02 be ad 0d d4 3d
       0.094744325 0.027065506 -0.12707359 0.10354171

MLP_layers.0.bias f4 [32]
000000 0e 4c 07 3d 3d a4 33 3d fa a9 6f 3d 3f d4 21 3d
       0.033031516 0.0438578 0.05851171 0.039509054
000010 4b 17 36 3d 30 e7 27 3e 09 4a 41 3c 2a 02 e5 3d
       0.044455808 0.16396785 0.0117974365 0.111820534
000020 13 73 03 3d 99 b0 97 bd 0d d9 36 3e 2c 5b 42 3e
       0.032092165 -0.0740673 0.17856236 0.18980092
000030 41 33 34 3d 3c 84 79 bd be b5 c9 3d b0 73 e3 3d
       0.043994192 -0.060917124 0.09849118 0.1110605
000040 8b 75 9a bc 6c e8 8a bd 2c 54 5e 3e 5a 29 06 3c
       -0.018854877 -0.06782612 0.21711797 0.00818857
000050 3e 47 f2 3b ea 2e e9 3b c0 8c 2f bb f1 50 97 3d
       0.0073937466 0.0071161883 -0.0026786774 0.07388485
000060 1c 40 0d 3e a0 8c 29 3e d8 54 e0 3d f5 98 2d 3e
       0.13793987 0.1655755 0.10953683 0.1695288
000070 38 bf 9e 3d 61 42 5d 3c 74 cd b0 3b 71 31 9c 3c
       0.07751316 0.0135045955 0.0053955857 0.019066544

MLP_layers.1.weight f4 [1, 32]
000000 d9 b6 b2 3b 30 d8 12 3e 39 6a 9e bd ce bc 90 3b
       0.005453926 0.14340281 -0.07735104 0.0044170385
000010 5d 5f 0e be 62 6e 07 3e 58 0c 5f 3c b0 7d db 3d
       -0.13903566 0.13225701 0.013613783 0.10717332
000020 86 4a 69 3c d4 c5 2e bd 94 74 85 3e c6 35 2c 3e
       0.014238959 -0.042669132 0.26065505 0.16817388
000030 79 d0 07 3e ed ce 66 3d 7b 31 19 3e 28 f1 6c 3c
       0.1326312 0.056349684 0.14960282 0.014461793
000040 66 27 06 bc 37 2d be bc 39 fb 39 3e 4a 1c 52 bd
       -0.008188104 -0.02321492 0.1816224 -0.05129651
000050 ef 24 77 3e 7e d6 88 bc c6 29 b3 38 2e 83 a6 bc
       0.24135183 -0.01670384 8.543166e-05 -0.020326223
000060 2e cc 84 3d 53 79 34 3e 77 bb 3a 3e 59 86 40 3e
       0.06484257 0.17624407 0.18235575 0.1880125
000070 1f 77 c0 bd 96 8c 8a bd ce 63 6e 3e 2c a0 ad bc
       -0.093977205 -0.06765096 0.2328026 -0.02119454
