SLIC_GAT/last3.pt (torch, 580781 bytes, 30 tensors)

GAT_layers.0.GAT_heads.0.f.weight f4 [32, 124]
000000 31 90 49 bd 5a 3d 7d bd 89 4d 0d be cd e6 ed bd
       -0.049209777 -0.061826088 -0.13799109 -0.116162874
000010 11 ca de bd 8f 10 d3 3d 2e eb dd bd ab 2d 1d 3e
       -0.10878385 0.10305893 -0.108358726 0.15349452
000020 cc a4 0b be f1 37 35 3e 2a 59 41 3e 23 90 11 3e
       -0.13637084 0.17697121 0.1888167 0.1421514
000030 cb 34 0f be bd 19 c7 3d 4c db 3d 3e f5 c3 b4 bb
       -0.13984983 0.09721706 0.18540686 -0.005516524
000040 c8 cc be 3c a2 60 86 bc 41 a3 73 bd 39 1f a9 bd
       0.023291007 -0.0164035 -0.059481863 -0.082579084
000050 37 69 22 be c1 65 c9 bb 7b ca 1e 3e b7 f3 fd ba
       -0.15860449 -0.006146163 0.15506928 -0.0019375001
000060 56 d1 e8 3d a5 ec 08 3d 11 c9 2a be 93 50 26 be
       0.11368053 0.033428807 -0.16678263 -0.16241674
000070 53 d3 92 bc 09 b4 f3 3d 1a 62 79 3d 5d b5 21 be
       -0.017923033 0.11899573 0.060884573 -0.15791841
000080 4a 1a 06 be 7d 97 26 3d 6f f3 41 3e 4b a5 f6 3d
       -0.13095966 0.040671814 0.18940519 0.12043246
000090 59 7a b6 bd b1 bf 45 be d2 ca 0e bd fd 60 b1 bd
       -0.08910055 -0.19311406 -0.034861393 -0.08661077
0000a0 cb 73 b9 bc ad 7f cb bd 13 2c 46 be 15 61 0f 3e
       -0.022638222 -0.099364616 -0.1935275 0.14001878
0000b0 4b 0b fd 3d 1b da 37 3e 8a b5 5a bd 9c d0 db 3d
       0.123556696 0.17954294 -0.053395785 0.107331485
0000c0 1f fb ce 3d e3 e6 17 3c 78 3e 3a 3e bc f6 2a 3e
       0.10106491 0.009271356 0.18187892 0.16695684
0000d0 0c 23 fd bd 54 09 90 3d bc 4d 53 3d 87 d9 42 3d
       -0.123602 0.07033029 0.051587805 0.04757073
0000e0 68 bd 88 bc 13 3d 08 bd a4 79 9a 3d f1 33 18 3e
       -0.016691878 -0.03326137 0.07542732 0.14863564
0000f0 44 73 34 3e 2b a2 cb bc 1f 2c ac bb b0 c3 15 be
       0.17622095 -0.024857601 -0.005254283 -0.1462543
000100 f4 69 13 3e 72 29 8a bc 5c ce 81 3d 9f f0 17 3d
       0.14395887 -0.016865466 0.06338188 0.03709471
000110 50 47 dd 3c 18 59 86 bd a6 ec 8d bd 41 41 00 be
       0.027011544 -0.06559962 -0.06929903 -0.12524892
000120 e0 a7 ff bb 89 29 c2 bc b7 12 77 bd 4d e8 d6 bd
       -0.0078019947 -0.023701446 -0.060320582 -0.104935266
000130 3a 2e 40 3e c0 06 41 be e7 c4 32 3d 7e 8c 20 3e
       0.18767634 -0.18850231 0.043644812 0.15678594
000140 36 16 54 bd 9b 4d cd bc a8 17 15 be 02 ad aa 3d
       -0.051778995 -0.02506142 -0.14559805 0.0833378
000150 87 66 6d 3c 10 af 9b 3c a7 52 0d 3e c9 56 6c bd
       0.014489776 0.019004375 0.1380106 -0.057699952
000160 10 84 e0 bd e6 17 41 3e de 42 bf 3d d9 59 2b 3e
       -0.10962689 0.18856773 0.09338926 0.16733493
000170 88 e7 ef bd 5a d5 32 3c 98 da f2 3d e9 8a 9c 3d
       -0.11714083 0.010915125 0.118581 0.076436825
000180 34 95 25 bd d4 69 44 be 96 d0 6f bd 5d 69 f5 3d
       -0.040425494 -0.19180995 -0.058548532 0.11982987
000190 16 02 85 3d 2d 09 77 3d 26 0f 40 3d 1e 86 05 be
       0.064945385 0.060311485 0.046889447 -0.13039443
0001a0 f9 9e fc bd 65 f8 9a bd 2f cb 21 be d8 a5 3c bd
       -0.12335009 -0.07566909 -0.15800165 -0.0460566
0001b0 dc ac 25 3b f6 03 d4 bd 22 b1 29 3e 99 ca 9e bd
       0.0025280034 -0.10352318 0.16571477 -0.07753486
0001c0 6d e2 fc 3c fc 6e 2d be cd fb 82 bd c2 23 35 bd
       0.030869687 -0.16936868 -0.063956834 -0.044223554
0001d0 b7 4d bc 3d 33 5d 9e 3d f9 bc 65 3d 1f be 1c be
       0.091945104 0.0773262 0.05608842 -0.153069
0001e0 c2 2c 31 be d8 30 0f be f8 f6 46 3e 88 d8 b1 bd
       -0.1730223 -0.13983476 0.19430149 -0.08683878
0001f0 8f b3 ca 3d 15 cf 94 3d 0c cd 3f be b8 41 2c be
       0.09897529 0.0726606 -0.18730563 -0.16821945
000200 56 ad 15 be 78 b7 3b be 3b ce 20 3e c9 6e 3a 3e
       -0.14616904 -0.18331707 0.1570367 0.18206324
000210 28 27 0a be 9b f9 15 bd c3 83 00 3e ca ea ca bd
       -0.134915 -0.036614995 0.12550263 -0.09908064
000220 76 8d 03 be 41 ce 95 3d 37 6b 14 be 1c e5 31 3e
       -0.12846932 0.073147304 -0.14494024 0.17372555
000230 03 bc b9 3d c5 94 65 bc 66 f8 1b be 7f 73 3d 3e
       0.090690635 -0.01401252 -0.15231475 0.1850109
000240 60 96 12 3e aa c6 47 be 4b d7 ba 3d d4 44 d9 bd
       0.14315176 -0.19509378 0.09123095 -0.10608831
000250 67 a8 0a be 96 f7 b0 bd d8 de 09 be d3 dc 3a 3e
       -0.13540803 -0.08640973 -0.13463914 0.182483
000260 3a 3f d4 3d 0e eb 90 3d ef 29 42 3e 02 8b df bd
       0.10363622 0.07076083 0.18961309 -0.109151855
000270 64 ef fe bd 44 9d 29 3d fd aa 45 3e 51 fc 90 bd
       -0.12448004 0.041409746 0.19303508 -0.070793755
000280 ee 78 97 bd ff 34 c9 3d 30 90 d2 3c 49 d5 17 3e
       -0.073961124 0.09824561 0.02570352 0.14827456
000290 14 50 1b 3e ed 5f 13 3e aa 6a 32 3b e7 a8 31 3b
       0.15167266 0.14392062 0.0027224221 0.002710873
0002a0 c2 15 b0 3d d5 1a 39 3d 4d 00 0d 3d 6e c5 91 bd
       0.085979 0.045191605 0.034424115 -0.07117735
0002b0 44 8f 02 3d d7 98 60 bc 12 a1 8d bd 8b f1 2d bd
       0.03187491 -0.013708315 -0.06915487 -0.04246668
0002c0 4d 1a 7e 3d a9 16 2f bd c2 be 90 bd b2 7c 3e be
       0.0620368 -0.04274622 -0.07067634 -0.18602255
0002d0 97 5b b0 3d ff 7b ca 3c 41 6c 23 bd d3 ed c7 3d
       0.086112194 0.02471733 -0.03989816 0.09762158
0002e0 87 68 36 be 0b ec 17 be f1 4f 5d bd 99 e4 09 3e
       -0.17813312 -0.14836137 -0.054031316 0.1346611
0002f0 31 91 bc 3d 1d ae 16 3e 50 26 b1 bd ff 20 1c 3e
       0.092073806 0.14714856 -0.08649886 0.15246962
000300 4a d1 2a be bf 80 c4 bd 05 45 09 be 03 d0 2d be
       -0.166814 -0.09594869 -0.13405235 -0.16973881
000310 cf 8a 0d 3e 8a 6c b9 bd 61 f6 b8 3c 83 c9 93 3d
       0.13822483 -0.09053905 0.02257842 0.0721617
000320 70 2d be 3b b9 16 42 3e 2d 3f 8c bb 39 7a 22 bd
       0.0058037564 0.1895398 -0.004279992 -0.03966734
000330 e1 d6 5f 3c ba d2 2c 3e 2a 34 b6 bc e1 57 03 3e
       0.013662071 0.16877261 -0.02224167 0.12826492
000340 26 49 05 be 27 41 57 3d 09 4e 04 be 94 5f af bd
       -0.13016185 0.05255237 -0.12920393 -0.08563152
000350 f8 c3 02 be 3f 19 2f 3e 96 43 23 be 52 26 46 3d
       -0.12770069 0.17099474 -0.1594375 0.04837639
000360 61 5b 0e 3c 5a e4 eb 3d 2a 8a 37 be 21 7e 59 bd
       0.008688779 0.11518164 -0.17923799 -0.0530988
000370 2d bc ea 3d e0 40 46 3e 7c b6 eb bd 4f 94 c7 bd
       0.11461673 0.19360685 -0.115094155 -0.097450845
000380 04 0c e3 3d b4 0f 24 3e 47 d7 35 3e f6 ab e0 bd
       0.11086276 0.16021615 0.17757903 -0.10970299
000390 1a 00 24 bd 1f b7 1e be 4a 4d 6f 3c c9 f7 57 3d
       -0.04003916 -0.15499543 0.0146058295 0.05272654
0003a0 04 f1 2b be a6 2d 05 3e dc 2d 00 3c eb e7 d1 bd
       -0.16791159 0.13005695 0.007823434 -0.10249313
0003b0 ee 33 47 3e 36 5c b4 bb 76 39 17 be 0b 1f b3 3d
       0.19453403 -0.0055041565 -0.14768013 0.08746155
0003c0 96 a2 a0 bd 39 e4 52 bd 94 79 cc 3d 29 5c 39 bd
       -0.07843511 -0.05148718 0.09984127 -0.045253906
0003d0 ba b3 86 3d 86 25 fd bd 97 ec 8e bd c8 7f 3f be
       0.06577249 -0.12360673 -0.0697872 -0.18701088
0003e0 53 dc 2d 3e 49 60 aa bb 36 94 6f 3d d8 51 dc 3c
       0.16978578 -0.0051994664 0.058490954 0.026894495
0003f0 7a ce 9f bc 0a 32 94 3d 1b e8 99 bd 72 27 0a bd
       -0.019507635 0.07236107 -0.07514974 -0.033729024

GAT_layers.0.GAT_heads.0.f.bias f4 [32]
000000 89 6a 68 bd c4 98 79 3d 1f 2b c6 3c 68 2f 5c bc
       -0.056742225 0.060936704 0.024190484 -0.013439037
000010 92 07 a1 3c 85 23 2c 3d 44 1e 87 bc 91 49 86 3d
       0.01965693 0.04202606 -0.016493924 0.065570004
000020 cd 62 b4 3d f8 36 21 bc c2 68 f1 bc 9c d6 0b bd
       0.08807907 -0.009839766 -0.029468898 -0.034140214
000030 8d f4 c0 3c 86 35 3e 3d 98 63 7c 3d 75 44 ca bc
       0.02355411 0.046437763 0.061618418 -0.024690846
000040 fe 43 40 bd c4 93 97 bc 67 6f d1 bd 61 a6 c8 bc
       -0.046939842 -0.018503077 -0.102263264 -0.024493398
000050 ca 60 e6 3c 8e 66 cb bb 64 ad 5a 3d 87 62 1e 3c
       0.028122324 -0.006207294 0.053388014 0.009667045
000060 44 e6 9c bd ef b0 a5 bd 99 90 93 bd d4 b5 3f 3d
       -0.07661107 -0.08090388 -0.07205314 0.046804264
000070 07 2b 76 bd 90 3c d0 bc ef 91 a3 3d ca 2e 97 bd
       -0.060099628 -0.025419503 0.07986819 -0.07381971

GAT_layers.0.GAT_heads.0.w.weight f4 [1, 124]
000000 78 10 eb 3d 97 9e 52 be 9f 10 30 be db 30 c9 bd
       0.114777505 -0.2056831 -0.1719384 -0.098237716
000010 cf aa 9c 3d f6 55 27 3e 42 8d 39 bd f6 f1 e8 3d
       0.07649767 0.16341385 -0.04530073 0.113742754
000020 65 42 fb 3d 0a 3b ad bd 90 f8 de 3c 0e 06 82 3d
       0.12268523 -0.084585264 0.027218133 0.06348811
000030 fe a8 c9 3c a6 88 43 bd f5 cd ac 3c b4 02 4b 3e
       0.024616715 -0.04773774 0.021094302 0.1982525
000040 61 28 1a be d6 02 1e be b0 99 b2 bd 70 0b a2 bc
       -0.15054466 -0.1543077 -0.0872072 -0.019780844
000050 0f f5 3a 3d 86 3c 36 3e 06 28 90 bd 9e 9f 62 be
       0.045643862 0.17796525 -0.07038884 -0.22131202
000060 b8 1f 4f 3e 2f dd 2e 3e 7d f5 ba bd 9b 3f 84 bd
       0.20226943 0.17076562 -0.091288544 -0.06457444
000070 c2 13 58 be 1a 0f 12 be 9e 48 2a 3d 99 a1 ad 3d
       -0.21101287 -0.14263573 0.04157316 0.08478088
000080 72 fd 73 3d b1 5e a1 bd 26 6d cd bd 94 e4 63 3d
       0.059567876 -0.07879389 -0.10030584 0.05563791
000090 66 5b 30 3d b0 16 fd bd df fb 01 be a9 8a 28 be
       0.043055914 -0.12357843 -0.12693737 -0.16459145
0000a0 43 1a 08 3e 1d 93 c1 bd 19 8d 5b 3e 5b 64 4e bd
       0.13291268 -0.09451888 0.21440543 -0.050388675
0000b0 68 d1 86 bd ad ef d4 bd bd 42 12 be ea a5 5c 3e
       -0.0658291 -0.10397277 -0.14283271 0.21547666
0000c0 17 2d 2e 3e 84 8f 3e be a8 96 03 be 33 74 4c be
       0.17009388 -0.18609434 -0.1285044 -0.19966201
0000d0 09 39 00 3d 41 7d e9 3d 06 bf 1a 3e 9e 11 e1 bd
       0.031304393 0.114008434 0.15111932 -0.10989688
0000e0 68 ed 3f 3e 8b 4d e8 bd 44 13 55 be 82 8d 5b bd
       0.18742907 -0.11342915 -0.2080813 -0.05360175
0000f0 ff 0c 1a 3e 8d 08 01 bd 6d eb 3e bd 8f a4 59 be
       0.1504402 -0.031502295 -0.04661124 -0.2125418
000100 5f e0 58 3e cd 1e 4e 3d 1a 76 8e bc 5f d7 26 be
       0.21179341 0.050322343 -0.0173903 -0.16293095
000110 6b f0 15 be f3 ff 24 3e bc 50 e2 bd cf cf 25 be
       -0.14642493 0.16113262 -0.11050555 -0.16192554
000120 9e b9 d0 bd e9 e8 03 3d ae 69 15 bc dd c0 28 3c
       -0.10191654 0.032204542 -0.009119434 0.010299888
000130 36 90 34 be 85 e4 2f be b7 83 22 3e 1b 77 86 3d
       -0.17633137 -0.17177017 0.15870558 0.06565686
000140 ff 8a 12 bb a7 6e 4d 3d 64 98 49 be a9 cf 4d 3b
       -0.002236068 0.050154354 -0.19687039 0.0031404293
000150 70 54 4e 3d 71 a4 30 be 4b 4d df bc ae ca 0c bc
       0.050373495 -0.1725023 -0.027258536 -0.0085932445
000160 d6 5b f5 bb 8c de b6 3d 86 2a 92 bd fe 8f 97 bd
       -0.0074877543 0.08929166 -0.07137017 -0.07400511
000170 25 ed 08 3e 74 2c 21 be 37 59 ed bd fd 3f 03 be
       0.13371713 -0.15739614 -0.11589282 -0.12817378
000180 45 1f 6b bd 8a 0e 52 3a 22 57 ef bd e7 96 3a be
       -0.057402868 0.0008013031 -0.11686541 -0.18221627
000190 00 9c 52 3d fc 0d 28 be 6f 4e ce bd ef 54 0f be
       0.051418304 -0.16411585 -0.10073554 -0.13997243
0001a0 db 49 c6 bd b4 a1 47 3e 4f a3 16 3d b0 29 07 be
       -0.096820556 0.19495279 0.036776837 -0.13199496
0001b0 4c fc 15 be 6f aa 3c be dc bd d4 bd b9 48 78 bd
       -0.14647025 -0.1842439 -0.10387775 -0.06061623
0001c0 cd f3 61 3d a9 47 61 be 5e d9 1e be 36 fa 37 3d
       0.055164147 -0.21999992 -0.15512607 0.044916354
0001d0 d6 9b 66 be d4 e3 ad 3c c2 a5 bd 3d 19 52 a3 bd
       -0.22520384 0.021226801 0.092601314 -0.07974643
0001e0 45 3d 4e 3e 97 1e 0f 3e 18 7f 80 3d dc a9 b8 bd
       0.2014056 0.13976513 0.06274241 -0.09016773

GAT_layers.0.GAT_heads.1.f.weight f4 [32, 124]
000000 c7 e7 8c 3d 97 88 2c 3e 27 e4 31 bd 91 94 77 bd
       0.068801455 0.1684898 -0.043430474 -0.06044442
000010 cb 0e aa bd 17 a6 ef bd c7 02 08 3e 1d 86 f4 bc
       -0.08303603 -0.11701601 0.1328231 -0.029849106
000020 c4 43 c4 3d c5 33 ac ba 45 9e c8 bd e6 6d a8 bd
       0.09583238 -0.0013137987 -0.097958125 -0.082240865
000030 1f 21 98 bd b1 ed 40 3d 6c 0b 06 bd 85 ae 7a 3d
       -0.07428192 0.04710168 -0.032725736 0.06120159
000040 3d 0d 54 3d c6 4d 14 3e e5 b8 d2 bd c0 56 28 be
       0.051770438 0.14482793 -0.10289172 -0.16439342
000050 67 3b 29 be 7f 5c 42 be d8 0a 25 3e 2d 18 47 3e
       -0.16526566 -0.18980597 0.16117418 0.19442816
000060 8b 07 28 be 4a 45 97 bc ea 45 11 be 3c c5 47 be
       -0.16409127 -0.018465657 -0.14186826 -0.19508833
000070 93 f1 ac 3d 1e 96 1d be c7 7f bd bd d4 46 7b 3d
       0.08444514 -0.15389296 -0.09252887 0.061346844
000080 a1 95 05 3e 49 77 06 bd d4 f6 b0 ba 7c 58 7c 3d
       0.1304536 -0.032828603 -0.0013501295 0.061607823
000090 96 a8 a3 3d 1c a6 ca 3d 0e 19 20 be 56 48 c4 bd
       0.079911396 0.09894964 -0.15634558 -0.095841095
0000a0 fa 70 37 be 66 91 d4 3d e4 7e 91 bd e2 33 72 bd
       -0.17914191 0.10379295 -0.071042806 -0.05913151
0000b0 7a 31 27 be 8f d2 b0 3d fb 64 38 be 19 35 d3 3d
       -0.16327468 0.08633911 -0.18007271 0.10312862
0000c0 ed 0d e5 bd 64 61 ef bb b0 48 07 be 77 17 80 bd
       -0.11184297 -0.007305311 -0.13211322 -0.062544756
0000d0 aa 6e 45 3e 8a e9 2b 3e 1a 98 60 bd e9 c9 36 3e
       0.19280496 0.16788307 -0.054832555 0.1785046
0000e0 f6 03 ab bd 5d 6b a6 bd 7b f6 26 3d 21 2d f0 bd
       -0.08350365 -0.08125947 0.040762406 -0.11727358
0000f0 db 97 f3 bd a7 bb 32 be 65 8e ab 3d e3 7c 69 3d
       -0.118941985 -0.17454396 0.08376769 0.057003867
000100 0a 7f d7 bd da 04 24 be 1f 81 11 bd 4a 35 8d 3d
       -0.10522278 -0.16017476 -0.03552353 0.0689493
000110 1b cc 35 3e e7 e5 3b 3e 7a 71 c5 bd ce d6 0c 3e
       0.17753641 0.1834942 -0.096407846 0.13753816
000120 af 5a 15 be b4 7f 5a bd a4 9d 3f be be ba 25 be
       -0.14585374 -0.053344443 -0.18712479 -0.16184518
000130 e7 29 b3 3d 5d 49 2a be 7c b6 47 3e 1f 15 08 be
       0.087482266 -0.16629548 0.19503206 -0.13289307
000140 07 01 a3 bd 2d c6 07 3e dd e9 2c 3e 88 b0 3c bd
       -0.0795918 0.13259192 0.16886087 -0.04606679
000150 8c 97 a3 3d ec 38 ee 3d 73 33 74 bd d0 d6 80 bd
       0.0798789 0.11631951 -0.05961938 -0.06290972
000160 fc c2 01 be 92 e2 6d bc 18 ab e1 bd f4 3b 43 bd
       -0.12672037 -0.014519351 -0.11018962 -0.047664598
000170 aa f2 8f 3d 01 c5 14 be e5 cc 8c 3d 3a 60 36 3e
       0.07028706 -0.14528276 0.06875018 0.17810145
000180 05 80 2f 3e a6 bf a2 3c 3a be 44 be d5 2f 18 3e
       0.1713868 0.019866776 -0.1921319 0.14861996
000190 48 0c 62 3c 59 5a 3b be aa 39 25 bd f6 a1 3f 3e
       0.013796873 -0.18296184 -0.040338196 0.18714127
0001a0 23 64 b3 3d 0c f0 9f 3c 68 57 0e bd 12 78 15 bd
       0.08759334 0.019523643 -0.034751326 -0.03649146
0001b0 09 60 28 3e 95 37 32 3e fb 00 e7 3d 8d 05 97 b9
       0.16442885 0.17404015 0.11279484 -0.000288051
0001c0 9c 6b 52 3c 14 1e 97 bd 26 b6 40 3e 28 56 20 3e
       0.012843039 -0.07378784 0.18819484 0.15657866
0001d0 09 96 1c 3e 90 6f 53 3d 33 5a 5a 3c d2 f8 45 3c
       0.15291609 0.051620066 0.013327169 0.012083249
0001e0 9c 75 3e bb 37 b0 68 bd db fb 09 3e d2 6a e4 3c
       -0.00290618 -0.056808677 0.13474981 0.027882967
0001f0 2f 7d a4 bd 4b 00 ed bd 10 da 46 be 65 fb d5 bd
       -0.080316894 -0.115723215 -0.19419122 -0.1044834
000200 9f ad 14 be 9e c0 aa bd 70 95 4e 3d 6f da 90 3d
       -0.14519356 -0.0833752 0.050435483 0.07072913
000210 85 a4 67 3d 64 55 02 3d 36 da 14 3d 7e e5 ed bd
       0.056553382 0.031819716 0.036340915 -0.11616038
000220 70 5b 90 3d ca 3b 27 be 8f 33 b0 3c ac 88 b6 bd
       0.0704869 -0.16331401 0.02150896 -0.08912787
000230 c3 43 57 bd 3d 13 2d be 18 96 8d bd 01 bb 99 3d
       -0.052554857 -0.1690187 -0.06913394 0.07506371
000240 78 59 41 3d 55 9b ce 3d 8b df 50 3d 01 61 50 be
       0.047204465 0.10088221 0.050994437 -0.20349504
000250 b5 62 bc bc 93 20 ea ba 6b 6b 37 3e 57 f1 03 be
       -0.022996286 -0.0017862491 0.1791207 -0.12885033
000260 44 77 15 3e 7e 95 d2 bd 55 ab 26 3d b0 14 11 be
       0.14596277 -0.102824196 0.04069074 -0.14168048
000270 7f e8 3b 3e f0 f2 c3 3c a2 fd e5 3d 0d f3 f8 3d
       0.18350409 0.023919553 0.11230017 0.12155733
000280 64 66 27 bd ae 24 22 3e 03 9b e6 bd c1 76 39 be
       -0.04086913 0.15834305 -0.11260035 -0.18111707
000290 d5 a7 09 be 2a 2b d0 3d 9c cb c8 3a 6b b5 92 3b
       -0.13442929 0.10164483 0.0015319469 0.004477193
0002a0 3d ee a2 bd 9b ad f4 bd 55 7d 60 3d 58 67 98 ba
       -0.079555966 -0.11947175 0.054807026 -0.0011627479
0002b0 9a 49 14 be 6d 45 e9 bd 17 f0 83 bd 29 85 34 bd
       -0.14481202 -0.11390195 -0.06442278 -0.044072304
0002c0 e5 c9 0d 3e 81 de b7 bd 02 22 38 3d 49 e7 0f 3e
       0.13846548 -0.08977986 0.044954307 0.14053072
0002d0 3e c5 2c 3e b7 ff 31 3e ca 5e 76 bc dc 9a 83 bd
       0.16872117 0.17382704 -0.015037248 -0.064260215
0002e0 7d 75 4c be e3 59 b3 3d 4b a2 23 3e 30 16 6f bc
       -0.19966693 0.08757379 0.15979879 -0.014592692
0002f0 b4 16 02 3e 37 7e bb 3d c1 a1 a5 bd c9 80 25 3e
       0.12703973 0.09154933 -0.08087493 0.16162409
000300 0e 59 1c be 6f f8 34 3e 84 80 00 be f3 c2 d8 bd
       -0.15268347 0.17672895 -0.12549025 -0.105840586
000310 0b f9 06 bd a3 69 20 be 71 3d b1 3d 24 01 fb bd
       -0.03295235 -0.15665297 0.08654297 -0.12256077
000320 b8 00 81 bd c6 48 2d 3d 01 50 17 3e 61 35 d0 bc
       -0.06298965 0.04230573 0.14776613 -0.025416078
000330 cb f4 09 be c9 57 05 3e a0 a5 1a 3e 52 9a e4 3d
       -0.13472287 0.13021769 0.15102243 0.11162247
000340 11 d9 86 3d 54 5e 80 3d cb b8 bd bd 9d e3 88 bd
       0.06584371 0.06267992 -0.09263762 -0.06684039
000350 15 b8 1e be 68 3e be 3d ca 17 be bd 2c a7 4e be
       -0.15499909 0.09289247 -0.09281881 -0.20180959
000360 17 59 2c be 81 28 1c 3e 9e 1d d2 bc a8 d6 bc bd
       -0.1683086 0.15249826 -0.025648888 -0.0922063
000370 6c 15 f2 bd e1 e8 8b 3c 19 88 57 bb 71 63 2a be
       -0.11820492 0.017078819 -0.0032887517 -0.16639496
000380 09 58 2e 3e e7 a6 e8 3c 91 be d2 3d e2 7a 7d 3d
       0.1702577 0.028399898 0.10290254 0.06188477
000390 7f e2 1b 3d 3d 5a 3a 3e 9b c6 f3 3d 7f ba bc 3d
       0.0380578 0.18198486 0.11903115 0.09215259
0003a0 5d a5 f3 bb e7 59 1b 3e a6 fb 39 bd a1 03 4d be
       -0.0074354843 0.15171014 -0.045406006 -0.20020916
0003b0 49 06 fc bb ea c2 d1 3d 97 d9 a7 bd 7f 53 ca bd
       -0.007691179 0.10242255 -0.08195799 -0.09879207
0003c0 66 58 7a bd 4c be ed 3c 40 86 52 be 63 4e 68 bd
       -0.06111946 0.029021405 -0.20559025 -0.05671538
0003d0 97 a2 81 3c b5 60 d7 bd 7b ee 49 be a8 0f 4c bd
       0.0158246 -0.10516492 -0.1971988 -0.04981962
0003e0 ee 83 14 3d 1f b0 24 3e eb a9 88 3a 0c 54 f7 3d
       0.03625863 0.1608281 0.0010426616 0.120765775
0003f0 6c f7 3f be e2 a5 ea 3c eb d7 96 bb 25 a1 2e 3e
       -0.18746728 0.028643552 -0.004603376 0.1705366

GAT_layers.0.GAT_heads.1.f.bias f4 [32]
000000 be ce 23 bc f2 23 17 3d 40 bf 0c 3c bd 25 08 bc
       -0.009998022 0.036899514 0.008590519 -0.008309779
000010 c6 09 9d bd 14 08 2f bd 34 ac 5b 3d 01 86 1d 3d
       -0.0766788 -0.042732313 0.053631023 0.038457874
000020 74 c5 57 bd 79 86 b0 3d f6 e9 ea 3a 80 4f cb 3d
       -0.05267854 0.086193986 0.0017922509 0.09927273
000030 a3 87 89 bc e3 d5 72 bb 60 da bf 3d c5 c2 52 bd
       -0.01678831 -0.0037053756 0.093678236 -0.051455278
000040 75 3f d4 3c ba 45 07 bd 5f 56 d8 bc 40 40 99 3c
       0.025909165 -0.03302548 -0.026408372 0.018707395
000050 0a 88 54 bd 49 dd 2f 3d d7 72 77 bd 96 3f ca bd
       -0.05188755 0.042935643 -0.060412254 -0.09875409
000060 fe 5c 45 3c 2a 5e 23 3c cf 4a ce bd 0c e6 96 ba
       0.012046097 0.009971181 -0.10072862 -0.0011512651
000070 5e ff 13 3d 34 ae 90 3c ec 4c 2a 3d 67 1e 95 3d
       0.03613221 0.017661192 0.041577265 0.072811894

GAT_layers.0.GAT_heads.1.w.weight f4 [1, 124]
000000 78 78 3e 3e bf 0a c3 bd 53 0f 77 bc c0 73 23 be
       0.18600643 -0.09523534 -0.015079337 -0.15962124
000010 92 42 44 3e 55 25 08 be 11 11 df bd d0 2c a4 bd
       0.1916602 -0.13295491 -0.10891927 -0.0801636
000020 17 01 18 3e 27 a0 30 3e 66 11 bf 3c 8c 08 5e 3e
       0.14844166 0.17248593 0.023323726 0.21682948
000030 91 b1 41 3e 50 df 55 be d6 2d f1 bc 10 d6 13 3e
       0.18915392 -0.20885968 -0.029440802 0.14437127
000040 72 21 31 be 9e b9 64 3c 5d bf 17 be 4e fc 1b 3e
       -0.17297915 0.01396027 -0.14819093 0.15232965
000050 cc e4 f9 3d 9b ee 50 3e 20 29 bc 3d c5 0c e0 3d
       0.12201843 0.20403521 0.091875315 0.109399356
000060 c8 80 c8 3d 50 67 5b be 8e b1 42 be 2a b8 f5 3d
       0.09790188 -0.2142613 -0.19013044 0.11998017
000070 43 fd ed 3d 1c c4 58 be 86 52 0b 3e 02 7c 0a 3e
       0.116205715 -0.2116856 0.13605699 0.13523868
000080 32 1f c9 3d db 5e f4 bb d5 2e 0c 3e a0 5b 5c 3e
       0.09820403 -0.0074575967 0.1368974 0.21519327
000090 d4 ef 2d 3e fa e3 51 be d2 db ac 3d 77 bc e3 3c
       0.16986018 -0.20497122 0.08440365 0.027799828
0000a0 cd a4 e3 bd 74 80 4b be 6a 0c 09 3e b4 08 3c 3e
       -0.11115418 -0.1987322 0.13383642 0.18362695
0000b0 bd 58 e6 bd a6 60 ea bc 38 42 5d 3e 8a f4 2a bd
       -0.11247394 -0.028610539 0.21607292 -0.041737117
0000c0 92 5e 8f 3d 56 84 85 bd 75 f8 e6 bd c2 2b 84 bd
       0.0700046 -0.06519382 -0.11277858 -0.06453659
0000d0 38 29 e6 3d c8 f7 1c be 75 01 e6 bd b6 b9 20 3c
       0.112383306 -0.15328896 -0.11230747 0.009809902
0000e0 fe fe 32 3d d1 e6 3a be 67 2b d4 bd d6 2f 88 bd
       0.04370021 -0.18252112 -0.10359841 -0.06649749
0000f0 df 47 51 be 6d 49 25 3c 6b 0c 8c bd 26 1d 2f 3e
       -0.20437573 0.010088307 -0.06838306 0.17100963
000100 b5 73 fc bd d8 37 8b 3d 98 0b 97 3c 6e 70 17 3e
       -0.12326757 0.06797761 0.018438146 0.14788982
000110 a0 a3 fc 3d 34 52 a2 bb 5f 70 03 be 0d 5c c6 bd
       0.123358965 -0.004953647 -0.12835835 -0.09685526
000120 b3 5d b4 3d 41 5e 24 be f9 75 17 be 94 f4 2c be
       0.08806934 -0.1605158 -0.14791097 -0.16890174
000130 b4 ba 0f 3e 00 5b 83 3d f1 5e 0c bc d0 e7 bd bd
       0.14036065 0.06413841 -0.008567558 -0.0927273
000140 b9 94 91 bb 5a 2d 49 3d 1c a1 24 3e ae df 34 3b
       -0.004442778 0.049115516 0.16077083 0.0027599144
000150 44 81 04 3e fa f7 01 3e ec 35 1b 3d f7 20 69 3d
       0.12939936 0.12692252 0.03789322 0.056916203
000160 38 c0 86 3d 4c 95 09 3e 21 9c c8 bd f6 7f 64 be
       0.065796316 0.13435858 -0.09795404 -0.22314438
000170 03 a0 5b bd 6a 44 d2 3d ad b5 5f bd af 62 3c 3c
       -0.053619396 0.10266955 -0.05461662 0.011498137
000180 be f0 ba 3d 18 39 07 bd 61 21 51 be 13 23 1c 3e
       0.09127949 -0.033013433 -0.2042289 0.15247755
000190 13 dc 15 bd ea 88 56 be db 90 99 bd 8d ba 36 be
       -0.036586832 -0.20950666 -0.07498332 -0.17844601
0001a0 62 03 38 3e 47 69 ef bd 37 ee ab 3d 90 18 07 3e
       0.1797004 -0.11690002 0.08395045 0.13192964
0001b0 fb 19 4a 3d 6c 75 30 3e d3 33 37 be 60 ec fd 3d
       0.049341183 0.17232293 -0.17890863 0.123986006
0001c0 9a ba 05 3d 9c 3e de 3d ac 61 52 be be e0 4a 3d
       0.03264866 0.108517855 -0.20545071 0.049530737
0001d0 78 86 72 bd b0 05 87 bb 61 0c 04 3b f7 6b 60 be
       -0.05921027 -0.004120551 0.002014898 -0.21916185
0001e0 a2 6c 11 3e a9 a6 1a 3c d9 cd ce 3d 2d 32 fb 3c
       0.14201596 0.009439149 0.10097856 0.030663574

GAT_layers.1.GAT_heads.0.f.weight f4 [64, 128]
000000 6b c0 e6 3d 5e 4f b2 3d 23 2c 16 bd 0e 86 93 bd
       0.112671696 0.08706544 -0.036663186 -0.07203303
000010 10 15 19 3e 51 38 19 be 16 e1 f5 bd b6 38 37 3d
       0.14949441 -0.14962889 -0.12005822 0.04473182
000020 47 b6 c2 bd 35 07 08 be 77 cd 62 3d 82 7a 22 be
       -0.09507423 -0.13284 0.055371728 -0.15867046
000030 d9 95 16 bd d4 8c 30 be de 5c 58 bd 79 a3 a2 bd
       -0.036764 -0.17241222 -0.05282294 -0.07941336
000040 b3 38 07 be c9 0a 9b bc 6b 50 bc bd d7 f8 f3 3d
       -0.13205223 -0.018926041 -0.09195026 0.11912697
000050 81 53 91 bd ad 01 25 3e 99 40 1a 3e 9e 58 17 3e
       -0.07096005 0.1611392 0.15063705 0.14779899
000060 a0 f9 e0 3d bb 80 e9 bc 8d a6 c9 bd 77 53 06 3e
       0.10985112 -0.028503766 -0.0984622 0.13117777
000070 76 d8 3e 3d ae 52 5c bd 78 04 cd 3c ba fe 97 bd
       0.046593152 -0.053789787 0.025026545 -0.07421632
000080 64 4b 60 3d 2f b0 f2 3d 40 fa 10 be d3 00 1b be
       0.054759398 0.118500106 -0.14157963 -0.15137033
000090 2b 57 e6 bd 31 8d 26 be 6c 96 c8 bd 1e 08 d7 bd
       -0.11247095 -0.16264798 -0.09794316 -0.10499595
0000a0 72 c1 32 3e 28 bf 21 bd b7 a0 13 bd 70 73 ad bd
       0.17456606 -0.03948894 -0.03604194 -0.084692836
0000b0 ea d5 8e bd b2 dc 1e 3e 0a 97 0d 3e 74 c6 c6 bc
       -0.069743946 0.15513876 0.13827148 -0.024264552
0000c0 6b 3f 12 3e e1 20 be ba 1b 31 f0 3d fd db 12 be
       0.14282005 -0.0014505648 0.11728116 -0.14341731
0000d0 a0 34 61 bd 10 83 0e 3d b9 ba 31 be 00 ed 03 3e
       -0.054981828 0.03479296 -0.17356385 0.12883377
0000e0 03 a7 d0 bd e8 25 24 be a8 f6 03 be 80 ab f0 bc
       -0.10188105 -0.16030085 -0.1288706 -0.029378653
0000f0 6a 7b 11 3e 6f dc 09 3e c9 80 97 bd c4 bd f5 3d
       0.14207235 0.13462995 -0.07397611 0.119990855
000100 ea a4 0b 3e 03 5e 20 3e 01 a1 6b bd 6f 69 17 3e
       0.13637128 0.15660863 -0.057526592 0.14786313
000110 3b e6 02 3d 02 9e 7a bd 84 f3 38 bd de 1c d5 bd
       0.031957846 -0.061185844 -0.04515411 -0.104058966
000120 47 29 df 3a bc 38 b7 3d 71 42 d5 3d 76 6f 02 bd
       0.0017025851 0.08946368 0.10413063 -0.03184458
000130 71 d6 12 3e f7 ca 49 3d 34 3f 21 3e 30 d9 15 3e
       0.14339615 0.049265828 0.15746766 0.14633632
000140 f4 b7 1e be 61 bd d5 3d 6d 0c 4d bb 02 2f af 3b
       -0.1549986 0.10436512 -0.0031287924 0.00534618
000150 f0 e1 cd 3d 6c d9 40 3d 50 03 0a be d8 d4 cd 3d
       0.1005286 0.04708235 -0.13477826 0.10050362
000160 2f b8 33 be 8b 8f 0f 3d f5 a4 1b 3e 19 5f 02 3e
       -0.17550729 0.035049003 0.15199645 0.1273159
000170 03 44 ab bd 7b 63 30 be 38 0d 1a 3e 2f 18 09 3d
       -0.083625816 -0.17225449 0.15044105 0.03347033
000180 60 c0 0b be 91 1e dc bd 69 94 e4 bd d1 b6 1b be
       -0.13647604 -0.107480176 -0.111611195 -0.15206458
000190 a8 cd eb bd 01 23 82 bd cf 63 16 be 9e da 3c be
       -0.11513835 -0.06354333 -0.14686511 -0.18442771
0001a0 95 f6 03 be 7e 26 ad 3c 99 17 8b bb 43 11 2b be
       -0.12887032 0.021136519 -0.0042447564 -0.16705804
0001b0 15 0d 0d 3e 51 1c 18 3e 2e f8 2f bc 6f ea 33 be
       0.13774522 0.14854552 -0.010740323 -0.17569898
0001c0 2c 23 27 3e 37 7a 21 3e d7 fb 69 3d 92 fa bb bd
       0.16322011 0.15769278 0.05712494 -0.09178652
0001d0 55 ee e7 3d 1e fb b8 3d 3d 9c a7 bd a6 63 29 be
       0.11324755 0.09032272 -0.08184097 -0.16541919
0001e0 50 34 d9 3c e8 90 c5 3d 5b 23 b4 bd 23 37 84 3d
       0.026514202 0.09646779 -0.08795806 0.06455829
0001f0 22 49 80 3c d7 e6 5c bd 4e 1e cc bb 34 bf db bc
       0.015659872 -0.053931084 -0.0062291985 -0.026824571
000200 58 dc 04 3d 00 88 1a 3e a3 db fe bc 3c ec 92 bd
       0.0324367 0.15090942 -0.03111059 -0.071739644
000210 b5 c5 56 3d e3 a5 2d be 8f d1 28 be bc ea e6 bd
       0.052434642 -0.16957812 -0.1648619 -0.11275241
000220 b9 8c 33 be 99 33 02 3d c9 c6 fa bd b1 c7 a4 bb
       -0.1753415 0.03178749 -0.122449465 -0.005028688
000230 46 c4 a5 3d 5a c0 fd 3d 73 06 11 3e 57 69 ed 3d
       0.08094077 0.12390204 0.14162616 0.115923576
000240 2c ee 8f 3d 2e fb d2 bd 5e 94 c2 bd 94 10 f7 bc
       0.070278496 -0.10301815 -0.09500955 -0.030159272
000250 40 1d e9 bd 87 1a 33 3e 2a 2a 01 be 9f 94 cd bd
       -0.11382532 0.17490588 -0.1261374 -0.10038113
000260 99 b7 88 3d a6 18 23 3e 35 62 a9 3d d5 58 29 be
       0.066756435 0.15927371 0.08270685 -0.16537793
000270 3f 56 a0 3d a0 80 05 be 1c e0 f8 3d c6 59 99 bd
       0.0782895 -0.13037348 0.121521205 -0.07487826
000280 1c 67 e0 3d d1 f6 d4 3c 70 94 1e 3e d0 17 06 3e
       0.109571666 0.025996597 0.15486312 0.13095021
000290 2c 32 f2 3c a8 c1 1b 3e 78 ae 04 be ff ab c7 3c
       0.02956494 0.15210593 -0.1295718 0.024374006
0002a0 2b cc 00 be d9 cb f8 3d 85 94 10 be 16 2d cf 3d
       -0.12577884 0.12148256 -0.14119156 0.10116021
0002b0 5c f4 18 be e1 f7 75 bd 2f 35 b6 3c b4 7d 0c bd
       -0.14936966 -0.06005085 0.022242157 -0.034299567
0002c0 90 55 9b 3d 33 8f 30 3e a6 ec a2 3c a2 86 03 be
       0.07584679 0.17242126 0.019888233 -0.12844327
0002d0 c9 68 13 bc 23 b9 07 3e b0 d4 03 be 34 fd c9 3d
       -0.008997151 0.13254218 -0.12874103 0.09862748
0002e0 1c 6a 2e be 8b 0c 32 be de b7 03 be 7c 6b 17 bd
       -0.17032665 -0.17387597 -0.12863109 -0.03696774
0002f0 d8 62 d4 3d f6 e5 01 be 50 d3 87 bc 84 95 e6 3d
       0.103704154 -0.1268538 -0.016580254 0.112589866
000300 4d 27 19 3b 7e 49 87 3d 41 4b 26 be b9 13 2c be
       0.0023369372 0.066058144 -0.16239645 -0.16804399
000310 da 49 e5 bd 65 f0 db bd d9 06 13 3e 8b 39 ce bd
       -0.11195727 -0.10739211 0.14358081 -0.10069569
000320 88 20 8e 3c d4 9e 22 be b0 4d a5 bc e2 85 a7 3d
       0.017349496 -0.158809 -0.020178646 0.08179833
000330 5e a4 9e bd 3a 49 d7 3c 6b ed 96 bc e8 61 a3 bd
       -0.07746194 0.026280034 -0.018423757 -0.079776585
000340 8e e4 c3 bd c3 73 81 bd 75 b7 d5 3c 8d 8a b0 bc
       -0.09565078 -0.06320908 0.026088456 -0.021550441
000350 28 86 b4 3c 35 b9 80 3d e1 63 20 3e d8 03 07 3d
       0.022036627 0.062853254 0.15663101 0.03296265
000360 99 22 1e be 3e 56 32 be 35 d2 d5 bd d0 a6 17 bd
       -0.15442885 -0.17415711 -0.104404844 -0.03702432
000370 cf d5 3a bd d4 92 fe 3d 68 d8 6e 3c dd 52 11 be
       -0.04561406 0.12430349 0.014577962 -0.14191766
000380 96 78 41 ba e5 56 ae bd 94 ff b2 bd 64 a4 c8 bd
       -0.00073803344 -0.085126676 -0.08740154 -0.0979698
000390 54 9c bc 3d 68 ef ea 3c e5 7b ca 3d 73 af 17 be
       0.09209505 0.02867861 0.09886912 -0.14813022
0003a0 2a 71 62 bd e6 62 c3 bd fb 09 f1 bc 89 f4 c3 bd
       -0.055283703 -0.09540348 -0.029423704 -0.09568126
0003b0 fa 88 90 3d 2b 94 ad bd 21 24 20 bd 13 f9 cd 3d
       0.07057376 -0.084755264 -0.039096955 0.10057273
0003c0 4c 68 1b be fd 0c 20 be 6f 18 1b be 61 f4 a3 3d
       -0.15176505 -0.15629955 -0.1514604 0.08005596
0003d0 11 cf a1 3d 62 1e 30 be 43 ec 0f 3e 50 d2 2b be
       0.07900823 -0.1719909 0.1405497 -0.16779447
0003e0 58 63 18 3d 9a 5a 05 be a2 88 20 be 9f 7f a5 3d
       0.037204117 -0.13022843 -0.15677121 0.080809824
0003f0 ee a5 d1 3d e0 95 2d be 5b b2 1e bd 7f 5e dd bd
       0.10236727 -0.16951704 -0.03874431 -0.10809039

GAT_layers.1.GAT_heads.0.f.bias f4 [64]
000000 8d 35 fd 3c 52 e0 81 bd bb 07 94 bc 51 7b ac 3d
       0.030909324 -0.06341614 -0.018070092 0.08421958
000010 f8 6f 93 3d 11 2c 9e 3d bd 78 1c bb 31 f8 1c bd
       0.07199091 0.07723249 -0.0023875677 -0.03832263
000020 4b 01 a7 bd b7 22 06 bd 07 99 ef bc 98 5d 18 3c
       -0.081545435 -0.03274795 -0.029247774 0.009299658
000030 81 91 36 3d f1 04 27 bc 66 59 3d 3d 47 72 1b 3d
       0.044572357 -0.010194049 0.046227835 0.03795078
000040 1d 22 b0 3d 93 2b 41 3d 4a 62 1c 3d 39 17 10 bd
       0.086002566 0.047160696 0.038179673 -0.035178397
000050 49 2c 06 bd ef 17 22 3c 57 ef 51 bc 53 c6 4d 3d
       -0.032757077 0.0098934015 -0.012813411 0.050237965
000060 6f ec 54 3d e4 39 99 bd c1 4e 92 3d 6b a4 2b 3d
       0.051983293 -0.07481745 0.07143927 0.041904848
000070 f9 be 18 3d 16 65 18 3b 51 68 2c bd c1 fe 40 bd
       0.0372915 0.0023253611 -0.04209167 -0.047117952
000080 9b 75 fe 3c b9 66 b1 3d 9e 71 21 bd ea 24 9a 3d
       0.031061938 0.08662171 -0.039414994 0.07526572
000090 f6 2c fd 3c 26 2c 71 bd c3 2e a8 3d 88 89 8e bd
       0.030905228 -0.058879994 0.08212044 -0.06959826
0000a0 36 61 91 bd 8c 2e a4 bd 55 b0 8a 3d 80 fe ab 3c
       -0.0709862 -0.080166906 0.06771914 0.020995378
0000b0 65 52 36 bd af f5 95 bd 27 1f 5e bd 5c 00 1d bd
       -0.04451217 -0.07322251 -0.054228928 -0.03833042
0000c0 c9 a7 00 3d 2f 8a a8 bd a9 c2 d2 bd 1a d2 8a 3d
       0.031410012 -0.082294814 -0.10291035 0.06778355
0000d0 04 82 14 bd 8d 9c bc 3c 42 d7 1a bd 9d d6 62 bd
       -0.036256805 0.023023868 -0.037802942 -0.055380452
0000e0 a5 dc 77 3c 1b a7 9e bd 95 d9 13 3d 7e da 4f 3d
       0.015128289 -0.077467166 0.036096174 0.05074548
0000f0 43 f6 8b 3c 53 b1 89 3c 39 e3 7b 3d fc 9b ef bc
       0.0170852 0.016808188 0.061495993 -0.029249184

GAT_layers.1.GAT_heads.0.w.weight f4 [1, 128]
000000 80 40 2f be e4 e3 2d be 12 7f 24 bd 6f eb 31 3e
       -0.17114449 -0.16981465 -0.040160246 0.17374967
000010 70 22 25 be bd 54 2b 3d ca dc 14 be 5f 50 52 be
       -0.16126418 0.04182886 -0.1453735 -0.20538472
000020 42 d7 de 3c ae 28 3e 3e 3a ec c9 bb 87 6c ae 3c
       0.027202252 0.18570206 -0.0061621936 0.021291984
000030 62 97 87 3d 65 44 3e be 82 b9 93 bd c5 1c ac bd
       0.06620671 -0.18580778 -0.07213117 -0.08403925
000040 38 32 4a 3e 2d 03 41 be 8c 08 42 bd 16 a6 53 3b
       0.1974572 -0.18848868 -0.047371432 0.003229504
000050 65 e6 20 3c d0 3b c1 bd 4d 79 0c be c7 06 0a 3e
       0.009820555 -0.094352365 -0.13718148 0.13479148
000060 db ec 26 3e 3d 25 80 3d 98 06 89 3c 3c 4d 68 3d
       0.1630129 0.06257103 0.016726777 0.05671428
000070 b9 87 4a 3b 30 4a 12 bd 75 44 46 bd d3 54 45 3d
       0.003090365 -0.035715282 -0.04840513 0.048176598
000080 ee 73 d6 3c 50 4c 55 3d 75 e8 e4 3d 90 cd df bd
       0.026178326 0.05207473 0.1117715 -0.1092788
000090 37 2e a8 bd 42 00 9c 3d 6f de 2e be c7 c9 2e 3e
       -0.0821194 0.07617237 -0.17077039 0.1706916
0000a0 be 77 1a 3e 42 e6 26 3e 28 9f 2a be 31 f5 36 3d
       0.1508474 0.16298774 -0.16662276 0.044667426
0000b0 65 e3 0b 3e c5 79 a5 bd 05 d1 4b 3e 92 ca d7 bc
       0.13660963 -0.08079866 0.19903953 -0.02634171
0000c0 80 b7 f2 bd 3a 82 d5 3d a6 19 45 3c b6 25 20 3e
       -0.11851406 0.10425229 0.012030041 0.15639386
0000d0 13 7e 28 be 8a 22 31 bd 45 c5 e6 3d 21 14 39 be
       -0.16454343 -0.04324583 0.11268095 -0.18074085
0000e0 72 9c 55 be 4e 46 3b 3c 37 68 d2 bd af f6 4a be
       -0.2086046 0.011430336 -0.10273784 -0.19820665
0000f0 96 d4 6d bd df 9f 4e 3e 1f 30 dd 3d 9c 0f 0f 3e
       -0.058064066 0.20178173 0.10800194 0.13970798
000100 d3 00 4e 3e d1 3a 54 3d 47 ca 90 bc 3b ab 07 be
       0.20117502 0.051813904 -0.017674578 -0.13248913
000110 22 4e 1b 3d 02 11 02 be fa f7 08 3e d2 9c 7d 3b
       0.03791631 -0.127018 0.13375846 0.0038698209
000120 09 3c 87 3d e7 0f 7e 3d 10 48 10 3e 1b a3 56 3d
       0.06603248 0.062026884 0.1408999 0.052401643
000130 2e 78 a7 bd 39 87 f8 bd 8b 5e 2d 3d d8 dd 0a be
       -0.08177219 -0.12135167 0.04232649 -0.13561189
000140 96 95 93 3c d5 27 22 be c9 06 29 be 4c 60 cd bc
       0.018015664 -0.15835507 -0.16506495 -0.025070332
000150 97 5a c0 3c bf ac 6e bd 3a 9c d2 3c 3f 02 ff bd
       0.023480697 -0.058270212 0.02570926 -0.124516
000160 12 de bf bd 3b ad 4e be 59 e0 d5 3d eb b8 24 3e
       -0.093685284 -0.2018327 0.104431815 0.16086166
000170 57 8d 4f 3e 66 83 4c 3e 48 f8 b8 bc 6b 47 dc bd
       0.2026876 0.19972 -0.022579327 -0.107558094
000180 2d 33 10 be bd a9 1a bd 7c 36 dd bd c6 85 29 3e
       -0.14082022 -0.03775953 -0.10801408 0.16554937
000190 80 c1 0b 3e d3 c7 43 3e dd a6 a6 3d 89 a7 0b 3c
       0.13648033 0.19119196 0.081372954 0.00852383
0001a0 51 59 8e bd 91 be 2d be 04 9b 3d be 5a 1a da 3d
       -0.069506295 -0.16967227 -0.18516165 0.106495574
0001b0 ba 7a 31 be da 69 12 3e 2a d6 fc bd 34 e8 ad bd
       -0.17331973 0.14298192 -0.12345536 -0.08491555
0001c0 33 7c 1e 3e 11 bf 12 be 2c 9c 8c bc 6d 70 d6 bd
       0.15477066 -0.14330699 -0.017164312 -0.10470662
0001d0 77 67 41 3e fe 73 15 3e ed 68 0b be ff 70 16 3d
       0.18887125 0.14595029 -0.13614245 0.036728855
0001e0 b5 39 94 bb 55 76 36 3e 9d b2 f9 3c c8 4a 39 3e
       -0.004523481 0.17818578 0.030480677 0.18094933
0001f0 6e 49 f4 3d 9a c5 bb bd af 22 04 3e ab 53 3f 3e
       0.11928068 -0.09168549 0.12903856 0.1868426

GAT_layers.1.GAT_heads.1.f.weight f4 [64, 128]
000000 9a 23 b4 bd b5 f9 a0 bd 56 df a2 bc 2c a7 c1 3d
       -0.08795853 -0.07860128 -0.019881885 0.09455714
000010 7f 46 a3 3a 77 22 19 bd 54 77 12 be fd 39 17 3e
       0.0012456923 -0.037386384 -0.14303333 0.14768215
000020 42 89 d5 3d dd 42 18 be c2 85 f8 bd c3 e4 1b 3e
       0.104265705 -0.14869256 -0.12134887 0.15223984
000030 93 43 17 3e 26 f6 0f be 3c df c8 bd 82 e8 fe bd
       0.14771871 -0.14058742 -0.098082036 -0.12446691
000040 ae d6 d3 bd f0 2e 09 3e d4 ac 11 be fe b6 7f bd
       -0.10343681 0.13396811 -0.14226085 -0.062430374
000050 1c 5b d1 3c 3c 5e cd bc 83 42 a2 bd 62 2d 36 3d
       0.02555614 -0.025069349 -0.07922842 0.044476874
000060 d4 73 4e 3d f5 f6 9b 3d 77 e0 87 3c 61 d5 a7 3d
       0.05040343 0.07615463 0.016586525 0.08194996
000070 51 d9 ee bd 42 c0 3f 3d 49 1a 53 3c b2 69 0e bb
       -0.116625436 0.04681421 0.012884685 -0.002173048
000080 f7 66 b2 bb 45 4c 02 3e a2 b0 b2 bc 04 07 d0 3d
       -0.0054444033 0.12724407 -0.02181274 0.10157588
000090 b5 72 27 3e 20 d4 f3 3d bc dd e5 bd 4d 39 36 3e
       0.16352351 0.11905694 -0.11223933 0.17795296
0000a0 38 c7 29 3d cb fa 88 3c 06 45 2d 3e f7 b1 6a 3d
       0.041449755 0.01672115 0.16920862 0.057298627
0000b0 6e 9e 2a 3e a8 2c 1d be 68 55 34 3e ba 2d e3 3d
       0.16661999 -0.15349066 0.17610705 0.11092706
0000c0 aa 54 9d 3d 33 ba 0c 3e 9d bf 37 bd 10 60 b9 bd
       0.07682164 0.13742904 -0.04486047 -0.090515256
0000d0 45 1f 06 3d 5d 2a 4c 3d 18 ea 3f 3e 17 ec 48 3d
       0.032744665 0.04984509 0.18741643 0.049053278
0000e0 25 43 95 bd e2 86 0b be 05 44 6d bd 61 04 3c 3e
       -0.072881974 -0.13625672 -0.057926197 0.18361045
0000f0 0f a0 16 be 35 24 27 3e c4 82 0c be 74 27 1e bd
       -0.14709495 0.16322406 -0.13721758 -0.038611844
000100 0f 94 27 bd 8e 9f 6d bd 0e ef 04 be 19 1b b5 3d
       -0.040912684 -0.05801349 -0.12981817 0.08843059
000110 63 75 38 bd 1f 8c 1f 3e 2e 47 fd 3d 1e 92 83 bc
       -0.045033824 0.15580796 0.12367092 -0.016060885
000120 d0 bb 00 3e f4 25 55 bd aa 4c f0 3d 13 aa 15 3e
       0.12571645 -0.052038148 0.117333725 0.1461566
000130 f1 d6 25 3e b0 d6 07 3d fb 0e 07 bd 41 7c d6 bd
       0.16195275 0.033163726 -0.03297327 -0.10472918
000140 9b 0f f7 3c 1b 08 a0 3d 90 49 24 be ac 51 27 be
       0.030158808 0.07814046 -0.16043687 -0.16339749
000150 00 9a 21 3e 10 59 b7 3d 2d 83 c0 3c 64 f4 00 be
       0.15781403 0.08952534 0.02350005 -0.12593228
000160 31 b7 f1 bd 37 73 fb bb dd 6d 85 bd fe e8 10 be
       -0.11802519 -0.007673647 -0.065150954 -0.1415138
000170 9d 9e 16 3e 2b 8d 26 be b9 07 b6 bd 4c e0 26 be
       0.14708944 -0.16264789 -0.08888192 -0.162965
000180 96 91 d7 bd 5e 68 c0 bd 86 e1 89 3b 8e 27 31 3e
       -0.10525815 -0.093949065 0.0042077927 0.17300245
000190 be a9 f5 bd e3 ad 1d be af 5e 06 3e 12 80 c3 bd
       -0.119952664 -0.15398364 0.13122056 -0.09545912
0001a0 60 b2 d5 bc a7 4c 83 3d fd c7 19 3e cb 4b bb bd
       -0.026086032 0.06411105 0.15017696 -0.09145316
0001b0 b4 a8 61 3d 27 64 b3 3c 75 48 ed 3d 0c 28 11 3e
       0.05509253 0.021898342 0.11586086 0.14175433
0001c0 42 b4 9a 3d ad fe b3 bd af 6a c8 bd 78 ff 95 bd
       0.07553913 -0.0878881 -0.09785973 -0.073241174
0001d0 1e 5b c8 bd 27 9a 0f 3e 84 be f7 3d b9 61 e1 bd
       -0.09783004 0.14023648 0.12096885 -0.11004967
0001e0 f0 58 1a 3e 2a 57 b0 bd b9 33 1a be f2 2f 1e 3e
       0.1507299 -0.08610375 -0.15058793 0.15447977
0001f0 66 66 23 be 56 93 88 bd 3f 42 51 3d bb 71 1c 3c
       -0.1595703 -0.06668727 0.051088568 0.0095486
000200 3f 54 34 be 29 57 9e 3c 74 4a 26 be 2b 97 c4 bb
       -0.17610262 0.01932867 -0.16239339 -0.005999466
000210 60 3a 0d be 75 b9 f5 bd 16 94 8d 3d 97 b5 2e bd
       -0.137918 -0.11998264 0.06913011 -0.042653646
000220 f7 23 8c 3d 55 9e 04 be 51 f7 1e 3e 5c 20 9e bd
       0.06842797 -0.12951024 0.15524031 -0.07721016
000230 6c 56 bd bd 49 29 a5 bd a1 d9 1f be 0e 25 fd bc
       -0.09244999 -0.08064515 -0.15610363 -0.030901458
000240 92 44 ae bd 06 f1 f0 3d 04 55 d9 bd 74 13 55 3c
       -0.085091725 0.117647216 -0.106119186 0.013005126
000250 4d c7 5c bd 1f 49 b4 3d e4 77 c5 3d 74 ad d2 bd
       -0.053901006 0.08803009 0.09642008 -0.1028699
000260 09 08 d9 3b 04 65 1d bd ee fe c3 bd 43 c0 50 3d
       0.0066232723 -0.038426414 -0.09570108 0.050964605
000270 38 8f 9b 3c 57 88 df bc 3f d4 5b 3c 85 52 e2 3c
       0.01898919 -0.027286692 0.013417303 0.027627239
000280 05 31 2f be a5 0a 0e 3c bd be e7 3d 29 d5 09 be
       -0.17108543 0.00866953 0.11315677 -0.1346022
000290 7d 17 3c 3d 30 ed 20 3d 30 66 fd 3d ff 0d 64 bd
       0.045920838 0.0392887 0.12373006 -0.05567741
0002a0 a1 fc 25 3e 00 b7 02 be 17 31 22 bd 99 f2 d6 3a
       0.16209652 -0.12765121 -0.039597597 0.0016399204
0002b0 2b 63 7f bb 3b 20 1a 3e 1a 16 39 3d fa b9 23 3d
       -0.003896902 0.15051357 0.045187093 0.039972283
0002c0 c1 a0 f3 3d f4 4e 9c bd 5b 2f ff bb 7b 77 89 3d
       0.11895896 -0.076322466 -0.0077876276 0.06712242
0002d0 92 41 3c 3d e1 a3 57 bd e5 cb 12 3e e7 5a 42 bd
       0.04596097 -0.05264652 0.14335592 -0.047449972
0002e0 67 93 e7 bd ed 99 1a 3a b9 48 93 bd 18 e0 9e bc
       -0.11307412 0.00058975705 -0.07191605 -0.019393966
0002f0 ed 05 03 3e 17 22 c5 3d d8 fc b0 3d 92 d2 77 bd
       0.1279523 0.09625643 0.08641976 -0.06050355
000300 92 53 f4 bc ac 72 33 3d 59 2e 8b bc c5 5b ce bd
       -0.029825006 0.04381053 -0.016989874 -0.100760974
000310 62 c5 a4 bd f3 ff 32 3e c9 7b 2a 3d 16 ed 55 bd
       -0.0804546 0.1748045 0.041621957 -0.052228056
000320 81 77 0a bd d0 bd 98 3c 96 f0 64 3d c2 9c 13 3e
       -0.033805374 0.018645197 0.055893503 0.14415267
000330 4f d1 cd 3d 41 c2 91 3d 62 5c 96 bd 27 e9 24 be
       0.10049688 0.07117129 -0.073418394 -0.16104566
000340 1d 6b af 3c 87 e5 34 bd 49 ed c1 bc c8 28 1e be
       0.02141338 -0.044164207 -0.023672717 -0.15445244
000350 6a 61 71 3c 15 f0 ce bd f0 28 50 3d c4 40 57 bd
       0.014732698 -0.10104386 0.05082029 -0.052552
000360 47 10 15 be df 26 09 3e e0 4e 1f be 0c 3b 77 3d
       -0.1455699 0.13393734 -0.15557432 0.060359046
000370 83 e2 08 be 73 41 31 bd f5 b6 ac bd c0 6a cf bd
       -0.13367657 -0.043275308 -0.08433334 -0.10127783
000380 28 4f 38 bd 46 12 2f 3d 35 0b 28 bc c2 df 1e 3e
       -0.044997364 0.042742036 -0.010256578 0.15515044
000390 f3 01 21 3e 09 f6 03 be 46 4a ce bc 20 db c4 3d
       0.157234 -0.12886824 -0.0251819 0.09612107
0003a0 57 b6 8e bd 94 5b 26 3e c2 be 8a bd 64 c7 67 3d
       -0.06968372 0.16245872 -0.067746654 0.056586638
0003b0 af 0e e7 3c ec 20 29 3d 58 41 2d bc b9 9f 06 be
       0.028205244 0.041291162 -0.010574661 -0.13146867
0003c0 67 31 c0 3d 68 a0 1f be 64 4f c2 bb d0 52 13 be
       0.09384423 -0.15588534 -0.0059298743 -0.14387059
0003d0 cc 67 29 be 08 b3 e3 bd 1c 80 10 3e 03 89 4a 3d
       -0.16543502 -0.11118132 0.1411137 0.04944707
0003e0 c4 83 a0 bd d7 46 46 3d ab cc 24 be fa ac be bc
       -0.07837632 0.048407402 -0.160937 -0.023275841
0003f0 80 21 48 3d 27 4a 4e 3b d9 6f 22 3e f7 23 0f be
       0.048860073 0.0031477304 0.15862979 -0.13978563

GAT_layers.1.GAT_heads.1.f.bias f4 [64]
000000 01 a3 f7 bc 64 2a ac 3d 99 46 9c bb 8c 00 8e 3d
       -0.030229094 0.08406523 -0.004769158 0.06933698
000010 40 6d 2a bd 46 f2 6e bc 65 41 c4 3d 6e 28 1e bd
       -0.041608095 -0.01458413 0.095827855 -0.038612776
000020 dc b5 d1 bc 73 18 09 bd 20 3b 9f bd 13 c2 6a 3d
       -0.025599413 -0.033470582 -0.07774949 0.05731399
000030 05 8e 32 3d a1 ad c7 3c a8 4a 51 bd 16 83 e9 3c
       0.04359247 0.024374785 -0.05109659 0.02850489
000040 f6 41 c7 bd 2d 33 21 bb 1d 89 4c 3d 78 6d 67 bd
       -0.09729378 -0.0024597154 0.04993545 -0.056500882
000050 c4 c4 94 bd 5a c3 81 3b d2 24 8c bb 71 3c 9c bd
       -0.072640926 0.0039600553 -0.0042768503 -0.07628716
000060 4c f9 9d 3d 89 51 88 3d 44 95 7e bd 64 61 8b 3d
       0.07713565 0.066561766 -0.06215407 0.06805685
000070 76 56 08 3d bd 20 b5 bd bb ea 98 3d 26 9a 4e 3d
       0.03328558 -0.08844135 0.07466646 0.050439976
000080 dd 9c dd 3b 2e 53 80 bd e7 88 49 3d 7d 76 b8 bd
       0.0067630843 -0.06265865 0.049202826 -0.09006975
000090 5a df 59 3d f7 2e cd bb b9 b0 b8 bd 04 fa 62 bd
       0.05319152 -0.006261702 -0.09018082 -0.055414215
0000a0 2f 89 71 3d d8 f1 8d bb b1 0c 88 bb 32 24 73 bd
       0.05896872 -0.0043318085 -0.0041519036 -0.05936069
0000b0 ef fb 0d 3c 5d 9d a4 bc db 31 39 3d a9 72 2f 3d
       0.008666023 -0.020094568 0.04521356 0.042833958
0000c0 53 7c 21 3d dd 39 b4 bd 26 ab af 3d 3b 28 92 bd
       0.039425205 -0.08800099 0.08577566 -0.071365796
0000d0 ef ea aa bd ca 1d 5b 3d 7e ca 34 bd 67 2b 73 bc
       -0.08345591 0.053495206 -0.044138424 -0.014841891
0000e0 d7 45 9a 3d a1 be 60 bc d6 79 bd 3d 1f f7 a9 3c
       0.07532852 -0.0137173245 0.09251754 0.02074772
0000f0 f8 01 73 3c fa 11 99 3d 67 8c 68 3c 1c 5f 51 bd
       0.014832012 0.07474132 0.014193631 -0.051116094

GAT_layers.1.GAT_heads.1.w.weight f4 [1, 128]
000000 c3 b6 b8 3d cd a2 78 3d 5b 59 3f be 2d c7 c4 3c
       0.09019234 0.060702134 -0.1868643 0.024020756
000010 ba 65 d5 bd e1 f1 fc 3d 9c d3 1f 3e 26 7a f0 3d
       -0.104197934 0.12350822 0.15608066 0.11742048
000020 13 d3 20 3e a1 80 00 3d da 78 fd 3d 62 cc 15 be
       0.15705518 0.03137267 0.12376566 -0.14628747
000030 db 64 94 bd f1 be 55 bd 61 50 cf bc 9f d9 42 be
       -0.07245799 -0.05218405 -0.025306882 -0.19028328
000040 87 1b ba bd 6c 54 f0 bd a1 aa 83 bb e8 ba 59 3e
       -0.09087282 -0.11734852 -0.0040181433 0.21262705
000050 59 96 92 bb 13 a5 37 be d0 1b 7a 3d 83 7e 1d 3d
       -0.0044734892 -0.17934065 0.06106168 0.03845073
000060 60 5a 12 be 24 67 aa bd af 3a 48 be 29 e4 b1 3d
       -0.14292288 -0.08320454 -0.19553636 0.08686096
000070 46 a5 d5 bc 87 7a d2 bd ec 61 ab 3d bb f3 ea 3d
       -0.026079785 -0.102772765 0.083682865 0.11472269
000080 d6 7c 0b be a7 21 1e 3d 6b 6f b3 3d 56 d8 4a 3e
       -0.1362184 0.038606312 0.08761486 0.19809088
000090 a0 f7 05 be 35 bc 0b be 5b f0 0c 3e ec aa 03 be
       -0.13082743 -0.13646014 0.13763563 -0.1285817
0000a0 45 58 3b 3e 16 96 61 3d bd 1e 38 3e 4e a7 09 be
       0.18295391 0.055074774 0.17980476 -0.13442728
0000b0 b4 ea ec bb 6a 50 12 bd ed cb 42 be 5f 2a 07 bd
       -0.007230127 -0.03572122 -0.19023104 -0.032999393
0000c0 cd 5d 67 bd 82 6f 3b be da e3 99 3d 29 cf fe 3d
       -0.05648594 -0.18304256 0.07514162 0.124418564
0000d0 ea ef 9a 3c 06 25 46 3e 67 1c 82 bc 7d 6c 63 bd
       0.018913228 0.19350061 -0.015882684 -0.055523384
0000e0 7b 39 4b 3e 49 2b a7 bd 66 67 0f be 6b f1 f3 bd
       0.19846146 -0.08162553 -0.14004287 -0.11911281
0000f0 16 49 2d 3e fa 7f 26 3d 92 d1 1c 3e 84 1c 0f be
       0.16922411 0.04064939 0.1531432 -0.13975722
000100 f0 e7 b7 bd 55 1c 02 be d4 6a bd 3d 9c 70 36 3d
       -0.089797854 -0.1270612 0.092488915 0.044540986
000110 13 c2 7d 3d 0b a7 24 be 4a 15 0a bd d1 28 60 3d
       0.06195266 -0.16079347 -0.03371171 0.054726426
000120 60 1c 1a 3e 36 c4 23 be a3 56 89 bd c5 be d3 bd
       0.15049887 -0.15992817 -0.06705978 -0.10339121
000130 d1 8b a0 bd 70 fb 04 3e 1d 1a 81 bd 0e ab 16 3e
       -0.07839168 0.12986541 -0.06303809 0.1471369
000140 de 95 83 3d 9e 58 c5 bd c7 a2 ac 3c 74 93 6e 3d
       0.06425069 -0.09636043 0.021073712 0.05824609
000150 89 64 16 be 43 ce 14 3e 49 49 48 3e b5 61 0a 3d
       -0.14686789 0.14531808 0.19559206 0.033784587
000160 02 c5 0b 3d 87 fe b9 bd 14 b3 78 3d 0e d9 02 be
       0.03412343 -0.0908175 0.060717657 -0.12778112
000170 d1 a3 22 be 26 29 de bd f9 06 32 3e a9 06 29 bd
       -0.15882803 -0.10847692 0.17385472 -0.041266117
000180 36 8b 57 3e fd 7c 30 be aa 66 bc 3d e2 4f cf bd
       0.21049199 -0.17235179 0.09199269 -0.10122658
000190 fb 36 1a 3e 71 03 af 3c b3 83 04 3e a6 ca 43 be
       0.15060036 0.021363946 0.12940864 -0.19120273
0001a0 54 cd 58 3e 21 c7 f5 bc 6b 25 92 bd c5 f2 18 3c
       0.21172076 -0.030002179 -0.07136043 0.0093352245
0001b0 4e 7d 80 3d f1 04 4d 3e 69 0b 4c bd cd 30 40 be
       0.062739 0.20021416 -0.04981557 -0.18768616
0001c0 da d4 41 be ae 60 54 3e ba 4c 69 bd 44 7d f2 bd
       -0.18928853 0.20740005 -0.056957938 -0.11840299
0001d0 c4 a9 4e be 61 08 85 3d 31 2d d5 bd ed a8 28 be
       -0.20181948 0.06495739 -0.1040901 -0.1647069
0001e0 cf 8b 01 3d a4 1e 04 be ac 4d 28 be 0b d0 3a 3e
       0.031627472 -0.12902313 -0.1643588 0.18243425
0001f0 a3 01 d0 bc 10 6a 36 be 77 3c 83 3d f0 c0 9d bc
       -0.025391405 -0.17813897 0.06408017 -0.019257039
